code/baseline/saved/GAMNet_learning_rate_0.001_hidden_size_64_epoch_20_batch_size_32/Epoch_1_JA_0.4384_DDI_0.0299.model (torch, 455805 bytes, 29 tensors)

lab_embeddings f4 [32, 64]
00000000: b900 b73e ffaa 3a3e e617 40bf 4464 d3bf
00000010: 6c39 37bf 8b39 c5bf ec65 9a3f ca60 053f
00000020: 1558 4c3f 4a38 023f 2542 dbbf 5764 adbf
00000030: 5001 0c3f 00f2 e4be dc42 2b3f 3ade f53f
00000040: 50d0 383f 31f5 833e 8dd5 ca3e ddc4 f43e
00000050: b6d9 5c3e 6a2f 41bf 4122 8ebf c6b1 7dbf
00000060: d506 22bf 3047 7abf 21c2 273f cee3 14c0
00000070: 77ef d2be cf2a 4d3f ce02 b03f 36c0 d63e
00000080: a823 0fc0 4bc4 dd3f fcb6 94be 385c f4bf
00000090: 9304 debe 02b9 2bbf f9fc 95bf f434 6bbf
000000a0: 4d14 fe3e e7d6 df3e f5b3 743f 3aa1 babe
000000b0: 04e4 ad3e 526e 733f 2f6c 0f40 473a 093f
000000c0: 836b 91be b83e d5be 5572 5c3e 7d9e fdbe
000000d0: 205e 3bbf cade 243e 5d2b 26bf 074f 483f
000000e0: 43b9 96be ed87 4fbe 968c 2040 c5f1 0dbf
000000f0: ef60 5e3d 5719 d23e 48b4 e73f 18f1 1c3d
00000100: a0a5 0cbe 9e34 15bf a974 ebbe ac05 1bbe
00000110: ecba 493e 7191 fb3e 78b3 f13f 3fbc aa3e
00000120: df2f 82bf 8161 a3bf d866 a4bf fc13 913d
00000130: baa7 bebf bfc4 88bf 9214 5a3f 60f9 6bbf
00000140: 8829 1abe 6574 253f b32e c03f 6876 943f
00000150: 26a6 b43e be02 03bf 2586 1b3e 4d98 0d40
00000160: bcf2 8cbc c3ee 853f 7faf b33e 88a4 6f3f
00000170: 4fcb 553d d2fb ef3f 59ac 5d3f d587 193e
00000180: f41c 50bf a0a1 abbf 02f4 06bf 49ab f03e
00000190: 68cb a23f 9a45 afbe 9ae8 4c3e 9661 a63e
000001a0: 8914 f83e 7f64 93bf fe60 383f 56d6 2f3f
000001b0: 19c7 cc3f fd7b 83be 0285 f8bf ad1f 1bbf
000001c0: f570 303f 425c d1bf 61f6 3a3f 21d4 1d3f
000001d0: 04d0 1c3f ccba f0be a634 9fbf fe92 41bf
000001e0: e829 febf 51c6 5240 783a 153e 55eb b43e
000001f0: 4efd 403f aadc 803f 726f 0dc0 736b aa3f
00000200: 36c6 4fbf c9c3 39be cedc be3f 87fa 5fbe
00000210: 5222 9f3e b6da 86bf 3903 73bf e693 35bf
00000220: c0e9 56bf 35a1 553f c424 42bd 4bc7 953f
00000230: 11af 8abe 8fe4 ee3e a447 e6be 3582 0940
00000240: c04b 4abf ebbc 923e 1630 503f 59fa e9be
00000250: 6130 49bf 6c6a fd3e 5e89 bf3f 91ae c2bd
00000260: e973 a7bf 3cee 21be 0ae5 1bbf c32a 4bbf
00000270: bf51 c63e 0026 56be cfca 30be 163b 513f
00000280: 2631 61bf 44b3 b33f 07e2 a33e 2c7a 003f
00000290: f5d3 433f 03e8 8a3e 0996 06bd 43a8 b83f
000002a0: 20b5 0040 c6a1 4bbe dc7a e23e 0f8a 30be
000002b0: 91a5 ab3f d7f3 77be ad7e cfbe d483 39bf
000002c0: eab6 b2be 8205 9d3e 0513 8cbf af8e d43e
000002d0: 2ec3 b4bf f39b b73e 5030 263d c3c5 dabf
000002e0: 017c a7bd f26b 593f e032 8f3e e6da 46bd
000002f0: 18df ba3e a6ef a9bf a040 70bf c19f f3be
00000300: 9a5e 29bd 2b47 18bf 8d15 6e3f 0517 84bf
00000310: 26c5 b9bd 2d8e 02c0 2a6b b9bf 533d 3c3e
00000320: 881b 863e 6eb8 963f 4dad e8be 7a84 82bf
00000330: 50dc 543f c2f9 f83f d07f 693e f640 bebd
00000340: 6b2d 7a3e 95e9 1c3f 32ae a0be 7613 273d
00000350: 0a42 8c3e 2388 acbf 4997 1dc0 925e c6be
00000360: 5dd3 1fbf add7 8bbd f38a 1040 a585 e3bf
00000370: 1a14 123f ae6a a73c 78d8 90be 82af c53e
00000380: b9c2 823e 1685 9d3f 26a1 783f bce8 a4bf
00000390: d944 063f 3dba 4fbd 0975 f43f f0e0 02c0
000003a0: 3a45 3c3f 5f64 943e a9c0 4dbd dceb c8be
000003b0: dfe5 43bf 8b3d 173f 406a 97bf 0875 5c3f
000003c0: 1a45 22bf 1696 a6bf 21e8 ef3e 7efc 5c3f
000003d0: 0f8c b03f 80d3 eb3e 41ce f3bf 95a7 3f3f
000003e0: 411c 2a3f 9cb4 b83f 3dc4 62bf 14e3 3a3f
000003f0: f5a8 913f f2a4 6cbe 0e49 223f a7d2 0e40
0.3574274 0.18229292 -0.75036466 -1.6514974 -0.71571994 -1.5408186 1.2062354 0.52100813
0.798219 0.5086714 -1.7129561 -1.3546246 0.546895 -0.4471588 0.66898894 1.9208443
0.7219286 0.25773004 0.3961605 0.47806445 0.21567425 -0.75462973 -1.1104203 -0.99099386
-0.63291675 -0.97764874 0.6553059 -2.326404 -0.41198322 0.80143446 1.3750856 0.4194352
-2.2365513 1.7325529 -0.29045856 -1.9090643 -0.43362865 -0.67079175 -1.1717826 -0.91877675
0.49624863 0.43718645 0.9558709 -0.3645113 0.33963025 0.9509021 2.240978 0.5360455
-0.28402337 -0.41649413 0.21527989 -0.4953498 -0.731905 0.16100612 -0.6490992 0.78245586
-0.29438218 -0.20266695 2.5085807 -0.55447036 0.05429166 0.41034958 1.8101892 0.038315862
-0.13735056 -0.5828341 -0.45987442 -0.15138882 0.19700211 0.491344 1.8882895 0.33346745
-1.0170859 -1.2764131 -1.2843885 0.0708389 -1.4894936 -1.0685042 0.8518764 -0.9217739
-0.15054905 0.6463073 1.5014251 1.1598635 0.3528301 -0.5117606 0.15187891 2.2124207
-0.017205589 1.0463489 0.3509483 0.9361043 0.052195843 1.8748724 0.86591107 0.14993222
-0.8129418 -1.3408699 -0.52716076 0.4700568 1.2718325 -0.3423279 0.20010605 0.32496327
0.48453167 -1.1515044 0.72023 0.68686426 1.599826 -0.25680533 -1.9415591 -0.6059521
0.6892236 -1.635628 0.73032194 0.6165181 0.61254907 -0.47017515 -1.2437942 -0.7561492
-1.9856539 3.2933543 0.14573085 0.35335794 0.7538651 1.0067341 -2.209927 1.3314041
-0.8116182 -0.18141092 1.4911134 -0.21872912 0.31080872 -1.0535495 -0.9492679 -0.709288
-0.83950424 0.8344911 -0.047398344 1.1701444 -0.2708669 0.4665875 -0.44976532 2.1485722
-0.79021835 0.28659758 0.81323373 -0.45698813 -0.78589445 0.49495256 1.4963796 -0.09505952
-1.3082248 -0.15813535 -0.6089636 -0.79362124 0.38734242 -0.20912933 -0.17264865 0.81730783
-0.8796562 1.4039083 0.32008383 0.5018642 0.76495296 0.27130136 -0.03285793 1.4426349
2.011055 -0.1988593 0.4423436 -0.17240165 1.3409902 -0.24214111 -0.40526333 -0.7246678
-0.34905177 0.30668265 -1.0943304 0.4151511 -1.4122064 0.35861167 0.04057342 -1.7091602
-0.08177949 0.84930336 0.27968502 -0.0485486 0.36498332 -1.327626 -0.9384861 -0.4758282
-0.041349985 -0.59483594 0.93001634 -1.0319525 -0.09070806 -2.0399277 -1.4485829 0.18382768
0.2619288 1.1775033 -0.45444718 -1.0196679 0.8314867 1.945122 0.22802663 -0.09289734
0.24431388 0.6129392 -0.313829 0.040790044 0.27394134 -1.3479046 -2.4623587 -0.38744026
-0.6243189 -0.06828246 2.2584808 -1.777516 0.5706192 0.020436611 -0.28290153 0.38610464
0.25539187 1.230624 0.97120893 -1.2883525 0.52448803 -0.05071472 1.9098216 -2.044979
0.7354313 0.28982827 -0.050232563 -0.39242446 -0.7652263 0.5907828 -1.18293 0.86116076
-0.6338669 -1.3014553 0.46856788 0.8632277 1.3792742 0.460598 -1.9047319 0.74865085
0.6644936 1.4430118 -0.88580686 0.73002744 1.1379687 -0.23109797 0.6339272 2.2316072

static_ll.0.weight f4 [128, 64]
00000000: b105 dc3d 10a8 87bd d5b8 c9bd 17f1 13be
00000010: a02d 393d e1f9 aebd 19a7 b2bd 0b20 873d
00000020: e3fe 753d e625 8fbd 7832 dabc f38a 67bd
00000030: da00 363e 19d4 a2bd 4399 c3bc d758 eebd
00000040: b0a4 ecbd cb66 ea3d 8c51 94bd 29df 1bbe
00000050: 24b0 cdbb b4d1 f8bc 8c1d 07be 5e31 f0bd
00000060: e0b2 ba3d 789f 9bbc 6bd0 a73d cfee f4bd
00000070: 6dfd 973d 478e b1bd 610f 493d 280f 053e
00000080: 11d2 8a3d 4ca2 b63d b153 bcbc 2856 f8bd
00000090: 5bdf 8a3d 837d 463d 6e8e 993d 9fd0 81bd
000000a0: e0ba 24bd 8667 ba3d deab c73d 27d8 e13c
000000b0: 9d07 6fbd 14c1 903d a7a1 56bd 8066 a5bd
000000c0: ea4c 1cbd a6eb e8bd 5bb5 0f3e 048c 093e
000000d0: 6d45 8b3d 7e2c eabc a0b2 0cbd 1a32 ccbd
000000e0: 7eb0 f2ba fecd 613d 4f4b 9dbd 14b3 ab3c
000000f0: daf4 cbbd 8b90 01be 5fa3 afbd 4e38 513c
00000100: 8b8e 9a3b ba53 063e 86cc a7bd f0f3 f63d
00000110: 191e a2bb 7217 afbd fc5f 153d f2dd b1bd
00000120: 2047 bcbd e1c1 163d 5f56 febc 8188 e83d
00000130: 1ecb dfbc d360 a93b 78a5 923c 8b43 a1bd
00000140: 184d e6bd 3705 a0bd 05b9 47bd f9ae a63d
00000150: c2c9 d33d a8c2 603d b607 943d a5ee 393c
00000160: 007d 983d 1e02 2b3d 09c2 5a3d caf9 0a3e
00000170: cdbb e53d e68d c73d 8e3a 0b3c 44c7 edbd
00000180: ebfb 01be 4358 c2bd 8b1f 903d 9d4c f9bc
00000190: a2d5 7abd 452f c93d 7c6e 98bd 0883 d53d
000001a0: a3de b2bd 5552 cebd 744e fb3d 9ed6 e6bd
000001b0: 8169 cabd 509c 4639 202f 9abc eb9d 35bd
000001c0: d3ae 7dbd 1517 3f3d 413a 103e 1739 043d
000001d0: 0d99 dabd cda7 38bd b90c 98bd 3693 b23c
000001e0: 35c7 26bd 0acf be3d edd9 18bd 86d9 d03d
000001f0: 5755 0fbd 2f2a 2e3d 0ad0 01be b9a0 d63d
00000200: fb8d e23d cc35 e23c 3b57 9ebc a69f 053d
00000210: 9990 7e3d 7a00 0fbe 608a c6bd f4ab 40bd
00000220: 6328 d9bd 3da1 45bd 2b2b 95bd a01f 05be
00000230: 8153 c73c ae2f c8bd dda3 04be 9708 26bc
00000240: 22c1 6abd 65c4 083e a888 6ebd 8b25 f0bd
00000250: 2610 9a3d 1e82 a2ba 25ee dcbb da16 993c
00000260: 6ee2 adbd 4db0 dfbd d1f0 8cbd dd72 5dbd
00000270: a1e4 05be d136 193d 86b3 2d3d 6fc1 f43c
00000280: 9f54 1ebe 84ae 9b3d e1ad a73b d16c 3c3c
00000290: 4106 223d f620 edbb e282 323d d035 82bb
000002a0: 0051 1dbd f487 03be 0256 013e 5e6e 64bd
000002b0: 6ccd 153e 0f19 f43d a9cf fe3d 0841 a1bd
000002c0: 82a6 d5bd d6a0 863c 211f 043e 42e0 7f3d
000002d0: 2bdb 233c 1f00 e53d 29ca b33d 4e31 91bc
000002e0: de13 2a3c 84f9 ccbc a617 b83b 01bb 9bbd
000002f0: 61eb 0e3e ce2a a03d b191 68bb 124e 4cbd
00000300: c583 1bbe 843d 3cbd 30a1 92bd 6989 9cba
00000310: d6be c63d a849 e33d 1ad5 efbd e6c0 a73d
00000320: e352 17bd 37f1 af3d a6fa 8c3d 65ae 8a3c
00000330: 73df a03d c45f 3c3d 1d3b 1e3d 48fa 063d
00000340: e414 f33d 6088 69b8 9a8a 1dbd 421d 883d
00000350: 0a45 e03d c694 993d 866e d3bc dcc5 54bd
00000360: b7d0 a83d b397 0fbd dabb 0dbe 7f22 3b3d
00000370: 91b2 003d e2f3 e6bc 699c 203b 8e27 b53d
00000380: 0e0c d73a 7342 ffbd a0fc 7bbc f6ef cf3c
00000390: 5353 53bd c75d 85bd 4907 10be 0c15 783d
000003a0: 69ab dd3d 2201 0cbe 8d2b bcbd 3cd7 a73d
000003b0: 0c5b 22bd 1f1b 8dbc f31f d53d 0c7e 06be
000003c0: 238d 0b3d aa0b 8d3d bf88 bdbd 550b 88bc
000003d0: 3d5b a03d c94d c6bd 3df2 27bd e221 77bd
000003e0: 3f62 4d3d 7ec1 85bd d8fe b33b 6e02 45bd
000003f0: 1abd 8ebd 04ae a3bd 76d8 8cbb e78b 67bc
0.10743273 -0.06623852 -0.09849707 -0.14447437 0.045209527 -0.08543754 -0.087232776 0.065979086
0.060057532 -0.069896504 -0.026635394 -0.056528997 0.17773762 -0.07950611 -0.023876792 -0.116380386
-0.11554849 0.114453875 -0.07242116 -0.15221848 -0.006277101 -0.030373432 -0.13194865 -0.11728166
0.09116149 -0.018996939 0.081940494 -0.119596116 0.07421384 -0.086697154 0.049086932 0.12994063
0.06778348 0.089176744 -0.022989126 -0.12125808 0.06780883 0.04845954 0.074978694 -0.063386194
-0.04021728 0.09101777 0.09749578 0.02756889 -0.05835687 0.07068077 -0.052400257 -0.08076191
-0.03815929 -0.11373071 0.14034025 0.13432318 0.06800351 -0.028585669 -0.034350038 -0.099704936
-0.0018515734 0.05512809 -0.076803796 0.020959415 -0.09958811 -0.12652795 -0.085760824 0.012769772
0.0047166995 0.13117877 -0.081933066 0.12058246 -0.0049474356 -0.08549394 0.03646849 -0.08684911
-0.091932535 0.03680599 -0.031047044 0.11354161 -0.027318534 0.005169013 0.017901167 -0.07874211
-0.11245173 -0.07813495 -0.048760433 0.08138842 0.103412166 0.05487314 0.07228033 0.011348401
0.07445717 0.041750066 0.053407703 0.1357185 0.11217461 0.09743862 0.008497847 -0.116102725
-0.12693755 -0.09489491 0.07037266 -0.03043204 -0.061238892 0.09823469 -0.07442948 0.10425383
-0.08733871 -0.10074297 0.12270823 -0.11271404 -0.098834045 0.00018940982 -0.0188213 -0.044340055
-0.061934303 0.046652872 0.14084722 0.032281008 -0.10673723 -0.045081902 -0.07424302 0.021798711
-0.040717322 0.09316833 -0.037317205 0.10197739 -0.034993496 0.0425207 -0.12677017 0.10479874
0.11062237 0.027613543 -0.019328704 0.032622956 0.062149618 -0.13965026 -0.09694362 -0.047038987
-0.10603406 -0.048249472 -0.07283624 -0.13000345 0.02433181 -0.09774719 -0.12953134 -0.010133884
-0.057313092 0.13356169 -0.058235794 -0.11725911 0.07522611 -0.0012398397 -0.006742256 0.018687654
-0.08490454 -0.109222986 -0.068818696 -0.05406462 -0.13075496 0.037405793 0.042407535 0.029877393
-0.15461968 0.076016456 0.0051171635 0.011500553 0.039556745 -0.0072365953 0.04358185 -0.0039737
-0.038407326 -0.12844831 0.12630466 -0.055769317 0.14629143 0.11918842 0.12441952 -0.07873732
-0.104321495 0.016434114 0.129025 0.06246973 0.010000984 0.11181664 0.08778793 -0.017723706
0.010380713 -0.025021322 0.0056180535 -0.076040275 0.13956977 0.07820664 -0.003548723 -0.04987914
-0.15186985 -0.045957103 -0.0715965 -0.0011942807 0.09704368 0.11098033 -0.11710568 0.08191089
-0.03694428 0.0859093 0.06883745 0.01692886 0.078551196 0.045989767 0.038630594 0.03295353
0.11869219 -5.5678538e-05 -0.03846226 0.066462055 0.10950668 0.074990794 -0.025809538 -0.051946506
0.08242934 -0.03505678 -0.13841191 0.045687195 0.031420294 -0.028192464 0.002450729 0.08845435
0.0016406791 -0.12463846 -0.015380055 0.025382977 -0.051593136 -0.06512027 -0.14065279 0.060566947
0.108237095 -0.13672307 -0.09187994 0.081953496 -0.03963761 -0.017224846 0.104064845 -0.1313402
0.034070145 0.0688699 -0.09254598 -0.016606966 0.07829902 -0.09682805 -0.0410025 -0.060335048
0.050142523 -0.06531046 0.005493026 -0.04809802 -0.06969662 -0.07992175 -0.004298265 -0.014132476

static_ll.0.bias f4 [128]
00000000: bc16 c83d 74f1 c8bd a002 ecb9 582c a3bd
00000010: f958 e73d b287 ae3d 71dd 97bd 99d2 9a3d
00000020: 4455 a03c a9e4 1b3e 34ff 0a3e 05aa 4abd
00000030: 92a0 31bd bcc3 ab3d 43d8 e43b 7c54 ef3d
00000040: a284 ee3d ba05 cbbd 9901 0f3d b7c4 5e3d
00000050: 7784 a73d 8350 863c f4a5 843d cf1c 0d3e
00000060: ab0b 893d 4145 5c3d 1884 57bd 74f5 d1bd
00000070: 320d 9abd ab81 e23d 1d8c d7bc 0e34 a0bd
00000080: 8c25 aabc 93e8 a83d 00bd 013e 54dc a4bd
00000090: cca2 e73d e893 f43d 17ac 023c 468f 603d
000000a0: c947 253c 861e 5dbd 204b 32bd 3acf b4bd
000000b0: 3ad0 20bc 0ed0 fdbc 74d0 3fbd 460d 6ebd
000000c0: 80aa 2dbd 34d6 d03d b9e6 c93d 10fd 943b
000000d0: 2758 ca3c 4bcc ea3d 2e05 51bd 33c4 8c3d
000000e0: 5f93 ff3d 1dde de3d 7017 b9bd ef32 96bd
000000f0: 06af b3bc efeb f23d 8ad6 94bd aa0c 8dbd
00000100: e523 7abd 800f 7bbd 1221 01ba 9bbd 86bd
00000110: c431 eebc 0f55 bebb 4606 5c3d cb52 a73d
00000120: b2ea 44bb b65f 8fbc 2812 9dbd 6a30 18bc
00000130: 5e33 09bc 357e a139 a8ce 5dbd 83d5 aabc
00000140: e9e2 953b 7a9d b93d ded7 d2bd ad35 bdbb
00000150: c785 cdbd 634e 08bd 7028 95bd 6981 443d
00000160: 6525 e03d 0e66 adbd 9bad ae3d a836 7cbd
00000170: b479 00be 6b58 103c 3be1 79bc 81f2 c7bc
00000180: ef81 90bd 69ce 9b3d b02d 9c3c 52bc 47bc
00000190: 5cce f43d 5e50 adbd 1838 603d 5df1 7ebd
000001a0: 460f debd 2996 8abd 3fb4 ee3d 0153 eb3d
000001b0: d4cd 653d 3f87 153d dafd 313d 32de d4bc
000001c0: 806f ec3d 1ccc a0bd 353a 8d3d a6f3 30bd
000001d0: 1c40 bc3c e680 7c3d 6369 223d 9e26 bbbd
000001e0: 531f 843d 02d5 bebc 8dd1 c83d e5ca 67bd
000001f0: 0e8d a03c 4cf1 e6bd 3d0b ec3d a0c6 4f3d
0.09769961 -0.098116785 -0.00045015384 -0.07967442 0.11296267 0.085219756 -0.074152835 0.075596996
0.019571908 0.15223946 0.13573915 -0.04947855 -0.043366022 0.08386943 0.006983788 0.11686036
0.116463915 -0.09913202 0.034913633 0.05438682 0.081795625 0.016395813 0.064769655 0.13780521
0.066916786 0.053776983 -0.05261621 -0.102518946 -0.07522048 0.110598885 -0.026311928 -0.07822429
-0.020769857 0.08247485 0.12669754 -0.08049837 0.11310348 0.119422734 0.0079756 0.054824136
0.010087916 -0.053984188 -0.043528676 -0.08828588 -0.00981527 -0.030982997 -0.046829656 -0.058118127
-0.04239893 0.10197106 0.0985846 0.004546769 0.024700237 0.11464747 -0.05103033 0.068733595
0.12479281 0.108822085 -0.090376735 -0.073339336 -0.021934044 0.11861407 -0.072674826 -0.06887181
-0.061069388 -0.06129408 -0.00049258873 -0.06579133 -0.029076464 -0.0058084796 0.05371692 0.081700884
-0.0030047116 -0.017501693 -0.07669479 -0.009288887 -0.008374063 0.00030802345 -0.05415216 -0.020853763
0.004574169 0.090632394 -0.1029508 -0.005774221 -0.10035282 -0.03327788 -0.072831035 0.047974978
0.109446324 -0.08466731 0.08529206 -0.06157556 -0.12546426 0.008810143 -0.015251453 -0.024407627
-0.07056033 0.07607729 0.019064754 -0.012190895 0.119534224 -0.084625944 0.054740995 -0.0622419
-0.10842757 -0.06766922 0.11655473 0.11490441 0.056104496 0.036505934 0.043454982 -0.025984857
0.115447044 -0.07851431 0.06895868 -0.04320111 0.022979788 0.061646365 0.039651286 -0.09138225
0.06451287 -0.02329493 0.09805594 -0.05658998 0.01959851 -0.112764925 0.11525581 0.050726533

static_ll.2.weight f4 [64, 128]
00000000: 30bf 2c3d d408 81bd 6dd9 963d 6372 6b3d
00000010: 78ec b33d ab6f b4bb 1fca 35bd a652 9239
00000020: 901e b6bd a5ab 883d 6e63 b5bc 6e49 853c
00000030: c22b 17bd d810 793c f60a 093d 53d4 793d
00000040: c37d 243d 8e0d 85bd 8917 16bc 43c1 fbbc
00000050: 1891 5abd f968 9e3d e87b 543d cb14 3d3d
00000060: d1b7 083c efcf 8a3d ac61 efbc e44b 90bc
00000070: 1360 6d3c 8b99 b3ba 360d a93c 0874 cebd
00000080: 9b80 a63d 1a44 95bd 6464 14bd 1302 a6bd
00000090: 8dfd 4d3d d1cd 653d cd52 ee3b 2cf0 d93c
000000a0: 89e3 54bd 4781 2f3d 349a 0a3d 0255 543d
000000b0: 4d35 183d 46ef 67bd f9fe 483d 5bc8 853d
000000c0: 7174 973d 4f8c aabb 9f15 b4bc 48dc 88bd
000000d0: c6c3 d8b8 5a7f c53d c38b 38bd 5602 a03d
000000e0: 71ba ea3c f6a1 adbd af7f 9fbd 5072 5b3d
000000f0: 5472 e03d 1dca 9e3d 1495 453a f071 753c
00000100: fd7c 1a39 42f2 e9bc 8b03 ba3d 25ec 8dbd
00000110: 4355 05bd 7ed2 563d 33a7 3a3b cb77 9ebd
00000120: 5847 e63c c627 73ba 58f6 0f3d e706 8ebc
00000130: 3f98 80bd a161 08bd 7017 123d c9b3 adbc
00000140: 2de6 a23c 748f 923d 4d0b 803d 62d8 123c
00000150: 6a10 3ebb c23c c3bc 14c4 9bbd 6f9b 843c
00000160: be87 f03b 52d0 02bd ac9d 59bd 8a2f 51bd
00000170: 79ec 523d afc2 853d 9609 5cbd 68a5 5ebd
00000180: 9fff dfbb 2a8d ec3c a8a7 573d 831b c13d
00000190: 67f9 783c bc3c 433d 9e99 1b3d d90e be3d
000001a0: 9b4f 873d 7503 90bc 9695 b23d 5cdc f3bb
000001b0: baf5 1a3d 4d76 a93d 935e 41bd 85ee a2bd
000001c0: 4077 943b 86c6 3f3d 79dc fbbc 8ac5 c33d
000001d0: aeb3 bb3d 6950 b0bb 64a3 61bc f95c f2bb
000001e0: 2f0a 32bd 71f9 a73c 7583 b73d bb48 82bd
000001f0: d295 163d 31a3 e63c 349b 703d c2e4 063d
00000200: b04f 553d 8d82 32bc b06c 4d3d ba0d a2bc
00000210: ff43 643d a654 57bd cb3e 8c3d 5d45 c33d
00000220: 8c52 963c aaa7 a63a 31b7 023d eb89 0b3e
00000230: 1f95 c33b a658 b13d a650 ffbc a929 a93d
00000240: a38e ccbc f91a e4bb be58 6d3d 0b04 673d
00000250: 2c8b 0abd 87e8 643d f134 543d bc16 e7bc
00000260: 8797 6c3c 9b98 a23d db5e 0b3d b0fd ab3d
00000270: 32d1 a2bd a9bc b53d a223 313d 1a15 9e3d
00000280: 90f0 f33b 7298 353d cf74 fbbc d24e 4b3d
00000290: d568 c43d d1b7 6c3d 623e ba3b 3f6f 7c3d
000002a0: 37e1 543d 61d7 0cbd 0a9e 2d3c 567f 30bd
000002b0: 9d09 a93d d631 f03c 3f1c 9e3d 9125 943d
000002c0: 182a 92bd 09ec a53d 56a9 043d 3b68 1a3d
000002d0: bbf6 fcbc 7d19 af3d 5cbc 6dbb b705 a0bd
000002e0: 86f9 133d 0a2e 43bd b348 edbd 45ed 493c
000002f0: 4766 b03d ab43 06bd 6ab8 163d 9ae7 463c
00000300: bb8e 2f3c 86d9 99bc 128a e33d ce37 da3c
00000310: 57b3 aabd c0c7 5ebd 5669 c03d 1391 9bbd
00000320: 3d23 113d d4b2 23bb ff7c 853d 88d0 06bc
00000330: 1d49 25bc 9cc1 70bb aee6 a9bc 53ef bb3d
00000340: 5e39 e8bc 142c 873d 0bc1 98bd 6b4e c4bb
00000350: 0375 25bd 24e9 3e3d 1cc7 b53d 87e3 62bd
00000360: c2d5 fc3c 98d9 ad3d 4282 5fbd 9bd6 5fbd
00000370: aa38 7a3d d43f aa3d 77fa e23c af66 683d
00000380: 1dab 873d b6ce 933d 99ab c53d 3186 1e3c
00000390: 53a3 113d 36b0 29bd 3b7d 9d3c 81e8 df3c
000003a0: bf66 e3bc 2860 9a3d 0f54 db3c 5130 9a3d
000003b0: 8b7f e03c 69ac 69bd aaee a63b 31df 84bc
000003c0: d315 6abc 12d2 aabd 1f01 f23b 283b d63c
000003d0: 10e7 9dbd 35f4 993d c652 973d 1a3d b9bb
000003e0: 49d9 4bbd e6a0 a6bb b99c 6fbd 0c2b e03a
000003f0: 7496 03bc 3204 8bbc 8e04 6f3c 0405 9fbd
0.042174518 -0.06300512 0.073656894 0.057482135 0.08785337 -0.005506476 -0.04438221 0.00027908868
-0.08892548 0.066733636 -0.022142138 0.016270366 -0.036906965 0.01520177 0.03345772 0.060993504
0.040159 -0.06496726 -0.009160885 -0.030731803 -0.05336103 0.07734866 0.05187598 0.046162408
0.0083446065 0.067779414 -0.029221378 -0.017614312 0.014488238 -0.0013702376 0.020636182 -0.10080725
0.08129998 -0.0728838 -0.036228552 -0.081058644 0.050290633 0.056104485 0.007273054 0.02660378
-0.051974807 0.042847898 0.033838466 0.051838882 0.037160207 -0.056624673 0.049071286 0.065323554
0.07395256 -0.0052047144 -0.021982966 -0.0668264 -0.00010336148 0.09643431 -0.045055162 0.078129455
0.028653355 -0.08478157 -0.077880256 0.053575814 0.10959306 0.07753394 0.0007537168 0.014980778
0.00014733146 -0.0285579 0.09082707 -0.069298066 -0.032552015 0.052446835 0.0028481006 -0.077376924
0.028110191 -0.0009275641 0.03514704 -0.017337276 -0.06279039 -0.03329623 0.035666883 -0.021203892
0.019885147 0.07156268 0.062521555 0.0089627225 -0.0029001483 -0.023832683 -0.07605758 0.016187398
0.0073404005 -0.03193695 -0.053128883 -0.051070727 0.05149505 0.065312736 -0.05372008 -0.054356962
-0.0068358923 0.028875906 0.052650124 0.094290756 0.015196181 0.047665343 0.037988298 0.09280176
0.066069804 -0.017579773 0.087199375 -0.0074420404 0.037832 0.08274517 -0.047209334 -0.0795565
0.0045308173 0.046820186 -0.030744778 0.09559162 0.091651306 -0.0053806794 -0.0137718655 -0.007396337
-0.043466743 0.020504685 0.0896062 -0.063615285 0.036763974 0.028153988 0.058741763 0.032933004
0.05207795 -0.010895384 0.05015248 -0.019781936 0.05572891 -0.05257096 0.06847914 0.09534714
0.018349908 0.0012714763 0.031912986 0.1362683 0.0059687044 0.086594865 -0.031166386 0.08259899
-0.024970358 -0.006961223 0.05794596 0.05640034 -0.03382413 0.055885818 0.0518083 -0.028209083
0.014440424 0.079392634 0.034026008 0.083979964 -0.07950057 0.08873875 0.043246873 0.077188686
0.007444449 0.044334836 -0.030695347 0.049635716 0.095903076 0.05779249 0.005683706 0.06162953
0.051972594 -0.03438509 0.0105967615 -0.043090187 0.08253787 0.029320639 0.07720231 0.07233728
-0.07136935 0.08101661 0.032388054 0.03769706 -0.030879369 0.085497834 -0.00362756 -0.0781359
0.036126636 -0.04765133 -0.11586132 0.012324636 0.08613258 -0.032779377 0.036796965 0.012140179
0.010715182 -0.018780481 0.11110319 0.026637938 -0.083349876 -0.054389715 0.09395091 -0.0759603
0.035433996 -0.0024978416 0.06517982 -0.008228429 -0.010088232 -0.0036736494 -0.02073988 0.09176507
-0.028347667 0.06600204 -0.07458695 -0.0059907935 -0.040394794 0.04660906 0.08875868 -0.05539277
0.030863646 0.08488768 -0.054567583 -0.054648023 0.061089195 0.083129555 0.027707322 0.05673855
0.06624434 0.07217161 0.0965187 0.009675548 0.03555615 -0.041427813 0.019224754 0.027332546
-0.027758954 0.075378716 0.02677348 0.07528747 0.027404567 -0.05704919 0.005094369 -0.016219707
-0.01428743 -0.08340849 0.0073853876 0.026151255 -0.07710087 0.07517282 0.07388835 -0.005653036
-0.049767766 -0.0050850986 -0.05849907 0.0017102673 -0.008031476 -0.016969774 0.014588488 -0.077646285

static_ll.2.bias f4 [64]
00000000: b181 843d 6713 5b3d 0b26 adbb 323e 84bd
00000010: 1e81 acbc 8595 093d d0d3 163d 7dc4 3ebc
00000020: c5de 1a3d 15d5 bcbd fde5 8a3d ac93 d4bc
00000030: 88a4 22bc 83c3 b13c 0f1c ca3d c136 e23d
00000040: e0d1 b9bd 61a0 c73c 3c48 c03d b175 7abd
00000050: 0687 fdbc ae6b 22bc f90b b13d baca 773d
00000060: 1648 12bd 404c 863d fed5 e93c 2f13 58bc
00000070: cc7b 3a3d 2096 b83b 6445 8c3d 9fe5 893c
00000080: a20e 4bbd 46f6 8bbd 33c7 c33d e780 b73a
00000090: 91ed 893c 7e4f b1bd 5300 16bc 3d09 a03b
000000a0: 1000 503d f586 873d bd5a d8bc c5cc ff3c
000000b0: 68ec 74bc 58df 313d aaad fcbb 6756 4a3c
000000c0: c12f 423d 986f 843c a5bd 89bb ac4c 703c
000000d0: 4b84 8bbd 8d68 973d ac3b 8d3d 6972 673d
000000e0: 0a53 01bd d4dd 893d 6fa9 39bd a727 b23d
000000f0: b884 b13d 2cae d73c 6162 11bd a1ff cd3d
0.06470049 0.0534853 -0.005284076 -0.06457175 -0.021057662 0.03358986 0.036823094 -0.011643526
0.037810106 -0.0922033 0.06782148 -0.025949322 -0.009926923 0.021699673 0.09868633 0.110456
-0.090732336 0.024368467 0.093887776 -0.061147396 -0.030948173 -0.009913368 0.08644862 0.06049607
-0.035713278 0.06557512 0.028544422 -0.0131881675 0.04552822 0.0056331307 0.06849173 0.016833125
-0.0495745 -0.06834082 0.095594786 0.0014000208 0.016836913 -0.0865774 -0.009155351 0.004883914
0.05078131 0.06617538 -0.026410455 0.031225571 -0.014948942 0.043425888 -0.007711132 0.0123497015
0.047408823 0.016166493 -0.0042035156 0.0146667175 -0.06812342 0.07392988 0.06896147 0.056505594
-0.031573333 0.067317635 -0.0453276 0.08698969 0.08667892 0.026328169 -0.035494212 0.10058523

glu_encoder.rnn.weight_ih_l0 f4 [48, 2]
00000000: 3d8a 393e bba5 24be 45ed 093e 623c d5bd
00000010: 2151 493e 79fe 3d3e 332d a0bd 1682 40be
00000020: 75ca 25be 6bc8 423e dc48 993e 05b3 e93d
00000030: 5a8d 6ebe 9d93 b93d 570c 913e 2f8a 9abe
00000040: 737f f0bd faf1 68be ecff 8b3e 5df1 43be
00000050: 6c20 123e 9f44 95bc a322 373e 29ce 213e
00000060: 88ac 633e e012 b7bd 2e12 ae3d cb6f 233d
00000070: 5236 da3c a087 26bd d472 3fbe 3993 59bd
00000080: dff1 6c3e f59e c6bd 58d7 0f3d b98b 673e
00000090: 2cd5 6bbe 2f7a 3dbe 058e 3ebc 84ed 6f3e
000000a0: 843b f9bd 09b9 633e 6da4 9dbd 536d 8cbd
000000b0: d613 c7bd e7a3 ed3d 2a46 693e 28d4 423e
000000c0: fc69 833d 2d15 80bd b789 a8be ea06 863e
000000d0: a620 a6be c85c 4b3c 5fa3 c63a ecd0 83bc
000000e0: fd47 5a3e c705 5abd 15e6 293d ae45 68bb
000000f0: 49dc 683e 7688 10bd ea69 20be 005a 3dbd
00000100: 93ad 003e b580 d8bd 7339 01be 9b61 1e3e
00000110: 9dba 0a3e 1070 a43c 7c4e 883e 5b1c c8bd
00000120: 1d1b edbd 2f4a 35be 263e 843e 46cc 7fbe
00000130: 0394 4c3e 7640 1ebd 087d d53d c78b 64bd
00000140: 448c 0c3e cb46 e6bd 20c5 8b3e e20e 1d3e
00000150: d443 183e 4134 4c3e 0b34 62bd 1dc0 e6bd
00000160: 5eae efbd 77d7 d5bd 891c 81be bb6f 743e
00000170: fa91 6d3e 5348 6bbd 7e8d ef3b caa5 463e
0.1811914 -0.16078846 0.13469417 -0.10411908 0.19659854 0.18554105 -0.07821121 -0.18799624
-0.16190512 0.19021766 0.299384 0.114110984 -0.23296109 0.09061358 0.28329727 -0.3018355
-0.11743059 -0.22748557 0.2734369 -0.19135042 0.1427018 -0.018221198 0.17884307 0.158013
0.22233784 -0.08939147 0.08499561 0.039901536 0.02663723 -0.040656686 -0.18696147 -0.053118918
0.23139141 -0.096982874 0.035117477 0.22611894 -0.23030537 -0.1850364 -0.01163054 0.23430449
-0.12169555 0.22238554 -0.07697377 -0.068567894 -0.0972058 0.116035275 0.22780672 0.19026244
0.06416699 -0.06254039 -0.32917568 0.2617715 -0.32446784 0.0124122575 0.001515489 -0.016090833
0.21316524 -0.053228166 0.04147919 -0.0035441923 0.22740282 -0.03528639 -0.15665403 -0.04622841
0.12566213 -0.10571424 -0.12619571 0.15466921 0.1354775 0.020072967 0.2662238 -0.097710334
-0.11577437 -0.1770408 0.25828665 -0.24980268 0.19978337 -0.038635693 0.104242384 -0.055797365
0.13725382 -0.112439714 0.27298832 0.15337709 0.14869624 0.19941808 -0.055225413 -0.112671115
-0.1170318 -0.10441487 -0.25217083 0.23870747 0.23200217 -0.05744202 0.0073105684 0.19399181

glu_encoder.rnn.weight_hh_l0 f4 [48, 16]
00000000: 3997 40be 41e5 72be 3526 b5bd 128e 0b3e
00000010: 8ade c83d 5f72 93bd c6b2 83be 6bed 3c3e
00000020: 3ab7 723d 2f9e 4c3e 96ba 39be 4124 27be
00000030: bc6c e0bc cfa8 03be fa3a ef3d 9bb6 47bd
00000040: b66a 0b3e 45ed e4bd 2523 263e c8be 6abe
00000050: f8fe 1fbe 38fa 6a3e 2656 ee3c 6a87 a03d
00000060: ea4e 61be 5934 7e3e bea0 46bd c05a a13d
00000070: 634f cf3d 5989 14be d7af 45be 4416 533d
00000080: cbfd 323e 0dac 1bbe cbf1 f9bd bd4f 58be
00000090: f7e6 cc3c 0b19 613d 2407 30be b351 363e
000000a0: 6757 113e 37bb 9fbd ec3d 8dbd ef32 1b3e
000000b0: 1c6a f4bd 8c65 1b3e 977e 36be e64f 4f3e
000000c0: bbbc 253e f179 40be 6c48 133e 979d 6d3e
000000d0: 4d20 1b3b 2847 2c3e 1cbf 4a3e 500d 0a3e
000000e0: 67f8 37be 2e38 84bd 1974 10be ef7d 19be
000000f0: 585c ef3d a6a2 bd3c 1e74 023d 9f29 3cbd
00000100: 46b0 bbbd 00e4 d43c 5555 043d ac9e 49bd
00000110: b82d 413d 152e acbd 5be0 8f3e d9ca de3d
00000120: 6cfb ae3b 9402 053e e25b 283d cf37 89be
00000130: d105 91be a888 e43d 1164 e13c 3e31 2ebe
00000140: 72d3 f93d d4bc 233e 4081 203d ce55 ab3d
00000150: 9910 fcbc 647a 4c3c 833c b2bb bff2 723e
00000160: fdd5 be3d cd3c 8c3e 0ba1 05be 0022 dbbd
00000170: 45b3 65be 992f 91be 6f9a 46bc fb73 39bd
00000180: ee49 e4bd a741 3f3e 187a e13d 5dc4 413e
00000190: 1931 bc3d 0b22 3b3e b8a8 d5bd 3f9b 34bc
000001a0: e089 323e f1d9 d1bc b997 66be 58ff 5a3e
000001b0: 7558 583e ba5b 0bbe 8754 493d ae05 4cbe
000001c0: cb19 b83d c551 25be 7ee6 a0bc b1c7 b73d
000001d0: 0965 69be 54d3 273e 68c3 9dbd 42c3 7bbd
000001e0: be0a 1ebe 993a 233e 30f8 953d 1855 64be
000001f0: eae2 8ebe fe5c 89be 420e 643e 6ccd f9bd
00000200: 27ed 4a3c f390 823e fdef 553e c34d 4cbe
00000210: 646f 1abe 6cf1 d53d 3fcb 8cbd 0524 80be
00000220: 157c 39bd 1052 9d3d e9ec d7bd a7ca 5d3e
00000230: e470 55be bc6b a5bd 4605 593e deb8 ccbd
00000240: 293b 9d3e 5884 d4bd f617 4b3e 27e5 1fbe
00000250: 37a2 65be 6417 18be 741b b13d 344b c83d
00000260: 4237 e5bd 6464 c7bd b03f f83c 3ef4 ddbd
00000270: e22f 25bd b6cc fb3a 23d7 e13d 4c84 ac3d
00000280: 7152 803e 9756 cfbd 05db 61be 9c4c ab3d
00000290: 94e8 403e d1da 0d3e 552e a73d e528 3a3e
000002a0: 0334 3a3d 995e 10bd 2494 a7bd 1e48 113e
000002b0: 047d 92bd 30e0 e23b 8731 2b3e b423 bb3a
000002c0: 3fc8 9bbd b11d 7e3d 6187 ce3d a7dc 4f3e
000002d0: f1af 4a3c d101 0a3d 03f0 813c 5322 42bd
000002e0: 19dd 82bc fdaa a8bd e9ca afbc 9850 9ebc
000002f0: 3d08 383e b3a6 65be 23ac f83b 541b 553e
00000300: 9a02 313e 8e3b ed3d 268c 18be 4134 3d3e
00000310: 52cd 85be 7c73 83bd f65b fd3d ef94 033e
00000320: 1261 503e e4bd c7bd ee97 2ebe 73a8 00be
00000330: 8294 283d ac94 89bd c202 183d 5049 543c
00000340: b953 983d 7f4f 0a3e 3daa a63d 5a24 303e
00000350: 995f ccbd 459e 1bbe 6ae2 9ebd ab24 d53c
00000360: ecf3 213e 363b 1f3d ff14 bc3d 3b22 cbbd
00000370: 69d6 f43c 8b2c 843d 42ea 13be bdd3 16be
00000380: 7692 913e 2a1c 283e 69cb 3dbe 531b f0bc
00000390: 0700 5cbb b1c6 3d3e b4cf c8bd 8fde a2bd
000003a0: 4ec0 e5bd fd41 2d3e 82a0 02be ff68 983c
000003b0: 6fe0 133e e604 41bc 517a 993e c75b 3fbe
000003c0: 4766 1d3d 0799 cbbb 7b24 ee3d 3557 493e
000003d0: f293 563e a2eb 59be fc9a 263d 2e37 643e
000003e0: 1fcc d93d e574 20be 3c69 a3bd ae85 20be
000003f0: c020 d4bd 82a6 0fbe 2e05 d33c c3b1 e33d
-0.18807687 -0.23720266 -0.08845178 0.13628414 0.09808071 -0.07199549 -0.2572233 0.18449943
0.05925677 0.19982217 -0.18137583 -0.16322424 -0.027395599 -0.12857364 0.11681171 -0.04875813
0.13614926 -0.11178068 0.16224344 -0.2292434 -0.15624607 0.22947013 0.029093813 0.07838328
-0.2200276 0.24824657 -0.04849314 0.07878637 0.10122564 -0.14505519 -0.19305359 0.051534906
0.17479627 -0.15202351 -0.122043215 -0.21124168 0.025012476 0.054955523 -0.17190224 0.17804603
0.14193498 -0.0779938 -0.06896576 0.15156148 -0.11934301 0.15175456 -0.17821728 0.20245323
0.16185276 -0.18796517 0.14383096 0.23204647 0.0023670376 0.16824019 0.19799465 0.13481641
-0.17965852 -0.06456028 -0.14106788 -0.14989446 0.11687535 0.023148846 0.03184902 -0.04593813
-0.09164481 0.025987625 0.03230794 -0.049223587 0.04716274 -0.08407227 0.28100857 0.10878534
0.0053400304 0.12989265 0.04110325 -0.2680039 -0.2832475 0.111588776 0.027513536 -0.17010972
0.12198533 0.15990001 0.039185762 0.08365975 -0.030769633 0.012480352 -0.0054393425 0.23725413
0.09318159 0.27390137 -0.13049714 -0.10699844 -0.22431667 -0.28356627 -0.012121781 -0.045276623
-0.111469135 0.18677388 0.11009616 0.18922563 0.09189052 0.18274705 -0.10432571 -0.011023342
0.17435408 -0.025616618 -0.22518815 0.21386468 0.21127494 -0.1360921 0.049152877 -0.19924042
0.089892946 -0.16144474 -0.019641157 0.08973635 -0.22792448 0.16389209 -0.077032864 -0.06146551
-0.15433785 0.15940322 0.07322729 -0.22298086 -0.27907497 -0.2682876 0.22271064 -0.12197384
0.012385643 0.25501212 0.2089233 -0.19951539 -0.15081555 0.10446438 -0.068747036 -0.2502748
-0.04528435 0.07681668 -0.10543234 0.21659337 -0.20843846 -0.08077189 0.21193418 -0.09996198
0.30709198 -0.10376805 0.19833359 -0.15614758 -0.22425161 -0.14852673 0.086478144 0.09779969
-0.1119218 -0.09735945 0.030303806 -0.10837601 -0.040328868 0.0019210789 0.11027362 0.08423671
0.25062898 -0.101239376 -0.22056206 0.083642215 0.18838722 0.13853003 0.08163134 0.18179663
0.04545976 -0.035246465 -0.081825525 0.14187667 -0.07152751 0.006923698 0.16718112 0.0014277608
-0.07606553 0.062040035 0.10084415 0.20299016 0.012371049 0.03369314 0.015861517 -0.047396015
-0.015974568 -0.082357384 -0.02145906 -0.01932554 0.17971893 -0.22426872 0.0075888797 0.20811206
0.17286149 0.11583625 -0.14897212 0.18476965 -0.2613321 -0.06418511 0.12371056 0.12849782
0.2034953 -0.09753016 -0.17050144 -0.12564258 0.041157253 -0.0671781 0.037112005 0.012956932
0.07437844 0.13506888 0.08137939 0.17201367 -0.09979171 -0.15197094 -0.07758029 0.026018461
0.15815705 0.038874827 0.09183692 -0.09918638 0.029887395 0.064538084 -0.14444831 -0.14729209
0.28432053 0.16416994 -0.18534626 -0.029309904 -0.0033569352 0.18532826 -0.09805241 -0.07952606
-0.1121832 0.16919704 -0.12756541 0.018604754 0.14441083 -0.011780953 0.29976133 -0.18687354
0.038427617 -0.0062133106 0.11628052 0.19662173 0.20954874 -0.21281293 0.04067515 0.22286674
0.10634636 -0.15669592 -0.07979056 -0.15675995 -0.10357809 -0.14028361 0.025759306 0.1111789

glu_encoder.rnn.bias_ih_l0 f4 [48]
00000000: 9ace 403e 6ce1 3ebe 6797 b6bc 0409 113d
00000010: c3d4 3cbe 6304 19bd 51dd 4fbc e835 cfbd
00000020: 44bf 843d 9d45 0e3e a08c be3c a9f9 d2bc
00000030: 82e2 a6bd 89fd ba3d bc49 8abd bb8c d7bd
00000040: c0f2 753e 11b3 53be c19c 073e 2bf3 74be
00000050: c0b2 3c3e d5cd 36be d78d 4b3e 33be 96bd
00000060: 001d f43c cb40 233e a05e da3c 1fd3 303e
00000070: 18f9 e03c 854a d6bc f5ce 013e 0e45 d8bd
00000080: 09f3 603e fee3 573e 78f0 f4bd d50f 2fbe
00000090: 83a0 2cbe 5e86 07be 1a6d 21be 80e6 1ebe
000000a0: e349 8abd 3078 8d3e 7217 2b3d 038a ddbd
000000b0: 880d 8c3d 7f08 7dbe 33ad 9abd 178b f3bd
0.18828812 -0.18640679 -0.022288991 0.03540899 -0.18440537 -0.0373577 -0.012687043 -0.10117704
0.064817935 0.13893743 0.023260415 -0.025753813 -0.08148672 0.09130389 -0.06752345 -0.10524889
0.24018383 -0.20673777 0.1324339 -0.23920886 0.18427563 -0.17851956 0.19878326 -0.07360496
0.029798985 0.15942685 0.026656449 0.17268036 0.027462527 -0.02615858 0.12676604 -0.10560046
0.2196771 0.21083066 -0.11959928 -0.17095883 -0.16858105 -0.13234851 -0.15764275 -0.15517616
-0.06752374 0.27630758 0.041770406 -0.10817339 0.068385184 -0.24710272 -0.075525664 -0.11891764

glu_encoder.rnn.bias_hh_l0 f4 [48]
00000000: a54b 14bd 7307 843e 909a 653e 8568 6cbd
00000010: a342 13be 199b b13c a569 7cbe 5889 25be
00000020: 61be 94bd 682b 80bd cf3d 573d 0265 393d
00000030: c7bd 6f3e de1c 38be 2413 a03d d30d fc3d
00000040: d8b0 4ebd 0647 3d3e 96ec 4e3e d210 363e
00000050: 308f 63be d707 cbbd 247b 073e 4e1c 053e
00000060: 83ea fe3d ad31 8dbe a9c5 f23d 07f9 2c3e
00000070: 6fe1 433e 6b32 5e3e 5349 e33d da79 323e
00000080: d571 ab3d 971a 723c 1227 323e fb9c fc3d
00000090: 0ab4 7dbe be33 c5bd 5b7a 29be 69d8 143e
000000a0: 36c0 263e c8ac 37bd 07c0 86bd 8515 26be
000000b0: cba6 87be 8f12 69be 774d 1e3d f3d7 26be
-0.036204953 0.25786933 0.22422242 -0.057716865 -0.14380889 0.021680402 -0.24649675 -0.16165674
-0.072628744 -0.06258279 0.05254918 0.045262344 0.23412238 -0.17979762 0.07816151 0.12307324
-0.05046162 0.18484125 0.20207438 0.17779854 -0.2222259 -0.09913605 0.13230568 0.12999079
0.12447073 -0.27576962 0.11854107 0.16891871 0.19128965 0.2169892 0.1109797 0.17429295
0.08371321 0.014776847 0.17397717 0.12334629 -0.2477571 -0.0962901 -0.16550581 0.14535679
0.1628426 -0.04484251 -0.06579595 -0.16219147 -0.2649444 -0.22760986 0.038648095 -0.16293316

glu_encoder.hid2lat.weight f4 [64, 16]
00000000: 464c 82be 44e7 33be cc55 aabd e543 1b3e
00000010: 6d21 173d 2bc5 1c3e 19c0 0ebe 8f61 313d
00000020: e596 69bd fab3 70be c3a7 08be 3007 46bd
00000030: ca04 603e 8149 23be d20d 42be 35e7 23be
00000040: 267d 1a3e b3d7 013e 44b1 54be 2aed e23d
00000050: a9a0 603e 037f ca3b 1f1a 893d d65e 86bd
00000060: 7061 363e 6662 e0bc 185c 20be c3d2 d4bd
00000070: 6771 013e 313b b23d 6998 3fbe be3c 26bd
00000080: a5fd 0ebe 68ca a83b 8d0a 4fbd b8e8 6d3e
00000090: 6139 073c cbe1 843d 9138 5f3e 2890 383e
000000a0: 8e71 6bbd 4869 663e 4c50 61be 78a1 503d
000000b0: 1d54 ee3d fd85 abbd fddc be3d ab5e 65be
000000c0: 3910 033e 46ed b4bd a460 583e 44ed 4b3d
000000d0: 7cf8 b0bd ff20 1f3e af91 d5bc 645a 5b3e
000000e0: 45c4 4dbe 7fef e7bd 7837 89be 07d3 5a3d
000000f0: eb9a 5d3d de09 88bd b9c6 e4bb b140 ddbd
00000100: 88d8 453e 0b53 3a3e babd 84be fd2e a8bc
00000110: a3eb 773e d2e3 2c3e 1af0 1b3e 6684 8bbd
00000120: 8786 893d a8b1 05be 999d 163e dc7c 5cbe
00000130: 60ca 4cbe 48d3 a1bd e20b f2bd 1ee0 173e
00000140: 9cc5 f4bd fc92 2dbe a4b1 883e 435c 803e
00000150: 15eb 293d fa4a 5c3e 15e1 383e 901e 66be
00000160: 9f0b 84bd 92ae 0d3e 4b60 f6bd 6f74 133e
00000170: 76f5 cebc e774 cfbd 4f51 00be 4636 d03d
00000180: b92f e33c a0a4 0dbe bdb4 6c3d 445a 3d3e
00000190: b1b2 9a3d 12fa 40be 02c7 033e 2a93 3e3e
000001a0: fb95 efbd 858a 033e b664 453d a58d e23d
000001b0: 59fe aabd 3c8c 80bc cc80 21be 9dbb a2bd
000001c0: 8caf f8bd afd4 ea3d c4be 313e 19ef d0bd
000001d0: ef4f bcbc 5c23 2bbe 33eb e5bd 1265 2d3d
000001e0: 0bda f6bd 06a7 00be e779 8cbe f1c1 1e3e
000001f0: 4efc 4c3e a913 243e b0ab f63d 5614 503e
00000200: d2c9 653c 362d 8bbd 749b 34be eeb8 4b3e
00000210: 370f 403e 3f98 5dbe 1bea 53be 882e 6cbe
00000220: d275 9dbd b6c1 023e 5393 213e bd67 48be
00000230: f184 783d 214e 773e dd12 41be c918 033d
00000240: e779 0d3d 1d4d 4dbe afaf a93d 4f48 ee3c
00000250: 1dd2 823d bbec 2e3e 2974 06be 2e37 bd3d
00000260: e4fc 36be 01b4 f9bd 9f81 5dbd 730d 103e
00000270: 1f07 c3bd 95c4 c83d 5de1 b93d e716 d33d
00000280: b0eb df3d c511 39be 9873 993d 2d08 843e
00000290: 7bfc 323e 33e5 113e 940f 863d 0847 4fbd
000002a0: c7f3 033e 6506 0ebd 8d34 1dbe be5e e9bd
000002b0: 6ed7 0fbe b7af 5f3a 3aef 563e 7291 afbd
000002c0: 2dc7 18be a03e 44be 44ef 25be 09d7 373c
000002d0: 81a2 c73d 1d58 42bd d3fc 623d 326b 16be
000002e0: de78 56be 071a 573e c2e7 113e 83e8 13bc
000002f0: 596c 5bbe bcc8 013d 34a6 8cbe 63f1 e8bd
00000300: 955d 103d ff90 82bd 81c9 ec3d db62 1f3e
00000310: f214 e3bd b729 a0bd 0454 bdbd 937a 0e3e
00000320: b9cf 683e a5e8 3b3e 63c5 c33c 88f4 683e
00000330: 79cb 273e 43cc 46be 4a23 eb3d ccae 3abe
00000340: 128b b7bd 5650 533d c8c5 94bd 2503 54be
00000350: e1a6 60be f57e 2dbe ff29 7ebe 2a89 1c3e
00000360: 4055 633e d6de 25be 577f 243e 2ed6 233e
00000370: 6442 90bd 8647 423c fd21 66be 0f96 603e
00000380: 8411 3f3e 441d c6bd e312 f93d 79a0 803c
00000390: 0013 9cbb cd83 153e 50ca 893d 8b65 87be
000003a0: 5626 82be 5bf2 96bc 53b4 81be 9809 a73c
000003b0: ac34 3b3c 492e a03c fd79 7ebe 7a68 283e
000003c0: 2e1d 40be 61b5 983d 0f87 abba 5761 35be
000003d0: f9f1 1e3d 3eb8 5d3e 68cc 85bc 2dae ee3d
000003e0: 9b0f e2bd 6ff2 17bc ba7b 003e ccd0 3dbe
000003f0: 05dd 13bd c71c 4d3b 4870 b23a 2978 e1bc
-0.25448817 -0.1756869 -0.08317146 0.15162618 0.03689711 0.15309589 -0.13940467 0.04330593
-0.05702867 -0.23506156 -0.13345246 -0.0483467 0.21876827 -0.15946008 -0.18950585 -0.16006167
0.15086803 0.12679939 -0.20770746 0.11080392 0.21936287 0.0061796918 0.06694435 -0.06561057
0.17810607 -0.02739067 -0.15660131 -0.10391762 0.12640916 0.08702696 -0.18710484 -0.040585272
-0.13963945 0.005151082 -0.05054717 0.23233306 0.008253426 0.06488379 0.21798922 0.18023741
-0.05748134 0.22501099 -0.22003287 0.05093524 0.11637137 -0.083751656 0.09319494 -0.22399394
0.12799157 -0.08834319 0.21130615 0.04978682 -0.08641145 0.15539931 -0.026070444 0.214212
-0.20094402 -0.11324977 -0.26800132 0.053423908 0.05410282 -0.06642507 -0.0069816974 -0.108033545
0.19320881 0.18195741 -0.25926 -0.020530218 0.24210982 0.16883782 0.1522831 -0.068123624
0.06715112 -0.13056052 0.14708556 -0.21532005 -0.19999075 -0.07901627 -0.11818673 0.14831588
-0.119517535 -0.16950601 0.2669803 0.2507039 0.041483957 0.21512976 0.18054612 -0.22472596
-0.06447529 0.13836125 -0.12030085 0.14399885 -0.02526353 -0.10129719 -0.12531017 0.10166602
0.027732717 -0.1383233 0.057789553 0.18491465 0.07553614 -0.18845394 0.12868884 0.18610826
-0.116985284 0.1284581 0.04819175 0.11062173 -0.08349294 -0.015691869 -0.15771788 -0.07945941
-0.12142858 0.114663474 0.17357928 -0.10201854 -0.022987334 -0.16712707 -0.11226501 0.042332716
-0.12053307 -0.12563714 -0.27436754 0.1550367 0.20018122 0.16023125 0.120444655 0.20320258
0.0140251685 -0.06795733 -0.17637426 0.19894764 0.18755804 -0.21640109 -0.20694773 -0.23064625
-0.07688488 0.12769207 0.15778856 -0.19570823 0.060673658 0.24150898 -0.18854852 0.03200606
0.034540083 -0.20048948 0.08285462 0.029087214 0.06387732 0.17082493 -0.13130249 0.0923904
-0.17869908 -0.12192536 -0.054078694 0.1406763 -0.095228426 0.0980312 0.09076188 0.10307103
0.10933626 -0.18073185 0.07492751 0.25787488 0.17479126 0.14247589 0.0654594 -0.05060485
0.12885962 -0.034674067 -0.15352078 -0.11395024 -0.14047024 0.00085329585 0.20989695 -0.08572663
-0.1491973 -0.19164515 -0.16204554 0.011220702 0.09747792 -0.047447313 0.055416893 -0.1468933
-0.20944545 0.21006022 0.14248565 -0.009027603 -0.2142805 0.031685576 -0.27470553 -0.11374166
0.035245497 -0.06375312 0.11561871 0.15565054 -0.110879794 -0.078204565 -0.0924454 0.13913946
0.2273549 0.18350466 0.023897832 0.22749531 0.16386212 -0.19413857 0.1148134 -0.18230742
-0.089620724 0.051590286 -0.07264286 -0.20704325 -0.21938659 -0.16942962 -0.24820708 0.15286699
0.22200489 -0.16198286 0.16064201 0.15999672 -0.07043913 0.011857873 -0.22473903 0.21932243
0.18659025 -0.09673551 0.121618055 0.01570152 -0.004763007 0.1460106 0.06728041 -0.2644466
-0.25419873 -0.018426111 -0.2533289 0.020390317 0.011426132 0.01955332 -0.24851222 0.16446105
-0.18761131 0.0745647 -0.0013086515 -0.17712913 0.03880498 0.21652314 -0.01633282 0.11654315
-0.11038133 -0.009274109 0.12547198 -0.18536681 -0.036099453 0.003129767 0.0013613785 -0.027523117

glu_encoder.hid2lat.bias f4 [64]
00000000: 3568 b63c 80f2 6fbd 957e 5abe ee41 b43b
00000010: 3362 7c3c a962 1e3d 811b 393e 1e29 c7bd
00000020: 6ed8 01bb 06ee 013e 6b4b 693e 88e8 d73d
00000030: b482 7ebc 9b48 00bc c9fa 2db9 6c51 45be
00000040: 0470 4bbd 2d0b 873d d966 3a3c 79c6 6a3e
00000050: f379 c5bd 8ad4 383e f922 cb3d 80de 843d
00000060: c412 233e 54f5 e63d d9ee c23d 6008 153d
00000070: 1437 22be dd14 553e ea52 0ebe eb23 5cbd
00000080: 5527 79be 1832 81be 81fa 483e 6d53 06be
00000090: aa5e 5d3e 0438 72bd 804b 4ebe d850 e0bd
000000a0: cb71 babc 8b25 043d ab32 1f3e 2964 523c
000000b0: ba6c 8b3e e495 fb3d e51f 013e 0e9c 5b3e
000000c0: f576 2fbe 1a8f d63b 5dc5 4d3e 1f13 573e
000000d0: 9839 573c 6a1d c8bd bbc8 553d 67a7 22bd
000000e0: 2f64 80be 69f5 4dbe 3e91 80be dc23 8bbd
000000f0: 36b0 55be ed2b b1bc 0ebc 613d d596 3e3e
0.022266487 -0.058580875 -0.2133735 0.0055010235 0.015404272 0.03866831 0.18076898 -0.09724639
-0.001981284 0.12688455 0.22782676 0.10542399 -0.015534092 -0.0078298105 -0.0001659199 -0.19269341
-0.049667373 0.065939285 0.01137706 0.22927274 -0.096424006 0.18049827 0.0991878 0.06487751
0.15925127 0.112772614 0.09518213 0.03638494 -0.15841323 0.2080874 -0.13898817 -0.05374519
-0.2433141 -0.2523353 0.1962681 -0.13117762 0.21618143 -0.059135452 -0.20145988 -0.1095292
-0.022759339 0.032262366 0.15546672 0.012841263 0.2723139 0.12284449 0.12609823 0.21446249
-0.17135222 0.0065478208 0.2009482 0.21003388 0.01313629 -0.09771235 0.052193385 -0.03971043
-0.25076434 -0.20113148 -0.2511081 -0.06793949 -0.20868 -0.02162739 0.055110984 0.18612225

encoders.weight_ih_l0 f4 [192, 64]
00000000: 1989 96bc f910 a5bd aa52 e5bd f7a5 fa3d
00000010: ea52 4ebc 16be c23c 91ca 5d3d 900e 8a3d
00000020: 4b07 d43d e299 8cbd c42d ca3d 57ca 85bd
00000030: fd63 e4bd 2614 a83b 2f64 fcbc fab6 ca3d
00000040: 537c 02ba 9db6 14bb c6fe febd 2673 943d
00000050: 632b c63d 1342 d2bd 5d7c 093c 6ad8 65bc
00000060: dc6e f03b fb0d fc3d c6e0 a8bd 0f34 6bbd
00000070: ffe7 ddbd e488 8137 d45f 033e 715a 09bc
00000080: b395 8abc 6cec a43d e839 35bd 5e9c debd
00000090: c133 eebd 9ba9 03bd 7d2f 94bd 1dd5 753d
000000a0: f9b9 9c3d 1c3e f63c 9a84 cc3d bba3 f93d
000000b0: e341 bebd c1d1 783d 2870 a0bc b5a7 cebd
000000c0: 01a7 e0bd ce06 6dbd 7563 5dbd 480e 0cbd
000000d0: acba 6d3c aadf 783d fafd 79bb 1a7e e2bd
000000e0: e3a5 8c3b 2595 ea3c 424f dabd 885f f4bd
000000f0: 91ac 00bd 6e07 903c bc78 b03c fc9b a33d
00000100: ca58 2dbd ceac d53c 0623 a5bd 1bbc aabd
00000110: 46ee 9ebd da1e c83d 5e5d a33d c80b b93c
00000120: d318 4bbc b8e9 f1bd 780c d23c 89fd bdbd
00000130: db29 143d 13d3 54bd 202e e6bc 2045 0abd
00000140: c338 273d 3aa1 dfbd 258d c9bd 3d02 953d
00000150: 3d61 cb3d 8405 f13d d3d8 d03d 4c22 b4bd
00000160: 4361 c93d acfa b23d fd2f 863d 60a2 70bd
00000170: be62 ea3d 859f 743c 8ea6 323c e4c5 91bd
00000180: 7edc e4bd d383 babd a33f dd3c 8ee5 983d
00000190: 88a6 a43d a5b5 d33d 1549 e4bc e801 90bd
000001a0: a6fc b93d adf3 13bd 2c03 a6bc 7d89 633c
000001b0: d24d f43d 7347 d5bc 2b08 8c3d 1316 2bbd
000001c0: 248d fbbd e6a9 613d 10a6 24bd a670 cf3d
000001d0: b621 823d bed8 a2bd 2ff0 c8bd f7be a5bd
000001e0: be83 093c 6d13 c33c 26aa e5bd b88f 84bc
000001f0: 32c4 af3d 21c3 03bd 7b17 693b ed17 34bd
00000200: 7736 63bd bd38 67bd cd88 21bd e9db 07bd
00000210: 6731 16bd 1688 af3b ad70 61bd 7499 c8bc
00000220: 70e9 1abe 9c4c 83bd a90a 46bd 8f67 8cbd
00000230: d2bd 0c3e 647a a7bc b8c1 ca3c ef10 50bd
00000240: e290 753d f06f ef3d dea5 db3d 4be4 17bd
00000250: 20f8 2039 4a64 aabd 90ce 143e 240e 99bd
00000260: 04d2 af3c c72f e63d 5acd cfbc fcf7 8cbd
00000270: 4eb9 663d 93e0 103d fa12 3b3d b47e 0b3d
00000280: d175 17be cfaf cbbd 7d06 0f3e 8f9b 583d
00000290: 588e a4bd 540c 593d 3818 00be 1c3a 9f3d
000002a0: 3863 033d 729b 96bc fadd 0ebd 535d 3abc
000002b0: 701b eb3d 5aa8 b83d 3a9b 963c 7581 9cbd
000002c0: 3a96 d8bc 61ff 4bbd e151 3bbd 5bf4 313c
000002d0: 3867 8fbd a53f 88bd 0ea8 04bd 138d 393d
000002e0: c416 f13c 9d7c 36bd 749b 13be c241 0ebe
000002f0: 2d90 71bd 4d01 88bd 272e e8bd 010a 6d3d
00000300: ba18 af3c 2d77 b33d ac15 073e ecfa cc3b
00000310: 6083 e43d ee2f dabd 0355 033e b8b8 d5bd
00000320: 1ad6 88bd d2b5 09bd 9972 8a3d a5fd c2bd
00000330: f11e 043e 5eeb 2c3d 595b 25bd 2f25 a63d
00000340: 06da 13bc 225f ed3c d009 04bd 03d7 a8bd
00000350: d279 e93d 5e97 d33c f931 e7bd e724 b9bd
00000360: 846d 6e3d 20c3 2c3d c267 b83c 6ba8 f8bd
00000370: a173 9b3c 7805 3dbd d8a6 803d e6c6 debd
00000380: 81d0 29bd a788 e53d b77a f6bc 852c 24bd
00000390: 31b4 e3bc 4721 a6bc 965f c13d e76d acbd
000003a0: eb47 4a3c d09d ba3d 3f0e ba3d 2e21 bd3c
000003b0: 2991 df3d 080a 7a3d ff31 f83a 5f13 c03c
000003c0: 839a c13d 5ad4 893d 4ab7 98bd 77ca 27bd
000003d0: 4b87 0bbd 8353 9d3d 2e22 c0bd 8a27 483d
000003e0: 258d b93d 13f5 1bbd a4ec 623d 63b7 a73c
000003f0: 23ad c7bd 7fe6 a53d ed06 ddbd 8bab 0c3e
-0.01837592 -0.08059878 -0.111974075 0.122386865 -0.01259301 0.02377228 0.05414826 0.06741059
0.103529535 -0.06865288 0.0987201 -0.06532734 -0.11151884 0.005129355 -0.03080949 0.09898181
-0.0004977632 -0.0022691854 -0.12450938 0.07248525 0.09676244 -0.10266509 0.008391467 -0.014028648
0.007337434 0.12307354 -0.08245997 -0.057422694 -0.10835265 1.5441743e-05 0.12829524 -0.008383379
-0.016917085 0.080529064 -0.044244677 -0.108696684 -0.11630965 -0.03214417 -0.0723562 0.060017694
0.07652659 0.030058913 0.09986229 0.12189432 -0.09289911 0.060746912 -0.01958473 -0.10090581
-0.109693535 -0.057867818 -0.054049928 -0.034193307 0.014509838 0.060760178 -0.0038145767 -0.11059208
0.004292236 0.02863557 -0.106596485 -0.11932284 -0.031414572 0.017581668 0.021541946 0.07988736
-0.042321004 0.026083376 -0.08063321 -0.083366595 -0.07760291 0.097715095 0.07976793 0.022588626
-0.012396055 -0.118121564 0.025640711 -0.092768736 0.03617273 -0.05195911 -0.028098166 -0.03375733
0.040825617 -0.109194234 -0.09841374 0.072758175 0.09930656 0.1176863 0.10197606 -0.08795604
0.09833004 0.08739218 0.06552122 -0.058748603 0.11444615 0.014930611 0.010903968 -0.07117823
-0.11174868 -0.09107175 0.027007883 0.07465659 0.08039576 0.1033738 -0.02786688 -0.070316136
0.09081392 -0.03612106 -0.020265184 0.01388776 0.119289055 -0.026035046 0.068374954 -0.0417691
-0.1228278 0.05509367 -0.040197432 0.10128908 0.06354086 -0.079514965 -0.098114364 -0.08093064
0.008393226 0.023812974 -0.11214094 -0.016181812 0.08582343 -0.03216851 0.0035566974 -0.04396813
-0.055471864 -0.056450594 -0.039437104 -0.033168707 -0.036668207 0.005356799 -0.055039097 -0.024487235
-0.15128112 -0.064110965 -0.04835001 -0.0685569 0.13744286 -0.020444103 0.024750575 -0.0507974
0.059952624 0.11691272 0.10724996 -0.03708295 0.00015351223 -0.0831991 0.14531922 -0.074734
0.021462448 0.112395816 -0.025366474 -0.06883237 0.056329064 0.03537042 0.045672394 0.03405638
-0.14791037 -0.09945642 0.13967319 0.052882727 -0.080349624 0.052990273 -0.12509239 0.07774755
0.032077044 -0.018384669 -0.034879662 -0.011374789 0.11479843 0.090164855 0.018384565 -0.076418795
-0.026438821 -0.049804095 -0.045732383 0.010861482 -0.07002109 -0.06652764 -0.032386832 0.045300554
0.0294298 -0.044552434 -0.1441477 -0.13892272 -0.058975387 -0.06640873 -0.11336928 0.05787087
0.021374095 0.08762965 0.13191861 0.006255498 0.1115787 -0.10653673 0.12825398 -0.10435623
-0.06681462 -0.033620663 0.06760139 -0.09521035 0.12902428 0.04221665 -0.04037032 0.08112561
-0.009024149 0.028976027 -0.03223592 -0.08244135 0.114001885 0.025829013 -0.112888284 -0.09040242
0.05820991 0.042178273 0.022510413 -0.12141498 0.018976035 -0.046147794 0.06281823 -0.108777806
-0.04145861 0.11207705 -0.030087812 -0.04008152 -0.027795883 -0.02027954 0.0944206 -0.084194
0.012346248 0.091121316 0.090847485 0.02308711 0.10916359 0.061044723 0.0018935798 0.023446737
0.09453299 0.06729956 -0.074568346 -0.04096457 -0.034064572 0.07681944 -0.09381519 0.048865832
0.09060124 -0.038075518 0.05540146 0.020473188 -0.0974982 0.08100604 -0.107923366 0.13737313
