code/baseline/saved/GAMNet_learning_rate_0.001_hidden_size_64_epoch_20_batch_size_32/Epoch_2_JA_0.6273_DDI_0.0420.model (torch, 455805 bytes, 29 tensors)

lab_embeddings f4 [32, 64]
000000 2f df a6 3e 46 af 75 3e 4c 43 48 bf ce 6b d6 bf
       0.3259215 0.23992643 -0.78227687 -1.6751649
000010 8d e0 31 bf 10 59 c8 bf 4e dd 9b 3f 47 d2 0e 3f
       -0.6948326 -1.565218 1.2176912 0.5578961
000020 25 46 5c 3f 25 5e e2 3e 79 f0 db bf b5 0f af bf
       0.8604453 0.44212452 -1.7182761 -1.3676668
000030 75 c3 15 3f 64 f3 e4 be 54 77 2e 3f 62 86 f6 3f
       0.5850137 -0.44716942 0.6815083 1.925976
000040 92 c7 41 3f 3d f8 8f 3e 23 7e dd 3e 13 32 e1 3e
       0.75695145 0.28119078 0.43260297 0.43983516
000050 14 01 56 3e d6 56 45 bf db ca 8f bf 72 94 88 bf
       0.20898849 -0.77085626 -1.1233782 -1.0670302
000060 11 ba 22 bf 89 8d 77 bf 02 e6 27 3f 4a 4b 14 c0
       -0.63565165 -0.9670034 0.6558534 -2.3170953
000070 f6 8f d8 be de 00 56 3f ca 80 ad 3f 66 87 d5 3e
       -0.42297333 0.83595073 1.3554928 0.41704863
000080 fc c8 11 c0 8c 1b e5 3f b8 ff ac be 85 43 f7 bf
       -2.277892 1.7899032 -0.33788848 -1.931748
000090 02 58 d1 be 97 42 26 bf d9 74 90 bf 25 57 72 bf
       -0.40887457 -0.6494536 -1.1285659 -0.9466422
0000a0 b0 de 06 3f 18 0a f5 3e 8b 80 7f 3f 3c 67 b4 be
       0.52683544 0.47859263 0.99805516 -0.35235012
0000b0 f8 e8 b8 3e 11 ac 7a 3f b0 e4 0f 40 5d df 11 3f
       0.3611524 0.979188 2.248333 0.5698145
0000c0 bd c9 95 be cd b7 cc be 79 a2 50 3e e2 0d f5 be
       -0.29255477 -0.3998398 0.20374478 -0.47862154
0000d0 29 d0 43 bf bf 83 27 3e 90 f2 29 bf 53 b5 54 3f
       -0.764895 0.16358851 -0.66385746 0.8308918
0000e0 10 98 9e be 14 ce 32 be df e2 1f 40 e4 73 06 bf
       -0.3097539 -0.17461425 2.498222 -0.52520585
0000f0 12 25 24 3d b2 7c d2 3e ee 36 e2 3f 08 02 47 3d
       0.040074416 0.4111076 1.7673013 0.04858592
000100 d4 1c 58 be 82 a5 07 bf 55 e5 fd be 70 7f 1b be
       -0.21104747 -0.5298692 -0.4958903 -0.15185332
000110 54 7f 49 3e d7 a1 ef 3e 70 c7 f0 3f 95 f9 b1 3e
       0.19677478 0.46803162 1.8810863 0.34760728
000120 ce b1 7a bf dd 32 ab bf b0 d9 a2 bf bc 75 30 3d
       -0.9792756 -1.3374897 -1.2722683 0.04308103
000130 5d de bb bf 15 8d 8a bf 9c e1 62 3f f6 0b 6d bf
       -1.4677235 -1.0824305 0.886255 -0.92596376
000140 03 30 cb bd 01 96 29 3f be e9 c1 3f b8 2c 94 3f
       -0.09921267 0.6624451 1.5149457 1.1576147
000150 47 2b af 3e d6 50 03 bf 08 79 22 3e 88 8f 0c 40
       0.34212705 -0.5129522 0.15866482 2.1962605
000160 50 f9 42 bd c3 04 83 3f b7 3d b7 3e 4b b9 75 3f
       -0.047601044 1.0235828 0.35789272 0.9598586
000170 0f 48 20 3d 8b 82 f3 3f 3b ac 5b 3f 0d c4 0b 3e
       0.03913122 1.9024214 0.8580968 0.13649006
000180 2a 50 5b bf 64 9f a4 bf e8 91 14 bf ea 7c ed 3e
       -0.85669196 -1.2861142 -0.58035135 0.46384364
000190 26 5c a2 3f 09 37 9c be 1f 20 45 3e 20 59 a9 3e
       1.2684371 -0.30510738 0.19250534 0.3307581
0001a0 a4 00 08 3f 83 5c 8c bf a0 1e 49 3f 57 78 31 3f
       0.5312598 -1.0965732 0.78562355 0.6932425
0001b0 a2 71 ce 3f fc a1 64 be 4b 27 fb bf 11 df 0a bf
       1.6128428 -0.22327417 -1.9621366 -0.5424662
0001c0 9f f9 2e 3f a7 f0 d0 bf f7 63 42 3f 69 3c 22 3f
       0.6834964 -1.6323441 0.75933784 0.6337343
0001d0 14 11 1a 3f 96 68 f5 be 3e f1 a3 bf 43 4d 41 bf
       0.6018231 -0.47931355 -1.2807996 -0.7550852
0001e0 d2 83 01 c0 13 c9 53 40 57 9e 03 3e 12 ed aa 3e
       -2.0236707 3.3091476 0.1285337 0.33383995
0001f0 5e 3f 31 3f 06 84 85 3f fd 74 0e c0 1d b5 a6 3f
       0.69237316 1.0430915 -2.2258904 1.3024021
000200 87 39 4c bf 2a 2f 19 be 86 75 b9 3f c9 3e 8c be
       -0.7977528 -0.14959398 1.448899 -0.2739165
000210 63 fe 98 3e aa 56 8c bf 26 51 71 bf 95 04 3a bf
       0.29881582 -1.0963948 -0.9426445 -0.7266324
000220 05 6c 65 bf 61 fb 59 3f 6a 15 93 bd cc 38 95 3f
       -0.8961795 0.851492 -0.07181819 1.1657958
000230 3c fb 7c be 7b 34 e3 3e 93 a4 e0 be 02 38 09 40
       -0.24705213 0.44375977 -0.4387556 2.1440434
000240 d3 5b 4b bf 53 77 ab 3e 30 4f 58 3f 3a 9d fe be
       -0.7943699 0.33489475 0.8449583 -0.4972933
000250 8a 32 43 bf 72 12 f6 3e ee 5e ba 3f 0a 3f fa bd
       -0.7624899 0.48060948 1.456022 -0.12219055
000260 2b 9e a9 bf 40 25 da bd 9e f6 22 bf 75 c4 51 bf
       -1.3251394 -0.10651636 -0.6365756 -0.81940395
000270 bf 02 b5 3e e4 0c 52 be 4b 7b 52 be 25 f4 5e 3f
       0.35353658 -0.2051273 -0.20554845 0.87091285
000280 fb 43 6d bf 12 04 b9 3f 59 b4 bd 3e bf 07 07 3f
       -0.92681855 1.4454367 0.37051657 0.52746195
000290 0c 64 4d 3f 1f 1e 83 3e 68 50 25 bc dc af b4 3f
       0.80230784 0.25608918 -0.010089971 1.4116168
0002a0 96 86 04 40 8a 41 72 be 5a c4 fc 3e 85 ec 45 be
       2.0707145 -0.23657814 0.49368554 -0.19328506
0002b0 d2 5b af 3f 07 4d 49 be 3d 2a b3 be f4 7c 36 bf
       1.3699896 -0.1965829 -0.34993163 -0.71284413
0002c0 b6 04 bf be 96 2d 93 3e 63 d8 8f bf 45 34 d3 3e
       -0.37308282 0.28745717 -1.1237911 0.41250816
0002d0 f6 51 ad bf c1 43 d4 3e d0 bb 09 3d e4 2c e1 bf
       -1.3540637 0.41457942 0.033626378 -1.7591825
0002e0 52 c1 ef bd 9f b0 5e 3f 37 af 86 3e 1e 97 c0 bd
       -0.11706795 0.8698825 0.26305553 -0.09403823
0002f0 be f8 ba 3e d0 e0 a1 bf 78 fd 7a bf b8 de e5 be
       0.365179 -1.2646732 -0.9804301 -0.44896483
000300 62 79 e1 bc 73 df 20 bf 65 9d 77 3f 09 93 82 bf
       -0.0275237 -0.62840956 0.9672454 -1.0201122
000310 5d 56 b7 bd fd 58 02 c0 08 9b be bf 1e 5b 1e 3e
       -0.08952019 -2.0366814 -1.4891062 0.15464446
000320 a9 a7 77 3e 81 8d 93 3f fa 21 e3 be 80 00 81 bf
       0.24185051 1.1527559 -0.4436186 -1.0078278
000330 f5 87 5a 3f c8 38 fb 3f 49 d0 50 3e 99 20 f6 bd
       0.85363704 1.9626703 0.20391954 -0.12017936
000340 83 a3 87 3e 8f ce 27 3f bb 10 c3 be b8 ef 28 3d
       0.26491937 0.6554956 -0.38098702 0.04124424
000350 3c 08 aa 3e 99 e9 ab bf f7 ff 1c c0 2b 0c c7 be
       0.33209407 -1.3430663 -2.4531229 -0.3887647
000360 b4 c9 22 bf 86 3c ed bd b3 f9 0f 40 a3 f5 de bf
       -0.63589025 -0.115838096 2.2496154 -1.7418712
000370 18 3b 17 3f 4b e4 ae bb 74 da 9b be 29 48 db 3e
       0.59074545 -0.0053372732 -0.30440104 0.4282849
000380 57 94 80 3e 79 13 9b 3f 34 66 77 3f 2e 7c a4 bf
       0.25113174 1.2115318 0.96640325 -1.2850397
000390 81 57 04 3f 98 f0 50 bd 64 47 f7 3f 30 18 03 c0
       0.5169602 -0.051010698 1.9318662 -2.0483513
0003a0 8e aa 33 3f ad 5d 8a 3e da c0 2c bd 97 b4 bf be
       0.7018212 0.27024594 -0.042176105 -0.37442467
0003b0 29 f0 47 bf e9 79 22 3f c0 04 96 bf f6 f2 52 3f
       -0.7810083 0.6346727 -1.17202 0.8240198
0003c0 fd db 21 bf e7 f4 a4 bf 14 75 ee 3e 71 2b 64 3f
       -0.632263 -1.2887238 0.465737 0.89128786
0003d0 05 1b b3 3f 01 60 dd 3e d4 cf ef bf 8d fb 3f 3f
       1.3992621 0.43237308 -1.8735299 0.7499321
0003e0 06 c4 36 3f c3 da b5 3f 9a eb 6e bf a2 90 3e 3f
       0.7139286 1.4207386 -0.9332825 0.7443944
0003f0 47 e2 94 3f 6e b0 94 be 7c ef 21 3f a0 d0 12 40
       1.1631554 -0.29040855 0.6325605 2.2939835

static_ll.0.weight f4 [128, 64]
000000 d3 49 11 3e e8 b1 b0 bd 24 1e b5 bd da 22 1c be
       0.14188318 -0.08627683 -0.088436395 -0.1524767
000010 56 41 7d 3d 84 00 b7 bd 2a 86 e8 bd 07 a1 8c 3d
       0.061829887 -0.08935645 -0.11353715 0.06866651
000020 7e 55 4b 3d f2 7f 8e bd 38 9b 9e bc 50 56 52 bd
       0.04964208 -0.069579974 -0.019361123 -0.051351845
000030 3d ff 3d 3e 1e 25 85 bd 16 fb 39 bc dc 48 cf bd
       0.18554397 -0.0650122 -0.011351367 -0.10121319
000040 20 aa f5 bd 59 29 03 3e 4c d8 9b bd cc 84 d7 bd
       -0.119953394 0.12808742 -0.07609615 -0.10523376
000050 e1 25 89 bc 43 f8 f7 bc 1b 65 03 be d0 53 eb bd
       -0.016741695 -0.030269748 -0.12831537 -0.11490595
000060 b6 ec d6 3d 91 1a 02 bd 51 ba bb 3d 3f 1b da bd
       0.10494368 -0.031763617 0.091663964 -0.10649728
000070 41 2e b1 3d c4 d6 8a bd 1c 67 4a 3d a3 e7 01 3e
       0.086514 -0.067792445 0.04941474 0.12686019
000080 c0 99 a6 3d 17 13 38 3d 13 00 8b bc 22 08 08 be
       0.08134794 0.04494008 -0.016967809 -0.13284352
000090 3e 67 92 3d e4 ed 26 3d fa d0 95 3d f3 bf a8 bd
       0.07148598 0.040754214 0.0731525 -0.082397364
0000a0 4f 02 7c bd 90 59 80 3d 59 c7 a5 3d cd c7 0d 3d
       -0.06152564 0.06267083 0.08094663 0.034614373
0000b0 c9 0c 4e bd 01 02 6e 3d e1 8b 42 bd 11 3b ad bd
       -0.05030516 0.05810738 -0.04749668 -0.08458532
0000c0 d6 8f 54 bd 35 8f d1 bd 5e 7d 21 3e 96 c1 24 3e
       -0.051894985 -0.10232393 0.1577048 0.16089472
0000d0 b8 a3 a3 3d b5 d3 b7 bc a6 16 7a bc d8 0e ec bd
       0.07990211 -0.022439817 -0.015264189 -0.11526269
0000e0 0e 2a bd ba ec 4b 4c 3d 56 60 ab bd 8e 45 d1 3c
       -0.0014432089 0.049877092 -0.08367984 0.025545862
0000f0 a7 f9 d3 bd d0 e1 ea bd f6 a2 7d bd 44 75 9d 3c
       -0.10350352 -0.114688516 -0.06192299 0.019220956
000100 d0 a2 a4 ba 80 c4 c7 3d 97 b1 91 bd 7d 9f ec 3d
       -0.0012560729 0.09754276 -0.07113951 0.115538575
000110 bc 95 7e bd e9 6d b1 bd 13 f2 35 3d 8e 29 b6 bd
       -0.062154517 -0.08663542 0.044420313 -0.08894645
000120 14 24 a9 bd ea 03 2e 3d b7 1a 7e bc a9 9b 07 3e
       -0.082588345 0.0424842 -0.015509299 0.13242973
000130 8d ec d0 bc 81 53 84 bb 64 24 c9 3b 47 0e d0 bd
       -0.025503421 -0.0040382748 0.0061383713 -0.10158973
000140 11 fb c0 bd f5 6e ae bd e0 af 65 bd 10 08 ba 3d
       -0.09422887 -0.08517257 -0.05607593 0.09083569
000150 75 86 b7 3d 59 9f a9 3d b6 a8 c0 3d 87 14 a1 3c
       0.089611925 0.08282346 0.09407179 0.019663109
000160 7a 65 83 3d 23 29 eb 3c c6 75 0c 3d 1e 54 18 3e
       0.064158395 0.028706139 0.034292005 0.14875838
000170 85 0e fc 3d c4 b3 b7 3d 10 cc 2d 3c 08 3b 0a be
       0.12307457 0.089698344 0.010607734 -0.13499081
000180 f2 1a f5 bd 06 d1 08 be 62 2f 38 3d b3 0b 96 bb
       -0.1196803 -0.13360986 0.044967063 -0.0045790314
000190 f8 e7 b9 bc 94 12 a9 3d e3 ce 25 bd b9 d3 ef 3d
       -0.02269362 0.082554966 -0.040480506 0.11710305
0001a0 7e 63 8e bd f2 72 91 bd c1 e6 01 3e 25 30 f3 bd
       -0.069525704 -0.07102002 0.12685682 -0.11874417
0001b0 60 82 e1 bd 51 bd 16 bc 6b 5f 00 bd 9e 42 47 bd
       -0.11011195 -0.00920041 -0.031340998 -0.048647515
0001c0 83 ed 5d bd 5b 3d 2c 3d 21 80 30 3e a3 0b 49 3c
       -0.054181587 0.0420507 0.17236377 0.012270841
0001d0 5d 37 01 be 44 b7 57 bd 65 40 19 bd 04 2f 04 3d
       -0.12618776 -0.05266501 -0.037414927 0.0322714
0001e0 3f 8d 14 bd c1 17 07 3e 9f 62 81 bd 5d fe 9f 3d
       -0.036267515 0.13192655 -0.063176386 0.07812188
0001f0 76 7b c0 bc fb 2f bc 3c 0d 28 25 be 45 f0 fb 3d
       -0.02349637 0.022972098 -0.1612856 0.12301687
000200 44 eb cf 3d c0 a1 30 3d 3e e0 57 ba ff be 61 3d
       0.10152295 0.043123007 -0.0008235014 0.05511379
000210 8c f2 57 3d bc 7f 02 be f2 18 14 be ac ee 1a bd
       0.052721545 -0.1274404 -0.14462641 -0.03782527
000220 6b af c5 bd f4 79 89 bd 5a 20 87 bd 0c ea e5 bd
       -0.09652599 -0.06712714 -0.065979674 -0.112262815
000230 6c b2 1e 3d bf 2d 9c bd d7 e4 04 be c1 ac 33 bc
       0.038744375 -0.07625913 -0.1297792 -0.010966481
000240 d2 fa 8d bd e6 56 24 3e cc e2 14 bd 29 bb 02 be
       -0.06932606 0.16048774 -0.036349103 -0.12766708
000250 24 ee 8d 3d 02 a2 a7 bc 25 ec 55 3c 87 4d 2f 3c
       0.06930187 -0.020462994 0.0130567895 0.010699636
000260 ce 57 c9 bd 67 a1 c4 bd de 9c 88 bd 1b db ca bc
       -0.098312005 -0.096010976 -0.06670545 -0.02476268
000270 e0 fd 04 be 82 c0 05 3d 06 87 11 3d 1a 0e 14 3d
       -0.1298747 0.032654293 0.03552916 0.03614626
000280 36 b0 22 be a9 00 86 3d ed 48 11 bd dd 27 a2 3c
       -0.15887532 0.06543095 -0.035469938 0.019794399
000290 8b 84 bf 3c 99 d5 32 bc 0b 99 ff 3c 20 f8 9b 3a
       0.023378631 -0.010915183 0.031200906 0.0011899509
0002a0 88 4a a8 bc 0d 49 33 be af f4 12 3e 56 17 2f bd
       -0.020543352 -0.17508335 0.14351152 -0.042746864
0002b0 cb 4f 1e 3e 6e 0e 09 3e 8f 62 fd 3d 43 7d 89 bd
       0.15460126 0.1338441 0.12372314 -0.06713345
0002c0 36 64 c8 bd 0b 92 fe 3c 0d 0f 02 3e 00 87 9c 3d
       -0.09784739 0.031075498 0.12701054 0.07642937
0002d0 32 f8 1d 3d b0 fb ef 3d 31 74 9b 3d 8f 56 11 bd
       0.038566776 0.117179275 0.07590521 -0.03548294
0002e0 20 ad 64 3c 2f 0c 15 bd 02 3b a5 bc aa 59 7c bd
       0.013957292 -0.036388572 -0.020169739 -0.061608948
0002f0 91 60 15 3e f5 be 80 3d 27 28 56 bc b7 64 a9 bc
       0.14587618 0.06286422 -0.0130710965 -0.020677907
000300 07 06 1b be 03 9e 71 bd db 4f 3f bd 9f f5 a4 3c
       -0.15139018 -0.058988582 -0.046707015 0.020136653
000310 40 8f d4 3d 42 3d a2 3d 96 0f cd bd 97 a2 1f 3d
       0.10378885 0.0792184 -0.100127384 0.038973417
000320 24 f6 b2 bc b1 06 a2 3d 0e 2a 8a 3d d8 a4 28 3d
       -0.021845885 0.079114325 0.067463025 0.041172832
000330 0b 89 81 3d 5d 28 ab 3d 40 8e 47 3d 41 b3 54 3c
       0.06324967 0.08357308 0.048719645 0.012982191
000340 52 cd e9 3d 12 7a 50 3b 16 da 83 bd 25 b3 7d 3d
       0.11416115 0.003181104 -0.06438081 0.061938424
000350 8e 26 c9 3d 3a 0c e1 3d b6 10 c4 bc 7d 8e b5 bc
       0.09821807 0.1098866 -0.02393375 -0.02216267
000360 66 27 bc 3d 04 92 dd bc ec 30 15 be fd 05 8d 3d
       0.09187202 -0.027047165 -0.14569443 0.06885908
000370 9d a9 90 3c e6 33 5c bd b9 da a3 bc af f3 e2 3d
       0.017659003 -0.05376043 -0.020001756 0.11081635
000380 73 d7 28 3c 8e 1c ff bd ce 01 fd 3a 91 0d 4b 3c
       0.010305273 -0.12456618 0.0019302906 0.012393371
000390 a2 fe 7f bd f0 17 6e bd 62 d8 01 be 16 35 68 3d
       -0.062498696 -0.058128297 -0.126802 0.05669125
0003a0 fa af a9 3d b1 e9 0f be 7a 56 f3 bd 04 d0 ba 3d
       0.08285518 -0.1405399 -0.118817285 0.09121707
0003b0 b7 8d c5 bc bc 7c 87 bc 14 17 9f 3d 5e f2 1d be
       -0.024115426 -0.01653897 0.07768074 -0.15424487
0003c0 06 ca 83 3d cc 2b bd 3d a5 b6 e2 bd 15 be 29 bb
       0.06435017 0.09236869 -0.11069993 -0.0025900651
0003d0 cb b6 a6 3d 34 8e dd bd d6 72 06 bd 30 86 80 bd
       0.08140334 -0.10818139 -0.03282436 -0.06275594
0003e0 30 c3 51 3d c1 fd 86 bd ec 49 b2 3a 06 0a 2f bd
       0.051211536 -0.065913685 0.0013602353 -0.04273417
0003f0 d5 5a 7a bd 48 7b 55 bd 81 88 2c bb c1 34 0f bd
       -0.06112178 -0.052119523 -0.002632648 -0.03496242

static_ll.0.bias f4 [128]
000000 3a 2e d5 3d 7e 4c cf bd a4 d6 60 bc c5 7a a5 bd
       0.10409208 -0.101220116 -0.013723049 -0.08080057
000010 64 9a d9 3d f6 95 a3 3d 3d 17 95 bd 5a f2 90 3d
       0.10625151 0.07987587 -0.07279823 0.07077475
000020 b5 2a 99 3b 99 52 28 3e 45 14 00 3e 1b 4a 19 bd
       0.0046742805 0.16437759 0.12507732 -0.037424188
000030 9f 36 b5 bc 8d fa ea 3d 9f a7 79 bc 51 f8 ed 3d
       -0.022120772 0.1147357 -0.015237718 0.11619628
000040 87 19 e4 3d e7 3e b2 bd 66 15 9d 3c 76 2c 26 3d
       0.111376815 -0.08703404 0.019175243 0.040569745
000050 40 bf a3 3d 00 01 e9 3c 7f 01 82 3d d8 8c 0b 3e
       0.079954624 0.02844286 0.063479416 0.13627946
000060 02 9e b2 3d f6 2e 73 3d c1 32 76 bd 1d d3 d7 bd
       0.08721544 0.059370957 -0.060106996 -0.105383135
000070 42 69 ab bd c6 97 c6 3d b3 ee e8 bc 54 64 aa bd
       -0.08369686 0.09696917 -0.028434133 -0.08319917
000080 a0 65 8f b9 2c d3 8d 3d b7 91 ea 3d 42 2a ac bd
       -0.00027350802 0.069250435 0.11453574 -0.084064975
000090 5d 66 dc 3d 01 89 dd 3d 25 5c a3 3b 74 de 7c 3d
       0.10761712 0.10817147 0.0049853497 0.061735585
0000a0 2f 85 58 3b 0c af 48 bd 92 a6 03 bd a5 3c c9 bd
       0.0033038368 -0.048995063 -0.032141276 -0.0982602
0000b0 84 9d ad bc 0f cc ef bc 9e fa 4b bd f1 7e 52 bd
       -0.021193273 -0.029272107 -0.049799554 -0.051390592
0000c0 11 7a 25 bd 32 e4 d5 3d 70 93 cc 3d 16 c9 57 3c
       -0.040399615 0.104439154 0.09989059 0.013170501
0000d0 76 d2 b8 3c c3 c8 e4 3d 2b a3 45 bd 5e bb 8e 3d
       0.022561293 0.11171105 -0.048251312 0.06969331
0000e0 e6 ae fb 3d ae c7 f1 3d 14 9b be bd 8f c0 b5 bd
       0.122892186 0.11805664 -0.093069226 -0.08874618
0000f0 bc 1a 0f bd c0 1c e0 3d de ce a7 bd 0c 03 94 bd
       -0.034937605 0.109429836 -0.08193754 -0.07227144
000100 83 d6 89 bd 70 63 46 bd e9 64 e5 3b 29 fc 9d bd
       -0.06730368 -0.048434675 0.007000555 -0.07714111
000110 58 42 0d bd a7 e9 5c bc 91 55 2a 3d 24 c7 a0 3d
       -0.0344871 -0.013483441 0.04158551 0.07850483
000120 96 e3 07 3b 8c b7 a6 bc b3 79 95 bd 89 29 5a bc
       0.0020735017 -0.020351194 -0.07298603 -0.013315567
000130 69 5f 7b 3c d0 0f af bb 0a 03 57 bd 7c 71 26 bc
       0.015342572 -0.005342461 -0.052493133 -0.010158893
000140 27 de 00 3c 22 f9 ab 3d 2a f9 de bd ae 6e c9 ba
       0.007865465 0.08397128 -0.10887368 -0.0015368068
000150 3e ab be bd 6f 3a 5b bc 34 3b 92 bd 65 cf 18 3d
       -0.093100056 -0.013380631 -0.07140198 0.03730716
000160 e4 32 dc 3d 09 29 cb bd 40 7a a8 3d 2b 28 4c bd
       0.10751894 -0.09919936 0.08226442 -0.049842995
000170 73 40 0a be 0f 96 be ba 1d 86 c0 bc 61 a7 69 bc
       -0.13501148 -0.001454057 -0.02350145 -0.014261098
000180 74 4b ad bd 57 ab aa 3d 02 9c e9 3c c1 6b 35 bc
       -0.08461657 0.08333462 0.028516773 -0.011073054
000190 16 48 ea 3d 44 ea b2 bd 79 a4 41 3d e4 80 8a bd
       0.114395306 -0.08736089 0.047275994 -0.06762865
0001a0 66 7e 00 be 70 9d a6 bd fa d0 f1 3d a8 40 e9 3d
       -0.12548217 -0.081354976 0.11807437 0.11389285
0001b0 b6 4e 85 3d 62 ab cd 3c 5c 39 34 3d 95 f8 fa bc
       0.065091535 0.025106136 0.044000015 -0.030636111
0001c0 69 65 e4 3d 14 4d aa bd 14 35 6c 3d 7b 17 68 bd
       0.11152155 -0.08315483 0.057667807 -0.056663018
0001d0 2b 8b 5e 3c 3e 2b 5b 3d 06 3d 2b 3d 30 17 e2 bd
       0.013582985 0.053508036 0.041806243 -0.11039579
0001e0 5f 03 73 3d 0f eb f9 bc 38 09 fd 3d 99 77 75 bd
       0.059329387 -0.030507592 0.12355274 -0.05992851
0001f0 e5 d4 d8 3b 9a 2d fd bd f8 73 db 3d 74 1a 80 3d
       0.006617176 -0.123622134 0.10715479 0.062550455

static_ll.2.weight f4 [64, 128]
000000 60 21 48 3d 99 82 96 bd ed 26 a8 3d a5 ec 82 3d
       0.048859954 -0.07349128 0.082105495 0.063927926
000010 d1 e6 c0 3d f2 7f f7 bc 37 5d e7 bc 47 4a be bc
       0.09419025 -0.030212376 -0.02824269 -0.023228778
000020 5c 7d da bd 84 46 3d 3d e1 c9 a0 bc 06 49 20 3b
       -0.10668442 0.046209827 -0.019627513 0.0024457588
000030 43 f3 2a bd f2 28 8a 3b 37 b3 e2 3c 69 a4 26 3d
       -0.0417359 0.004216307 0.027673347 0.040684137
000040 e6 94 22 3d da 75 7f bd 77 5e 3f 3c 69 b5 da bc
       0.039692782 -0.06236825 0.011680237 -0.026697831
000050 bf ac 35 bd f5 6f a7 3d 61 94 3e 3d ed b2 15 3d
       -0.044354197 0.08175651 0.046528224 0.03654759
000060 95 15 46 3b 31 d0 ba 3d f3 cb 2c bd 31 fa f5 bc
       0.0030225266 0.091217406 -0.04218669 -0.030026527
000070 47 9d c3 3c 55 20 39 bc 49 b3 99 3c e6 f2 da bd
       0.023878707 -0.011299212 0.018762248 -0.106908605
000080 73 b4 8e 3d d3 68 c1 bd 48 95 f1 bc fa 5b bc bd
       0.06968012 -0.09443822 -0.029490128 -0.09197231
000090 c3 c6 32 3d 66 8a 72 3d 05 fa eb 3c 6c 6e be 3b
       0.043646585 0.05921402 0.028805742 0.005811503
0000a0 3f 1f 96 bd 76 52 3e 3d 9a fe 12 3d 31 99 5e 3d
       -0.073301785 0.04646536 0.03588734 0.054345313
0000b0 1f d6 e0 3c 43 fd 82 bd 43 f3 4e 3d 57 ed 9d 3d
       0.02744585 -0.06395962 0.05052496 0.077112846
0000c0 b3 10 88 3d d1 c6 e4 3a 40 17 26 bd 75 dd 99 bd
       0.0664381 0.0017454271 -0.040549517 -0.07512943
0000d0 d3 ad f7 bb fd 66 a8 3d 8d 97 35 bd 5d 05 a3 3d
       -0.0075585633 0.082227685 -0.044333983 0.07960007
0000e0 1a 41 cd 3c 25 7f ba bd 60 5a aa bd 87 19 58 3d
       0.025055457 -0.09106282 -0.08318019 0.05275872
0000f0 56 6d 01 3e ac 99 9a 3d ed af 2c 3b 31 ab cb 3b
       0.12639365 0.07548842 0.0026349977 0.006215476
000100 fd eb b4 3b 9d f4 34 bd 5f dd da 3d 96 6d a5 bd
       0.005521296 -0.044178594 0.106867544 -0.080775425
000110 17 56 b8 bc bc 00 71 3d 52 a0 78 bb 9d 38 ac bd
       -0.022501988 0.05883859 -0.0037937355 -0.084092356
000120 8a 01 5b 3c fc a5 fb bb 12 7f 0d 3d 71 d9 31 bc
       0.013367066 -0.007679699 0.03454501 -0.010855065
000130 74 80 a0 bd e6 00 0d bd a6 90 16 3d 5b 60 f1 bc
       -0.078370005 -0.034424685 0.03675904 -0.029464891
000140 0f ef 20 ba 4f c9 b2 3d 09 fc 54 3c 87 20 5d 3c
       -0.0006139138 0.08729803 0.012999543 0.013496525
000150 4b 0e e4 bc c4 52 02 bd 59 9a a6 bd 91 91 27 3c
       -0.027838847 -0.031817213 -0.08134908 0.010227577
000160 7c ec 0c bc 9d f8 32 bd f5 d1 60 bd 20 fc 46 bd
       -0.008601304 -0.043694127 -0.05488773 -0.04858029
000170 8e a3 49 3d 20 98 59 3d f1 ca 90 bd 69 74 2b bd
       0.049228244 0.053123593 -0.07069958 -0.041859064
000180 85 b7 95 bc 33 e6 8f 3c 91 84 a7 3c 32 dc 87 3d
       -0.018275985 0.017565822 0.020448955 0.06633796
000190 4c ca 29 3c a1 1b 2c 3d 9f f2 01 3d 23 7b d2 3d
       0.010363173 0.042018536 0.031725522 0.10277393
0001a0 5d 22 7e 3d ca 17 a7 bc 9c 55 ab 3d 89 db 2d bc
       0.06204449 -0.020397086 0.08365938 -0.010611423
0001b0 71 a5 43 3d 6f 7f a3 3d 68 41 3a bd 64 3d c6 bd
       0.0477652 0.079832904 -0.045472533 -0.09679678
0001c0 57 b0 24 3c ce 63 3a 3d 5e 20 37 bd c2 5b ab 3d
       0.010051808 0.045505337 -0.044708602 0.08367111
0001d0 15 68 9b 3d 97 3e 34 bb 85 cd bc bb 42 71 21 bc
       0.075882114 -0.0027503127 -0.0057618045 -0.009853663
0001e0 19 ca 37 bd b8 a4 8d 3c c9 06 da 3d 91 0c a2 bd
       -0.04487047 0.017290458 0.106458254 -0.07912553
0001f0 99 ce 09 3d cd 3b 99 3c 28 75 1f 3d 93 03 e9 3c
       0.033644293 0.018705273 0.03893009 0.028444087
000200 70 f6 06 3d cf eb c7 bb 7b e1 2a 3d 16 22 ed bc
       0.032949865 -0.0061011086 0.04171894 -0.028946918
000210 de df 3b 3d 9f 6e 9f bd 9b c4 6a 3d dd 2d ba 3d
       0.045867793 -0.07784771 0.057316404 0.09090779
000220 ec 84 01 3c 57 95 71 bc 01 f2 dc 3c ca 4a 19 3e
       0.007905226 -0.014745078 0.026970865 0.14969936
000230 66 9a 39 bc e1 4f 91 3d ed 37 4c bd c4 ca 9b 3d
       -0.011328315 0.07095314 -0.049858022 0.07607034
000240 bb e4 ee bc 62 aa 90 bc e3 72 53 3d b2 72 26 3d
       -0.029161802 -0.01765937 0.051623236 0.040636726
000250 5d 3b 06 bd b7 50 bc 3d 66 2f 39 3d 78 ca 1c bd
       -0.032771457 0.09195083 0.04521122 -0.038279027
000260 9e e8 75 3c 7c 95 90 3d 32 b2 41 3d 02 87 ae 3d
       0.015009074 0.07059762 0.04728908 0.085218444
000270 a1 43 a5 bd 67 41 a2 3d e3 8b ae 3c e2 03 a4 3d
       -0.0806954 0.07922631 0.021306938 0.08008553
000280 2f 6f f0 3b c6 c9 ec 3c 84 e8 f9 bc 97 7b 1d 3d
       0.007337473 0.028904807 -0.03050638 0.038447943
000290 a2 e7 c4 3d ac 5f 70 3d 0d e8 35 3b 85 85 80 3d
       0.09614493 0.05868499 0.0027756721 0.06275467
0002a0 36 8a 1f 3d 48 aa 30 bd 9c 88 b5 3a aa da 40 bd
       0.038950168 -0.043131143 0.0013849917 -0.047083534
0002b0 70 b5 8e 3d a5 61 83 3c 42 75 8b 3d f3 7b 97 3d
       0.069682 0.016037771 0.068094745 0.07396688
0002c0 41 ac d2 bd 4e 86 93 3d 29 69 23 3c 01 18 06 3d
       -0.10286761 0.07203351 0.009973803 0.032737736
0002d0 a7 57 15 bd 2c 73 99 3d 00 da 6e bc f4 32 b4 bd
       -0.036460545 0.074926704 -0.014578342 -0.08798781
0002e0 b7 07 0e 3d 4d bd a1 bd 86 cb 0d be 70 e7 d5 ba
       0.034675326 -0.078974344 -0.1384717 -0.0016319584
0002f0 bf a3 b2 3d 9a 84 18 bd 90 f4 0e 3d 0c 26 e2 3b
       0.08722638 -0.037235834 0.0349012 0.006901508
000300 06 81 88 39 42 b5 31 bd fd ba e6 3d 50 c8 15 3d
       0.0002603607 -0.04338575 0.11266134 0.036567986
000310 db fe ad bd a3 72 6f bd c1 be ba 3d 65 8c ad bd
       -0.084958754 -0.058458935 0.09118415 -0.08474044
000320 24 89 87 3c 4e 58 61 bc 83 f8 74 3d 4d 99 47 bc
       0.016544886 -0.013753964 0.05980731 -0.012182546
000330 a9 64 34 bc b6 5c 86 bc 30 1f 2f bd bf 10 c6 3d
       -0.011010327 -0.01640163 -0.042754352 0.09671163
000340 e1 72 02 bd 91 cb 73 3d 94 b5 b9 bd cd 87 4b bc
       -0.03184784 0.059520308 -0.090678364 -0.012422514
000350 58 44 50 bd 19 8a 2e 3d 60 bf 8c 3d 57 4b 8e bd
       -0.050846428 0.04261217 0.068724394 -0.06947964
000360 6f 4e 90 3c 92 9f aa 3d f6 f8 64 bd 35 9d 5c bd
       0.017615525 0.08331217 -0.05590149 -0.05386086
000370 d6 fe 42 3d c7 5b 9e 3d 5d 34 68 3c d4 2c 4f 3d
       0.04760631 0.07732349 0.014172641 0.05057986
000380 82 ae 5f 3d ac ed 81 3d c3 11 c3 3d 0c 66 ca 3b
       0.054609783 0.063441604 0.09524872 0.0061767157
000390 73 52 24 3d 09 e2 33 bd 44 3c 71 3c fe ec aa 3c
       0.040117692 -0.043916736 0.014723841 0.02086496
0003a0 2d 05 1e bd b5 43 80 3d f0 e8 46 3c cc 43 89 3d
       -0.038579155 0.06262914 0.012140498 0.06702384
0003b0 f7 30 04 3d 49 7e 86 bd 8c af e4 39 b0 6c c0 bc
       0.03227326 -0.06567056 0.0004361834 -0.023489326
0003c0 3b 1c 97 bc 8b 52 b7 bd e5 b8 56 3b f1 ec 72 3c
       -0.018446079 -0.08951291 0.0032764014 0.014826999
0003d0 2b 1f bd bd 35 51 8e 3d 0c 44 8e 3d fa 04 65 bc
       -0.092344604 0.06949083 0.06946573 -0.013978237
0003e0 af 07 83 bd 6b c6 56 bc 80 d8 ac bd 22 29 87 3b
       -0.0639795 -0.01310883 -0.084397316 0.0041247765
0003f0 40 5b 37 bc f4 b4 ce bc a6 86 9e 3b b6 9a a9 bd
       -0.011191189 -0.02523277 0.0048378287 -0.08281462

static_ll.2.bias f4 [64]
000000 7f b3 83 3d 7f a1 52 3d 14 c2 0c bc 7f a1 9f bd
       0.064307205 0.051423546 -0.008591194 -0.07794475
000010 3f 6e 0c bd a4 b9 2b 3d d2 d0 cd 3c 2d a3 0f bc
       -0.034284826 0.041925088 0.025123987 -0.0087669315
000020 1a bf 03 3d fb 2e c9 bd c6 09 84 3d 93 36 db bc
       0.03216467 -0.09823414 0.06447177 -0.026759421
000030 60 a0 4a bc 8e 8a b0 3c dc 32 cc 3d 7d 95 e1 3d
       -0.012367338 0.021550443 0.09970638 0.11014841
000040 5b 36 d9 bd fd cb b5 3c 17 51 b5 3d 23 a0 83 bd
       -0.106060706 0.022191996 0.08853357 -0.06427028
000050 8b 3a da bc a8 83 85 bc 47 17 b4 3d a3 c3 60 3d
       -0.026639244 -0.01629813 0.08793502 0.054874074
000060 93 dc b6 bc c3 38 88 3d d1 10 bb 3c 20 97 a1 bb
       -0.022321975 0.066514514 0.022835167 -0.0049313456
000070 c9 90 5b 3d 81 c7 ef 3b 25 e1 8c 3d ac bf 80 3c
       0.053604875 0.007317484 0.068788804 0.015716396
000080 b8 09 5f bd b9 fe a7 bd 03 d3 c0 3d cf 74 72 3c
       -0.054452628 -0.08202881 0.09415247 0.014798357
000090 fc 44 9f 3c d1 6c b4 bd b0 de f2 bb 4e 11 36 3b
       0.019442074 -0.088098176 -0.0074118003 0.002778131
0000a0 c3 43 42 3d b9 d1 8e 3d c3 74 bf bc 30 0b f1 3c
       0.047427904 0.06973595 -0.023371106 0.02942428
0000b0 c7 37 75 bc 11 d2 94 3d 76 5c 2b bb fd fc 1f 3c
       -0.014966912 0.072666295 -0.002614764 0.009764907
0000c0 7d b4 43 3d 6a c1 a1 3c c4 98 71 bb 18 1c 3d 3c
       0.04777955 0.019745547 -0.0036864737 0.011542343
0000d0 7d 19 94 bd 3f bd 81 3d 2d 27 a2 3d e2 df 79 3d
       -0.07231424 0.06334924 0.079176284 0.061004527
0000e0 58 2c d6 bc 18 b4 78 3d 6c bf 33 bd 94 f2 b8 3d
       -0.026144192 0.060718626 -0.043883726 0.09030643
0000f0 76 e7 c0 3d 01 7e 2c 3c f2 df 12 bd a1 98 cf 3d
       0.09419148 0.010528089 -0.035858102 0.101365335

glu_encoder.rnn.weight_ih_l0 f4 [48, 2]
000000 27 a4 34 3e bb c1 07 be f1 34 41 3e 7e e2 7a be
       0.17640744 -0.13257496 0.18867852 -0.24500462
000010 4f 0d 42 3e 2c 8e 22 3e c9 87 93 bd 14 6c 48 be
       0.1895039 0.15874547 -0.07203633 -0.19572479
000020 6c 41 3c be b0 fb 66 3e 62 13 93 3e 6b 7c 04 3e
       -0.18384331 0.22556949 0.28725725 0.12938087
000030 00 18 2e be 15 fd 86 bc a5 64 a1 3e ad 41 a3 be
       -0.17001343 -0.0164781 0.31522098 -0.31886044
000040 48 e0 0b be 89 db 9e be 74 67 88 3e c4 f2 33 be
       -0.13659775 -0.31026867 0.26641428 -0.17573076
000050 1b bc be 3d 9f a5 9b 3d 08 37 50 3e f1 a0 0d 3d
       0.09313222 0.07599949 0.20333493 0.034577314
000060 55 38 7e 3e 89 55 d7 bd 48 af b4 3d 47 a7 fb 3c
       0.24826176 -0.105143614 0.08822495 0.030719412
000070 c6 07 0b 3d 52 62 61 bd 8a 5d 4f be 17 7a 8b bd
       0.03394296 -0.055025406 -0.20250526 -0.06810396
000080 cb fd 83 3e 7f 72 9d bd 60 71 eb bc 7a 43 6c 3e
       0.25779566 -0.07687854 -0.028740585 0.23072615
000090 c9 41 77 be f6 32 22 be fc 19 41 bc 28 37 6f 3e
       -0.24146189 -0.15839753 -0.01178598 0.23360884
0000a0 35 e6 9f bd 83 fa 0f 3e a2 13 ea bd 88 36 2e bd
       -0.078075804 0.14060406 -0.11429526 -0.042532474
0000b0 bb a3 9f bd b2 a3 43 3c 95 10 79 3e 2d 61 56 3e
       -0.07794901 0.0119408835 0.24322732 0.20935507
0000c0 ef 46 6e 3c 18 07 b1 bd 11 0f d8 be 84 6f 9f 3e
       0.014543279 -0.08643931 -0.42198995 0.31139767
0000d0 1d 8d a1 be 74 11 a2 bb 1c 2d 0f bd c5 1d 92 bc
       -0.31552973 -0.004945928 -0.03495513 -0.01783646
0000e0 ef 11 64 3e ef 73 16 bd 88 d5 1c 3d ec fd bf 3a
       0.22272466 -0.036731657 0.038289577 0.0014647818
0000f0 29 9a 7a 3e fb ce 7e bc 10 bc e6 bd 37 93 0b be
       0.2447287 -0.015552278 -0.11266339 -0.13630377
000100 6d 6e 1a 3e a1 ef 19 be c9 c5 f5 bd 2a 76 50 3d
       0.15081187 -0.15032817 -0.12000615 0.05089394
000110 1a 1a dd 3d 14 82 17 3e 3c 14 89 3e ac d0 d4 bd
       0.10795994 0.14795715 0.2677325 -0.103913635
000120 69 28 c4 bd b2 fe 5c be 85 d1 94 3e 14 83 7e be
       -0.0957802 -0.21581534 0.290661 -0.2485469
000130 52 0a 0b 3e 62 a7 8a 3d 8f 13 0e 3e 1b 0b b9 bd
       0.13578156 0.06770207 0.13874649 -0.09035321
000140 85 f0 c6 3d c9 16 31 bc fc da 99 3e 82 cf 1c 3e
       0.09713844 -0.010808655 0.30049884 0.15313533
000150 71 0d e0 3d 9d 59 96 3e e6 68 a0 bd be 44 55 be
       0.10940064 0.29365245 -0.07832508 -0.20827004
000160 16 1f 20 be 69 99 9e bd 0b f4 83 be be 11 6d 3e
       -0.15636858 -0.077441044 -0.25772128 0.231513
000170 ec 23 8a 3e 4c ff 9b bd 9c 0e 37 3d f7 32 7e 3e
       0.2698053 -0.076170534 0.044691667 0.24824129

glu_encoder.rnn.weight_hh_l0 f4 [48, 16]
000000 2a 69 43 be df 71 7b be 7f 86 a9 bd f3 90 11 3e
       -0.19083086 -0.24555157 -0.08277606 0.1421545
000010 93 4d b6 3d 94 50 89 bd 36 96 7c be 5b 95 40 3e
       0.08901515 -0.06704822 -0.24666676 0.18806975
000020 e1 d6 85 3d a3 02 4d 3e b8 0c 36 be 5a 03 2e be
       0.065351255 0.20020537 -0.1777829 -0.16993466
000030 d9 e7 fe bc df 5b 08 be a7 f4 f8 3d a9 15 83 bb
       -0.031116413 -0.13316296 0.12156039 -0.004000385
000040 0b cc 4f 3e 98 83 06 be ac b8 5a 3e 0e e0 31 be
       0.2029268 -0.13136137 0.21359509 -0.17370626
000050 76 31 53 be 7e b6 95 3e a4 02 84 3d 58 84 0b 3e
       -0.20624337 0.29240793 0.06445816 0.13624704
000060 d7 ec 38 be e9 74 a3 3e db 55 52 3c 57 a0 e5 3c
       -0.18059097 0.31925133 0.012837852 0.028030558
000070 67 c6 28 3d 64 f2 4b be 4c c8 0c be 07 e7 12 bc
       0.041204836 -0.19916683 -0.13748282 -0.008966214
000080 d0 1d 36 3e d2 0c 06 be ce 42 fe bd 6d ad 57 be
       0.1778481 -0.13090828 -0.12415086 -0.2106225
000090 56 b3 f8 3c 2d 53 67 3d 46 de 3b be dd 1f 37 3e
       0.030358952 0.056475807 -0.1834651 0.17883249
0000a0 66 ce 0d 3e aa fd 9d bd 8e bb 8d bd 18 4c 25 3e
       0.13848266 -0.07714398 -0.06920539 0.16142309
0000b0 4c 63 f5 bd 9b 0d 19 3e 50 1a 36 be bc 52 3e 3e
       -0.1198183 0.14946596 -0.17783475 0.18586248
0000c0 37 15 37 3e 46 c3 42 be b8 06 1a 3e 30 4b 7a 3e
       0.17879187 -0.19019803 0.15041625 0.24442744
0000d0 c6 09 04 bc b9 e8 38 3e fe 44 53 3e 9c 27 1e 3e
       -0.008058971 0.18057527 0.20631787 0.15444797
0000e0 3d 8d 2d be 90 f4 59 bd e9 d2 06 be 27 e9 25 be
       -0.1694841 -0.05321175 -0.13166393 -0.16202222
0000f0 e0 40 c8 3d c3 62 2f 3c 2a 17 4b 3d 3f 6e 08 bd
       0.09777999 0.010704699 0.049582638 -0.033308264
000100 a4 c5 e4 bd 4a 6a f7 3c bb 9a 9d 3c 67 f1 88 bd
       -0.111705095 0.03020205 0.01923882 -0.06686669
000110 02 bb 7e 3d 7d 8c d4 bd f1 1b 8b 3e 65 e6 b6 3d
       0.062190063 -0.103783585 0.27169755 0.08930663
000120 51 0b ad bb ff 1c de 3d 80 1c bf 3c 9e e9 7e be
       -0.00528089 0.10845374 0.02332902 -0.24893805
000130 43 15 87 be 6b 2b 04 3e 2a e7 2a 3c 89 b4 0f be
       -0.2638341 0.12907188 0.01043109 -0.14033712
000140 77 5a d9 3d 39 a1 2d 3e 30 d5 d4 3c 9b 01 84 3d
       0.10612958 0.16956033 0.025980562 0.06445619
000150 ec 3a 3a bc 17 b0 ec bb 8e a5 a4 bc 7c e5 5e 3e
       -0.011366587 -0.00722314 -0.020098474 0.21767229
000160 e2 20 a6 3d ba 66 83 3e d8 ec 15 be 20 29 9d bd
       0.08111741 0.25664312 -0.1464113 -0.076738596
000170 b5 7a 52 be 34 b2 87 be d6 b5 e9 bc 97 8b 8e bd
       -0.20554622 -0.26503146 -0.028529089 -0.069602184
000180 05 02 83 bd 0c 4c 3b 3e 19 5d 11 3e eb ca 65 3e
       -0.063968696 0.18290728 0.1419567 0.22440688
000190 3b 3d 81 3d e2 fe 65 3e b4 75 bb bd 74 00 f3 3c
       0.06310507 0.22460511 -0.091533095 0.029663302
0001a0 40 aa 46 3e be 92 d4 3c 86 0d 3c be 8a 2f 38 3e
       0.19400883 0.025948878 -0.18364534 0.17986885
0001b0 57 9c 2d 3e 69 f4 2d be 24 87 ae 3d 5b dd 8d be
       0.1695417 -0.16987766 0.0852187 -0.27707943
0001c0 24 75 99 3d fc 79 12 be 72 26 1f bd 83 72 85 3d
       0.07493046 -0.14304346 -0.038855024 0.06515982
0001d0 44 50 4d be 04 07 10 3e 6f f8 d6 bd 56 f0 ac bd
       -0.2005015 0.14065176 -0.10496604 -0.08444278
0001e0 f0 55 35 be 50 36 13 3e 9f a3 5f 3d 4a 79 49 be
       -0.17708564 0.14376187 0.0545994 -0.19675174
0001f0 cd d6 83 be 45 d5 79 be 4a 01 4c 3e 01 3c 33 be
       -0.25749817 -0.24397762 0.19922367 -0.17503358
000200 f1 c3 22 3d 54 5b 9b 3e 3f ee 4e 3e 38 cc 48 be
       0.039737646 0.30343115 0.20208071 -0.19609153
000210 96 0a 14 be 3c 02 e9 3d fd 75 b9 bd 39 9f 74 be
       -0.14457163 0.11377379 -0.090557076 -0.23888864
000220 b7 1c 74 bd 23 da bd 3d a3 a3 cd bd 3b 31 6e 3e
       -0.059597697 0.09270122 -0.10040977 0.23260967
000230 d4 1c 69 be 63 4d ad bd c5 cd 6b 3e e9 b7 39 be
       -0.22764903 -0.08462026 0.23027714 -0.18136562
000240 84 19 95 3e be fe b2 bd aa c5 39 3e 29 79 38 be
       0.2912103 -0.087399945 0.18141809 -0.18014969
000250 38 13 4c be c9 44 30 be 57 24 85 3d 07 12 a2 3d
       -0.19929206 -0.1721374 0.06501072 0.07913595
000260 04 56 05 be 82 9f f1 bd 93 3b 3e 3c 33 f5 93 bd
       -0.13021094 -0.11798002 0.011610883 -0.072245024
000270 12 2f b3 bc d7 16 ce 3c 56 1a bf 3d 66 0e 1d 3d
       -0.02187303 0.025157375 0.09331195 0.03834381
000280 ea 36 4a 3e a3 a2 91 bd 9f 88 87 be 10 2a 09 3d
       0.1974751 -0.071110986 -0.2647142 0.03348738
000290 33 b6 70 3e 95 c5 ae 3d 31 38 36 3d c1 b2 05 3e
       0.23507003 0.085337795 0.044487182 0.1305647
0002a0 81 e0 be 3b e3 c4 b9 bd 17 fe 08 be 97 1c 4d 3e
       0.005825103 -0.09070756 -0.13378178 0.20030437
0002b0 7f 09 ab bc ac 72 67 3d ea 09 f8 3d f6 dd d2 3b
       -0.020878552 0.056505844 0.12111266 0.006435151
0002c0 c3 24 26 bd 7e 77 3e 3d a6 8e 0a 3e 1e fe 72 3e
       -0.040562402 0.046500675 0.13530979 0.2372975
0002d0 67 df 96 bc 7c c3 96 3d 9c 57 16 3d c4 03 ad bc
       -0.018417073 0.073615044 0.036704645 -0.02111996
0002e0 6e b9 db 3b 6d 81 1a bd e9 78 9b 3c ee 69 6e bd
       0.0067054546 -0.037721086 0.018978553 -0.05820649
0002f0 d8 58 1c 3e ee 2a 84 be 56 85 03 3d f1 48 3a 3e
       0.15268266 -0.25814003 0.03210958 0.18191887
000300 76 af 2e 3e 71 9d f6 3d 76 8f 1d be 98 f0 34 3e
       0.1705912 0.12041748 -0.15386757 0.17669904
000310 ab c2 80 be e6 e5 91 bd ba 65 e9 3d 1e ed f8 3d
       -0.2514852 -0.07123928 0.11396356 0.121546015
000320 4c c2 49 3e fb 78 cb bd 23 20 33 be 48 4b ef bd
       0.19703025 -0.099351846 -0.17492728 -0.11684281
000330 f3 0e 44 3d b4 d4 71 bd 78 6b ef 3c d4 b3 b2 bc
       0.04786582 -0.05904074 0.02922605 -0.021814264
000340 88 03 96 3d 95 a6 12 3e e4 9c 9f 3d f6 30 2f 3e
       0.07324892 0.14321359 0.077935964 0.17108521
000350 f5 ac c9 bd 06 32 1c be 9c 4f a7 bd 2e 0a c7 3c
       -0.09847442 -0.15253457 -0.08169481 0.024296846
000360 6f 07 1c 3e 5b 7b 1c 3d 3d b8 b7 3d 1c e0 c1 bd
       0.1523721 0.03820358 0.089706875 -0.094665736
000370 6d 9c f9 3c 00 af 85 3d 2c e7 14 be 31 6a 28 be
       0.030470097 0.06527519 -0.1454131 -0.16446759
000380 a5 f5 8c 3e 26 fc 3b 3e a4 29 4f be b1 48 4b bd
       0.27531162 0.18357906 -0.20230728 -0.04962987
000390 7b 5d a1 3c b5 cc 29 3e 9d 03 f7 bd 30 c1 c0 bd
       0.019697895 0.16581996 -0.12061236 -0.094118476
0003a0 cd 9a 05 be d2 fa 1e 3e 7e ea 12 be f8 66 37 3d
       -0.13047333 0.15525368 -0.14347264 0.044775933
0003b0 a1 5e 22 3e 92 05 ff 3b 47 b1 91 3e 04 1d 7c be
       0.1585641 0.0077826465 0.28455564 -0.24620444
0003c0 82 e4 0f 3d 9e 84 73 3d 7e a5 ab 3d f5 16 32 3e
       0.03513003 0.059452645 0.083811745 0.1739157
0003d0 e8 e8 76 3e 53 c6 6c be 30 91 db ba 0a bd 5b 3e
       0.24112284 -0.2312253 -0.0016751643 0.21458831
0003e0 16 3b 91 3d 26 9b 2e be 57 3f d6 bd 4a 29 cd bd
       0.07091348 -0.17051372 -0.104613 -0.10017641
0003f0 85 58 c9 bd 96 43 f0 bd 96 d6 a3 3c dd a9 05 3d
       -0.09831337 -0.11731641 0.019999783 0.032632697

glu_encoder.rnn.bias_ih_l0 f4 [48]
000000 b5 ea 46 3e 27 89 e7 bd aa f9 b5 bc 8d 68 39 3d
       0.19425471 -0.113054566 -0.022213776 0.045265723
000010 97 a1 53 be 44 c0 7a bd f3 2f 4e 3d cb d5 ae bd
       -0.2066711 -0.061218515 0.050338697 -0.085368715
000020 34 80 59 3d 15 cc ee 3d a6 8d 01 bd 78 28 90 3c
       0.05310078 0.11660019 -0.031629227 0.017597422
000030 30 a1 85 bd e1 2e c7 3d d5 b6 9e bd ce ea c9 bd
       -0.06524885 0.09725738 -0.07749716 -0.098592386
000040 b9 5f 6e 3e 97 1b 4a be c1 46 e1 3d 9f 61 72 be
       0.23278703 -0.19737087 0.10999823 -0.23670052
000050 8d 4e 83 3e af 62 6a be db 7e 98 3e 55 d0 a7 bd
       0.25645867 -0.22889207 0.29784283 -0.08194033
000060 17 0d 34 3d 81 ca 65 3d 7e c2 c2 3c 3c cc 51 3e
       0.043957796 0.056101326 0.023774382 0.20488065
000070 ef 8b 8b 3c 9f bd 2f bd a1 bd f6 3d b6 10 26 3d
       0.017034499 -0.042905446 0.120478876 0.04054328
000080 a7 08 79 3e 64 12 83 3e 07 01 3a be 1c d6 2b be
       0.24319707 0.25599968 -0.18164454 -0.16780895
000090 a7 1d 12 be b3 9d d3 bd 7c 8c 6f be 41 dd f6 bd
       -0.14269124 -0.10332813 -0.23393434 -0.120539196
0000a0 45 81 07 be 82 76 97 3e 08 08 d0 bb 0c 64 ad bd
       -0.13232906 0.29582602 -0.0063486136 -0.08466348
0000b0 41 07 e5 3c e6 34 80 be ca 82 45 bd a4 58 0c be
       0.02795756 -0.25040358 -0.048220433 -0.13705689

glu_encoder.rnn.bias_hh_l0 f4 [48]
000000 58 b6 f7 bc e6 95 a9 3e 49 ae 65 3e fd 08 44 bd
       -0.030238315 0.33122176 0.22429766 -0.047860134
000010 78 0f 2a be 86 e4 0e bb d4 df 3b be 4c 59 15 be
       -0.16607463 -0.002180369 -0.18347102 -0.14584845
000020 96 bd ac bd 86 ea ad bd 00 63 19 bb 04 7b b5 3d
       -0.08434598 -0.084919974 -0.0023404956 0.08861354
000030 34 2f 80 3e 31 04 32 be 0a a6 8b 3d e4 d7 04 3e
       0.25036013 -0.17384411 0.06818779 0.1297298
000040 03 fd 6c bd 80 de 46 3e 34 f3 37 3e 5d a2 38 3e
       -0.05785848 0.19420815 0.17963868 0.18030687
000050 dd a4 19 be c9 18 19 be f9 ea 6c 3e 69 26 f9 3d
       -0.15004297 -0.14950861 0.2313651 0.12165529
000060 de f4 0d 3e bf 18 c2 be aa de ec 3d 26 f2 4d 3e
       0.1386294 -0.37909505 0.11565907 0.20111904
000070 d8 33 39 3e 58 0c 4d 3e 10 69 d6 3d 48 10 a4 3e
       0.18086183 0.2002424 0.10469258 0.32043672
000080 a3 66 de 3d 1b 6f 5d 3d 91 26 ff 3d d2 f6 02 3e
       0.1085942 0.054061037 0.12458528 0.12789467
000090 72 bb 61 be 38 a9 8a bd 76 9d 79 be 08 73 37 3e
       -0.22044161 -0.06770557 -0.24376473 0.17914975
0000a0 cd d1 bc 3d 8d e3 bb bc 04 94 e4 bd 62 9c 17 be
       0.09219704 -0.022935653 -0.11161044 -0.14805749
0000b0 31 ce 9c be 60 f1 6c be 70 16 8f 3d 8f 84 6f be
       -0.30626062 -0.23138952 0.069867015 -0.23390411

glu_encoder.hid2lat.weight f4 [64, 16]
000000 a6 be 85 be 49 91 5a be 57 22 85 bd fd 44 26 3e
       -0.26122016 -0.21344484 -0.065006904 0.16237254
000010 e7 85 b6 3c 9b ec 23 3e 13 17 f3 bd 17 af 12 3d
       0.022280646 0.16008227 -0.118696354 0.03581151
000020 6b 2a 14 bd 08 9f 6b be d8 d0 f8 bd fb 1e ac bd
       -0.036173265 -0.23009884 -0.12149209 -0.084043466
000030 f1 4b 6a 3e ba 7c 2f be 33 fc 49 be ce 46 b5 bd
       0.22880532 -0.17137423 -0.19725113 -0.088513955
000040 f5 f1 1e 3e 39 0a 09 3e c7 be 55 be bd b7 e6 3d
       0.15521987 0.13382806 -0.20873557 0.11265514
000050 bc 0f 60 3e a8 60 11 3c d7 cf 85 3d f4 85 7a bd
       0.21881002 0.008873142 0.06533783 -0.061162904
000060 26 fa 34 3e 07 91 c7 bc 33 3b 1f be bc 74 cb bd
       0.17673549 -0.024361147 -0.15549926 -0.09934375
000070 01 b2 fa 3d bb a4 ae 3d 7a 33 3c be 17 6e 93 bd
       0.12240983 0.085275136 -0.18379012 -0.07198732
000080 64 8d 21 be a4 6f 80 3b a2 64 80 bd f9 01 5d 3e
       -0.15776592 0.0039195586 -0.06269194 0.21582784
000090 3e 02 c0 3c e1 39 37 3d da 58 57 3e 29 81 21 3e
       0.02343857 0.044732932 0.21029988 0.15771927
0000a0 89 31 77 bd b3 bf 50 3e 15 3c 73 be 7c c0 83 3d
       -0.060349975 0.20385627 -0.23753388 0.06433198
0000b0 bc 47 10 3e 17 97 8c bd 74 89 92 3d 95 5d 5e be
       0.14089864 -0.068647556 0.07155123 -0.21715386
0000c0 46 12 0b 3e f7 d2 96 bd 6b 39 4c 3e 48 05 2d 3d
       0.1358119 -0.07364457 0.19943778 0.042241365
0000d0 bb 5d 9c bd 06 42 16 3e 66 25 10 bd ec 53 63 3e
       -0.07635065 0.14673623 -0.035191916 0.22199982
0000e0 9a cb 53 be b5 4c fa bd 66 2c 8e be 85 73 94 3d
       -0.20683137 -0.12221662 -0.27768248 0.07248596
0000f0 1c a5 45 3d a5 8c 76 bd 99 9b d1 ba 38 5d 13 be
       0.048253164 -0.060192723 -0.0015991806 -0.14391029
000100 23 b7 59 3e 3c 6f 81 3e 26 6e 96 be 80 e6 16 bd
       0.21261267 0.25280178 -0.29380912 -0.036840916
000110 22 9c 88 3e 87 99 21 3e f4 3f ee 3d d8 58 3b bd
       0.2668162 0.15781222 0.11633292 -0.045739025
000120 75 db 04 3d c2 68 0e be 8e 79 01 3e 4c d7 21 be
       0.032435853 -0.1390715 0.12644026 -0.15804785
000130 97 fa 66 be 01 31 7d bd c4 8d c6 bd 7a 0a 5f 3d
       -0.2255653 -0.061814312 -0.096950084 0.05445335
000140 f4 a4 f3 bd 0d 16 3b be d1 1e 8c 3e 2b 60 82 3e
       -0.11896697 -0.1827013 0.2736726 0.25463995
000150 f0 8e 12 3d 85 59 5f 3e f0 8d 40 3e 65 72 64 be
       0.035780847 0.21811493 0.18804145 -0.22309263
000160 c8 a0 6b bd de 58 10 3e a9 cb ec bd 85 0d 05 3e
       -0.05752638 0.140964 -0.115622826 0.12993439
000170 06 92 db bc 14 60 d7 bd d6 1c fd bd be 16 1b 3e
       -0.026803028 -0.10516372 -0.12359016 0.15145394
000180 81 b3 a9 3c c3 4a 36 be 02 16 a1 3d 44 cf 4a 3e
       0.020715477 -0.17801957 0.07865526 0.19805628
000190 0c 16 6c 3d 31 3e 37 be 54 3e 1c 3e 4a 16 38 3e
       0.057638213 -0.17894818 0.15258151 0.17977253
0001a0 d4 9f c1 bd 9b 63 0b 3e 4e c2 80 3d cb 7a 91 3d
       -0.09454313 0.13612215 0.06287061 0.07103499
0001b0 c5 f4 97 bd 07 34 ef bc 21 9d 28 be c3 6c 86 bc
       -0.07419733 -0.029199613 -0.1646619 -0.016409284
0001c0 21 7c 00 be 83 a6 f1 3d e3 e2 2e 3e f2 6e d6 bd
       -0.12547351 0.11799338 0.17078738 -0.1047038
0001d0 ba b7 a4 bc 44 1e 2e be af 6a eb bd 57 37 19 3d
       -0.020107139 -0.17003733 -0.11494958 0.03740629
0001e0 40 1f fc bd ef c7 03 be a1 ea 8d be 29 fc 23 3e
       -0.12310648 -0.12869237 -0.2771807 0.1601416
0001f0 3f 9f 52 3e 1c 76 26 3e 47 6c ec 3d 21 d5 3d 3e
       0.2056856 0.16255993 0.1154409 0.18538333
000200 69 63 85 3c f5 3c dd bd f4 99 18 be 73 5e 60 3e
       0.016282754 -0.10802642 -0.14902478 0.2191103
000210 05 02 27 3e 75 22 4c be 7f 65 37 be 8b 7d 67 be
       0.16309364 -0.1993502 -0.17909811 -0.22606485
000220 ef 70 53 bd 9e 64 12 3e 3b 9f 38 3e 03 4f 71 be
       -0.051621374 0.14296195 0.18029492 -0.23565297
000230 ba db 6e 3d cc 3e 62 3e 10 23 3d be 40 ac c9 3d
       0.058315016 0.22094268 -0.18470407 0.09847307
000240 8f 5a 44 3d ee b9 1b be cd d9 80 3d 14 71 d6 3c
       0.047937926 -0.15207645 0.06291542 0.026176967
000250 cb 35 98 3d 72 b2 30 3e 35 9d 1a be e3 da d0 3d
       0.07432135 0.17255571 -0.15099032 0.10197999
000260 69 5c 4b be e8 01 f2 bd 01 8e 7b bd 54 52 2e 3e
       -0.1985947 -0.1181677 -0.061414722 0.17023593
000270 8f 0d dc bd 62 17 d0 3d 7e 62 d0 3d 38 17 59 3c
       -0.107447736 0.1016071 0.10175036 0.013250165
000280 47 a9 e0 3d 37 59 4d be d3 c4 ad 3d a9 48 87 3e
       0.10969787 -0.20053564 0.08484807 0.26422623
000290 e6 1c 2a 3e 54 e8 16 3e c0 31 9e 3d 96 41 49 bd
       0.16612586 0.14737064 0.07724333 -0.049134813
0002a0 f7 8d 0f 3e e9 b4 f9 bc 90 38 16 be e7 0e 0a be
       0.14018999 -0.030481772 -0.14670014 -0.13482247
0002b0 ed 4f 10 be bb 07 ad bb 95 25 58 3e 5d 9c c8 bc
       -0.1409299 -0.0052804626 0.21108086 -0.024488622
0002c0 c9 66 34 be 7b 8c 7c be 4e 6a 0d be d2 a8 9c 3c
       -0.17617334 -0.24662964 -0.13810083 0.019123469
0002d0 0c c1 a7 3d dc a1 33 bd 4c 6f a3 3d 8d 1c 31 be
       0.08191118 -0.043855533 0.079802126 -0.17296048
0002e0 a4 85 3f be 7c b5 58 3e 89 c8 1d 3e 14 e6 5a bd
       -0.18703324 0.21162981 0.1540853 -0.053442076
0002f0 b3 a2 3d be 33 04 c4 3c 11 d3 99 be f5 47 5b bc
       -0.18519096 0.023927784 -0.30043843 -0.013383855
000300 1c be bb bb ef 3e a8 bd 30 73 da 3d 5c c1 0a 3e
       -0.00572945 -0.08215129 0.106665015 0.13550323
000310 d0 b6 c1 bd 83 9d d3 bd 48 a6 c4 bd 2a 3d b4 3d
       -0.09458697 -0.10332777 -0.09602028 0.088007286
000320 fc b2 68 3e 49 08 20 3e 3e 29 9e 3b 98 b5 66 3e
       0.22724527 0.1562816 0.004826694 0.2253021
000330 b6 b0 5a 3e 07 0d 35 be a8 42 91 3d de 4b 12 be
       0.21356472 -0.17680751 0.07092792 -0.14286754
000340 7f f1 ad bd 11 47 50 3d 8f 80 92 bd 38 75 51 be
       -0.08493327 0.050849024 -0.07153427 -0.20454872
000350 c1 4c 62 be 23 7a 2b be 8f b9 7c be ee 26 21 3e
       -0.22099592 -0.1674581 -0.2468016 0.15737507
000360 76 33 66 3e 55 50 24 be 87 1f 26 3e 71 96 22 3e
       0.22480568 -0.16046269 0.16222964 0.15877701
000370 e6 9f 97 bd f0 3a 0e 3c 56 8b 62 be 06 4d 4c 3e
       -0.07403545 0.008681044 -0.22123465 0.19951257
000380 0b 54 29 3e 36 b2 2a be fe da 1d 3e 2a 5f ef 3c
       0.16535966 -0.16669545 0.1541557 0.029220182
000390 bf 41 dd bc 15 e9 1c 3e aa 8a d0 3d 48 14 94 be
       -0.02700889 0.15323289 0.10182698 -0.28921723
0003a0 3e 3e 61 be b3 e6 72 bc b5 5d 70 be 4b 16 23 bd
       -0.219964 -0.014825511 -0.23473246 -0.039816182
0003b0 c3 3e 22 3d e8 a6 84 3b f9 f6 8a be 61 7d 7b 3e
       0.039610635 0.004048217 -0.2714155 0.24559547
0003c0 66 56 48 be 31 85 62 3d 9e d1 94 3b 5f 07 35 be
       -0.19564208 0.055302802 0.00454159 -0.17678593
0003d0 0b 8c 16 3d 60 01 5b 3e e3 4a 13 bc 0d 20 d8 3d
       0.03675465 0.21387243 -0.008990022 0.10552988
0003e0 60 ee ce bd 11 a0 5f bc eb ea 01 3e 74 5a 52 be
       -0.1010406 -0.013649003 0.1268727 -0.20542318
0003f0 bc 62 c7 bc 2c 4d 4f 3a 12 67 07 bc 2b b4 49 3b
       -0.024339072 0.0007907923 -0.00826432 0.0030777554

glu_encoder.hid2lat.bias f4 [64]
000000 64 1b da 3c e4 0c 63 bd 41 5c 70 be 34 c1 64 bb
       0.026624389 -0.055432215 -0.23472692 -0.0034905197
000010 ad 8d ff 3b a6 65 28 3d d9 4d 40 3e 3b 7c cd bd
       0.0077988715 0.041112565 0.18779697 -0.10033461
000020 00 24 4d 3c 63 7f 06 3e 63 5b 6d 3e 77 bb d9 3d
       0.01252079 0.13134532 0.23179393 0.10631459
000030 6b 83 31 bd 33 1b cf bb 9a 30 0e 3b 58 53 4a be
       -0.04333822 -0.006320381 0.002169645 -0.19758356
000040 87 ba 44 bd 5f 00 7d 3d ef 67 83 3c a0 5c 67 3e
       -0.04802945 0.061767932 0.01604077 0.22593927
000050 2a 9f d5 bd de 68 37 3e 50 78 c5 3d e3 47 85 3d
       -0.10430749 0.17911097 0.096420884 0.06507852
000060 a6 a2 1e 3e ff 98 e1 3d cf 4e c8 3d 71 b9 20 3d
       0.15491733 0.1101551 0.097806565 0.03923935
000070 b3 75 1f be 6e d0 5b 3e bb ce 09 be f0 94 53 bd
       -0.15572242 0.21466228 -0.13457768 -0.05165571
000080 c5 1f 70 be 18 55 7f be 93 9f 41 3e 79 54 08 be
       -0.23449619 -0.24934804 0.18908529 -0.13313474
000090 7c 3c 61 3e 2e 4c 83 bd cb 76 47 be 6b d7 00 be
       0.21995729 -0.064110145 -0.1947891 -0.12582175
0000a0 74 41 80 bc f8 2b d5 3c f8 a0 24 3e c2 e3 72 3c
       -0.01565621 0.026021942 0.1607703 0.0148248095
0000b0 1b 1d 87 3e ef fa fd 3d 71 70 00 3e 72 58 57 3e
       0.26389393 0.124013774 0.12542893 0.21029833
0000c0 25 72 2d be 27 34 88 3b fd 89 57 3e 11 4a 56 3e
       -0.16938074 0.0041566077 0.21048732 0.20926692
0000d0 e0 29 2a 3c 07 3b c8 bd bc b3 2d 3d e6 61 12 bd
       0.01038596 -0.097768836 0.042407736 -0.035737894
0000e0 33 e8 7e be e9 53 51 be f9 d1 7d be 7f eb 86 bd
       -0.24893264 -0.20442165 -0.2478713 -0.06587886
0000f0 a3 4d 58 be b5 23 8b bc 10 5d 6e 3d 0d 00 3f 3e
       -0.21123366 -0.0169848 0.05819422 0.18652363
