code/baseline/saved/GAMNet_learning_rate_0.0001_hidden_size_64_epoch_20_batch_size_32/Epoch_1_JA_0.2138_DDI_0.1029.model (torch, 455805 bytes, 29 tensors)

lab_embeddings f4 [32, 64]
00000000: 62e5 983e b3ca 903d 0913 33bf 199c ccbf
00000010: 7d26 35bf 6679 b5bf d66b 903f 7da6 f43e
00000020: 07d4 313f 4c25 183f ad8f dabf 9211 abbf
00000030: 10e6 e83e 5587 c2be 8b43 243f 8803 f63f
00000040: 3e41 2d3f 8f4a 473e 8d31 993e 02bf 0d3f
00000050: e4fd 803e 4097 51bf 6364 89bf 1630 66bf
00000060: f247 26bf 1baf 89bf c9e7 313f b2d4 12c0
00000070: 7488 b5be 9226 473f 7c13 b73f 3aa0 b63e
00000080: 45ac 06c0 f642 d43f 5cf6 8cbe 6aa2 ecbf
00000090: e845 fcbe 25df 1abf e3ad 92bf 844a 68bf
000000a0: 9042 ea3e 245d ba3e 3c82 673f 399d dfbe
000000b0: eab5 9e3e b6a9 6b3f efff 0c40 596f f63e
000000c0: b3fc 8dbe 45cf cdbe 7371 953e 9788 03bf
000000d0: 5ac8 3bbf 1c0a 423e 5f6d 13bf 6ee5 383f
000000e0: 0e0e 64be 2734 8ebe 2e6d 2040 2160 11bf
000000f0: 60c7 ba3d 7739 be3e 4b69 f33f 492e 063d
00000100: c7cc 1ebe dc8f 2fbf 6696 c6be ef72 afbd
00000110: 1b18 573e 0aee 163f 9ef9 eb3f 10b5 923e
00000120: 1b01 8abf e60e 99bf 05cd a3bf df17 a73d
00000130: dc71 c5bf 3bd1 84bf cbe2 5a3f dfc9 72bf
00000140: c3ca 3abe 27be 1b3f 53bb b73f 2d73 9d3f
00000150: aea5 cd3e afb5 0bbf a60e 2c3e e4b1 1440
00000160: 89dc dcbc 427c 813f b761 ab3e dd98 743f
00000170: 5045 d03c 8f55 ec3f f034 693f 894b af3d
00000180: fb07 3cbf b817 b8bf 06c9 f8be 91b5 0b3f
00000190: 5d54 a13f 5abb a5be f647 713e e72e a83e
000001a0: 7fc9 d93e d1ca 9abf 2ae1 2e3f bc06 1a3f
000001b0: 18d0 ca3f c3a3 7abe a16b f9bf b2cc 28bf
000001c0: 61ee 373f 98b3 d0bf d88c 443f 2921 133f
000001d0: 22d7 133f 4111 e2be 6660 98bf f1aa 52bf
000001e0: cbd5 f2bf cb75 5040 978d 383e 0a35 be3e
000001f0: eff7 3d3f 6c90 733f 2374 08c0 8f4c ad3f
00000200: 96dd 59bf 4834 61be 4076 cd3f f081 edbd
00000210: 6969 563e 4329 6dbf e2a7 82bf b8cd 31bf
00000220: 671a 4ebf f9b2 533f 5f87 e83c fcb9 a03f
00000230: fa38 97be 32f1 1d3f bbac 07bf ce7f 0740
00000240: 6eb2 44bf 2a4c 463e 4ba2 413f 5968 b8be
00000250: 031e 42bf 5215 f63e d06d cc3f b39f 17bd
00000260: 1d36 b0bf f85c 9ebe 51c8 10bf a97d 35bf
00000270: 87c4 db3e ca9c 9cbe 5ef9 15be 8f0c 3e3f
00000280: 6938 48bf d3c2 a93f 1d10 7e3e fe6a 083f
00000290: fba6 2c3f f3e5 d23e 4c47 61bd 767c b33f
000002a0: 02ba f93f b7a1 64be 9aed bd3e 3130 febd
000002b0: 4e70 993f 2be1 98be e83a fdbe 2cbd 3bbf
000002c0: b56b a4be e531 9a3e dce8 7cbf 5baf c53e
000002d0: 88b2 b9bf 2a0e a43e 8695 e63d ecd6 d3bf
000002e0: dcb5 ba3b fda4 443f 5e97 473e e42e ea3c
000002f0: 7351 d53e 62cb b2bf fdaa 56bf 13ec f8be
00000300: 75a1 aebd 5672 17bf 37fb 603f b247 89bf
00000310: 0855 f9bd c9ba 00c0 c410 b6bf cb23 2e3e
00000320: d973 8e3e d599 983f 1ddd eabe 0086 85bf
00000330: e689 593f deb1 fa3f c6e2 593e 69c1 91bd
00000340: ae4f 7b3e 5a0b 0f3f c064 73be 6d87 8c3d
00000350: 0cfc 793e 3e07 aabf a843 20c0 7d17 bbbe
00000360: 18c5 1abf 5214 60bd 7f45 1040 8ecb e5bf
00000370: c25c 113f 7e60 5f3d 1c6f 8bbe d950 c53e
00000380: d7d4 7d3e 6d94 9e3f 105b 753f d749 a3bf
00000390: c594 083f 9aa8 08bd 705e f43f 8f0b 04c0
000003a0: 6da1 423f cb7e a13e a8c5 ebbc a927 ccbe
000003b0: b2cd 45bf 8c59 153f 7250 99bf aa48 5f3f
000003c0: cdb7 2abf 8556 a4bf 5ba5 013f 1fb4 623f
000003d0: cd8d ad3f c349 fd3e b468 f2bf f4d0 393f
000003e0: 1e5f 183f a08d b83f 585a 61bf c6b1 343f
000003f0: 7db0 8e3f e0f3 3abe 51ed 233f b253 0a40
0.29862505 0.07069912 -0.6995092 -1.5985137 -0.70761853 -1.4177673 1.1282909 0.4778327
0.69464153 0.5943191 -1.7075096 -1.3364737 0.45488024 -0.37993875 0.6416556 1.9219828
0.67677677 0.19462036 0.29920617 0.5536958 0.25193703 -0.81871414 -1.073376 -0.89917123
-0.6495353 -1.0756563 0.694943 -2.294232 -0.35455668 0.7779323 1.4302821 0.35669118
-2.1042645 1.6582935 -0.27531707 -1.8487065 -0.49272084 -0.6049674 -1.1459316 -0.907387
0.45753908 0.36399186 0.90433097 -0.4367464 0.30998164 0.92055833 2.203121 0.48131827
-0.27731857 -0.40197197 0.29188117 -0.51380295 -0.7335259 0.18949169 -0.5758876 0.7222508
-0.22270986 -0.27774164 2.5066638 -0.56787306 0.09120059 0.37153217 1.9016508 0.032758985
-0.15507804 -0.68578887 -0.3878662 -0.08566844 0.2100529 0.5895697 1.8435552 0.28653765
-1.0781587 -1.1957672 -1.2796942 0.0815885 -1.5425372 -1.0376352 0.8550231 -0.9483928
-0.1824141 0.60837024 1.4354042 1.2300774 0.40165466 -0.545741 0.16802463 2.3233576
-0.026960628 1.0116045 0.33472988 0.9554575 0.025423676 1.846361 0.910964 0.08559329
-0.7344968 -1.4382238 -0.4859087 0.54573923 1.2603871 -0.323695 0.23562607 0.32848284
0.42536542 -1.2093145 0.68312323 0.60166526 1.5844755 -0.24476533 -1.9485971 -0.6593734
0.7184811 -1.6304808 0.7677741 0.57472473 0.5775014 -0.4415379 -1.1904418 -0.82292086
-1.8971494 3.2571895 0.18022762 0.3714984 0.7420644 0.95142245 -2.1320884 1.3538989
-0.8510374 -0.219926 1.6051712 -0.11597049 0.20938648 -0.92641085 -1.0207484 -0.69454527
-0.80509037 0.82694966 0.028384862 1.2556758 -0.29535657 0.6169616 -0.5299794 2.1171756
-0.7683476 0.19364992 0.75638264 -0.3601711 -0.75827044 0.4806314 1.5971012 -0.037017535
-1.3766514 -0.30930305 -0.5655566 -0.7089487 0.42923376 -0.3058837 -0.14645907 0.7423791
-0.78211075 1.3262581 0.24810834 0.5328826 0.6744229 0.41191062 -0.054999635 1.4022357
1.950989 -0.22327314 0.37095338 -0.124115355 1.1987398 -0.2985929 -0.49459004 -0.7333553
-0.32113424 0.30116192 -0.98792815 0.38610348 -1.4507608 0.32042056 0.11258988 -1.6549964
0.005697949 0.7681425 0.19491336 0.028586812 0.41663703 -1.3968318 -0.8385466 -0.4861761
-0.08526889 -0.5915884 0.87883323 -1.0725005 -0.121744215 -2.0114005 -1.4223866 0.17005841
0.2782276 1.1921946 -0.4587182 -1.0431519 0.8497604 1.9585531 0.21277913 -0.07116968
0.24542114 0.55876696 -0.23768902 0.06861768 0.24412555 -1.328346 -2.5041294 -0.36541358
-0.6045699 -0.05470688 2.2542417 -1.7952745 0.5678216 0.05453538 -0.27233207 0.38538244
0.24788223 1.2389046 0.95842075 -1.2756909 0.53352004 -0.033363916 1.909132 -2.0632055
0.76027566 0.31542048 -0.028780773 -0.39874008 -0.7726699 0.5833976 -1.1977675 0.8722025
-0.6668671 -1.2838904 0.5064294 0.8855609 1.3558899 0.49470338 -1.8938203 0.7258446
0.5952014 1.441822 -0.8802848 0.7058376 1.114761 -0.18257093 0.6403399 2.1613584

static_ll.0.weight f4 [128, 64]
00000000: d302 573d 7af2 9fbd b0d3 d8bd 79b2 cfbd
00000010: a471 4e3d 220f 8cbd 89be abbd 8e90 3c3c
00000020: 268f 8e3d 6012 82bd 7d5e e7bc 6afd 3abd
00000030: c0cf d33d bb0c adbd 081b f33b 5f05 dabd
00000040: f085 04be edac dc3d 0892 aebd 4149 d9bd
00000050: 20f6 61bd b781 8bbd e618 03be b251 d7bd
00000060: 827c ec3d ba70 373b ec59 ce3c fb0d d9bd
00000070: 3269 153d 5998 e3bd 09c1 7c3d 9d37 c93d
00000080: 09cc d53d 1c5a a53d e270 9abc 8b0a e2bd
00000090: b487 443d ee4a 8e3d 0691 b93c bb86 d1bc
000000a0: 4605 f23a eaa6 a13d f009 b43d 3659 273d
000000b0: 621f bcbd abcc 973d 1d39 5abd ef58 21bd
000000c0: 6280 d2bc b0aa ebbd da11 f23d 59cc ec3d
000000d0: b99d 323d c24b d8bc e301 a5bc b3a7 e2bd
000000e0: 9772 0f3d 655e af3c 5682 55bd 130c cb3c
000000f0: 2e1b 00be 7b9c a8bd 4b68 0abd 5dee f5bc
00000100: 22d2 c539 0a7a f43d 3b98 96bd 0d0e e23d
00000110: 3741 65bc 3a26 c0bd 5787 983d 4f38 b8bd
00000120: 53a2 b5bd ed1d 303d 9b29 edbc ad4c c93d
00000130: 48c7 43bd bb9e 653c a718 2f3d 8a3e a4bd
00000140: 427b d8bd 2551 9cbd 4258 abbc 93cf ce3d
00000150: a95e f43d c1f9 9e3d a74f 6a3d 585e 3b3c
00000160: 3310 c13d f423 0c3d 3a16 ba3d aceb 023e
00000170: ae67 d03d bc38 c33d 5a5f ad3b f7d4 d7bd
00000180: 7662 febd 0720 c0bd e233 383d 772d 3bbd
00000190: 494e 57bd d52e e33d ddaf 94bd 03a8 cf3d
000001a0: 3f0e b5bd e5f4 e2bd 31a8 ff3d 5684 d0bd
000001b0: d497 cbbd 05b2 abbb e47f adbc 8bef 3bbd
000001c0: fdac 5cbd ca12 283d 5667 fe3d f3b1 8e3c
000001d0: 79c1 e3bd 262c 1ebd 2189 bbbd c470 ad3c
000001e0: 3308 9cbd 8b2e e23d f234 fcbb c542 d13d
000001f0: ad9e b3bc 51f1 a33d 025c e3bd 3732 dd3d
00000200: 4d25 b93d 7216 89bc 23b1 82bc 8b6a 1b3d
00000210: c4ae d93d 7cb1 ddbd 9e04 d4bd bcc0 ecbc
00000220: cee9 d0bd d26d cdbc 8483 98bd ae7c 06be
00000230: dbab d1bc 4dd1 c4bd 80a9 d9bd 047d 5bbc
00000240: 8053 b3bd da29 d93d 7530 6ebd 605b d7bd
00000250: 2fc4 683d eabc 59bd 7065 b9bc 7a95 533d
00000260: b4f6 62bd 0bb4 d6bd f5cd a5bd daa9 81bd
00000270: 5d53 a5bd f604 5d3d 5668 363d bcc0 02bd
00000280: 81c4 e8bd c941 3a3d e980 f43b dc98 0f3d
00000290: 6520 583d 2038 c23a 397f be3c 63b9 13bb
000002a0: 0b42 13bd 6758 d1bd 477f a63d 7d9d 45bd
000002b0: 142b c73d 78d7 cf3d 9e9c f53d ca24 68bd
000002c0: fdfc dbbd f712 a6bc 8b56 df3d a701 683d
000002d0: 27bc 48bc ce65 fd3d a549 ac3d 2f17 3cbd
000002e0: 1155 da3c ba6f 4fbc 25fa c33c e577 b6bd
000002f0: 4201 ea3d e9c1 ae3d 55f8 f93c 309c 94bd
00000300: 14c0 cabd 8221 41bd b82e 6dbd cba6 b8bc
00000310: 791d e83d 6c10 fc3d 50b2 f4bd f964 f03d
00000320: 26f8 aabd f67c a43d f2fa a03d 3284 5abb
00000330: 9e68 e13d 32f6 5d3d b4bd 5c3d 2cdb 583d
00000340: 5356 c93d dbe8 7ebc 0854 603d 033d 0d3d
00000350: 4887 e83d 3749 d43d 606a 55bd b887 87bd
00000360: ae68 b13d b77f 2ebd dfdf c7bd 4519 e03c
00000370: b269 3f3d 9943 7c3b e2eb db3c 51e0 8c3d
00000380: d59c b5bc 83fc a0bd 93cc 55bd 6873 543d
00000390: 4522 06bd 7d6d 17bd f2b4 f5bd 8ede e33c
000003a0: d6dc f43d 2a37 a8bd 1c13 d4bd 7c78 c63d
000003b0: f491 48bd 6422 4cbd d999 d13d 6f57 d3bd
000003c0: de99 fe3b f8dd 873d 2b99 d2bd 51ae e6bc
000003d0: d0e3 bd3d ee35 b2bd 8076 17bd 7260 66bd
000003e0: 32b3 14bc 83b4 79bd c5ab b53b d46e 93bd
000003f0: 4f28 9bbd a1e4 c7bd c7cb 49bd 3593 e0bb
0.052492928 -0.078099206 -0.10587251 -0.10141463 0.050401345 -0.06838824 -0.08385951 0.011509074
0.06960897 -0.06351161 -0.028243298 -0.04565183 0.103423595 -0.08449694 0.007418994 -0.10645556
-0.12941718 0.107751705 -0.08523947 -0.10609675 -0.055166364 -0.068118505 -0.12802467 -0.10513629
0.115471855 0.0027990774 0.025189362 -0.1059837 0.036477275 -0.111130424 0.06170753 0.098250605
0.10439307 0.080738276 -0.018852655 -0.11037167 0.04798098 0.069478855 0.02265216 -0.02557694
0.0018464706 0.078931645 0.08790958 0.040856563 -0.09185673 0.07412084 -0.053277124 -0.039391454
-0.025695983 -0.115071654 0.11819811 0.11562414 0.043607447 -0.026403312 -0.020142501 -0.11067142
0.03502139 0.021407316 -0.05212625 0.02478603 -0.12510368 -0.08232971 -0.033790868 -0.030020887
0.0003773133 0.119373396 -0.073532544 0.11037836 -0.013992599 -0.09382291 0.07447689 -0.08995115
-0.088688515 0.04299729 -0.028950503 0.09829078 -0.04779747 0.014014895 0.04274812 -0.08019741
-0.105703846 -0.076326646 -0.020916108 0.100981854 0.119321175 0.077624805 0.05720487 0.0114360675
0.09426918 0.034213975 0.09086271 0.12785214 0.10176025 0.095323056 0.005290908 -0.10538667
-0.12421124 -0.09381109 0.044971354 -0.045697656 -0.052564893 0.11092917 -0.07260106 0.101394676
-0.08840608 -0.11081866 0.12483252 -0.10181491 -0.09941068 -0.0052397274 -0.021179147 -0.045882743
-0.053875912 0.041033544 0.124220535 0.017418837 -0.11120886 -0.038616322 -0.09157015 0.021171935
-0.076187514 0.110440336 -0.0076967413 0.102178134 -0.021926248 0.08005012 -0.111015335 0.10800593
0.09040318 -0.016734336 -0.015953606 0.037943404 0.10629037 -0.10824868 -0.10352443 -0.028900497
-0.10200845 -0.02507678 -0.074469596 -0.13133499 -0.025594642 -0.096102335 -0.10628033 -0.013396505
-0.08756161 0.10603686 -0.05815168 -0.10515475 0.05682772 -0.053158678 -0.022631377 0.051656224
-0.055411056 -0.10483559 -0.08095924 -0.06331225 -0.08072541 0.05395981 0.044533096 -0.031922087
-0.11365605 0.045472894 0.0074616564 0.035057887 0.05276527 0.0014817752 0.023254024 -0.002254092
-0.035951655 -0.102219395 0.08129745 -0.048245896 0.097250134 0.10148519 0.11992763 -0.05667571
-0.10741613 -0.020272715 0.10905179 0.0566422 -0.01225189 0.12372933 0.08412484 -0.045920547
0.026651891 -0.012660915 0.02392299 -0.08909587 0.11426021 0.08533079 0.030513922 -0.07256353
-0.09899917 -0.047151096 -0.057905883 -0.02254047 0.113337465 0.1230782 -0.11948073 0.11738009
-0.08348112 0.08031647 0.07860364 -0.0033342955 0.11006282 0.05418987 0.053891852 0.052943394
0.09830918 -0.015558447 0.05476764 0.034482013 0.11353928 0.10365527 -0.0521034 -0.06617683
0.08662544 -0.042602267 -0.09759497 0.0273558 0.04673166 0.003849244 0.026845876 0.068787225
-0.02216951 -0.07860663 -0.05219705 0.051867872 -0.032747526 -0.03696965 -0.11997403 0.027816083
0.119561836 -0.08213647 -0.10355207 0.09690949 -0.048967317 -0.049837485 0.10234422 -0.10319411
0.0077698072 0.06634134 -0.10283121 -0.028159292 0.092719674 -0.087016925 -0.036978245 -0.05624432
-0.009075927 -0.060963165 0.005544158 -0.07198873 -0.07576048 -0.097604044 -0.049266603 -0.006853486

static_ll.0.bias f4 [128]
00000000: e76f a43d edf0 cebd a4f7 963a 5b2d a9bd
00000010: 61b9 d93d 7181 6b3d 65e1 cdbd 4484 683d
00000020: add7 7a3c 8194 f73d 9174 0a3e ab89 b0bd
00000030: 3ce0 69bd c5b2 c63d 2755 beb9 c987 b23d
00000040: 5acc e53d bb43 94bd cf6b ce3c f86a 523d
00000050: 9d08 ad3d 547a d4bb a817 933d 9f6e 063e
00000060: f3a5 b23d e653 7e3d 0d96 75bd 8489 ccbd
00000070: f9ef bfbd 019c e13d 4732 0abd 00c2 c1bd
00000080: b59a 24bc 1873 8a3d ce89 813d cef2 a7bd
00000090: 4a6a c53d 20ed ec3d 836f 70bc 7982 5a3d
000000a0: 66b3 7a3c 50a8 08bd d6ce 00bd a286 eebd
000000b0: 0601 083c 3044 51bd 23ba 44bd 5c8e 1bbd
000000c0: 17d6 61bd e1cf 9a3d 4c8b aa3d d15e c93c
000000d0: d147 273d 5040 013e 8f13 49bd 4b4a 2d3d
000000e0: 62d3 063e 7881 b03d f242 fbbd d47e aabd
000000f0: e601 4fbd 55ce b93d 3428 8dbd e192 adbd
00000100: ae4c 71bd ce48 a8bd 07c5 a93c 79ef adbd
00000110: d6ba 96bc f2ba 02bd d28e 443d 546b b43d
00000120: ba03 1fbc 1aab 33bd 372e 5abd bea1 13bc
00000130: 0d77 fc3c 8393 d8bc 94c4 41bd d72d 89bc
00000140: 6e8e 38bc fb70 863d c8bb d9bd 3806 f8ba
00000150: c7f4 b4bd 0a8c bebc f147 98bd 877b 003d
00000160: 1cba e43d 0180 a5bd 6947 b03d 1f64 fbbc
00000170: f853 ddbd d529 403c e463 29bd 835a 68bd
00000180: fe13 8fbd 211d 9b3d 87e5 f13b c17a f3bb
00000190: e225 e33d bffb c9bd df8e 413d f995 88bd
000001a0: 6057 c6bd efbc a0bd aec6 d73d ad80 a73d
000001b0: fc8f 453d c1ad 0e3d 669c 153d b698 16bd
000001c0: ff1a dc3d 6692 bdbd 24fd 8e3d 3237 47bd
000001d0: 1dc6 0b3d faa5 403d 3fdd 243d e584 d7bd
000001e0: 8453 733d 7ec6 25bd 45a1 a23d 2043 96bd
000001f0: 9104 833d cfb5 e7bd 5cfa ca3d 739f 203d
0.08029156 -0.10104547 0.0011517894 -0.08260604 0.10631061 0.05749649 -0.10052756 0.056766763
0.01531021 0.12088872 0.13521029 -0.08620008 -0.057098612 0.09702066 -0.00036303067 0.08717305
0.112206176 -0.07239481 0.025197892 0.051371545 0.084489085 -0.006484309 0.071822464 0.13128136
0.087230586 0.06209173 -0.059957553 -0.099871665 -0.09371943 0.110160835 -0.033739354 -0.09460831
-0.010046651 0.06760234 0.06325112 -0.08200608 0.09639414 0.115686655 -0.014675024 0.053347085
0.015301561 -0.03336364 -0.031447254 -0.11646773 0.008301025 -0.05109042 -0.048029076 -0.03797756
-0.055135813 0.07559181 0.0832735 0.024581345 0.040839974 0.1262219 -0.04909092 0.04230718
0.13166574 0.08618444 -0.12268628 -0.08324972 -0.05053892 0.09072558 -0.06892434 -0.084752806
-0.058911018 -0.082170114 0.020723833 -0.084929414 -0.018399637 -0.031916566 0.047987767 0.08809534
-0.009705478 -0.043864347 -0.05326673 -0.00901073 0.030818487 -0.026437527 -0.047306612 -0.016745491
-0.011264427 0.06564518 -0.106315196 -0.0018922752 -0.0883575 -0.023260135 -0.07435597 0.031367805
0.1116831 -0.080810554 0.086073704 -0.03068739 -0.108070314 0.0117287235 -0.04135503 -0.056726944
-0.06986235 0.07573915 0.007382098 -0.007430405 0.1109121 -0.0986247 0.047255393 -0.0666923
-0.09684634 -0.07848536 0.10535942 0.0817884 0.048233017 0.034833673 0.036526106 -0.03676673
0.107473366 -0.09256439 0.069818765 -0.048636623 0.034124482 0.047033288 0.04025006 -0.105233945
0.05940582 -0.0404725 0.07940916 -0.07337022 0.06397355 -0.11313974 0.099110335 0.039214563

static_ll.2.weight f4 [64, 128]
00000000: aca8 a83c 1719 1dbd 3eed 5f3d 3bab 533d
00000010: 22cf 993d 1ee5 a63c dc82 6dbd 82ad 32bd
00000020: 6506 54bd 204b ac3c 828d bbbb 7b8f c4bb
00000030: f929 6fbc 0faa e7ba a673 f43b 5073 5c3d
00000040: ad3b 593d ab72 9dbd 0621 35bd 1a81 9dbd
00000050: 7429 6dbd 0cc9 8f3d fb60 7b3d 4193 2d3d
00000060: 25c0 03bc e0b0 b63d 02a1 33bd 0f4b 7cbc
00000070: 883b 893c e4bd 8fbb 8f65 893c 9f12 9abd
00000080: d7be c73d be8c 50bd 353e 7ebc a4bc 81bd
00000090: fc01 5c3d 806e 2d3d 8290 9abc 1312 ec3c
000000a0: 9530 bdbc 8f70 ac3c 327e 9a3c 1243 383d
000000b0: d71b 163d aaa0 49bd a8a5 703d 7b78 7c3d
000000c0: efb4 0c3d 24b1 81bc 796f b3bc b7c7 7dbd
000000d0: 2d56 51bb 77a5 c53d 77bb 63bd 2c81 853d
000000e0: f2a5 373d 2403 9bbd 433a 75bd 524f 413d
000000f0: cb7d 9b3d e5e3 ba3d e0ac 2e3c 796d 4e3c
00000100: 7acf c53b ba67 0dbc 80fe b13d e59a 34bd
00000110: d7b6 e3bc ebda 7f3d 03d8 0abc 256e 8abd
00000120: 0779 143d 2218 683b d375 293c 7313 30bd
00000130: a39f 87bd ea20 c4bc 6d7f 1a3d 37af d6bc
00000140: e33d 223d 9ccd 7b3d 8c4b 253d 0376 01bc
00000150: 6196 b53b 1c7e 35bc 962b 93bd d05e b83b
00000160: bcd9 853c 527e 03bd fa9a 51bd dfde 80bd
00000170: 1a40 333d b0f4 953d 7fef c5bc c4f6 9abd
00000180: 0dd6 afbb 7ff8 123d 8e6d 643d 6b60 9a3d
00000190: 7032 a83c 40cc 823d 7b27 3d3d 570f ab3d
000001a0: 8818 3f3d 9ee6 89bd 7fc7 ac3d 6318 be3c
000001b0: 60f4 e83c 4386 b53d 7385 97bc fcfa 67bd
000001c0: e64f 3cbc 9654 6e3d 12a7 87bc 09de ae3d
000001d0: 4595 bd3d fa6b daba 31f2 8fbc d6c2 91bc
000001e0: 8f63 2bbd 2118 2b3d a73d 4e3d 27bb 8bbd
000001f0: 3326 173d 895c de3c a232 9c3d 6dbf 8f3c
00000200: e410 483d 30b1 4dbc 3d44 5c3d 238f 09bc
00000210: 407a 2b3d 92f2 adbc fe4b 753d 9bb3 9f3d
00000220: 19e2 4f3d c1e4 81bc 4ffc 803d 3de3 c83d
00000230: ef25 b53b 3784 563d 5284 2cbd 8b1c 953d
00000240: 6e47 67bc f83b adbc d250 c23c a8e3 373d
00000250: 508c 79bd 38b8 813d f1f6 343d 2932 17bd
00000260: 01ee 583c e33d 993d 25a1 fa3c 0593 c03d
00000270: 77a6 66bd 8ef2 a63d b434 4e3d 5d6b 8b3d
00000280: b830 863c 5af8 263d 1dd0 aabc aee3 7d3d
00000290: 6909 683d ef48 4f3d a4bb d5bc 5ede a73d
000002a0: b724 9e3d f07a f1bc 12e4 da3b 87b1 72bd
000002b0: a518 c23d 4488 703d 91d8 ac3d a109 a23d
000002c0: abb2 8fbd 45a4 a23d 0481 633d feb9 043d
000002d0: ecc0 1ebd 6966 8f3d e14d a73c 2af2 8abd
000002e0: 1563 223d dc5b 85bd 1104 a2bd 518a 343c
000002f0: d7c0 9b3d bf7e f6bc 2106 4d3d b5cd 4e3c
00000300: 3b57 343d 21a9 2dbc 6622 c53d 4281 e63c
00000310: b3fb 8cbd 3d65 5fbd 0c65 a23d 9695 90bd
00000320: f5c0 fd3c 4c11 533c 5fcb 473d a62b 6abc
00000330: 3c31 25bc e534 b73c b48c ecbc ed8c b43d
00000340: 9488 82bc ba5c 953d 8393 6fbd 09d3 59bc
00000350: 3381 51bd e972 753d 0ed2 bf3d 989e 43bd
00000360: 6f8d 163d f5b7 bf3d f551 53bd 7880 8abd
00000370: f950 963d eb50 8f3d 7a1c af3c 12cb 803d
00000380: 981f b63d b923 a03d 9e39 c53d 1ba8 92bc
00000390: 4ac0 e13c 0d4a 5ebc 06e2 b13c 7c22 503d
000003a0: 353c 4ebd 1e34 5a3d 69c2 dc3c a281 9d3d
000003b0: 5860 b2bb aa0c 2bbd cee8 453c beca 54ba
000003c0: 1c97 e4bc f8ac 8abd 2042 9f3c 5a5c bf3c
000003d0: acc4 8bbd fe2e 643d 51ae b73d a7ab 88bc
000003e0: 3740 64bd f4a5 723c 202c 3abd 861e 5d3b
000003f0: 1eec 6abc 6933 c33b 0649 c63c d730 93bd
0.020588242 -0.038354006 0.05466961 0.05167697 0.075102106 0.020372923 -0.057986125 -0.0436225
-0.05176391 0.021031916 -0.005723656 -0.0059985495 -0.014597409 -0.0017674583 0.0074600754 0.053820908
0.053035427 -0.07687887 -0.044220947 -0.0769064 -0.05790086 0.070207685 0.061371785 0.04237676
-0.008041416 0.08920455 -0.04385472 -0.015398755 0.01675202 -0.0043866504 0.01677206 -0.07523083
0.09753197 -0.050915472 -0.015517761 -0.063348085 0.05371283 0.04234171 -0.018867735 0.028817212
-0.023094455 0.021049766 0.018859003 0.04498584 0.036647644 -0.049225487 0.058751732 0.061638337
0.03435224 -0.015831538 -0.02190374 -0.06195804 -0.0031942234 0.096507005 -0.055598702 0.06518778
0.044835992 -0.075689584 -0.059870016 0.047194786 0.075923525 0.09125499 0.010661334 0.0125993425
0.006036696 -0.008630687 0.0869112 -0.04409303 -0.027797146 0.062464636 -0.008474353 -0.0675929
0.036248233 0.0035414775 0.010343033 -0.0429873 -0.06622245 -0.023941476 0.03771918 -0.026206596
0.0396098 0.06147538 0.04035525 -0.007901671 0.005541608 -0.01107743 -0.07186048 0.005626537
0.016339175 -0.03210289 -0.051173188 -0.06292509 0.043762304 0.07322061 -0.024162052 -0.07566598
-0.005366093 0.035881516 0.055768542 0.075379215 0.020531863 0.06386614 0.04618023 0.08352535
0.046654254 -0.0673344 0.08436488 0.023204988 0.02843684 0.08863499 -0.01849625 -0.05663584
-0.011493659 0.058186136 -0.016559158 0.085384436 0.092569865 -0.001666426 -0.01757154 -0.0177931
-0.041842993 0.041771058 0.050351765 -0.06822806 0.036901664 0.027143734 0.07626845 0.017547334
0.048844233 -0.012554452 0.053776015 -0.008395943 0.041864634 -0.02123383 0.059886925 0.07797929
0.050752733 -0.015856149 0.06298124 0.09808967 0.0055282037 0.052372184 -0.042118378 0.07280835
-0.014116151 -0.02114676 0.023720179 0.044894844 -0.060924828 0.06333965 0.044180814 -0.03691307
0.013240338 0.07482507 0.030594418 0.09403042 -0.056311097 0.081517324 0.05034323 0.06807587
0.016380653 0.04076419 -0.02085119 0.06198471 0.0566496 0.050606664 -0.02609045 0.0819671
0.077218466 -0.029477566 0.00668002 -0.059251335 0.09477357 0.058723703 0.08439744 0.07911993
-0.070165 0.07941488 0.05554296 0.03240394 -0.038758203 0.07001955 0.020422878 -0.067844704
0.039645273 -0.065116614 -0.07910932 0.011019305 0.07605141 -0.030089734 0.050054673 0.012622287
0.044028502 -0.0105994055 0.096257016 0.028137807 -0.06883945 -0.054539908 0.079294294 -0.07059781
0.030975798 0.012882542 0.048777934 -0.014292633 -0.010082539 0.02236409 -0.028875686 0.08815942
-0.015934266 0.07293077 -0.058490288 -0.013294944 -0.051148605 0.05992404 0.093662366 -0.04775867
0.036755975 0.09361259 -0.051591832 -0.06762785 0.07339663 0.06997856 0.021375883 0.062887326
0.08892745 0.078193136 0.0963013 -0.017902425 0.02755751 -0.01356746 0.021714222 0.050814137
-0.050350387 0.05327236 0.02694817 0.07690741 -0.005443614 -0.041760124 0.012079431 -0.0008117369
-0.027904086 -0.067712724 0.01944071 0.023359466 -0.068246216 0.055708878 0.08968795 -0.016683413
-0.055725303 0.014810074 -0.045452237 0.0033740117 -0.014338521 0.0059570563 0.024204742 -0.0718705

static_ll.2.bias f4 [64]
00000000: bf9e 433d 83cd 263d b341 9abc eb9e 80bd
00000010: c79e 29bd 8f7b 413d e1f4 843c 36a2 39bc
00000020: ca94 bc3c 72b4 8cbd 2b03 a63d 42cd 42bd
00000030: ae7a b2bc 53cc 283c 2131 7f3d 79fe 9d3d
00000040: 1e17 abbd 68cb 6a3c 5e7b b23d 3662 6ebd
00000050: 4896 31bd 1b16 d0bc 8a3c ff3c a9d7 ae3d
00000060: f50e 09bd ff3f a53d 7bcc 173d 9d37 4fbd
00000070: 1305 833b 8052 48bc d17d 5f3d e189 443c
00000080: fc7b 86bd 40ae 93bd 4fb3 8d3d 3abe 083b
00000090: 2099 2b3d cf29 55bd af47 ccbc fb58 d43c
000000a0: 0740 cf3c 6c71 6b3d 9095 a6bb 0ae1 b53c
000000b0: 0506 28bd bfee 703d 90b9 02bd 4415 103c
000000c0: 8c95 6c3d 309a 23bc bcec ad3c ad4e 0b3a
000000d0: fecf 35bd ec0f 9b3d 654d 983d a48f 5e3d
000000e0: 6937 09bd d7f6 c83d 63dd 25bd 880c aa3d
000000f0: b4ea 863d a06a d03c 2242 53bd 71ab bd3d
0.047758814 0.040723335 -0.018830156 -0.06280311 -0.041411187 0.047236975 0.016230049 -0.011330178
0.023020167 -0.06870355 0.08106073 -0.04755903 -0.021787014 0.010302621 0.062302712 0.077145524
-0.08354019 0.014330722 0.08714937 -0.05819913 -0.04335621 -0.025401166 0.031156797 0.08537228
-0.03346153 0.08068847 0.037060242 -0.050590146 0.0039984076 -0.012226701 0.054563347 0.0119957635
-0.06566617 -0.0721097 0.06918966 0.0020865337 0.04189408 -0.052041825 -0.024936525 0.025921335
0.025299085 0.057481214 -0.005083747 0.022202034 -0.041021366 0.058821436 -0.031915247 0.008794133
0.057759807 -0.009985492 0.021231048 0.0005314153 -0.04438781 0.07571396 0.07436637 0.054336205
-0.03350011 0.09812706 -0.040494334 0.083031714 0.06587735 0.025441468 -0.05157674 0.092612155

glu_encoder.rnn.weight_ih_l0 f4 [48, 2]
00000000: 70db 493e 1647 3abe 74ec fd3d 84af 9cbd
00000010: 4616 4d3e 5cd0 363e acc4 f0bd a041 19be
00000020: d69c 4bbe 60a3 723e 682b 793e 5ecf 2d3e
00000030: 92fc 55be f83f 8f3d 7ea0 6d3e ba70 7dbe
00000040: 60bf c1bd 2e6e 73be 8464 573e dabe 09be
00000050: 16eb 003e 00ae 30bb dc69 0e3e dc2c 783e
00000060: 7a7f 353e 2082 26bd d2e6 013e 00ea 0f3a
00000070: 007c 8ebc c0a2 8b3b acc4 2abe 4ce9 93bd
00000080: ce53 643e 8405 d1bd 803e a93d 4658 543e
00000090: 6ecb 4cbe 28f2 79be 0013 4c3c 469d 523e
000000a0: 10a5 b2bd 7286 343e 10d8 04bd dc41 fcbd
000000b0: e077 95bd ec9c bd3d 0e1f 673e 20e6 273e
000000c0: 6829 a03d d851 81bd b6f6 7abe 6609 323e
000000d0: 9ea5 76be dc51 96bd 000a ac3d d8bf 76bd
000000e0: 70aa 603e 1481 9fbd e0ba 7f3d a81f 08bd
000000f0: 2aca 613e e0cc 4abd 4295 16be 3005 7cbd
00000100: 7831 dd3d 6cae a7bd 9aa3 06be 80d6 373e
00000110: ea12 083e 30c1 9c3c a209 683e 008c 6ebd
00000120: 54be abbd 247c 5fbe 4218 483e d0c2 45be
00000130: 8cf9 383e e039 bebc c82a 783d 004c 24bb
00000140: fce0 053e c8d2 e8bd 1a3e 593e 3c26 593e
00000150: 2c83 f93d 3a2d 633e a887 06bd 18a9 6bbd
00000160: dce1 a1bd d070 19be d21a 57be 24ca 493e
00000170: 1ab1 423e 60a9 85bc 0005 0a3d 6a28 343e
0.19712615 -0.1819118 0.123986155 -0.076506644 0.20028028 0.1785292 -0.11756262 -0.1496644
-0.19884047 0.23695135 0.24332964 0.16973636 -0.20897129 0.06994623 0.23205754 -0.24750033
-0.0946033 -0.23772499 0.21034437 -0.1345171 0.12589678 -0.002695918 0.1390757 0.24235862
0.1772441 -0.04065144 0.12685707 0.0005489886 -0.017393112 0.0042613447 -0.16676587 -0.07222232
0.22297594 -0.1020613 0.08263874 0.20736799 -0.19999477 -0.24408782 0.012455702 0.20567808
-0.087228894 0.17629412 -0.032432616 -0.12317249 -0.07298255 0.09258446 0.2257044 0.1639638
0.078203976 -0.063144386 -0.24508175 0.17386398 -0.24086615 -0.07339832 0.08400345 -0.06024155
0.21940017 -0.077882916 0.062434077 -0.033233315 0.22049776 -0.04951179 -0.14705375 -0.061528385
0.10800451 -0.08187565 -0.13148347 0.17952919 0.13288465 0.019135088 0.22659925 -0.058238983
-0.083859116 -0.218247 0.19540504 -0.19312596 0.18063945 -0.023220956 0.060587674 -0.0025069714
0.13074106 -0.11368328 0.21215096 0.21205992 0.12183222 0.22185221 -0.032844216 -0.057534307
-0.079044074 -0.14984441 -0.21006325 0.19706017 0.19012871 -0.016316116 0.033696175 0.17593542

glu_encoder.rnn.weight_hh_l0 f4 [48, 16]
00000000: 26ef 29be 7e2c 7dbe 3493 9bbd 1694 1b3e
00000010: 7859 ae3d 9891 66bd a499 7abe a41a 563e
00000020: 144c 993d 5caa 5e3e f8f5 2abe 58f3 38be
00000030: 202a 57bd 0655 14be a64b 103e 3085 7bbd
00000040: e428 fa3d c465 cdbd ccc3 193e 5e75 75be
00000050: bc35 14be c6e4 5f3e e07b 8d3c 3005 883d
00000060: 26a6 69be 5c23 733e f86e 7bbd 1098 bb3d
00000070: c000 e23d becd 09be a830 4ebe 0457 b53d
00000080: ec94 363e e27a 26be 4c51 edbd d053 55be
00000090: 30c8 a43c 0840 693d 2496 29be 7c95 3b3e
000000a0: 289f 143e 88f5 9ebd 0835 83bd 4489 173e
000000b0: 24b6 efbd 0c75 183e c4e1 38be 667c 413e
000000c0: 8c46 eb3d 0e37 1dbe d8af d63d b694 413e
000000d0: e846 303d d804 ff3d d8a5 223e 74b3 a83d
000000e0: 1406 64be ec91 debd 0a33 3abe e813 debd
000000f0: f87f 313e 2c58 883d c0c2 b9bc d0f9 56bd
00000100: 5e96 0fbe 9865 793d c06c 0bbc 3c9d bebd
00000110: ccf7 b63d be03 04be 12ea 753e 70d2 6f3d
00000120: 28c1 1cbd 24fc aa3d 001f f1ba 96c7 67be
00000130: f644 68be 98c0 1f3e 0074 ddbc 66fd 44be
00000140: a0f3 7c3d 7026 583e d018 89bc 708e ca3c
00000150: 504c e43c f8ef 42bd a82a 7ebd e4b7 2c3e
00000160: 40f6 0e3d 10f5 593e 0ac2 41be 30a0 47bd
00000170: ae3b 20be 6efa 65be c0cd 9dbd 4021 69bd
00000180: 208d aabd 62d2 293e b8ea 093e 24dc 5d3e
00000190: 6064 853d bef5 573e 5468 a2bd 8026 d23c
000001a0: 7839 4f3e 00a0 353b 72ed 4bbe 7072 423e
000001b0: eab1 323e d8a0 27be 4cad aa3d e472 41be
000001c0: 207d ee3c 382d ecbd f09a 8ebd 50d2 103d
000001d0: ca4e 33be 7c8a df3d 605d 03be 60bd febd
000001e0: f493 54be dc5e d43d 408e a63c 528b 2dbe
000001f0: 28cb 5cbe 80e5 59be 62a0 253e a8bc b1bd
00000200: 0890 053d 501c 703e a65c 6a3e 5a82 36be
00000210: ecb6 30be 54af 003e b8c9 44bd 54cb 61be
00000220: c063 b7bc 6459 c73d 787e aebd b89a 493e
00000230: 2639 6ebe 7078 d1bd 682e 703e 00c4 b0bd
00000240: 2220 743e 6837 4abd 1269 0a3e 6862 65be
00000250: 4ed6 21be 8e00 5fbe c06e c23c e057 df3c
00000260: 3ade 35be 9e68 2cbe f042 12bd 807d 30bd
00000270: 9886 183d a023 8f3d 482e 0a3d d465 a63d
00000280: 5219 693e 28c6 bfbd 6698 71be 2427 823d
00000290: bae5 523e 0c3d f03d 64cc 873d 9c64 213e
000002a0: b0ab d83c 9054 70bd 3014 ccbd a235 223e
000002b0: 3848 27bd a03e de3c a0d1 0c3e 00b2 a73a
000002c0: 7e9f 0dbe 6841 de3d a0fd 3d3d 90a2 163e
000002d0: 444e 8e3d a03e c3bc 6818 1fbd 40d1 e0bd
000002e0: b85c 8bbd 68ad 0fbe 94b1 a3bd 78ae 163d
000002f0: dcb2 743e a0d1 2abe f82a 4abd fcbd 6c3e
00000300: 149f f63d 2e28 223e bc37 47be e0ff 0a3e
00000310: 8422 5bbe e47e e9bd 8424 9e3d 74ba 8d3d
00000320: 8465 1e3e acbc 16be f2a9 5fbe 6cec 9dbd
00000330: cccb cc3d f01a 90bc 6074 a0bc a04d a63c
00000340: d4df 003e a84b be3d 8232 013e 602e 623e
00000350: 38c7 17be 20eb d1bd f0d9 febc b4b3 ba3d
00000360: 38cb 543e 0454 b23d ce8a 0e3e 9a32 15be
00000370: e83f 02bd 00d6 743c 4004 b2bd ae1d 09be
00000380: dee9 683e 6258 533e 9efe 6bbe f8ed a1bd
00000390: e03a 353d fc62 0a3e e6a8 13be 9808 15be
000003a0: 0a42 26be 0c01 f53d 1a42 33be a480 873d
000003b0: c270 573e c074 203d 665c 733e 542f 2ebe
000003c0: b016 723d 106e e1bc 0c45 0d3e 66c0 5f3e
000003d0: 8487 3f3e 564e 43be a420 803d 5ce8 7c3e
000003e0: d885 033e c8e6 09be f068 6cbd da31 36be
000003f0: 0826 01be fcfa 25be c8e6 413d 92b2 053e
-0.16595134 -0.24724004 -0.07596436 0.15193209 0.085131586 -0.056291193 -0.24472672 0.209086
0.07485214 0.21744674 -0.16695392 -0.18061578 -0.052530408 -0.14485559 0.14091358 -0.061406314
0.122148305 -0.10029176 0.15016097 -0.23970553 -0.14473623 0.21864614 0.017270982 0.066416144
-0.22817287 0.23743957 -0.061385125 0.09159863 0.11035299 -0.1345739 -0.20135748 0.088544875
0.17830247 -0.16257814 -0.11587772 -0.20832753 0.020114988 0.05694583 -0.1656118 0.18318743
0.14513838 -0.07761675 -0.06406599 0.14798456 -0.117046624 0.148884 -0.18054873 0.1889511
0.11488065 -0.15353033 0.10482758 0.18904385 0.04303637 0.12452096 0.15883577 0.08237353
-0.22267944 -0.10867676 -0.18183532 -0.108436406 0.17333972 0.066574425 -0.022675872 -0.052484334
-0.14022204 0.060887903 -0.008509815 -0.09307334 0.08933982 -0.12892053 0.24015072 0.0585503
-0.038270146 0.08348873 -0.001839608 -0.2263473 -0.22682557 0.15600812 -0.027032852 -0.19237289
0.061755776 0.21108413 -0.016735464 0.024726123 0.02786842 -0.047592133 -0.0620524 0.16867024
0.03490281 0.2128489 -0.18921676 -0.04873675 -0.15647766 -0.22458813 -0.07705259 -0.056916475
-0.08327699 0.16584161 0.13468444 0.21666008 0.06513286 0.21089837 -0.07930055 0.025653124
0.20236766 0.0027713776 -0.19914797 0.18988967 0.17450681 -0.16369951 0.08333835 -0.18891484
0.029112399 -0.11532062 -0.06963146 0.03535682 -0.17510524 0.10915086 -0.12828588 -0.12438464
-0.20759565 0.103696555 0.020331502 -0.16947678 -0.21561873 -0.21278954 0.16174462 -0.086785614
0.032608062 0.234483 0.22886905 -0.17823163 -0.17257279 0.12566882 -0.048043936 -0.2205022
-0.022386432 0.09733847 -0.08520216 0.19687927 -0.23263988 -0.1022805 0.23455203 -0.08631134
0.23840383 -0.049369246 0.13516644 -0.2240082 -0.15804407 -0.21777555 0.02373445 0.027263582
-0.17760554 -0.16836783 -0.035708368 -0.043088436 0.037237734 0.06989217 0.033735543 0.08124891
0.22763565 -0.09363967 -0.23593292 0.06355122 0.20595446 0.11730394 0.06630781 0.15761036
0.026449054 -0.058674395 -0.09964788 0.15840772 -0.040840358 0.027129471 0.1375184 0.0012794137
-0.13830373 0.10852319 0.046384454 0.1471045 0.06948522 -0.023833573 -0.038841635 -0.10977411
-0.06804794 -0.14030993 -0.07992855 0.03678748 0.23896354 -0.16681528 -0.049357384 0.23119348
0.120420605 0.1583564 -0.19454855 0.13574171 -0.21399885 -0.114011556 0.077218086 0.06920329
0.15468413 -0.1472041 -0.21842173 -0.077111095 0.09999809 -0.01759097 -0.019586742 0.020300686
0.12585384 0.09291774 0.12616923 0.22088003 -0.1482209 -0.10249925 -0.03110978 0.09116307
0.20780647 0.08707431 0.13920137 -0.14570084 -0.031799227 0.0149436 -0.08692217 -0.13390228
0.22745463 0.20639184 -0.23046347 -0.07906717 0.0442456 0.13514322 -0.14419898 -0.1455406
-0.1623613 0.1196309 -0.17505684 0.06616333 0.21039107 0.03917384 0.23765716 -0.17010242
0.059103668 -0.027518302 0.1379587 0.21850738 0.18704039 -0.19072852 0.06256226 0.24698013
0.12844026 -0.13466942 -0.057717264 -0.17792454 -0.12612164 -0.16209024 0.04733923 0.130564

glu_encoder.rnn.bias_ih_l0 f4 [48]
00000000: 1afa 523e 78fc 48be 109e c7bc 60cf 1dbc
00000010: b041 6ebe 6c5d c7bd 107e 893c 32d4 26be
00000020: 6859 bc3d 7ca9 8a3d 00b5 ceba f0ea afbd
00000030: e48b 05be 5841 0d3e 74a0 f0bd c846 aebd
00000040: 5259 7c3e 1c39 3cbe f6e4 303e 6601 55be
00000050: 405e 663e d0ca f4bd 80df 663e 78fb 59bd
00000060: 6096 103d 0aa3 7a3e d408 ed3d 6c85 5f3e
00000070: a87d 463d 00bd a43b be1e 0d3e fc75 98bd
00000080: bc6a 493e 229f 4e3e 862c 03be 26f8 5bbe
00000090: cafe 00be 5ef6 4dbe 80dd 3bbe be05 58be
000000a0: f460 9bbd 6c99 543e 402c f63b 3025 06be
000000b0: 8824 e53d d20c 4cbe 3012 f7bd bc9c bdbd
0.20603219 -0.19627559 -0.024367362 -0.009631962 -0.23267245 -0.09734616 0.016783744 -0.16291884
0.091967404 0.06770608 -0.0015770495 -0.08589733 -0.13041645 0.13794458 -0.11749354 -0.08509594
0.24643448 -0.1838116 0.17274842 -0.20801315 0.22496891 -0.11952746 0.22546196 -0.053218335
0.03529966 0.24476257 0.115739495 0.2182824 0.04845968 0.0050274134 0.13781258 -0.07444379
0.19669622 0.20177892 -0.12809953 -0.2148138 -0.12597194 -0.20113513 -0.18346214 -0.2109594
-0.07586852 0.20761651 0.007512599 -0.13100123 0.111886084 -0.19926766 -0.12064016 -0.0925841

glu_encoder.rnn.bias_hh_l0 f4 [48]
00000000: 603b 97bc dcf3 7d3e b879 633e b472 d2bd
00000010: 90af 44be f0e8 1cbd 0c3c 5ebe 98c2 64be
00000020: 8048 3abd 9606 09be b003 e33c 00d0 73bc
00000030: 20a3 3d3e 4c5a 08be c0f1 e63c dea9 123e
00000040: b816 35bd fcc0 543e d034 783e 9602 563e
00000050: b0e3 39be 106e 24bd cccc 223e 86fc 193e
00000060: 3817 053e 1e01 43be 629b 543e 54ab 5b3e
00000070: b661 593e 9821 7e3e e8e8 f93d 6461 523e
00000080: 5070 7b3d 40bc cb3b 9abd 2b3e 74f1 a03d
00000090: de43 44be f200 29be a4b1 4cbe d02c bb3d
000000a0: 7678 1c3e 9013 e7bd cc33 c9bd fa1e 32be
000000b0: 1a6d 63be 3c77 3abe a093 13bc a24b 0bbe
-0.01846093 0.24800056 0.22214401 -0.10275784 -0.19207597 -0.038308084 -0.21702594 -0.22339857
-0.045479298 -0.13381419 0.02771172 -0.014881134 0.18519258 -0.13315696 0.028191447 0.14322612
-0.04421112 0.20776743 0.24238896 0.20899424 -0.18153262 -0.040144026 0.15898436 0.15037736
0.12997139 -0.19043395 0.20762399 0.21452075 0.2122868 0.24817502 0.122026265 0.20544964
0.061386406 0.0062175095 0.16771546 0.078585535 -0.19166514 -0.16504267 -0.1998964 0.09139407
0.15280327 -0.11283028 -0.098243326 -0.17394629 -0.22209588 -0.18209547 -0.0090073645 -0.1360307

glu_encoder.hid2lat.weight f4 [64, 16]
00000000: d0f1 76be 62ca 2cbe 6882 9ebd 2cf8 233e
00000010: 5021 f93c 5cd3 273e 0aaf 09be c899 673d
00000020: b04b 58bd 24ed 62be a8b9 ffbd 88f7 3bbd
00000030: 28c5 493e 609d 2bbe 6ad1 2dbe e68a 2abe
00000040: 40a8 1f3e 9e98 033e 7473 52be 68f3 ea3d
00000050: 8e8d 5d3e 2073 313c e8e4 8d3d e82b 76bd
00000060: f83e 393e e05b b5bc 1efb 1cbe b83a dcbd
00000070: bcc6 ed3d a8eb a93d 92cd 36be 2810 2ebd
00000080: ea2f 03be 0034 bc39 88f2 21bd 4a1d 783e
00000090: 8059 5dbb 8cac 9b3d 7a1b 6a3e 1825 443e
000000a0: 0067 53bd b415 733e 18db 53be 00a2 333d
000000b0: 94da d73d bc6d bebd 489e d23d 5ccc 62be
000000c0: c497 113e 8c09 f1bd 6ee0 763e 3cf5 983d
000000d0: 88f2 eebd accb 383e 00ee 4a3b 4ab8 683e
000000e0: a045 36be ccb0 b3bd cad8 73be 1032 d33c
000000f0: d0df 3f3d 846d b6bd 0014 023b 206b 95bd
00000100: 5a6d 4d3e dcef 1b3e 8e78 72be 0098 eaba
00000110: 7206 603e fee5 3e3e 88e6 323e 886e 83bd
00000120: 0486 b43d 60d1 e8bd a267 2c3e d09f 7ebe
00000130: 02f0 4abe 3c0e c6bd a4d2 f0bd ec39 2e3e
00000140: 2e78 10be 5cd5 1fbe 9631 7c3e 18cd 693e
00000150: a8b2 803d c8f0 433e ee32 243e 36d7 7bbe
00000160: 0416 acbd 0490 e73d 8ae7 11be 2054 283e
00000170: 004d 453b 54a3 a2bd ccec 1bbe 30e7 af3d
00000180: 20be 2c3d 0286 04be 0017 713d ce70 403e
00000190: e4ba 993d f658 3cbe bcfd 033e 2e34 503e
000001a0: 2cbd eebd 7a33 0a3e f8a7 523d 3299 003e
000001b0: 70de cebd 805b 9dbc e65d 11be 64e9 a8bd
000001c0: b06c c8bd 58a1 c53d e2b7 493e 6c83 9ebd
000001d0: 7002 42bd 16e2 10be 345a b6bd 3446 8a3d
000001e0: 5c1e c8bd 20e5 cabd 8ebd 7fbe fecd 063e
000001f0: 9294 2f3e e641 0b3e 9029 173e b6c6 603e
00000200: 18c4 3a3d 106e 70bd d6d9 38be 2cc3 503e
00000210: 70be 433e 6825 58be 527e 56be 1c62 3fbe
00000220: e848 8ebd aa36 073e 2ace 1e3e 9c82 38be
00000230: 906a 833c 6e2e 6e3e c8e6 17be 4077 e93b
00000240: a00f 193d fce1 5dbe d405 c13d 1085 1e3d
00000250: b8df 553d 0623 383e 2830 f7bd a407 b73d
00000260: 4a23 2bbe 3c2b e8bd 880b 32bd f866 f53d
00000270: bc9e c0bd b018 b63d 3868 bb3d 5206 063e
00000280: 0cf7 c73d 18c2 28be 58bb 6b3d 48c6 753e
00000290: f668 453e e448 fe3d 70d2 443d 64cd 81bd
000002a0: 4014 e53d f816 5abd 2613 2fbe 9853 bbbd
000002b0: 7ea1 00be 900e 933c be96 473e 3857 dfbd
000002c0: 384a 03be f225 33be 42c8 27be 2064 623c
000002d0: 6c9b cb3d e09a 2ebd d00f 5a3d 9478 ffbd
000002e0: a0df 58be e237 5e3e 80e8 123e c059 333c
000002f0: 9230 7abe 7075 e73c 1630 7ebe 126d 07be
00000300: d8be 713d 1800 a0bd 3c96 113e c69f 393e
00000310: 908e 0dbe 98aa 4dbd 1033 8abd fe96 2a3e
00000320: ce22 7d3e 60b5 5b3e a0d1 593d 3cd5 563e
00000330: 9052 093e 4e25 5fbe 384c 113e c800 2cbe
00000340: c054 97bd d09a 2a3d b804 63bd 6487 41be
00000350: 32ab 72be 4062 19be b03a 6dbe 8054 2c3e
00000360: 4e23 723e d8cc 0fbe b0a2 373e c615 153e
00000370: e0d0 bbbd 805d afbb 9e99 51be 40f6 6d3e
00000380: c8f2 533e 68cf b9bd fc02 013e d03b c43c
00000390: 20c4 15bc 84bb 1f3e 9c7d 913d 14ca 70be
000003a0: c219 7ebe 00ed ddbb 2634 7dbe a0d8 063d
000003b0: e0f0 b7bc 4059 323c 782b 60be 2a0e 273e
000003c0: 18b1 35be cca8 963d a0d2 393c ce36 28be
000003d0: 40c3 cf3c 903e 6d3e 807e a6bb 684a 003e
000003e0: 4086 d2bd e07b 143c bcec 0f3e b2ba 45be
000003f0: e8f6 54bd e0f2 05bc 00f9 7e3c b0ae d1bc
-0.24115682 -0.16874078 -0.07739717 0.16012639 0.030411392 0.16389221 -0.13445678 0.05654314
-0.052806556 -0.22160774 -0.12486583 -0.04589036 0.19704115 -0.16759253 -0.16974416 -0.16654548
0.15591526 0.12851188 -0.20551854 0.11472207 0.2163603 0.010830671 0.06928426 -0.060100466
0.18090427 -0.022138536 -0.15330169 -0.10753387 0.11610171 0.08296901 -0.17851856 -0.042495877
-0.12811247 0.00035896897 -0.039537936 0.24229923 -0.003377527 0.0760127 0.22862044 0.19154775
-0.0516119 0.23738748 -0.20689046 0.043855667 0.10539737 -0.09298274 0.10284096 -0.2214827
0.1421805 -0.11769399 0.2410905 0.0746865 -0.11667353 0.18046445 0.0030964613 0.2272655
-0.17799997 -0.08773956 -0.23813167 0.025780708 0.046844304 -0.08907607 0.0019848347 -0.07295823
0.20061246 0.15228218 -0.236788 -0.0017898083 0.21877459 0.18642423 0.17470753 -0.064175665
0.08814624 -0.1136806 0.16836408 -0.24865651 -0.19818118 -0.09670684 -0.117589265 0.17014283
-0.14108345 -0.15608734 0.2462829 0.22832143 0.06284076 0.1913482 0.16035053 -0.24593815
-0.08402637 0.11306766 -0.14248481 0.16438341 0.003010571 -0.079413086 -0.1522705 0.085890174
0.042173505 -0.12941745 0.058859825 0.18793032 0.0750635 -0.18393311 0.1288976 0.20332405
-0.116571754 0.13496199 0.05142972 0.1255844 -0.1010102 -0.01920867 -0.14195976 -0.08247641
-0.097863555 0.096499145 0.19699052 -0.077399105 -0.047365606 -0.14148745 -0.08903924 0.067516714
-0.097714156 -0.099069834 -0.24974653 0.13164517 0.17146519 0.13599357 0.14761949 0.21950802
0.045597166 -0.058698714 -0.18051848 0.20386952 0.19115615 -0.2110802 -0.20946625 -0.1868977
-0.069474995 0.13204446 0.15508333 -0.18018574 0.016042024 0.23259899 -0.1483413 0.0071248114
0.037368417 -0.21668237 0.0942494 0.038701117 0.052215308 0.1798211 -0.12069732 0.08937004
-0.1671268 -0.11336371 -0.04346803 0.1198253 -0.09405276 0.088914275 0.091507375 0.13088349
0.09763917 -0.16480291 0.05755171 0.2400142 0.1927832 0.124162465 0.04805225 -0.06338003
0.11185503 -0.05324456 -0.17097148 -0.091468036 -0.12561604 0.01795128 0.19491097 -0.109053075
-0.12821281 -0.17494944 -0.16384986 0.013817817 0.09941754 -0.04262817 0.053237736 -0.1247417
-0.21179056 0.21701005 0.14346504 0.010946691 -0.2443259 0.02825424 -0.24823031 -0.13225201
0.059019893 -0.07812518 0.14217466 0.18127355 -0.13823915 -0.05021152 -0.06748021 0.16659161
0.24720308 0.21455908 0.05317843 0.2097978 0.13410401 -0.21791574 0.14189231 -0.16797173
-0.07389212 0.041651547 -0.055424422 -0.18899304 -0.23698118 -0.14978886 -0.23166919 0.16829109
0.2364628 -0.14042985 0.17933154 0.14559087 -0.09170699 -0.0053517222 -0.20468757 0.23238468
0.20698082 -0.09072763 0.12598795 0.023954302 -0.009140998 0.15598875 0.07104036 -0.23514587
-0.24814513 -0.0067726374 -0.24726924 0.032921433 -0.022453725 0.010885537 -0.21891582 0.16313997
-0.17743337 0.07356414 0.011341721 -0.16427156 0.025361657 0.23168397 -0.005080998 0.12528384
-0.102795124 0.009062737 0.14055151 -0.193095 -0.05199328 -0.008175582 0.015562296 -0.025595993

glu_encoder.hid2lat.bias f4 [64]
00000000: 5898 173d 086a 58bd 9409 4ebe f022 f53c
00000010: c855 013d c02f 4c3c 9883 403e 94aa 8fbd
00000020: 00cc 593b 98b2 0a3e 12df 553e a886 e83d
00000030: 306f 833c e066 6e3c 201c 4f3c 0873 31be
00000040: 84be 9fbd 507e 3d3d a069 51bc ec0a 643e
00000050: 600d bebd eeaa 273e 68c4 cd3d 68d5 633d
00000060: ee0c 2a3e 0464 c53d 84f9 983d 8021 073d
00000070: f499 0cbe 6624 7a3e 6c49 2fbe 0076 e4bc
00000080: 9471 6bbe d259 6cbe 22dc 3f3e a491 fcbd
00000090: c673 693e 60a1 0cbd 2e3c 3fbe e835 f0bd
000000a0: a049 6fbc 004d 653b 9069 253e c0b0 a1bb
000000b0: 1e26 7b3e 2615 063e 9c71 0e3e b2f2 403e
000000c0: ca78 15be 783e 103d aa39 533e ec70 723e
000000d0: 0049 bebb e8bf f8bd 10a4 f53c 0080 36bd
000000e0: 88ee 75be 1691 33be 0eb4 6abe 000d 2ebd
000000f0: 4473 38be d0dd 4fbd e8d7 763d 529f 2a3e
0.03701052 -0.052835494 -0.20120841 0.029923886 0.031575948 0.012462556 0.18800199 -0.07014957
0.0033233166 0.1354469 0.20885876 0.11353809 0.01604423 0.0145508945 0.012640983 -0.17329037
-0.0780001 0.04626304 -0.012781531 0.22269791 -0.09279895 0.16373798 0.10047227 0.055623442
0.16606495 0.09638217 0.07469466 0.032990932 -0.13730603 0.24427947 -0.17117852 -0.027888298
-0.22992545 -0.23081139 0.18736318 -0.12332466 0.2279807 -0.034333587 -0.186753 -0.11729032
-0.014604956 0.0034988523 0.1615355 -0.0049344003 0.2452626 0.13094005 0.13910526 0.18842581
-0.14596859 0.035215825 0.20627466 0.23675889 -0.005807042 -0.12145978 0.029985458 -0.044555664
-0.24016774 -0.17535815 -0.22920248 -0.042492867 -0.1801272 -0.050748646 0.060264498 0.16662338

encoders.weight_ih_l0 f4 [192, 64]
00000000: 901a b5bc d0ed a5bd 16cd e5bd aaf1 fe3d
00000010: 30d9 55bc f074 c43c 3026 513d 98bc 873d
00000020: 4a7a ce3d 08c3 b5bd 08d3 ca3d 7a18 debd
00000030: e262 e2bd 20ec 903b 68b9 25bd 527b d43d
00000040: 00a4 753a 0050 3639 aadc fbbd b064 933d
00000050: 3a0a c53d 0823 e3bd 50b7 1a3c e83b b6bc
00000060: a0e6 dc3b 2206 fd3d ced1 afbd e42f 5fbd
00000070: 96d3 d4bd 6030 bebb 54a0 ff3d b0a1 dcbc
00000080: 0003 4cbc 5621 ac3d c08d 2abd dc9d dabd
00000090: fab7 edbd 1c1f 07bd acd7 94bd ced2 c73d
000000a0: 3cea 333d f066 cd3c e22a c93d ca6f fc3d
000000b0: 72b3 bbbd 2c8d 7f3d f821 a7bc e47e c8bd
000000c0: 125a e4bd 488f 74bd 50dd 5bbd f48c 17bd
000000d0: 600a a23c b05f 7c3d 003c 3eba 90a5 abbd
000000e0: 6836 a3bc 28c6 e63c a447 d6bd 58c5 f6bd
000000f0: 8c78 04bd 10a0 9d3c 80d4 b73c 9071 a93d
00000100: e0d0 bfbc 78e9 1b3d a065 c3bd 04a2 bfbd
00000110: 9cba afbd f4c8 b43d 5c7d 8a3d 7433 133d
00000120: 001f af3a 2eab d6bd 600b 3f3c 1cae bbbd
00000130: a8c9 bd3c 78e1 14bd 0032 85ba 8086 f0bc
00000140: 3828 e43c 441a f9bd fc60 d4bd bc3b 863d
00000150: b43e ad3d bac1 ba3d 6eb0 c83d 943a debd
00000160: ded3 a93d ac48 983d 72d1 9f3d 88c6 7fbd
00000170: 9e69 f73d b0b5 ad3c d8a9 923c b8e4 debc
00000180: 4e42 b7bd 4e62 b4bd 4037 93bb e0ff 8a3d
00000190: b42e ba3d 2410 ec3d 5038 53bc c865 94bd
000001a0: 2447 843d d4dc 45bd 20de 0cbc 008a cb3a
000001b0: d404 c73d 9480 05bd a049 a03d 8073 76bd
000001c0: f486 d8bd c621 903d 60e9 ffbc 945b d93d
000001d0: a0f0 093d 26f0 aebd 9029 edbd 6a2a a1bd
000001e0: d840 513d dc15 193d 4c0d c7bd c07e 473b
000001f0: b4cb bc3d 98ae 45bd 1844 cf3c 2888 9dbd
00000200: 0882 b3bc a04c b5bc 0e71 98bd 10b9 86bd
00000210: b05d 7dbd b028 e7bc 6cab b7bd 407d 2f3c
00000220: aa28 eebd ae5c 8cbd 8cf1 a9bd 42b4 a1bd
00000230: fa7d d23d a061 693c ec20 4e3d d859 cebc
00000240: c8ee ce3c 981f aa3d 7098 9b3d 684f 91bd
00000250: e468 10bd 2ac6 ebbd a2ba e93d 04ce d8bd
00000260: 00af 6ebc de20 9b3d 0028 9d3b 9009 2abd
00000270: f825 b43d e6f0 8f3d c8fd 9f3d c0fb 603d
00000280: a672 dbbd 3249 8abd b251 cb3d 2014 953c
00000290: d061 3bbd 546b b33d 64e7 b8bd d431 bc3d
000002a0: b00d 2a3c 4016 bebb 0021 0fbb ac6f 3cbd
000002b0: 7e3c 9f3d 7075 643d ac65 523d de15 e5bd
000002c0: 00c4 1b3c 5066 71bc 50c8 3fbc 1c9b 2b3d
000002d0: 1602 cebd 7ae3 cbbd 0477 86bd 8095 1f3d
000002e0: c403 233d 9041 1ebc 16ac dcbd 6857 d4bd
000002f0: f071 d3bc 7c06 d1bd 0ec7 a8bd b8d6 a13c
00000300: dc72 2e3d 6a59 d43d 0422 e83d e099 29bc
00000310: f059 bb3d 70dc f6bd c4fe e13d da7b b1bd
00000320: 5028 48bd c4c2 05bd a4a5 473d c40c edbd
00000330: 0aa1 e13d 8806 7b3d 5875 d6bc 423c b13d
00000340: e0c0 dcbc 7094 533c 9cf8 24bd c23f c3bd
00000350: 645b bf3d a06a eb3b 1628 fabd d64d ddbd
00000360: 28a8 0e3d 887e bc3c 24ae 283d f814 f8bd
00000370: 005b f53c c0e9 12bd 0a4d a23d a610 b9bd
00000380: 30f7 7dbc 849e f53d 0a5e 88bd 741c 5bbd
00000390: f08f 63bc 2019 8cbb ba72 e93d 1ca2 77bd
000003a0: e0df e0bc e64b ba3d 6cc8 d83d 4010 c03b
000003b0: 26d9 b03d 3cf5 3d3d 50f7 833c 40ca 4f3b
000003c0: 4af5 eb3d 8882 ae3d ec2e 7abd f074 0abd
000003d0: ac7c 74bd 7286 883d 4022 e7bd b6e6 8e3d
000003e0: d65b cf3d 189e a6bc 3802 973d 443e 1c3d
000003f0: 7eec afbd 788c 7c3d 3eac afbd a218 d93d
-0.022107393 -0.08102 -0.11220758 0.124484375 -0.01305227 0.023981541 0.05106181 0.06627768
0.100819185 -0.0887509 0.09903532 -0.10844512 -0.11054017 0.0044226795 -0.04046002 0.10375084
0.0009370446 0.00017386675 -0.12297948 0.07196939 0.09621091 -0.11090666 0.009443119 -0.022245362
0.00674136 0.12354685 -0.08584939 -0.05448903 -0.10391919 -0.0058041066 0.12481752 -0.026932567
-0.012451887 0.08404796 -0.04163909 -0.106746405 -0.11607356 -0.032988653 -0.07267699 0.09757005
0.043924555 0.025073498 0.09822632 0.123260096 -0.09165086 0.06239049 -0.02040194 -0.097898275
-0.11149992 -0.059706956 -0.053677857 -0.036999658 0.019780338 0.061614692 -0.00072568655 -0.08381188
-0.019923404 0.02817066 -0.10462883 -0.12049359 -0.032341525 0.019241363 0.022440195 0.082736135
-0.023415029 0.03806445 -0.09540868 -0.09357074 -0.08580515 0.08827391 0.06762192 0.03593774
0.0013360679 -0.10481869 0.011660427 -0.09164068 0.023167446 -0.036347836 -0.0010161996 -0.02936101
0.027851209 -0.12163213 -0.10370061 0.06554362 0.08459225 0.09118982 0.09799276 -0.10851017
0.082923636 0.07435736 0.078036204 -0.062445194 0.12080692 0.0212048 0.017903253 -0.027208671
-0.089481935 -0.08807813 -0.0044926703 0.067870855 0.09090939 0.11526516 -0.012891844 -0.07245976
0.064588815 -0.0483063 -0.008597881 0.0015528798 0.09717718 -0.032593325 0.07826543 -0.060168743
-0.10572615 0.07037692 -0.031239212 0.1061317 0.033676744 -0.085418984 -0.11580193 -0.07869418
0.05108723 0.037374362 -0.09719333 0.003044054 0.09218541 -0.04826221 0.025301024 -0.07691985
-0.02191259 -0.022131264 -0.074434385 -0.065782666 -0.061856925 -0.028217643 -0.08968243 0.010711014
-0.1162885 -0.06853615 -0.082980245 -0.078957096 0.10277934 0.014244467 0.050324365 -0.025189325
0.025260344 0.08306807 0.075974345 -0.07095224 -0.03525628 -0.11512406 0.114125505 -0.10586169
-0.01456809 0.07574628 0.004796028 -0.041513026 0.087963045 0.070283696 0.07812077 0.054927588
-0.10715227 -0.06752242 0.099276915 0.018198073 -0.04574758 0.087607056 -0.09028509 0.091891915
0.01037924 -0.0058009923 -0.0021839738 -0.046004936 0.0777521 0.05577606 0.051366493 -0.111858115
0.009507179 -0.014733866 -0.011705473 0.04189597 -0.100589916 -0.09955497 -0.06565669 0.038960934
0.039798513 -0.009659186 -0.1077501 -0.10368234 -0.025811166 -0.10206315 -0.08241092 0.019755706
0.042590007 0.10368617 0.11334613 -0.010351628 0.091480136 -0.12053764 0.11034921 -0.08666201
-0.04886657 -0.032656446 0.04874195 -0.115747005 0.11017044 0.061285526 -0.026179 0.086540714
-0.026947439 0.012913808 -0.040276155 -0.09533645 0.09343603 0.0071843415 -0.12214677 -0.10805862
0.034828335 0.023009554 0.0411817 -0.121133745 0.029950619 -0.035867453 0.0792485 -0.090363786
-0.015500829 0.11993125 -0.066585615 -0.053493932 -0.013889298 -0.004275456 0.113988355 -0.060457334
-0.027450502 0.09096508 0.105851024 0.005861312 0.08635168 0.04637645 0.016109139 0.0031706244
0.115213946 0.085209906 -0.061079904 -0.033802927 -0.05968921 0.066662684 -0.112858295 0.06977598
0.10124938 -0.020339057 0.0737347 0.03814532 -0.08590029 0.0616574 -0.085777745 0.106004015
