code/baseline/saved/GAMNet_learning_rate_0.0001_hidden_size_64_epoch_20_batch_size_32/init.model (torch, 455805 bytes, 29 tensors)

lab_embeddings f4 [32, 64]
0.30330583 0.08011491 -0.68878627 -1.5989693 -0.7189896 -1.4118054 1.1171422 0.48747948
0.69861424 0.58454293 -1.7161939 -1.3261858 0.46288592 -0.3780783 0.6300514 1.9129393
0.6897082 0.19288744 0.30195037 0.5480321 0.25157636 -0.8118986 -1.0617219 -0.90661883
-0.660995 -1.0746037 0.6839099 -2.2821367 -0.34581444 0.76702887 1.4187958 0.36713862
-2.0963368 1.6530101 -0.2755021 -1.8389813 -0.5031118 -0.61495125 -1.1541263 -0.91727185
0.44750175 0.35404983 0.8962745 -0.42599976 0.31624335 0.9146078 2.1945648 0.4833295
-0.2679547 -0.41067833 0.28185806 -0.5039665 -0.72679 0.17950241 -0.5753867 0.7337531
-0.22935109 -0.2687746 2.495159 -0.5572841 0.08225611 0.36567223 1.8904394 0.04286937
-0.15411341 -0.675972 -0.3786831 -0.07962209 0.20072079 0.59458625 1.8337202 0.29409993
-1.0721936 -1.2037685 -1.2874291 0.092818074 -1.5335613 -1.036218 0.84490514 -0.9563714
-0.1725099 0.6071009 1.4375765 1.2241334 0.39926392 -0.5421478 0.17767386 2.31442
-0.03634287 1.0089011 0.32559434 0.9651492 0.034396086 1.838521 0.9020201 0.09497744
-0.7295829 -1.4382077 -0.4846117 0.5560166 1.2523774 -0.32855943 0.2280827 0.32087502
0.4170311 -1.2178879 0.6763729 0.6117269 1.5855042 -0.24571915 -1.946191 -0.6563652
0.7238393 -1.6305356 0.76000696 0.58253556 0.5808879 -0.450917 -1.188007 -0.812216
-1.8972317 3.256143 0.16975214 0.38016355 0.7346857 0.94717145 -2.13996 1.3619515
-0.8508495 -0.21396627 1.6112562 -0.112753965 0.20093626 -0.9234348 -1.0262498 -0.6870842
-0.79838395 0.8200583 0.019595351 1.2632121 -0.28864428 0.61371845 -0.5388698 2.1108968
-0.7591241 0.19052044 0.7579937 -0.36068165 -0.7580621 0.4825612 1.606418 -0.04437957
-1.3852737 -0.30697054 -0.5735814 -0.70126414 0.4331247 -0.3133699 -0.15475406 0.751196
-0.7776557 1.3223653 0.24760279 0.54035604 0.6689497 0.41100207 -0.057733286 1.3947501
1.9435198 -0.22981724 0.36647642 -0.11656364 1.1981369 -0.3030703 -0.49335116 -0.7302609
-0.3159237 0.29611215 -0.99135256 0.38935292 -1.4483776 0.3138184 0.114927575 -1.6445034
0.0056197075 0.770255 0.18888018 0.034663092 0.40871084 -1.3983549 -0.8450354 -0.47775584
-0.0827345 -0.5819513 0.8887296 -1.0688195 -0.13174914 -2.005979 -1.4333739 0.18063198
0.28369585 1.1827741 -0.4678642 -1.032352 0.8577044 1.9526327 0.20130038 -0.080671154
0.25666356 0.55383176 -0.2327543 0.062115453 0.24214673 -1.3229344 -2.4926772 -0.3758536
-0.6164306 -0.057762563 2.243974 -1.7853187 0.5782731 0.04484124 -0.28239733 0.3961231
0.25464785 1.2358389 0.9594811 -1.2652811 0.5237713 -0.04090816 1.8999101 -2.0696478
0.7494874 0.3061232 -0.036667924 -0.38838115 -0.768199 0.5778418 -1.201286 0.87772524
-0.65944314 -1.2905655 0.49760526 0.8914339 1.3597206 0.48462382 -1.8874238 0.73683643
0.5925957 1.4411396 -0.8890178 0.7157696 1.1069528 -0.18606493 0.62948376 2.1713908
00000000: e74a 9b3e 4913 a43d 4c54 30bf 07ab ccbf
00000010: b40f 38bf 0ab6 b4bf 84fe 8e3f e996 f93e
00000020: 62d8 323f 9ba4 153f 3eac dbbf 75c0 a9bf
00000030: 62ff ec3e 7b93 c1be 0c4b 213f 32db f43f
00000040: b790 303f 4984 453e 3d99 9a3e d54b 0c3f
00000050: 9ece 803e 96d8 4fbf 81e6 87bf 2c18 68bf
00000060: f836 29bf 9d8c 89bf b814 2f3f 870e 12c0
00000070: 970e b1be 015c 443f 1a9b b53f 98f9 bb3e
00000080: 622a 06c0 d695 d33f 9c0e 8dbe bd63 ebbf
00000090: efcb 00bf 726d 1dbf 69ba 93bf 54d2 6abf
000000a0: f31e e53e 0546 b53e 3f72 653f a41c dabe
000000b0: a6ea a13e bd23 6a3f c073 0c40 f776 f73e
000000c0: 5c31 89be 6e44 d2be b34f 903e f303 01bf
000000d0: e90e 3abf 7bcf 373e 8b4c 13bf 3ed7 3b3f
000000e0: 03db 6abe d39c 89be afb0 1f40 2caa 0ebf
000000f0: e475 a83d 6439 bb3e ebf9 f13f cb97 2f3d
00000100: e8cf 1dbe 800c 2dbf c0e2 c1be e810 a3bd
00000110: c089 4d3e ce36 183f 58b7 ea3f 4494 963e
00000120: a43d 89bf 1615 9abf 7aca a4bf 6717 be3d
00000130: bd4b c4bf cba2 84bf b44b 583f c2d4 74bf
00000140: 6fa6 30be f76a 1b3f 8202 b83f 67b0 9c3f
00000150: 526c cc3e 33ca 0abf 23f0 353e 751f 1440
00000160: 43dc 14bd ac23 813f 4db4 a63e 0514 773f
00000170: e9e2 0c3d a854 eb3f caea 663f 8883 c23d
00000180: f2c5 3abf 3117 b8bf 061f f8be 1b57 0e3f
00000190: e74d a03f f138 a8be 838e 693e bb49 a43e
000001a0: 1a85 d53e c0e3 9bbf c626 2d3f 229a 1c3f
000001b0: cdf1 ca3f cd9d 7bbe c91c f9bf 8d07 28bf
000001c0: 884d 393f 64b5 d0bf d18f 423f 0d21 153f
000001d0: 12b5 143f 98de e6be 9d10 98bf 63ed 4fbf
000001e0: 7dd8 f2bf a664 5040 81d3 2d3e cca4 c23e
000001f0: 5d14 3c3f d479 723f 1bf5 08c0 6d54 ae3f
00000200: 46d1 59bf f919 5bbe a53d ce3f 8deb e6bd
00000210: 3cc2 4d3e 3966 6cbf 275c 83bf c0e4 2fbf
00000220: e462 4cbf 57ef 513f 6e86 a03c efb0 a13f
00000230: 2fc9 93be a71c 1d3f 5ff3 09bf ef18 0740
00000240: f555 42bf ca17 433e e00b 423f 44ab b8be
00000250: 5c10 42bf 4312 f73e 1b9f cd3f 5ac7 35bd
00000260: a650 b1bf 3e2b 9dbe 3bd6 12bf 0c86 33bf
00000270: 85c2 dd3e 0572 a0be d977 1ebe 624e 403f
00000280: 7214 47bf 4443 a93f 968b 7d3e c654 0a3f
00000290: 4a40 2b3f dd6e d23e bd79 6cbd 2c87 b23f
000002a0: 42c5 f83f 3655 6bbe cca2 bb3e ebb8 eebd
000002b0: 8d5c 993f 082c 9bbe 8698 fcbe 61f2 3abf
000002c0: c0c0 a1be 039c 973e 48c9 7dbf 4459 c73e
000002d0: 7064 b9bf ceac a03e 265f eb3d 167f d2bf
000002e0: 8625 b83b 6f2f 453f ce69 413e e3fa 0d3d
000002f0: 8c42 d13e 4bfd b2bf 3d54 58bf 6a9c f4be
00000300: b570 a9bd c3fa 14bf c883 633f 14cf 88bf
00000310: 3fe9 06be f661 00c0 cc78 b7bf 97f7 383e
00000320: 9540 913e 2465 973f e58b efbe 1c24 84bf
00000330: 8492 5b3f deef f93f b021 4e3e eb36 a5bd
00000340: 6869 833e ebc7 0d3f 2557 6ebe c66c 7e3d
00000350: 50f5 773e ea55 a9bf 0688 1fc0 e26f c0be
00000360: 65ce 1dbf 7098 6cbd 459d 0f40 5385 e4bf
00000370: b509 143f 73ab 373d 6296 90be a6d0 ca3e
00000380: 3461 823e f82f 9e3f 8ea0 753f bbf4 a1bf
00000390: e015 063f 518f 27bd 4130 f33f 1c75 04c0
000003a0: 68de 3f3f 2ebc 9c3e 1b31 16bd e5d9 c6be
000003b0: b1a8 44bf 71ed 133f bdc3 99bf 9ab2 603f
000003c0: 44d1 28bf 4031 a5bf 1ec6 fe3e 0335 643f
000003d0: 530b ae3f 9d20 f83e 1a97 f1bf 50a1 3c3f
000003e0: 5ab4 173f 4377 b83f ac96 63bf ad3c 373f
000003f0: a1b0 8d3f ce87 3ebe d925 213f 11f8 0a40

static_ll.0.weight f4 [128, 64]
0.047704652 -0.06741932 -0.09683661 -0.09201667 0.04601018 -0.074377865 -0.091805115 0.009761065
0.07908112 -0.07396144 -0.019132763 -0.0358382 0.10665195 -0.09436892 -0.0028722137 -0.11662401
-0.12026766 0.11796656 -0.09167531 -0.114478394 -0.049214557 -0.059186444 -0.11676712 -0.11461657
0.105572164 -0.0049692243 0.020033121 -0.0959561 0.04347436 -0.12161334 0.051239952 0.10530083
0.095674306 0.087145835 -0.026928514 -0.1001443 0.03890273 0.0641696 0.02176772 -0.032918945
-0.0046095103 0.07810423 0.09688769 0.04901357 -0.08422251 0.08375196 -0.06209375 -0.041005984
-0.014346898 -0.11621779 0.11941987 0.124425694 0.05238822 -0.03658028 -0.01835613 -0.10055074
0.027929872 0.028850883 -0.06249389 0.032782525 -0.11812022 -0.077721015 -0.04352893 -0.019813538
0.0014851987 0.11540215 -0.07928598 0.10932018 -0.0149669945 -0.091238275 0.08016588 -0.0884933
-0.09519033 0.04797724 -0.033693403 0.09262979 -0.051541552 0.016932473 0.045813948 -0.07476699
-0.11120792 -0.08143185 -0.016336486 0.10338688 0.115450695 0.07306495 0.051975682 0.015015289
0.09868306 0.0396318 0.09125398 0.1227286 0.09915586 0.10116699 0.010271534 -0.110902905
-0.118977085 -0.09728278 0.049157307 -0.050482705 -0.047238335 0.11309722 -0.0737661 0.10671617
-0.085759 -0.111938134 0.120232895 -0.106491014 -0.09923124 -0.009342134 -0.017704427 -0.04240933
-0.058187142 0.039986968 0.12131183 0.013592586 -0.114758745 -0.034156978 -0.09226918 0.016687036
-0.07564697 0.11106479 -0.0027640313 0.09747958 -0.024306506 0.079890236 -0.114385426 0.10390696
0.08481246 -0.0070789307 -0.006499946 0.046106175 0.10394299 -0.11505552 -0.11152391 -0.032915458
-0.09244384 -0.034260407 -0.0650938 -0.122028515 -0.020329311 -0.10539329 -0.11574124 -0.0226316
-0.078264475 0.11641011 -0.06581308 -0.112618536 0.06381382 -0.044320554 -0.013325855 0.042383313
-0.06469856 -0.1112566 -0.080034465 -0.053972304 -0.07394175 0.044328853 0.034285188 -0.025170669
-0.122201905 0.05159092 0.000101581216 0.043749213 0.044688046 -0.0010299683 0.024972335 -0.011530325
-0.042835847 -0.1023763 0.08924927 -0.04015453 0.09860586 0.110841975 0.110535055 -0.061560616
-0.096690804 -0.021578297 0.111867145 0.06561433 -0.003923282 0.11386958 0.080668226 -0.036754712
0.019820943 -0.0054457933 0.01452966 -0.080690876 0.119525865 0.08868463 0.02192755 -0.06341325
-0.10187712 -0.03956893 -0.051178277 -0.015884742 0.11336939 0.1167351 -0.12122658 0.114545405
-0.076241806 0.07361835 0.08423346 0.0026764274 0.10829602 0.047383428 0.046739355 0.046883747
0.10518773 -0.0071975887 0.046237484 0.02808404 0.11813657 0.10652943 -0.044264734 -0.071743146
0.07968038 -0.044310838 -0.09567009 0.034063727 0.05505812 -0.0049617738 0.019871533 0.069407105
-0.026964784 -0.07154922 -0.056224853 0.057588816 -0.040537342 -0.041294426 -0.11990233 0.020592108
0.11201352 -0.081386134 -0.0976647 0.10080296 -0.042864233 -0.041725457 0.09585565 -0.10499786
0.015230849 0.061553627 -0.10192755 -0.021450967 0.09894098 -0.09415911 -0.04259619 -0.04993187
-0.009435043 -0.05584331 -0.0009898841 -0.06607078 -0.07205513 -0.097827256 -0.055240497 -0.0001154691
00000000: f465 433d 2413 8abd 4652 c6bd 3c73 bcbd
00000010: 2c75 3c3d 6c53 98bd 5204 bcbd e0ec 1f3c
00000020: 48f5 a13d 1879 97bd 50bc 9cbc 14cb 12bd
00000030: 566c da3d 7e44 c1bd c03b 3cbb 92d8 eebd
00000040: e44e f6bd 7498 f13d 44c0 bbbd a673 eabd
00000050: 3495 49bd 7c6d 72bd 9a23 efbd 18bc eabd
00000060: 3836 d83d e0d4 a2bb 801c a43c a284 c4bd
00000070: 2c12 323d 6a10 f9bd fce0 513d f6a7 d73d
00000080: e4f0 c33d 8479 b23d 3099 dcbc 7418 cdbd
00000090: 7858 1f3d 5a6b 833d 3852 b23c 04d6 06bd
000000a0: 600b 97bb 1cf5 9f3d 0e6d c63d 74c2 483d
000000b0: da7c acbd 2686 ab3d 0456 7ebd e4f5 27bd
000000c0: 400f 6bbc 9803 eebd 6892 f43d e6d2 fe3d
000000d0: 0895 563d 34d5 15bd 985f 96bc 8ced cdbd
000000e0: 30cd e43c b058 ec3c 98f9 7fbd f846 063d
000000f0: 04e9 f1bd 322c 9fbd 644b 32bd 0050 a2bc
00000100: 00ab c23a f657 ec3d b060 a2bd 42e3 df3d
00000110: 2038 75bc 22db babd 022e a43d fa3b b5bd
00000120: 26f3 c2bd c883 443d 1802 0abd b0b4 bd3d
00000130: 3c1d 53bd f8b5 8a3c 68a7 3b3d 701f 99bd
00000140: fac0 e3bd bec5 a6bd 18d4 85bc 80bc d33d
00000150: 6a71 ec3d 14a3 953d 74e4 543d b002 763c
00000160: 581a ca3d f454 223d 5ee3 ba3d 2259 fb3d
00000170: 3a12 cb3d a430 cf3d f049 283c 1021 e3bd
00000180: 42aa f3bd 323c c7bd 2c59 493d f4c6 4ebd
00000190: fc7c 41bd 849f e73d ae12 97bd 028e da3d
000001a0: 6aa2 afbd d23f e5bd aa3c f63d f617 dabd
000001b0: c039 cbbd c00f 19bc e008 91bc 68b5 2dbd
000001c0: a455 6ebd 60c9 233d 5672 f83d 70b3 5e3c
000001d0: a206 ebbd 30e8 0bbd a0f7 bcbd 40b3 883c
000001e0: ccec 9abd f075 e33d c024 35bb 60a3 c73d
000001f0: 701e c7bc 7e9d a33d e842 eabd 2ccd d43d
00000200: 28b2 ad3d 60f6 e7bb 80fd d4bb d4d9 3c3d
00000210: 10e0 d43d 3aa2 ebbd a666 e4bd 5cd2 06bd
00000220: 3253 bdbd a454 0cbd e64f 85bd 16ea f9bd
00000230: a889 a6bc 70d8 d7bd be09 edbd e865 b9bc
00000240: 2049 a0bd 6c68 ee3d 02c9 86bd 8ca4 e6bd
00000250: d2b0 823d 7889 35bd b054 5abc 209a 2d3d
00000260: ae80 84bd 80da e3bd 1ce9 a3bd 1012 5dbd
00000270: c66e 97bd 2c92 353d a06e 0c3d b832 cebc
00000280: fe44 fabd 0051 533d 0008 d538 6032 333d
00000290: d00a 373d 0000 87ba c892 cc3c b0e9 3cbc
000002a0: a474 2fbd aaaa d1bd 52c8 b63d 1479 24bd
000002b0: def1 c93d 1e01 e33d 3460 e23d fc26 7cbd
000002c0: d405 c6bd f8c4 b0bc 9a1a e53d ce60 863d
000002d0: e08e 80bb 7434 e93d 6235 a53d 1c8c 16bd
000002e0: 885f a23c a072 b2bb d00d 6e3c 4241 a5bd
000002f0: fac9 f43d 4aa0 b53d 68a1 b33c cede 81bd
00000300: f4a4 d0bd 0813 22bd 50a0 51bd b820 82bc
00000310: 362e e83d d012 ef3d a445 f8bd c896 ea3d
00000320: aa24 9cbd 38c5 963d 9882 ac3d 0067 2f3b
00000330: 4eca dd3d 2015 423d c471 3f3d 2c09 403d
00000340: aa6c d73d c0d9 ebbb 8463 3d3d 8010 e63c
00000350: 96f1 f13d 1a2c da3d f04e 35bd 12ee 92bd
00000360: 782f a33d 487f 35bd aeee c3bd 6886 0b3d
00000370: a084 613d 6096 a2bb a0c9 a23c 5025 8e3d
00000380: 40e5 dcbc 6688 92bd 084c 66bd 40e2 6b3d
00000390: 7c0a 26bd 5824 29bd 5a8f f5bd c8b0 a83c
000003a0: 5867 e53d c6ad a6bd 6e04 c8bd c871 ce3d
000003b0: 6892 2fbd 50e8 2abd f84f c43d 1e09 d7bd
000003c0: d08a 793c a81f 7c3d 64bf d0bd f0b9 afbc
000003d0: 92a1 ca3d 7ed6 c0bd 5879 2ebd 5c85 4cbd
000003e0: 7095 1abc f4bb 64bd 00bf 81ba 1e50 87bd
000003f0: a491 93bd a859 c8bd dc43 62bd 0028 f2b8

static_ll.0.bias f4 [128]
0.069915116 -0.095056996 -0.008836478 -0.090011165 0.09550662 0.04410933 -0.111532 0.045477048
0.0027641654 0.10967821 0.12432586 -0.095798165 -0.068580434 0.09114052 -0.009448439 0.07686871
0.104618 -0.06433405 0.03420563 0.040441036 0.07456136 -0.010192364 0.059320286 0.12173471
0.09556322 0.051012903 -0.0507015 -0.11169699 -0.09353316 0.10154274 -0.045758054 -0.096502095
-0.022235438 0.0610912 0.06707625 -0.093543395 0.08705905 0.10672507 -0.023792759 0.04321313
0.0035309196 -0.042667344 -0.04114446 -0.123234585 -0.0026949793 -0.058958605 -0.05894819 -0.048475742
-0.05930464 0.06364995 0.07827249 0.015114725 0.03554201 0.115178436 -0.05716437 0.04319693
0.12068164 0.096798524 -0.11677015 -0.09437667 -0.055520415 0.09918146 -0.08110823 -0.095207274
-0.07066125 -0.08049308 0.009094283 -0.096390784 -0.028789014 -0.022629261 0.038160905 0.07717146
-0.021172613 -0.034510523 -0.063208416 -0.020989016 0.020747766 -0.020665705 -0.058790296 -0.02804102
-0.019007936 0.057669386 -0.10027467 -0.011958599 -0.077473834 -0.016778901 -0.08427702 0.033744007
0.10060564 -0.09184313 0.095580146 -0.041384384 -0.11895232 0.00012238324 -0.034308374 -0.064259395
-0.08224483 0.06603739 0.0012169033 -0.0171742 0.104452014 -0.0960882 0.056705877 -0.07935266
-0.08766815 -0.08299106 0.098175064 0.069266304 0.055754542 0.031027243 0.02915053 -0.049546257
0.11145213 -0.10321435 0.05856149 -0.0583037 0.022863194 0.051225677 0.029563636 -0.117096245
0.047538176 -0.0517215 0.07005386 -0.08230077 0.05340697 -0.12167233 0.10081138 0.02664572
00000000: a82f 8f3d 3ead c2bd e0c6 10bc c657 b8bd
00000010: fa98 c33d fcab 343d e46a e4bd 2446 3a3d
00000020: 0027 353b f89e e03d 8e9e fe3d d431 c4bd
00000030: e673 8cbd e2a7 ba3d a0cd 1abc 586d 9d3d
00000040: f641 d63d 92c1 83bd 341b 0c3d 80a5 253d
00000050: a0b3 983d e0fd 26bc d4f9 723d 0c50 f93d
00000060: a6b6 c33d e8f2 503d 60ac 4fbd 64c1 e4bd
00000070: 508e bfbd a4f5 cf3d cc6c 3bbd e4a2 c5bd
00000080: 1827 b6bc c43a 7a3d 465f 893d ae93 bfbd
00000090: 044c b23d ac92 da3d 08e9 c2bc 4000 313d
000000a0: 0067 673b f4c3 2ebd 1887 28bd 6a62 fcbd
000000b0: 409e 30bb 947e 71bd a873 71bd 808e 46bd
000000c0: 6ce9 72bd e85a 823d 544d a03d c0a3 773c
000000d0: 8094 113d ace2 eb3d 3025 6abd 44ef 303d
000000e0: f027 f73d 4e3e c63d 3025 efbd 8e48 c1bd
000000f0: 6069 63bd a61f cb3d 121c a6bd 08fc c2bd
00000100: d8b6 90bd 8ed9 a4bd 3000 153c 8868 c5bd
00000110: f0d6 ebbc 0061 b9bc 9c4e 1c3d 120c 9e3d
00000120: 3072 adbc e85a 0dbd 6a73 81bd 28f1 abbc
00000130: 38f7 a93c 204b a9bc 18ce 70bd 48b6 e5bc
00000140: 88b6 9bbc bc36 6c3d ce5c cdbd 00ee 43bc
00000150: 9aaa 9ebd e873 89bc 6e99 acbd 2837 0a3d
00000160: 540a ce3d 4018 bcbd 86bf c33d ac82 29bd
00000170: 469d f3bd 0054 0039 f086 0cbd 6e9a 83bd
00000180: fa6f a8bd 9c3e 873d 8080 9f3a e8b0 8cbc
00000190: f0ea d53d e4c9 c4bd 6c44 683d a683 a2bd
000001a0: 5c8b b3bd 38f7 a9bd 0210 c93d 7edb 8d3d
000001b0: e05e 643d d82c fe3c 18cd ee3c 04f1 4abd
000001c0: 0441 e43d 0c62 d3bd 2cde 6f3d dccf 6ebd
000001d0: 984b bb3c 04d2 513d 702f f23c 28d0 efbd
000001e0: 64b7 423d ecd9 53bd 6678 8f3d 4e8d a8bd
000001f0: 44c1 5a3d 582f f9bd 3276 ce3d 2048 da3c

static_ll.2.weight f4 [64, 128]
0.008979828 -0.048753515 0.042827204 0.041075487 0.06319009 0.008577358 -0.06958167 -0.055336177
-0.06415274 0.011674929 -0.018044498 -0.016946109 -0.026820073 -0.012908389 -0.0042642076 0.04463834
0.041623298 -0.0870482 -0.053402457 -0.087805204 -0.06958795 0.066004775 0.049758147 0.030881902
-0.01823358 0.078190506 -0.054843407 -0.027533514 0.0062723677 -0.015897812 0.0056590573 -0.08557794
0.08611858 -0.06176571 -0.023587536 -0.07537143 0.046120886 0.030943815 -0.028850751 0.016536463
-0.03479822 0.009834335 0.007941941 0.035722457 0.025082095 -0.060755976 0.04689667 0.050105996
0.023395874 -0.027517814 -0.032062486 -0.07340949 -0.014659032 0.08464839 -0.06741698 0.054783337
0.03249538 -0.085711256 -0.06917365 0.03495416 0.0657831 0.081069335 -0.0011854223 0.00083958625
-0.006006189 -0.018451259 0.07530611 -0.05633292 -0.040655345 0.05126009 -0.021047767 -0.078666344
0.024802903 -0.0059860745 -0.0010328507 -0.055218093 -0.077972256 -0.034558814 0.025458604 -0.037391566
0.027991902 0.050696526 0.033189926 -0.01943076 -0.0054041846 -0.022011591 -0.08399014 -0.0050705397
0.0052514235 -0.043981217 -0.06129749 -0.07496878 0.031452674 0.060967524 -0.034485456 -0.08677742
-0.017927194 0.023826193 0.04582273 0.06418064 0.009540751 0.053772982 0.035133023 0.07162657
0.036793765 -0.07775831 0.07278692 0.011243894 0.018415455 0.077412345 -0.029437086 -0.0688831
-0.021281123 0.046074837 -0.02839684 0.07390104 0.08071273 -0.011910626 -0.028940808 -0.028925644
-0.053608526 0.02975421 0.039949995 -0.07938757 0.025028864 0.015966363 0.06500112 0.005065946
0.038292035 -0.021838516 0.04361224 -0.018054781 0.031694483 -0.032635283 0.04933068 0.06778754
0.03973295 -0.025155114 0.0519446 0.08818994 -0.0051810276 0.042065218 -0.052229133 0.06321869
-0.023892079 -0.029293777 0.016133897 0.034278054 -0.071697615 0.059291154 0.03387717 -0.04717522
0.0045922888 0.06495032 0.021370549 0.083131984 -0.06657063 0.07217096 0.040124074 0.059014913
0.005357412 0.029933587 -0.027416093 0.05113281 0.048021276 0.04035767 -0.035159428 0.071453564
0.065985695 -0.03997271 -0.004087707 -0.06826203 0.08418746 0.047895458 0.07389893 0.068851694
-0.07997723 0.06883748 0.04569772 0.02154609 -0.0492864 0.059295643 0.008951548 -0.07722234
0.028752558 -0.074800484 -0.08824215 0.0005031596 0.06728052 -0.038415924 0.039053176 0.001870024
0.032924905 -0.019410962 0.0865389 0.018399766 -0.07966748 -0.06453258 0.06880207 -0.0813484
0.020611042 0.004638271 0.038501102 -0.02462048 -0.021105887 0.012516929 -0.04039903 0.078093514
-0.02514955 0.06291781 -0.066050865 -0.023129 -0.06065529 0.05137021 0.08317888 -0.0576275
0.026341021 0.08269458 -0.061343715 -0.0782479 0.06257817 0.05957691 0.0125734685 0.053729728
0.07754301 0.06776988 0.08703794 -0.028435035 0.0182063 -0.023373472 0.012274732 0.03947872
-0.058870453 0.043858852 0.015991693 0.06621441 -0.013680024 -0.05192422 0.0024430421 -0.011476334
-0.03634229 -0.078292936 0.0086538335 0.012529299 -0.07921422 0.046804823 0.07914915 -0.026730143
-0.066300504 0.004226981 -0.054652743 -0.007484753 -0.025083201 -0.0046089473 0.015136166 -0.08255166
00000000: 2120 133c c4b1 47bd 946b 2f3d c53e 283d
00000010: ce69 813d 0c88 0c3c d680 8ebd 30a8 62bd
00000020: 8362 83bd 3448 3f3c 0ed2 93bc 91d2 8abc
00000030: c5b5 dbbc b57d 53bc c4ba 8bbb b1d6 363d
00000040: 317d 2a3d 5446 b2bd 89bc 5abd 37d3 b3bd
00000050: 2184 8ebd 832d 873d 33cf 4b3d 0bfc fc3c
00000060: 975e 95bc 5822 a03d 7ba3 60bd f78d e1bc
00000070: 6f88 cd3b 213c 82bc 9d6f b93b 7d43 afbd
00000080: f05e b03d 0bfe 7cbd a63a c1bc 565c 9abd
00000090: 41e9 3c3d e27d fd3c 6958 ecbc 7a77 873c
000000a0: 9488 0ebd 3120 213c ea1e 023c b651 123d
000000b0: f778 cd3c 42db 78bd b916 403d f23b 4d3d
000000c0: b4a8 bf3c 0a6d e1bc f453 03bd b757 96bd
000000d0: 702c 70bc 235c ad3d ea11 8abd 7e64 603d
000000e0: e019 053d 6289 afbd eaaa 8dbd 182c 0f3d
000000f0: 4ab9 863d ae07 a63d 2c60 9bba ae17 5c3a
00000100: 91cf c4bb 1827 97bc 173a 9a3d 59bd 66bd
00000110: 3886 26bd 1af6 513d 5e6c acbc d21b a1bd
00000120: 752f cb3c d526 c4bb b860 87ba 5e2c 62bd
00000130: ebaf 9fbd 8b8d 0dbd 908e d03c e627 19bd
00000140: 464f e53c 29a7 4f3d 29f2 073d 422d 9fbc
00000150: 9615 b1bb a751 b4bc 0603 acbd c526 a6bb
00000160: 2214 ac3b a625 34bd 1413 7bbd 3b89 99bd
00000170: 85d4 003d 15b9 793d 9f40 0dbd 5cb8 b1bd
00000180: 0ddc 92bc 262f c33c 9db0 3b3d 2471 833d
00000190: cf50 1c3c 0f41 5c3d a5e7 0f3d f3b0 923d
000001a0: 0fb5 163d c03f 9fbd 4f11 953d 4f38 383c
000001b0: 02dc 963c 5d8a 9e3d 0b26 f1bc 9512 8dbd
000001c0: c055 aebc f8b8 3c3d 7da0 e8bc 6e59 973d
000001d0: b74c a53d c924 43bc 4615 edbc 79f5 ecbc
000001e0: 9d94 5bbd 1abf f33c 9ba2 233d f395 a2bd
000001f0: 5509 cd3c e4cb 823c 4f1f 853d 3c00 a63b
00000200: 1cd8 1c3d b0e6 b2bc c0a2 323d 9fe7 93bc
00000210: 13d2 013d 93ac 05bd f80e 4a3d 32d4 8a3d
00000220: 05bf 223d 1912 cebc dcc3 543d ed9c b43d
00000230: 9cc5 a9bb 944c 2c3d 37ee 55bd cd78 813d
00000240: 52b9 c3bc 81f9 efbc 3c2b 843c 2567 0c3d
00000250: 33d6 92bd 48db 723d cac2 0a3d ce3a 41bd
00000260: e97a 963b ac04 853d 4a11 af3c 1a41 aa3d
00000270: 2f56 88bd 5ece 933d 2459 243d 9fb9 713d
00000280: 3b8d af3b 4837 f53c b797 e0bc a370 513d
00000290: f5b1 443d 164e 253d 5503 10bd 3f56 923d
000002a0: 8223 873d 6dba 23bd 2cf2 85bb f7cc 8bbd
000002b0: 7a6a ac3d 072e 443d 5258 973d 1e02 8d3d
000002c0: 1acb a3bd aafa 8c3d 882d 3b3d 6d81 b03c
000002d0: 89e0 49bd fddf 723d 83a9 123c bf26 9ebd
000002e0: 7c8a eb3c ff30 99bd 4db8 b4bd 78e6 033a
000002f0: 5fca 893d 045a 1dbd 39f6 1f3d 981b f53a
00000300: 44dc 063d bd03 9fbc 4f3b b13d 1bbb 963c
00000310: b428 a3bd a829 84bd 1ae8 8c3d fd99 a6bd
00000320: 7dd8 a83c a3fc 973b 55b3 1d3d e4b0 c9bc
00000330: 41e6 acbc ce13 4d3c 7479 25bd 7eef 9f3d
00000340: 6e06 cebc 0edb 803d ad45 87bd 0779 bdbc
00000350: ae71 78bd 9269 523d b059 aa3d d00a 6cbd
00000360: 20c9 d73c c75b a93d 8c43 7bbd 6f40 a0bd
00000370: fc28 803d eb06 743d f300 4e3c b413 5c3d
00000380: dfce 9e3d efca 8a3d f340 b23d 97f0 e8bc
00000390: 6125 953c b979 bfbc f51b 493c 70b4 213d
000003a0: 2522 71bd 57a5 333d 0301 833c 6c9b 873d
000003b0: 2e22 60bc 7eae 54bd 721b 203b 3c07 3cbc
000003c0: a7db 14bd 0c58 a0bd cfc8 0d3c b047 4d3c
000003d0: 113b a2bd 6ab6 3f3d f318 a23d 2cf9 dabc
000003e0: 8fc8 87bd 7d82 8a3b 8edb 5fbd a942 f5bb
000003f0: 497b cdbc a706 97bb aefd 773c d810 a9bd

static_ll.2.bias f4 [64]
0.036098175 0.030479325 -0.024767142 -0.07029635 -0.04032271 0.03589199 0.021759512 -0.022242494
0.02780534 -0.07814775 0.06886557 -0.04716327 -0.032455888 0.00074682105 0.06842073 0.08104783
-0.07887489 0.0051752115 0.08201619 -0.06847586 -0.05227486 -0.03777033 0.031703208 0.075327225
-0.03346153 0.07272192 0.038376674 -0.062118564 0.004467629 -0.013444686 0.044200517 0.0017719694
-0.061832532 -0.08181662 0.07321424 -0.007319369 0.031365547 -0.06422817 -0.034188405 0.01343023
0.028040752 0.0462078 -0.015290834 0.017527988 -0.036800772 0.057429895 -0.043055978 -0.0008572142
0.049547277 -0.0056863474 0.009660542 0.0055833403 -0.05640617 0.06592826 0.062082317 0.044057816
-0.04459052 0.087299064 -0.03507079 0.07174023 0.05566018 0.019998489 -0.062115267 0.082121454
00000000: aedb 133d c7af f93c 76e4 cabc 88f7 8fbd
00000010: 6d29 25bd 7b03 133d 0141 b23c e435 b6bc
00000020: 06c8 e33c ed0b a0bd 6409 8d3d 462e 41bd
00000030: 77f0 04bd 50c6 433a 2b20 8c3d 68fc a53d
00000040: 2989 a1bd d294 a93b 1bf8 a73d 123d 8cbd
00000050: 2a1e 56bd 10b5 1abd 39db 013d 2945 9a3d
00000060: f50e 09bd 3bef 943d dc30 1d3d 0970 7ebd
00000070: 3065 923b 1a47 5cbc 9a0b 353d 6d41 e83a
00000080: 1c44 7dbd 798f a7bd 59f1 953d 51d7 efbb
00000090: 2979 003d 0f8a 83bd 2409 0cbd 780a 5c3c
000000a0: b8b5 e53c 6444 3d3d 6886 7abc db96 8f3c
000000b0: 68bc 16bd 9c3b 6b3d 775b 30bd acb6 60ba
000000c0: 16f2 4a3d 8a54 babb 4047 1e3c 74f4 b63b
000000d0: 280a 67bd 6505 873d 074a 7e3d f875 343d
000000e0: 8da4 36bd dac9 b23d 64a6 0fbd 8bec 923d
000000f0: eefb 633d dfd3 a33c 946c 7ebd 4b2f a83d

glu_encoder.rnn.weight_ih_l0 f4 [48, 2]
0.19712615 -0.1819118 0.123986155 -0.076506644 0.20028028 0.1785292 -0.11756262 -0.1496644
-0.19884047 0.23695135 0.24332964 0.16973636 -0.20897129 0.06994623 0.23205754 -0.24750033
-0.0946033 -0.23772499 0.21034437 -0.1345171 0.12589678 -0.002695918 0.1390757 0.24235862
0.1772441 -0.04065144 0.12685707 0.0005489886 -0.017393112 0.0042613447 -0.16676587 -0.07222232
0.22297594 -0.1020613 0.08263874 0.20736799 -0.19999477 -0.24408782 0.012455702 0.20567808
-0.087228894 0.17629412 -0.032432616 -0.12317249 -0.07298255 0.09258446 0.2257044 0.1639638
0.078203976 -0.063144386 -0.24508175 0.17386398 -0.24086615 -0.07339832 0.08400345 -0.06024155
0.21940017 -0.077882916 0.062434077 -0.033233315 0.22049776 -0.04951179 -0.14705375 -0.061528385
0.10800451 -0.08187565 -0.13148347 0.17952919 0.13288465 0.019135088 0.22659925 -0.058238983
-0.083859116 -0.218247 0.19540504 -0.19312596 0.18063945 -0.023220956 0.060587674 -0.0025069714
0.13074106 -0.11368328 0.21215096 0.21205992 0.12183222 0.22185221 -0.032844216 -0.057534307
-0.079044074 -0.14984441 -0.21006325 0.19706017 0.19012871 -0.016316116 0.033696175 0.17593542
00000000: 70db 493e 1647 3abe 74ec fd3d 84af 9cbd
00000010: 4616 4d3e 5cd0 363e acc4 f0bd a041 19be
00000020: d69c 4bbe 60a3 723e 682b 793e 5ecf 2d3e
00000030: 92fc 55be f83f 8f3d 7ea0 6d3e ba70 7dbe
00000040: 60bf c1bd 2e6e 73be 8464 573e dabe 09be
00000050: 16eb 003e 00ae 30bb dc69 0e3e dc2c 783e
00000060: 7a7f 353e 2082 26bd d2e6 013e 00ea 0f3a
00000070: 007c 8ebc c0a2 8b3b acc4 2abe 4ce9 93bd
00000080: ce53 643e 8405 d1bd 803e a93d 4658 543e
00000090: 6ecb 4cbe 28f2 79be 0013 4c3c 469d 523e
000000a0: 10a5 b2bd 7286 343e 10d8 04bd dc41 fcbd
000000b0: e077 95bd ec9c bd3d 0e1f 673e 20e6 273e
000000c0: 6829 a03d d851 81bd b6f6 7abe 6609 323e
000000d0: 9ea5 76be dc51 96bd 000a ac3d d8bf 76bd
000000e0: 70aa 603e 1481 9fbd e0ba 7f3d a81f 08bd
000000f0: 2aca 613e e0cc 4abd 4295 16be 3005 7cbd
00000100: 7831 dd3d 6cae a7bd 9aa3 06be 80d6 373e
00000110: ea12 083e 30c1 9c3c a209 683e 008c 6ebd
00000120: 54be abbd 247c 5fbe 4218 483e d0c2 45be
00000130: 8cf9 383e e039 bebc c82a 783d 004c 24bb
00000140: fce0 053e c8d2 e8bd 1a3e 593e 3c26 593e
00000150: 2c83 f93d 3a2d 633e a887 06bd 18a9 6bbd
00000160: dce1 a1bd d070 19be d21a 57be 24ca 493e
00000170: 1ab1 423e 60a9 85bc 0005 0a3d 6a28 343e

glu_encoder.rnn.weight_hh_l0 f4 [48, 16]
-0.16595134 -0.24724004 -0.07596436 0.15193209 0.085131586 -0.056291193 -0.24472672 0.209086
0.07485214 0.21744674 -0.16695392 -0.18061578 -0.052530408 -0.14485559 0.14091358 -0.061406314
0.122148305 -0.10029176 0.15016097 -0.23970553 -0.14473623 0.21864614 0.017270982 0.066416144
-0.22817287 0.23743957 -0.061385125 0.09159863 0.11035299 -0.1345739 -0.20135748 0.088544875
0.17830247 -0.16257814 -0.11587772 -0.20832753 0.020114988 0.05694583 -0.1656118 0.18318743
0.14513838 -0.07761675 -0.06406599 0.14798456 -0.117046624 0.148884 -0.18054873 0.1889511
0.11488065 -0.15353033 0.10482758 0.18904385 0.04303637 0.12452096 0.15883577 0.08237353
-0.22267944 -0.10867676 -0.18183532 -0.108436406 0.17333972 0.066574425 -0.022675872 -0.052484334
-0.14022204 0.060887903 -0.008509815 -0.09307334 0.08933982 -0.12892053 0.24015072 0.0585503
-0.038270146 0.08348873 -0.001839608 -0.2263473 -0.22682557 0.15600812 -0.027032852 -0.19237289
0.061755776 0.21108413 -0.016735464 0.024726123 0.02786842 -0.047592133 -0.0620524 0.16867024
0.03490281 0.2128489 -0.18921676 -0.04873675 -0.15647766 -0.22458813 -0.07705259 -0.056916475
-0.08327699 0.16584161 0.13468444 0.21666008 0.06513286 0.21089837 -0.07930055 0.025653124
0.20236766 0.0027713776 -0.19914797 0.18988967 0.17450681 -0.16369951 0.08333835 -0.18891484
0.029112399 -0.11532062 -0.06963146 0.03535682 -0.17510524 0.10915086 -0.12828588 -0.12438464
-0.20759565 0.103696555 0.020331502 -0.16947678 -0.21561873 -0.21278954 0.16174462 -0.086785614
0.032608062 0.234483 0.22886905 -0.17823163 -0.17257279 0.12566882 -0.048043936 -0.2205022
-0.022386432 0.09733847 -0.08520216 0.19687927 -0.23263988 -0.1022805 0.23455203 -0.08631134
0.23840383 -0.049369246 0.13516644 -0.2240082 -0.15804407 -0.21777555 0.02373445 0.027263582
-0.17760554 -0.16836783 -0.035708368 -0.043088436 0.037237734 0.06989217 0.033735543 0.08124891
0.22763565 -0.09363967 -0.23593292 0.06355122 0.20595446 0.11730394 0.06630781 0.15761036
0.026449054 -0.058674395 -0.09964788 0.15840772 -0.040840358 0.027129471 0.1375184 0.0012794137
-0.13830373 0.10852319 0.046384454 0.1471045 0.06948522 -0.023833573 -0.038841635 -0.10977411
-0.06804794 -0.14030993 -0.07992855 0.03678748 0.23896354 -0.16681528 -0.049357384 0.23119348
0.120420605 0.1583564 -0.19454855 0.13574171 -0.21399885 -0.114011556 0.077218086 0.06920329
0.15468413 -0.1472041 -0.21842173 -0.077111095 0.09999809 -0.01759097 -0.019586742 0.020300686
0.12585384 0.09291774 0.12616923 0.22088003 -0.1482209 -0.10249925 -0.03110978 0.09116307
0.20780647 0.08707431 0.13920137 -0.14570084 -0.031799227 0.0149436 -0.08692217 -0.13390228
0.22745463 0.20639184 -0.23046347 -0.07906717 0.0442456 0.13514322 -0.14419898 -0.1455406
-0.1623613 0.1196309 -0.17505684 0.06616333 0.21039107 0.03917384 0.23765716 -0.17010242
0.059103668 -0.027518302 0.1379587 0.21850738 0.18704039 -0.19072852 0.06256226 0.24698013
0.12844026 -0.13466942 -0.057717264 -0.17792454 -0.12612164 -0.16209024 0.04733923 0.130564
00000000: 26ef 29be 7e2c 7dbe 3493 9bbd 1694 1b3e
00000010: 7859 ae3d 9891 66bd a499 7abe a41a 563e
00000020: 144c 993d 5caa 5e3e f8f5 2abe 58f3 38be
00000030: 202a 57bd 0655 14be a64b 103e 3085 7bbd
00000040: e428 fa3d c465 cdbd ccc3 193e 5e75 75be
00000050: bc35 14be c6e4 5f3e e07b 8d3c 3005 883d
00000060: 26a6 69be 5c23 733e f86e 7bbd 1098 bb3d
00000070: c000 e23d becd 09be a830 4ebe 0457 b53d
00000080: ec94 363e e27a 26be 4c51 edbd d053 55be
00000090: 30c8 a43c 0840 693d 2496 29be 7c95 3b3e
000000a0: 289f 143e 88f5 9ebd 0835 83bd 4489 173e
000000b0: 24b6 efbd 0c75 183e c4e1 38be 667c 413e
000000c0: 8c46 eb3d 0e37 1dbe d8af d63d b694 413e
000000d0: e846 303d d804 ff3d d8a5 223e 74b3 a83d
000000e0: 1406 64be ec91 debd 0a33 3abe e813 debd
000000f0: f87f 313e 2c58 883d c0c2 b9bc d0f9 56bd
00000100: 5e96 0fbe 9865 793d c06c 0bbc 3c9d bebd
00000110: ccf7 b63d be03 04be 12ea 753e 70d2 6f3d
00000120: 28c1 1cbd 24fc aa3d 001f f1ba 96c7 67be
00000130: f644 68be 98c0 1f3e 0074 ddbc 66fd 44be
00000140: a0f3 7c3d 7026 583e d018 89bc 708e ca3c
00000150: 504c e43c f8ef 42bd a82a 7ebd e4b7 2c3e
00000160: 40f6 0e3d 10f5 593e 0ac2 41be 30a0 47bd
00000170: ae3b 20be 6efa 65be c0cd 9dbd 4021 69bd
00000180: 208d aabd 62d2 293e b8ea 093e 24dc 5d3e
00000190: 6064 853d bef5 573e 5468 a2bd 8026 d23c
000001a0: 7839 4f3e 00a0 353b 72ed 4bbe 7072 423e
000001b0: eab1 323e d8a0 27be 4cad aa3d e472 41be
000001c0: 207d ee3c 382d ecbd f09a 8ebd 50d2 103d
000001d0: ca4e 33be 7c8a df3d 605d 03be 60bd febd
000001e0: f493 54be dc5e d43d 408e a63c 528b 2dbe
000001f0: 28cb 5cbe 80e5 59be 62a0 253e a8bc b1bd
00000200: 0890 053d 501c 703e a65c 6a3e 5a82 36be
00000210: ecb6 30be 54af 003e b8c9 44bd 54cb 61be
00000220: c063 b7bc 6459 c73d 787e aebd b89a 493e
00000230: 2639 6ebe 7078 d1bd 682e 703e 00c4 b0bd
00000240: 2220 743e 6837 4abd 1269 0a3e 6862 65be
00000250: 4ed6 21be 8e00 5fbe c06e c23c e057 df3c
00000260: 3ade 35be 9e68 2cbe f042 12bd 807d 30bd
00000270: 9886 183d a023 8f3d 482e 0a3d d465 a63d
00000280: 5219 693e 28c6 bfbd 6698 71be 2427 823d
00000290: bae5 523e 0c3d f03d 64cc 873d 9c64 213e
000002a0: b0ab d83c 9054 70bd 3014 ccbd a235 223e
000002b0: 3848 27bd a03e de3c a0d1 0c3e 00b2 a73a
000002c0: 7e9f 0dbe 6841 de3d a0fd 3d3d 90a2 163e
000002d0: 444e 8e3d a03e c3bc 6818 1fbd 40d1 e0bd
000002e0: b85c 8bbd 68ad 0fbe 94b1 a3bd 78ae 163d
000002f0: dcb2 743e a0d1 2abe f82a 4abd fcbd 6c3e
00000300: 149f f63d 2e28 223e bc37 47be e0ff 0a3e
00000310: 8422 5bbe e47e e9bd 8424 9e3d 74ba 8d3d
00000320: 8465 1e3e acbc 16be f2a9 5fbe 6cec 9dbd
00000330: cccb cc3d f01a 90bc 6074 a0bc a04d a63c
00000340: d4df 003e a84b be3d 8232 013e 602e 623e
00000350: 38c7 17be 20eb d1bd f0d9 febc b4b3 ba3d
00000360: 38cb 543e 0454 b23d ce8a 0e3e 9a32 15be
00000370: e83f 02bd 00d6 743c 4004 b2bd ae1d 09be
00000380: dee9 683e 6258 533e 9efe 6bbe f8ed a1bd
00000390: e03a 353d fc62 0a3e e6a8 13be 9808 15be
000003a0: 0a42 26be 0c01 f53d 1a42 33be a480 873d
000003b0: c270 573e c074 203d 665c 733e 542f 2ebe
000003c0: b016 723d 106e e1bc 0c45 0d3e 66c0 5f3e
000003d0: 8487 3f3e 564e 43be a420 803d 5ce8 7c3e
000003e0: d885 033e c8e6 09be f068 6cbd da31 36be
000003f0: 0826 01be fcfa 25be c8e6 413d 92b2 053e

glu_encoder.rnn.bias_ih_l0 f4 [48]
0.20603219 -0.19627559 -0.024367362 -0.009631962 -0.23267245 -0.09734616 0.016783744 -0.16291884
0.091967404 0.06770608 -0.0015770495 -0.08589733 -0.13041645 0.13794458 -0.11749354 -0.08509594
0.24643448 -0.1838116 0.17274842 -0.20801315 0.22496891 -0.11952746 0.22546196 -0.053218335
0.03529966 0.24476257 0.115739495 0.2182824 0.04845968 0.0050274134 0.13781258 -0.07444379
0.19669622 0.20177892 -0.12809953 -0.2148138 -0.12597194 -0.20113513 -0.18346214 -0.2109594
-0.07586852 0.20761651 0.007512599 -0.13100123 0.111886084 -0.19926766 -0.12064016 -0.0925841
00000000: 1afa 523e 78fc 48be 109e c7bc 60cf 1dbc
00000010: b041 6ebe 6c5d c7bd 107e 893c 32d4 26be
00000020: 6859 bc3d 7ca9 8a3d 00b5 ceba f0ea afbd
00000030: e48b 05be 5841 0d3e 74a0 f0bd c846 aebd
00000040: 5259 7c3e 1c39 3cbe f6e4 303e 6601 55be
00000050: 405e 663e d0ca f4bd 80df 663e 78fb 59bd
00000060: 6096 103d 0aa3 7a3e d408 ed3d 6c85 5f3e
00000070: a87d 463d 00bd a43b be1e 0d3e fc75 98bd
00000080: bc6a 493e 229f 4e3e 862c 03be 26f8 5bbe
00000090: cafe 00be 5ef6 4dbe 80dd 3bbe be05 58be
000000a0: f460 9bbd 6c99 543e 402c f63b 3025 06be
000000b0: 8824 e53d d20c 4cbe 3012 f7bd bc9c bdbd

glu_encoder.rnn.bias_hh_l0 f4 [48]
-0.01846093 0.24800056 0.22214401 -0.10275784 -0.19207597 -0.038308084 -0.21702594 -0.22339857
-0.045479298 -0.13381419 0.02771172 -0.014881134 0.18519258 -0.13315696 0.028191447 0.14322612
-0.04421112 0.20776743 0.24238896 0.20899424 -0.18153262 -0.040144026 0.15898436 0.15037736
0.12997139 -0.19043395 0.20762399 0.21452075 0.2122868 0.24817502 0.122026265 0.20544964
0.061386406 0.0062175095 0.16771546 0.078585535 -0.19166514 -0.16504267 -0.1998964 0.09139407
0.15280327 -0.11283028 -0.098243326 -0.17394629 -0.22209588 -0.18209547 -0.0090073645 -0.1360307
00000000: 603b 97bc dcf3 7d3e b879 633e b472 d2bd
00000010: 90af 44be f0e8 1cbd 0c3c 5ebe 98c2 64be
00000020: 8048 3abd 9606 09be b003 e33c 00d0 73bc
00000030: 20a3 3d3e 4c5a 08be c0f1 e63c dea9 123e
00000040: b816 35bd fcc0 543e d034 783e 9602 563e
00000050: b0e3 39be 106e 24bd cccc 223e 86fc 193e
00000060: 3817 053e 1e01 43be 629b 543e 54ab 5b3e
00000070: b661 593e 9821 7e3e e8e8 f93d 6461 523e
00000080: 5070 7b3d 40bc cb3b 9abd 2b3e 74f1 a03d
00000090: de43 44be f200 29be a4b1 4cbe d02c bb3d
000000a0: 7678 1c3e 9013 e7bd cc33 c9bd fa1e 32be
000000b0: 1a6d 63be 3c77 3abe a093 13bc a24b 0bbe

glu_encoder.hid2lat.weight f4 [64, 16]
-0.24115682 -0.16874078 -0.07739717 0.16012639 0.030411392 0.16389221 -0.13445678 0.05654314
-0.052806556 -0.22160774 -0.12486583 -0.04589036 0.19704115 -0.16759253 -0.16974416 -0.16654548
0.15591526 0.12851188 -0.20551854 0.11472207 0.2163603 0.010830671 0.06928426 -0.060100466
0.18090427 -0.022138536 -0.15330169 -0.10753387 0.11610171 0.08296901 -0.17851856 -0.042495877
-0.12811247 0.00035896897 -0.039537936 0.24229923 -0.003377527 0.0760127 0.22862044 0.19154775
-0.0516119 0.23738748 -0.20689046 0.043855667 0.10539737 -0.09298274 0.10284096 -0.2214827
0.1421805 -0.11769399 0.2410905 0.0746865 -0.11667353 0.18046445 0.0030964613 0.2272655
-0.17799997 -0.08773956 -0.23813167 0.025780708 0.046844304 -0.08907607 0.0019848347 -0.07295823
0.20061246 0.15228218 -0.236788 -0.0017898083 0.21877459 0.18642423 0.17470753 -0.064175665
0.08814624 -0.1136806 0.16836408 -0.24865651 -0.19818118 -0.09670684 -0.117589265 0.17014283
-0.14108345 -0.15608734 0.2462829 0.22832143 0.06284076 0.1913482 0.16035053 -0.24593815
-0.08402637 0.11306766 -0.14248481 0.16438341 0.003010571 -0.079413086 -0.1522705 0.085890174
0.042173505 -0.12941745 0.058859825 0.18793032 0.0750635 -0.18393311 0.1288976 0.20332405
-0.116571754 0.13496199 0.05142972 0.1255844 -0.1010102 -0.01920867 -0.14195976 -0.08247641
-0.097863555 0.096499145 0.19699052 -0.077399105 -0.047365606 -0.14148745 -0.08903924 0.067516714
-0.097714156 -0.099069834 -0.24974653 0.13164517 0.17146519 0.13599357 0.14761949 0.21950802
0.045597166 -0.058698714 -0.18051848 0.20386952 0.19115615 -0.2110802 -0.20946625 -0.1868977
-0.069474995 0.13204446 0.15508333 -0.18018574 0.016042024 0.23259899 -0.1483413 0.0071248114
0.037368417 -0.21668237 0.0942494 0.038701117 0.052215308 0.1798211 -0.12069732 0.08937004
-0.1671268 -0.11336371 -0.04346803 0.1198253 -0.09405276 0.088914275 0.091507375 0.13088349
0.09763917 -0.16480291 0.05755171 0.2400142 0.1927832 0.124162465 0.04805225 -0.06338003
0.11185503 -0.05324456 -0.17097148 -0.091468036 -0.12561604 0.01795128 0.19491097 -0.109053075
-0.12821281 -0.17494944 -0.16384986 0.013817817 0.09941754 -0.04262817 0.053237736 -0.1247417
-0.21179056 0.21701005 0.14346504 0.010946691 -0.2443259 0.02825424 -0.24823031 -0.13225201
0.059019893 -0.07812518 0.14217466 0.18127355 -0.13823915 -0.05021152 -0.06748021 0.16659161
0.24720308 0.21455908 0.05317843 0.2097978 0.13410401 -0.21791574 0.14189231 -0.16797173
-0.07389212 0.041651547 -0.055424422 -0.18899304 -0.23698118 -0.14978886 -0.23166919 0.16829109
0.2364628 -0.14042985 0.17933154 0.14559087 -0.09170699 -0.0053517222 -0.20468757 0.23238468
0.20698082 -0.09072763 0.12598795 0.023954302 -0.009140998 0.15598875 0.07104036 -0.23514587
-0.24814513 -0.0067726374 -0.24726924 0.032921433 -0.022453725 0.010885537 -0.21891582 0.16313997
-0.17743337 0.07356414 0.011341721 -0.16427156 0.025361657 0.23168397 -0.005080998 0.12528384
-0.102795124 0.009062737 0.14055151 -0.193095 -0.05199328 -0.008175582 0.015562296 -0.025595993
00000000: d0f1 76be 62ca 2cbe 6882 9ebd 2cf8 233e
00000010: 5021 f93c 5cd3 273e 0aaf 09be c899 673d
00000020: b04b 58bd 24ed 62be a8b9 ffbd 88f7 3bbd
00000030: 28c5 493e 609d 2bbe 6ad1 2dbe e68a 2abe
00000040: 40a8 1f3e 9e98 033e 7473 52be 68f3 ea3d
00000050: 8e8d 5d3e 2073 313c e8e4 8d3d e82b 76bd
00000060: f83e 393e e05b b5bc 1efb 1cbe b83a dcbd
00000070: bcc6 ed3d a8eb a93d 92cd 36be 2810 2ebd
00000080: ea2f 03be 0034 bc39 88f2 21bd 4a1d 783e
00000090: 8059 5dbb 8cac 9b3d 7a1b 6a3e 1825 443e
000000a0: 0067 53bd b415 733e 18db 53be 00a2 333d
000000b0: 94da d73d bc6d bebd 489e d23d 5ccc 62be
000000c0: c497 113e 8c09 f1bd 6ee0 763e 3cf5 983d
000000d0: 88f2 eebd accb 383e 00ee 4a3b 4ab8 683e
000000e0: a045 36be ccb0 b3bd cad8 73be 1032 d33c
000000f0: d0df 3f3d 846d b6bd 0014 023b 206b 95bd
00000100: 5a6d 4d3e dcef 1b3e 8e78 72be 0098 eaba
00000110: 7206 603e fee5 3e3e 88e6 323e 886e 83bd
00000120: 0486 b43d 60d1 e8bd a267 2c3e d09f 7ebe
00000130: 02f0 4abe 3c0e c6bd a4d2 f0bd ec39 2e3e
00000140: 2e78 10be 5cd5 1fbe 9631 7c3e 18cd 693e
00000150: a8b2 803d c8f0 433e ee32 243e 36d7 7bbe
00000160: 0416 acbd 0490 e73d 8ae7 11be 2054 283e
00000170: 004d 453b 54a3 a2bd ccec 1bbe 30e7 af3d
00000180: 20be 2c3d 0286 04be 0017 713d ce70 403e
00000190: e4ba 993d f658 3cbe bcfd 033e 2e34 503e
000001a0: 2cbd eebd 7a33 0a3e f8a7 523d 3299 003e
000001b0: 70de cebd 805b 9dbc e65d 11be 64e9 a8bd
000001c0: b06c c8bd 58a1 c53d e2b7 493e 6c83 9ebd
000001d0: 7002 42bd 16e2 10be 345a b6bd 3446 8a3d
000001e0: 5c1e c8bd 20e5 cabd 8ebd 7fbe fecd 063e
000001f0: 9294 2f3e e641 0b3e 9029 173e b6c6 603e
00000200: 18c4 3a3d 106e 70bd d6d9 38be 2cc3 503e
00000210: 70be 433e 6825 58be 527e 56be 1c62 3fbe
00000220: e848 8ebd aa36 073e 2ace 1e3e 9c82 38be
00000230: 906a 833c 6e2e 6e3e c8e6 17be 4077 e93b
00000240: a00f 193d fce1 5dbe d405 c13d 1085 1e3d
00000250: b8df 553d 0623 383e 2830 f7bd a407 b73d
00000260: 4a23 2bbe 3c2b e8bd 880b 32bd f866 f53d
00000270: bc9e c0bd b018 b63d 3868 bb3d 5206 063e
00000280: 0cf7 c73d 18c2 28be 58bb 6b3d 48c6 753e
00000290: f668 453e e448 fe3d 70d2 443d 64cd 81bd
000002a0: 4014 e53d f816 5abd 2613 2fbe 9853 bbbd
000002b0: 7ea1 00be 900e 933c be96 473e 3857 dfbd
000002c0: 384a 03be f225 33be 42c8 27be 2064 623c
000002d0: 6c9b cb3d e09a 2ebd d00f 5a3d 9478 ffbd
000002e0: a0df 58be e237 5e3e 80e8 123e c059 333c
000002f0: 9230 7abe 7075 e73c 1630 7ebe 126d 07be
00000300: d8be 713d 1800 a0bd 3c96 113e c69f 393e
00000310: 908e 0dbe 98aa 4dbd 1033 8abd fe96 2a3e
00000320: ce22 7d3e 60b5 5b3e a0d1 593d 3cd5 563e
00000330: 9052 093e 4e25 5fbe 384c 113e c800 2cbe
00000340: c054 97bd d09a 2a3d b804 63bd 6487 41be
00000350: 32ab 72be 4062 19be b03a 6dbe 8054 2c3e
00000360: 4e23 723e d8cc 0fbe b0a2 373e c615 153e
00000370: e0d0 bbbd 805d afbb 9e99 51be 40f6 6d3e
00000380: c8f2 533e 68cf b9bd fc02 013e d03b c43c
00000390: 20c4 15bc 84bb 1f3e 9c7d 913d 14ca 70be
000003a0: c219 7ebe 00ed ddbb 2634 7dbe a0d8 063d
000003b0: e0f0 b7bc 4059 323c 782b 60be 2a0e 273e
000003c0: 18b1 35be cca8 963d a0d2 393c ce36 28be
000003d0: 40c3 cf3c 903e 6d3e 807e a6bb 684a 003e
000003e0: 4086 d2bd e07b 143c bcec 0f3e b2ba 45be
000003f0: e8f6 54bd e0f2 05bc 00f9 7e3c b0ae d1bc

glu_encoder.hid2lat.bias f4 [64]
0.03701052 -0.052835494 -0.20120841 0.029923886 0.031575948 0.012462556 0.18800199 -0.07014957
0.0033233166 0.1354469 0.20885876 0.11353809 0.01604423 0.0145508945 0.012640983 -0.17329037
-0.0780001 0.04626304 -0.012781531 0.22269791 -0.09279895 0.16373798 0.10047227 0.055623442
0.16606495 0.09638217 0.07469466 0.032990932 -0.13730603 0.24427947 -0.17117852 -0.027888298
-0.22992545 -0.23081139 0.18736318 -0.12332466 0.2279807 -0.034333587 -0.186753 -0.11729032
-0.014604956 0.0034988523 0.1615355 -0.0049344003 0.2452626 0.13094005 0.13910526 0.18842581
-0.14596859 0.035215825 0.20627466 0.23675889 -0.005807042 -0.12145978 0.029985458 -0.044555664
-0.24016774 -0.17535815 -0.22920248 -0.042492867 -0.1801272 -0.050748646 0.060264498 0.16662338
00000000: 5898 173d 086a 58bd 9409 4ebe f022 f53c
00000010: c855 013d c02f 4c3c 9883 403e 94aa 8fbd
00000020: 00cc 593b 98b2 0a3e 12df 553e a886 e83d
00000030: 306f 833c e066 6e3c 201c 4f3c 0873 31be
00000040: 84be 9fbd 507e 3d3d a069 51bc ec0a 643e
00000050: 600d bebd eeaa 273e 68c4 cd3d 68d5 633d
00000060: ee0c 2a3e 0464 c53d 84f9 983d 8021 073d
00000070: f499 0cbe 6624 7a3e 6c49 2fbe 0076 e4bc
00000080: 9471 6bbe d259 6cbe 22dc 3f3e a491 fcbd
00000090: c673 693e 60a1 0cbd 2e3c 3fbe e835 f0bd
000000a0: a049 6fbc 004d 653b 9069 253e c0b0 a1bb
000000b0: 1e26 7b3e 2615 063e 9c71 0e3e b2f2 403e
000000c0: ca78 15be 783e 103d aa39 533e ec70 723e
000000d0: 0049 bebb e8bf f8bd 10a4 f53c 0080 36bd
000000e0: 88ee 75be 1691 33be 0eb4 6abe 000d 2ebd
000000f0: 4473 38be d0dd 4fbd e8d7 763d 529f 2a3e

encoders.weight_ih_l0 f4 [192, 64]
-0.022107393 -0.08102 -0.11220758 0.124484375 -0.01305227 0.023981541 0.05106181 0.06627768
0.100819185 -0.0887509 0.09903532 -0.10844512 -0.11054017 0.0044226795 -0.04046002 0.10375084
0.0009370446 0.00017386675 -0.12297948 0.07196939 0.09621091 -0.11090666 0.009443119 -0.022245362
0.00674136 0.12354685 -0.08584939 -0.05448903 -0.10391919 -0.0058041066 0.12481752 -0.026932567
-0.012451887 0.08404796 -0.04163909 -0.106746405 -0.11607356 -0.032988653 -0.07267699 0.09757005
0.043924555 0.025073498 0.09822632 0.123260096 -0.09165086 0.06239049 -0.02040194 -0.097898275
-0.11149992 -0.059706956 -0.053677857 -0.036999658 0.019780338 0.061614692 -0.00072568655 -0.08381188
-0.019923404 0.02817066 -0.10462883 -0.12049359 -0.032341525 0.019241363 0.022440195 0.082736135
-0.023415029 0.03806445 -0.09540868 -0.09357074 -0.08580515 0.08827391 0.06762192 0.03593774
0.0013360679 -0.10481869 0.011660427 -0.09164068 0.023167446 -0.036347836 -0.0010161996 -0.02936101
0.027851209 -0.12163213 -0.10370061 0.06554362 0.08459225 0.09118982 0.09799276 -0.10851017
0.082923636 0.07435736 0.078036204 -0.062445194 0.12080692 0.0212048 0.017903253 -0.027208671
-0.089481935 -0.08807813 -0.0044926703 0.067870855 0.09090939 0.11526516 -0.012891844 -0.07245976
0.064588815 -0.0483063 -0.008597881 0.0015528798 0.09717718 -0.032593325 0.07826543 -0.060168743
-0.10572615 0.07037692 -0.031239212 0.1061317 0.033676744 -0.085418984 -0.11580193 -0.07869418
0.05108723 0.037374362 -0.09719333 0.003044054 0.09218541 -0.04826221 0.025301024 -0.07691985
-0.02191259 -0.022131264 -0.074434385 -0.065782666 -0.061856925 -0.028217643 -0.08968243 0.010711014
-0.1162885 -0.06853615 -0.082980245 -0.078957096 0.10277934 0.014244467 0.050324365 -0.025189325
0.025260344 0.08306807 0.075974345 -0.07095224 -0.03525628 -0.11512406 0.114125505 -0.10586169
-0.01456809 0.07574628 0.004796028 -0.041513026 0.087963045 0.070283696 0.07812077 0.054927588
-0.10715227 -0.06752242 0.099276915 0.018198073 -0.04574758 0.087607056 -0.09028509 0.091891915
0.01037924 -0.0058009923 -0.0021839738 -0.046004936 0.0777521 0.05577606 0.051366493 -0.111858115
0.009507179 -0.014733866 -0.011705473 0.04189597 -0.100589916 -0.09955497 -0.06565669 0.038960934
0.039798513 -0.009659186 -0.1077501 -0.10368234 -0.025811166 -0.10206315 -0.08241092 0.019755706
0.042590007 0.10368617 0.11334613 -0.010351628 0.091480136 -0.12053764 0.11034921 -0.08666201
-0.04886657 -0.032656446 0.04874195 -0.115747005 0.11017044 0.061285526 -0.026179 0.086540714
-0.026947439 0.012913808 -0.040276155 -0.09533645 0.09343603 0.0071843415 -0.12214677 -0.10805862
0.034828335 0.023009554 0.0411817 -0.121133745 0.029950619 -0.035867453 0.0792485 -0.090363786
-0.015500829 0.11993125 -0.066585615 -0.053493932 -0.013889298 -0.004275456 0.113988355 -0.060457334
-0.027450502 0.09096508 0.105851024 0.005861312 0.08635168 0.04637645 0.016109139 0.0031706244
0.115213946 0.085209906 -0.061079904 -0.033802927 -0.05968921 0.066662684 -0.112858295 0.06977598
0.10124938 -0.020339057 0.0737347 0.03814532 -0.08590029 0.0616574 -0.085777745 0.106004015
00000000: 901a b5bc d0ed a5bd 16cd e5bd aaf1 fe3d
00000010: 30d9 55bc f074 c43c 3026 513d 98bc 873d
00000020: 4a7a ce3d 08c3 b5bd 08d3 ca3d 7a18 debd
00000030: e262 e2bd 20ec 903b 68b9 25bd 527b d43d
00000040: 00a4 753a 0050 3639 aadc fbbd b064 933d
00000050: 3a0a c53d 0823 e3bd 50b7 1a3c e83b b6bc
00000060: a0e6 dc3b 2206 fd3d ced1 afbd e42f 5fbd
00000070: 96d3 d4bd 6030 bebb 54a0 ff3d b0a1 dcbc
00000080: 0003 4cbc 5621 ac3d c08d 2abd dc9d dabd
00000090: fab7 edbd 1c1f 07bd acd7 94bd ced2 c73d
000000a0: 3cea 333d f066 cd3c e22a c93d ca6f fc3d
000000b0: 72b3 bbbd 2c8d 7f3d f821 a7bc e47e c8bd
000000c0: 125a e4bd 488f 74bd 50dd 5bbd f48c 17bd
000000d0: 600a a23c b05f 7c3d 003c 3eba 90a5 abbd
000000e0: 6836 a3bc 28c6 e63c a447 d6bd 58c5 f6bd
000000f0: 8c78 04bd 10a0 9d3c 80d4 b73c 9071 a93d
00000100: e0d0 bfbc 78e9 1b3d a065 c3bd 04a2 bfbd
00000110: 9cba afbd f4c8 b43d 5c7d 8a3d 7433 133d
00000120: 001f af3a 2eab d6bd 600b 3f3c 1cae bbbd
00000130: a8c9 bd3c 78e1 14bd 0032 85ba 8086 f0bc
00000140: 3828 e43c 441a f9bd fc60 d4bd bc3b 863d
00000150: b43e ad3d bac1 ba3d 6eb0 c83d 943a debd
00000160: ded3 a93d ac48 983d 72d1 9f3d 88c6 7fbd
00000170: 9e69 f73d b0b5 ad3c d8a9 923c b8e4 debc
00000180: 4e42 b7bd 4e62 b4bd 4037 93bb e0ff 8a3d
00000190: b42e ba3d 2410 ec3d 5038 53bc c865 94bd
000001a0: 2447 843d d4dc 45bd 20de 0cbc 008a cb3a
000001b0: d404 c73d 9480 05bd a049 a03d 8073 76bd
000001c0: f486 d8bd c621 903d 60e9 ffbc 945b d93d
000001d0: a0f0 093d 26f0 aebd 9029 edbd 6a2a a1bd
000001e0: d840 513d dc15 193d 4c0d c7bd c07e 473b
000001f0: b4cb bc3d 98ae 45bd 1844 cf3c 2888 9dbd
00000200: 0882 b3bc a04c b5bc 0e71 98bd 10b9 86bd
00000210: b05d 7dbd b028 e7bc 6cab b7bd 407d 2f3c
00000220: aa28 eebd ae5c 8cbd 8cf1 a9bd 42b4 a1bd
00000230: fa7d d23d a061 693c ec20 4e3d d859 cebc
00000240: c8ee ce3c 981f aa3d 7098 9b3d 684f 91bd
00000250: e468 10bd 2ac6 ebbd a2ba e93d 04ce d8bd
00000260: 00af 6ebc de20 9b3d 0028 9d3b 9009 2abd
00000270: f825 b43d e6f0 8f3d c8fd 9f3d c0fb 603d
00000280: a672 dbbd 3249 8abd b251 cb3d 2014 953c
00000290: d061 3bbd 546b b33d 64e7 b8bd d431 bc3d
000002a0: b00d 2a3c 4016 bebb 0021 0fbb ac6f 3cbd
000002b0: 7e3c 9f3d 7075 643d ac65 523d de15 e5bd
000002c0: 00c4 1b3c 5066 71bc 50c8 3fbc 1c9b 2b3d
000002d0: 1602 cebd 7ae3 cbbd 0477 86bd 8095 1f3d
000002e0: c403 233d 9041 1ebc 16ac dcbd 6857 d4bd
000002f0: f071 d3bc 7c06 d1bd 0ec7 a8bd b8d6 a13c
00000300: dc72 2e3d 6a59 d43d 0422 e83d e099 29bc
00000310: f059 bb3d 70dc f6bd c4fe e13d da7b b1bd
00000320: 5028 48bd c4c2 05bd a4a5 473d c40c edbd
00000330: 0aa1 e13d 8806 7b3d 5875 d6bc 423c b13d
00000340: e0c0 dcbc 7094 533c 9cf8 24bd c23f c3bd
00000350: 645b bf3d a06a eb3b 1628 fabd d64d ddbd
00000360: 28a8 0e3d 887e bc3c 24ae 283d f814 f8bd
00000370: 005b f53c c0e9 12bd 0a4d a23d a610 b9bd
00000380: 30f7 7dbc 849e f53d 0a5e 88bd 741c 5bbd
00000390: f08f 63bc 2019 8cbb ba72 e93d 1ca2 77bd
000003a0: e0df e0bc e64b ba3d 6cc8 d83d 4010 c03b
000003b0: 26d9 b03d 3cf5 3d3d 50f7 833c 40ca 4f3b
000003c0: 4af5 eb3d 8882 ae3d ec2e 7abd f074 0abd
000003d0: ac7c 74bd 7286 883d 4022 e7bd b6e6 8e3d
000003e0: d65b cf3d 189e a6bc 3802 973d 443e 1c3d
000003f0: 7eec afbd 788c 7c3d 3eac afbd a218 d93d
