code/baseline/saved/GAMNet_learning_rate_0.0001_hidden_size_64_epoch_6000_batch_size_32/Epoch_1050_JA_0.6166_DDI_0.0950.model (torch, 455805 bytes, 29 tensors)

lab_embeddings f4 [32, 64]
00000000: 411a a03e 223d d03d 8041 36bf 1b12 d2bf
00000010: 55c7 2ebf 3875 bbbf 5a28 943f f9e7 f43e
00000020: d4d5 313f 7958 123f a872 debf 1882 adbf
00000030: 65be f83e 3e33 d9be a8f9 273f 7427 f93f
00000040: 161a 293f 7862 3a3e a2a6 b13e c634 013f
00000050: 9e8b 693e 954a 47bf e910 8cbf b0c1 6bbf
00000060: 82b0 24bf 581f 84bf 45f7 313f ae92 14c0
00000070: 48af bcbe c702 4f3f 6dbe b53f 7038 c03e
00000080: 3f7d 09c0 a12c d83f 52fa 7bbe c469 f1bf
00000090: f85c e8be 3095 22bf e20b 91bf 91ec 68bf
000000a0: ee99 f93e 2e7d cd3e 00fe 703f aade e0be
000000b0: 411b b33e 92e5 633f 9502 0f40 725b 083f
000000c0: 0233 9dbe 01a5 d4be 9662 833e 8864 06bf
000000d0: 7cbd 3cbf 9929 4f3e 52ae 1ebf 6b3f 3c3f
000000e0: 8977 85be 9acc 6bbe bd3e 2140 827e 13bf
000000f0: bad5 933d a6b0 b73e 93d8 eb3f 958d 233d
00000100: e6e1 1abe 2ab3 27bf 4391 ccbe 9d25 c7bd
00000110: 78c6 5b3e ac02 123f a90a ed3f 70d4 923e
00000120: 1a03 87bf 243f 9ebf d071 a6bf ac7f 903d
00000130: 6858 c2bf 444d 89bf 4179 593f 9514 6fbf
00000140: 0e24 3abe e0ba 163f 19d8 ba3f a246 9a3f
00000150: fdb6 c03e e510 07bf f4eb 333e a315 1440
00000160: ee75 e4bc 7913 833f d7cd ab3e 37f4 743f
00000170: 31e1 ec3c 1402 ed3f 623c 603f d657 de3d
00000180: 2eb4 41bf afca b4bf 306e f8be 3b62 073f
00000190: e756 a23f 3e78 a8be fd0c 553e 5c66 aa3e
000001a0: 90ae dc3e d3ee 98bf e869 333f 38a6 263f
000001b0: dd33 cc3f 19ec 86be cc1c f8bf 921d 22bf
000001c0: bc6b 313f 178e d2bf b92b 3e3f a35c 153f
000001d0: 13a1 143f fed1 e5be 2fea 9bbf c00f 4bbf
000001e0: 3515 f7bf 5e13 5240 37d0 3d3e a546 c03e
000001f0: ed5b 373f 2ee4 743f 5826 0bc0 c55d af3f
00000200: 9780 5cbf 8ec7 83be f4bf ce3f e1eb 2ebe
00000210: 808c 7a3e b9b2 7bbf a440 79bf bfe4 3cbf
00000220: c581 54bf 96bb 5f3f e214 debb e5d8 9b3f
00000230: 03e5 a2be c573 173f 5518 f7be bb10 0940
00000240: 28da 4ebf b42f 4d3e 8f4a 4c3f 01b5 c4be
00000250: 7bcf 49bf 401e 083f f0bc c53f b0b7 61bc
00000260: 58a5 adbf 8823 7cbe df45 16bf a24b 44bf
00000270: ba2b c33e 381b 87be 5260 19be da2d 403f
00000280: 5df1 4ebf 7409 b03f ca52 9b3e 3c5b 013f
00000290: d34a 3a3f e7fe c23e d8a9 5dbc ada0 b73f
000002a0: 1aed ff3f f9c0 4abe 4923 cd3e b22e 2abe
000002b0: 5107 9f3f 227b 9ebe e50b e5be 8415 35bf
000002c0: 038d bbbe c423 953e 5497 82bf 9ffb b43e
000002d0: 9796 b5bf 8b22 b63e b647 8b3d 8b92 d9bf
000002e0: 2d34 58bc 8f93 4f3f 0740 7c3e 31db c6bc
000002f0: 6ff3 cc3e 4d82 b1bf c9b5 5fbf e1d2 00bf
00000300: c4c3 7cbd 9a66 1bbf f4f2 653f 9130 8abf
00000310: ebfb eebd 41e9 00c0 814f b7bf 2ed9 2b3e
00000320: 8cc4 893e 9b17 993f eabc eebe e703 85bf
00000330: 0a6b 583f 779d fa3f 6e5a 5f3e f45c 9dbd
00000340: 5cba 813e f7fd 0f3f 77d8 84be d29c 623d
00000350: d798 793e 9bcc aabf 6363 20c0 d11d c2be
00000360: 7ada 1bbf fb7f 58bd fd45 1040 85a2 e4bf
00000370: a18d 113f fa44 713d b400 8dbe 631e cd3e
00000380: 9935 743e 2c77 9d3f 277b 783f 66b6 a2bf
00000390: fbc8 083f 580a 2fbd 9ef5 f53f f847 04c0
000003a0: 9ebb 423f d976 a33e 46ff 1abd 6a6f cbbe
000003b0: 04ad 41bf d965 143f 4145 97bf 25f2 5d3f
000003c0: a664 28bf b851 a6bf d2a9 fc3e ee9a 613f
000003d0: 2d8e ad3f 473b fe3e ed82 f2bf a30f 3b3f
000003e0: b5ee 1c3f 1ded b83f fdfd 62bf 570e 343f
000003f0: e1f7 8e3f fb1e 4ebe 0992 213f ac25 0b40
0.3127003 0.1016791 -0.71193695 -1.6411775 -0.68272907 -1.4645147 1.1574814 0.4783323
0.694669 0.5716625 -1.737874 -1.3555326 0.4858276 -0.42421907 0.6561532 1.9465165
0.6605543 0.18201625 0.34697443 0.5047115 0.22807166 -0.7784818 -1.094266 -0.9209242
-0.6433183 -1.0322065 0.6951793 -2.3214526 -0.3685248 0.8086361 1.4198738 0.37543058
-2.1482694 1.688862 -0.24607208 -1.8860402 -0.4538343 -0.6350889 -1.1331751 -0.9098597
0.48750252 0.40134567 0.94137573 -0.4391988 0.3498173 0.8902217 2.2345326 0.53264534
-0.30702978 -0.41532138 0.25661153 -0.5249715 -0.7372663 0.20230712 -0.6198474 0.7353427
-0.2606776 -0.23027268 2.5194542 -0.5761491 0.072184995 0.3587696 1.8425468 0.039929945
-0.15125236 -0.6550776 -0.39954576 -0.09723971 0.21462429 0.57035327 1.8518878 0.28677702
-1.0547822 -1.2363019 -1.3003483 0.070556015 -1.518323 -1.0726705 0.84950644 -0.9339078
-0.18177816 0.588789 1.4597198 1.2052805 0.3763961 -0.52760154 0.17570478 2.3138206
-0.027888265 1.0240318 0.3355548 0.9568514 0.028915973 1.8516259 0.87592137 0.10856597
-0.7566556 -1.4124354 -0.48521566 0.5288426 1.268277 -0.32904238 0.20805736 0.3328122
0.4310193 -1.1947883 0.70083475 0.6509738 1.5953327 -0.26352003 -1.9383788 -0.6332637
0.69305015 -1.6449612 0.74285465 0.5834448 0.5805828 -0.44886774 -1.2180842 -0.7932091
-1.9303347 3.282432 0.18536459 0.37553898 0.7162464 0.95660675 -2.1742153 1.3700491
-0.8613371 -0.25738186 1.615233 -0.17082168 0.24467659 -0.98319584 -0.9736426 -0.7378654
-0.8301051 0.8739561 -0.006777392 1.2175566 -0.31815347 0.59161025 -0.4826075 2.1416461
-0.8080163 0.20037729 0.7980127 -0.38419345 -0.78832215 0.5317116 1.5448284 -0.013776705
-1.3566084 -0.24622929 -0.58700365 -0.76677907 0.38119298 -0.26387954 -0.1497815 0.75069964
-0.8083704 1.3752885 0.303366 0.5052984 0.7277042 0.380851 -0.013529263 1.4345909
1.9994233 -0.19800176 0.40065983 -0.16619375 1.2424108 -0.30953318 -0.44735637 -0.70735955
-0.3663102 0.2912885 -1.0202432 0.35348222 -1.4186581 0.3557323 0.06800787 -1.6997846
-0.013196033 0.8108453 0.246338 -0.02427444 0.40029475 -1.386789 -0.8738676 -0.50321776
-0.061710134 -0.6070343 0.8982384 -1.0796071 -0.11669143 -2.0142367 -1.4321138 0.16782066
0.26907766 1.1960329 -0.46628505 -1.0391816 0.8453833 1.9579304 0.2181184 -0.07683745
0.25337493 0.56246895 -0.259464 0.055325337 0.2437471 -1.3343691 -2.506066 -0.37913373
-0.60880244 -0.052856427 2.2542717 -1.7862097 0.56856734 0.05890367 -0.275396 0.40062246
0.23848571 1.2301993 0.97062916 -1.2711914 0.5343167 -0.042734474 1.9215581 -2.0668926
0.7606753 0.3192661 -0.037841104 -0.3973344 -0.75654626 0.5796791 -1.181801 0.8669761
-0.6577858 -1.2993689 0.49348313 0.8812703 1.3559014 0.496546 -1.8946205 0.73070735
0.6130174 1.4447361 -0.88668805 0.7033438 1.1169397 -0.20129006 0.63113457 2.1741743

static_ll.0.weight f4 [128, 64]
00000000: bd8f ae3d d604 a3bd 8a26 e6bd 5988 02be
00000010: a0e3 6e3d 6f7a a2bd 5aff c6bd 7a22 cc3c
00000020: 8b29 763d d898 7dbd 3778 37bd 6707 88bd
00000030: 0f1e 123e 1f85 93bd 3c79 ef3b 93a6 b9bd
00000040: 7caf 06be 7d6f ce3d 10e8 81bd 3d2e f9bd
00000050: df90 2dbd b502 90bd b039 15be 34ae e6bd
00000060: 35f7 e03d 4102 0cba f6d2 093d 1a61 e9bd
00000070: 49fb 5f3d bf16 a8bd 2f26 993d 3336 ef3d
00000080: 6e15 c63d f4f2 d13d 0da8 33bb 26e7 f5bd
00000090: 3376 683d faf4 8a3d 6d45 323d 1f27 1bbd
000000a0: a493 163c 0a13 b63d 48ae a93d 7ac5 e93c
000000b0: 036e 96bd 48a2 813d d42f 31bd 1edf 6fbd
000000c0: 128d 27bd 875a 02be 8648 ff3d 85cb 093e
000000d0: a256 213d 21ae 72bc 3484 34bd 50d9 f6bd
000000e0: a45c 9e3c 4502 8e3c 1256 31bd 8168 d13c
000000f0: f6c3 02be 56a1 d0bd cdf4 3cbd 1e28 d6bc
00000100: 3746 103c d95c ff3d c7b1 aabd 88f9 cc3d
00000110: 3e13 1abc 24cf cabd a649 a53d e654 9dbd
00000120: 6fbe b1bd 1d80 3a3d 36b5 11bd c1cc b83d
00000130: 2661 33bd b9ff 283c 6a37 273d 217d 98bd
00000140: a978 dcbd 88d6 a9bd a0f5 57bc d31c bc3d
00000150: 609f ea3d e4bb 903d 6b81 653d d0dd 943b
00000160: c784 b73d 1b1e 173d 8083 c13d 0523 ff3d
00000170: de6b ed3d efc8 e83d 68ca 463c 4181 e1bd
00000180: d9c7 01be 55e1 babd 4a2e 563d fa29 4fbd
00000190: a751 47bd 4adf e93d d713 94bd fb1d d53d
000001a0: 7c7d 9dbd 3a2d d3bd 9dbb 023e dc54 ebbd
000001b0: 4fe0 afbd 6cfc 05bc 10b4 84bc 22f2 40bd
000001c0: 39c9 6dbd 0aee fa3c a0f5 003e c2c0 bf3c
000001d0: 73b5 f0bd 6c70 05bd a775 bcbd 4dd2 a93c
000001e0: 3e68 96bd 4b3b f13d 3d21 10bc 74f4 c73d
000001f0: 9d41 94bc a2c2 853d 427a f6bd f348 d93d
00000200: 2d74 a43d 04f8 13bc 6645 ecbb 6f5a 0a3c
00000210: a9fa ce3d a76a 10be 0125 cebd a4eb babc
00000220: ece2 c5bd bd33 d1bc 92c0 b0bd 4742 09be
00000230: 88c0 47bc 4bc3 c2bd 358e dabd 6335 84bc
00000240: ee99 a1bd b8f3 db3d 96d0 2fbd 81a9 edbd
00000250: 5cd8 8e3d bc9c 4cbd 595d 13bd b795 1b3d
00000260: ae19 81bd 8d64 ccbd 53b1 b7bd 2702 89bd
00000270: 495c 99bd e7ce 8f3d cce6 583d b7f8 acbc
00000280: d062 03be b8ed 993d 63be c93c 4b49 003d
00000290: d5b1 713d 6602 d5bb 5723 203d b97f 31bc
000002a0: 56dc f9bc 8e49 babd 9334 b93d d4c0 82bd
000002b0: d556 fc3d d668 d13d 6fb4 fa3d 82bb 6abd
000002c0: 9814 c9bd 4d8c e1bc a29c c83d 9a22 923d
000002d0: d769 dbbb f87e f13d 4a2e a13d 68fa 2cbd
000002e0: 5489 003c 1c5e 4b3a 2d3f c63c 2e53 afbd
000002f0: c7c0 013e cc0a ae3d e2dc 7f3c 5125 89bd
00000300: af90 e3bd becc 5ebd 56d4 26bd d825 91bc
00000310: 401f e33d ab00 ec3d 7adc eebd 73f9 a33d
00000320: 70a9 b0bd 6773 ba3d 3756 963d f222 823b
00000330: 93fa b23d c548 5a3d 061a 453d a1b2 2b3d
00000340: 0081 be3d a3c6 12bc 0291 853c 44a7 543d
00000350: 574d ca3d ff3f c33d e13c 22bd e9a5 4dbd
00000360: 7798 c13d e476 edbc 8a88 05be e65e e03c
00000370: 6aec d63c 19dd 83bc 4796 ae3c 4c0e 6f3d
00000380: dac7 f93b a7a4 b1bd fcbd 03bd fca7 6b3d
00000390: 9788 1dbd 800c 73bd 8cf9 f8bd 42fb 1e3d
000003a0: e7c3 e73d 8c78 fabd f882 d8bd 7c58 c13d
000003b0: c8b3 2fbd 126b 58bd 965a cb3d 6268 c3bd
000003c0: 27f6 853c ba4a 7e3d c14e 00be f0ab e9bc
000003d0: 17a6 eb3d 04de b7bd d5b2 f1bc f94d 81bd
000003e0: 67d5 393c da49 77bd b74e e43b ee37 97bd
000003f0: 4eb4 a6bd ca05 b1bd a036 4fbd ec60 97bc
0.0852351 -0.07959907 -0.112378195 -0.12747325 0.05832255 -0.079335086 -0.09716673 0.024918783
0.060098212 -0.06191334 -0.04479238 -0.06642037 0.14269279 -0.07203125 0.0073081534 -0.09064975
-0.1315288 0.100798585 -0.063430905 -0.121670224 -0.042374488 -0.07031766 -0.14572787 -0.11263695
0.10984651 -0.0005340912 0.033648454 -0.11395474 0.054683004 -0.082074635 0.07477986 0.116802596
0.09672056 0.10251418 -0.0027413398 -0.12006979 0.05675335 0.06785007 0.04352324 -0.037879106
0.009190474 0.0889035 0.08285195 0.028536547 -0.07345202 0.06329781 -0.043258503 -0.05856239
-0.04090602 -0.12729846 0.124650046 0.13456543 0.03938926 -0.014812023 -0.04407139 -0.12053168
0.019331284 0.017335067 -0.043294974 0.025562527 -0.12770066 -0.101870224 -0.046131898 -0.026142176
0.008805803 0.12468881 -0.083346896 0.10008532 -0.009404002 -0.0990279 0.08070688 -0.07682209
-0.086789005 0.045532335 -0.035573207 0.09023429 -0.04379382 0.010314875 0.04082433 -0.074457414
-0.107652016 -0.08292872 -0.01318112 0.09185185 0.114561796 0.07067087 0.056031626 0.0045430437
0.08960872 0.036893945 0.0944891 0.12457851 0.1159284 0.1136645 0.012133218 -0.11010981
-0.12673892 -0.0912501 0.05229024 -0.05057714 -0.048661854 0.11419542 -0.07230347 0.10406109
-0.0768995 -0.10311361 0.12766881 -0.11490795 -0.08587705 -0.008177858 -0.016199142 -0.047105916
-0.05805323 0.030631084 0.12593699 0.023407344 -0.11753359 -0.032577917 -0.09202128 0.020730162
-0.07344101 0.11778887 -0.008796987 0.097634226 -0.018097693 0.06531264 -0.120350376 0.10609617
0.08029971 -0.0090312995 -0.0072104214 0.008444413 0.101064034 -0.14103185 -0.10065652 -0.02281744
-0.096624225 -0.025537366 -0.0863048 -0.13404189 -0.012191899 -0.095099054 -0.10671655 -0.016138738
-0.07890688 0.10739845 -0.042923532 -0.11604596 0.06974861 -0.04995416 -0.035977695 0.037984576
-0.06303726 -0.09980116 -0.08969369 -0.06689864 -0.07488305 0.07021885 0.05295448 -0.02111469
-0.12830663 0.075160444 0.024626916 0.031319898 0.059007484 -0.00650053 0.039096203 -0.010833674
-0.030500572 -0.09096061 0.09043231 -0.06384435 0.123212494 0.10225074 0.12241446 -0.057307728
-0.09818381 -0.027532721 0.097955 0.07135506 -0.0066959667 0.117917955 0.07870157 -0.042230994
0.007845242 0.0007757859 0.024200046 -0.08560787 0.12671195 0.08498153 0.015616627 -0.06696571
-0.111115806 -0.054394476 -0.040729843 -0.01771824 0.11089945 0.11523565 -0.11663146 0.08006563
-0.08626068 0.091040425 0.07340663 0.003971451 0.087391995 0.053292055 0.04812052 0.0419184
0.093019485 -0.0089584915 0.016304497 0.05191733 0.09878033 0.09533691 -0.03960884 -0.050207052
0.094529085 -0.028987356 -0.13040367 0.027389001 0.026235778 -0.016096639 0.021311892 0.058363244
0.007622701 -0.08673983 -0.032163605 0.05753325 -0.03846034 -0.059338093 -0.12156972 0.038813837
0.11316662 -0.12230024 -0.10571855 0.09440705 -0.042896062 -0.052836485 0.09929387 -0.09541394
0.016352726 0.062082984 -0.12530042 -0.028524369 0.115062885 -0.08977893 -0.02950422 -0.063137
0.011342383 -0.060373165 0.0069673914 -0.073837146 -0.08139859 -0.08643682 -0.050589204 -0.018478833

static_ll.0.bias f4 [128]
00000000: 4f46 d43d 2c11 bebd ebb5 163c 2dc4 94bd
00000010: 1071 e13d 5fbb 933d 1df8 b4bd a378 a43d
00000020: d418 b43c d6cd 093e 7f09 0b3e 9c48 8fbd
00000030: df36 25bd 4a32 b83d d2e5 483b ee5f d73d
00000040: 3021 fa3d 0e53 9bbd 1035 d13c 1c06 883d
00000050: e495 b03d 6452 c73a ca35 983d 3741 153e
00000060: 012d c83d 80b1 943d ebb4 44bd 275b bcbd
00000070: a01a 98bd 65a5 e43d 8ff8 f0bc dba9 8bbd
00000080: f0b4 d2bb 2282 a43d 8349 c13d 7791 a2bd
00000090: f6ea cd3d f550 eb3d 44c9 003c 1abb 323d
000000a0: 1674 613c 0f5e 20bd a26d ddbc ea9d b7bd
000000b0: a48b 0e38 ddd5 35bd db64 43bd 4ee0 31bd
000000c0: 0163 27bd 1340 d63d 2a46 d53d dccd ce3c
000000d0: 38ea ee3c 7b77 033e fd56 33bd 6150 6b3d
000000e0: 710e 0d3e 368b c43d e9b8 d6bd 9e55 a7bd
000000f0: a2ad d3bc 29ee e63d da1e 7abd 1b56 9abd
00000100: af05 61bd 4143 81bd 6fbe c83c aadd a8bd
00000110: 2157 86bc 545d 55bc 8f1f 543d f585 a53d
00000120: fb29 01bc 1c1c b0bc 71aa 8cbd cc34 9dbb
00000130: 8a08 5b3c 37e2 9b3b 4ffd 27bd f358 60bc
00000140: 5ab2 be3b 7bc1 ae3d d28f c3bd 20c8 0a3c
00000150: dbe5 a7bd 4444 63bc c8e7 90bd 12b3 363d
00000160: e108 013e e119 9bbd 6b77 c53d ea5a 10bd
00000170: d06a dcbd 02d7 6d3c 723c 9bbb 0651 91bc
00000180: fce9 88bd 5ea4 933d 2e6a a33b 130f 4fbc
00000190: 608f f33d 550e 90bd f756 6b3d 9893 66bd
000001a0: ef87 afbd 786e 68bd c1ed e33d 3d25 cb3d
000001b0: 70b0 563d 7f1e 303d 5cca 353d 88d5 ebbc
000001c0: 9f93 fb3d b038 abbd 8cb3 913d 3bea 23bd
000001d0: 5842 303d fe43 823d 66d8 4b3d 5f18 cdbd
000001e0: 1772 833d 0372 babc 5797 b83d 6b27 83bd
000001f0: 78ac 663d d162 01be a560 eb3d 4176 d93c
0.10364973 -0.09280619 0.009198646 -0.0726398 0.11007893 0.072134726 -0.08836386 0.08030822
0.021984495 0.13457426 0.13577841 -0.06996271 -0.040335532 0.08993967 0.0030654562 0.10516344
0.12213361 -0.07584201 0.025537997 0.0664179 0.08622339 0.001520705 0.074321344 0.14575659
0.09774209 0.07260418 -0.0480241 -0.091970734 -0.07426953 0.11164359 -0.029415397 -0.06819507
-0.006430261 0.08032633 0.094378494 -0.079379015 0.10054581 0.11490051 0.007860485 0.043635465
0.013760587 -0.0391522 -0.027029816 -0.089656666 3.398549e-05 -0.04439341 -0.047703605 -0.043426804
-0.0408659 0.1046144 0.10413773 0.025244646 0.029164419 0.12838547 -0.04378413 0.057449702
0.1377504 0.09596865 -0.104844876 -0.08170627 -0.02583963 0.11275894 -0.06106458 -0.075359546
-0.05493706 -0.06311656 0.024504868 -0.08245404 -0.016398968 -0.013022739 0.05178791 0.08082191
-0.007883544 -0.021497779 -0.068684466 -0.0047975536 0.013368735 0.0047571915 -0.04101306 -0.013693082
0.005819601 0.08532997 -0.09548916 0.008470565 -0.08198138 -0.013871256 -0.07075459 0.04460437
0.12601043 -0.075732954 0.09641918 -0.035242952 -0.1076256 0.014516594 -0.0047374303 -0.01773883
-0.06685254 0.07209085 0.004987023 -0.012637871 0.11892581 -0.070339836 0.057455983 -0.0562931
-0.08570849 -0.056745976 0.11129332 0.09919212 0.052414358 0.042997833 0.044382438 -0.028788343
0.12284016 -0.08360422 0.07114324 -0.0400183 0.04303202 0.06360625 0.04976692 -0.10014414
0.06418245 -0.022759443 0.09013241 -0.06404003 0.056316823 -0.12635352 0.11493043 0.026545646

static_ll.2.weight f4 [64, 128]
00000000: c21f 1a3d 9a2d 4dbd 301b 813d 4d97 513d
00000010: 71be 9c3d fe7d a83c a56c 2dbd e4df 00bd
00000020: c397 8ebd ce47 023d 32ed 87bc 7de7 633b
00000030: 8a8f 81bc 0cdd 4a3c e920 bb3c 190c 863d
00000040: 9ca2 3e3d eb3a 87bd 8c61 f7bc d64f 81bd
00000050: b4b0 4dbd dcfc 973d 2b8d 663d ad19 1f3d
00000060: c12d 053b 33b4 a43d 5a63 2fbd 1169 69bc
00000070: 74c4 213c f734 ebbb b817 9f3c 537d b0bd
00000080: 6340 c93d e4a8 30bd e628 7bbc e8cf 8bbd
00000090: 44ee 8a3d 7223 2c3d 5f2b 34bc d758 d23c
000000a0: 4aa7 fbbc f08c e13c a2b1 8f3c 4544 753d
000000b0: cb60 153d cbd4 6cbd 9ddd 543d c2ab 6e3d
000000c0: aee5 3e3d 3194 35bc 49ac 9fbc 1acc 8ebd
000000d0: 1447 2fbb b875 c23d ef9c 30bd 0898 9e3d
000000e0: ee02 0d3d 05cd 94bd 2b09 72bd d368 533d
000000f0: 132f af3d 4d60 a63d 542a ab3b 6f90 fc3b
00000100: 4bf3 f43b 7970 8fbc 96ba b63d f212 47bd
00000110: 490f c1bc d7d0 683d 0a90 ebbb 1115 91bd
00000120: 2a7b 103d 3525 233c 7916 3a3c 8902 e8bc
00000130: 558f 8bbd 5df3 aabc b7b0 2e3d 8f5f 8dbc
00000140: cb83 173d 94d9 9a3d 4c09 453d 55d6 0f3a
00000150: 5e73 a93b 19b2 4bbc dc03 86bd 52ee ca3b
00000160: aa0d ee3b 3a9f 23bd b538 78bd c231 85bd
00000170: e8db 2d3d 129b 853d 4c5b 09bd 1a25 8cbd
00000180: e2bd 813b 0b32 003d bce3 823d 0db8 9c3d
00000190: 5323 ae3c ad8e 653d d252 2d3d abee ac3d
000001a0: fd4a 413d 4413 57bd 3749 a23d 2788 bb3c
000001b0: 8bfa df3c d1f7 a33d dc37 fbbc 6e0d 84bd
000001c0: d7a5 46bc 6b94 4e3d b7aa bdbc 950f b93d
000001d0: 68be cc3d 54a6 0abb 2a4b 7bbc c30e a9bc
000001e0: 87cc 20bd 5a43 393d a73d 913d a82d 73bd
000001f0: f7a2 073d e2f4 c33c 1d4e 993d 0983 ce3c
00000200: 3578 1a3d adac 9dbc 9f93 003d 0cac 34bc
00000210: 6fe3 2d3d be19 3fbd 2fd7 603d 93aa b33d
00000220: 4455 d03c 578f dbbb a54a 513d 4f46 e13d
00000230: 6a49 50bb 6ba7 5e3d 7a90 17bd 3fb8 a83d
00000240: 289b c6bc dbdd d4bc 3d03 033d 09e7 403d
00000250: 2ece 82bd b857 7d3d 1798 533d 3481 05bd
00000260: 64f1 743c 7729 753d 72ed ff3c 266b 9b3d
00000270: 9007 8fbd 8974 a13d 5a69 f43c daf3 623d
00000280: 12da 8fbb e11c ee3c 75b4 17bc 517d 333d
00000290: 00e2 403d 510b 753d 1ed1 73bc a042 a23d
000002a0: 875c 5e3d bbfe f0bc dfb0 9e3c 5198 8fbd
000002b0: b960 8b3d 7545 5f3d f775 943d 27f6 a53d
000002c0: 892e c7bd ff7c d13d d79e 703d 5210 ce3c
000002d0: 75ee 28bd ded4 9b3d 809d b53c 7af8 a3bd
000002e0: 78e2 ce3c c70b b6bd cf6c aebd b408 cf3b
000002f0: 07e8 d13d 1509 f8bc 21eb 203d fbbc 913c
00000300: 0a22 de3c a859 53bc 43c8 ab3d 4dab ad3c
00000310: 4bf7 a3bd 3efe 5abd 61da 8c3d 83dd bcbd
00000320: aac7 823c 38d8 02bb f426 2e3d 6f7d c0bb
00000330: ea73 413b 9900 be3a 3dc6 d3bc 4450 cc3d
00000340: 3c93 20bd 2ee7 7a3d d9ca 8fbd a058 12bb
00000350: 4f0f 73bd 3435 3b3d 3b13 b53d 3389 50bd
00000360: 3e12 023d 0cd7 cd3d 1253 32bd 0e46 8bbd
00000370: 29e8 833d bf92 813d a4a2 b83b 1ff3 a53d
00000380: 0fc6 b33d d885 943d ae91 bc3d 65a4 84bc
00000390: 16d7 d33c d3f3 0dbd 333b 993b 4118 ce3c
000003a0: 5103 35bd 7968 343d 68ac c63c dab8 483d
000003b0: 5b22 c1bc a9a6 2ebd 0c15 f13a b436 4abc
000003c0: 0fd5 32bd a749 a5bd 56ee 2e3c 1995 dc3c
000003d0: ca1a 92bd 4286 623d 8d43 a53d 636d dfbc
000003e0: 1461 8ebd 7736 85bc 3ed5 6dbd 228d 73bb
000003f0: 6a81 94bc 470f 0c39 7e6c 04bb 4811 81bd
0.037627943 -0.050092317 0.06304014 0.051169682 0.07653511 0.02056789 -0.04233994 -0.03146352
-0.0696254 0.03180676 -0.016592596 0.003477543 -0.015815515 0.012381803 0.022842841 0.06545276
0.046541795 -0.066030346 -0.030197881 -0.063140556 -0.050217345 0.07421276 0.056286972 0.038842846
0.002032146 0.08042183 -0.04281936 -0.014246241 0.009873498 -0.0071779448 0.01942049 -0.08617654
0.09826734 -0.043129817 -0.015329575 -0.06826764 0.06783727 0.04202599 -0.010996669 0.025677128
-0.030719418 0.027533025 0.017540757 0.05987956 0.036469262 -0.057820123 0.05196916 0.05826927
0.04660576 -0.011082695 -0.019491332 -0.06972523 -0.0026745247 0.09495109 -0.043118414 0.077438414
0.034426622 -0.07265667 -0.059090775 0.05161364 0.085539006 0.08123837 0.0052235518 0.0077076475
0.007475292 -0.017509686 0.08922307 -0.048602052 -0.023566859 0.05683979 -0.0071888017 -0.07084096
0.03527371 0.009957601 0.011357897 -0.028321521 -0.06814448 -0.020867998 0.042648997 -0.01725748
0.036990922 0.07561031 0.04810457 0.0005486955 0.0051712235 -0.0124325985 -0.06543705 0.006192961
0.0072648125 -0.039946772 -0.060600955 -0.06503631 0.042446047 0.06523718 -0.033534333 -0.06843014
0.0039594034 0.031297725 0.06391093 0.076522924 0.021257078 0.05604427 0.04231531 0.0844396
0.047190655 -0.052508608 0.07924121 0.022892071 0.027341148 0.080062516 -0.030666284 -0.06447874
-0.0121245 0.05043451 -0.023152692 0.09036175 0.099972546 -0.0021156268 -0.015337745 -0.020636922
-0.039257552 0.045230247 0.070918374 -0.059369713 0.0331144 0.02392048 0.07485602 0.025208967
0.037712295 -0.019247377 0.031390782 -0.011027347 0.042453226 -0.04665541 0.054892715 0.08772769
0.025431283 -0.006700437 0.051096577 0.109997384 -0.003178204 0.05435888 -0.037003018 0.08238267
-0.024243906 -0.025984695 0.03198551 0.047095332 -0.06386982 0.061851233 0.051658716 -0.03259392
0.01495013 0.059853997 0.031241152 0.07588796 -0.06983864 0.078835554 0.029835392 0.055408336
-0.0043900097 0.029066505 -0.009259333 0.043820683 0.04709053 0.059825245 -0.0148814 0.07922864
0.05428746 -0.02941834 0.019371448 -0.07011474 0.06805558 0.0545096 0.072490625 0.081035905
-0.09725673 0.10228919 0.05874523 0.025154267 -0.041243035 0.076089606 0.022169828 -0.080063775
0.025254473 -0.08888965 -0.08516847 0.006318176 0.10249334 -0.030277768 0.039286736 0.017790308
0.02711584 -0.012899794 0.08387806 0.021199847 -0.08006152 -0.05346512 0.0687759 -0.092219375
0.015964348 -0.0019965302 0.042517617 -0.005874328 0.0029518553 0.0014496028 -0.025851363 0.09976247
-0.039202914 0.061255626 -0.07021112 -0.0022330657 -0.05934077 0.045705035 0.088415585 -0.050912093
0.03175568 0.100507826 -0.043536253 -0.06800471 0.064407654 0.06326818 0.0056346226 0.08103012
0.08778011 0.07252091 0.09207474 -0.01619167 0.025859397 -0.034656357 0.0046762465 0.02515805
-0.044192616 0.044044945 0.024252132 0.049004413 -0.023575952 -0.04263941 0.0018393113 -0.012342144
-0.04366022 -0.08070689 0.010676941 0.026926564 -0.07134016 0.05530382 0.08069525 -0.02727384
-0.0695211 -0.016261322 -0.05806469 -0.003716298 -0.018128116 0.00013357132 -0.0020206268 -0.06302124

static_ll.2.bias f4 [64]
00000000: edba 583d 17ab 243d 6116 6cbc c8af 6cbd
00000010: 5956 f8bc ff00 143d 77d7 f93c cbfc 1abc
00000020: 8570 203d 607c 98bd 2ae7 963d d5be ebbc
00000030: ad21 a0bc 2497 443c 26bb a23d 69fb c63d
00000040: 2d3e a0bd 2284 943c eba5 b53d d4f2 89bd
00000050: 3f86 18bd b320 b5bc 3fca 6b3d d25e 943d
00000060: 6d53 12bd c309 9e3d 2a71 0d3d 408a fcbc
00000070: 1205 6f3c afc3 323c bc8a 773d 485f 783c
00000080: bba2 3dbd 582e 93bd 320c b53d e42c 293b
00000090: 04e4 193d f19d 4dbd a086 9fbc 4518 353c
000000a0: acc1 0a3d 9262 783d bc94 a4bc 5d15 c83c
000000b0: e90a 7abc 0cda 8c3d 21b0 d6bc 5772 253c
000000c0: 37be 343d 31b4 e23b ff66 4c3c d50e 8b3c
000000d0: 74b2 45bd b50b 8b3d a59b 9b3d e6df 513d
000000e0: 1060 f4bc 6ca7 a63d 9a24 2cbd 56c0 bf3d
000000f0: 89a4 933d bfcb 813c 4811 47bd 8510 c93d
0.05291264 0.040202226 -0.014409632 -0.057784826 -0.030314611 0.036133762 0.03049825 -0.009459685
0.039169807 -0.07445598 0.0736831 -0.02877752 -0.019547308 0.011998925 0.07945852 0.097159214
-0.07824359 0.018129412 0.08869537 -0.06735769 -0.037237402 -0.022110319 0.057565924 0.07244648
-0.035724092 0.07716706 0.03453175 -0.030827641 0.014588611 0.010910912 0.06043504 0.015159436
-0.04629777 -0.07186574 0.08840217 0.002581411 0.03757097 -0.050199453 -0.019473374 0.01105315
0.033876106 0.06064088 -0.020090453 0.02442425 -0.01526139 0.06877527 -0.026207032 0.0100980615
0.044126716 0.006918453 0.012475728 0.016974846 -0.04826589 0.06789342 0.07598046 0.051238917
-0.029830962 0.08137402 -0.042027093 0.09362857 0.07209117 0.015844224 -0.048600465 0.09817604

glu_encoder.rnn.weight_ih_l0 f4 [48, 2]
00000000: 3abd 3a3e a816 2bbe 2c72 cf3d ac73 4ebd
00000010: 41a7 4c3e 59ea 393e 4a71 aebd 5a1d 37be
00000020: d49a 1fbe 2765 403e 2a32 8e3e 76c9 093e
00000030: 6922 69be aad8 b13d 80e0 923e 0459 96be
00000040: fd9c b8bd 2253 72be af91 7a3e 6ef9 27be
00000050: 496f 163e 10f9 a9bc f1ba 0e3e fc0a 723e
00000060: c6e1 5c3e e636 a5bd 4d0e c93d 3d67 ec3c
00000070: 71d4 b63c 6a4d 1bbd fcd5 34be 60d7 72bd
00000080: 7252 5d3e 09d8 b5bd 5a41 463d f7d1 7f3e
00000090: 5575 63be dd85 54be 05cb 28bc 7bcc 703e
000000a0: 9fe6 fdbd f4d0 623e 5523 86bd 8562 a5bd
000000b0: 1b0a e2bd 26ab 0a3e 4c5d 5b3e 031a 493e
000000c0: faaf 7d3d e857 2dbd 4293 96be 11cd 5f3e
000000d0: 0b49 93be 3c03 f7bc 41f8 693d 4b00 35bd
000000e0: da62 4e3e 5681 40bd 61ef 623d e1fe 4dbc
000000f0: e87d 573e db71 d8bc 2ee8 27be 7572 0cbd
00000100: 68bd 013e 350d d0bd 4d69 24be ccd7 533e
00000110: 5d33 0e3e 6754 7b3c 2ad7 823e b75b aebd
00000120: 923d eabd b78f 39be 5999 6e3e f570 6abe
00000130: 2bc7 503e 01b3 39bd 9472 c43d 58de 26bd
00000140: 4792 1e3e cbba 0dbe 3da1 7c3e aed6 383e
00000150: 07ee 143e be4d 4f3e 351b 30bd 3248 6fbd
00000160: 6821 e9bd 9fa2 e6bd 8674 77be 566f 6a3e
00000170: 2154 673e d9a6 56bd fd6f 273d 892d 3e3e
0.18236247 -0.16707861 0.101291984 -0.050403282 0.19985677 0.18155803 -0.08517702 -0.1788229
-0.15586406 0.18788587 0.27772647 0.13455757 -0.22767033 0.086839035 0.28686905 -0.2936479
-0.09014318 -0.23664525 0.24469636 -0.16403744 0.1469089 -0.020748645 0.139385 0.23637003
0.215705 -0.08067112 0.09817181 0.028857822 0.022318097 -0.037915625 -0.17659754 -0.05928743
0.21613482 -0.08879096 0.048402168 0.24982439 -0.22212727 -0.2075419 -0.01030231 0.23515503
-0.12397503 0.22150022 -0.06549708 -0.08075432 -0.11037084 0.1354185 0.21422309 0.19638829
0.061935402 -0.042320162 -0.29409224 0.2185557 -0.28766665 -0.03015291 0.05712152 -0.044189733
0.20154896 -0.046998344 0.05540407 -0.012572975 0.21044123 -0.026421478 -0.16397163 -0.034288842
0.12669909 -0.10158769 -0.16055794 0.20687789 0.13886781 0.015339947 0.25554782 -0.08513587
-0.11437525 -0.18121229 0.23300685 -0.22894652 0.20388477 -0.045336727 0.095921665 -0.040739387
0.15485488 -0.13840787 0.24670883 0.18050644 0.14543925 0.202445 -0.042994697 -0.05841846
-0.11383325 -0.11261486 -0.24165544 0.22894034 0.22590686 -0.052405212 0.040878285 0.18572058

glu_encoder.rnn.weight_hh_l0 f4 [48, 16]
00000000: 0f7f 3bbe 92bb 6fbe 8746 b5bd 5430 0d3e
00000010: 9b58 cb3d 7034 90bd 27d7 83be a0b9 423e
00000020: 6d3f 763d 3bb5 4e3e 3662 39be dd95 29be
00000030: 1d3d 10bd 0ff3 05be 8422 ff3d a64d 8dbd
00000040: 9744 cd3d 0bd4 9dbd 2fdb 023e c321 86be
00000050: 98ed f8bd 8dda 483e 8d93 b1bb 9a46 2c3d
00000060: 37df 7fbe 4b56 5b3e 3e33 adbd 2955 e93d
00000070: 281a 073e 28ce e6bd 66b2 63be 607a 913d
00000080: e8fb 343e b0dc 21be e13a f7bd 8be3 58be
00000090: 93ee c23c 1928 5b3d b48a 2ebe f3cd 383e
000000a0: 8171 113e c566 a4bd 0010 8bbd 16ea 193e
000000b0: 5944 ecbd 0f98 1b3e 6950 3abe 5773 3a3e
000000c0: 73fc 163e 3f86 3bbe bf29 083e c0ef 5f3e
000000d0: 4090 533c 9c02 1e3e 27fc 3f3e a05f f33d
000000e0: 96ce 44be d709 9fbd ee73 1bbe 9ac6 0ebe
000000f0: ccc5 0f3e 8fb8 173d 5adc 133c 6be0 febc
00000100: 4035 b4bd a3e0 733c 27cb 123d 9841 41bd
00000110: 5af3 2f3d 8e4f a9bd 48ec 913e 5c4d f03d
00000120: 6de1 073c 3f22 063e 6375 373d c8e7 8bbe
00000130: 486c 90be d4cb e03d efb9 d43c d97c 21be
00000140: 61a0 cb3d c5ec 323e 7279 8d3c b6d9 743d
00000150: 50d3 03bc 7cea 49bc 4b27 e0bc dc98 593e
00000160: 4753 903d 75d6 7e3e de28 1dbe 03a8 adbd
00000170: 1340 48be 51eb 84be 93a1 21bd 3ecb e9bc
00000180: f9a9 d0bd fb27 3c3e 9c18 f23d b62d 4c3e
00000190: 209b a93d f234 463e 32ca c4bd 7bc6 553b
000001a0: 6bd9 3c3e aa5a 79bc bde6 5dbe f6fd 543e
000001b0: f263 463e 03eb 15be 19f5 843d 5e88 4ebe
000001c0: 6a01 9c3d 2618 23be bd58 e2bc d4e4 a03d
000001d0: 721f 60be bcad 1b3e 9ca5 aebd b085 98bd
000001e0: d015 28be 2117 183e 2adc 833d 4f97 5abe
000001f0: 1a11 86be 861d 83be e63d 533e a334 70bd
00000200: 18de cf3c aafa 753e 2f2b 653e 534f 3cbe
00000210: f3de 2bbe b959 f63d 6579 5abd bd89 68be
00000220: 3c61 ecbc 32db bf3d 3046 b8bd 7bdc 4d3e
00000230: 9b54 65be b5f5 c3bd 38ca 673e 881b bdbd
00000240: 6333 8b3e 9e17 a6bd 4fe9 2a3e 0e0b 44be
00000250: 6381 43be 2c71 3dbe 1813 633d 3e45 773d
00000260: b8a6 14be 71b2 09be 642d 2abb 7403 9abd
00000270: 1259 933b 2c0a 193d 48d8 883d 8fab da3d
00000280: 4e6c 7e3e 9244 e0bd 8372 61be 2cad a63d
00000290: d6dd 403e c7a6 0a3e 480e a83d 2ed5 373e
000002a0: a576 363d 3386 20bd 3418 a8bd 9fc4 0f3e
000002b0: 9257 81bd bfe5 133c 08f3 223e 8ad5 193c
000002c0: 9c18 08be f5bd d83d fad0 493d 5ae5 193e
000002d0: b38e 883d 659e a8bc 0a1e 13bd 28b1 d5bd
000002e0: 17bd 85bd d88f 0cbe b635 9dbd 5a6c 123d
000002f0: 8355 6d3e 2caa 2ebe 79d5 31bd 95ee 6c3e
00000300: 64b5 263e 7e9b f13d 6b99 21be 9987 323e
00000310: 68b6 81be e034 9abd 93ee eb3d 553e f43d
00000320: 8faf 463e de20 ddbd f1f9 37be 6efb f0bd
00000330: 39b2 643d 6ba8 66bd 6470 b83c c71d 4b3d
00000340: 3e66 bb3d 4439 013e ed05 c63d 0e6e 423e
00000350: de67 eebd 21dc 08be 5487 7cbd 436a 433d
00000360: ced7 333e 6aa6 663d d2fa dc3d d1a4 e7bd
00000370: 89a2 ad3b aa6f 3d3d af91 f9bd 8705 23be
00000380: e184 8c3e c4b1 253e 35d6 42be 7376 17bd
00000390: e72b c13a 5b5e 353e 251c d2bd 47a5 b9bd
000003a0: 1577 f3bd b05d 253e 3503 08be 1578 af3c
000003b0: 2892 253e 5050 60bb 7f68 913e 0252 0bbe
000003c0: 3baa 2e3d 9128 12bc 26f7 fa3d 8028 503e
000003d0: c5f3 4f3e 5f92 52be 92d1 3e3d f690 663e
000003e0: 10ee e43d 004e 18be e2dc 95bd 22f2 23be
000003f0: 95c5 debd 921f 16be a1e8 003d a0b9 e93d
-0.18310188 -0.23411396 -0.08851343 0.13787967 0.099290095 -0.07041252 -0.25750086 0.19016123
0.06011908 0.20186321 -0.18103871 -0.16561075 -0.035214532 -0.13081001 0.12457755 -0.06899576
0.10022848 -0.077064596 0.12778924 -0.26197633 -0.121546924 0.1961462 -0.0054192008 0.04205952
-0.24987493 0.21419637 -0.08457039 0.11393196 0.13193572 -0.1126979 -0.22236022 0.07103419
0.1767422 -0.15806842 -0.12071777 -0.21180551 0.023795402 0.053505037 -0.17045099 0.18047313
0.14203455 -0.08027414 -0.06790161 0.15030703 -0.11536474 0.15194725 -0.18194737 0.18208061
0.14744739 -0.1831293 0.13297175 0.21868801 0.01291281 0.15430683 0.18748532 0.118834734
-0.19219431 -0.07765549 -0.15180942 -0.13942948 0.14040297 0.037041243 0.009024704 -0.03111287
-0.08799219 0.014885101 0.035838272 -0.047181696 0.042956688 -0.08267127 0.2850058 0.11733505
0.008293492 0.13099001 0.044789683 -0.27325273 -0.28207612 0.10976377 0.025967566 -0.15770282
0.09942699 0.17473133 0.017269824 0.059777938 -0.008045986 -0.012323972 -0.027362486 0.21249717
0.07047134 0.24886496 -0.15347621 -0.08479311 -0.19555692 -0.25960782 -0.03946073 -0.028539296
-0.1018867 0.18374626 0.118211 0.19939312 0.08281541 0.19356135 -0.09608878 0.0032619524
0.18442313 -0.01521937 -0.21670051 0.20800003 0.19374064 -0.14640431 0.06492061 -0.20169207
0.07617457 -0.1592718 -0.027630204 0.078561455 -0.21886995 0.15202993 -0.08527681 -0.07447374
-0.16414571 0.14852573 0.06438477 -0.21346782 -0.26184922 -0.25608462 0.20629081 -0.05864395
0.025374457 0.24021402 0.22379754 -0.18389635 -0.16784267 0.12028832 -0.053338427 -0.22708793
-0.028854959 0.0936798 -0.08997762 0.20103638 -0.22395556 -0.09568349 0.22635734 -0.09233767
0.27187642 -0.08109973 0.16690563 -0.19144842 -0.19092326 -0.18500203 0.05543813 0.06036877
-0.14516723 -0.13446976 -0.0025966996 -0.0752019 0.004496702 0.037363216 0.066818774 0.106772535
0.24846002 -0.10950579 -0.22016339 0.08138499 0.18834624 0.13540183 0.08205849 0.17952415
0.044546742 -0.039190482 -0.082077414 0.14039849 -0.06315531 0.009026944 0.15913022 0.009389291
-0.13290638 0.105831064 0.04927156 0.15028897 0.06667843 -0.02058334 -0.03591732 -0.104341805
-0.06530207 -0.13726747 -0.0767626 0.035747863 0.23177151 -0.17057103 -0.043416474 0.23137887
0.16280133 0.11797236 -0.1578118 0.17434539 -0.25334477 -0.07529616 0.11520114 0.119259514
0.19402908 -0.107972845 -0.17966439 -0.117667064 0.05583403 -0.05631296 0.02251453 0.049588945
0.091503605 0.12619501 0.09669099 0.18987295 -0.11640905 -0.13365223 -0.061652496 0.04770876
0.17562792 0.05631105 0.10790028 -0.11310733 0.0052989167 0.04624907 -0.1218599 -0.15920077
0.2744513 0.16181093 -0.19027026 -0.036978196 0.0014737815 0.17711775 -0.102592744 -0.09064727
-0.118879475 0.1614902 -0.13282473 0.021419564 0.16169035 -0.0034227557 0.28400037 -0.13605502
0.042642813 -0.008920805 0.12254171 0.2032795 0.20307834 -0.20563649 0.04658658 0.22516236
0.11178219 -0.14873505 -0.07317521 -0.16010335 -0.108775295 -0.1466048 0.031471852 0.11412358

glu_encoder.rnn.bias_ih_l0 f4 [48]
00000000: 89bc 423e 8c75 60be 500d dfbc dce1 bb3c
00000010: 8763 3cbe 3eb0 7fbd c925 10bb e3a4 d9bd
00000020: 20c0 ca3d 6ae3 cb3d 3a78 983c e070 a5bd
00000030: b1de b6bd 46b4 dd3d 3551 9abd 8a5b cabd
00000040: e1a4 6c3e e686 64be 6c94 1f3e c3a5 72be
00000050: ca19 363e afa9 24be 7b9f 3c3e ca73 afbd
00000060: e548 703c 3dde 483e 35d8 943d 2603 4c3e
00000070: 727f 943c 7f0b 7cbc ed98 ea3d 1636 bdbd
00000080: f19c 603e f7bd 2e3e 324e 01be 220c 3dbe
00000090: d365 27be 5859 25be b536 23be 874a 2ebe
000000a0: ab55 49bd 187a 783e a3f5 fa3c 5257 0abe
000000b0: d985 943d 54d1 6ebe ed5e a8bd d192 cdbd
0.19017233 -0.2191984 -0.027228028 0.022934847 -0.18397342 -0.062423937 -0.0021995178 -0.10627153
0.09899926 0.09955485 0.018612016 -0.0807817 -0.08929194 0.108254 -0.0753502 -0.09880741
0.23109771 -0.22317085 0.15583962 -0.23696046 0.17783275 -0.16080354 0.18420212 -0.08567007
0.014665817 0.19616027 0.07267801 0.19923076 0.018127177 -0.0153836 0.114549495 -0.09238832
0.21934868 0.17064653 -0.12627485 -0.1846166 -0.16347437 -0.16147363 -0.15938838 -0.17020617
-0.049153965 0.24265325 0.030634707 -0.13509873 0.07252092 -0.2332204 -0.08221231 -0.10037769

glu_encoder.rnn.bias_hh_l0 f4 [48]
00000000: eb93 0cbd c67a 663e d88b 603e 50c0 8fbd
00000010: 67d1 12be 4fe5 5dbb 64ac 71be e8c0 2abe
00000020: e87a 1dbd 40d3 d0bd a633 443d 79ff 1fbc
00000030: bcbf 673e 92c1 26be af0b 903d 819f 043e
00000040: 8fe8 73bd 3273 2c3e 45e4 663e 3a5e 383e
00000050: 2628 6abe 83bf a6bd 7f19 f13d 0583 f13d
00000060: 6cec df3d e9c5 74be 1483 283e 0e29 483e
00000070: 4152 3a3e fa3a 693e 4c44 ca3d 5f01 403e
00000080: d760 aa3d 011b c2bc 1cdf 2e3e 2fa6 e23d
00000090: ca06 77be 0816 00be 68c8 35be 6e6d 073e
000000a0: 76f0 373e 731f 9dbd 633a 98bd a765 38be
000000b0: 3ffa 85be 9697 5bbe 85da 083d 54be 1fbe
-0.034320753 0.22507772 0.21928346 -0.070191026 -0.14337693 -0.0033858602 -0.23600918 -0.1667515
-0.03844729 -0.10196543 0.04790082 -0.009765499 0.22631735 -0.16284779 0.070334785 0.12951471
-0.059547957 0.16840819 0.22548015 0.18004695 -0.22866878 -0.08141997 0.11772441 0.11792568
0.10933766 -0.23903622 0.16456252 0.19546911 0.1819544 0.22776404 0.09876308 0.18750523
0.08319252 -0.023694517 0.17077297 0.11066853 -0.24123684 -0.12508404 -0.1775223 0.13225338
0.17962822 -0.07672014 -0.074330114 -0.18007527 -0.26167485 -0.21444544 0.03341152 -0.15599948

glu_encoder.hid2lat.weight f4 [64, 16]
00000000: ff66 86be 4aeb 1dbe 7d63 bebd d32e 133e
00000010: 48bf 3e3d bc5e 163e 3799 19be 13c0 043d
00000020: dacb 8cbd 1e7a 75be 2844 11be abee 03bd
00000030: 639c 613e 34a9 1abe 2d17 44be 2d28 30be
00000040: 84f7 0d3e a7ff 123e 0475 62be 4f36 cc3d
00000050: 660e 6f3e 739f 9ebb cc95 5b3d 6973 a9bd
00000060: bd60 2a3e a97d 1fbd 57a6 2ebe f59c bdbd
00000070: 69a9 0b3e 6552 c73d 562f 48be 47cc 6bbd
00000080: 35d8 e9bd d58a 6cbc 9a42 d9bc 05af 823e
00000090: c6f8 92bc 9e17 b63d 8fb3 773e 3403 5a3e
000000a0: 20ae 19bd c513 803e 36d6 45be 6b67 e23c
000000b0: 361d b73d 8f9c d8bd 1b62 ee3d 432c 53be
000000c0: 27e2 1f3e 76ea e6bd af31 723e 21d3 983d
000000d0: 858f e6bd 5436 393e c191 7eba 58bf 7c3e
000000e0: 9023 35be 6d7d b1bd c048 76be 3798 0b3d
000000f0: 9a2a d13c ea05 babd 1de9 9f3c b889 c9bd
00000100: a00d 5d3e 19d0 073e 2366 5fbe 65cf 763c
00000110: 070a 4c3e 4414 503e 8420 463e 08bc 30bd
00000120: 6736 d83d f8aa c5bd cef4 3f3e d6ed 89be
00000130: d9b3 5abe a716 e7bd 7dd2 d4bd a153 483e
00000140: 4a39 f1bd 36c1 30be a92a 873e 33d3 7c3e
00000150: c800 343d 9ac7 573e 5e6c 363e fdae 5fbe
00000160: b873 87bd 4e96 083e 56db fbbd f21d 193e
00000170: f456 c7bc 759b c8bd 45ac 02be 44a9 c43d
00000180: ed9c 203d 9b5d 09be 66aa 7c3d e63c 423e
00000190: 4e81 923d 2aa9 3abe adfc 063e 9f43 4f3e
000001a0: 2349 ebbd 2381 0b3e b711 5d3d 9c62 f43d
000001b0: 7016 c5bd 7ffe a5bc fd5b 15be 8a8a 97bd
000001c0: 56f6 eebd 7197 e03d 970b 3c3e cca3 bbbd
000001d0: 024f 06bd 8df3 1fbe c90b d2bd 7a36 2b3d
000001e0: 0882 e5bd df2b eabd 9874 87be ec36 133e
000001f0: 8986 473e b3e9 193e 97ad 023e 90fb 583e
00000200: 26cc 3e3d 32b2 a1bd 1978 23be 309a 603e
00000210: c740 2d3e b80d 48be 0188 41be e684 40be
00000220: 79a1 65bd af16 183e 82d7 333e 36ff 4ebe
00000230: 49e3 b03c e632 613e 4bde 1bbe f88e 303d
00000240: 099e da3c 32c4 5cbe 6c2a bc3d 08a9 0c3d
00000250: 4fbe 5e3d e835 333e fb73 fcbd d08e a23d
00000260: 061a 2fbe e09b f2bd dbf7 3fbd bdea ee3d
00000270: c160 a5bd 2626 c13d c3cb a23d 6bfa 103e
00000280: 058c 003e e1f9 44be d0bd a93d 375f 883e
00000290: daa3 293e 7730 1a3e c21c 973d be9f e5bc
000002a0: 9353 0e3e 6c25 debc 503c 14be 3317 f7bd
000002b0: 3172 20be 7547 08bc a813 653e 4809 aebd
000002c0: a568 09be 6ea2 2dbe 4848 2bbe 2e04 213c
000002d0: 7f0d d23d c0bb 3cbd 9d65 4b3d 04cb 06be
000002e0: e5ae 5ebe 2f6a 5b3e 281a 103e 8bd2 833c
000002f0: da9d 74be 5f62 073d 7ac3 81be 3c77 08be
00000300: 9287 533d 44ff a0bd ea7b 0e3e 3b5c 363e
00000310: f064 0abe 598d 5ebd 33d7 8fbd ed9f 233e
00000320: a872 7b3e ea0d 563e 899e 473d 01a0 523e
00000330: 283e 143e b9ec 5bbe 8c90 083e 8c21 28be
00000340: 5b9b cebd f705 833d d4f2 9fbd 0124 59be
00000350: 682e 5abe 2ea5 31be 1946 82be 30a3 0b3e
00000360: 6dc9 5a3e 1ff9 28be b1d4 1e3e 78ad 2b3e
00000370: adec 7dbd f396 8f3c 9fa7 6dbe 7459 5b3e
00000380: 4cd1 363e 28a6 94bd a0ab db3d aba9 443b
00000390: 1722 353c a696 093e c44a 553d 6cc0 89be
000003a0: 6cd4 89be e0bd efbc b349 89be 9101 4f3d
000003b0: b853 393c 7a87 043d cdf3 7fbe 0a22 1f3e
000003c0: 831a 48be 6976 b23d 53a4 cdbb 6a3b 39be
000003d0: c129 363d 8caa 5a3e 6bb4 b5bc d3b5 d83d
000003e0: be0e efbd bc87 38bc eb0b f73d bce2 38be
000003f0: 19c2 fdbc 4892 ef3b 56a0 3dbb 1902 2dbd
-0.26250455 -0.15421787 -0.0929632 0.14373331 0.04656914 0.14684576 -0.14999853 0.03240974
-0.06874819 -0.23972365 -0.14186156 -0.032210033 0.22032313 -0.15103608 -0.19149466 -0.17202826
0.13863951 0.14355336 -0.2211495 0.09971296 0.23345336 -0.004840785 0.053609654 -0.08273966
0.16638465 -0.0389382 -0.17055641 -0.09258453 0.13638844 0.097325124 -0.19549307 -0.05756786
-0.11418191 -0.014437397 -0.026521016 0.25524154 -0.01794089 0.08891223 0.2418959 0.21290284
-0.037519574 0.25015083 -0.19319996 0.027637204 0.089411184 -0.10576736 0.11639806 -0.20622353
0.15613614 -0.112751886 0.23651765 0.07462145 -0.11257843 0.18087131 -0.000971105 0.24682367
-0.17689347 -0.08666501 -0.2405119 0.03408071 0.02553301 -0.09083159 0.019520337 -0.09840721
0.21587229 0.13262977 -0.21816306 0.015064095 0.199257 0.2032023 0.19348341 -0.04314807
0.105572514 -0.0965175 0.1874573 -0.26939267 -0.21357669 -0.112836175 -0.1039171 0.19563152
-0.11778505 -0.17261204 0.26399735 0.24689941 0.043946058 0.21072236 0.17814776 -0.21844096
-0.066138685 0.13338587 -0.122976944 0.1495283 -0.024333455 -0.09795276 -0.12761028 0.09602597
0.039212156 -0.13414614 0.061685942 0.18968543 0.07153569 -0.18228593 0.13182326 0.20240639
-0.11488559 0.1362348 0.053971972 0.11932871 -0.0962342 -0.020262955 -0.14585872 -0.07399471
-0.116680786 0.10966385 0.18363796 -0.09162101 -0.03279019 -0.15620251 -0.10256154 0.0418
-0.11206442 -0.11434149 -0.2645614 0.1437642 0.19484915 0.15030555 0.12761532 0.21189713
0.04658141 -0.07895316 -0.15963782 0.21933818 0.16919242 -0.19536483 -0.18899538 -0.18800697
-0.056062195 0.14852403 0.17562678 -0.20214543 0.021592753 0.21992072 -0.15221517 0.043105096
0.026686685 -0.21559218 0.09187779 0.03434089 0.05438071 0.17501032 -0.12326809 0.079373956
-0.17099771 -0.11846137 -0.046867233 0.116658665 -0.08075095 0.09431104 0.07949021 0.14158027
0.12553413 -0.19235946 0.08288157 0.26635143 0.1656641 0.1505755 0.07378532 -0.028030273
0.13899069 -0.027117454 -0.14476132 -0.12064972 -0.1566856 -0.008317818 0.2237078 -0.08497864
-0.13418825 -0.16956493 -0.16726792 0.009827657 0.102564804 -0.04607749 0.049657453 -0.13163382
-0.21746404 0.21427225 0.14072478 0.016091606 -0.2388834 0.0330528 -0.2534445 -0.13326734
0.05164296 -0.07861188 0.13914457 0.1780862 -0.13515067 -0.05433402 -0.07023468 0.15978976
0.24555457 0.20903745 0.048735175 0.20568849 0.14476836 -0.21477021 0.1333639 -0.16419047
-0.100882255 0.06397622 -0.07809988 -0.2120514 -0.21306765 -0.17348167 -0.25444105 0.1363647
0.213659 -0.16501282 0.15510823 0.16765392 -0.06199329 0.017528033 -0.23208474 0.21420842
0.17853278 -0.07258254 0.10726094 0.0030008357 0.011055491 0.13436374 0.052073255 -0.2690462
-0.26919878 -0.029265344 -0.2681404 0.050538603 0.011311464 0.032355763 -0.24995346 0.15540329
-0.19541363 0.08713991 -0.0062756925 -0.18089071 0.044473413 0.21354121 -0.022180757 0.10581555
-0.11672734 -0.01126283 0.1206282 -0.18055242 -0.030976342 0.0073111393 -0.002893468 -0.04223833

glu_encoder.hid2lat.bias f4 [64]
00000000: c5ec 973c 72af 8ebd ea2c 41be 9c06 043d
00000010: 1224 453d e06c 073d 0882 413e c96a afbd
00000020: 30e6 963c 2afd 043e e2bf 703e 44d6 e23d
00000030: 6f3e 273c 1f1c 27bc 46d1 2abc f073 46be
00000040: ee14 46bd d9ae 7d3d ff04 eb3b 213a 643e
00000050: 54fc a6bd ed89 443e 6bd4 ee3d b37e 9b3d
00000060: ddb2 253e b8f7 ba3d 5c1a 9c3d 1d00 cf3c
00000070: 0f96 1bbe 78b3 5c3e d506 22be 904e 30bd
00000080: 839c 72be f334 82be 6e5e 423e 0601 fbbd
00000090: 28c9 603e 513f 50bd 87ec 57be 4ade dcbd
000000a0: 2b28 1bbd 2f86 0c3c bb2b 123e 997d 5c3c
000000b0: e15f 863e 0028 043e 1320 ed3d 485c 503e
000000c0: c601 27be e3f9 8b3c 7a5e 4d3e 3dda 5f3e
000000d0: cd24 8f3c 14e1 cabd b4a3 3c3d ca8d 76bd
000000e0: daf5 84be aeba 48be 59bb 7ebe 3bf7 60bd
000000f0: 14d4 54be 65fe 05bd fcd8 323d 264a 383e
0.018545518 -0.06967057 -0.1886479 0.032232866 0.048130102 0.033062816 0.18897259 -0.085652895
0.018420309 0.129872 0.23510697 0.11076024 0.010207756 -0.010199576 -0.010425871 -0.19380164
-0.048359804 0.061934326 0.0071722264 0.222878 -0.081535965 0.1919324 0.11661609 0.07592525
0.16181512 0.0912928 0.07622215 0.025268609 -0.15193962 0.21552837 -0.15822919 -0.043043673
-0.23692517 -0.25431022 0.18981335 -0.122560546 0.21951735 -0.050841633 -0.21086322 -0.10784586
-0.037880104 0.008576914 0.14274494 0.013457679 0.26245025 0.12905884 0.11578383 0.20347703
-0.1630927 0.017086929 0.20055571 0.21860595 0.017473603 -0.099062115 0.046054557 -0.060193814
-0.2596882 -0.19602463 -0.24876155 -0.054923277 -0.20784026 -0.032713313 0.043663964 0.17997035

encoders.weight_ih_l0 f4 [192, 64]
00000000: 1344 7bbd 5c1e efbd 39fe 9ebd d69a 213e
00000010: a0b1 c93c 3716 683d d26e aa3d fec4 043d
00000020: 00d4 923d fc87 79bd 1253 093e 92c4 c8bd
00000030: 830e a3bd 18f9 00bd c820 aabd 3f7a 813d
00000040: 9df7 163d c5ca 133d bc44 aebd ba9d d43d
00000050: ffb7 053e 1d4c 77bd 8a9a 343d d2df 9a3c
00000060: 749b 213d 8e63 1e3e 1a25 e9bd d81c bbbd
00000070: 9d5b 11be ced7 3dbd 9ac3 c43d 52cb 64bd
00000080: 3da3 3abd be01 423d 025e febb 7b41 92bd
00000090: c9fc 1cbe 93e5 87bd f587 dcbd 0115 df3d
000000a0: 2396 f13a 81fe adbb ba4b 753d b3cf 203e
000000b0: 6ff5 60bd a1f6 b63d 44fd 60bd 0e3f 7cbd
000000c0: cc7b 15be a8e0 c2bd 22c5 b2bd d1c5 96bd
000000d0: d311 893d 757b c73d d60b 2b3d d8c1 00be
000000e0: 74f4 4ebd 8a76 f5bb 2f45 11be 1785 24be
000000f0: d2b4 88bd 0614 5f3d 95ed 6abc 9be5 fb3d
00000100: 3392 33bd 24f1 ce3c a0db a5bd 3dcb a5bd
00000110: a8ac 91bd abac c43d 43b9 a23d 003d b83c
00000120: 9515 2abc fae4 bcbd 9135 df3c 3936 a0bd
00000130: ba60 0e3d 5bda 5bbd 216d 14bd 6110 3bbd
00000140: 0d88 273d f72d dbbd be9e c7bd 06da 933d
00000150: 7e7d cb3d 39f8 e53d a6c1 d63d 60cf b7bd
00000160: a1f0 c83d 164a ac3d 7d2c 883d f124 85bd
00000170: 1400 e43d dc66 5d3c 7c97 103c f632 a3bd
00000180: 85fb d3bd 6440 babd 5185 c63c ef07 a43d
00000190: 7321 9f3d b88e d73d f2b2 dcbc c44f 90bd
000001a0: 2f23 253d 32dc 54bd c1e5 ccbc 8ecb 5f3c
000001b0: c0d6 f03d 7500 28bd 5048 893d 3352 30bd
000001c0: 241d f9bd c752 5f3d db06 26bd 5d24 c53d
000001d0: be8b 893d 3527 9fbd 7f23 babd cf96 f1bd
000001e0: 5f55 c93b 7453 bb3c d3cd ddbd df3a a0bc
000001f0: dc3b b03d bf02 04bd ef9f 1eba 9aa8 3fbd
00000200: 4714 56bd 37d0 49bd 6863 45bd 063c 22bd
00000210: deea 0bbd b23d 64bb 6fef 84bd d4d6 77bc
00000220: 2ace 0fbe 8b95 3ebd 8690 65bd 3281 7abd
00000230: bff4 013e 3002 58bc f816 8f3c 0353 65bd
00000240: 90b6 553d f024 e23d 9c0e d43d 3b84 40bd
00000250: 9059 13bc e0f2 a4bd 9396 0f3e 220e 99bd
00000260: 7bb7 3d3c 41bb cc3d aa5e 95bc 086c 8ebd
00000270: c8d1 763d 4dc4 293d e71c 613d 6302 d13c
00000280: 55d1 07be a35c c0bd 1a5c 033e d500 3b3d
00000290: 0c7c 96bd 88f8 7e3d c9af efbd 20d2 b83d
000002a0: 1d9d bdbc a339 f0bc b372 fcbc 12c2 a5bc
000002b0: d297 d93d 57f1 9b3d 66cd d03c 0b24 acbd
000002c0: 785e 8abc 4030 2cbd 4f20 17bd 7aa4 6c3c
000002d0: 3d03 7cbd 033a 96bd 2262 04bd 8a43 df3a
000002e0: f96f 403c 7b24 16bd e64c 0abe b784 08be
000002f0: b7ea 50bd 3910 9abd 1597 e7bd 9578 553d
00000300: 0c65 423c 6c69 a03d 6478 0e3e ec4d 6d3c
00000310: aede f33d ed66 cabd 4241 093e e8e0 e4bd
00000320: c985 93bd 2e5a 1fbc 3bca 9a3d 9740 d0bd
00000330: 20bc 083e 98cb 093d 9bf7 7ebd f391 6a3d
00000340: 90a5 88ba b2d1 213d 435d 91bc 7cab 97bd
00000350: 6826 f53d 9d70 283d d5e0 ccbd b0bd a0bd
00000360: 50a9 783d 83e9 3a3d 5e19 993c e8f1 10be
00000370: b7b8 b73b 3f4c 78bd ff6d 6a3d 23aa 0abe
00000380: 8d49 22bd 0007 cd3d 629b 08bd b5a5 e4bc
00000390: b9cd 24bd d3d4 dfbc c87a b43d 915f 6dbd
000003a0: db31 66bd 7f16 943d dadc 9e3d 5d4f f93c
000003b0: 2729 ed3d 9210 693d 2f08 05bc 9a13 f93c
000003c0: 91f5 b53d 81ca 6f3d 40fa abbd 5d62 6ebd
000003d0: 13e5 94bc 544d b73d 0dd7 a0bd e70d d93c
000003e0: caf8 823d b79e 3ebd 8eb7 483d ddb5 e43b
000003f0: 0805 dcbd 5924 b53d eead f3bd e5ca 103e
-0.061344218 -0.116757125 -0.07763333 0.15781721 0.024620831 0.05666181 0.083219185 0.03241443
0.07169342 -0.0609207 0.13410595 -0.09803118 -0.07961752 -0.031487554 -0.08307034 0.06322145
0.036857236 0.036082048 -0.08509204 0.103816465 0.1305847 -0.06037532 0.044092692 0.018905554
0.039454892 0.15467665 -0.1138403 -0.09136361 -0.14195104 -0.046348386 0.096076205 -0.055857964
-0.045565832 0.047364943 -0.0077626714 -0.07141396 -0.15330805 -0.06635585 -0.10768119 0.10892678
0.0018431585 -0.0053098802 0.05988667 0.15704231 -0.054921564 0.089337595 -0.054929033 -0.06158357
-0.14598006 -0.09515506 -0.08729006 -0.07361949 0.06692853 0.097403444 0.041759335 -0.12573946
-0.050526097 -0.0074909376 -0.14186548 -0.16066395 -0.06675114 0.054462455 -0.0143388705 0.12299653
-0.0438406 0.02526147 -0.08098531 -0.08095405 -0.0711301 0.09603246 0.07945492 0.022490025
-0.010381122 -0.09223361 0.027247222 -0.07822842 0.034760214 -0.053675037 -0.036236886 -0.045669917
0.040901233 -0.107021265 -0.097470745 0.07219319 0.09936045 0.11228985 0.10486154 -0.089751005
0.09811521 0.08412568 0.066491105 -0.06501187 0.111328274 0.013513293 0.008825179 -0.079687044
-0.10350708 -0.09094313 0.024233492 0.08009326 0.07770052 0.10525268 -0.026940797 -0.07046464
0.040316757 -0.051967807 -0.025011899 0.013659371 0.1175971 -0.04101606 0.06703246 -0.04304714
-0.12163761 0.054522302 -0.04053388 0.09626076 0.06716107 -0.0777115 -0.090888016 -0.117963426
0.00614421 0.022866942 -0.108302735 -0.019559322 0.08605167 -0.03222918 -0.00060510536 -0.04679165
-0.05226543 -0.049270835 -0.048190504 -0.039608024 -0.034159534 -0.0034826812 -0.06490981 -0.015126903
-0.14043489 -0.046529334 -0.05604603 -0.061158367 0.1269102 -0.013184115 0.017467007 -0.05598737
0.05217606 0.110422015 0.10354349 -0.047001105 -0.008993521 -0.08054137 0.14022283 -0.07473399
0.01157939 0.09996653 -0.018233616 -0.06954199 0.060258657 0.041446973 0.054959204 0.025513833
-0.13263448 -0.09392669 0.12828103 0.04565509 -0.07347879 0.062248737 -0.1170345 0.09024453
-0.023146207 -0.029324358 -0.030816412 -0.020234141 0.106246606 0.07614391 0.025488567 -0.08405312
-0.01689075 -0.042038202 -0.036896046 0.014443511 -0.061526526 -0.073352836 -0.03232015 0.0017033678
0.011745446 -0.036655884 -0.13505897 -0.13331877 -0.05100509 -0.075226255 -0.113081135 0.05211695
0.011864912 0.078326076 0.13913113 0.01448391 0.11907707 -0.09882913 0.134038 -0.1117571
-0.07203252 -0.00972609 0.07558104 -0.101685695 0.13353014 0.033641428 -0.062247854 0.057268094
-0.0010425318 0.03950662 -0.017744666 -0.07405755 0.11970216 0.04112302 -0.10003821 -0.0784868
0.060708344 0.04563285 0.018688854 -0.1415478 0.0056067365 -0.06061959 0.057233807 -0.13541465
-0.039620925 0.10011101 -0.03335131 -0.027911047 -0.040235255 -0.027323162 0.08812481 -0.057952467
-0.05619989 0.07230853 0.07756968 0.030433351 0.11580115 0.05690057 -0.008119627 0.030404855
0.08884729 0.058542732 -0.08397341 -0.058199275 -0.018175637 0.08950296 -0.07853518 0.026495887
0.06395109 -0.04653808 0.049003176 0.0069796876 -0.10743147 0.088448234 -0.11898409 0.14139898
