code/baseline/saved/GAMNet_learning_rate_0.0001_hidden_size_64_epoch_6000_batch_size_32/Epoch_2450_JA_0.6941_DDI_0.0810.model (torch, 455805 bytes, 29 tensors)

lab_embeddings f4 [32, 64]
00000000: 2c44 9b3e 4a69 0f3e 5ea5 3bbf 4504 d3bf
00000010: b371 2abf 9a56 bfbf f0d9 963f e406 fc3e
00000020: be44 3c3f 8998 073f 9128 debf 68c2 aebf
00000030: e1ee 023f 0aa7 e4be da1b 2a3f 17d0 f83f
00000040: b56d 2d3f cda0 3a3e 56f6 bc3e 8221 f03e
00000050: 1041 793e 0c60 47bf 365f 8cbf 81f1 74bf
00000060: 4927 25bf 7320 82bf 5e52 353f 75c4 15c0
00000070: 0a74 babe 5c97 533f bf89 b63f f261 c63e
00000080: cb2b 0cc0 c434 db3f 3416 83be 343a f3bf
00000090: 7fec debe 6b7f 1ebf c803 91bf 9bf5 69bf
000000a0: 17f3 ff3e c069 d93e 7099 7a3f fe8f e3be
000000b0: 7a0a c43e 4a4c 653f ade4 0f40 fb77 0d3f
000000c0: e38a 9ebe d425 c6be 5102 8b3e 26f3 01bf
000000d0: 4e43 48bf 4456 433e 4e3b 22bf cc5b 443f
000000e0: 18c0 8fbe f12c 52be 942a 2140 e107 11bf
000000f0: c31b 713d fb80 ac3e 061b e93f 0ab5 0e3d
00000100: c6f3 24be 5655 1fbf 4638 dcbe c59d a7bd
00000110: feb6 553e bfee 133f 8d9c ee3f 72f3 9a3e
00000120: 20e4 84bf 9db8 a4bf bf74 a6bf 5870 503d
00000130: 6a1b c0bf 6db3 8cbf aba9 5b3f 50d9 6abf
00000140: 224b 16be 7a3e 113f 72ae bc3f a5e4 983f
00000150: 7b02 c63e a694 01bf be7e 443e 484f 1340
00000160: 8fc0 ecbc b024 833f 8bab b83e 877f 753f
00000170: 55bf 373d 8e8c ed3f fc61 5b3f 5cc2 f23d
00000180: dfb8 4abf a9e1 b4bf 0413 06bf a81a 043f
00000190: 18bf a23f 8e2a 91be 889d 373e a8e6 b63e
000001a0: 51e8 dc3e 363e 98bf b9f3 3a3f 9ede 2e3f
000001b0: e407 cc3f 81e0 83be d250 f9bf 59d0 1fbf
000001c0: dbbe 2e3f 9a58 cfbf db98 453f 06ec 183f
000001d0: 570f 0b3f a8f7 f1be 46d3 9dbf ca07 41bf
000001e0: a01d fbbf b0c4 5340 2136 3d3e b8d7 cb3e
000001f0: bc8d 323f 877f 733f ef07 0cc0 5990 b13f
00000200: 2bc0 61bf 15a1 87be 9844 d03f 1486 43be
00000210: 03a4 7d3e 6886 81bf 2716 7bbf 697b 40bf
00000220: e8e2 58bf b8e1 693f 7241 bdbc 99c2 9b3f
00000230: 3800 a6be d7c5 163f ba37 efbe b332 0840
00000240: 3fc6 50bf 377b 5c3e 5637 4d3f 74e9 c0be
00000250: 0fab 4cbf aff7 0d3f d651 c43f 009f 01bb
00000260: 1964 afbf 4a10 57be cdd1 21bf 6ade 47bf
00000270: 7715 ba3e 4c69 89be 9b3d 23be d469 433f
00000280: 1377 4ebf e136 b53f a1f1 ae3e caf4 063f
00000290: d519 3e3f f122 b33e 03f8 563c 1f6a b83f
000002a0: 5217 0140 2273 63be be76 d83e 6db9 52be
000002b0: 99e9 a03f e907 96be a6fd d4be 8ad1 2cbf
000002c0: f173 c1be b7c5 9b3e a2fa 84bf fd33 b63e
000002d0: 3a90 b2bf 3194 b63e cdb4 9f3d 1b0c ddbf
000002e0: 0084 f3bc f66c 543f 4519 883e 9723 7cbd
000002f0: 3e1e c63e dbd0 aebf 9244 60bf 6b08 05bf
00000300: f598 3abd d629 24bf be74 693f 25f6 89bf
00000310: f1e6 e3bd 4e56 00c0 41d8 babf 4f63 243e
00000320: 9588 853e 86bd 983f 5f8f e4be e35e 83bf
00000330: 9b8e 5b3f 4ba7 fc3f ef61 713e 297a cdbd
00000340: 4959 843e 5fe2 183f f613 93be 5a03 483d
00000350: 7e4c 853e d21f aebf ed71 20c0 0bd3 c8be
00000360: 0797 1cbf 46b5 98bd afae 0f40 0a34 e2bf
00000370: a20f 123f 7683 413d 7c7d 96be e2ce cf3e
00000380: 2220 6c3e d899 9d3f 33df 763f 52fd a0bf
00000390: cbca 053f cc33 61bd be44 f73f 6cba 05c0
000003a0: a2a0 423f a844 9e3e d6db 39bd 7572 cdbe
000003b0: 1731 43bf d6e4 1a3f dd41 98bf d4d6 513f
000003c0: ebd3 24bf 4c41 a5bf 6ee4 043f 93c6 6a3f
000003d0: f31c ae3f 8a4e fb3e 0bc1 f0bf 29ee 393f
000003e0: 9eca 1f3f 0abc b53f ceef 68bf e9c4 373f
000003f0: 8b84 8f3f 9c30 5ebe d5ac 263f b3b9 0b40
0.3032545 0.14005008 -0.73299205 -1.6485678 -0.6657974 -1.4948304 1.1785259 0.49224007
0.7354239 0.52967125 -1.735613 -1.3653078 0.5114575 -0.4465869 0.6644875 1.9438504
0.67745525 0.18225403 0.3690669 0.46900564 0.24341226 -0.7788093 -1.0966556 -0.95681006
-0.6451307 -1.0166153 0.7082881 -2.3401158 -0.36416656 0.8265283 1.4260787 0.387466
-2.190173 1.7125478 -0.25602877 -1.9002137 -0.43539807 -0.61913174 -1.1329279 -0.9139039
0.4999015 0.42463493 0.9789038 -0.44445795 0.38289243 0.8956953 2.2483323 0.552612
-0.30965337 -0.38700736 0.27150205 -0.5076164 -0.782277 0.19075876 -0.6337174 0.7670257
-0.28076243 -0.20524956 2.5182238 -0.5665265 0.058864366 0.33692154 1.8211372 0.03484062
-0.16108617 -0.6223959 -0.43011683 -0.08184389 0.20870587 0.5778617 1.8641526 0.3026386
-1.0382118 -1.286884 -1.3004378 0.05088839 -1.5008366 -1.0992256 0.8580577 -0.9173784
-0.14677098 0.56735957 1.4740736 1.1944777 0.38673767 -0.50617445 0.19188973 2.301714
-0.028900413 1.0245571 0.36068377 0.95897716 0.044860203 1.8558519 0.8569639 0.11853477
-0.7918834 -1.4131366 -0.52372766 0.51603174 1.2714567 -0.2835278 0.17931187 0.35722852
0.43145993 -1.1893985 0.7302814 0.68308437 1.5939908 -0.2575722 -1.9477789 -0.6242729
0.6825997 -1.6198914 0.77186364 0.59735143 0.5432028 -0.4725926 -1.23301 -0.7540251
-1.9618416 3.3088799 0.1847768 0.39813018 0.6974752 0.95116466 -2.1879842 1.3872176
-0.8818385 -0.26490083 1.6270933 -0.19094115 0.24769597 -1.0119143 -0.98080677 -0.7518831
-0.8472123 0.91360044 -0.023102496 1.2168761 -0.32422042 0.5889563 -0.46722203 2.1280944
-0.815525 0.21531378 0.8016256 -0.3767811 -0.79948515 0.5545606 1.5337474 -0.001977861
-1.3702422 -0.21002308 -0.63210756 -0.7807375 0.363445 -0.26838148 -0.1594147 0.76333356
-0.8065044 1.4157373 0.34168723 0.5271727 0.74258167 0.34987596 0.013120654 1.4407386
2.0170484 -0.22211888 0.42278093 -0.20578547 1.2571288 -0.2930291 -0.41599768 -0.6750723
-0.3778377 0.30424282 -1.0388987 0.3558654 -1.3950264 0.35659936 0.07798157 -1.7269319
-0.029726028 0.8297876 0.2658178 -0.06155738 0.38694948 -1.3657488 -0.8760463 -0.5196597
-0.045556027 -0.64126337 0.9119376 -1.0778242 -0.11128033 -2.0052676 -1.4597245 0.16053508
0.26080766 1.1932838 -0.44640633 -1.0263332 0.85764474 1.9738554 0.23572515 -0.10033066
0.2584937 0.59720415 -0.28726166 0.04883132 0.2603492 -1.3603461 -2.5069535 -0.39223513
-0.6116795 -0.0745645 2.2450368 -1.7672131 0.57055104 0.04724451 -0.29392612 0.40587527
0.23059133 1.2312574 0.96434325 -1.2577307 0.5226256 -0.054981038 1.9317853 -2.0895033
0.76026356 0.30911756 -0.045375668 -0.40126386 -0.7624678 0.60505426 -1.18951 0.81968427
-0.6438586 -1.2910552 0.51911056 0.9170925 1.3602585 0.49083358 -1.8808912 0.7262903
0.62418544 1.419801 -0.9099091 0.71784836 1.1212324 -0.2169823 0.6510747 2.1832092

static_ll.0.weight f4 [128, 64]
00000000: f6c6 fa3d 3740 c3bd 2ff9 e1bd 5e4b 05be
00000010: 81c1 953d bdcb 78bd 8aa8 07be 65c6 dc3c
00000020: 6523 8c3d 5473 86bd d533 10bd c7e2 8dbd
00000030: 05a5 2c3e 8988 48bd 2de1 853c 3fa8 aabd
00000040: 740e 09be da22 d03d 30aa 82bd e4a9 e3bd
00000050: abc5 2fbd 4837 98bd aa1c 0ebe b655 d3bd
00000060: d8b4 d93d 479d b1bc 0940 5c3d 7b1e cdbd
00000070: db1a 813d a034 8cbd 3737 9c3d 9bad f83d
00000080: 59a5 d13d ee52 c43d fb8b 0dbc 36ef fabd
00000090: f9e9 3a3d a898 833d f583 293d badd 39bd
000000a0: bb21 813c cc5f 8b3d f78f 8f3d 05fc 1e3d
000000b0: 3576 92bd ffb5 7b3d 6723 3dbd 6b9f 95bd
000000c0: f5c7 5bbd 0f3d 01be 9fe4 0a3e ff1f 183e
000000d0: 98d3 353d b5b8 73bc 761c 59bd 2654 04be
000000e0: aad7 883c d630 1f3b 110b 28bd 119e 203d
000000f0: 9414 0bbe ef7f dabd bcda f0bc 576c a2bc
00000100: 2635 a3bc 6ede d63d fe66 dcbd 1ff6 ea3d
00000110: 977c 18bd 5195 a6bd 65ff c73d 9ec2 8dbd
00000120: 0808 a6bd c8f1 5d3d c3a5 0abd 3c5f c23d
00000130: d040 80bd 2d6f 283c 590e 683d eb4a b4bd
00000140: 8a47 ccbd 1313 c1bd 2337 013c 87ed d93d
00000150: b89d ae3d 2676 743d 16a5 603d d931 c33c
00000160: f36e b43d eb26 313d c07f bf3d 8b4f 0b3e
00000170: f4d3 cb3d 8519 0a3e f6a8 bd3c 8895 03be
00000180: 91db d6bd 62cc f4bd 9ab6 1f3d 5e88 35bd
00000190: a962 1cbd 2133 f73d 6964 73bd 26d2 fb3d
000001a0: 3f92 5bbd 2f31 b4bd 484b 003e 7380 eabd
000001b0: fdd9 a5bd 267a 6bbc 13bf 0cbd d73c debc
000001c0: 2377 7abd 41c8 fd3c 3b76 173e 23b2 f83b
000001d0: a86c 0abe 5146 bdbc b38d adbd 151c 2c3c
000001e0: 6b8f a8bd 1eb4 0f3e adea 44bc 0c15 b43d
000001f0: 5045 0fbc 78d3 af3d a2b6 f5bd 5ebe cf3d
00000200: 26b4 aa3d 3a61 cfbb e43d 3fbc bf85 813b
00000210: 9693 b73d 756c 17be a6bf dabd b40d aebc
00000220: 63ba b2bd 416f f1bc 94bd abbd 2003 07be
00000230: 0ee2 b6bb fbbd afbd 2fd5 c1bd 3e98 8bbc
00000240: f50d a0bd 41c8 dc3d 9e20 25bd 4bcd e4bd
00000250: 506c 6b3d 8e3b 67bd 9043 00bd 1939 143d
00000260: c975 7cbd 8142 d7bd f1e0 bcbd 605d 69bd
00000270: d1da 8fbd 9cd6 9e3d 85a4 6d3d 981c dabc
00000280: 6083 07be 751f a13d bd4a ab3c 74db e53c
00000290: 670d 433d 34f5 fdbb 2741 1b3d 018b 68bc
000002a0: bab6 b8bc d18c afbd 6465 ae3d c87b 87bd
000002b0: e543 0f3e c221 db3d de0f 003e 38b2 3fbd
000002c0: 887b cbbd b22b 99bc badc b93d a01f a63d
000002d0: e14e 15bc 192e eb3d 0f18 c83d c10a 1dbd
000002e0: 1153 223c 502d 123a a7dc a13c 9ff9 9ebd
000002f0: 1215 053e ae70 be3d 59f3 db3c be9b 90bd
00000300: 238e c0bd 7381 71bd 9140 edbc 77dc ebbc
00000310: b4b5 023e e3fa db3d f457 0abe af2b 933d
00000320: 1c04 c7bd 2dee ba3d c8e5 6e3d 3e84 ccbb
00000330: d59b b33d f541 663d 6b8d 0d3d f0e9 503d
00000340: 9fe3 a83d 10d4 96bc c07b 22bc abaa 623d
00000350: 9ed4 b63d eebc b93d 14c8 08bd aff4 37bd
00000360: 732c c43d 2641 b2bc 0144 14be ee56 d33c
00000370: c213 b03c 71e4 88bc f253 853c 60c2 713d
00000380: 79a8 903c 6550 adbd 6049 d8bb d40a 563d
00000390: c6ca 07bd 18d4 9abd dc16 e4bd f446 413d
000003a0: b587 f53d 800c 1dbe a02c dcbd c085 cf3d
000003b0: 1ab0 22bd 6e40 7dbd 7715 cb3d 5da3 cbbd
000003c0: fa80 3c3c 92af 373d ad4a 11be 84ae dcbc
000003d0: 1341 083e 8a8b b3bd 7aa8 c3bc 2560 8dbd
000003e0: c8d6 d73c f3f9 6ebd 9139 ac3b de05 9bbd
000003f0: a593 97bd 9f81 abbd 467d 84bd d833 93bc
0.1224498 -0.095337324 -0.11033856 -0.13017032 0.073122986 -0.060741175 -0.13247886 0.02695007
0.068426885 -0.06564966 -0.03520568 -0.0692802 0.16859825 -0.048958335 0.016342724 -0.08332872
-0.1338442 0.101628974 -0.06380117 -0.111163884 -0.04291312 -0.07432419 -0.13878122 -0.103190824
0.10630196 -0.021681441 0.053772006 -0.10015579 0.063039504 -0.06845975 0.07627719 0.121424876
0.10236616 0.0958613 -0.008639331 -0.12252657 0.04563329 0.06425601 0.04138561 -0.04537747
0.015763154 0.06805381 0.07009881 0.038814563 -0.071514525 0.061452862 -0.04617634 -0.07305797
-0.05365749 -0.12620948 0.13563775 0.14855956 0.044391245 -0.014875581 -0.053005658 -0.12922725
0.0167044 0.0024290583 -0.04102618 0.039213244 -0.13582069 -0.10668933 -0.029401176 -0.019827051
-0.019922804 0.10491644 -0.10761832 0.11472725 -0.037228193 -0.081339486 0.097655095 -0.06921886
-0.081070006 0.05418566 -0.03384949 0.09490821 -0.06262362 0.010280413 0.056654308 -0.08803352
-0.099745825 -0.09427466 0.007886681 0.10641008 0.08526176 0.059682988 0.05484494 0.02382748
0.088102244 0.043250006 0.09350538 0.13604562 0.09952536 0.13486297 0.023151856 -0.1285001
-0.10491098 -0.119530454 0.0389925 -0.044319503 -0.038180027 0.12070299 -0.05942193 0.12295942
-0.053606268 -0.087984435 0.12528718 -0.11450281 -0.080982186 -0.014372384 -0.03436191 -0.02712862
-0.061148774 0.030979278 0.14791195 0.007589595 -0.13518012 -0.023104819 -0.084742926 0.010504742
-0.0823048 0.14033553 -0.012018842 0.08793077 -0.008744553 0.08585256 -0.11997725 0.101437315
0.08335142 -0.006328729 -0.011672471 0.0039527114 0.08963697 -0.14787467 -0.10681085 -0.021246769
-0.08726957 -0.029471995 -0.083857685 -0.13184786 -0.005581147 -0.08581158 -0.0946449 -0.017040368
-0.07815162 0.10780383 -0.04031431 -0.11171969 0.05747634 -0.05645328 -0.031314433 0.036187265
-0.061635766 -0.105107315 -0.09222592 -0.056973815 -0.07024158 0.07755777 0.058018226 -0.026624963
-0.1323371 0.07867328 0.020909661 0.028058745 0.047620203 -0.0077501778 0.03790393 -0.014193297
-0.022548068 -0.085717805 0.085154325 -0.06615406 0.13990743 0.10699798 0.12506053 -0.046800822
-0.09935671 -0.018697593 0.090753034 0.08111501 -0.0091130445 0.11483402 0.09770214 -0.038340334
0.0099075 0.000557621 0.019758536 -0.07762455 0.12996319 0.09298836 0.026849436 -0.070609555
-0.094021104 -0.058961343 -0.028961452 -0.02879165 0.12764627 0.10741212 -0.13510114 0.07186066
-0.09717581 0.0912746 0.058324605 -0.0062413504 0.08769957 0.056215245 0.034558695 0.05100435
0.0824654 -0.018411666 -0.0099172 0.055338543 0.08927272 0.090692386 -0.033393934 -0.044911083
0.095787905 -0.02175958 -0.14479066 0.025798287 0.021493796 -0.016710492 0.01627538 0.05902326
0.017658459 -0.084626 -0.006600544 0.05225642 -0.033152364 -0.07559985 -0.111371726 0.047186807
0.11988775 -0.153368 -0.10750699 0.10132933 -0.039718725 -0.061829023 0.099162035 -0.099432684
0.01150536 0.04484517 -0.14188643 -0.026938684 0.13306074 -0.08766849 -0.023884047 -0.06903104
0.026347533 -0.05834384 0.005255886 -0.075694785 -0.07401208 -0.08374333 -0.064692065 -0.017969057

static_ll.0.bias f4 [128]
00000000: 5264 e43d acee b2bd c750 5c3c dab1 75bd
00000010: 8c87 e33d ce2e aa3d f7b8 a1bd 06ed dd3d
00000020: 66b1 9e3c e36d 0a3e d5a3 0b3e fe84 66bd
00000030: 2f73 e3bc 9923 bf3d eb49 303c e4f7 ec3d
00000040: c937 fe3d 1841 93bd 52a9 e33c df7d 943d
00000050: f291 bd3d 1996 9f3b feec 993d 3c11 143e
00000060: 661e ea3d 6a4e c03d b61d 51bd b0b9 b3bd
00000070: c683 8abd 542c ed3d 3a06 b7bc 818d 8abd
00000080: e8a3 0bba 19f5 a83d b6f8 e63d 940e a4bd
00000090: aadd e23d af82 e43d 2eea 2c3c a0a5 683d
000000a0: 9338 5f3c 1d53 eabc 03ba b9bc a039 a8bd
000000b0: 2ec8 953b 7735 12bd a4ad 59bd 0cdd 3fbd
000000c0: fc68 f9bc 1238 e63d 23e6 df3d 6550 db3c
000000d0: 875e 0d3d 1188 083e c44d 13bd 8ad5 863d
000000e0: 123a 103e fde4 ce3d 5b3e dcbd 0d57 a2bd
000000f0: 0985 cabc b19c df3d e459 65bd d784 95bd
00000100: 409b 5cbd 917b 46bd d1a8 2d3d 3be9 9abd
00000110: 1353 1ebc ba21 84bc 8db8 523d e272 a03d
00000120: 9667 13bc 820d cbbc 0715 7bbd 8bc7 f73b
00000130: 9140 303c 13a0 783c 91a0 24bd e8d6 90ba
00000140: e897 bb3b b7d5 bc3d 3699 b1bd 2887 523c
00000150: b22d 90bd cd35 19bc bb65 8dbd b26b 2e3d
00000160: 3751 1b3e 00f6 93bd 94f0 c63d ee03 09bd
00000170: 3d2a d1bd 023a cc3c 9b04 45bc b9df e1bb
00000180: f582 8dbd 4182 973d fefa 6f3b 76a2 d3ba
00000190: 467a f03d 75e6 8bbd 2b78 6f3d 7730 49bd
000001a0: aad5 a6bd 57ef 40bd b528 f03d c4b4 d63d
000001b0: 32c1 643d 34c3 2b3d b640 3d3d c5c6 bdbc
000001c0: c771 f93d f525 a8bd 95f5 853d 6c8e 16bd
000001d0: 7930 383d 0654 823d 37b5 5a3d 9d9f cbbd
000001e0: 73f9 8f3d aaf5 94bc 6df1 ca3d dfa7 77bd
000001f0: 1f89 843d cfde 00be 8a58 f43d 5477 c13c
0.11151947 -0.08736929 0.013446993 -0.059984066 0.11109838 0.083097085 -0.07896607 0.10836224
0.0193717 0.13518481 0.13636716 -0.056279175 -0.027764885 0.093329616 0.010759811 0.11570719
0.12412984 -0.0719015 0.0277907 0.072505705 0.092563525 0.004870188 0.07515906 0.144597
0.11431579 0.09389956 -0.051053725 -0.087756515 -0.06763415 0.115807205 -0.022341836 -0.06765271
-0.0005326853 0.08249874 0.112779066 -0.08010593 0.11077435 0.111577384 0.01055388 0.056798577
0.013624328 -0.028604085 -0.022671705 -0.08214116 0.0045709824 -0.03569552 -0.053144112 -0.046841666
-0.030445568 0.11241163 0.10932567 0.026771734 0.034513976 0.13333155 -0.035962835 0.06583698
0.14084652 0.1010227 -0.10754081 -0.0792676 -0.02472164 0.109185584 -0.05599393 -0.07300728
-0.053858995 -0.048457686 0.042397324 -0.075640164 -0.009663361 -0.016129363 0.051445533 0.07834412
-0.008996865 -0.024786714 -0.06129935 0.007561629 0.010757581 0.015174883 -0.04019219 -0.0011050375
0.0057248957 0.0922045 -0.08671801 0.012849607 -0.07039966 -0.009351206 -0.06904169 0.042583175
0.151677 -0.07224655 0.097138554 -0.033451013 -0.102131344 0.024930004 -0.012025024 -0.006893125
-0.06909744 0.07397891 0.003661811 -0.001614644 0.11742072 -0.068310656 0.05846421 -0.049118485
-0.08146222 -0.047103252 0.11726514 0.10483697 0.055848308 0.041934207 0.04620429 -0.02316607
0.121799044 -0.08210365 0.06540982 -0.036756918 0.044968102 0.063636824 0.053395476 -0.09942553
0.070300005 -0.018183548 0.099093296 -0.06046283 0.06471466 -0.12584995 0.1193095 0.02361647

static_ll.2.weight f4 [64, 128]
00000000: 6999 1e3d 5572 87bd dbb1 713d f3c7 6d3d
00000010: 600c 9f3d 3a68 973c 0dbb 48bd 4902 ecbc
00000020: b3be a3bd 7d9b 9b3c d34d 95bc 5e1a 643b
00000030: 37ad 95bc a49d c43b 3983 153d 7899 8f3d
00000040: c758 423d a28b 6abd b08e f8bc 4c73 6abd
00000050: 88db 42bd 6427 973d b737 4a3d 7115 ef3c
00000060: 8b9f ac3a 3627 903d 2cd1 30bd 036b 3abc
00000070: b66d da3b 3d61 f6bb b84f 563c b485 b0bd
00000080: 2cf8 b73d 9b6c 52bd 7ae5 76bc 4284 93bd
00000090: 1442 a53d 6c8b 133d b24e a8bb bc1b c13c
000000a0: 2937 29bd b902 e13c 591b 0c3c c895 8e3d
000000b0: ef77 183d e096 81bd 2a77 4d3d 7337 613d
000000c0: 0980 2d3d 8b0f 1dbc 928c d3bc 9cea 9abd
000000d0: 6b83 5ebb 25bd ae3d 31da 25bd a186 9f3d
000000e0: c496 013d 2cbb abbd 855d 75bd c0a7 553d
000000f0: 2a4b ba3d b245 9b3d 16c3 7b3b 76e8 f1ba
00000100: f994 733b 072f d5bc d46e b53d b601 30bd
00000110: 7c65 a6bc 6bd8 5e3d 6b15 86bb 4615 93bd
00000120: 8d11 e03c 280a 523c 7ce8 273c 6659 c3bc
00000130: b03f 8abd 250b ebbc 894a 133d 79c2 8fbc
00000140: e38a 053d b5a3 9b3d cfeb 213d bcd5 e63a
00000150: 5a26 2ebc e974 18bc 6e0f 91bd c4bf 453b
00000160: e6fa 3a3b f1c7 36bd 38f8 89bd fbae 86bd
00000170: 24a7 483d f701 883d 00b7 16bd 2d54 8ebd
00000180: 58f0 943a cf5c ec3c 0193 823d 79e3 9a3d
00000190: 7ab5 993c ecfb 643d 548f 213d 7af2 ac3d
000001a0: a8d9 2e3d 9243 50bd ba8c 9b3d 1ff0 fc3c
000001b0: be27 aa3c f125 923d 044b 08bd 6ef2 72bd
000001c0: f45f 1fbc 5cc3 483d e162 dbbc 4b02 ad3d
000001d0: baef ca3d 5c51 413b 280e 44bc 5e2a c6bc
000001e0: fd9c 10bd a4d3 3d3d e72c 9b3d e3b3 72bd
000001f0: cd6c d53c 6d0b 723c 9997 ad3d ac96 093d
00000200: 75e1 293d 2e7e 12bd d07d ea3c a12d 54bc
00000210: 657c 3a3d 19b6 83bd 1048 573d 8699 aa3d
00000220: 7470 813c 2995 5abc 17b6 5a3d fbbb f13d
00000230: 4ed0 943a 4a6e 4f3d d752 bfbc 8b37 9e3d
00000240: 4e22 d9bc 626a 87bc e2b7 5f3d 7552 493d
00000250: 7c66 6dbd 5a84 833d 9e28 6b3d d8d9 30bd
00000260: 3165 5e3c 813c 3e3d aa83 fe3c d107 733d
00000270: 179c 9bbd d9d3 ac3d 1753 d63c 738c 7a3d
00000280: 92c8 2ebc 6342 873c 6971 333c 07f8 363d
00000290: 0dc3 643d 8415 7a3d 8c7b 033c 9ad4 9f3d
000002a0: e5d5 383d d791 08bd d302 983c 4fcf 89bd
000002b0: 2152 653d c9e9 543d c684 903d 3eae a43d
000002c0: b008 cabd 59ac e73d ae80 6e3d d3e8 f53c
000002d0: a06e 30bd f993 953d 65db f93c ee41 9ebd
000002e0: 4869 f13c db89 e4bd ac9b a7bd 4029 173c
000002f0: 7e6b ef3d ab7c f7bc a6d4 0a3d f304 583c
00000300: a77d be3c e16b a2bc 0d93 b73d e28f ea3c
00000310: 4b38 abbd 7c19 44bd fde7 8a3d 882d c7bd
00000320: 203a 693b 9d1f bdbb 5e54 0b3d e3ce 79bb
00000330: 2f11 5f3c d3a2 29bc af1e e2bc b974 c43d
00000340: 7797 fbbc 038f 743d 1f61 b3bd e696 653b
00000350: 6f6d 98bd a08f 2c3d 1c29 b83d 90a2 4bbd
00000360: 0268 e63c 7510 ce3d 5e20 39bd cb52 83bd
00000370: 4a0a 873d 9f35 933d 0e14 5e3b 6c0f c13d
00000380: fd06 b23d 7aff a43d d22c c03d 06b2 93bc
00000390: 4ada 173d 1839 20bd ce35 0c3a 0085 6d3c
000003a0: 7d41 2dbd cbba 1a3d 1054 e13c d08b 3f3d
000003b0: 745d 20bd ae4c 3cbd daed 6f3b f8e4 afbb
000003c0: 4a11 22bd cebf a4bd b792 2b3c 813f ef3c
000003d0: eecf 8fbd 80f1 8c3d e6be a33d e9e9 ccbc
000003e0: d353 86bd 2723 a5bc 3099 81bd 11e8 cabb
000003f0: f4f1 9cbc 6fc8 24ba 6883 0bbc 03fb 47bd
0.038720522 -0.06613604 0.059007507 0.058052015 0.07766032 0.018482316 -0.04900651 -0.028809683
-0.07995357 0.018995041 -0.018225586 0.0034805755 -0.018271072 0.0060002375 0.036502097 0.07011694
0.047447946 -0.05726207 -0.030341476 -0.057238862 -0.047572643 0.0738056 0.04936954 0.029185029
0.0013170106 0.07038729 -0.04316823 -0.011378053 0.0066659106 -0.007518916 0.01308053 -0.08619252
0.08982882 -0.051373105 -0.01506936 -0.072029606 0.08069244 0.036021635 -0.0051363343 0.023572795
-0.04131237 0.027467119 0.008551442 0.06962162 0.037223753 -0.06327605 0.05016247 0.05498452
0.042358432 -0.009586225 -0.025823865 -0.075642794 -0.0033952843 0.0853217 -0.040491287 0.0778935
0.031637922 -0.083853096 -0.05990364 0.052161932 0.09096368 0.07581653 0.003841584 -0.001845612
0.0037167652 -0.026023401 0.088590294 -0.04297038 -0.020312063 0.05440561 -0.0040919087 -0.07181792
0.027352119 0.012819804 0.0102483 -0.02384634 -0.06750429 -0.028691838 0.035959754 -0.017548786
0.032603156 0.07599584 0.039531525 0.0017611305 -0.010629261 -0.009305217 -0.07083021 0.0030174116
0.0028530895 -0.044624273 -0.06736797 -0.065763436 0.048987523 0.06641 -0.036795616 -0.06949649
0.0011363132 0.028852848 0.06375695 0.07562918 0.018763293 0.055904314 0.03944333 0.08444686
0.042688042 -0.05084569 0.07595201 0.030876217 0.020770904 0.07136143 -0.033274665 -0.05931323
-0.009727467 0.049014434 -0.026780548 0.08447703 0.099090055 0.0029497957 -0.011966266 -0.024190124
-0.035305966 0.046344414 0.07576924 -0.059253585 0.026052857 0.014773232 0.084761806 0.033590958
0.04147478 -0.035764866 0.028624445 -0.012950332 0.045528788 -0.06431217 0.05255896 0.083300635
0.015800692 -0.013341227 0.05339631 0.118034326 0.0011353584 0.05064229 -0.02335493 0.07725438
-0.026505616 -0.01653022 0.054618724 0.049150903 -0.057959065 0.064217284 0.057411782 -0.043176502
0.013573931 0.04644442 0.031068642 0.059333626 -0.07598131 0.08438844 0.026162667 0.0611691
-0.010667937 0.016511148 0.010952332 0.04467013 0.055850077 0.061055675 0.008025061 0.078042224
0.04512586 -0.03334221 0.018556034 -0.06728994 0.055986527 0.051980767 0.070565745 0.080410466
-0.09864938 0.113121696 0.058228187 0.030018246 -0.04307425 0.07303614 0.030500123 -0.07727419
0.029469147 -0.11159106 -0.08183989 0.009226143 0.116904244 -0.030210814 0.033894204 0.013184774
0.023253275 -0.019826831 0.089635946 0.028633062 -0.083603464 -0.047875866 0.067825295 -0.09725481
0.0035587624 -0.005771591 0.034016006 -0.00381177 0.013614937 -0.010353762 -0.027602522 0.095925756
-0.030711873 0.0597067 -0.08758759 0.003503257 -0.07442748 0.04212916 0.08992216 -0.04971558
0.028125767 0.10061733 -0.045196883 -0.06412276 0.06593759 0.07187962 0.0033886465 0.094267696
0.08692739 0.08056541 0.09383549 -0.018029224 0.03707341 -0.03911695 0.00053485937 0.014497042
-0.042298783 0.037775796 0.027505904 0.046764195 -0.039151624 -0.045971565 0.0036610276 -0.0053678714
-0.03956727 -0.08044396 0.010471991 0.029205086 -0.07022081 0.06882 0.07995395 -0.02501388
-0.06558957 -0.020158364 -0.06328046 -0.0061922153 -0.019158341 -0.00062859704 -0.008515216 -0.048823368

static_ll.2.bias f4 [64]
00000000: 2637 5d3d 5124 263d addd 8cbc 0c08 65bd
00000010: 90ba 00bd 89ef 0f3d 3070 033d b808 0fbc
00000020: 308d 1c3d 96ca 80bd 7823 a23d 32c2 e8bc
00000030: 771d 69bc 3aad 773c 5425 a13d 5f6f cd3d
00000040: 23f4 a3bd 6d4f a23c d9d2 b43d 2bfd 81bd
00000050: 519c 0abd e07b c9bb 4887 6c3d 34b8 a03d
00000060: 6357 12bd 273d b33d 0c19 503d 1e16 ddbc
00000070: cdef 943c 7402 743c 8d20 7b3d a694 903c
00000080: 9b98 33bd baf9 8fbd 3a9b b93d e915 4d3b
00000090: 0165 363d e092 47bd 1115 96bc 8d81 a73c
000000a0: 1ee8 ff3c d1e4 7a3d 17da 80bc 78d2 bd3c
000000b0: bd0d 22bc 8c7a 973d 5937 c4bc 970d 103c
000000c0: ec7d 2f3d 4f9a 483c 2324 ce3c f661 ac3c
000000d0: 9cf5 2abd 9fed 8a3d 35f7 9b3d b7e9 5d3d
000000e0: 0ef4 d9bc d2bd a73d 3efc 09bd 2da3 c83d
000000f0: 724a 9a3d e69e c63c 478c 3fbd bf35 ca3d
0.05400767 0.040561978 -0.017195547 -0.055915877 -0.03142792 0.035140548 0.032089412 -0.008730106
0.038220584 -0.0628864 0.079169214 -0.028412912 -0.014228216 0.015116984 0.07868448 0.10031008
-0.0800555 0.019813264 0.088292785 -0.06347116 -0.03384048 -0.0061488003 0.0577462 0.07847634
-0.03572787 0.08751898 0.050805137 -0.026988085 0.018180752 0.014893163 0.06131034 0.017649006
-0.043846708 -0.070300534 0.0906281 0.0031293577 0.04452992 -0.048724055 -0.018320592 0.020447517
0.031238612 0.061253373 -0.015728993 0.023171648 -0.009890971 0.07396421 -0.023952173 0.008792303
0.042844698 0.012243821 0.025163716 0.021042805 -0.041738138 0.06783604 0.076155104 0.054177966
-0.026605632 0.08190502 -0.033687823 0.09796748 0.075337306 0.02424569 -0.04676464 0.098735325

glu_encoder.rnn.weight_ih_l0 f4 [48, 2]
00000000: 7bdb 343e b7ce 23be 25d3 f93d ea23 9ebd
00000010: e807 3d3e 0b37 4d3e e1ad a5bd bff0 38be
00000020: 1ac3 1dbe ac46 463e 0eaa 8a3e dcb3 103e
00000030: ca15 4ebe ac6d 433d ba31 993e 0c9c 9abe
00000040: c490 cebd f6e4 61be 7d24 6d3e 1a7a 1fbe
00000050: d720 0c3e 41ea 3cbb e51c 093e 305c 5d3e
00000060: c269 6b3e c4d7 bfbd 3776 ba3d 9b3a ec3c
00000070: 3ab7 f33c c242 44bd dfe6 50be 15bd 40bd
00000080: e32b 623e 695c bebd 639e 283d 0cd2 793e
00000090: c683 5bbe 1cd2 4abe 3610 90bc a98f 753e
000000a0: fcb5 05be 39c4 613e ac05 c0bd 3a0c 7dbd
000000b0: 7213 ecbd 71cb 103e daa7 603e 5f84 493e
000000c0: 7aa0 413d ecd9 3dbd 877a a5be 7f46 7d3e
000000d0: a0e5 9abe 8784 2dbc 3a20 213d c431 3abd
000000e0: 2dea 523e b1b1 37bd c3ca 873d 1e1c bcbc
000000f0: c3f4 623e 9a00 b4bc beec 10be 6fb1 33bd
00000100: 2546 093e ed37 e1bd 4a99 17be 6b17 363e
00000110: 13d6 f73d d2ce 633d cd20 853e 06a6 b4bd
00000120: a578 ecbd 1e39 3fbe 7b5a 783e a153 68be
00000130: 1c6e 3b3e b146 3fbc 32a9 d83d 0df0 3ebd
00000140: b6b4 173e a8e2 f0bd e2bd 7e3e dfd1 3a3e
00000150: 1604 0d3e a2db 623e 02e4 50bd 1086 9dbd
00000160: a0ba 02be d92a cdbd ef48 7dbe 11e3 6a3e
00000170: 3c5a 7a3e 9600 81bd 869a 583d 9543 573e
0.1766185 -0.15996824 0.12198476 -0.07721694 0.18460047 0.20040528 -0.080898054 -0.18060587
-0.15406457 0.19362897 0.27082866 0.14131111 -0.201255 0.047712013 0.2992075 -0.3019718
-0.100862056 -0.22059998 0.2315845 -0.15573922 0.13684402 -0.002882615 0.13389929 0.21617198
0.22989562 -0.09367326 0.09104579 0.028836539 0.029750455 -0.047915228 -0.2040057 -0.047055323
0.22087054 -0.092949696 0.041166674 0.24396533 -0.21436986 -0.19806713 -0.017585855 0.23980583
-0.13057703 0.22047509 -0.09376082 -0.06177924 -0.115271464 0.14140107 0.2193903 0.19679402
0.047272183 -0.046350405 -0.32320043 0.24733923 -0.30253315 -0.010590679 0.039337374 -0.045457616
0.20597143 -0.044847194 0.066304706 -0.022962626 0.22163682 -0.021972943 -0.1415281 -0.043870386
0.13405664 -0.10996995 -0.14804569 0.17782371 0.12101378 0.05561716 0.26001588 -0.08820729
-0.115464486 -0.18674132 0.24253266 -0.22688152 0.18303722 -0.011674569 0.105791464 -0.04661565
0.1481503 -0.11761981 0.24877122 0.18244122 0.1377109 0.22154096 -0.050998695 -0.07691586
-0.12766504 -0.10017938 -0.24734853 0.22938181 0.24448484 -0.0629894 0.05288174 0.21021874

glu_encoder.rnn.weight_hh_l0 f4 [48, 16]
00000000: 7d36 40be f031 68be d328 c4bd b500 063e
00000010: 6652 da3d 7c8c 9ebd b095 87be 5e48 3f3e
00000020: 2b87 5a3d ee00 473e 2b8b 40be 50b0 20be
00000030: feea 08bd a208 ffbd 6e7f f93d 7894 a1bd
00000040: 2ac1 f23d 32b9 c7bd 48fd 163e ca1e 78be
00000050: e6dc 10be 4033 5d3e ee37 813c 4f5f 783d
00000060: 742b 6cbe 0e33 703e 5ee3 82bd e3aa bd3d
00000070: dc60 e93d dd13 06be b25f 52be 7e5e c53d
00000080: bf44 223e fc4e 14be 8f64 0abe 2361 68be
00000090: 292c 213d 3aef 193d 93ef 3dbe c515 253e
000000a0: 2505 033e 4e8e c6bd 035f acbd 7910 263e
000000b0: 0aaa c5bd ca04 2a3e 56ff 4bbe e3dc 2f3e
000000c0: b0f6 173e d850 3ebe 21e8 0a3e 0d1b 623e
000000d0: 8ea2 2d3c 5206 203e cea2 423e 6002 f33d
000000e0: e42a 42be a5c7 99bd e010 19be 3303 13be
000000f0: 2c9a 113e 42a2 0f3d 8779 083c 77ed d9bc
00000100: c9f4 a7bd 2144 083c d432 293d 0d96 2fbd
00000110: 5561 1d3d 5160 a2bd 9c81 943e ec0e 013e
00000120: 7048 7d3c 3898 093e 869b 483d 540f 91be
00000130: 4b8e 93be 69de d63d 810d 013d ea36 14be
00000140: ae33 bb3d c39d 3a3e 24eb 263c 8451 513d
00000150: ebff 8a3a cbfe afbc 1ab5 0dbd ac4d 4f3e
00000160: ebe7 803d debb 763e 7a1c 25be e401 9ebd
00000170: 39c6 3dbe 3cc9 80be 5116 49bd f73e 16bd
00000180: 2649 91bd 280d 233e 0bc8 123e c665 693e
00000190: 6330 5e3d 5ea2 643e b7c1 8ebd bfd1 0a3d
000001a0: e1ad 563e 84e2 743c b36e 40be 94c4 3d3e
000001b0: 52ee 253e b539 32be cdef c33d 4dc7 3bbe
000001c0: 76b0 bf3d dec0 31be 8927 95bc 3cd4 b93d
000001d0: 23b9 6abe a08c 263e 6721 97bd 2a1d 65bd
000001e0: 5437 19be de72 213e 258d 993d 297e 69be
000001f0: a771 8ebe 7754 8abe dd51 633e 587a 4abd
00000200: e01e 4a3c 4b24 793e 6007 603e 7f76 44be
00000210: 29e9 23be 9b08 e43d c523 71bd 97ae 74be
00000220: 54be 0dbd 36f3 a83d 9579 c9bd 5e28 503e
00000230: 795c 56be 981b b4bd 5dad 5a3e 3c8e afbd
00000240: 77ad 823e 1117 81bd 6e81 193e 6c95 56be
00000250: e0d6 30be 8ebf 4fbe b2be 1c3d 4281 2f3d
00000260: 8c32 27be e2c9 1abe 4f3f a1bc 12eb 65bd
00000270: 0543 a73c 42a8 613d 8cb6 4f3d 0b3e b33d
00000280: 34c6 713e c30f c6bd dff3 6ebe 64ea 8a3d
00000290: f217 4f3e cd8f f83d 3747 8c3d ebc3 2a3e
000002a0: 6af0 053d 7099 58bd e23b c4bd 4212 1b3e
000002b0: 5a56 4cbd ef0b b03c 9a59 163e 8433 67bb
000002c0: 2c9b 00be 9565 d73d 0703 513d f0b2 1e3e
000002d0: 98c0 7f3d 64bf 72bc 4111 09bd 984f c9bd
000002e0: 1b60 82bd 7927 06be 6113 94bd 9c7b 1c3d
000002f0: 4570 633e 9d72 33be 158f 0ebd a09b 633e
00000300: f23f 343e b2e5 d73d 9ac1 17be 40a6 3e3e
00000310: 106e 87be 6a06 83bd 43f9 003e 6eef 073e
00000320: 255d 533e 0163 c5bd bdec 2cbe 9e78 07be
00000330: c977 383d 31e6 8bbd 10c5 083d 021a 703d
00000340: 6fd9 a73d c046 0b3e 768d b63d 48e7 393e
00000350: 69b0 dcbd 6ef3 10be 3418 8fbd 2d7d 143d
00000360: bcda 293e 8cf0 473d 03a8 cc3d cca8 cdbd
00000370: f5e6 543c b9d5 5f3d d2fa 04be 39f6 2fbe
00000380: 3da9 8e3e 54a3 253e 2e0e 44be a943 17bd
00000390: 4a0e 2f3b 22e9 343e 448e d2bd b3ee b3bd
000003a0: db56 f2bd 6df2 263e 10c5 07be aa0a b43c
000003b0: a775 233e 8930 8ebb 193b 923e 7d00 14be
000003c0: 1c10 ef3b 1529 ec3c ef49 b83d 6732 2d3e
000003d0: 12ee 743e 27cf 74be 4eca 503c 7819 3c3e
000003e0: 9505 973d e2c2 39be 32da dbbd 7659 e7bd
000003f0: 7e42 99bd 0206 e8bd 19df 75ba c02e 8a3d
-0.18770786 -0.226753 -0.09578099 0.13086207 0.106602475 -0.07741639 -0.2648139 0.1867995
0.053351562 0.19433948 -0.18803088 -0.15692258 -0.03342723 -0.124528185 0.121825084 -0.07889646
0.11853249 -0.0975212 0.14745057 -0.24230495 -0.14146766 0.21601582 0.01577374 0.06063777
-0.23063451 0.23456976 -0.06391023 0.0926111 0.113954276 -0.13093515 -0.20544317 0.096371636
0.15846537 -0.14483255 -0.13514923 -0.22693305 0.039348755 0.03758166 -0.18548422 0.16121586
0.12794931 -0.09695111 -0.084165595 0.16217221 -0.09651573 0.1660339 -0.19921622 0.17174105
0.14840198 -0.18585527 0.13565113 0.22080632 0.010597838 0.15627411 0.19007418 0.11865687
-0.18961674 -0.07508782 -0.14947844 -0.14356689 0.14218968 0.03506685 0.008329756 -0.02660249
-0.08200986 0.008317024 0.04130824 -0.04286771 0.0384229 -0.07928527 0.29005134 0.12603348
0.015459165 0.13436973 0.048976444 -0.28332007 -0.28819498 0.1049164 0.03150702 -0.14474073
0.091407165 0.18224244 0.010187898 0.05110313 0.0010604834 -0.0214838 -0.03459654 0.20244473
0.06294235 0.24095103 -0.16124144 -0.07715204 -0.18532647 -0.2515353 -0.04909355 -0.03668114
-0.0709403 0.15922987 0.14334123 0.2279273 0.054245364 0.22327563 -0.06970542 0.033891436
0.20964767 0.014946584 -0.18792228 0.1853202 0.16204193 -0.17404826 0.09567223 -0.18337746
0.09359829 -0.17358729 -0.018207328 0.090736836 -0.22922187 0.16264582 -0.07379418 -0.055936016
-0.14962512 0.15766475 0.07497624 -0.22802033 -0.27821085 -0.27017567 0.22199197 -0.049433082
0.012336463 0.24330251 0.21877813 -0.19185828 -0.16006912 0.11134454 -0.058872003 -0.23894726
-0.03460534 0.08249514 -0.09837643 0.20327899 -0.20933713 -0.087943256 0.21355195 -0.08572051
0.25522968 -0.06303228 0.1499078 -0.20955437 -0.17269468 -0.20287916 0.0382678 0.04284788
-0.16327876 -0.15116075 -0.019683508 -0.056132384 0.0204177 0.055092104 0.0507112 0.08752068
0.23610765 -0.09670975 -0.23335217 0.06782988 0.20223978 0.12136803 0.06849521 0.166763
0.03269998 -0.052880704 -0.09581734 0.15143684 -0.04988704 0.021490065 0.14682618 -0.0035278508
-0.12559193 0.10517422 0.051028278 0.15497947 0.06243953 -0.014816139 -0.03346372 -0.098296344
-0.06365987 -0.13100995 -0.07230259 0.03820382 0.22210796 -0.1752419 -0.034804422 0.22227335
0.17602518 0.10541858 -0.14819947 0.18618107 -0.2645116 -0.06397708 0.12595086 0.13274929
0.20641 -0.09638024 -0.16887183 -0.13229606 0.04503611 -0.06831015 0.03339106 0.058618553
0.08195769 0.13601208 0.089137 0.18154633 -0.10775835 -0.14155361 -0.06987038 0.03625219
0.16587347 0.048813388 0.09992983 -0.10041961 0.012994518 0.05464718 -0.12986305 -0.1718377
0.27863494 0.16175586 -0.19146034 -0.03692976 0.0026711398 0.17667058 -0.10281041 -0.08785763
-0.118329726 0.16303416 -0.13258767 0.021977741 0.1596285 -0.004339282 0.28560713 -0.14453311
0.0072956216 0.028828183 0.08998477 0.16913758 0.23918942 -0.23907147 0.012743546 0.1836909
0.073741116 -0.18140748 -0.10734977 -0.1129636 -0.074833855 -0.11329271 -0.00093792524 0.06747198

glu_encoder.rnn.bias_ih_l0 f4 [48]
00000000: f922 3b3e 2d86 4cbe 1f76 36bd 372a d53c
00000010: 2d07 38be 2d91 94bd d59b e63c b839 c3bd
00000020: bb13 ad3d 3cb9 a83d 4458 a73b b331 9dbd
00000030: 154a 98bd 009e ce3d 0214 94bd 96cc fabd
00000040: 5b81 6c3e 3fb7 5ebe 864d 1e3e 4e18 7abe
00000050: e9e9 2d3e 823b 41be 1d47 3b3e 1266 b6bd
00000060: 253d 5d3c b08b 293e c220 5d3d a7c0 4a3e
00000070: 33fc 573c ba62 f7bb a4d4 e53d 66aa 8abd
00000080: 1ec8 6b3e 9a55 3f3e 64ec 1cbe 35da 38be
00000090: 8740 2abe 41cb 1dbe 89cf 3dbe cdc3 23be
000000a0: eba5 74bd 1c23 743e 8f39 9a3c b0bf 04be
000000b0: b386 633d 2c49 76be 1c77 87bd 25ca cfbd
0.1827506 -0.19973059 -0.044546243 0.026021106 -0.17971487 -0.072542526 0.028150478 -0.09532493
0.08451029 0.08238456 0.0051069576 -0.07675495 -0.07436005 0.1008873 -0.07230379 -0.12246053
0.2309622 -0.2174959 0.1545926 -0.24423334 0.16983761 -0.18870357 0.18288846 -0.08906187
0.0135033475 0.16557193 0.05398632 0.19800054 0.013182688 -0.007549611 0.112221986 -0.06770782
0.23025557 0.18684998 -0.15324551 -0.1805199 -0.16626178 -0.15409566 -0.185362 -0.15992661
-0.059728544 0.23841518 0.018826274 -0.12963748 0.05554838 -0.2405135 -0.06614515 -0.10145978

glu_encoder.rnn.bias_hh_l0 f4 [48]
00000000: eaf9 2abd 246a 7a3e f7cf 4e3e 386e 89bd
00000010: 0d75 0ebe fc41 5dbc 5e98 52be 638b 1fbe
00000020: 9fd3 58bd 6cfd f3bd 9fe2 0c3d 510b bcbb
00000030: 150a 773e b94c 2ebe e348 963d f4cd d83d
00000040: d276 74bd d942 323e 5f9d 653e b0eb 303e
00000050: 0758 72be 0de3 dfbd bb68 ee3d bc90 ea3d
00000060: fa8a dd3d 440c 8abe 295f 153e 8ee6 463e
00000070: 1942 353e a940 713e 0380 c53d 3147 593e
00000080: fd00 bf3d 26c5 01bc 5403 163e d8e2 ea3d
00000090: 55fa 7cbe 08b5 f0bd ace5 54be 6481 123e
000000a0: 5dfc 2a3e 91b3 a1bd b199 aebd 51e8 37be
000000b0: ceba 8ebe 2572 62be 1b43 563d 0195 2cbe
-0.041742243 0.24454552 0.2019652 -0.06710476 -0.13911839 -0.013504501 -0.20565936 -0.15580516
-0.052936193 -0.11913571 0.03439581 -0.0057386537 0.2412494 -0.17021455 0.07338121 0.105861574
-0.05968363 0.17408313 0.22423314 0.17277408 -0.23666392 -0.109319784 0.116410695 0.11453387
0.10817523 -0.26962483 0.14587082 0.19423887 0.17700996 0.23559822 0.09643557 0.21218564
0.093263604 -0.007920539 0.14649707 0.11469048 -0.24704869 -0.11753279 -0.20790738 0.14307171
0.16697831 -0.07895578 -0.08525408 -0.17959715 -0.27876896 -0.22113855 0.05231009 -0.16853715

glu_encoder.hid2lat.weight f4 [64, 16]
00000000: 286b 82be 67ce 2abe 9cc6 afbd 3fdf 1d3e
00000010: 26f0 193d a6c1 1e3e 022f 12be ad29 333d
00000020: 1aef 63bd e9a7 6fbe fb29 0abe aac0 5abd
00000030: 2576 563e a378 27be c650 39be 6084 1cbe
00000040: 41e6 0a3e 920d 183e 60db 67be ab93 c43d
00000050: a69f 733e 844c 06bc 717b 473d 7c70 afbd
00000060: ca09 253e 5433 2ebd 1b6f 33be e50c acbd
00000070: 9507 0e3e ae55 cf3d 1e02 4bbe 428a 8fbd
00000080: 5d23 e6bd a91f 87bc 4f19 ccbc fd40 833e
00000090: c140 9fbc 3682 b73d 770c 793e d2c3 5c3e
000000a0: fb98 0cbd 6d4a 803e efe0 44be 64ab ae3c
000000b0: e6c2 b33d f5f8 dbbd 365f f23d 60e5 4abe
000000c0: c006 243e e092 e4bd 354a 713e 5a56 983d
000000d0: b466 e5bd 1cf8 383e d10a 38bb 619f 813e
000000e0: bc10 34be f87d b2bd d0a9 77be d3c3 103d
000000f0: 9dcb 9d3c 0184 bbbd 640e cf3c 5fe7 d4bd
00000100: 6da1 613e dccf ff3d 9617 58be 4aa4 ab3c
00000110: 0f77 453e 383b 553e 28d8 4c3e c479 18bd
00000120: 8201 ea3d d66a bcbd 99f5 453e bd92 90be
00000130: 9584 5ebe 8d26 f4bd a768 cbbd 04d3 583e
00000140: a0cf edbd 1b10 31be b78d 883e e9dc 7d3e
00000150: 35ae 2b3d 06fd 593e b1b7 393e 2b89 60be
00000160: ff44 89bd ad42 0c3e 1908 f5bd 203b 1c3e
00000170: 7d92 c7bc 3503 c8bd 45a8 02be 0c96 c53d
00000180: eaf2 1a3d 7c64 12be f47e 8e3d 0617 483e
00000190: d49e 843d 55c6 35be caa1 0d3e b8f9 4e3e
000001a0: 02c7 dbbd 4f97 0f3e fedd 743d b584 d83d
000001b0: a0c0 c0bd f7d6 d2bc 3fb9 16be 7af0 63bd
000001c0: 8574 f6bd 9994 dd3d 4935 3b3e 6f9a bcbd
000001d0: 0c12 01bd 4163 21be 66db d3bd ad3f 173d
000001e0: 2971 e5bd 3c57 efbd 6864 88be 1124 113e
000001f0: efb6 4c3e 31a4 193e 2c5b fd3d f059 5b3e
00000200: c445 3a3d c22c b0bd 8bbe 1cbe c66c 653e
00000210: a9a8 273e 52f2 43be f0c2 3abe 1c6f 43be
00000220: 559b 50bd d81a 1c3e 6ddd 393e c060 5abe
00000230: 7f83 cf3c 2077 5c3e 0f04 1ebe ed3d 763d
00000240: 6f2d 023d 3a9b 66be 02e9 c83d 987d 293d
00000250: c5e3 423d f6a0 383e eb81 f0bd d847 b33d
00000260: 8090 23be af2f ebbd 71ec 2abd 3bb7 c83d
00000270: c82d b0bd 4d90 af3d 9b1c af3d a254 243e
00000280: ef42 043e d23e 4fbe d972 bc3d 8e3f 8c3e
00000290: dbe2 203e f886 213e 6f9b a93d 889b c1bc
000002a0: e8e7 173e a996 a2bc 9bd5 0bbe cfd2 0abe
000002b0: 25e9 20be afbc 7abc 4bb7 663e 3d99 8abd
000002c0: 4fdf 07be dd2f 1cbe e1dd 39be 0eca 313a
000002d0: b230 e83d a6e7 5abd 7868 1b3d 8aae 03be
000002e0: 577e 6cbe 7b8e 553e d245 073e 232d 213d
000002f0: 3eab 7abe 8897 2c3d 59e0 7ebe 7381 22be
00000300: ce2c 593d 700e bebd eb66 193e f4c7 3f3e
00000310: d907 14be 3062 40bd ecc4 77bd 2e81 253e
00000320: 8f46 843e 4bf0 5b3e 4abc 673d f43f 3d3e
00000330: e953 163e a108 66be 794d 083e 1591 10be
00000340: 32c8 b8bd f736 663d e961 99bd 7e09 50be
00000350: 502e 61be 9b20 2abe 3d82 80be 2161 1b3e
00000360: dd6e 653e 1487 23be 0f93 233e 541e 1e3e
00000370: 42b8 9ebd f2ba dc3b f46c 5fbe 2b7f 5f3e
00000380: 29e6 2f3e b17e 9dbd 5a42 e13d 0b9d 923b
00000390: 2174 1c3c a437 0a3e 9df8 5d3d 190f 8ebe
000003a0: af2d 89be 7113 f2bc 0ac6 88be a0ad 383d
000003b0: 9d66 a13c 73b5 ff3c 7ccb 83be 83c8 283e
000003c0: 5da4 4cbe 9de2 af3d 3bd2 e6bb c13b 3abe
000003d0: 772f 3c3d d5da 583e e8fe c0bc d1fa cf3d
000003e0: 766d eebd ea75 68bc 02e7 f13d 9e6a 3abe
000003f0: a98b cfbc 9810 023c 6b86 05bc 949e 32bd
-0.2547238 -0.16680299 -0.085828036 0.15417193 0.03758254 0.15503559 -0.14275745 0.043740917
-0.055647947 -0.23403896 -0.13492577 -0.053406395 0.20943506 -0.16354613 -0.18097219 -0.15284872
0.13564397 0.14848927 -0.22642279 0.09598478 0.2379137 -0.008196954 0.048701707 -0.085663766
0.16117015 -0.04252942 -0.17522852 -0.08400897 0.1387008 0.10123764 -0.19825026 -0.070087925
-0.11237214 -0.016494589 -0.024914412 0.2563552 -0.019440057 0.08960383 0.24321161 0.21559075
-0.03432558 0.25056782 -0.1922643 0.02132196 0.08777408 -0.10740844 0.11834566 -0.19814062
0.160182 -0.11160827 0.23563464 0.07438345 -0.1120123 0.18063396 -0.002808262 0.2531691
-0.17584509 -0.08715433 -0.24185872 0.035343003 0.01926213 -0.09156037 0.025275417 -0.10395693
0.22034235 0.12490818 -0.21102747 0.020952363 0.19283698 0.20823371 0.20004332 -0.0372255
0.11426069 -0.09200065 0.1933197 -0.28236952 -0.21730264 -0.119214155 -0.0993207 0.21174246
-0.11611867 -0.172913 0.2667062 0.24791302 0.041914184 0.21287927 0.18136479 -0.21927325
-0.06702613 0.1369731 -0.11964435 0.1525693 -0.024361843 -0.09766237 -0.12759502 0.0964776
0.037829317 -0.14296144 0.06957808 0.19540033 0.064756066 -0.17751439 0.13831249 0.20212448
-0.10731317 0.14022563 0.05978202 0.10572187 -0.0941174 -0.025737269 -0.14719103 -0.05564926
-0.12033943 0.108193584 0.18282045 -0.09209143 -0.03151135 -0.15760519 -0.10344581 0.03692596
-0.11203224 -0.116865605 -0.26639104 0.14173914 0.19991659 0.1500404 0.12370905 0.21421027
0.04547669 -0.08602287 -0.15307061 0.22404775 0.16372932 -0.19135407 -0.18238425 -0.19085354
-0.050929386 0.15244615 0.18150873 -0.2132597 0.025331257 0.21529818 -0.15431236 0.06011765
0.03178161 -0.22520152 0.09810068 0.04137954 0.0475805 0.18030152 -0.1174353 0.087539375
-0.15973091 -0.11483704 -0.041729394 0.098005734 -0.08602482 0.08572445 0.08550378 0.1604791
0.12916158 -0.20238808 0.09201593 0.27392238 0.15711538 0.15774143 0.082816 -0.023633733
0.14834559 -0.019847231 -0.13655703 -0.1355698 -0.15713938 -0.015303775 0.22530858 -0.06767509
-0.13268779 -0.15252633 -0.18151046 0.00067821227 0.11337413 -0.053443573 0.037941426 -0.1285955
-0.2309507 0.20855133 0.13210228 0.039349686 -0.24479386 0.0421367 -0.2489027 -0.15869693
0.053021245 -0.092800975 0.14980666 0.1872862 -0.14456119 -0.04696864 -0.060490534 0.1616256
0.25835082 0.21478383 0.05657605 0.18481427 0.14680447 -0.22464229 0.13310803 -0.14117844
-0.09022559 0.056204762 -0.07489378 -0.20316121 -0.21990323 -0.16614 -0.25099364 0.1517377
0.22405572 -0.15969497 0.15974067 0.15441257 -0.07749988 0.006736153 -0.21818906 0.21825854
0.17177643 -0.0769018 0.10998984 0.0044742874 0.009549172 0.13497788 0.054192174 -0.27745894
-0.26792666 -0.029550286 -0.26713592 0.045087457 0.01970225 0.031214451 -0.25741184 0.16482739
-0.19984575 0.08588145 -0.0070441044 -0.18186857 0.045943704 0.21177228 -0.023559049 0.10155261
-0.11641972 -0.014188269 0.11811639 -0.18204734 -0.02533515 0.007938527 -0.0081497235 -0.043608263

glu_encoder.hid2lat.bias f4 [64]
00000000: acbe c53c 0f72 95bd d3df 40be 060e 043d
00000010: 233c 563d c55d 153d a36a 453e 36ff b4bd
00000020: e2e0 b03c 7771 083e bcf4 773e c932 d83d
00000030: bfdb 7e3c 921d 8abb 516c 33bc 3171 49be
00000040: 376b 2abd 5121 803d 1b63 093c d68b 623e
00000050: fa60 99bd 5dca 483e be4f e93d b3d6 9f3d
00000060: 4960 1f3e f5ce b13d b36b 893d 7acb c03c
00000070: 6e68 1fbe 06e3 5d3e d9b7 1fbe 4465 1cbd
00000080: 0159 71be 40d1 85be ec56 3c3e a52d f0bd
00000090: 1a3a 6a3e 7f78 56bd 2a4a 58be ac57 e2bd
000000a0: 3d99 24bd 796b c63b 41e0 0f3e d50d 8f3c
000000b0: 9414 893e 7814 053e a5f2 df3d 7b43 503e
000000c0: 1a0c 29be 78cb 623c b250 4f3e 8256 5d3e
000000d0: 6cd6 913c 84ff cebd c0a1 4d3d f4c7 76bd
000000e0: 8f70 84be 9b19 48be 403d 7fbe 7ca3 54bd
000000f0: 390c 5cbe 3d92 f0bc 3ac2 223d 5e16 3b3e
0.024138771 -0.072971456 -0.18835382 0.032239936 0.052303445 0.03646638 0.1927896 -0.0883774
0.021591607 0.13324533 0.24214453 0.105565615 0.015555321 -0.004214951 -0.010951118 -0.19672085
-0.041606154 0.062563546 0.008385445 0.22123656 -0.074892 0.19608445 0.11392163 0.078046225
0.15564074 0.08682052 0.06709995 0.023534525 -0.1556718 0.21668634 -0.15597476 -0.038182512
-0.23569109 -0.26136208 0.18392533 -0.11727456 0.22873726 -0.052361008 -0.21122041 -0.11051878
-0.040185202 0.006055292 0.1405039 0.01746265 0.26773512 0.1299609 0.10934953 0.20338242
-0.16508523 0.013842456 0.20245627 0.21615031 0.01780244 -0.101073295 0.050203085 -0.060249284
-0.25867125 -0.19541018 -0.24925709 -0.051913723 -0.21489038 -0.029366607 0.03973601 0.18270251

encoders.weight_ih_l0 f4 [192, 64]
00000000: ca2e 94bd 424c 01be 9586 8bbd 646e 2a3e
00000010: 88c2 113d fa92 7f3d 2b39 bc3d 131b c63c
00000020: 9b01 833d 4473 40bd 3751 133e c6e1 e6bd
00000030: 339a 91bd ecf6 21bd 2702 c6bd 5b69 603d
00000040: d4a9 3f3d c7d0 3c3d e4f9 9dbd bcb1 e13d
00000050: af6f 113e 802b 48bd f52f 4d3d 2822 ed3c
00000060: 6f68 413d 8587 253e a236 fbbd 1ccc cdbd
00000070: 35d0 17be 0dd5 62bd 822c ba3d ca59 96bd
00000080: dd1d 50bd 84a8 283d 2d32 bf3b 82c7 7abd
00000090: acbe 25be 9199 96bd 08f8 edbd 4947 fa3d
000000a0: 6a59 0fbc 2433 5cbc f98b 4a3d 9a78 293e
000000b0: 2635 2fbd 3b46 b33d fa7f 80bd af2c 59bd
000000c0: 9976 1fbe 40df d5bd 0562 c2bd daf7 a5bd
000000d0: 80e3 a73d 67e9 d53d 6203 653d 2ee2 11be
000000e0: 6ae9 88bd 8de5 85bc bd37 1abe 71cf 2ebe
000000f0: 72ef 96bd b732 843d fa56 e2bc 13c9 0c3e
00000100: 986d 32bd b9ff f93c d392 abbd 288b abbd
00000110: 9b9c a2bd fd25 af3d 3157 9a3d 94f9 db3c
00000120: d502 22bc e320 c3bd ca44 ba3c 8ba8 2dbd
00000130: 7e93 f53c 38cb 54bd b9a4 20bd 726f 24bd
00000140: eae8 073d 19b2 e5bd 4a85 e1bd f0cf 713d
00000150: 7954 c43d 692b d93d 1e89 bf3d 4cf6 b4bd
00000160: fa2f c73d 95f0 9c3d 4012 903d 1ba1 50bd
00000170: 054b fc3d 2deb ee3c e845 913c d449 f0bd
00000180: a0fa d6bd ae85 9abd 37d5 343d 00a3 943d
00000190: 21d0 a83d d17c e53d 8199 abbc 54bd acbd
000001a0: 9928 4c3d 2aa7 29bd 077d a6bc 1ca4 db3b
000001b0: a1d0 f53d 1d80 91bd 7483 993d 3f64 2cbd
000001c0: b8bd f5bd 4af2 643d 79c3 06bd b7e8 d63d
000001d0: f1c1 923d d0ff b7bd 4f73 bcbd cae2 03be
000001e0: 5f1b b1bc 491d e23c 3eeb cabd 1fe2 e1bc
000001f0: 35a8 cb3d d501 0cbd 0789 1dbc 560c 09bd
00000200: 1bd9 6cbd a80d 57bd 7ef5 3abd 48da 18bd
00000210: 950f 03bd f96f 3abb c6ec 7bbd 6b89 8fbc
00000220: 90a8 11be 982b 2bbd 83e3 5abd 40e9 49bd
00000230: 9f2d 043e e68e 83bc 555f 393c be6c 70bd
00000240: e314 5e3d e5a5 e63d c7d1 d33d a9d5 40bd
00000250: fc1b bebb 9dc8 9bbd bd3e 103e fdc9 89bd
00000260: 6830 803c feda ce3d 572a adbc 5c45 8cbd
00000270: 3b9f 6e3d 6055 333d a3d5 603d dc51 233c
00000280: 1562 0ebe 0ed6 c1bd 16fc 0b3e d074 423d
00000290: 9834 99bd 8c88 763d 2411 f5bd 6680 a53d
000002a0: 1d34 d0bc 6a8c 01bd a074 06bd 6b64 99bc
000002b0: 20f7 e83d e703 993d 0b68 c53c 7dfa 9fbd
000002c0: 2098 a8bc 966c 39bd 99e8 1bbd da89 6b3c
000002d0: 2883 5bbd 6d94 96bd f9f1 e7bc faec dfbb
000002e0: a65f caba 637c 21bd 5cf8 0cbe eca4 0cbe
000002f0: a6df 50bd 72b8 92bd f509 f6bd ec14 813d
00000300: ddc1 d13b 2625 983d 99c2 123e d561 953c
00000310: a322 fe3d 0a25 c7bd ba35 0d3e 92bc ebbd
00000320: 23e5 99bd 5ec4 71bb ba58 a33d b6a5 e2bd
00000330: 4240 0c3e 61d4 f63c 8b9f 8ebd 343e 5b3d
00000340: 2f31 543b 14d7 323d c484 76bc 934a 93bd
00000350: bca8 ff3d 9e49 3c3d 5182 c8bd 3b9c 97bd
00000360: 860f 833d 41ec 443d c294 783c 9288 14be
00000370: 5ade 593b 9757 83bd 5f5c 623d b116 17be
00000380: 4fd3 2bbd 6bc9 c93d beaf dabc 61d6 bfbc
00000390: 23fc 33bd 1a87 f5bc fb91 ad3d 3324 54bd
000003a0: 2d1d 7dbd 8057 8e3d 3b39 953d 7fba 093d
000003b0: 8093 fa3d 34d8 5b3d eabb 37bc a842 0d3d
000003c0: e94c ad3d ae15 603d 4104 b2bd ce2e 7bbd
000003d0: cf7f 21bc 7463 bc3d daf8 93bd e888 8d3c
000003e0: 9512 603d dc81 4dbd 68f9 3a3d 6615 223b
000003f0: fd85 e0bd 7a5f be3d 1792 00be ce84 183e
-0.07235487 -0.12626746 -0.06812779 0.16643673 0.03558591 0.062396027 0.091905914 0.024182832
0.063967906 -0.046984926 0.1438645 -0.112735316 -0.07109489 -0.039542124 -0.09668379 0.054787975
0.04679282 0.046097543 -0.077136785 0.11020228 0.1420276 -0.04886961 0.050094564 0.028946951
0.047218736 0.16164978 -0.1226628 -0.100486964 -0.14825518 -0.055378962 0.090905204 -0.07341345
-0.05080973 0.041176334 0.005834839 -0.06122542 -0.16186017 -0.07353509 -0.11619574 0.12220628
-0.008749345 -0.013439927 0.049449895 0.16549912 -0.042775296 0.0875363 -0.062744096 -0.05302113
-0.15572585 -0.10442972 -0.09491352 -0.081039146 0.08197689 0.104449086 0.05591143 -0.14246437
-0.06685145 -0.01634481 -0.15060325 -0.1707132 -0.07369889 0.064549856 -0.027629364 0.13748579
-0.043561548 0.030517446 -0.08377614 -0.08376151 -0.079400264 0.085521676 0.07536162 0.026852407
-0.0098883705 -0.09527757 0.02273788 -0.042397063 0.029977556 -0.051951617 -0.03921959 -0.040145345
0.03318111 -0.1121561 -0.11011751 0.059036195 0.095864244 0.10603983 0.09352325 -0.0883604
0.09725948 0.07663075 0.07034731 -0.050934892 0.12318996 0.029164875 0.01773353 -0.117328316
-0.10497022 -0.075450286 0.04414865 0.07257652 0.082428224 0.112054475 -0.02094722 -0.08434549
0.049843404 -0.041419186 -0.02032329 0.006702913 0.120026834 -0.07104514 0.07495776 -0.04208779
-0.119990766 0.055895127 -0.03290126 0.104936056 0.07165898 -0.08984339 -0.09201681 -0.12879482
-0.021619497 0.027601855 -0.0990815 -0.027573643 0.09944192 -0.034181435 -0.009615189 -0.03345903
-0.057824235 -0.052503258 -0.045644276 -0.037317544 -0.031997282 -0.0028448089 -0.0615051 -0.01752158
-0.14224458 -0.04178962 -0.05343963 -0.04929471 0.12908028 -0.01605935 0.011314233 -0.058697455
0.054219138 0.112621106 0.10342746 -0.047078762 -0.005801676 -0.07606623 0.14086433 -0.06727979
0.015648082 0.10100363 -0.021138353 -0.06849167 0.058257323 0.04378259 0.05489124 0.009968247
-0.13904603 -0.09464656 0.13670382 0.047474682 -0.074807346 0.060188815 -0.1196616 0.08081131
-0.025415475 -0.03162805 -0.032826066 -0.01872464 0.1137526 0.074714474 0.024097463 -0.07811449
-0.020580351 -0.04526957 -0.03806362 0.014376128 -0.053591877 -0.07352529 -0.028313624 -0.0068336697
-0.0015439882 -0.039425265 -0.13766617 -0.13734788 -0.050994538 -0.071640864 -0.12013618 0.06302819
0.006401284 0.074289605 0.14332046 0.018235127 0.1240895 -0.097238615 0.13790026 -0.11510576
-0.075144075 -0.0036890726 0.079759076 -0.11066763 0.13696387 0.030130567 -0.06964024 0.05352612
0.0032377949 0.043662146 -0.015046302 -0.07191958 0.124833554 0.045968644 -0.09790481 -0.074028455
0.06399445 0.04807687 0.015172185 -0.14505222 0.0033244104 -0.06413191 0.055263873 -0.1475475
-0.041949566 0.098528706 -0.026695129 -0.023417654 -0.04394163 -0.029971648 0.08475109 -0.051792335
-0.061795402 0.06950283 0.072863065 0.033625122 0.12235165 0.053672984 -0.011214236 0.034487396
0.08461935 0.054708175 -0.086922176 -0.061323933 -0.009857132 0.09198657 -0.07225199 0.017277196
0.05470522 -0.05017267 0.04564801 0.0024731993 -0.10963056 0.092955545 -0.12555729 0.14894411
