code/baseline/saved/GAMNet_learning_rate_0.0001_hidden_size_64_epoch_6000_batch_size_32/Epoch_5650_JA_0.7874_DDI_0.0935.model (torch, 455805 bytes, 29 tensors)

lab_embeddings f4 [32, 64]
00000000: b9f1 8b3e 1961 4e3e 5fab 3ebf d047 d3bf
00000010: 3834 2abf ef2b c7bf 74b6 993f e093 023f
00000020: b74f 4c3f f609 f63e 8c40 dbbf 2d27 aebf
00000030: 103d 093f cd1b f2be 47ef 2b3f 4a25 f73f
00000040: d42f 3a3f dfa8 563e f030 ca3e 9886 d23e
00000050: 2d5f 8d3e 405c 40bf dcba 8bbf d08c 81bf
00000060: 5808 30bf d207 81bf 4e1a 363f 4ad0 16c0
00000070: 5856 b2be f253 573f a3ec b63f f4a3 cc3e
00000080: 2d50 10c0 42ba df3f b3bc 8fbe b2ea f4bf
00000090: b165 d2be 8c6f 18bf 8134 91bf bb77 72bf
000000a0: 1ecd 023f eeab ef3e 6bb2 853f 958f f2be
000000b0: 8632 e13e c1aa 723f 7afb 1040 3c9b 123f
000000c0: 3063 80be 8507 afbe 4114 893e 7b7f e7be
000000d0: 0968 52bf 1c8b 1b3e ca8e 24bf 3bbf 513f
000000e0: baa1 a3be a9ed 1cbe 587e 2040 1e31 0cbf
000000f0: 3bdc 1d3d 2c91 a73e 9709 e63f 4f15 f93c
00000100: 5210 4abe fbef 18bf 6f18 f1be 4dd3 49bd
00000110: 6888 2d3e 27f7 153f 0868 ee3f e2d0 9d3e
00000120: 5468 85bf 2a10 aabf b8d6 a4bf 1668 453d
00000130: 6ef0 c0bf 6e6a 90bf e7fd 643f 4391 67bf
00000140: 6644 9bbd f2a6 0e3f 6ed4 bf3f 3a4c 9a3f
00000150: 6da7 c23e 9358 f3be 7050 723e 8daf 1340
00000160: adc6 66bd f6ca 813f ee2e c03e 9c03 7d3f
00000170: a4ca 313d 8755 ee3f 2ea9 523f de48 023e
00000180: 72b6 55bf 5cd0 b7bf 08e4 11bf 8828 053f
00000190: 3572 a73f 519a 84be ea64 203e 5a56 d13e
000001a0: 5f1d d73e 5707 98bf c368 4a3f 4174 343f
000001b0: e802 ce3f c53e 80be da76 fcbf b92c 1cbf
000001c0: 2c87 333f f90b cdbf 1f38 4c3f e033 1a3f
000001d0: b958 063f 6aad 05bf 3aec 9fbf f123 39bf
000001e0: fd66 00c0 fa81 5640 d667 313e 38c9 c83e
000001f0: 81f7 2c3f e1e8 7b3f 6169 0dc0 aaa9 b63f
00000200: 6ca1 64bf cca1 7bbe e4c5 d33f 7cc5 76be
00000210: 9543 7f3e be9d 86bf 23df 81bf b256 40bf
00000220: 3a76 5cbf e2b3 6f3f 16f1 81bd aaa9 9c3f
00000230: 0f12 a3be 27d9 143f 959b f5be 6f1f 0940
00000240: 6051 4ebf 815f 673e 3883 4d3f 1149 c0be
00000250: 88fa 4bbf ce6e 163f c0b9 c53f aa9d 593c
00000260: 8e81 b6bf 43c1 28be 7564 2cbf be60 51bf
00000270: 15a2 b43e a2d7 8fbe c0f2 3fbe fd4b 4c3f
00000280: 7f52 4cbf 9b71 bc3f 5b99 d03e 32ba 0d3f
00000290: dd3f 463f ee93 9f3e 302b 3e3d e598 b83f
000002a0: c475 0140 7ca8 82be 2bfb ef3e cd31 6ebe
000002b0: a214 a13f 5970 8dbe d9b6 b6be 23a4 22bf
000002c0: be09 c2be 6e30 993e 018d 86bf a583 b93e
000002d0: af48 adbf 4852 a63e 4996 c03d c43b e0bf
000002e0: 4257 4fbd 4184 5b3f 74f7 8a3e 6ba2 b9bd
000002f0: ced6 ba3e 6552 b2bf 43a5 6bbf 89fc fabe
00000300: 7f93 0fbd 697f 2cbf 62f8 703f 4198 88bf
00000310: 8665 d9bd d8a4 ffbf 27b2 bdbf 1f8b 183e
00000320: fd69 8c3e 3e2d 953f 0943 cebe fd32 85bf
00000330: 2c39 5e3f 2234 0040 818c 8f3e fb1f fdbd
00000340: 9ae3 8d3e 1f82 2a3f bc41 a6be c2b2 0e3d
00000350: 657a 993e 5b9a b2bf 66c5 20c0 e67c d8be
00000360: d517 1abf cd93 c9bd f6d6 0e40 0065 e0bf
00000370: f8a8 0f3f 8a3d db3c 83fd a5be 032a d93e
00000380: dd7a 493e 510d 9f3f f6a2 743f e3eb a2bf
00000390: 6cb0 fd3e 0d15 07bd 5453 fb3f 8c7f 08c0
000003a0: 4368 463f a83c 9d3e ab46 84bd 903e c5be
000003b0: 332e 44bf cfc5 273f 98ae 98bf 9dea 403f
000003c0: 8561 1fbf 0e73 a1bf c6ea 123f 5dce 7b3f
000003d0: b747 ad3f a51f f33e cc88 eebf 9edc 3a3f
000003e0: 11b4 253f 68e3 b13f 8d3f 74bf cd44 493f
000003f0: 919d 903f f80c 72be 9864 323f ad6c 0c40
0.27332857 0.20154227 -0.7448024 -1.650629 -0.6648593 -1.5560282 1.2008805 0.5100689
0.79809135 0.48054475 -1.7129073 -1.3605705 0.536088 -0.47286835 0.67161983 1.9308255
0.7272923 0.20962857 0.3949046 0.41118312 0.27611676 -0.7514076 -1.09164 -1.0121098
-0.6876273 -1.0080512 0.7113389 -2.356463 -0.348315 0.84112465 1.4290966 0.39968836
-2.2548935 1.7478716 -0.28073654 -1.9134123 -0.4109321 -0.5954521 -1.1344148 -0.94713944
0.51094234 0.4681086 1.0445074 -0.4737517 0.4398386 0.947918 2.265349 0.5726812
-0.25075674 -0.34185424 0.26773265 -0.45214447 -0.82189995 0.15189785 -0.6428038 0.8193242
-0.31959325 -0.15325035 2.5077114 -0.54762447 0.038540106 0.32727945 1.7971677 0.030405669
-0.19732788 -0.5974118 -0.47088954 -0.049273778 0.16946566 0.5858025 1.8625498 0.30823427
-1.0422463 -1.3286183 -1.2878027 0.048194967 -1.5073373 -1.128248 0.89449924 -0.90456027
-0.07581405 0.5572349 1.4986703 1.2054513 0.3801836 -0.47528514 0.23663497 2.3075898
-0.056341816 1.0140064 0.37535805 0.9883363 0.043406144 1.8619851 0.822894 0.12723109
-0.83481514 -1.4360461 -0.56988573 0.5201497 1.3081728 -0.25898984 0.15663496 0.40886194
0.42014596 -1.187724 0.79066104 0.7048989 1.6094637 -0.2504789 -1.9723771 -0.6100574
0.7012813 -1.6019279 0.79773134 0.60235405 0.5247913 -0.52217734 -1.2493966 -0.7232047
-2.006286 3.3516831 0.17324767 0.39216018 0.6756516 0.9840222 -2.2095568 1.4270527
-0.8930881 -0.2457344 1.6544766 -0.24098772 0.24928124 -1.0516889 -1.0146221 -0.75132287
-0.861179 0.93633854 -0.063448116 1.2239277 -0.31849715 0.5814385 -0.47970262 2.1425436
-0.8059292 0.22595026 0.8027835 -0.37555745 -0.79679155 0.58762825 1.5447311 0.013282219
-1.4258287 -0.16479973 -0.67340785 -0.8178824 0.3527991 -0.28094202 -0.18744946 0.7980345
-0.7981338 1.472217 0.40742 0.55362236 0.774412 0.3116755 0.046427906 1.442166
2.0228128 -0.25519168 0.46871313 -0.23261185 1.2584422 -0.27624777 -0.35686377 -0.635317
-0.37898058 0.2991976 -1.0511781 0.3623325 -1.3537806 0.3248465 0.094036646 -1.7518239
-0.050620325 0.8574868 0.27141917 -0.09064182 0.36492008 -1.3931395 -0.92049044 -0.49020794
-0.035052773 -0.6738191 0.94129 -1.0671464 -0.10615067 -1.9972181 -1.4819993 0.1489682
0.27424613 1.1654432 -0.4028552 -1.0406185 0.8680599 2.003182 0.28036883 -0.123596154
0.2771271 0.666048 -0.32472026 0.034838445 0.29976192 -1.3953356 -2.5120482 -0.4228279
-0.60192615 -0.09842644 2.2318702 -1.7530823 0.561172 0.026762743 -0.32419977 0.42414865
0.19675775 1.2425939 0.9556116 -1.2728237 0.49548662 -0.03297906 1.9634805 -2.1327848
0.7750284 0.3071034 -0.06458791 -0.38524294 -0.76632994 0.65536207 -1.1928282 0.7535799
-0.6225818 -1.2613237 0.57389486 0.9836176 1.3537511 0.4748508 -1.8635497 0.72992885
0.64727885 1.3897524 -0.9540947 0.78620607 1.1298085 -0.2363776 0.69684744 2.194133

static_ll.0.weight f4 [128, 64]
00000000: d53c 1d3e 4bde acbd 585d cbbd 8e67 f4bd
00000010: 347c c23d 6f22 9abd d564 1ebe c5b3 a33c
00000020: db82 963d 7f0b 88bd 0fab c7bc 826f a1bd
00000030: 92c3 423e 293c 27bd 5b14 603c 07c6 a0bd
00000040: 7b76 09be 0e15 c93d 2ff8 7dbd eeba d8bd
00000050: bde3 6bbd 0460 90bd 75ef 00be abc9 eabd
00000060: 3f65 cf3d ccab 03bd be94 9e3d 160a bfbd
00000070: 9306 bf3d a476 51bd e6c9 ab3d 04ed fb3d
00000080: 147a e13d f061 cf3d 1fb4 79bb e4a6 01be
00000090: 2d1e 1c3d 16dc 923d 349a 3d3d 82dd 7ebd
000000a0: 0288 973c c3b0 8f3d 9bb4 5d3d 628d 433d
000000b0: f340 82bd 953c 783d 2618 61bd 972c b1bd
000000c0: aa39 86bd 03f4 02be 5429 033e 79f7 283e
000000d0: 8736 2f3d 8900 bebc 726f 54bd 6d1b f1bd
000000e0: 85be 473c 9f69 d13b d56e 3abd 0cd5 2a3d
000000f0: d79e 0cbe 2201 d2bd 1ea7 a7bc 3799 9ebb
00000100: c1a5 37bd 2071 b93d ec88 fdbd ab3c 1d3e
00000110: be6a 9cbd 32f3 90bd 8f88 c03d cc97 b5bd
00000120: ca8b a6bd a441 583d 92c6 90bc 34f6 f33d
00000130: ea12 9bbd 4eb4 0d3b 3af4 693d c300 0fbe
00000140: 198c 94bd 0569 afbd 3ae7 e33b 0e93 0a3e
00000150: d2c8 863d 5b5f 863d 3b8e 943d 1741 e93c
00000160: 9031 8c3d 9006 173d 8731 a53d a593 243e
00000170: 4ead a63d 221d e43d c14d c63c f329 11be
00000180: 2fb0 90bd 846e 18be 1ae1 d53c c0c9 08bd
00000190: 2e27 cbbc 2033 fd3d 0790 b8bc a882 063e
000001a0: fb4f 0bbd 8b33 e4bd 7d54 053e 8fb1 bdbd
000001b0: 24fb b8bd ff7f efbb c80c 4ebd a0f0 7fbc
000001c0: 634f 8cbd 015a ba3c d9a0 2c3e ef84 3fbc
000001d0: b939 06be 8931 e4bc 68a5 a7bd 45f2 bc3b
000001e0: b2a8 abbd a32f 343e 228e 3bbd 7217 a03d
000001f0: cd09 de3b a9a0 d53d ce35 f4bd 4900 e23d
00000200: d809 b53d 4598 51bb 3f54 1fbc bc34 103c
00000210: 2f59 a43d fcbf 24be b62e f6bd 091c 2fbd
00000220: ea59 98bd 4056 d8bc 0564 9fbd adb3 04be
00000230: 30ae bd3c 538c 80bd 2c00 a9bd a6cf 44bc
00000240: 2a56 a1bd cdd6 e53d b228 3bbd 4734 d3bd
00000250: bac7 143d ce8b 94bd 6212 c0bc c199 243d
00000260: ef86 6abd 5aa7 e8bd ed19 a3bd 507e 5bbd
00000270: d63f 95bd 65f3 873d d6b5 8a3d 7a1b 1ebd
00000280: 79e6 00be d233 ad3d a2ce 383c 4b3e d73c
00000290: b786 973c fc72 4dbc 714d 033d d16c d0bc
000002a0: 9955 d0bc 6e33 c8bd cecc a23d 51fa 68bd
000002b0: 5848 153e 2d14 e83d c217 f83d 752a 00bd
000002c0: c483 eabd b2ff f4bb 5c8d 923d c8dc bd3d
000002d0: 5b33 fc3a a5fa e53d d20c dd3d a588 0cbd
000002e0: 62e7 153c e528 46bc 8afc c53c 4956 82bd
000002f0: 3217 f03d c68d e33d 7495 743d 7cf4 92bd
00000300: 2109 9ebd 63a1 63bd c64d 9dbc 1691 05bd
00000310: 63a8 223e 8e71 de3d fa33 17be 8c92 a03d
00000320: 2620 bfbd 2685 8b3d 2ad9 353d f3fc 63bc
00000330: 86b2 a13d 450a 523d 1582 9a3c 8ea2 763d
00000340: d5c7 9d3d 8177 b1bc e8eb 09bd a7fb 483d
00000350: 17d3 b93d 7203 c33d de4d bdbc 766d 0ebd
00000360: 0354 bc3d a3b0 0ebc e2e7 10be e8d3 e93c
00000370: d009 ca3c 9d17 15bc e47b d73b a7fe 813d
00000380: e8a6 993c 77ba b5bd b03c 3b3c bccc 153d
00000390: 77f7 37bd 6419 8abd 3642 fabd 97ea 7e3d
000003a0: c279 f83d 62a8 32be 4bb6 d3bd c6ea cc3d
000003b0: fad1 02bd 9a28 93bd 351f bc3d 97e0 e1bd
000003c0: 8595 b33c 5b80 133d b3fe 25be 1a9e 8dbc
000003d0: b2db 133e 1c65 b2bd 6b2c 7abc 48cd 8fbd
000003e0: 523c df3c c4bc 35bd f0d5 bd3a f857 8ebd
000003f0: 7848 90bd b729 aabd 0380 a1bd d74c 60bc
0.15355237 -0.084408365 -0.09929913 -0.11933814 0.09496346 -0.07526099 -0.15468152 0.019983182
0.073491774 -0.06642818 -0.02437356 -0.078825966 0.19019917 -0.040828858 0.013676728 -0.07850271
-0.13424103 0.09818469 -0.062004264 -0.10582529 -0.057590235 -0.070495635 -0.12591346 -0.11464246
0.10126733 -0.03214626 0.07743214 -0.093280956 0.09327426 -0.051138535 0.083881184 0.123010665
0.11009613 0.10126102 -0.0038101745 -0.1266132 0.038114715 0.07170884 0.046289638 -0.062222965
0.01849747 0.070161365 0.054127317 0.047742255 -0.06360044 0.06060465 -0.05495467 -0.08651083
-0.06553967 -0.12788396 0.12808734 0.16500653 0.04277661 -0.023193615 -0.051864095 -0.11772809
0.0121914195 0.006390765 -0.045515854 0.041707084 -0.13732468 -0.10254122 -0.02046543 -0.004840042
-0.04483581 0.0905478 -0.123796314 0.15355174 -0.07637547 -0.07077636 0.094010465 -0.088668436
-0.081321314 0.052796975 -0.01767281 0.11912194 -0.07571967 0.0021622363 0.05711768 -0.13965134
-0.07253284 -0.08564953 0.0069550546 0.1353266 0.06581272 0.06561156 0.07253691 0.02847342
0.06845391 0.036871493 0.08066087 0.16071947 0.08138524 0.11138369 0.024206998 -0.14176159
-0.07064854 -0.14885908 0.026108313 -0.03339553 -0.024798956 0.12363267 -0.022529615 0.13135779
-0.034011822 -0.111426435 0.13020511 -0.09262382 -0.09032276 -0.0073089595 -0.050305158 -0.015621334
-0.06851079 0.022747995 0.16858234 -0.011689409 -0.13107957 -0.027855651 -0.081858456 0.0057661855
-0.083817855 0.17596297 -0.045789845 0.07816972 0.0067760707 0.10431034 -0.11924325 0.11035211
0.08839768 -0.003198163 -0.009724676 0.008801635 0.08024823 -0.16088861 -0.12020628 -0.042751346
-0.07439025 -0.026408315 -0.07782749 -0.12959166 0.023154348 -0.06276765 -0.08251986 -0.012012398
-0.078777626 0.112226106 -0.045693107 -0.103127055 0.036323287 -0.07253228 -0.023446266 0.040185694
-0.05725759 -0.11360045 -0.07963929 -0.053587258 -0.07287566 0.06638221 0.06772964 -0.038600422
-0.12587918 0.084571496 0.011279734 0.02627482 0.018496854 -0.012539621 0.032056276 -0.025442513
-0.025431441 -0.097754344 0.0794922 -0.056879345 0.14578378 0.11331973 0.121139064 -0.03129049
-0.114509135 -0.0074767703 0.071558684 0.09270626 0.0019241379 0.11229447 0.10793461 -0.034310002
0.009149404 -0.012094711 0.024168272 -0.06364114 0.11723174 0.111110255 0.059712842 -0.07175538
-0.07716585 -0.055573832 -0.019202124 -0.032609068 0.15884547 0.108615026 -0.14765921 0.078404516
-0.09332304 0.068125054 0.044396557 -0.013915288 0.07895379 0.051279325 0.018860856 0.060213618
0.077041306 -0.02166343 -0.033672243 0.04906812 0.09073465 0.095221415 -0.023108419 -0.03477236
0.091957115 -0.008709106 -0.14150956 0.028543428 0.024662882 -0.009099868 0.006576048 0.06347399
0.018756345 -0.08873456 0.011428043 0.036572203 -0.044913735 -0.06743124 -0.1221966 0.06223544
0.121325985 -0.17447045 -0.10337504 0.10005717 -0.03193853 -0.071854785 0.0918564 -0.11029165
0.021921882 0.03601108 -0.16210441 -0.017287303 0.14439276 -0.08710691 -0.015269379 -0.07021576
0.027250443 -0.044369474 0.0014483314 -0.069503725 -0.07045072 -0.08308738 -0.078857444 -0.013690195

static_ll.0.bias f4 [128]
00000000: 574a e93d d03c cbbd 02cc b53c e882 4ebd
00000010: f9f1 e93d ebda b03d c765 89bd f3b3 fb3d
00000020: beed 3e3c 2b57 0f3e 0b94 073e 59e9 49bd
00000030: c237 f0bc 7309 d13d 840b a63c a6a2 f63d
00000040: 99dd fa3d 3c36 b0bd f52f 113d 39dc a13d
00000050: 01f8 c23d 859f 4d3c f069 953d 5043 193e
00000060: 320d eb3d 923e e23d d4b9 46bd 8c4c 96bd
00000070: c2bd 84bd 8fd4 e73d 0e4e efbc 2025 92bd
00000080: b1ac 7ebb a63c 9e3d 4073 f03d da00 a6bd
00000090: 351a 073e bc1f cc3d fa07 8f3a 5984 9c3d
000000a0: 9dcb 583b 47cf 1cbc 0f48 61bc c908 92bd
000000b0: e505 c9ba 67ae dcbc 1f53 97bd f76f 51bd
000000c0: 69a8 abbc 07ae de3d 07af fa3d 83e4 fc3c
000000d0: 273e 153d 72a8 103e ff77 ecbc bcbb a03d
000000e0: 5460 0a3e 1b6b ca3d 47ed e3bd 0915 a9bd
000000f0: 746a 12bd 6066 c73d 68d0 6bbd 76bc 95bd
00000100: d0cc 3ebd 86ab 16bd 7090 473d aad1 85bd
00000110: 7d80 25bb cde1 56bc 7b85 473d e48b 7c3d
00000120: 019c d9bb 9282 22bd 2872 55bd 82fd 363d
00000130: 78e4 4b3c 2d5d a03c b41d ecbc 4be7 4a3c
00000140: 85a7 2a3c 0da7 bd3d f486 98bd 5271 f13b
00000150: 1bb6 9bbd dcda 9d3b a005 92bd a661 1b3d
00000160: 2c64 2a3e b64a 92bd 0df2 dd3d fa16 2dbd
00000170: ce34 c6bd b7c1 273d bbb9 99bc 94b0 8d3a
00000180: 4031 89bd a895 9c3d 3199 9c3c 4051 94bb
00000190: b88d ea3d 05f5 93bd 8dc1 5f3d 40b2 7bbd
000001a0: 9d8f abbd 625a 26bd d316 f73d a39a de3d
000001b0: a0e6 553d 6d51 163d ef75 2e3d 0332 75bc
000001c0: 97e2 e43d 41a8 95bd 5051 543d 2780 0ebd
000001d0: d118 3f3d 60d7 6b3d 5fc7 853d 52ff d9bd
000001e0: c583 9c3d 08c8 7dbc 056e e73d 116e 8abd
000001f0: c5a5 a43d 8ac4 f5bd 36d4 ff3d bd4a 513c
0.11391132 -0.099237084 0.022192005 -0.05041781 0.11423106 0.08635505 -0.067088656 0.12290182
0.011653362 0.13998096 0.13240068 -0.049294803 -0.029323462 0.102068804 0.020269163 0.120427415
0.12249298 -0.086040944 0.035446126 0.07903332 0.09519959 0.012550239 0.072955966 0.14967084
0.11477126 0.110470906 -0.048517063 -0.07338819 -0.06481506 0.11319839 -0.029212024 -0.07135987
-0.0038860256 0.077264115 0.11740732 -0.08105631 0.13193591 0.0996699 0.0010912411 0.07642431
0.0033080347 -0.009570903 -0.01375009 -0.07130582 -0.001533684 -0.02693863 -0.07388901 -0.05113217
-0.020954328 0.10873037 0.12240415 0.030870682 0.036436226 0.14126757 -0.028865812 0.078483075
0.13513309 0.0988371 -0.111292414 -0.08255965 -0.035746053 0.09736323 -0.0575718 -0.07311337
-0.046582043 -0.03678467 0.04872173 -0.06534131 -0.0025253587 -0.013115359 0.04871128 0.061656848
-0.0066409116 -0.039675303 -0.05211082 0.044675358 0.012444608 0.01957568 -0.028822757 0.012384246
0.010415916 0.09260378 -0.07447615 0.007368245 -0.07603093 0.00481735 -0.07129979 0.03793492
0.16639775 -0.07143156 0.10837183 -0.04225824 -0.096780404 0.040956225 -0.018765321 0.0010810071
-0.06698847 0.07645732 0.019116016 -0.0045262873 0.11452812 -0.07224468 0.054627944 -0.06144929
-0.083770014 -0.04061354 0.120649 0.10869338 0.052221894 0.036698747 0.04259294 -0.014965537
0.11176031 -0.073074825 0.05183536 -0.034790184 0.046654526 0.057578444 0.06532168 -0.106444016
0.076423205 -0.015489586 0.113002814 -0.06759275 0.080394305 -0.120003775 0.12491648 0.012774167

static_ll.2.weight f4 [64, 128]
00000000: ac97 243d 2074 91bd aae6 2e3d 0f18 8b3d
00000010: d1a9 bb3d 12f8 3d3c 09c2 75bd 3621 05bd
00000020: 81be a4bd 675e 2ebb aff7 c1bc b4c1 913a
00000030: 4d08 95bc d14d 363b e115 423d db3e b23d
00000040: f395 533d c3a0 2dbd 4eca cabc e137 38bd
00000050: 94bb 0fbd fba2 8a3d be48 683d 79ce da3c
00000060: 554e 87bb ce13 433d fb9d 6fbd 205a ccbb
00000070: 2485 2f3c 92b0 b1bb 602f 813a 9086 94bd
00000080: dca5 b13d 88e0 1cbd a543 50bc ba18 82bd
00000090: 64ac 0a3e e1d9 073d 64c4 643c eb5d 7139
000000a0: 58d6 26bd 1d9c 363d 647d 8a3b e3f0 b43d
000000b0: ce0d 353d 4fe5 87bd e3af 753d b3a2 693d
000000c0: 660c 2e3d 3643 27bc d265 f7bc a0d1 8ebd
000000d0: 3e86 c73a f4ad 9b3d 1dda 07bd 55f3 a63d
000000e0: 0326 0c3d 34f9 c8bd ab72 45bd 2c9c 843d
000000f0: d3d5 c53d 0ef5 a83d 35e3 873c 7a97 8dbb
00000100: f795 de3b ab07 51bc d7d6 b23d 79e0 19bd
00000110: e736 c3bc 74ac 833d 1520 853b 6508 80bd
00000120: 99ae 1b3d 56b0 da3c c7e4 143c 3628 78bc
00000130: 09d8 91bd 85db e5bc 5fcf 353d 7477 d5bc
00000140: c3fd 0a3d 42a0 7f3d b323 d13c 0d5f 953b
00000150: f773 98bc 8b9d 2abc cbe3 94bd 30c8 9f3b
00000160: 78b0 6e3b 93f3 49bd 0344 83bd ab83 88bd
00000170: 5e32 6d3d c5d9 933d 2053 38bd a4f2 95bd
00000180: 45c9 12bb cdb9 ed3c 1e93 603d 57ba 953d
00000190: e816 9c3c af70 5f3d 0969 4a3d af6f ac3d
000001a0: 5f81 453d a77f fcbc bb15 a73d bdd0 5d3d
000001b0: 1768 b83c 10c3 9a3d d094 b9bc a7a1 66bd
000001c0: 5348 9dbb 858f 5c3d 9495 cfbc ff1b a53d
000001d0: b465 bc3d 34cc e43c 5516 6c38 8f24 ccbc
000001e0: 8d52 fcbc 3fe2 383d 8c33 b33d 38fb 87bd
000001f0: bf1c c33c a1e1 db3a 0c7f d03d fcb0 143d
00000200: 37d2 2d3d 55e7 27bd 73ef 803c 106c 72bc
00000210: 9a88 3a3d b3ef 98bd f825 123d 5fcf 5e3d
00000220: a5fb b53c 5d06 c1bc f465 4b3d eeb7 033e
00000230: fd71 cb3c d1b5 fb3c 5c47 d3bb ae59 863d
00000240: b5f4 97bc 3073 4ebc 6077 ad3d 5dfc 453d
00000250: 24a2 89bd d311 c43d f9f1 783d 2c1a 83bd
00000260: f278 6cbb 471a 143d eef6 023d bf71 193d
00000270: 0745 96bd e5f8 c03d c931 7e3c 5853 953d
00000280: f6ed d7bc f823 eb3b ba3e 083d 13f1 4f3d
00000290: 980c 973d 1e72 593d f975 aa3c 7b53 853d
000002a0: 6e79 303d 9d0c 56bd 89fd cb3b 701e b4bd
000002b0: 4f66 563d 61db 5c3d 209d 873d dbb4 9a3d
000002c0: 0e29 c7bd d318 ec3d 2e07 603d 8805 053d
000002d0: 0e48 51bd f56a 673d 79c9 e33c ce24 a8bd
000002e0: 7885 1f3d cdca 0dbe 325f a2bd bdd8 023c
000002f0: 293b f43d 45c3 8fbc 9433 d23c 4a89 cdba
00000300: aa2e 7b3c 514b fcbc 935f c83d 21de 1c3d
00000310: 5891 c9bd 2243 29bd 6340 413d 2145 b4bd
00000320: de51 43bc b00e 1dbc 6c32 c43c 4022 cdbc
00000330: c990 9a3c f93f c2bb e7cd 11bd dd05 9a3d
00000340: 2055 94bc fc2e 6b3d bb7a cfbd b343 263c
00000350: 2839 b4bd ac40 153d c329 a53d 3517 54bd
00000360: eb97 bd3c 090d d33d b723 59bd 74a0 90bd
00000370: 0f2a 793d d7ba 9d3d 9d00 9cbb 781a c63d
00000380: c8d7 ad3d 99fc b33d fb57 ca3d d67a fbbb
00000390: 870d 303d 6073 17bd 62c7 833b 6735 963b
000003a0: 9a57 3cbd 98e6 013d 1ee2 1c3d 8a84 403d
000003b0: 91cf 67bd 6bbf 37bd 293f bbb8 bb24 66bb
000003c0: 0aea 1fbd b327 a6bd fc78 4a3c fabb eb3c
000003d0: dd19 8dbd 2a01 bd3d 2d34 9c3d 1780 b8bc
000003e0: 015c 78bd f8d7 f8bc aa20 a9bd 91c8 59bc
000003f0: 81e1 ccbc 921c 47bb b920 0bbc 8827 1ebd
0.040183708 -0.07102227 0.042700447 0.06791698 0.09163249 0.011594789 -0.0599995 -0.032502376
-0.08044148 -0.002660656 -0.023677675 0.001112035 -0.018192435 0.0027817378 0.047384147 0.08703395
0.051656675 -0.042389642 -0.02475467 -0.044975165 -0.035090998 0.06769367 0.056709997 0.026709782
-0.004129211 0.04762631 -0.05850027 -0.0062363297 0.010712896 -0.00542266 0.0009856038 -0.07252228
0.08674213 -0.038300067 -0.01271144 -0.063523725 0.13542324 0.03316677 0.013962839 0.00023018538
-0.040731758 0.044582475 0.0042263735 0.08835008 0.04420262 -0.06635534 0.05998219 0.057039928
0.042492293 -0.010208895 -0.030199919 -0.069735765 0.0015222502 0.07601538 -0.033166993 0.08151881
0.03421594 -0.09813157 -0.04820506 0.064751 0.09659924 0.082498655 0.016587833 -0.004321036
0.0067927795 -0.012758176 0.08732384 -0.03756759 -0.02382989 0.06429377 0.0040626624 -0.06251601
0.038008306 0.026695412 0.009087748 -0.015146306 -0.071212836 -0.028058777 0.044387218 -0.026057936
0.033933412 0.062408693 0.025529718 0.00455845 -0.018609984 -0.010413538 -0.072700106 0.004876159
0.0036421102 -0.049304556 -0.064094566 -0.06665739 0.057909362 0.072192706 -0.04500115 -0.07321671
-0.0022397798 0.02901926 0.054827802 0.07310932 0.019053891 0.054550823 0.049416576 0.084197395
0.04821908 -0.030822588 0.08158442 0.054154146 0.022510571 0.075567365 -0.022653967 -0.056306507
-0.0047998815 0.05384781 -0.02533988 0.080619805 0.09199086 0.027929403 5.6287583e-05 -0.024919776
-0.030801082 0.04513764 0.08750066 -0.06639713 0.023817418 0.0016775617 0.10180482 0.036301598
0.042436805 -0.0409921 0.015739178 -0.014796272 0.04554043 -0.07467594 0.03568074 0.054396983
0.02221472 -0.023562605 0.049657777 0.12863132 0.024834627 0.030726345 -0.0064477157 0.06560074
-0.018549303 -0.012600705 0.084700346 0.048336376 -0.06720379 0.09573712 0.060777638 -0.06401476
-0.0036082831 0.036157873 0.03197377 0.037461992 -0.07337385 0.09422473 0.015514799 0.07291287
-0.026358586 0.0071759187 0.033262946 0.050767016 0.07375449 0.053087346 0.020808207 0.06510063
0.043084554 -0.052258123 0.006225292 -0.08794868 0.052343663 0.053920154 0.06621766 0.07554027
-0.097246274 0.11528172 0.054694347 0.032475978 -0.051094107 0.056498487 0.02780603 -0.08210145
0.038945645 -0.13846894 -0.07928313 0.007986245 0.119253464 -0.017549166 0.02565936 -0.0015681174
0.01533095 -0.030797632 0.09783854 0.038297776 -0.09842175 -0.04132379 0.047180545 -0.08802248
-0.011921374 -0.009586021 0.023949824 -0.025040746 0.018867867 -0.0059280363 -0.035596754 0.075206496
-0.018106997 0.057417855 -0.10130831 0.010147977 -0.08799964 0.03643863 0.08064606 -0.051779944
0.02314373 0.10305221 -0.053012576 -0.07061854 0.060831126 0.077016525 -0.0047608153 0.09673017
0.08488423 0.087884136 0.09880062 -0.0076745553 0.04298165 -0.036975265 0.004021571 0.004584003
-0.04598198 0.031714052 0.03830158 0.0470014 -0.056594435 -0.044860285 -8.928619e-05 -0.0035117108
-0.039041556 -0.08113041 0.0123579465 0.028776158 -0.06889699 0.09228738 0.07627139 -0.022522015
-0.060634617 -0.03037642 -0.08258183 -0.013292448 -0.025009872 -0.003038202 -0.008491688 -0.03861192

static_ll.2.bias f4 [64]
00000000: 5c3e 743d 29ff 193d ad2c e3bc 498b 7abd
00000010: 6ded 1dbd f88a 173d d551 bf3c d0eb 32bc
00000020: 475b 343d fb81 84bd 1d9b aa3d e403 e0bc
00000030: f9f6 f8bb 73c7 983c 60cb 983d 1bf0 cc3d
00000040: f2f9 abbd 9ec8 a53c 6bf2 ac3d 0190 81bd
00000050: 3195 e3bc a0e2 493b 831c 703d 1430 b73d
00000060: e558 65bc 1ec2 b93d 5b3c 753d 2cda b3bc
00000070: 299c 823c 95c9 993c 4dad 823d 4cae c93c
00000080: 0db1 2ebd ad4c 97bd 35ce bd3d 0d57 4a3b
00000090: 155a 3e3d e94f 45bd 9ad6 93bc c098 d83c
000000a0: 087d e23c bedf 733d 6204 16bc 4749 9e3c
000000b0: 7aa3 b2bb 9161 9f3d 03d1 a4bc 5dae da3b
000000c0: df66 483d d439 643c 7f5e 1a3d 3fb1 dd3c
000000d0: c307 1dbd dac4 753d e8f7 983d 03bd 713d
000000e0: 6163 f4bc 315e bd3d 119a 0cbd 8d8f c53d
000000f0: 7080 a03d ba2d e33c 24c4 38bd fd01 ce3d
0.059629783 0.037596855 -0.027731264 -0.06116799 -0.038556505 0.036997765 0.02335445 -0.01092048
0.04403236 -0.06470104 0.08330367 -0.027345605 -0.007597801 0.018649792 0.07460666 0.10006734
-0.08397283 0.020237263 0.08444675 -0.06326295 -0.027781101 0.0030805245 0.05862094 0.08944717
-0.013998245 0.09070228 0.059872013 -0.021954618 0.015943604 0.01877288 0.06380711 0.024619244
-0.042649318 -0.073876716 0.092678465 0.003087464 0.046472628 -0.04817191 -0.018046666 0.026440024
0.02764751 0.05953955 -0.009156318 0.01932205 -0.005451617 0.07782281 -0.020119196 0.0066736178
0.04892623 0.013929803 0.037687775 0.027062057 -0.03833748 0.060002185 0.07469159 0.059018146
-0.029832544 0.09246481 -0.034326617 0.09646521 0.078369975 0.027731765 -0.04510893 0.10058973

glu_encoder.rnn.weight_ih_l0 f4 [48, 2]
00000000: 3d5b 3a3e 4d27 1fbe 956b 313e 4f50 33be
00000010: d06d 473e 1429 d73d 09d8 abbd b972 26be
00000020: 3646 29be 4461 6c3e 217c 7a3e 2697 3f3e
00000030: e809 30be 0899 8bbc ce6f a73e bfd1 9cbe
00000040: cd34 0fbe 1cfc 7bbe 8789 873e 1c26 35be
00000050: 4216 e93d e362 753d be15 cc3d 392c 823e
00000060: 837b 843e 366f e2bd 08b9 853d 57ab eb3b
00000070: 5a81 1d3d bff4 67bd 1645 60be ea69 9bbd
00000080: c1fd 6a3e f832 f3bd ea8f 433d 7ffb 4c3e
00000090: 663c c1bd 6545 8bbe d030 16bb e5a1 4f3e
000000a0: 2af9 83bd 9854 d83d 0a21 30be 1b00 a1bc
000000b0: 1c13 9abd a52e a53d b20f 6d3e 33c9 453e
000000c0: 6a66 1a3d e91c 9ebd de87 d0be 37a6 993e
000000d0: 2c20 96be 667e c8b8 04f0 f43c 7b12 a0bd
000000e0: 923f 5f3e 46bc 56bd 2512 a73d 3cf2 8bbd
000000f0: ce29 773e dcc4 89bc 6571 82bd e944 29be
00000100: 1d05 113e 7448 e3bd 77ed 01be 0c48 ee3d
00000110: e4ff d83d c7ec f53d a2e1 7b3e 3f27 90bd
00000120: a64a c2bd 4ca1 70be dbb3 893e b822 41be
00000130: 0f8e 1a3e f095 4d3d b916 093e 3123 6fbd
00000140: d80a 063e ec98 8ebd 0fe0 703e 9a4e 493e
00000150: 3633 f23d 47bc 913e 618b 77bd bc5f ebbd
00000160: beeb 1dbe a487 a9bd ab9e 83be 9e8f 5e3e
00000170: d7bc 8f3e 507d 9bbd 31f2 753d d371 823e
0.18198867 -0.15542336 0.17326196 -0.17511104 0.19475484 0.10505882 -0.08390815 -0.162547
-0.1653069 0.23083979 0.24461414 0.18710002 -0.17191279 -0.017040744 0.32702488 -0.30628774
-0.13984986 -0.24607891 0.26472113 -0.17690319 0.113811985 0.05990876 0.099650845 0.25424364
0.25875482 -0.11056368 0.065294325 0.007192056 0.038453437 -0.056629892 -0.21901354 -0.07588561
0.22948362 -0.11874956 0.04774467 0.20017813 -0.09435348 -0.2720138 -0.0022917278 0.20276602
-0.06444009 0.1056301 -0.17200103 -0.01965337 -0.07523176 0.08065537 0.23150519 0.19315033
0.037695326 -0.07720358 -0.40728658 0.30009624 -0.2932142 -9.560287e-05 0.029899605 -0.07816025
0.21801594 -0.052425645 0.08157758 -0.06833312 0.24137041 -0.016817503 -0.063692845 -0.16530193
0.14162107 -0.11097804 -0.12688242 0.116348356 0.10595682 0.12008052 0.24597791 -0.070387356
-0.09486894 -0.2349903 0.2689503 -0.188609 0.15093254 0.05019182 0.13387574 -0.05838317
0.13090074 -0.06962761 0.23522972 0.1965889 0.11826174 0.28463957 -0.060435656 -0.11492869
-0.1542196 -0.082778245 -0.25706992 0.21734473 0.2807376 -0.07592261 0.060045425 0.25477466

glu_encoder.rnn.weight_hh_l0 f4 [48, 16]
00000000: bca9 32be c873 67be a130 c8bd 2cc3 0a3e
00000010: fa6e d53d 42e7 98bd 5ab5 88be bfe5 4c3e
00000020: 7662 6c3d 66f0 473e e426 42be 80c1 24be
00000030: f39c 3cbd 6f9f 07be 34cf 083e 3833 acbd
00000040: fe8e 133e b66d 04be 5f7a 3c3e fb6b 52be
00000050: 0707 32be 44f7 843e b2f0 613d 101e a83d
00000060: dc86 4dbe 6fe3 903e 45a1 94bc fc4b 863d
00000070: 80b3 b83d b502 25be 8a78 3bbe 977a e73d
00000080: 6acb 1f3e e050 1ebe 1e36 f2bd 349b 57be
00000090: 5b34 e13c f584 713d 53a0 2ebe 480f 1f3e
000000a0: 0d56 0a3e e719 99bd 56fa 83bd 1cd6 1e3e
000000b0: b970 c3bd 9640 203e c668 4cbe 628c 2e3e
000000c0: 88f2 2d3e 00a3 53be 2e6a 213e b155 743e
000000d0: b4a1 33bc 0a5a 2e3e 6edf 553e 282e 103e
000000e0: 29fb 2bbe 3019 84bd 7b13 0bbe e822 2fbe
000000f0: c56c f93d 1fa8 733c d19c ef3c ecf7 773c
00000100: 5749 96bd 011a 1dbc 9a41 643d f669 1dbd
00000110: cd94 ee3c 3894 a7bd ff08 9b3e 3cbe 0b3e
00000120: dfa2 ee3c ce33 033e 0269 503d d59f 9bbe
00000130: 48bb 96be efbb c53d 792d 1d3d c693 d4bd
00000140: 6ac1 9a3d e748 513e b741 93bc 5974 c23c
00000150: aee4 ee3c 258b 53bd 9ed2 76bd 433d 413e
00000160: 4b85 273d e3d1 583e d02c 41be 01e5 5abd
00000170: c9fd 2cbe d348 6bbe 74d0 86bd 08de 80bd
00000180: 87db 4ebd 4a91 203e 0135 193e 19e0 7d3e
00000190: e2f6 243d 7a8d 7f3e 19df 7abd 6de1 573d
000001a0: 1ac6 603e 3844 343d 664f 2abe 0dad 393e
000001b0: d794 0d3e ac24 44be f0aa f23d eff2 4ebe
000001c0: 7c39 ff3d 9124 3fbe 2c4d 8ebc 3c09 db3d
000001d0: 1217 73be 4245 323e d03d 8bbd 87f9 cabc
000001e0: ee8b 06be 605f 2a3e 215f ab3d e389 7abe
000001f0: b6d8 9cbe 104d 96be 888e 7f3e aeb9 63bd
00000200: c547 353c 78b8 563e 148a 7f3e fb3e 36be
00000210: a36d 33be 9347 f53d e294 e3bc 9452 79be
00000220: 070e 7abc 7e55 a93d 64c3 a8bd 9739 363e
00000230: 2d09 50be ea72 c9bd c637 563e 13f1 17bd
00000240: e6dc 983e e3f9 d5bd a6d3 453e d442 29be
00000250: 2376 5ebe 1dee 24be 89f1 a13d 1767 aa3d
00000260: 2aad f3bd db63 e5bd 217b 9d3c e30c d3bd
00000270: 06d8 90bc c8f5 343c da09 b73d d800 093e
00000280: 08fa 5f3e d125 aebd 66fa 7dbe 0c0e 413d
00000290: 3321 603e 9b39 c73d 3a8a 583d b475 1a3e
000002a0: f2cf 973c f5a4 9ebd 460c f1bd 1c59 263e
000002b0: a77e 01bd fca7 1f3d 9778 043e 8e1c 48bb
000002c0: 8593 1bbe 2fb4 dd3d cb58 403d 064d 0d3e
000002d0: 33bc 963d a4e9 16bd 8d43 23bd 98d8 01be
000002e0: 9c63 99bd 74ac 1ebe c797 b6bd e78f 3c3d
000002f0: 9bb5 803e e891 22be ee45 80bd 8f17 6b3e
00000300: 6bbc 5b3e 26ed 9b3d 5545 04be 0af9 5d3e
00000310: 94cc 93be dcc6 16bd 84b8 173e c478 313e
00000320: e90e 753e 954e 93bd d11b 15be 6de4 2cbe
00000330: 039c f93b 23d8 d1bd b26c 8c3d 67ac 9e3d
00000340: 1259 943d a9bb ef3d 89eb e93d 7503 3f3e
00000350: 4970 eebd 0373 0ebe 9db8 48bd d193 b33c
00000360: a339 313e 3a11 483d 8cbb de3d 69da e0bd
00000370: 886a d43c 9e76 593d b6a1 10be 4e22 10be
00000380: f06c 8e3e 6089 2e3e d02c 52be d021 32bd
00000390: 145c 703c 69ca 2e3e a3ef e7bd a77e b6bd
000003a0: 44a6 00be 43ee 233e 8427 0ebe 55dc 053d
000003b0: beca 233e a55e 09ba 8784 913e 1b78 30be
000003c0: c755 3cbd 4628 b23d 7393 093d 998a f43d
000003d0: 6cd3 963e cebb 90be 3cbb 22bd 4b4f 043e
000003e0: f556 803c bd4a 62be 0189 1abe 6778 3cbd
000003f0: 869b c8bc ef26 77bd db40 53bd 5723 86bc
-0.17447561 -0.22602761 -0.097749 0.13551015 0.10421558 -0.07465984 -0.2670086 0.20009516
0.057711087 0.19525298 -0.18960148 -0.1608944 -0.046048116 -0.13244413 0.13360292 -0.08408207
0.14410016 -0.12932476 0.18406056 -0.20549004 -0.17385493 0.259699 0.055161186 0.08208859
-0.20070976 0.28298518 -0.018143306 0.065574616 0.09018612 -0.16114314 -0.18307701 0.11302679
0.1560494 -0.15460539 -0.11826728 -0.21055299 0.027490785 0.05896469 -0.17053346 0.15533173
0.13509388 -0.074756436 -0.06444232 0.15511364 -0.095429845 0.15649638 -0.19961843 0.1704574
0.1698705 -0.20667648 0.1576316 0.23860814 -0.010963846 0.17026535 0.20886013 0.14080107
-0.16795029 -0.06450117 -0.1358165 -0.1710316 0.12178949 0.014871626 0.02924958 0.015134793
-0.07338207 -0.009588719 0.055726625 -0.03843113 0.029123688 -0.08182567 0.302803 0.13646787
0.029130397 0.1281273 0.050881393 -0.3039538 -0.2943976 0.09654986 0.038373444 -0.10379748
0.07556422 0.20437966 -0.017975671 0.02373712 0.029161777 -0.05164637 -0.060259454 0.18871026
0.040898602 0.21173815 -0.18864751 -0.05344105 -0.16893686 -0.22976999 -0.06582728 -0.06292349
-0.050502326 0.15680423 0.14961626 0.24792518 0.04027451 0.24956313 -0.06124792 0.052705217
0.2195057 0.04401037 -0.1663185 0.1813242 0.13826309 -0.19154614 0.1184901 -0.2020986
0.12462136 -0.18666293 -0.017370783 0.10695121 -0.2373927 0.17409232 -0.06798899 -0.024777187
-0.13139316 0.16637945 0.08367754 -0.24466662 -0.30634087 -0.2935567 0.24956715 -0.055597
0.0110644745 0.20968807 0.24955016 -0.17797463 -0.17522292 0.11976542 -0.027780954 -0.24347907
-0.015262133 0.082682595 -0.08240393 0.17795406 -0.20316 -0.09836371 0.20919713 -0.03709514
0.29856032 -0.10448053 0.19319019 -0.16529399 -0.21724753 -0.16106458 0.07907397 0.08320444
-0.11898263 -0.112006865 0.019223752 -0.10305192 -0.017681133 0.011044927 0.08937426 0.13379228
0.21872723 -0.08503307 -0.2480255 0.047132537 0.21887664 0.09727784 0.052866198 0.15083963
0.018531773 -0.07746307 -0.11769919 0.1624493 -0.031614926 0.03897856 0.12936626 -0.0030534598
-0.15192993 0.10825383 0.04695968 0.13798913 0.07360115 -0.03684391 -0.039859343 -0.1268028
-0.07489702 -0.15495473 -0.08915668 0.046035673 0.25138554 -0.15875971 -0.06263338 0.22958206
0.21458595 0.07613592 -0.12917073 0.21677032 -0.28867018 -0.03681074 0.14816481 0.17331225
0.23931469 -0.07192723 -0.14561392 -0.16884013 0.007617475 -0.10246303 0.068566695 0.07747727
0.07243551 0.11705715 0.11421878 0.18653663 -0.116425104 -0.13911061 -0.049004186 0.02192107
0.17307143 0.048844554 0.108756155 -0.109791584 0.025929704 0.053091638 -0.14124188 -0.14075586
0.27817488 0.17044592 -0.20524907 -0.043489277 0.014670391 0.17069401 -0.11325004 -0.08910876
-0.12563425 0.16008858 -0.13882262 0.032680828 0.15995309 -0.00052402384 0.28421423 -0.17233317
-0.04598024 0.08699088 0.033587884 0.11940498 0.29458177 -0.28268284 -0.039729342 0.12920873
0.015666464 -0.22098823 -0.15091325 -0.046013262 -0.024488222 -0.060339864 -0.051575523 -0.016374273

glu_encoder.rnn.bias_ih_l0 f4 [48]
00000000: 6a84 3a3e 471f 1dbe eac0 ffbc 1622 173d
00000010: 0b3b 41be 3e73 e0bd aa4d 713d 0d0a 9cbd
00000020: cf38 023d 390e f23d 2d92 98bc b9a4 f9bd
00000030: 695d 39bd 81f0 ab3d 7f95 94bd 1e50 05be
00000040: a7fd 773e b309 33be 547f 913e b814 58be
00000050: 79d1 8a3e 9b6a 8abe 7b08 8a3e 08f1 c4bd
00000060: 6ef2 133d fc89 a23d 3ed4 563d 6066 663e
00000070: 06c9 213c 53d2 ce3c 4820 e53d 8845 983d
00000080: b701 813e 3c4c 593e b2bb 38be e32c 3bbe
00000090: 1d62 0fbe 061d 0bbe 17f0 64be 5063 07be
000000a0: 720d a5bd 260a 553e 8b95 b5bb 6d5d fdbd
000000b0: 092e cc3c 3bf6 87be ec24 17bd e198 e4bd
0.18214574 -0.15343963 -0.031219918 0.03689774 -0.1887018 -0.10959481 0.058911957 -0.076191045
0.03179246 0.11819119 -0.01862439 -0.121896215 -0.0452551 0.08395482 -0.072550766 -0.13018844
0.24217854 -0.17484169 0.28417456 -0.21101654 0.2711294 -0.2703446 0.26959595 -0.096162856
0.03611987 0.07936475 0.052448504 0.2249999 0.009874588 0.025246775 0.11187798 0.07435137
0.2519662 0.21220487 -0.1804035 -0.18278842 -0.14002271 -0.1358529 -0.22357212 -0.13221478
-0.08059205 0.20804653 -0.0055415086 -0.12371335 0.024924295 -0.26555046 -0.036900446 -0.11161972

glu_encoder.rnn.bias_hh_l0 f4 [48]
00000000: 6974 2dbd 90e8 943e 4175 5c3e 834f 66bd
00000010: eaa8 17be bc14 4fbd 6018 33be adf3 0bbe
00000020: 1d61 d8bd 53a8 aabd fbb9 2e3c b567 50bd
00000030: e56b 8a3e 93a3 3fbe 67c7 953d 3ffa c83d
00000040: bb85 46bd 65f0 5d3e 5127 b53e 46ef 523e
00000050: f39e 0abe 238b 43be 36fe 4f3e c605 dc3d
00000060: 44ee 053e b02f b6be 12cc 133e 478c 623e
00000070: d1de 313e fc6a 893e a5cb c43d 915f b53e
00000080: a105 e33d ace0 8a3c 52f1 f83d 44c0 f33d
00000090: 9f8d 66be de28 cabd fddb 7fbe 9059 2f3e
000000a0: 007b 133e b691 d5bd 7e57 dfbd f229 37be
000000b0: 1890 9ebe d8fc 78be 286f ad3d 1e82 4cbe
-0.042347346 0.2908368 0.21529104 -0.056228172 -0.1481053 -0.050556883 -0.17489767 -0.13667174
-0.10565398 -0.083328865 0.010664458 -0.050880153 0.27035442 -0.18714742 0.073134236 0.09813356
-0.04846738 0.21673734 0.3538156 0.20599088 -0.13537197 -0.19096045 0.20311818 0.10743289
0.13079172 -0.35583258 0.14433315 0.22123824 0.17370154 0.26839435 0.096091546 0.35424474
0.11085058 0.016952835 0.12155403 0.11901906 -0.22514962 -0.09871076 -0.24986263 0.17124009
0.1440239 -0.10428183 -0.1090536 -0.17887095 -0.3096931 -0.24315202 0.08468467 -0.19971511

glu_encoder.hid2lat.weight f4 [64, 16]
00000000: b781 70be 3d72 3dbe 288a 9fbd b03d 2a3e
00000010: ffc0 d03c 9a09 233e fa4e 0abe 653a 803d
00000020: da58 0fbd 3251 6ebe 9887 05be 4508 a8bd
00000030: a5dc 433e 49a1 3cbe 1a7f 25be 5bad 00be
00000040: c28c 063e 7f5a 1c3e bd20 6bbe fa12 c73d
00000050: 8b7a 753e 9cb7 92bb 3063 403d f812 b8bd
00000060: 34d3 203e bf97 1cbd f6a7 32be 742f 9abd
00000070: 2e77 123e bd8d d43d eff0 4fbe ee5e b6bd
00000080: 1a16 ddbd 382d 53bc b659 f4bc 65bd 813e
00000090: 9d98 92bc 40fe ae3d b0b7 733e 8fcf 613e
000000a0: fe1f 0fbd a248 7b3e 5c19 4bbe c83e a43c
000000b0: d6e2 a93d b9b7 dbbd f83e fc3d 03ab 46be
000000c0: e3c7 233e 0bb6 cbbd ada5 643e 9fdd 793d
000000d0: 68cb cdbd 45d8 283e de3b 89bc 74ad 823e
000000e0: 6f38 3fbe 5a4a d3bd aefd 82be 14db 3a3d
000000f0: b19f 8b3c 61df aabd 95ca e73c f642 debd
00000100: 80b4 673e 0897 f23d 5a53 53be 68b6 b13c
00000110: ed4f 413e 02a2 523e 6cb2 4f3e 4a33 ffbc
00000120: cdbb f73d dbf2 c3bd 6936 453e eb71 96be
00000130: 3951 63be b38f fdbd 118c c0bd 905d 6e3e
00000140: 4a82 05be 3c1c 35be acc8 8f3e ea28 7b3e
00000150: 78f6 203d 4500 5e3e 4e9f 453e 9d9d 70be
00000160: 24aa 8fbd 5f37 133e a31c e5bd 3419 1f3e
00000170: fd12 1bbc c47b b3bd 994f 12be 5b52 e43d
00000180: 876c 1a3d 3954 1ebe f096 a23d 4b8c 4c3e
00000190: 5181 6e3d b800 34be 1eaa 153e c759 4d3e
000001a0: 28ab c9bd a00a 113e 2f4c 853d 0f40 bd3d
000001b0: 2840 bdbd 15db ffbc a154 18be bbe3 1abd
000001c0: 11c6 f2bd 3767 d03d 5a46 3b3e 621a b3bd
000001d0: e4f8 02bd e948 20be 6c1e d0bd 1488 173d
000001e0: 90b3 dbbd 92ab efbd 64be 87be cb3d 0c3e
000001f0: 40d2 4c3e fd2b 133e b1d4 fe3d f280 543e
00000200: 52fc 423d da8c babd a0e5 1abe f9f4 643e
00000210: b87e 263e 6f85 47be 69ae 39be f3af 42be
00000220: 74db 3cbd 8697 173e 9b9e 383e 7cae 64be
00000230: 56e4 c43c 9604 593e 93c4 1bbe f35a 9d3d
00000240: 5656 2d3d 9008 6fbe 72a0 d03d 4c8e 353d
00000250: 515c 2d3d 5fcf 363e 0909 ebbd 26f6 c83d
00000260: 009b 19be c98b f2bd 1e1c 2ebd 63cb a93d
00000270: b7ae c2bd ed1f 9e3d 3a62 c33d fc2e 3a3e
00000280: 55fd 0b3e 8827 60be 6633 dd3d 10ed 903e
00000290: f737 143e c07f 283e d866 c63d f8a5 8bbc
000002a0: c69b 263e 5db2 5ebc a7ce 01be a1ce 1dbe
000002b0: c1f5 24be 7019 d5bc efeb 6b3e 67d8 24bd
000002c0: 953d 09be 4ffa 09be eb65 47be f9bf 7cbb
000002d0: f416 f93d 2a87 55bd 8f68 e43c ba5c 02be
000002e0: dfab 7abe 6cb5 583e 0aaa 043e d852 7b3d
000002f0: e72b 7fbe 50b4 4f3d 8e05 7cbe ce67 44be
00000300: d7e6 663d 2345 dfbd 2411 233e 823d 473e
00000310: da1c 1cbe 0f0d 38bd 48ce 53bd ba92 253e
00000320: 0857 8b3e 436a 5c3e 0be5 753d 5fd9 293e
00000330: bf22 193e a7cf 70be 56e2 063e dbaf fbbd
00000340: 94df 81bd ebc4 393d f394 9abd 97c8 43be
00000350: c15d 6abe f858 26be 023a 80be afc5 373e
00000360: b7fd 763e 8819 23be e4a2 243e b1b3 083e
00000370: e95d d6bd 3541 7cbc 8916 43be 5e3f 683e
00000380: 8eb4 283e 54a2 a6bd f2ec e63d 4068 c23b
00000390: dacf 243c e57b 0a3e d8a0 693d 7d84 92be
000003a0: f0ac 88be 30aa f2bc d7f1 87be efab 333d
000003b0: 2821 e93c a30b fe3c c7e2 87be 15cd 253e
000003c0: 3ce9 52be 10c6 b33d 8faa 28bc 4e34 3abe
000003d0: 1208 483d ff8d 593e 378f cfbc fa19 c23d
000003e0: d41a f5bd 605d 5cbc 0fe5 ee3d d121 33be
000003f0: 593e 8ebc b623 2b3c 63de 83bc 7042 7fbd
-0.23486982 -0.1850061 -0.07790023 0.16625094 0.025482653 0.15921631 -0.1350669 0.06261138
-0.034996845 -0.23273161 -0.13040006 -0.08204702 0.19127138 -0.184209 -0.16161767 -0.1256613
0.13139632 0.15268897 -0.22961707 0.09720416 0.23972528 -0.0044774543 0.046969593 -0.08987993
0.15705568 -0.038230654 -0.17446885 -0.07528582 0.14303276 0.10378597 -0.20306753 -0.08904825
-0.10795231 -0.012889199 -0.029827934 0.2533981 -0.017895037 0.08544588 0.2380054 0.22051834
-0.03494262 0.24539426 -0.19833893 0.020049468 0.08295219 -0.10728402 0.12316698 -0.19401173
0.1599422 -0.09946831 0.22328825 0.06100237 -0.10048562 0.1648875 -0.01675218 0.2552296
-0.18673871 -0.10316916 -0.25584167 0.045619085 0.01704392 -0.083433874 0.02829484 -0.108526155
0.22627449 0.11845213 -0.20637265 0.021693423 0.18878146 0.20569614 0.20282906 -0.031152386
0.12096367 -0.095678054 0.19259037 -0.29383788 -0.22198953 -0.12380924 -0.094017155 0.23277879
-0.13037983 -0.17686552 0.28082788 0.24527326 0.03929755 0.2167979 0.19299051 -0.23497625
-0.070148736 0.14376591 -0.11187103 0.15536958 -0.009464976 -0.08763841 -0.14288177 0.111485206
0.037701156 -0.15461816 0.07938945 0.19975393 0.058228794 -0.17578399 0.14615676 0.20053779
-0.098470986 0.1416421 0.065086715 0.09240734 -0.092407525 -0.031232396 -0.14876033 -0.037814837
-0.118541844 0.10175937 0.18288556 -0.087452665 -0.03197564 -0.15652813 -0.101620525 0.03699501
-0.10727608 -0.11702646 -0.26512444 0.13695447 0.20002079 0.14372249 0.124429114 0.20752314
0.047603913 -0.091088966 -0.15126657 0.22359075 0.16259277 -0.19484495 -0.18132938 -0.19012432
-0.046107724 0.14803895 0.18029253 -0.22332186 0.02403466 0.21193156 -0.15211706 0.07683363
0.042318664 -0.2334311 0.101868525 0.044325158 0.042324368 0.17852543 -0.11476333 0.09812574
-0.15000534 -0.11843068 -0.042507283 0.08290746 -0.095059805 0.07720933 0.095402196 0.18181986
0.13670857 -0.2189008 0.10800819 0.28305864 0.14474474 0.16454983 0.09687585 -0.017046914
0.1627036 -0.01359233 -0.12676488 -0.15410854 -0.16109373 -0.026013106 0.2303922 -0.04024544
-0.13402398 -0.13474391 -0.19472472 -0.0038566573 0.12162581 -0.052130856 0.027881889 -0.12730685
-0.24479626 0.21162957 0.1295549 0.061358303 -0.24919091 0.05070907 -0.24611494 -0.19180223
0.05637249 -0.10901859 0.15924507 0.19457057 -0.15245381 -0.04493433 -0.051710397 0.16169253
0.27214837 0.2152491 0.060032886 0.16586827 0.14954661 -0.23516713 0.13172278 -0.12289401
-0.06341472 0.04535381 -0.07547941 -0.19119488 -0.22887327 -0.16244876 -0.25044256 0.17946504
0.24120222 -0.15927708 0.16077763 0.13349797 -0.10467131 -0.015396406 -0.19051565 0.22680423
0.16475126 -0.081364304 0.112756625 0.0059328377 0.010059321 0.13523825 0.05703816 -0.28616706
-0.2669444 -0.029622167 -0.26551697 0.04386514 0.028458193 0.031011408 -0.26540205 0.16191514
-0.20596784 0.08778012 -0.010294571 -0.18184015 0.04883582 0.21245573 -0.025336845 0.09477611
-0.11968008 -0.013449997 0.11664783 -0.17493369 -0.017363714 0.010445526 -0.016097253 -0.06231922

glu_encoder.hid2lat.bias f4 [64]
00000000: 7534 d53c f907 8cbd 2f5e 45be da5f 8b3c
00000010: 4a83 473d f522 2a3d 214e 463e 7d51 b7bd
00000020: ab26 883c d9f5 043e 2c93 7d3e 54d7 df3d
00000030: d574 7e3c 0990 00bb ae88 43bc 73d0 48be
00000040: 38ab 39bd e7ca 7e3d adda 533a e3a2 603e
00000050: 524f a4bd d0a2 443e db33 e43d f15b 9b3d
00000060: 3a68 223e 92a6 a13d 2cdf 883d 34c5 d33c
00000070: 2fc5 20be 94d1 633e 9927 1cbe 616d 2bbd
00000080: bb1f 75be 49f3 86be 6a1a 3f3e 3419 eabd
00000090: 7b3b 753e 5b2e 4bbd c503 5fbe 9a3d f1bd
000000a0: 2a24 1dbd 516b 053c e5e3 103e 8cba 8d3c
000000b0: ba44 8b3e bef7 043e 781c e03d 6c4d 543e
000000c0: 246a 28be 6acc b23b 8def 4d3e d5f6 5e3e
000000d0: fc1c 913c 4686 cfbd 87ba 433d 6988 5ebd
000000e0: 043f 86be 7f3c 43be 93ba 7abe 39e7 65bd
000000f0: ad48 59be 8ea7 e5bc 8e8f 043d 934e 473e
0.02602599 -0.06837458 -0.1927421 0.017013479 0.04870919 0.041537244 0.19365741 -0.089510895
0.01662 0.12984408 0.24763173 0.109297425 0.015530785 -0.0019617102 -0.011934442 -0.19610767
-0.045329303 0.06220522 0.00080815965 0.21937136 -0.08022942 0.19202733 0.11142703 0.07585896
0.15860072 0.07893099 0.06683192 0.02585087 -0.1570022 0.22247916 -0.1524948 -0.04185236
-0.23937885 -0.26357487 0.1866242 -0.11430588 0.23948471 -0.049604755 -0.21778782 -0.11779328
-0.038364567 0.008143262 0.14149435 0.017300867 0.27200872 0.12985131 0.1094293 0.20732659
-0.1644674 0.005456497 0.20110913 0.21773846 0.017714016 -0.101330325 0.04778531 -0.05432931
-0.26219952 -0.19066046 -0.24485235 -0.056128714 -0.2121913 -0.028033998 0.032363467 0.19463567

encoders.weight_ih_l0 f4 [192, 64]
00000000: 0422 acbd a1bd 08be 70f1 81bd d835 323e
00000010: fca2 373d e1d2 7d3d 9279 c43d a049 9e3c
00000020: a8ab 603d 5f25 0ebd 66a3 1a3e 5c5b 0ebe
00000030: fd4b 86bd acd3 24bd 07be e3bd e828 473d
00000040: 0302 603d fc5f 693d d467 92bd b4d1 e13d
00000050: 1f75 1b3e c430 21bd 61bc 4e3d e11b 0f3d
00000060: b503 3e3d 036a 293e f747 04be 1109 e0bd
00000070: 3912 17be 28f7 7dbd e7fd b73d acf6 c1bd
00000080: 29aa 2abd e03e 2e3d a631 b63c a72c 5ebd
00000090: 8b34 26be a302 9dbd 6b05 f9bd d6ac 193e
000000a0: bc94 86bc 66cc 9bbc 35e6 1f3d 6a18 303e
000000b0: c562 17bd feb2 993d c77c 87bd 4ef9 4bbd
000000c0: 430f 26be 422e e6bd f01a c7bd 920c aebd
000000d0: ce1e d23d 4e70 d93d f93e 963d 8763 2bbe
000000e0: 1489 a4bd e4fd b8bc ac87 1ebe 7dc9 36be
000000f0: 7b58 9abd 0b98 963d 869b 28bd 97aa 1c3e
00000100: f78d 12bd 8131 433d a1bb c3bd 242a c0bd
00000110: 8914 c6bd aff0 763d e609 723d 7b27 263d
00000120: 8129 1ebb 11af dfbd 58f1 f13b 7754 56bb
00000130: 4ee6 653c d09e 2cbd 37aa 16bd 00fb bbbc
00000140: 3840 6a3c e065 01be 3b0b 0cbe 5b49 e53c
00000150: c851 a93d d4c0 bf3d de29 863d aab4 b8bd
00000160: 514f bb3d 343a 6b3d f26c b33d c9c8 b0bc
00000170: 4540 173e 0f8f 763d 221e 343d 5ad6 46be
00000180: 8384 cdbd 9c1b 35bd b3c8 b53d 87e1 493d
00000190: 89f9 be3d 811c 063e 91c6 85bb 58c5 cabd
000001a0: f3c3 913d 3349 83bc 6b9d b8bb fece 49bc
000001b0: 0d34 e73d f552 02be 0f89 c13d ce8f 38bd
000001c0: edf7 debd b1c9 833d b063 66bc 9891 043e
000001d0: 94d1 953d 055a f0bd 4799 c6bd 11f6 11be
000001e0: 7337 bbbd a55b 2b3d ba18 a1bd 6b3a 43bd
000001f0: 0541 023e 8719 35bd 062f 92bc 5291 b1bc
00000200: c5b8 96bd 52ce 8dbd 63f2 00bd 1bba e5bc
00000210: 57c2 72bc 0369 493c aa27 30bd 734d 0bbd
00000220: b1b2 16be 4fd9 afbc 0deb 17bd 80f4 23bd
00000230: 2465 133e 4c00 fcbc b179 acbb 0b61 97bd
00000240: 1cb0 8e3d 9b0c 013e 73f0 e83d 4561 0dbd
00000250: 961c 1a3c b581 5dbd a48c 1f3e b819 2dbd
00000260: ffe9 1b3d c868 e83d 441f 19bd 06ca 9bbd
00000270: afbb 133d b9bd 193d 6394 383d a27b 093b
00000280: 7b37 2cbe 26b2 e7bd b49d 1a3e e7ec 7a3d
00000290: 50d0 a6bd bff0 333d 18a3 0bbe 855f 903d
000002a0: 051c 2fbd 2b1a 4bbd 9fa0 36bd a564 aebb
000002b0: 4ad1 0c3e 7814 c43d 2ccd 143c ca11 54bd
000002c0: 37a1 1ebd 322c 7bbd 2e69 5bbd a353 0d3c
000002d0: 38b1 1ebd 1923 7abd f17a 6fbc c517 6dbc
000002e0: 99bb a4bc a473 66bd b73d 21be 0241 14be
000002f0: a636 85bd 8e77 64bd 78b3 0dbe bb58 be3d
00000300: aad9 4bbb de4f 8f3d 80ce 163e f4ed c73c
00000310: 7b69 023e bdc9 c6bd abf6 113e 3cec f2bd
00000320: 593f a8bd a3b5 853b d9a8 ab3d efef dfbd
00000330: c4e8 0f3e 9802 da3c 0ed0 9ebd a428 4a3d
00000340: 9df0 e73b 688b 463d e186 75bc f542 96bd
00000350: 76f4 043e 88a6 553d 49c2 c8bd 1d92 81bd
00000360: a418 903d 25a9 4a3d cd4a 4b3c 7482 13be
00000370: 3801 7b3a f060 7abd e095 643d 5a47 31be
00000380: e347 4dbd be25 ca3d a84e d8bb 1ea1 b9bc
00000390: 73f4 3dbd 448d 07bd 7ea6 a73d 73bb 4cbd
000003a0: 3807 85bd 1380 863d 2b07 8e3d b4dd 113d
000003b0: ffeb 063e ec7e 443d f54e 51bc 964e 3d3d
000003c0: 4308 a03d 4879 493d 78e6 b4bd bbe6 73bd
000003d0: c579 6c3b 5569 ba3d e78d 81bd 76ab ba3b
000003e0: 95e4 f83c 973f 5fbd 1756 2d3d a9d2 05bc
000003f0: a4f1 dfbd b2eb c93d f118 0dbe a0c5 293e
-0.084049255 -0.13353588 -0.06344879 0.17403352 0.04483317 0.061968688 0.095935 0.019322217
0.054851204 -0.03470361 0.15101394 -0.13902038 -0.06557462 -0.04024093 -0.11120229 0.048622996
0.05468942 0.056976303 -0.0714871 0.11026326 0.15181397 -0.039353147 0.05047262 0.034938697
0.046390254 0.16544347 -0.12918077 -0.10939229 -0.14753045 -0.062003285 0.08983975 -0.09470877
-0.041666184 0.04254043 0.022240471 -0.054241803 -0.16230981 -0.076665185 -0.121592365 0.15007338
-0.016428344 -0.019018363 0.039037902 0.17196813 -0.03695943 0.07504843 -0.06615596 -0.049798302
-0.1621676 -0.11239292 -0.09721935 -0.08498491 0.10259782 0.106171235 0.0733623 -0.16737185
-0.08033958 -0.022582002 -0.15481442 -0.17850299 -0.075364076 0.07353219 -0.041163944 0.1529945
-0.03577992 0.047654632 -0.09557272 -0.09383038 -0.096718855 0.060288128 0.05909147 0.040564995
-0.0024133625 -0.10922063 0.0073835067 -0.0032704154 0.01403196 -0.042143643 -0.036783423 -0.022946835
0.0142975375 -0.12636518 -0.13676159 0.02798908 0.08267552 0.09362951 0.06550954 -0.09018834
0.09145988 0.057428554 0.08761014 -0.021580117 0.1477061 0.060195025 0.04397405 -0.19417706
-0.1003504 -0.044215783 0.08876171 0.049287345 0.09324939 0.13096811 -0.004082509 -0.099009216
0.071174525 -0.016026115 -0.005634 -0.012317417 0.11289225 -0.12726958 0.0944997 -0.045059018
-0.10887132 0.06434954 -0.014061853 0.12946165 0.073153645 -0.1173592 -0.09697204 -0.14254023
-0.091414355 0.041835446 -0.07866044 -0.047663134 0.12720115 -0.044213798 -0.017844688 -0.02167574
-0.07359461 -0.06924118 -0.031481158 -0.028042844 -0.014816842 0.012293103 -0.043006577 -0.03400941
-0.14716603 -0.021465925 -0.037089396 -0.040028095 0.14394051 -0.03076186 -0.00526353 -0.07391556
0.06967184 0.12602465 0.11373987 -0.03451659 0.0094062295 -0.054078776 0.15580994 -0.042260855
0.038064953 0.113481104 -0.037383333 -0.07606892 0.03606766 0.03753445 0.045063388 0.0020978232
-0.16818039 -0.11313276 0.15099221 0.061261084 -0.08145201 0.043930765 -0.13636434 0.07049469
-0.04275133 -0.049585503 -0.044586774 -0.0053220564 0.13751712 0.095742166 0.00908212 -0.051774777
-0.038727965 -0.061321445 -0.053567104 0.008625898 -0.038743228 -0.061068628 -0.014616714 -0.014470999
-0.020108985 -0.056262627 -0.15746199 -0.14477924 -0.06504564 -0.05577808 -0.13837993 0.09294268
-0.003110508 0.06997655 0.14727211 0.024405457 0.1273555 -0.09706447 0.14254253 -0.118614644
-0.082152076 0.0040804907 0.083818145 -0.109344356 0.14053637 0.026612565 -0.07754527 0.049355164
0.007078244 0.048472792 -0.014985771 -0.0733699 0.1298388 0.05216077 -0.09802682 -0.06326697
0.0703595 0.049477715 0.012407971 -0.14405233 0.0009575072 -0.061127603 0.055806994 -0.17312375
-0.050117385 0.0987048 -0.0066011734 -0.022659834 -0.046375703 -0.033093706 0.08186053 -0.049983453
-0.064955175 0.06567397 0.06934961 0.035611823 0.13175963 0.047972605 -0.0127751725 0.046217524
0.07814076 0.04918793 -0.08833021 -0.059546214 0.0036083322 0.09102122 -0.06325894 0.0056967093
0.030382434 -0.054504003 0.04231843 -0.008167901 -0.10934761 0.098594084 -0.13779046 0.16579294
