code/baseline/saved/GAMNet_learning_rate_0.0001_hidden_size_64_epoch_6000_batch_size_32/Epoch_3500_JA_0.7230_DDI_0.0976.model (torch, 455805 bytes, 29 tensors)

lab_embeddings f4 [32, 64]
0.29203427 0.16232581 -0.7418016 -1.650436 -0.66006726 -1.5135726 1.1881309 0.49986407
0.75795716 0.51051253 -1.7291175 -1.3671899 0.5232424 -0.45878565 0.6715919 1.9418739
0.6970836 0.18972194 0.38367736 0.44666627 0.2548047 -0.7724125 -1.0965303 -0.97766405
-0.65389454 -1.0124236 0.71236056 -2.3479192 -0.3584026 0.83781344 1.4282925 0.39045364
-2.2136269 1.72435 -0.26848286 -1.9046549 -0.42577147 -0.6107968 -1.1330844 -0.9295684
0.50554866 0.44479686 1.0079961 -0.45319045 0.4107265 0.9102998 2.256345 0.5617227
-0.29678574 -0.3702792 0.27473283 -0.48671558 -0.80506176 0.18073454 -0.6377767 0.7873363
-0.3002039 -0.18284081 2.5173953 -0.55667675 0.05027704 0.33183664 1.8095856 0.030821774
-0.17770664 -0.6114415 -0.44662455 -0.071534775 0.19782887 0.58245486 1.8676399 0.30653113
-1.0386611 -1.3042064 -1.2980286 0.049653627 -1.5003551 -1.1138377 0.8714335 -0.91110706
-0.12269031 0.56089115 1.485533 1.197211 0.38503918 -0.49047378 0.2074126 2.3035154
-0.037082627 1.021579 0.37084213 0.96846443 0.0459797 1.8627814 0.8469172 0.12039632
-0.8087039 -1.4198358 -0.5457171 0.51752 1.2824602 -0.27187735 0.16149105 0.37649783
0.4255279 -1.1868392 0.74893844 0.69795126 1.5952145 -0.2570469 -1.955511 -0.6189727
0.6841431 -1.6176887 0.7823545 0.59784186 0.536968 -0.4844752 -1.2423762 -0.7407839
-1.9799049 3.3269935 0.1859949 0.39661998 0.68666714 0.95893764 -2.1980987 1.3992885
-0.8915876 -0.25685623 1.6314399 -0.20876908 0.24227744 -1.0297453 -0.9871263 -0.75451314
-0.85831916 0.923914 -0.037518337 1.2215446 -0.32078862 0.5876916 -0.46313953 2.1279411
-0.8077157 0.21360599 0.80968976 -0.3777729 -0.8055131 0.5647494 1.5359244 0.00610596
-1.3852426 -0.18427183 -0.6505418 -0.7948724 0.35779503 -0.27226454 -0.16868731 0.7734851
-0.8069475 1.4407182 0.36393836 0.53877616 0.7547054 0.3362869 0.022497358 1.4397849
2.024215 -0.23179367 0.4382525 -0.22290081 1.2643943 -0.28617483 -0.3921549 -0.6563531
-0.38121903 0.30771846 -1.0425131 0.35981038 -1.3782605 0.34770787 0.084137246 -1.7303116
-0.04403532 0.8432434 0.26991826 -0.07326869 0.3780455 -1.3652499 -0.8910676 -0.51229453
-0.039103884 -0.65421927 0.92604256 -1.0768348 -0.10792208 -2.0019178 -1.4713207 0.15504836
0.2629805 1.1819144 -0.43293926 -1.0295081 0.86801994 1.9842249 0.25006792 -0.10821973
0.26311684 0.6231554 -0.30184597 0.043176886 0.2741123 -1.3723556 -2.5114434 -0.40167585
-0.6067 -0.09321597 2.2413673 -1.7613022 0.57220805 0.041056093 -0.30206406 0.41113305
0.2198472 1.2354364 0.9659058 -1.2594879 0.516911 -0.05421985 1.9410894 -2.1111972
0.76646066 0.3079027 -0.05072557 -0.39953354 -0.76687264 0.6213708 -1.1928607 0.78997666
-0.6392413 -1.282502 0.5438894 0.9451425 1.3597159 0.4870385 -1.8769267 0.7254124
0.6297652 1.4059707 -0.9239057 0.7402969 1.1250516 -0.2290806 0.6679058 2.190333
00000000: 8485 953e bd38 263e b6e6 3dbf 7d41 d3bf
00000010: 2bfa 28bf bfbc c1bf ac14 983f 2fee ff3e
00000020: 7b09 423f f3b0 023f b953 ddbf 1400 afbf
00000030: 37f3 053f f4e5 eabe 72ed 2b3f 538f f83f
00000040: 1274 323f 7846 423e 5c71 c43e 71b1 e43e
00000050: c375 823e d3bc 45bf 1b5b 8cbf 3148 7abf
00000060: a265 27bf 1997 81bf 435d 363f 4f44 16c0
00000070: 8c80 b7be f17a 563f 4ad2 b63f 8ae9 c73e
00000080: 10ac 0dc0 80b7 dc3f 9676 89be bbcb f3bf
00000090: b8fe d9be 2e5d 1cbf e908 91bf 32f8 6dbf
000000a0: a36b 013f 6abc e33e 0406 813f 9408 e8be
000000b0: be4a d23e 6809 693f f567 1040 0fcd 0f3f
000000c0: 4df4 97be 3c95 bdbe c8a9 8c3e c932 f9be
000000d0: 8718 4ebf 7a12 393e 5545 23bf df8e 493f
000000e0: 53b4 99be 9f3a 3bbe 011d 2140 5e82 0ebf
000000f0: 4cef 4d3d 7ee6 a93e 80a0 e73f f27d fc3c
00000100: bbf8 35be 6e87 1cbf f9ab e4be d380 92bd
00000110: a793 4a3e c31b 153f d30e ef3f a6f1 9c3e
00000120: d9f2 84bf 3cf0 a6bf cd25 a6bf 9a61 4b3d
00000130: a30b c0bf 3c92 8ebf 4416 5f3f 503e 69bf
00000140: 0f45 fbbd 9096 0f3f f225 be3f 363e 993f
00000150: db23 c53e 611f fbbe f863 543e cc6c 1340
00000160: f4e3 17bd 1ac3 823f 05df bd3e 49ed 773f
00000170: 3655 3c3d 9f6f ee3f 91cf 583f 5992 f63d
00000180: 3807 4fbf 2ebd b5bf 1eb4 0bbf 317c 043f
00000190: a827 a43f 8233 8bbe e95d 253e 53c4 c03e
000001a0: cbde d93e 59ea 97bf 6eba 3f3f efac 323f
000001b0: fd2f cc3f a79b 83be 2f4e fabf ff74 1ebf
000001c0: 0124 2f3f 6c10 cfbf 6248 483f 2a0c 193f
000001d0: bc76 093f 220d f8be 2f06 9fbf 03a4 3dbf
000001e0: 866d fdbf 76ed 5440 7275 3e3e c611 cb3e
000001f0: 6bc9 2f3f f07c 753f a6ad 0cc0 e31b b33f
00000200: 163f 64bf a982 83be 06d3 d03f 90c7 55be
00000210: 9417 783e b2ce 83bf 4fb4 7cbf c627 41bf
00000220: ceba 5bbf a185 6c3f d4ac 19bd 935b 9c3f
00000230: 683e a4be f572 163f a020 edbe 3030 0840
00000240: 75c6 4ebf 87bb 5a3e d447 4f3f 736b c1be
00000250: 1b36 4ebf 6b93 103f 2c99 c43f 8114 c83b
00000260: a14f b1bf c1b1 3cbe e889 26bf c27c 4bbf
00000270: e930 b73e 4266 8bbe 5ebc 2cbe 1f03 463f
00000280: 1d94 4ebf 7469 b83f 2156 ba3e 3ced 093f
00000290: 6034 413f cc2d ac3e 614c b83c df4a b83f
000002a0: bd8c 0140 525b 6dbe a262 e03e 1c40 64be
000002b0: acd7 a13f 8285 92be 87c8 c8be c206 28bf
000002c0: 242f c3be 468d 9d3e 1271 85bf 1139 b83e
000002d0: d76a b0bf c406 b23e 2650 ac3d da7a ddbf
000002e0: 615e 34bd cdde 573f ba32 8a3e e50d 96bd
000002f0: 2e8f c13e 82c0 aebf 021d 64bf bc25 03bf
00000300: 652b 20bd ea7a 27bf 2011 6d3f b9d5 89bf
00000310: 4006 ddbd 6c1f 00c0 3d54 bcbf ffc4 1e3e
00000320: 61a5 863e f948 973f 37aa ddbe ecc6 83bf
00000330: 8e36 5e3f 15fb fd3f e708 803e 4ea2 ddbd
00000340: 40b7 863e 1d87 1f3f 8e8b 9abe 3fda 303d
00000350: 7358 8c3e 59a9 afbf 7dbb 20c0 75a8 cdbe
00000360: b150 1bbf 04e8 bebd 9072 0f40 5a72 e1bf
00000370: 3a7c 123f 6f2a 283d 24a8 9abe 0880 d23e
00000380: a01f 613e c822 9e3f 9a45 773f e636 a1bf
00000390: 4754 043f a215 5ebd 9e75 f83f db1d 07c0
000003a0: c436 443f 6ca5 9d3e 9ec5 4fbd a98f ccbe
000003b0: c451 44bf 2812 1f3f a9af 98bf e93b 4a3f
000003c0: 51a5 23bf 0729 a4bf 563c 0b3f dcf4 713f
000003d0: 2c0b ae3f 1c5d f93e 223f f0bf a1b4 393f
000003e0: 4b38 213f d9f6 b33f 1585 6cbf 1984 3d3f
000003f0: b101 903f 1b94 6abe e0fb 2a3f 6a2e 0c40

static_ll.0.weight f4 [128, 64]
0.13297787 -0.09607466 -0.100818485 -0.12832871 0.077637486 -0.06443275 -0.14290991 0.019378593
0.06966991 -0.06619924 -0.028659737 -0.07369493 0.17832226 -0.042960912 0.015047845 -0.08221031
-0.1326986 0.10177849 -0.064632945 -0.108995706 -0.047006324 -0.073149145 -0.13406292 -0.10390785
0.10336063 -0.03141425 0.06779129 -0.09872513 0.073744394 -0.06371055 0.078322016 0.12553465
0.103583425 0.09686302 -0.010333698 -0.12382204 0.0365774 0.065303214 0.044438105 -0.05652385
0.013806182 0.06424645 0.06467501 0.046662956 -0.07434969 0.062920354 -0.048869252 -0.08259888
-0.060297545 -0.12716782 0.13549241 0.15610224 0.047903005 -0.017968183 -0.055858213 -0.12511204
0.015670905 -0.0015952274 -0.04159226 0.046684857 -0.13382821 -0.103827074 -0.023190588 -0.011555453
-0.037172385 0.09276637 -0.11617254 0.13105144 -0.054861505 -0.073889084 0.100422494 -0.07594302
-0.083723694 0.055978924 -0.02890712 0.1064608 -0.06851052 0.011321811 0.060350996 -0.10897319
-0.09215755 -0.0919805 0.011948685 0.11675403 0.07414421 0.06598266 0.05713423 0.032153856
0.08095941 0.04219352 0.08714632 0.14844154 0.08926201 0.1298213 0.020729452 -0.13253993
-0.09146691 -0.12904122 0.030548275 -0.03625797 -0.03290824 0.121750906 -0.038558487 0.13106686
-0.04447298 -0.09336265 0.12922463 -0.109578386 -0.08164016 -0.014037807 -0.045295812 -0.021249851
-0.06624667 0.032435082 0.15755475 0.0026367507 -0.13953006 -0.021219553 -0.08116075 0.0053350525
-0.083350554 0.15486789 -0.02007236 0.08266169 -0.00017197385 0.1001609 -0.116344415 0.102855876
0.08396827 -0.0014087934 -0.007227767 0.0071876314 0.08751992 -0.15715125 -0.11193026 -0.029510083
-0.079062864 -0.028633328 -0.081707835 -0.13270797 0.003268644 -0.07719424 -0.092088 -0.016803542
-0.07875779 0.11267534 -0.042392842 -0.10934772 0.050769225 -0.062449064 -0.030426478 0.034123685
-0.062399507 -0.10980876 -0.08786779 -0.056060575 -0.067465074 0.07931326 0.06228802 -0.02937106
-0.13043782 0.08309283 0.018738981 0.028463505 0.03782156 -0.007936087 0.03463609 -0.021613488
-0.022848915 -0.08391083 0.084266104 -0.06419306 0.14354824 0.111516826 0.12666036 -0.044507626
-0.10552069 -0.017751932 0.08288213 0.08748404 -0.0076289056 0.1119707 0.09978066 -0.034927882
0.007941865 0.0009864458 0.02113819 -0.07187903 0.12872028 0.09949909 0.038778666 -0.06963146
-0.08323119 -0.057579093 -0.021978598 -0.034373168 0.1422565 0.10731353 -0.1408243 0.075742066
-0.094138585 0.0824762 0.051189754 -0.0075610317 0.081837736 0.05185772 0.031162595 0.05136682
0.08035813 -0.01939328 -0.023574544 0.057779275 0.092909545 0.09137827 -0.029336024 -0.04006877
0.09583482 -0.01134614 -0.14525878 0.028672604 0.024814188 -0.013594715 0.012764356 0.059577487
0.020127637 -0.0902849 0.004827702 0.04647301 -0.03344347 -0.075120226 -0.11650575 0.0532116
0.12011232 -0.16403471 -0.10597536 0.0981191 -0.038348928 -0.06580827 0.09637199 -0.10179716
0.019024182 0.039190717 -0.15283298 -0.02542617 0.14360239 -0.088903 -0.017767726 -0.06976104
0.027859565 -0.051911566 9.066208e-05 -0.07570324 -0.07203235 -0.087060444 -0.07816428 -0.017378451
00000000: 5a2b 083e cbc2 c4bd ec79 cebd 9a68 03be
00000010: 6700 9f3d 51f5 83bd fa56 12be dbbf 9e3c
00000020: 19af 8e3d 7893 87bd d3c7 eabc 5eed 96bd
00000030: 1c9a 363e c8f7 2fbd 3d8b 763c e15d a8bd
00000040: 24e2 07be 3e71 d03d 475e 84bd 2439 dfbd
00000050: b489 40bd 38cf 95bd ca47 09be a4cd d4bd
00000060: bdae d33d 3bac 00bd 29d6 8a3d 6730 cabd
00000070: 4d07 973d ad7a 82bd 4b67 a03d 288c 003e
00000080: 8c23 d43d 1e60 c63d ac4e 29bc 6996 fdbd
00000090: 2fd2 153d b1bd 853d bb04 363d 8d85 67bd
000000a0: 5333 623c a593 833d 5574 843d a821 3f3d
000000b0: a644 98bd 63dc 803d 202b 48bd 9a29 a9bd
000000c0: 8ffa 76bd 4838 02be 86be 0a3e 44d9 1f3e
000000d0: f135 443d 0332 93bc 95cb 64bd 5f1d 00be
000000e0: 4560 803c f316 d1ba a55c 2abd 9f38 3f3d
000000f0: 430a 09be 4aa3 d4bd 30fa bdbc 1553 3dbc
00000100: 1242 18bd 4bfc bd3d deeb edbd 5932 063e
00000110: 75b6 60bd 2953 97bd 4faa cd3d 0488 9bbd
00000120: 5477 abbd 284a 653d a0ce ecbc 1f08 da3d
00000130: 3e4f 8cbd 1e7f 393c 9b32 773d 562d dfbd
00000140: 19bd bcbd 4660 bcbd 6bc4 433c bd1c ef3d
00000150: ebd8 973d eb21 873d 9505 6a3d c3b3 033d
00000160: 0cce a53d 1dd3 2c3d c579 b23d 0f01 183e
00000170: 00cf b63d e0ef 043e d0d0 a93c 8cb8 07be
00000180: 0153 bbbd 6223 04be 6040 fa3c 3d83 14bd
00000190: caca 06bd 8a58 f93d 81ef 1dbd 6436 063e
000001a0: 4d29 36bd eb34 bfbd 7653 043e a26a e0bd
000001b0: f532 a7bd d4fe 65bc 1a88 39bd 2b14 aebc
000001c0: 56ac 87bd a6da 043d 0856 213e 56cd 2c3b
000001d0: f8e0 0ebe a1d4 adbc 9b37 a6bd aad1 ae3b
000001e0: b2b3 aabd b095 1e3e ca6e a4bc 884a a93d
000001f0: e153 34b9 2821 cd3d fb45 eebd 1aa6 d23d
00000200: 8ef7 ab3d 43a7 b8ba e7d6 ecbb 3986 eb3b
00000210: a53d b33d 42ec 20be b13b e5bd 21bf f1bc
00000220: b6eb a1bd 7190 eabc 7056 a7bd 99e4 07be
00000230: bf36 563b 0418 9ebd a298 bcbd 95a7 89bc
00000240: c44b a1bd 54c2 e63d 1ea4 2dbd b3f1 dfbd
00000250: 64f3 4f3d 97ca 7fbd f340 f9bc 47c5 0b3d
00000260: a096 7fbd 6ae3 e0bd 07f4 b3bd c69f 65bd
00000270: 212b 8abd fe6e a23d b921 7f3d 949b f0bc
00000280: 7e91 05be 932c aa3d 7e82 993c 4c2c e93c
00000290: c8ea 1a3d 5d06 02bc 93de 0d3d c50e b1bc
000002a0: a62d bbbc 71d9 abbd b593 ac3d a777 83bd
000002b0: 4ffe 123e ef62 e43d 41b3 013e a14d 36bd
000002c0: 3b1b d8bd 806c 91bc 1bbe a93d d52a b33d
000002d0: e6fb f9bb e550 e53d cd59 cc3d 8a10 0fbd
000002e0: 991e 023c a14b 813a ff29 ad3c 5035 93bd
000002f0: 40cf 033e 2ec6 cb3d 61d6 1e3d f09a 8ebd
00000300: 1d75 aabd 0ed8 6bbd 760c b4bc e1ca 0cbd
00000310: b0ab 113e 32c7 db3d 3f34 10be a81e 9b3d
00000320: bbcb c0bd 48e9 a83d 59ac 513d 88c2 f7bb
00000330: 8b9a a73d c368 543d b348 ff3c 0466 523d
00000340: ce92 a43d a8de 9ebc 671f c1bc f6a9 6c3d
00000350: 5c47 be3d 8824 bb3d 1a52 f0bc 271f 24bd
00000360: 0c45 c43d 29e5 39bc b8be 14be cfe2 ea3c
00000370: 2047 cb3c 5ebc 5ebc 9721 513c 8607 743d
00000380: b7e2 a43c 4ae7 b8bd b331 9e3b 7c5a 3e3d
00000390: 05fc 08bd a2d8 99bd 919a eebd 68f4 593d
000003a0: 73fd f53d b7f8 27be 9c09 d9bd abf2 c83d
000003b0: c413 1dbd 7cc6 86bd ae5e c53d 087b d0bd
000003c0: 9ad8 9b3c 7286 203d 4080 1cbe 8b4a d0bc
000003d0: 810c 133e c712 b6bd 9f8d 91bc e0de 8ebd
000003e0: be39 e43c 39a1 54bd d521 be38 4d0a 9bbd
000003f0: b285 93bd bf4c b2bd 9814 a0bd 415d 8ebc

static_ll.0.bias f4 [128]
0.112539485 -0.090635285 0.016328136 -0.055269208 0.110468164 0.083775096 -0.07216235 0.1170276
0.019050056 0.13819358 0.13613573 -0.055319387 -0.027417246 0.09539284 0.015469148 0.1144733
0.123480275 -0.07799499 0.028574253 0.07632151 0.09642092 0.0064281216 0.07379057 0.14716133
0.116497524 0.10181774 -0.051331878 -0.08545633 -0.06572322 0.11347521 -0.024254724 -0.06851401
-0.0022080769 0.082097515 0.11639104 -0.08087537 0.12193388 0.10774806 0.010172174 0.06490432
0.008297486 -0.023256928 -0.019569376 -0.079881564 0.0017947723 -0.030506045 -0.058802098 -0.050029635
-0.026940515 0.11114341 0.1127947 0.026442843 0.03552414 0.13704967 -0.032852273 0.07038035
0.13947129 0.09912812 -0.11007707 -0.07874758 -0.027215658 0.105693825 -0.056027286 -0.073167175
-0.053161994 -0.0427312 0.04464053 -0.06986672 -0.0035193344 -0.015586238 0.05049591 0.07313787
-0.009961948 -0.028682074 -0.058899973 0.01758936 0.011758033 0.02074131 -0.03408591 0.009938978
0.006583545 0.09175416 -0.08303835 0.009332231 -0.07136447 -0.007025597 -0.07081109 0.040657453
0.15963018 -0.07294726 0.10078042 -0.035373453 -0.09931147 0.030042844 -0.015923336 -0.0053563
-0.066891246 0.07369188 0.0077098473 -0.0030589188 0.116980195 -0.069397375 0.05761618 -0.051449846
-0.08192131 -0.044235576 0.11886015 0.1041471 0.054702505 0.040693875 0.044816915 -0.01783819
0.118558064 -0.08042995 0.059380613 -0.03627123 0.043966826 0.06267258 0.058602694 -0.10192697
0.07199275 -0.013764355 0.10532087 -0.061873864 0.068643875 -0.123092264 0.12323989 0.019504044
00000000: 1a7b e63d fe9e b9bd 95c2 853c f761 62bd
00000010: 223d e23d 4792 ab3d dbc9 93bd 2bac ef3d
00000020: dd0e 9c3c 9e82 0d3e 2a67 0b3e 9596 62bd
00000030: 229a e0bc 525d c33d 4f72 7d3c fa70 ea3d
00000040: 3ae3 fc3d d6bb 9fbd 8d14 ea3c 744e 9c3d
00000050: 5578 c53d fea2 d23b 831f 973d 76b1 163e
00000060: 4196 ee3d d285 d03d 6041 52bd ba03 afbd
00000070: e599 86bd b165 e83d d8b1 c6bc 1351 8cbd
00000080: 62b5 10bb be22 a83d 6d5e ee3d fca1 a5bd
00000090: 78b8 f93d 04ab dc3d 31a9 263c 8eec 843d
000000a0: 2ef2 073c 5085 bebc f54f a0bc f298 a3bd
000000b0: 913e eb3a d0e7 f9bc 78da 70bd e0eb 4cbd
000000c0: 5bb2 dcbc 289f e33d e800 e73d a99e d83c
000000d0: c381 113d c056 0c3e 1b90 06bd 9323 903d
000000e0: 90d1 0e3e af03 cb3d 1670 e1bd 6946 a1bd
000000f0: 5ff3 debc 0176 d83d de7c 65bd acd8 95bd
00000100: 64c0 59bd e906 2fbd fdd8 363d 4816 8fbd
00000110: a2a4 66bb 6c5d 7fbc cdd4 4e3d 4fc9 953d
00000120: 7037 23bc abf6 eabc 1941 71bd 9017 903c
00000130: c4a4 403c aee9 a93c ab9d 0bbd 18d7 223c
00000140: c7ba d73b 9be9 bb3d 0310 aabd 37e6 183c
00000150: 8927 92bd fb36 e6bb 6805 91bd 6e88 263d
00000160: 1876 233e 6065 95bd f765 ce3d c1e3 10bd
00000170: d063 cbbd 691c f63c a871 82bc e783 afbb
00000180: 47fe 88bd c5eb 963d e3a2 fc3b 2478 48bb
00000190: 5093 ef3d 3620 8ebd f2fe 6b3d 13bd 52bd
000001a0: 5cc6 a7bd 5d30 35bd f36c f33d 134b d53d
000001b0: bc0f 603d 9fae 263d f191 373d 6521 92bc
000001c0: 92ce f23d 75b8 a4bd 1639 733d 2491 14bd
000001d0: 8f16 343d 7b5a 803d 6109 703d 16bf d0bd
000001e0: ef70 933d e483 61bc 78b2 d73d 736f 7dbd
000001f0: 2995 8c3d cc17 fcbd 3265 fc3d f2c6 9f3c

static_ll.2.weight f4 [64, 128]
0.04136776 -0.073254436 0.052970797 0.063439995 0.08042275 0.01330853 -0.0562013 -0.032447163
-0.08210809 0.01060955 -0.021268269 0.0037111496 -0.018734774 0.0070550903 0.04394757 0.075316384
0.050840147 -0.05019534 -0.025839217 -0.052120727 -0.044031814 0.07150766 0.05123448 0.027361156
-0.00034591192 0.063517034 -0.04764695 -0.011095372 0.006111427 -0.0046214443 0.0070364997 -0.083620444
0.08560214 -0.048435647 -0.015291001 -0.070488386 0.103665635 0.033676095 0.0040968014 0.0149348695
-0.043205585 0.03654633 0.003377581 0.07690494 0.038443036 -0.066008374 0.05152602 0.056570064
0.04120174 -0.009590026 -0.028995562 -0.07575068 -0.002655436 0.08208987 -0.035835456 0.07896812
0.031021535 -0.09037519 -0.058079075 0.05503101 0.09643526 0.07606756 0.0065694926 -0.0045783757
0.0044904114 -0.021346984 0.087592535 -0.041357603 -0.023824284 0.05515081 -0.0024526943 -0.0705875
0.027867734 0.017402442 0.008586722 -0.019814514 -0.068589844 -0.029609224 0.036309186 -0.01639917
0.029215362 0.07040341 0.034117352 0.0038723 -0.015899586 -0.013176484 -0.07475031 0.003913561
0.00012698179 -0.047747504 -0.069924705 -0.06529566 0.052581694 0.06686342 -0.041070536 -0.06953759
0.0009792795 0.029414646 0.06289028 0.07568968 0.021830838 0.053616244 0.04194361 0.08514201
0.045392312 -0.048177976 0.07824638 0.037755415 0.01669085 0.07029767 -0.031326223 -0.055197187
-0.009759447 0.049532633 -0.027425079 0.08124245 0.09856401 0.01079534 -0.007871433 -0.023654668
-0.03416284 0.04537405 0.08104987 -0.059310067 0.024260884 0.00694564 0.09296832 0.03781846
0.041917656 -0.038052417 0.02135808 -0.010756151 0.04314504 -0.06808133 0.048675843 0.07057475
0.017077882 -0.020437747 0.052616425 0.12383912 0.002709656 0.043167014 -0.021643406 0.075138465
-0.022415634 -0.013146076 0.06542237 0.04989733 -0.058362324 0.07044346 0.060799394 -0.053330626
0.0077862768 0.03852052 0.030189795 0.0527155 -0.0752168 0.08790026 0.02175432 0.066191226
-0.016208801 0.012798685 0.020416418 0.045299985 0.060079254 0.059731532 0.017105896 0.07160381
0.04335739 -0.03487815 0.013884853 -0.07210537 0.05249561 0.052980296 0.06972165 0.07818946
-0.09913348 0.115463436 0.056508817 0.030791093 -0.0472734 0.06483229 0.033426434 -0.07924421
0.03197844 -0.11920548 -0.08080638 0.006353989 0.120353304 -0.02435588 0.031145943 0.0073327576
0.018968418 -0.026188863 0.09231093 0.02928274 -0.087919034 -0.045290284 0.06326416 -0.09434825
-0.00050881197 -0.007871422 0.028744228 -0.0107649835 0.0155971525 -0.012580131 -0.028724516 0.089039214
-0.02875684 0.06259505 -0.08972192 0.0061669587 -0.081047766 0.038864043 0.085706286 -0.051901456
0.025656376 0.10188522 -0.048397567 -0.06402309 0.06358056 0.07328937 0.00032331565 0.0974019
0.08589148 0.08325954 0.0939803 -0.015133541 0.039500218 -0.038515456 0.0007338422 0.0089557255
-0.042515736 0.033919 0.033405565 0.045345858 -0.044557083 -0.047661018 0.0048145084 -0.0045999344
-0.041912127 -0.08055061 0.010852993 0.02780936 -0.06702778 0.079281285 0.07844927 -0.024221295
-0.064313695 -0.025539428 -0.072978154 -0.009311952 -0.023355236 0.00060211454 -0.009267555 -0.043596793
00000000: 3e71 293d 6c06 96bd e8f7 583d d4ec 813d
00000010: afb4 a43d 050c 5a3c 5633 66bd 51e7 04bd
00000020: 4928 a8bd aed3 2d3c cb3a aebc c236 733b
00000030: ab79 99bc 632e e73b 5e02 343d 7a3f 9a3d
00000040: c23d 503d a199 4dbd c4ac d3bc 8b7c 55bd
00000050: b45a 34bd 9c72 923d 3fdb 513d 8124 e03c
00000060: 835b b5b9 3815 823d 7329 43bd 5dc9 35bc
00000070: 5e42 c83b 7c6f 97bb 7092 e63b 3241 abbd
00000080: 2d50 af3d 7564 46bd 1b87 7abc 375c 90bd
00000090: a64e d43d f2ef 093d 763e 863b 62b1 743c
000000a0: 57f8 30bd 9bb1 153d 685a 5d3b 5680 9d3d
000000b0: 7276 1d3d 662f 87bd f30c 533d 03b6 673d
000000c0: 28c3 283d 7c1f 1dbc 1a88 edbc 2c23 9bbd
000000d0: d306 2ebb bc1e a83d 33c8 12bd 0aba a13d
000000e0: e020 fe3c a116 b9bd 53e4 6dbd 3268 613d
000000f0: d97f c53d 4fc9 9b3d e644 d73b 3306 96bb
00000100: 4d24 933b dfdf aebc b763 b33d 9766 29bd
00000110: 252b c3bc d1e5 613d 62bd 20bb 2e90 90bd
00000120: e04a e43c 918f 8e3c 53af 0c3c 0c52 a2bc
00000130: d578 8cbd 0b8f f2bc f1b8 143d 8d57 86bc
00000140: 0e55 ef3c aa2f 903d a3be 0b3d 6ac6 7d3b
00000150: d93f 82bc 2ee2 57bc b116 99bd 543d 803b
00000160: 6a26 0539 e392 43bd af34 8fbd bbb9 85bd
00000170: e75f 573d b0ef 883d 9439 28bd b969 8ebd
00000180: 2b5b 803a fcf6 f03c 9ecc 803d 3103 9b3d
00000190: 96d6 b23c b59c 5b3d 10cd 2b3d ef5e ae3d
000001a0: 4aed 393d 4556 45bd a33f a03d 6ca5 1a3d
000001b0: 40bb 883c 3af8 8f3d ed4f 00bd 7216 62bd
000001c0: 16e6 1fbc bbe2 4a3d 8faa e0bc 7162 a63d
000001d0: eddb c93d f0de 303c 2ff7 00bc 6fc7 c1bc
000001e0: 56ee 0bbd 24da 393d 79fd a53d 1def 72bd
000001f0: c3be c63c 4098 e33b 2d66 be3d 88e7 1a3d
00000200: d9b1 2b3d dadc 1bbd 24f7 ae3c 913a 30bc
00000210: dab8 303d 396e 8bbd 5260 473d 7f89 903d
00000220: eae6 8b3c 106d a7bc 5284 573d 5d9f fd3d
00000230: 7c94 313b e5cf 303d 834d b1bc 32e2 993d
00000240: fea0 b7bc a462 57bc 2afc 853d 2561 4c3d
00000250: 550d 6fbd a944 903d c908 793d 3771 5abd
00000260: 0624 ff3b b1c7 1d3d 9750 f73c 35ec 573d
00000270: 440b 9abd 0d05 b43d 1e36 b23c 448f 873d
00000280: 52c8 84bc 93b1 513c 5540 a73c 7a8c 393d
00000290: aa15 763d 0da9 743d aa21 8c3c 05a5 923d
000002a0: 8597 313d 64dc 0ebd 4b7d 633c fbab 93bd
000002b0: a305 573d de01 593d 39ca 8e3d cc21 a03d
000002c0: 7e06 cbbd 1878 ec3d ca75 673d 9a3d fc3c
000002d0: c1a1 41bd cbc6 843d 28ea 083d ca4a a2bd
000002e0: d3fb 023d 0122 f4bd d17d a5bd 1f35 d03b
000002f0: cb7b f63d fc85 c7bc c725 ff3c a147 f03b
00000300: a863 9b3c 078a d6bc 830d bd3d 5be2 ef3c
00000310: e50e b4bd 4e82 39bd a490 813d a839 c1bd
00000320: cb61 05ba 23f7 00bc 0479 eb3c 9d5f 30bc
00000330: 338b 7f3c e51c 4ebc ad4f ebbc 315a b63d
00000340: 7793 ebbc d531 803d 20c0 b7bd 3314 ca3b
00000350: 5ffc a5bd e72f 1f3d c786 af3d 9f96 54bd
00000360: 522d d23c 33a9 d03d 873c 46bd 8a1e 83bd
00000370: 8636 823d bd18 963d b182 a939 a67a c73d
00000380: dfe7 af3d fa83 aa3d be78 c03d acf2 77bc
00000390: fbca 213d 62c2 1dbd 515f 403a 09bb 123c
000003a0: fb24 2ebd a6ee 0a3d 46d4 083d 94bc 393d
000003b0: 7d81 36bd 3338 43bd 06c3 9d3b 0cbb 96bb
000003c0: 0dac 2bbd b8f7 a4bd c0d0 313c 74d0 e33c
000003d0: dc45 89bd 3a5e a23d 03aa a03d bd6b c6bc
000003e0: e6b6 83bd 1038 d1bc 9275 95bd 2891 18bc
000003f0: 7b53 bfbc 39d7 1d3a f1d6 17bc 8d92 32bd

static_ll.2.bias f4 [64]
0.055296805 0.039584763 -0.020095896 -0.056032978 -0.032491192 0.036561374 0.02989047 -0.009888852
0.04316363 -0.062234968 0.080530405 -0.028026037 -0.013139297 0.017405963 0.07673856 0.10044532
-0.08270434 0.019692672 0.08762991 -0.06501096 -0.032130692 -0.002189472 0.057218216 0.082730986
-0.034871545 0.08740664 0.057279516 -0.025647072 0.018146142 0.015883598 0.06317972 0.018799903
-0.043644592 -0.07056935 0.092847146 0.0026818777 0.044900835 -0.04887314 -0.018327134 0.022986302
0.031938843 0.061781496 -0.014824401 0.021004472 -0.00789233 0.07537259 -0.022326024 0.0077126706
0.041578356 0.013863484 0.030245151 0.023546493 -0.040637545 0.06436938 0.07580927 0.056907166
-0.026659645 0.08897915 -0.033346828 0.09808776 0.07766046 0.029708013 -0.046655226 0.09925082
00000000: e77e 623d a223 223d 26a0 a4bc d682 65bd
00000010: 7c15 05bd 61c1 153d dcdc f43c da04 22bc
00000020: 59cc 303d 18ea 7ebd 20ed a43d dc96 e5bc
00000030: 3546 57bc f396 8e3c 1b29 9d3d 47b6 cd3d
00000040: e560 a9bd 8752 a13c 4f77 b33d 7724 85bd
00000050: 799b 03bd 3f7d 0fbb a65d 6a3d dd6e a93d
00000060: 77d5 0ebd 4102 b33d ed9d 6a3d cf19 d2bc
00000070: 38a7 943c 521e 823c 5e64 813d 4102 9a3c
00000080: acc4 32bd aa86 90bd a526 be3d 71c2 2f3b
00000090: f0e9 373d 342f 48bd c922 96bc c54d bc3c
000000a0: 4ed2 023d 980e 7d3d 0be2 72bc 9211 ac3c
000000b0: d54e 01bc f25c 9a3d 11e5 b6bc 92ba fc3b
000000c0: 114e 2a3d ab23 633c aec4 f73c 93e4 c03c
000000d0: 8e73 26bd 18d4 833d e441 9b3d 7d17 693d
000000e0: 5465 dabc b33a b63d af96 08bd 3ce2 c83d
000000f0: 720c 9f3d 385e f33c 8d19 3fbd 0444 cb3d

glu_encoder.rnn.weight_ih_l0 f4 [48, 2]
0.17320234 -0.15783823 0.1430207 -0.12054421 0.18397956 0.17457533 -0.0832923 -0.17189398
-0.16032372 0.20987919 0.25866434 0.15941413 -0.18769133 0.017859073 0.30257592 -0.29826626
-0.11702789 -0.21433969 0.2228307 -0.14818722 0.12781188 0.02102335 0.11728583 0.21510589
0.23854847 -0.09801945 0.077308446 0.023650778 0.029730003 -0.048308026 -0.21680482 -0.057768043
0.22482993 -0.10243709 0.046836305 0.22593477 -0.18220171 -0.20406927 -0.013296559 0.2276763
-0.1049046 0.1732744 -0.121201865 -0.048375566 -0.0973614 0.12257981 0.22217764 0.19951263
0.042569056 -0.057592273 -0.34674722 0.2653679 -0.3016654 -0.0025702599 0.034637243 -0.056410164
0.20980072 -0.047456004 0.07356873 -0.039495133 0.22836566 -0.018478831 -0.09277767 -0.08465705
0.13550457 -0.10786998 -0.13815062 0.15115231 0.11300144 0.085794635 0.25468266 -0.08017135
-0.107393205 -0.20560849 0.24796075 -0.21132718 0.16921246 0.016196575 0.11303848 -0.048079893
0.13978784 -0.09598826 0.24568813 0.18994854 0.12668616 0.24879715 -0.055018492 -0.09291127
-0.13657798 -0.09555058 -0.24778011 0.22033365 0.25645486 -0.065311275 0.054002892 0.23108354
00000000: f45b 313e 58a0 21be 0574 123e e2df f6bd
00000010: 2365 3c3e e0c3 323e 2795 aabd fa04 30be
00000020: e72b 24be 92ea 563e a76f 843e 753d 233e
00000030: 2832 40be 314d 923c 3beb 9a3e 5bb6 98be
00000040: 52ac efbd dd7b 5bbe bb2d 643e 64be 17be
00000050: 1ee1 023e 2939 ac3c 8e33 f03d b844 5c3e
00000060: 0d46 743e 6cbe c8bd e453 9e3d 47bf c13c
00000070: 568c f33c a3de 45bd 1502 5ebe 2f9e 6cbd
00000080: d139 663e 89ca d1bd 6dd7 3f3d 725b 673e
00000090: 1693 3abe 89f7 50be d0d9 59bc fa23 693e
000000a0: 39d8 d6bd d86e 313e af38 f8bd 7525 46bd
000000b0: 6a65 c7bd 200b fb3d 8982 633e 0a4d 4c3e
000000c0: e45c 2e3d e0e5 6bbd da88 b1be 4dde 873e
000000d0: e373 9abe ce71 28bb c8df 0d3d 580e 67bd
000000e0: 00d6 563e 3a61 42bd 34ab 963d a6c5 21bd
000000f0: b0d8 693e eb60 97bc 3802 bebd ad60 adbd
00000100: b6c1 0a3e f0ea dcbd 5b77 0dbe acc7 1a3e
00000110: 4d6d e73d 19b5 af3d c465 823e e030 a4bd
00000120: f8f0 dbbd 088b 52be 6ce9 7d3e 2766 58be
00000130: 0846 2d3e aeae 843c b880 e73d 6cef 44bd
00000140: 8b24 0f3e 7e95 c4bd ab95 7b3e df81 423e
00000150: 04ba 013e aec4 7e3e 125b 61bd 4448 bebd
00000160: 19db 0bbe 06b0 c3bd 12ba 7dbe 259f 613e
00000170: 0d4e 833e ebc1 85bd 2332 5d3d 2aa1 6c3e

glu_encoder.rnn.weight_hh_l0 f4 [48, 16]
-0.19461666 -0.21715398 -0.10543595 0.122310475 0.11577574 -0.085674845 -0.27416068 0.17999671
0.044173878 0.18668047 -0.19643764 -0.1449748 -0.02752229 -0.11667174 0.11592402 -0.0952174
0.13062905 -0.112853356 0.1663461 -0.22602339 -0.15761851 0.23429543 0.035503168 0.070219934
-0.21743624 0.2548407 -0.04388958 0.08029357 0.102990866 -0.14452095 -0.19507183 0.10980313
0.15652162 -0.14753453 -0.13143294 -0.22268596 0.035919763 0.042445328 -0.18206571 0.1575045
0.12899286 -0.09250159 -0.08075286 0.16051021 -0.09526586 0.16311671 -0.19986857 0.17298785
0.15184219 -0.19010393 0.13933188 0.22399063 0.006822141 0.15865614 0.19288065 0.12245149
-0.18497698 -0.07356859 -0.14744301 -0.1503325 0.13924785 0.03127406 0.011623185 -0.016442545
-0.083896264 0.006036206 0.041998353 -0.045092672 0.03984955 -0.083266646 0.29011044 0.12570487
0.016642023 0.12932497 0.04641668 -0.2871809 -0.28587863 0.106073655 0.02930401 -0.1343374
0.0817181 0.19185863 -0.00071489846 0.039170258 0.013358231 -0.034451157 -0.0456121 0.19319786
0.05312807 0.22849903 -0.17299674 -0.066918075 -0.17537327 -0.24109256 -0.058990065 -0.047595795
-0.059314184 0.1540035 0.15072216 0.23877479 0.04440711 0.23599598 -0.061350808 0.04415027
0.2164948 0.028743282 -0.17636298 0.1810398 0.1492166 -0.18389954 0.1079661 -0.18550448
0.09719394 -0.17220266 -0.024367254 0.08836737 -0.2243438 0.15862527 -0.07751935 -0.051812872
-0.150649 0.15259859 0.07080368 -0.22555518 -0.28155443 -0.2705284 0.22501837 -0.058529552
0.001722726 0.24462609 0.21616516 -0.19839317 -0.1539847 0.10349891 -0.061530575 -0.24976164
-0.03978437 0.072295494 -0.1045457 0.20668532 -0.19808216 -0.08139984 0.20337407 -0.07999503
0.2452001 -0.053061336 0.1401541 -0.22000584 -0.1621851 -0.21312748 0.028357876 0.033119116
-0.17380552 -0.16084999 -0.029412732 -0.044264086 0.02897067 0.06526574 0.041961107 0.07545987
0.2282929 -0.090472534 -0.24092308 0.059267066 0.21031468 0.11173643 0.060309317 0.1598271
0.026583197 -0.0627667 -0.104968466 0.15604407 -0.04188117 0.028879404 0.13925475 -0.0061801476
-0.13316001 0.11310009 0.043118622 0.14817251 0.069716476 -0.021483397 -0.041185092 -0.10638838
-0.07166762 -0.13791873 -0.079540275 0.04803694 0.22900625 -0.16866057 -0.041371416 0.20960847
0.1868069 0.097383775 -0.14370193 0.19431083 -0.27091548 -0.05678667 0.1315134 0.14392762
0.21541327 -0.089832425 -0.16305472 -0.1428054 0.03477979 -0.07757464 0.0430396 0.062947825
0.06582257 0.14777519 0.07963155 0.16835357 -0.09420804 -0.15434478 -0.08007352 0.018614337
0.15150693 0.036464468 0.088517204 -0.08308122 0.028377552 0.068188 -0.14468516 -0.18715794
0.27429152 0.1690158 -0.20040016 -0.044200882 0.011546363 0.16917193 -0.1107563 -0.093205705
-0.12557508 0.15697885 -0.13993265 0.031147433 0.16442136 0.0016517139 0.2805115 -0.16000961
-0.014755578 0.053679515 0.06695491 0.14711118 0.26233432 -0.259676 -0.009284916 0.16048776
0.04823759 -0.20115252 -0.12806554 -0.08325445 -0.05374492 -0.09049301 -0.022103189 0.034082975
00000000: 9749 47be 9d5d 5ebe ceee d7bd ea7d fa3d
00000010: d51b ed3d 4b76 afbd ca5e 8cbe 0f51 383e
00000020: abef 343d 2a29 3f3e f326 49be 4674 14be
00000030: 6d76 e1bc 98f1 eebd 9369 ed3d 5701 c3bd
00000040: 9fc3 053e a91f e7bd a256 2a3e ad72 67be
00000050: bf66 21be 24eb 6f3e c56b 113d 78cf 8f3d
00000060: 9ba7 5ebe 7b7a 823e 8fc5 33bd f570 a43d
00000070: e0ec d23d 4dfd 13be e9c0 47be 77e0 e03d
00000080: 3447 203e 4b13 17be 5b96 06be ca07 64be
00000090: 9a20 133d 27db 2d3d 6f6f 3abe dc48 213e
000000a0: b416 043e 7971 bdbd c161 a5bd ca5c 243e
000000b0: bf1a c3bd 1108 273e 59aa 4cbe ba23 313e
000000c0: 857c 1b3e 9baa 42be 04ad 0e3e cd5d 653e
000000d0: 448c df3b c176 223e 8182 453e d9c7 fa3d
000000e0: 9b6a 3dbe 21ab 96bd 4dfb 16be c3f0 19be
000000f0: fd96 0e3e 3b19 003d 2c6f 3e3c 84b2 86bc
00000100: ced1 abbd 5ecb c53b 7706 2c3d 18b3 38bd
00000110: 4839 233d b487 aabd 5b89 943e c7b8 003e
00000120: da54 883c c46d 043e 6b1f 3e3d 6009 93be
00000130: af5e 92be 253d d93d f70e f03c be8f 09be
00000140: d25b a73d 9776 443e 0668 3bba fe70 203d
00000150: 7bdc 5a3c a81c 0dbd c1d3 3abd a9d5 453e
00000160: d29c 593d a6fb 693e 0f26 31be 580c 89bd
00000170: 0d95 33be f8e0 76be 919f 71bd cff3 42bd
00000180: 6ef3 72bd 18b3 1d3e e956 1a3e 6181 743e
00000190: 3be4 353d eea8 713e fc4a 7bbd ead6 343d
000001a0: d0b0 5d3e 0877 eb3c 7f98 34be 7f62 393e
000001b0: 3dcc 183e 2950 3cbe 551d dd3d e3f4 3dbe
000001c0: 9e0d c73d e555 30be d69d c7bc f4f9 b43d
000001d0: 62ba 65be aa6e 223e 77c2 9ebd bc39 54bd
000001e0: bb43 1abe ce42 1c3e 8501 913d f0f7 66be
000001f0: e727 90be b382 8abe 376b 663e afbc 6fbd
00000200: 18cd e13a 437f 7a3e 665a 5d3e 9427 4bbe
00000210: 2aae 1dbe 3df7 d33d 7c07 7cbd 84c1 7fbe
00000220: f0f4 22bd a90f 943d 0e1c d6bd 51a5 533e
00000230: 0dd6 4abe f6b4 a6bd 4b41 503e 6fd4 a3bd
00000240: bc15 7b3e d856 59bd 8e84 0f3e 3649 61be
00000250: da13 26be 173e 5abe c74e e83c e9a7 073d
00000260: 13fa 31be dcb5 24be f8f2 f0bc 424e 35bd
00000270: e653 ed3c 0baa 853d 69df 2b3d b48a 9a3d
00000280: 9dc5 693e aa49 b9bd 8ab4 76be 06c2 723d
00000290: bb5c 573e 12d6 e43d e706 773d b7a9 233e
000002a0: 01c5 d93c d48b 80bd b5f9 d6bd 04ca 1f3e
000002b0: 978b 2bbd 8094 ec3c cc98 0e3e d682 cabb
000002c0: 195b 08be 05a1 e73d 279d 303d 89ba 173e
000002d0: 83c7 8e3d f3fd afbc b3b1 28bd 27e2 d9bd
000002e0: 79c6 92bd 913a 0dbe 03e6 a2bd 62c2 443d
000002f0: 9d80 6a3e 5bb5 2cbe 1375 29bd 9aa3 563e
00000300: 4f4a 3f3e 2571 c73d 9926 13be 6bf9 463e
00000310: 6fb5 8abe 2499 68bd 73ab 063e c361 133e
00000320: 4c95 5c3e 10fa b7bd d1f7 26be 943b 12be
00000330: 4175 0e3d 74df 9ebd 4b4a 303d caea 803d
00000340: fccd 863d 6152 173e de15 a33d e164 2c3e
00000350: 25f0 c0bd 8f0c 1ebe 96fd a3bd 187d 983c
00000360: a224 1b3e c45b 153d 8248 b53d 7d26 aabd
00000370: 0a78 e83c 26a6 8b3d 5928 14be 55a6 3fbe
00000380: f06f 8c3e 7a12 2d3e b335 4dbe fc0b 35bd
00000390: f52c 3d3c 683b 2d3e 33d4 e2bd a2e2 bebd
000003a0: c196 00be 10bf 203e 814a 0fbe e728 ff3c
000003b0: 135e 283e 527e d83a 349f 8f3e 8fd9 23be
000003c0: 61c1 71bc 0ddf 5b3d a81f 893d 50a4 163e
000003d0: af50 863e 41f4 84be c31f 18bc e756 243e
000003e0: c794 453d edfa 4dbe 9d23 03be 4f81 aabd
000003f0: a223 5cbd 6654 b9bd bf11 b5bc 979a 0b3d

glu_encoder.rnn.bias_ih_l0 f4 [48]
0.17460045 -0.18026933 -0.042516947 0.027458481 -0.18524013 -0.08735734 0.042528696 -0.096785456
0.06527593 0.071977265 -0.0043783733 -0.092520215 -0.06544465 0.08509351 -0.077126384 -0.131947
0.23557691 -0.19835098 0.1802111 -0.23324215 0.20646617 -0.2150048 0.21218804 -0.09179163
0.021566167 0.1422662 0.050846845 0.20724617 0.012070553 0.0058157058 0.11151379 -0.005047568
0.23593198 0.19869249 -0.16597843 -0.18238875 -0.15697506 -0.15059781 -0.20143357 -0.15535398
-0.07015813 0.2307502 0.0062297243 -0.12638524 0.045143846 -0.24486019 -0.05794058 -0.106659114
00000000: 76ca 323e 8698 38be 4026 2ebd 9cf0 e03c
00000010: 97af 3dbe 68e8 b2bd 9232 2e3d 7437 c6bd
00000020: 63af 853d d168 933d 7578 8fbb 3d7b bdbd
00000030: d807 86bd 8245 ae3d 70f4 9dbd 1d1d 07be
00000040: 133b 713e 851c 4bbe 4289 383e 08d7 6ebe
00000050: de6b 533e 382a 5cbe d247 593e 40fd bbbd
00000060: 88ab b03c 3bae 113e c844 503d 5738 543e
00000070: 92c3 453c ad91 be3b 5861 e43d 1266 a5bb
00000080: 2798 713e 0b76 4b3e 40f6 29be 1ec4 3abe
00000090: 12be 20be 5036 1abe 9a44 4ebe 1d15 1fbe
000000a0: 11af 8fbd c849 6c3e b722 cc3b 226b 01be
000000b0: c1e8 383d a1bc 7abe 1a53 6dbd 1870 dabd

glu_encoder.rnn.bias_hh_l0 f4 [48]
-0.049892865 0.26400703 0.20399418 -0.065667324 -0.14464365 -0.028319411 -0.19128095 -0.15726598
-0.07217059 -0.12954292 0.024910493 -0.021503959 0.25016487 -0.1860084 0.06855862 0.09637505
-0.05506897 0.19322805 0.2498517 0.18376526 -0.20003535 -0.13562107 0.14571023 0.11180411
0.11623805 -0.29293084 0.14273152 0.2034845 0.17589779 0.24896348 0.09572737 0.27484602
0.09774174 0.003818788 0.13492228 0.11439391 -0.23891105 -0.114176355 -0.22570185 0.14804454
0.15526225 -0.08479031 -0.097451724 -0.17891239 -0.28922662 -0.22467287 0.061836027 -0.17928791
00000000: 765c 4cbd ee2b 873e dae3 503e 977c 86bd
00000010: 771d 14be 1cfe e7bc 27df 43be 550a 21be
00000020: 2dce 93bd e6a6 04be 1711 cc3c 1229 b0bc
00000030: 9c15 803e fc78 3ebe 7668 8c3d 4860 c53d
00000040: 0090 61bd 93dd 453e 20d9 7f3e f62c 3c3e
00000050: 11d6 4cbe 40e0 0abe 1035 153e 8ef9 e43d
00000060: 370e ee3d 08fb 95be 3628 123e 3e5e 503e
00000070: 8d1e 343e 48f0 7e3e b60c c43d 9eb8 8c3e
00000080: d22c c83d a244 7a3b 1129 0a3e 5b47 ea3d
00000090: 19a5 74be 4bd5 e9bd 631e 67be fd98 173e
000000a0: 11fd 1e3e 8ba6 adbd c594 c7bd cf34 37be
000000b0: 8315 94be a510 66be c647 7d3d 4097 37be

glu_encoder.hid2lat.weight f4 [64, 16]
-0.24878973 -0.17238894 -0.08527944 0.1578148 0.035497613 0.15588053 -0.14180687 0.050487906
-0.048442785 -0.23456685 -0.1343763 -0.06445193 0.20307387 -0.1705673 -0.17426825 -0.14545481
0.13462792 0.14993398 -0.22718199 0.0964476 0.23783882 -0.006934932 0.048357643 -0.08679791
0.1593787 -0.041069232 -0.1750359 -0.08010758 0.13968258 0.10200692 -0.1994334 -0.076470554
-0.110282764 -0.017251763 -0.024832064 0.2566769 -0.020005882 0.08954991 0.24324186 0.21803135
-0.032556627 0.25027883 -0.1924609 0.01822732 0.085695006 -0.10840891 0.1203899 -0.19470002
0.15408547 -0.10642016 0.23123278 0.06750878 -0.105840825 0.17332448 -0.008477024 0.24821916
-0.18193202 -0.09451574 -0.24846159 0.04133511 0.024528846 -0.08517901 0.020332277 -0.10639152
0.22173287 0.122545354 -0.20969146 0.021268541 0.19212805 0.20757051 0.20090991 -0.03529787
0.117101945 -0.09306361 0.19339418 -0.28741834 -0.21833014 -0.12066325 -0.09803752 0.21878889
-0.1180816 -0.173306 0.27027842 0.24735835 0.040766884 0.21386741 0.18437694 -0.22248562
-0.06807873 0.13903776 -0.11706523 0.15359001 -0.021753032 -0.09557158 -0.13017048 0.10146909
0.037064653 -0.14635062 0.072254844 0.19656134 0.06337554 -0.17729019 0.14006889 0.20137846
-0.10435911 0.14012612 0.060980316 0.10053386 -0.092930995 -0.027432756 -0.14819089 -0.04940581
-0.12022968 0.10590271 0.18267441 -0.09046747 -0.031780228 -0.15705295 -0.10297428 0.03650921
-0.11051671 -0.1170564 -0.2664538 0.1400771 0.20057264 0.14779568 0.123479284 0.21237327
0.045881487 -0.08727876 -0.15347217 0.2232084 0.16469382 -0.19334842 -0.18284348 -0.19078112
-0.04938615 0.150065 0.1805521 -0.21730272 0.025210995 0.21446687 -0.15375732 0.0654777
0.035243146 -0.22773504 0.098159604 0.042305846 0.04698165 0.179698 -0.117362544 0.09174647
-0.15591666 -0.11620818 -0.0421454 0.09179206 -0.08941216 0.08273224 0.08917195 0.1663976
0.13181956 -0.20834327 0.097318634 0.27763557 0.15287933 0.16083585 0.08779974 -0.020986373
0.15412839 -0.016940534 -0.13257316 -0.14328492 -0.15807797 -0.01943078 0.22694181 -0.058297172
-0.1293 -0.14643218 -0.18562593 0.00016818754 0.114380635 -0.052055784 0.035152793 -0.12466241
-0.23539533 0.21069203 0.13191181 0.048024714 -0.25085813 0.04362922 -0.24369003 -0.170434
0.053656116 -0.09951667 0.15375336 0.19067778 -0.14752448 -0.045197528 -0.056751493 0.16168585
0.26439986 0.21584107 0.058780447 0.1759512 0.1485155 -0.22900356 0.13210772 -0.13362516
-0.08297538 0.053181708 -0.07672946 -0.1991638 -0.2215731 -0.16452292 -0.25204226 0.16029517
0.22966702 -0.1594447 0.15948506 0.14737412 -0.08586712 -0.00024241915 -0.20991236 0.21776937
0.16868614 -0.07754818 0.109740585 0.0043181167 0.010381671 0.13427135 0.053871006 -0.28124264
-0.26851398 -0.030616738 -0.26787627 0.045401007 0.023281515 0.031398162 -0.26062894 0.16347963
-0.20237172 0.08489428 -0.006407387 -0.18081236 0.045373596 0.21299179 -0.022707557 0.09857605
-0.116592295 -0.01308754 0.118444264 -0.18059307 -0.021593556 0.008024553 -0.011741481 -0.048329175
00000000: bcc2 7ebe ba86 30be fda6 aebd 349a 213e
00000010: f265 113d 259f 1f3e d235 11be 68cc 4e3d
00000020: f16b 46bd 4b32 70be f199 09be 60ff 83bd
00000030: 99f2 4f3e 32a9 2ebe 6073 32be 1bf2 14be
00000040: e7db 093e 4b88 193e 65a2 68be 5286 c53d
00000050: 058c 733e 6d3e e3bb aa12 463d 1ac3 b1bd
00000060: 2c34 233e 3638 28bd 9c3c 33be 710f a4bd
00000070: f308 0f3e 01e9 d03d 4538 4cbe 989c 9cbd
00000080: eedb e1bd 9253 8dbc 9d6c cbbc 286b 833e
00000090: 60e3 a3bc f165 b73d 6514 793e 9c43 5f3e
000000a0: 195a 05bd 8c24 803e 7814 45be 7651 953c
000000b0: dd80 af3d 7e05 debd fb8e f63d 715f 47be
000000c0: 95c8 1d3e d0f2 d9bd 49c8 6c3e 0b42 8a3d
000000d0: 13c3 d8bd f97b 313e 37e3 0abc 2a2d 7e3e
000000e0: 634c 3abe 7891 c1bd b76c 7ebe 014f 293d
000000f0: b8f0 c83c 5572 aebd e08f a63c cce3 d9bd
00000100: f10d 633e 0ff9 fa3d 5cb9 56be 5d3b ae3c
00000110: 37bd 443e 5d8d 543e 54bb 4d3e 8094 10bd
00000120: 25d3 ef3d 2298 bebd 2009 463e 7f28 93be
00000130: f091 5fbe 4b1e f7bd e5c7 c8bd 320a 603e
00000140: c4d4 f1bd 2177 31be ef61 8a3e 824b 7d3e
00000150: 2dfb 263d 0f00 5b3e 4fcd 3c3e 45d3 63be
00000160: dc6c 8bbd ea5f 0e3e e5bf efbd b346 1d3e
00000170: 6a33 b2bc 08bb c3bd 694b 05be 07cf cf3d
00000180: 1bd1 173d f0dc 15be 59fa 933d 6047 493e
00000190: 09cb 813d 8f8b 35be 386e 0f3e 2836 4e3e
000001a0: 3bba d5bd 397d 0f3e 7fc6 793d b2e4 cd3d
000001b0: 9b52 bebd a9ba e0bc 5abf 17be bf5d 4abd
000001c0: fa3a f6bd 85e3 d83d 000f 3b3e 0247 b9bd
000001d0: fc2b 02bd 7dd2 20be 2ee4 d2bd ae8a 153d
000001e0: 9656 e2bd 44bb efbd a26c 88be 5f70 0f3e
000001f0: ea62 4d3e c057 173e b5e2 fc3d 6178 593e
00000200: 3aee 3b3d 35bf b2bd cf27 1dbe be90 643e
00000210: 7fa5 283e 21fd 45be 523b 3bbe 205c 43be
00000220: 2249 4abd a4aa 193e a6e2 383e 9b84 5ebe
00000230: 4a87 ce3c 349d 5b3e 8f72 1dbe 2c19 863d
00000240: 1e5b 103d 6033 69be e707 c93d e548 2d3d
00000250: d56f 403d c102 383e c65b f0bd 93e5 bb3d
00000260: 9ea8 1fbe 8efe edbd a8a0 2cbd 7afd bb3d
00000270: b91d b7bd 856f a93d c99f b63d 2264 2a3e
00000280: b5fb 063e f057 55be fe4e c73d 4026 8e3e
00000290: 668c 1c3e 27b2 243e 5ad0 b33d 9deb abbc
000002a0: d5d3 1d3e e0c6 8abc 42c1 07be 48b9 12be
000002b0: 31df 21be 4d2d 9fbc 6f63 683e 04c9 6ebd
000002c0: 3867 04be 51f2 15be b914 3ebe 805b 3039
000002d0: 6540 ea3d 7238 55bd 60fc 0f3d 014f ffbd
000002e0: 790b 71be a7bf 573e e413 073e 90b5 443d
000002f0: 7a70 80be 8eb4 323d e189 79be 4086 2ebe
00000300: 84c6 5b3d 65cf cbbd 8571 1d3e 0941 433e
00000310: a810 17be 0b21 39bd 4174 68bd fa90 253e
00000320: 6b5f 873e 7105 5d3e c4c3 703d 8d2c 343e
00000330: 7214 183e e97f 6abe 3f47 073e 09d5 08be
00000340: ffee a9bd 10d5 593d 5624 9dbd 98f1 4bbe
00000350: 0fe4 62be b278 28be af0b 81be 6b24 243e
00000360: d52d 6b3e 7945 23be 0d50 233e 3ee9 163e
00000370: 1adb afbd e531 7eb9 44f3 56be effe 5e3e
00000380: 0fbc 2c3e 95d1 9ebd acbf e03d fd7e 8d3b
00000390: e217 2a3c 6e7e 093e d8a7 5c3d 09ff 8fbe
000003a0: aa7a 89be f4cf fabc 1427 89be 68f6 393d
000003b0: e0b8 be3c 5c9b 003d 2871 85be 3467 273e
000003c0: 883a 4fbe 0ddd ad3d 0ff5 d1bb e026 39be
000003d0: aad9 393d 851a 5a3e 3305 babc 3de2 c93d
000003e0: f1c7 eebd 1f6d 56bc e892 f23d 64ed 38be
000003f0: f8e4 b0bc 6a79 033c 575f 40bc d0f4 45bd

glu_encoder.hid2lat.bias f4 [64]
0.023644997 -0.07129067 -0.18861423 0.024967885 0.051083516 0.03817187 0.1925922 -0.08870485
0.018867137 0.13179512 0.24477549 0.108175084 0.016379068 -0.0033780716 -0.012106267 -0.19556147
-0.042962942 0.06306147 0.005927844 0.22166543 -0.077724755 0.19485897 0.11205824 0.075812615
0.15734285 0.08254443 0.066777214 0.0241989 -0.15632488 0.21807319 -0.15398045 -0.04096828
-0.23517801 -0.26267073 0.18597578 -0.1152587 0.23303469 -0.05091777 -0.21466096 -0.11388453
-0.03894338 0.007022896 0.14102273 0.017058406 0.2707642 0.12938401 0.10948603 0.20450084
-0.16560459 0.010141725 0.19956788 0.21618535 0.018298564 -0.101079755 0.051317517 -0.05851441
-0.26086777 -0.19337375 -0.24802575 -0.054716483 -0.21418145 -0.026171288 0.037363663 0.18691674
00000000: 27b3 c13c d800 92bd 1724 41be 7389 cc3c
00000010: f33c 513d 1b5a 1c3d e436 453e e3aa b5bd
00000020: 418f 9a3c 4df5 063e 6da6 7a3e e68a dd3d
00000030: 652d 863c a362 5dbb 5d59 46bc 4441 48be
00000040: e9f9 2fbd 5f26 813d 5c3e c23b 43fc 623e
00000050: 282e 9fbd 1c89 473e ca7e e53d a543 9b3d
00000060: 7c1e 213e 0e0d a93d 7ec2 883d c63c c63c
00000070: a113 20be 944e 5f3e 0dad 1dbe 5bce 27bd
00000080: 81d2 70be c77c 86be 6f70 3e3e c10c ecbd
00000090: a5a0 6e3e 278f 50bd 15d0 5bbe 4b3c e9bd
000000a0: 1883 1fbd 5220 e63b 4368 103e 12be 8b3c
000000b0: 9ba1 8a3e 3e7d 043e 363a e03d ab68 513e
000000c0: 4094 29be 7a29 263c 865b 4c3e b15f 5d3e
000000d0: dfe6 953c e702 cfbd 5132 523d ceac 6fbd
000000e0: 7690 85be c503 46be 76fa 7dbe 641e 60bd
000000f0: 6252 5bbe 2b65 d6bc a40a 193d 1a67 3f3e

encoders.weight_ih_l0 f4 [192, 64]
-0.07645422 -0.1279486 -0.067389436 0.16815591 0.037853133 0.061149195 0.09231631 0.023428759
0.06138735 -0.043085057 0.14543095 -0.12178285 -0.07017083 -0.03957259 -0.10142338 0.054017786
0.04860062 0.048959088 -0.07653449 0.10873294 0.14469534 -0.046197057 0.048902187 0.031047778
0.04779103 0.16193782 -0.12386253 -0.10185321 -0.14656246 -0.056006406 0.09198933 -0.08377609
-0.048119146 0.043207604 0.013271503 -0.05990806 -0.16216677 -0.073707476 -0.11737798 0.13115507
-0.010427839 -0.01440746 0.046881564 0.16663398 -0.040944695 0.081062175 -0.06259286 -0.051360283
-0.15752839 -0.10651158 -0.09468386 -0.080769345 0.08923913 0.10375384 0.06184892 -0.15136524
-0.07422569 -0.017679142 -0.15110222 -0.17343126 -0.07282527 0.06696475 -0.032589123 0.14402917
-0.041055348 0.03593984 -0.08747449 -0.0871992 -0.08584365 0.07716891 0.07031427 0.031482037
-0.007860776 -0.09960879 0.01759915 -0.026800921 0.024746474 -0.04889973 -0.03844263 -0.034789644
0.026551204 -0.11719532 -0.11915072 0.048336286 0.091531664 0.101487026 0.0841097 -0.08832915
0.09473258 0.07004687 0.07556298 -0.04095638 0.13188027 0.040288817 0.026921252 -0.14569937
-0.10449416 -0.06470438 0.05924594 0.06491988 0.08631231 0.118154526 -0.01505704 -0.090803914
0.057415243 -0.0331561 -0.015375623 0.00033582604 0.11830496 -0.091507405 0.08160891 -0.042981986
-0.116639756 0.05850316 -0.026367795 0.11265304 0.07208771 -0.09931594 -0.09394765 -0.13329786
-0.043139372 0.03249038 -0.09192551 -0.034119423 0.1091322 -0.037584275 -0.013242183 -0.027827907
-0.06403869 -0.05776462 -0.041370943 -0.033691335 -0.02689337 0.00059476844 -0.056209438 -0.022093741
-0.14459583 -0.035058226 -0.048717055 -0.045398492 0.13327457 -0.020240827 0.0050703557 -0.06332142
0.058739707 0.11690627 0.10633689 -0.044558458 -0.0007962267 -0.06865817 0.14412516 -0.05822442
0.021471744 0.10424893 -0.026105793 -0.07082222 0.05250018 0.042705588 0.05340178 0.0009732423
-0.14752017 -0.09919132 0.14422245 0.0514507 -0.07738041 0.05576108 -0.12442163 0.07771229
-0.03019713 -0.03706105 -0.036706332 -0.014943491 0.12170544 0.07842112 0.020165745 -0.07028814
-0.026151827 -0.050296612 -0.041873895 0.012786338 -0.046289943 -0.0709121 -0.02237073 -0.013357063
-0.011333698 -0.044331238 -0.14329872 -0.14171025 -0.054206338 -0.06632594 -0.12745985 0.07406716
0.00363853 0.07274631 0.14460997 0.019740693 0.12525856 -0.09701892 0.13948855 -0.11615923
-0.07659571 -0.001014576 0.08106125 -0.11078288 0.13811226 0.029124867 -0.07222581 0.05220741
0.0045822826 0.045026436 -0.014736696 -0.07199236 0.12653887 0.047937334 -0.09760606 -0.07092275
0.06552879 0.04852702 0.013955068 -0.14527932 0.0023683447 -0.06363549 0.055276237 -0.15439363
-0.044275556 0.09819723 -0.022488164 -0.022535004 -0.04488185 -0.031007364 0.08374838 -0.052059285
-0.0631482 0.06794225 0.071655676 0.03438471 0.1254909 0.0524551 -0.011853184 0.037451938
0.08266417 0.053181633 -0.087503105 -0.06146311 -0.0060144216 0.092043936 -0.06965079 0.013962761
0.04924596 -0.05145767 0.044454575 0.00047247007 -0.109802365 0.094682656 -0.12880725 0.15385677
00000000: 0894 9cbd f504 03be 7903 8abd 1031 2c3e
00000010: e30b 1b3d 9477 7a3d 5510 bd3d abed bf3c
00000020: 4d71 7b3d f579 30bd daeb 143e 4969 f9bd
00000030: b9b5 8fbd de16 22bd 10b7 cfbd c141 5d3d
00000040: 7211 473d 5389 483d 1dbe 9cbd 60af de3d
00000050: 042b 143e 2039 3dbd a94d 483d e957 fe3c
00000060: 87c0 433d 07d3 253e a3ab fdbd 6a98 d0bd
00000070: 7814 16be f966 65bd e764 bc3d cc92 abbd
00000080: 9518 45bd 75fa 303d b870 593c 2762 75bd
00000090: 0c0f 26be f2f3 96bd de63 f0bd 844d 063e
000000a0: 87d9 2abc 440d 6cbc e206 403d 19a2 2a3e
000000b0: a0b5 27bd ed03 a63d af30 80bd 295f 52bd
000000c0: 1f4f 21be be22 dabd 9de9 c1bd 666a a5bd
000000d0: 01c3 b63d e57c d43d 4b55 7d3d 7dff 1abe
000000e0: a303 98bd d9d3 90bc 8aba 1abe f797 31be
000000f0: 6a25 95bd d124 893d 2c7c 05bd 627c 133e
00000100: a729 28bd a735 133d d325 b3bd 7f95 b2bd
00000110: ccce afbd bc0a 9e3d ee00 903d 4ff3 003d
00000120: 7cca 00bc b1ff cbbd 182c 903c 9b8d dbbc
00000130: 1eb9 ca3c 154b 48bd 0576 1dbd 967f 0ebd
00000140: e981 d93c 1a04 f0bd 4b05 f4bd 45fc 453d
00000150: f474 bb3d 6ed8 cf3d b541 ac3d eae5 b4bd
00000160: 2803 c23d bc74 8f3d c3c0 9a3d e1c1 27bd
00000170: 9f0b 073e e305 253d f589 dc3c 3732 15be
00000180: 0901 d6bd bb83 84bd dfab 723d b7f4 843d
00000190: 82c4 b03d 00fb f13d ceb1 76bc 67f7 b9bd
000001a0: 3f2c 6b3d b1ce 07bd 09ea 7bbc cf11 b039
000001b0: df49 f23d 3c68 bbbd 9222 a73d e10d 30bd
000001c0: d3e0 eebd 02a1 6f3d 4601 d8bc a3b6 e63d
000001d0: b9a2 933d 2866 cbbd a067 c0bd 3c7f 08be
000001e0: e9b2 30bd a214 053d 7143 bcbd cfc0 0bbd
000001f0: b480 df3d f8f1 19bd bef5 58bc 5af7 e3bc
00000200: b726 83bd 989a 6cbd 9474 29bd edff 09bd
00000210: 7c4f dcbc 3cea 1b3a de3b 66bd effd b4bc
00000220: ee10 14be 3799 0fbd 898b 47bd c5f3 39bd
00000230: 2179 083e 17d0 a5bc 3a25 a63b a9ae 81bd
00000240: 0c99 703d 8e6c ef3d 28c7 d93d ee82 36bd
00000250: dfb9 50ba a89c 8cbd 8c95 133e bb7c 6ebd
00000260: 83e5 af3c 7780 d53d d1db d5bc 3d0b 91bd
00000270: 6e0a 573d 0eec 2e3d d3bb 5a3d 2f21 7f3a
00000280: 870f 17be d224 cbbd 0daf 133e f8bd 523d
00000290: 9f79 9ebd bb65 643d c4d0 febd 9f27 9f3d
000002a0: f95f f7bc 54cd 17bd 6159 16bd 8bd5 74bc
000002b0: b440 f93d 419b a03d a232 a53c 3af3 8fbd
000002c0: 5b3c d6bc d203 4ebd f683 2bbd ca7d 513c
000002d0: 869a 3dbd 5d3a 91bd d242 b7bc 95d7 5abc
000002e0: fab0 39bc ac94 35bd e6bc 12be 7e1c 11be
000002f0: 7707 5ebd e5d5 87bd d684 02be 86b0 973d
00000300: 6774 6e3b 04fc 943d a314 143e 3cb7 a13c
00000310: c843 003e dbb1 c6bd 16d6 0e3e e4e4 edbd
00000320: 36de 9cbd 85fb 84ba 7103 a63d 22e2 e2bd
00000330: 4d6d 0d3e 4697 ee3c 20eb 93bd 70d7 553d
00000340: f926 963b a46d 383d 2f72 71bc bb70 93bd
00000350: 6893 013e f059 443d b0e5 c7bd f23f 91bd
00000360: f533 863d 45c4 463d cca3 643c 1ac4 14be
00000370: 3b36 1b3b 5353 82bd 5669 623d 5d19 1ebe
00000380: 495a 35bd a11b c93d 1939 b8bc 549b b8bc
00000390: 08d6 37bd 2803 febc 4584 ab3d 1e3c 55bd
000003a0: d853 81bd 4e25 8b3d 36c0 923d fbd6 0c3d
000003b0: b080 003e 29db 563d db33 42bc 3467 193d
000003c0: d54b a93d fcd4 593d d434 b3bd bec0 7bbd
000003d0: a014 c5bb 8881 bc3d 13a5 8ebd 10c4 643c
000003e0: 22b6 493d 47c5 52bd 0016 363d dcb5 f739
000003f0: 10e0 e0bd fbe8 c13d 0ce6 03be a18c 1d3e
