code/baseline/saved/GAMNet_learning_rate_0.0001_hidden_size_64_epoch_6000_batch_size_32/Epoch_750_JA_0.5436_DDI_0.1041.model (torch, 455805 bytes, 29 tensors)

lab_embeddings f4 [32, 64]
000000 9a be a0 3e 96 1f c0 3d 19 f4 34 bf 92 06 d1 bf
       0.31395417 0.093810245 -0.70684963 -1.633013
000010 3d df 30 bf e0 6f ba bf fe 79 93 3f ba 80 f2 3e
       -0.69090635 -1.4565392 1.1521604 0.47363836
000020 56 6b 31 3f ed de 14 3f 59 fb dd bf 0c 05 ad bf
       0.69304407 0.5815266 -1.734233 -1.3517165
000030 07 72 f2 3e c4 71 d5 be fa dc 26 3f 3d ce f8 3f
       0.4735262 -0.4168836 0.65180933 1.9437939
000040 34 ef 29 3f b2 fc 38 3e 2c 5e ad 3e cf 30 04 3f
       0.6638062 0.18065146 0.3386091 0.51636976
000050 21 fd 69 3e e1 d7 46 bf 15 78 8b bf a9 67 69 bf
       0.22850467 -0.77673155 -1.0896021 -0.911738
000060 cb ea 24 bf 0b f5 84 bf 9a 84 31 3f 39 6c 14 c0
       -0.64420766 -1.0387281 0.6934296 -2.3191054
000070 8a a8 bc be 91 22 4d 3f 7d 44 b5 3f b3 7d bb 3e
       -0.36847335 0.8013087 1.4161526 0.36619338
000080 39 c2 08 c0 14 35 d7 3f 6a c1 7f be b5 85 f0 bf
       -2.1368544 1.6813073 -0.24976125 -1.8790804
000090 61 b2 eb be 6d 1e 21 bf 29 bc 91 bf 20 d7 68 bf
       -0.4603453 -0.6293705 -1.1385547 -0.90953255
0000a0 0c f7 f6 3e 90 e3 c9 3e 03 0c 6e 3f 4e 00 de be
       0.48235357 0.3943143 0.9298708 -0.43359607
0000b0 5a 22 ae 3e cc 28 64 3f 0d 91 0e 40 32 d3 05 3f
       0.34010583 0.8912475 2.2276032 0.52275383
0000c0 61 39 9a be 5e db d5 be fa 65 82 3e a7 c1 06 bf
       -0.30121902 -0.41768926 0.25468427 -0.5263924
0000d0 fc cf 39 bf 3e f2 4c 3e 39 d7 1c bf b9 e5 3a 3f
       -0.72582984 0.20014283 -0.61265904 0.7300678
0000e0 0e b3 7f be 2f 4d 74 be 16 2e 21 40 f0 af 12 bf
       -0.24970648 -0.23857568 2.5184379 -0.5729971
0000f0 0e 6e 97 3d fb 3a bc 3e 61 d9 ec 3f 1d 8a 1b 3d
       0.07394038 0.3676375 1.8503839 0.037973512
000100 15 06 1a be 29 51 29 bf 22 8d ca be 36 8f c9 bd
       -0.15041383 -0.66139466 -0.395608 -0.098417684
000110 02 46 5e 3e 83 59 12 3f 6b ee ec 3f ed d2 90 3e
       0.21706393 0.57167834 1.8510259 0.28285924
000120 9f 55 87 bf a9 9b 9c bf d9 4b a6 bf aa a3 94 3d
       -1.0573004 -1.2235004 -1.2991897 0.07257779
000130 a7 b9 c3 bf 4b a8 88 bf 05 16 5a 3f ba e1 6f bf
       -1.5291032 -1.0676359 0.8518985 -0.93703806
000140 dc df 3d be 6d 37 18 3f 29 8e ba 3f 25 e8 9a 3f
       -0.18542427 0.59459573 1.4574634 1.2102095
000150 bd 30 c0 3e cf 7c 06 bf d3 48 2f 3e 9b 5f 14 40
       0.37537184 -0.5253419 0.17117624 2.3183353
000160 81 aa e0 bc 78 7b 83 3f 04 fe a8 3e 69 bf 73 3f
       -0.027425053 1.0272055 0.330063 0.95213944
000170 41 68 c6 3c 53 2c ed 3f d7 32 62 3f f6 0e d1 3d
       0.024219634 1.8529152 0.88358825 0.10207932
000180 17 72 40 bf b3 cc b4 bf 7e 63 f6 be 8d f8 07 3f
       -0.7517409 -1.4124969 -0.48122782 0.53113633
000190 64 99 a2 3f 7e f9 aa be f6 1c 5b 3e 4e 98 a9 3e
       1.2703061 -0.33393472 0.21397766 0.33124012
0001a0 c6 fe dc 3e dd 18 99 bf 4b b0 32 3f e8 0b 24 3f
       0.43163127 -1.1960713 0.6980025 0.6408067
0001b0 78 62 cc 3f a5 d7 87 be 5e f5 f7 bf a5 81 23 bf
       1.596755 -0.2653171 -1.9371755 -0.63869697
0001c0 93 c4 32 3f e0 1e d3 bf d2 76 3d 3f 76 ab 13 3f
       0.698312 -1.6493797 0.7400943 0.57683504
0001d0 0b 60 16 3f bd 81 e4 be bf 60 9b bf 5c 6f 4d bf
       0.587403 -0.44630232 -1.21389 -0.80248046
0001e0 13 10 f6 bf 40 f0 51 40 0d 41 3f 3e 13 ef be 3e
       -1.9223655 3.2802887 0.18677159 0.37291774
0001f0 5a b0 38 3f ab 97 75 3f 86 fc 0a c0 23 95 ae 3f
       0.7214409 0.9593455 -2.1716628 1.3639263
000200 a4 2a 5a bf 74 8d 7a be 12 cb cd 3f 14 d0 23 be
       -0.85221314 -0.24468023 1.6077597 -0.15997344
000210 de e2 74 3e f6 ff 78 bf 4f 19 7b bf 59 3a 3a bf
       0.23914668 -0.97265565 -0.9808549 -0.7274528
000220 09 0c 53 bf ee b8 5c 3f 61 f2 1f 3b a8 9f 9c 3f
       -0.8244024 0.8621968 0.0024405944 1.2236223
000230 09 74 a1 be 12 1b 19 3f 12 70 fe be 49 17 09 40
       -0.3153384 0.5980693 -0.49694878 2.1420462
000240 9e c8 4c bf eb 89 43 3e e8 80 4a 3f 8c d5 c2 be
       -0.7999362 0.1909558 0.79102945 -0.38053548
000250 dd 17 49 bf 5f 65 05 3f 43 30 c7 3f 79 7d 89 bc
       -0.7855204 0.52107805 1.5561603 -0.016783463
000260 31 62 ad bf af 31 85 be 9b c1 11 bf bd 6d 41 bf
       -1.3545591 -0.26014468 -0.56936044 -0.7555807
000270 51 fb c9 3e 5c e9 8a be 5a 8f 1a be 01 7e 3d 3f
       0.39449552 -0.27131164 -0.15093747 0.7402039
000280 b7 30 4e bf 24 54 ae 3f c7 59 93 3e ff 2e 01 3f
       -0.8054308 1.3619428 0.28779432 0.50462335
000290 11 d0 37 3f e9 94 c9 3e 6d c1 be bc f2 a2 b6 3f
       0.7180186 0.39371422 -0.023285592 1.4268477
0002a0 cc a2 fe 3f 53 5e 48 be 8b b6 c8 3e 37 e1 17 be
       1.9893432 -0.19567232 0.3920177 -0.14832006
0002b0 39 3b 9d 3f 48 f3 a0 be 9e a6 ea be 4d 88 36 bf
       1.2283698 -0.3143561 -0.45830244 -0.7130173
0002c0 3e 01 b7 be bd f2 96 3e 3a 17 82 bf d1 50 b6 3e
       -0.35743135 0.2948207 -1.0163338 0.35608533
0002d0 da a6 b6 bf fa 4d b3 3e 4c f6 94 3d 22 dc d7 bf
       -1.4269669 0.3502043 0.0727354 -1.6864054
0002e0 13 38 ee ba ff 46 4d 3f 2b d1 70 3e 58 dc 34 bc
       -0.001817467 0.80186456 0.23517291 -0.011038862
0002f0 a3 d4 cf 3e 29 bf b1 bf e5 f9 5e bf 41 7a fe be
       0.40591916 -1.3886462 -0.8710006 -0.49702647
000300 db 55 85 bd dc 8e 18 bf 53 e7 64 3f 57 73 8a bf
       -0.06510516 -0.59592986 0.8941547 -1.0816449
000310 15 ed f0 bd 4c 27 01 c0 9a 8a b6 bf a6 10 2b 3e
       -0.1176397 -2.0180235 -1.4261048 0.1670557
000320 de c8 8a 3e d6 b4 98 3f b6 a5 ef be 02 b6 85 bf
       0.27106375 1.1930187 -0.46806115 -1.0446169
000330 a1 47 58 3f 65 2f fa 3f f6 da 5d 3e 90 e9 91 bd
       0.844843 1.9545714 0.21665558 -0.07124627
000340 68 84 7d 3e b7 3c 0e 3f 9c 1d 80 be ae 63 63 3d
       0.2475754 0.55561393 -0.2502259 0.055514984
000350 19 08 75 3e 94 f8 a9 bf bc 97 20 c0 8c 09 c0 be
       0.2392887 -1.3278985 -2.5092611 -0.37507284
000360 33 2f 1b bf a8 a0 44 bd 27 4a 10 40 e6 c9 e5 bf
       -0.60618895 -0.048004776 2.254526 -1.795224
000370 1a 47 11 3f 4c 56 7c 3d 2d 2f 8b be 0c e5 cb 3e
       0.5674912 0.061605737 -0.2718443 0.39823186
000380 c7 06 72 3e 00 40 9e 3f 3a 08 79 3f 3f 92 a3 bf
       0.23635398 1.2363281 0.9727818 -1.2779006
000390 62 ab 09 3f 6e 7c 12 bd 70 bb f5 3f 81 1b 04 c0
       0.53777134 -0.035763197 1.9197826 -2.0641787
0003a0 2b 44 43 3f 90 e9 a4 3e d8 45 04 bd 22 af ca be
       0.7627589 0.32209444 -0.03229317 -0.3958674
0003b0 0e c9 41 bf ad 20 13 3f 64 32 97 bf c1 d9 5f 3f
       -0.7569741 0.57471734 -1.1812253 0.8744164
0003c0 dc 60 2a bf b0 6a a6 bf 64 7b fa 3e cd 4c 60 3f
       -0.66554046 -1.3001308 0.48922265 0.8761719
0003d0 8e 75 ad 3f 26 5f fe 3e 88 47 f3 bf 14 0a 3b 3f
       1.35515 0.49681967 -1.9006205 0.73062253
0003e0 82 a7 1b 3f 69 73 b9 3f 95 da 61 bf 17 eb 33 3f
       0.6080247 1.4488345 -0.88224155 0.70280594
0003f0 27 ec 8e 3f ed e9 45 be bf 3e 20 3f 53 0b 0b 40
       1.1165818 -0.19327517 0.6259574 2.1725662

static_ll.0.weight f4 [128, 64]
000000 67 17 9c 3d 80 03 9e bd a6 d3 e0 bd 1c 05 fb bd
       0.07621651 -0.07715511 -0.10977869 -0.12256834
000010 27 87 67 3d 27 ce ac bd e9 0e b8 bd 3a 73 a3 3c
       0.056525376 -0.08437758 -0.08987219 0.019952405
000020 89 5d 72 3d db 26 82 bd 4e 85 30 bd de 09 76 bd
       0.059171233 -0.06355067 -0.04309588 -0.060068004
000030 33 43 0b 3e b8 09 a6 bd 9d 5d 9c 3b 36 c5 c4 bd
       0.13599853 -0.081073225 0.0047719018 -0.096079275
000040 6f 5d 04 be bd e2 d1 3d 73 f1 90 bd 3b f1 fb bd
       -0.12926267 0.10248325 -0.07077303 -0.123018704
000050 f8 bd 41 bd d0 a7 8e bd bd bb 12 be 0d 09 ee bd
       -0.04730031 -0.069656014 -0.14329429 -0.1162282
000060 1e 08 e1 3d d2 a6 2b 3b 7f 71 e6 3c 0b 17 ee bd
       0.10987876 0.0026191962 0.028130291 -0.11625489
000070 3c 56 53 3d e9 75 b2 bd c0 8c 95 3d a3 18 ec 3d
       0.05159591 -0.08713896 0.073022366 0.115281366
000080 d1 34 c5 3d 28 ba d5 3d 6a d1 90 bb f2 24 f0 bd
       0.096292146 0.10435897 -0.0044194954 -0.11725797
000090 f1 03 69 3d 85 45 89 3d 59 22 30 3d 8f 19 1b bd
       0.056888524 0.06702713 0.043001506 -0.03786617
0000a0 75 61 15 3c a1 f2 bb 3d 88 aa b1 3d f2 00 fe 3c
       0.009117474 0.09177137 0.086751044 0.03100631
0000b0 00 83 99 bd c2 32 89 3d 25 90 3d bd 5d 7f 53 bd
       -0.074956894 0.066991344 -0.046280045 -0.051635135
0000c0 07 9e 17 bd da f9 02 be 5b 93 f3 3d bf 06 08 3e
       -0.03701594 -0.12790623 0.1189334 0.13283823
0000d0 86 53 35 3d 49 ed 8f bc 3f ab 2c bd 96 3f e9 bd
       0.044269107 -0.017569201 -0.0421555 -0.11389081
0000e0 b0 b0 97 3c 37 d9 cb 3c 33 98 35 bd 05 15 be 3c
       0.018516868 0.02488385 -0.0443346 0.023203382
0000f0 aa 8f f7 bd df c9 c7 bd d4 88 51 bd 58 23 df bc
       -0.120879486 -0.09755301 -0.05115588 -0.027238533
000100 4e 26 34 3c 72 88 fd 3d 88 b4 a9 bd d3 3b cc 3d
       0.010995461 0.123795405 -0.08286387 0.09972348
000110 9b b2 04 bc 48 14 c8 bd 6c 31 a4 3d 6f af 9f bd
       -0.0080992235 -0.09769493 0.08017239 -0.07797133
000120 81 cd ba bd 04 fe 43 3d b8 25 17 bd 9d d3 b5 3d
       -0.09121228 0.04784967 -0.036901206 0.08878253
000130 92 40 3d bd 22 88 61 3c 86 ed 2e 3d 8c a4 92 bd
       -0.046204157 0.013765367 0.04270699 -0.07160291
000140 16 b1 e3 bd b8 dd a8 bd 58 58 7a bc 30 69 c0 3d
       -0.11117761 -0.082454145 -0.015279852 0.09395063
000150 84 70 eb 3d b6 a8 91 3d 84 aa 55 3d f6 00 f2 3b
       0.1149607 0.07112257 0.05216457 0.0073853685
000160 1d 42 bf 3d 64 ed 1d 3d 5f 63 c1 3d 6d e2 f5 3d
       0.09338782 0.03855647 0.09442782 0.12006078
000170 c3 8f e6 3d b7 ea e8 3d 5c 30 5b 3c 94 d5 e4 bd
       0.11257889 0.11372893 0.013378229 -0.11173549
000180 7a a9 00 be e7 64 bb bd fa a0 5f 3d 15 62 5b bd
       -0.1256465 -0.09150105 0.05459688 -0.053560335
000190 97 a6 44 bd e9 05 ea 3d 42 a6 95 bd cf 3f d6 3d
       -0.048010435 0.114269085 -0.07307102 0.10461389
0001a0 90 5f a2 bd 6c 33 d7 bd 07 97 01 3e e0 c3 e9 bd
       -0.07928383 -0.10507855 0.12655269 -0.11414313
0001b0 f8 58 b7 bd 39 a9 24 bc 20 ae 63 bc 85 45 42 bd
       -0.08952516 -0.010050111 -0.013896495 -0.04742958
0001c0 db 8f 73 bd 59 a9 fc 3c e3 ee fc 3d 7b 62 99 3c
       -0.059463363 0.03084247 0.123502515 0.018723717
0001d0 2c d5 ec bd 04 3a 0d bd 0c ea c3 bd 8d 70 95 3c
       -0.11564097 -0.034479156 -0.09566125 0.018242145
0001e0 64 3e 97 bd 4b f3 ea 3d b4 46 78 bb 44 77 c3 3d
       -0.07384947 0.11472186 -0.003788394 0.095442325
0001f0 1f f9 a2 bc 8b 6f 82 3d d2 a2 fb bd 42 ba d8 3d
       -0.01989418 0.063689314 -0.12286915 0.10582401
000200 1d fb ab 3d 09 9a 03 bc da 7f fb bb 53 7a 63 3c
       0.083975054 -0.00803233 -0.007675153 0.013884145
000210 6b 17 d3 3d fa ce 10 be a6 2e c8 bd 09 7c c0 bc
       0.10307201 -0.14141455 -0.097745225 -0.023496645
000220 f9 ff d0 bd 08 db cc bc a0 08 b2 bd 2d ee 08 be
       -0.10205073 -0.025006786 -0.08693051 -0.13372107
000230 9a 87 82 bc 0d 0f cb bd e7 ab df bd b9 e2 68 bc
       -0.0159338 -0.0991498 -0.1092146 -0.014214211
000240 2f 95 a6 bd a1 e1 de 3d a7 b4 3c bd 81 ba ec bd
       -0.08133923 0.10882879 -0.04607072 -0.1155901
000250 f4 93 88 3d 5a fd 51 bd 86 bf 14 bd 97 e3 21 3d
       0.06668845 -0.051267006 -0.036315463 0.039523687
000260 6b 52 7d bd 43 4d c5 bd 4d 05 b6 bd 17 e6 93 bd
       -0.061846178 -0.09633877 -0.0888773 -0.072216205
000270 d9 7e 9a bd 3e f5 8a 3d 27 09 56 3d 76 9a c4 bc
       -0.075437255 0.067850575 0.052254822 -0.023999434
000280 4c 3a 01 be 50 ab 97 3d 09 34 c4 3c 5c 86 0b 3d
       -0.12619895 0.07405722 0.023950594 0.034063682
000290 c7 1f 73 3d d5 7d e2 bb 19 6c 22 3d aa c7 33 bc
       0.059356477 -0.006911973 0.03965387 -0.010972897
0002a0 fd b2 ff bc e1 c6 bd bd c4 a2 b4 3d 6a 15 7b bd
       -0.031213278 -0.09266449 0.088201076 -0.06129972
0002b0 f3 4a f3 3d 38 29 cf 3d 5d 7a f6 3d 94 f5 61 bd
       0.1187953 0.10115284 0.12035058 -0.055165842
0002c0 ef d3 cd bd d9 e3 fb bc 3a d3 c1 3d ff 4d 8c 3d
       -0.10050189 -0.030748295 0.094641164 0.06850814
0002d0 31 f9 2b bb 81 16 f0 3d 87 98 96 3d 55 65 26 bd
       -0.002624106 0.11723042 0.07353311 -0.04062398
0002e0 60 d4 c8 3b 18 ca dc 3a 53 af d5 3c 6e 64 b6 bd
       0.0061288327 0.0016844897 0.026084578 -0.08905874
0002f0 cd 64 04 3e 64 6c aa 3d 97 8e 33 3c ac 3e 8a bd
       0.12929077 0.08321455 0.010959289 -0.06750235
000300 4f 58 e3 bd b4 cd 5d bd bb 1b 3a bd 84 8b 81 bc
       -0.11100828 -0.054151252 -0.045436602 -0.015813597
000310 ce 33 e2 3d e4 c3 f1 3d f9 ce ec bd e0 22 b3 3d
       0.11045037 0.11804941 -0.115629144 0.08746886
000320 9d a2 aa bd ed 58 b6 3d a3 1f 9b 3d 71 c6 41 3b
       -0.08331797 0.0890368 0.075743936 0.0029567743
000330 66 ad ba 3d ab 3b 56 3d 0a bd 49 3d f8 05 31 3d
       0.091151044 0.052302998 0.049252547 0.043218583
000340 99 9b c2 3d 64 f7 1d bc 38 32 c8 3c 71 90 46 3d
       0.09502334 -0.009641502 0.024438009 0.048477594
000350 35 50 d0 3d 68 3e cb 3d 96 01 28 bd 71 a7 5b bd
       0.10171548 0.099240124 -0.041017137 -0.05362648
000360 de e2 bb 3d 5e 0b 07 bd 95 0c 01 be 88 cd eb 3c
       0.09174131 -0.032969825 -0.12602456 0.028784528
000370 8b 96 00 3d 50 88 5d bc e1 96 be 3c ed 47 75 3d
       0.03139357 -0.013521269 0.023265304 0.059883047
000380 9e ed 04 3b f2 bc ae bd e8 49 1c bd 11 5c 6f 3d
       0.0020283232 -0.08532132 -0.03815642 0.05843741
000390 95 d9 19 bd c5 94 5e bd 84 d7 ff bd 9c d4 15 3d
       -0.037561018 -0.054341096 -0.12492278 0.036579713
0003a0 95 2a e5 3d e2 f4 e8 bd cb 33 d7 bd 93 61 c2 3d
       0.111897625 -0.11374833 -0.105079256 0.09491267
0003b0 f1 fc 25 bd 19 c2 4c bd f3 ce cf 3d d1 34 cc bd
       -0.040524427 -0.049989793 0.10146894 -0.099710114
0003c0 0a 49 83 3c a0 4f 83 3d ca 7f f5 bd 3d 1a ec bc
       0.016026039 0.06411672 -0.119872645 -0.028821105
0003d0 c1 e6 de 3d e4 1a b6 bd 6d d4 e8 bc 17 1c 81 bd
       0.108838566 -0.08891848 -0.028421605 -0.06304186
0003e0 f5 b4 1f 3c 3b b1 76 bd ec 2c d0 3b 01 84 97 bd
       0.009747733 -0.060227614 0.0063530114 -0.073982246
0003f0 d1 8d aa bd 1c 6a b8 bd ce e2 40 bd 4f 0b 87 bc
       -0.083278306 -0.09004614 -0.047091298 -0.016484885

static_ll.0.bias f4 [128]
000000 cd d8 c7 3d 16 d8 ba bd 46 6f f8 3b 28 57 9a bd
       0.09758148 -0.09123246 0.007581624 -0.07536155
000010 3d 66 e1 3d a3 94 84 3d 99 27 bb bd 0d 67 8c 3d
       0.110058285 0.06473663 -0.09138412 0.06855593
000020 f8 33 93 3c 59 9d 07 3e 51 55 0b 3e cb 77 99 bd
       0.017969117 0.13243617 0.13606764 -0.07493552
000030 96 b3 2d bd c1 9d b3 3d 28 f3 10 3b c3 4f c2 3d
       -0.042407595 0.087703235 0.0022117589 0.094878696
000040 30 17 f1 3d e1 87 9c bd f0 2f bc 3c e7 9b 77 3d
       0.11772001 -0.07643104 0.022972077 0.060451414
000050 7c 54 af 3d b1 fd 9e 3a 79 be 96 3d f8 46 11 3e
       0.08561036 0.0012130049 0.073605485 0.14187229
000060 a7 b3 ba 3d a2 9d 8a 3d 54 c1 3f bd 6d 5b c2 bd
       0.09116297 0.06768347 -0.04681523 -0.09490094
000070 5d 82 9e bd ae fb df 3d 62 e2 05 bd 76 c7 91 bd
       -0.077397086 0.10936676 -0.0326866 -0.07118122
000080 e3 46 3b bc f0 6b a3 3d ea 9a b6 3d 24 4e a5 bd
       -0.011430475 0.07979572 0.08916266 -0.08071545
000090 6b 9b c9 3d 83 84 ea 3d 9d 15 1d 3b 16 34 2b 3d
       0.09844097 0.11451056 0.0023969181 0.04179772
0000a0 15 70 6a 3c 8f 38 34 bd cd 48 f8 bc 61 98 b8 bd
       0.014308949 -0.04399925 -0.030308152 -0.09013439
0000b0 06 61 c3 ba fb 27 3f bd 46 c3 49 bd 5a e4 2b bd
       -0.0014906235 -0.046668988 -0.049258493 -0.04196582
0000c0 c1 ff 3c bd 07 aa c7 3d 35 9a cd 3d ae 74 cb 3c
       -0.046142343 0.09749227 0.10039178 0.02483591
0000d0 97 6a ee 3c ce 1c 01 3e 44 1a 3e bd b1 e2 5f 3d
       0.02910356 0.12608644 -0.046411768 0.05465955
0000e0 15 18 09 3e 0e dd bb 3d a7 1e d8 bd 54 0c a6 bd
       0.13388093 0.09173022 -0.105527215 -0.0810782
0000f0 d6 91 01 bd 74 54 e6 3d 4e 08 82 bd 8f 7b 9f bd
       -0.03163322 0.11246577 -0.0634924 -0.07787239
000100 50 07 69 bd 6c 59 85 bd b9 00 aa 3c 95 f3 ad bd
       -0.05689174 -0.065111965 0.020752298 -0.08493725
000110 b6 62 9d bc 2c 25 5b bc f9 30 5b 3d fd 43 a9 3d
       -0.019212108 -0.013375562 0.0535135 0.08264921
000120 75 3c ee bb ba a9 b5 bc d8 7a 93 bd db 19 ed bb
       -0.0072703906 -0.022175658 -0.07201165 -0.007235748
000130 c0 67 5e 3c 32 3f cd 37 8c 3c 2a bd 99 a2 88 bc
       0.013574541 2.4467332e-05 -0.04156165 -0.016679095
000140 e1 eb b6 3b 35 1f a7 3d 41 8f ca bd dd a0 46 3a
       0.005582318 0.08160249 -0.09890605 0.0007577071
000150 c5 f4 ae bd ee 9d 9a bc e3 82 92 bd 26 b6 38 3d
       -0.0854278 -0.018874135 -0.07153871 0.045095585
000160 a8 cf f2 3d 0d f1 9f bd 34 75 c4 3d e2 05 14 bd
       0.118560135 -0.07809649 0.09592667 -0.036138423
000170 83 4e dd bd 3a c3 5e 3c 6e 7a eb bb 8b 35 df bc
       -0.108059905 0.01359635 -0.0071862256 -0.027247211
000180 60 f9 89 bd 1e 0d 97 3d a2 fd d6 3b 6f 3d 4d bc
       -0.06737018 0.07375549 0.006560997 -0.012526854
000190 a1 59 f4 3d 92 fa 97 bd b9 3d 61 3d 7a f7 77 bd
       0.11931158 -0.07420839 0.054990504 -0.060538746
0001a0 84 8c b2 bd 67 cb 7b bd 77 c2 e2 3d d2 af c3 3d
       -0.087182075 -0.061473276 0.110722475 0.095550194
0001b0 b1 6e 45 3d 4f 8a 31 3d 70 8a 35 3d bc 1f ff bc
       0.048201267 0.043344792 0.044321477 -0.031143062
0001c0 c7 7b fa 3d 40 63 ae bd c4 2a 93 3d e3 45 2b bd
       0.1223064 -0.08515024 0.07185891 -0.041814696
0001d0 6a 9d 1e 3d 4f 80 80 3d a6 d1 42 3d 7b 17 cf bd
       0.03872434 0.06274473 0.047563218 -0.101119004
0001e0 ae 0e 7e 3d 35 a8 cc bc 41 07 b2 3d 03 d6 84 bd
       0.06202572 -0.024982551 0.0869279 -0.06486132
0001f0 c0 c8 5e 3d 90 73 fb bd ff 5b e8 3d e8 b3 cc 3c
       0.05439067 -0.12277901 0.11345672 0.02498813

static_ll.2.weight f4 [64, 128]
000000 c9 4c 15 3d ff 6c 40 bd 99 51 7d 3d 89 bc 47 3d
       0.03645018 -0.046978947 0.061845396 0.048763786
000010 37 a6 9c 3d 23 ff 91 3c db 91 35 bd 47 cf 10 bd
       0.076488905 0.017821854 -0.04432855 -0.035353925
000020 7a 09 84 bd 7d 07 02 3d 9b 6d 7a bc 94 06 14 3b
       -0.0644712 0.031745423 -0.015284921 0.0022586929
000030 98 f6 78 bc 62 a7 d2 3b 21 c9 a5 3c b6 fc 7c 3d
       -0.015195511 0.006428645 0.020237507 0.06176444
000040 01 c8 46 3d 0a 07 8e bd 1d 98 03 bd ee 62 8a bd
       0.048530582 -0.06934936 -0.03212749 -0.067571506
000050 8b 11 4e bd 88 7a 96 3d 12 9f 6d 3d 71 a1 24 3d
       -0.0503097 0.0734759 0.05801303 0.040193025
000060 4f bd 97 ba 0e 11 ac 3d 1e 13 3a bd 26 f4 83 bc
       -0.0011576804 0.084016904 -0.045428388 -0.01610763
000070 bc 03 37 3c c2 2c c3 bb df 81 97 3c 2f 9c aa bd
       0.011170324 -0.0059562633 0.018494545 -0.08330571
000080 d2 75 c4 3d 9e 62 33 bd 82 38 86 bc ee 40 86 bd
       0.09592785 -0.04379522 -0.016384367 -0.06555353
000090 c9 c8 85 3d 5b 53 2e 3d b2 9c 48 bc e6 98 d4 3c
       0.06532437 0.042559963 -0.01224439 0.025951814
0000a0 5a a4 de bc 6f dd be 3c 59 e0 8c 3c 33 7f 7a 3d
       -0.027177978 0.023298947 0.017196821 0.061156463
0000b0 b0 4d 19 3d a8 d8 68 bd 33 d2 5b 3d 61 3a 72 3d
       0.037427604 -0.056847245 0.05366726 0.059137706
0000c0 b2 f9 33 3d c0 1a 43 bc 98 7f a2 bc 0d 92 87 bd
       0.0439393 -0.011908233 -0.019836232 -0.06619654
0000d0 86 9d 21 bb 3f 2d c3 3d 3a eb 3d bd 3d ff 98 3d
       -0.0024660542 0.095301144 -0.046366908 0.07470558
0000e0 43 51 20 3d d9 54 91 bd 1b 95 6a bd e1 10 5e 3d
       0.039139997 -0.070962615 -0.057271104 0.054215316
0000f0 a9 43 a6 3d 5a 2d ae 3d b7 4e c9 3b 99 b3 16 3c
       0.08118374 0.08504744 0.0061434167 0.009198093
000100 11 06 d8 3b ac d8 66 bc d4 12 b4 3d 9c 05 50 bd
       0.00659252 -0.014089745 0.08792654 -0.0507866
000110 5c 3d d0 bc 7c ea 6e 3d ee 6c e4 bb c1 37 8e bd
       -0.025419883 0.05832909 -0.0069709932 -0.06944228
000120 f3 56 16 3d 14 b8 15 3c b0 83 52 3c af db 0a bd
       0.036704015 0.009138126 0.01284878 -0.033900913
000130 2d 4c 89 bd d3 15 b3 bc ad 75 2d 3d 59 62 9b bc
       -0.067039825 -0.021860993 0.042348552 -0.018967794
000140 ff 21 26 3d 99 0f 94 3d a2 d1 43 3d 2c 24 50 bb
       0.040559765 0.072295375 0.047807343 -0.0031759841
000150 85 fd 9b 3b 44 09 4e bc ed 44 87 bd 87 4e ca 3b
       0.0047604465 -0.012575451 -0.066049434 0.006173912
000160 9d 59 fc 3b d3 12 1f bd f2 41 70 bd 68 fb 84 bd
       0.0077011124 -0.03883631 -0.05865664 -0.064932644
000170 55 ec 2d 3d 74 cd 8a 3d b7 68 ec bc 6d f2 8b bd
       0.042461712 0.06777468 -0.028858526 -0.068333484
000180 58 a1 2c 3b ff 36 03 3d 61 02 83 3d 1a 21 a1 3d
       0.0026341286 0.03203487 0.06396938 0.07867642
000190 22 d6 b6 3c d5 2c 6d 3d 35 dc 35 3d 67 74 ac 3d
       0.022318903 0.057904083 0.04439946 0.084206395
0001a0 e2 58 43 3d 4d ba 61 bd 93 45 a5 3d f6 80 cf 3c
       0.047692187 -0.05510931 0.08069911 0.025330048
0001b0 13 5f fc 3c 81 55 aa 3d 6a e0 cf bc 9a 4d 7d bd
       0.030807054 0.0831709 -0.025375564 -0.061841585
0001c0 fc f6 06 bc b9 0f 56 3d c2 f9 b3 bc 13 54 b6 3d
       -0.008237597 0.052261088 -0.02196968 0.08902755
0001d0 6d 15 c8 3d e7 4f 0e bb 1f ab 7d bc 51 9e 97 bc
       0.09769712 -0.0021715106 -0.015482693 -0.018508108
0001e0 1b 21 28 bd 6f 96 3b 3d ce 9a 83 3d e7 4d 7b bd
       -0.041047197 0.04579776 0.06426011 -0.06135359
0001f0 8a 51 08 3d d2 20 c8 3c a1 32 99 3d f2 5f b7 3c
       0.033280887 0.024429712 0.0748036 0.022384617
000200 0b b0 1b 3d 3f a7 8b bc 2f fb 08 3d 00 60 1f bc
       0.038009685 -0.017047523 0.033442672 -0.009727478
000210 55 f5 24 3d db 4c 21 bd 9a 2a 62 3d 0d 90 ab 3d
       0.04027303 -0.039379936 0.05521641 0.08377085
000220 15 9f fe 3c 24 84 12 bc 9c fa 56 3d 4c c5 d8 3d
       0.031081716 -0.008942638 0.052485093 0.105845064
000230 82 55 9d bb 30 4c 5c 3d 69 1a 26 bd 46 96 a4 3d
       -0.004801453 0.053783596 -0.04055253 0.08036475
000240 1d 7a b7 bc 84 a4 d7 bc 43 7b df 3c 1f 7a 31 3d
       -0.022397095 -0.026323564 0.027280455 0.043329354
000250 8d 31 86 bd 51 fc 83 3d f9 2d 46 3d 0d 2f 0a bd
       -0.0655242 0.0644461 0.048383687 -0.033736277
000260 0a 51 78 3c 45 7c 7c 3d 97 75 04 3d 8f ea a4 3d
       0.01515604 0.06164195 0.032338705 0.08052551
000270 f5 4c 89 bd 97 8a 9e 3d 84 7e fd 3c 3f 22 63 3d
       -0.067041315 0.07741278 0.030944116 0.05545258
000280 6c 1d 19 b9 b7 f4 fd 3c 08 5c 34 bc 46 72 34 3d
       -0.00014602178 0.031000478 -0.01100827 0.044054292
000290 e1 3d 44 3d a4 46 68 3d db ca a8 bc f7 b1 a7 3d
       0.047910575 0.056707993 -0.020604542 0.08188241
0002a0 e8 13 6f 3d df 84 d8 bc 32 d8 7e 3c 47 e9 91 bd
       0.058368593 -0.026430545 0.015554475 -0.07124572
0002b0 13 63 96 3d 37 15 69 3d 6e 8f 97 3d d9 11 a4 3d
       0.07343116 0.056904998 0.07400404 0.08011217
0002c0 8e 98 bb bd 19 f3 c6 3d 23 c2 74 3d 2f 12 ca 3c
       -0.09159957 0.09714336 0.059755456 0.024666874
0002d0 4e 1c 29 bd ee 3b 97 3d 38 b7 a3 3c 8f 52 9e bd
       -0.04128676 0.073844776 0.019984826 -0.077305906
0002e0 32 eb d3 3c 2a 15 ac bd ac 08 af bd 8b e2 9a 3b
       0.025868986 -0.08402474 -0.08546576 0.004726713
0002f0 81 61 c1 3d 6d 3e 06 bd d9 9e 23 3d bd 4e 82 3c
       0.094424255 -0.032774378 0.03994641 0.015906686
000300 d6 4c eb 3c 8c 97 78 bc 41 85 ac 3d 12 1d 9b 3c
       0.028723162 -0.01517285 0.08423854 0.01893476
000310 87 87 a1 bd 3e ad 61 bd 61 3d 8b 3d 2e 2e b6 bd
       -0.07887178 -0.055096857 0.067988165 -0.08895527
000320 c5 1b 99 3c 7d e4 ad 38 e4 52 31 3d e8 ef 04 bc
       0.01869 8.291842e-05 0.04329194 -0.008113839
000330 0b b9 ce ba e7 d7 d0 3b 97 07 ed bc 9c 85 cb 3d
       -0.00157717 0.006373394 -0.028934283 0.09937593
000340 1a 1e 22 bd 69 38 7e 3d 21 5d 8c bd ce fb 02 bc
       -0.03957949 0.062065516 -0.068537004 -0.007994605
000350 fd 3c 6c bd c0 ea 47 3d 14 18 b3 3d 4f ce 4e bd
       -0.05767535 0.04880786 0.08744827 -0.05048972
000360 f8 e7 fe 3c dd 47 cb 3d f0 40 35 bd 0c 3e 8f bd
       0.03111647 0.09925816 -0.044251382 -0.069942564
000370 61 1f 86 3d 0a 64 7d 3d 52 a7 c7 3b df 19 99 3d
       0.06548954 0.061862983 0.006092944 0.07475638
000380 bc 94 b2 3d 99 8b 90 3d 05 a6 be 3d 86 39 9d bc
       0.08719775 0.07057876 0.093090095 -0.019192468
000390 10 43 c0 3c bb 51 ee bc c1 f5 f2 3b a2 5c f4 3c
       0.023469478 -0.029091706 0.00741455 0.029829327
0003a0 0c 5e 3b bd a2 a6 3d 3d c8 fe b2 3c 33 3e 4e 3d
       -0.045743987 0.04630149 0.021850005 0.050352287
0003b0 33 a7 a3 bc 73 52 31 bd 81 4d e7 b9 46 87 4f bc
       -0.019977188 -0.04329152 -0.00044117498 -0.012666529
0003c0 89 b0 31 bd 3e f6 a2 bd f4 bd 3c 3c b9 08 cb 3c
       -0.043381248 -0.07957123 0.011519898 0.024784433
0003d0 a0 eb 8f bd f2 df 5c 3d 68 34 a5 3d 8e 03 e2 bc
       -0.07027364 0.05392451 0.08066636 -0.027589586
0003e0 dc 25 8e bd ab 4e 5f bc 5a 19 64 bd 09 0e f8 ba
       -0.06940815 -0.013629596 -0.05568824 -0.0018925081
0003f0 32 c1 9a bc 6f 15 83 3a 83 ed 25 3b 13 8c 87 bd
       -0.01889095 0.0010000895 0.002531857 -0.06618514

static_ll.2.bias f4 [64]
000000 a3 97 53 3d 2c bc 23 3d 18 8c 79 bc 1e dd 70 bd
       0.051658284 0.039974377 -0.015231155 -0.058804624
000010 ce 63 00 bd d7 7e 15 3d e9 65 e0 3c f9 c1 23 bc
       -0.03134518 0.036497917 0.027392345 -0.009994977
000020 82 8e 24 3d b3 a1 9d bd b4 08 96 3d cc 6d f5 bc
       0.04017497 -0.07696857 0.07325879 -0.029959582
000030 9a ea af bc b3 5f 21 3c 43 e1 a1 3d 0a 79 c3 3d
       -0.021474171 0.009849477 0.079042934 0.09544571
000040 b7 69 a1 bd 4b 66 82 3c e0 45 b6 3d 47 51 8c bd
       -0.07881492 0.015917918 0.08900046 -0.0685144
000050 3e 28 1e bd e3 81 e9 bc db ba 62 3d bd a0 91 3d
       -0.038612597 -0.028504318 0.05535398 0.071107365
000060 cb e7 0a bd 79 b7 95 3d 0f 29 0c 3d ca 82 12 bd
       -0.03391246 0.07310385 0.034218844 -0.03576926
000070 72 9d 4e 3c e1 00 1a 3c 68 8c 75 3d 1e a4 6a 3c
       0.01261078 0.009399624 0.059948355 0.014321355
000080 ca 2f 42 bd 5d 57 94 bd 50 bd b2 3d 1f 0d 1b 3b
       -0.047408856 -0.07243226 0.08727515 0.0023658944
000090 fb 3b 0d 3d 4d b8 54 bd 57 3b a6 bc d9 5b 28 3c
       0.03448103 -0.051933575 -0.020291967 0.010275804
0000a0 a5 84 0c 3d 70 cf 70 3d 99 0e ae bc 49 f3 c3 3c
       0.034306187 0.058791578 -0.021247195 0.023919718
0000b0 46 a4 89 bc 71 aa 85 3d 1f f0 df bc 6b 51 20 3c
       -0.016801964 0.0652665 -0.027336178 0.009785037
0000c0 89 1f 35 3d b1 ca 9b 3b ab 8f 12 3c ad 48 8a 3c
       0.044219527 0.0047543873 0.008945386 0.016880358
0000d0 3f df 4a bd 31 dc 82 3d a9 dc 94 3d ae 41 4b 3d
       -0.04952931 0.063896544 0.0726865 0.049623184
0000e0 81 e7 00 bd fb 1f a4 3d 59 e0 2c bd e4 91 b7 3d
       -0.03147078 0.08013912 -0.042206142 0.08963373
0000f0 ac b9 90 3d 42 2e 8a 3c d6 5e 4d bd 7d 01 c8 3d
       0.07066664 0.01686776 -0.05013927 0.09765909

glu_encoder.rnn.weight_ih_l0 f4 [48, 2]
000000 e0 4c 3d 3e 4b 8e 2e be 7b 27 d5 3d 77 01 61 bd
       0.18486357 -0.17046468 0.10407921 -0.054933038
000010 ba 0d 4f 3e a6 d5 36 3e ed 80 b8 bd 63 25 32 be
       0.2022008 0.17854938 -0.09008966 -0.17397074
000020 01 10 24 be 5c 0a 46 3e 52 38 8d 3e 2f 10 0c 3e
       -0.1602173 0.1933989 0.2758203 0.13678049
000030 7f c8 69 be 5d e1 b4 3d 4c 48 8f 3e 15 00 93 be
       -0.2283039 0.08832047 0.27984846 -0.28711
000040 e6 ef c0 bd 25 43 6f be fb 4e 78 3e 28 70 25 be
       -0.09420757 -0.23365457 0.24248879 -0.16156065
000050 e0 9c 17 3e 02 4a b7 bc 33 0b 0f 3e 59 ee 74 3e
       0.14805937 -0.022374157 0.13969116 0.23919047
000060 c9 83 57 3e e7 c8 99 bd ff 10 ce 3d 25 93 d9 3c
       0.21046366 -0.07509022 0.100618355 0.026559422
000070 5e c5 86 3c 88 36 fe bc 87 b8 33 be ed 15 7b bd
       0.016451534 -0.031031862 -0.1755086 -0.061300207
000080 4a 43 5a 3e 4b a5 b6 bd 8c 60 62 3d 71 d0 78 3e
       0.21314731 -0.08918246 0.055267856 0.24298264
000090 16 35 5a be 28 b0 5d be f8 5d d0 bb 6a c3 6a 3e
       -0.21309313 -0.2164923 -0.006358858 0.22926107
0000a0 e1 5e f3 bd e1 f6 59 3e e2 7d 76 bd f6 80 b3 bd
       -0.11883331 0.21285583 -0.060178645 -0.08764832
0000b0 7d 94 d0 bd 7a 1e 02 3e dd 06 5c 3e 87 fc 45 3e
       -0.10184572 0.12706938 0.21486993 0.19334613
0000c0 f9 4d 84 3d 4d 69 39 bd 9f a7 92 be 57 33 58 3e
       0.064601846 -0.04526644 -0.2864351 0.21113335
0000d0 46 36 8e be 54 23 24 bd 61 68 84 3d 03 2e 43 bd
       -0.27775782 -0.040072754 0.06465221 -0.047651302
0000e0 a0 b6 4d 3e 93 2e 4c bd 34 01 5a 3d 96 ab 67 bc
       0.20089197 -0.049849104 0.053223804 -0.01414003
0000f0 77 05 57 3e 46 46 ef bc d9 24 1c be e1 f6 39 bd
       0.20998178 -0.029208314 -0.15248431 -0.045401458
000100 34 2a fc 3d 4d b7 c5 bd 5d 91 22 be 6f 38 53 3e
       0.12312737 -0.096541025 -0.15875764 0.20626996
000110 f3 c5 0d 3e d6 e8 66 3c 3f 64 80 3e 2d b4 a4 bd
       0.13845043 0.014093598 0.25076482 -0.08042178
000120 f5 ea e4 bd 72 4c 3d be a1 6d 6a 3e 9f 23 67 be
       -0.11177627 -0.18486193 0.22893383 -0.22572182
000130 99 87 50 3e b1 ae 3c bd b9 cc bb 3d 84 e0 16 bd
       0.20364226 -0.046065036 0.09169907 -0.03683521
000140 89 22 1c 3e dc 93 0b be 2d 98 78 3e ba 47 3c 3e
       0.15247549 -0.13630623 0.242768 0.18386737
000150 22 71 13 3e 77 03 4f 3e d5 20 26 bd 43 51 66 bd
       0.14398625 0.20216165 -0.040558655 -0.05622984
000160 81 8f df bd 18 43 f1 bd 04 a5 73 be 34 d4 66 3e
       -0.10916043 -0.11780375 -0.23793417 0.22541887
000170 af 76 61 3e a9 8f 40 bd cf 8b 0f 3d 08 a7 3b 3e
       0.2201793 -0.047012005 0.03504544 0.18325436

glu_encoder.rnn.weight_hh_l0 f4 [48, 16]
000000 5b 7a 39 be fc 99 70 be 1b fd b2 bd 19 b5 0e 3e
       -0.18113081 -0.2349624 -0.08739682 0.13936271
000010 34 86 c8 3d 4f f4 8c bd 3a 3d 83 be f5 6f 44 3e
       0.09791222 -0.06882536 -0.2563265 0.19183333
000020 0d 89 7b 3d e0 ff 50 3e d8 d0 37 be b3 c8 2a be
       0.06141 0.20410109 -0.17950761 -0.16678123
000030 8a a0 15 bd 8d 5e 07 be f0 17 01 3e af 7e 8f bd
       -0.036530055 -0.13219662 0.12606788 -0.07006585
000040 f2 0b d2 3d 83 3c a5 bd d7 34 06 3e a7 a3 84 be
       0.10256185 -0.08068182 0.13106094 -0.25906107
000050 53 88 ff bd 1c da 4b 3e 1c a2 03 bb 21 f8 36 3d
       -0.12477174 0.19907421 -0.0020085638 0.044670228
000060 03 13 7d be 88 42 5e 3e b4 a8 a6 bd 6c a5 e2 3d
       -0.24714284 0.21705067 -0.08137646 0.11066708
000070 18 3a 05 3e 2f 81 ec bd 21 c7 61 be 51 6b 99 3d
       0.13010442 -0.11548077 -0.22048618 0.07491172
000080 bf ee 37 3e 71 1f 26 be bb 9d ee bd c4 14 55 be
       0.17962168 -0.16222931 -0.116511784 -0.20808703
000090 7d a4 a1 3c 36 68 6a 3d ab 4b 2a be a3 4f 3c 3e
       0.019731754 0.05722829 -0.16630428 0.18389754
0000a0 63 2e 15 3e 9b 21 9d bd f5 e2 82 bd a3 99 15 3e
       0.14568476 -0.07672425 -0.06390945 0.14609389
0000b0 ea c2 f2 bd 38 16 18 3e 64 72 37 be 7e 50 40 3e
       -0.11853583 0.14852226 -0.1791473 0.18780705
0000c0 aa bd 13 3e f2 fc 38 be c2 6d 05 3e 5b 04 5d 3e
       0.1442782 -0.18065241 0.1303015 0.21583693
0000d0 94 3d 81 3c 25 00 1b 3e 2f 24 3d 3e 87 42 ed 3d
       0.015776433 0.15136774 0.18470834 0.11584955
0000e0 cd 8f 47 be 9d 54 a6 bd 41 96 1e be 70 ce 0b be
       -0.1948845 -0.081216075 -0.15487005 -0.13652968
0000f0 74 11 12 3e 6a c4 22 3d e9 79 d6 3b 45 6d 02 bd
       0.1426447 0.039738096 0.0065452945 -0.03184249
000100 c9 49 c1 bd 92 10 9f 3c eb fa 00 3d fb cf 54 bd
       -0.094379015 0.019417081 0.031489294 -0.051956158
000110 d4 75 43 3d 9c 2b b3 bd b7 a6 8f 3e 6b 8e e0 3d
       0.04771979 -0.08748552 0.2805688 0.10964664
000120 a7 bd 57 3b 14 d7 00 3e a1 cc 23 3d 92 2a 89 be
       0.0032919438 0.12582046 0.03999007 -0.2679029
000130 a1 e8 8c be ae b1 ea 3d de e7 9f 3c c3 00 24 be
       -0.27521232 0.11459671 0.019519743 -0.16015916
000140 a6 40 c8 3d 0d 18 34 3e 8d e9 83 3c f3 be 6f 3d
       0.09777956 0.175873 0.016102577 0.058531713
000150 6f fb dc bb 14 af 5e bc a9 65 ea bc 09 e7 57 3e
       -0.0067438404 -0.013591547 -0.028612928 0.21084227
000160 7d cb 8d 3d 4f 22 7d 3e 0d a2 1e be f4 83 aa bd
       0.06923578 0.24720119 -0.15491505 -0.08325949
000170 71 2b 47 be 60 50 84 be 46 4c 26 bd a9 da eb bc
       -0.19450165 -0.2584257 -0.040600084 -0.028790789
000180 d7 55 d5 bd 7b 7c 3e 3e 68 fb ed 3d ed 18 4a 3e
       -0.10416763 0.18602173 0.116202176 0.19736071
000190 12 10 ae 3d cc 19 44 3e 11 f4 c8 bd b0 1a 16 39
       0.08499159 0.19150466 -0.09812177 0.00014315057
0001a0 77 cd 3a 3e a7 07 8b bc c3 f8 5f be a2 2d 57 3e
       0.18242441 -0.016971422 -0.21872239 0.21013501
0001b0 d8 8a 49 3e a3 d0 13 be 44 0c 7f 3d db 28 51 be
       0.19681871 -0.14435057 0.062267557 -0.20425741
0001c0 ad 38 8c 3d b2 91 1b be e3 c8 0b bd aa eb 92 3d
       0.068467475 -0.15192297 -0.034127127 0.071738556
0001d0 78 3a 59 be fb f5 14 3e 6e 7f bc bd ec 55 a9 bd
       -0.2121371 0.14546959 -0.09203993 -0.082683414
0001e0 bd 73 2f be 0f 72 11 3e d8 60 6c 3d 9b 5b 52 be
       -0.17133994 0.14203666 0.057709545 -0.20542757
0001f0 a6 3c 82 be 71 0f 7f be 46 db 4b 3e fd bd 85 bd
       -0.25436896 -0.24908234 0.19907865 -0.06530378
000200 ee 11 c3 3c b6 51 78 3e b5 ef 62 3e 23 7c 3e be
       0.02381226 0.2424992 0.22161753 -0.18602042
000210 a8 5d 29 be 30 bc f1 3d 3e 9a 63 bd 95 03 6b be
       -0.16539633 0.11803472 -0.05556702 -0.22950585
000220 dd de fc bc 23 73 ba 3d 30 14 bd bd da 84 50 3e
       -0.030867988 0.09103992 -0.09232366 0.20363179
000230 e4 17 64 be 33 4d c0 bd 21 6c 66 3e 6a 50 c0 bd
       -0.22274739 -0.093897246 0.22502185 -0.09390338
000240 bd a8 8a 3e 08 12 a5 bd 28 4e 2a 3e f8 b7 44 be
       0.27081862 -0.0806008 0.16631377 -0.19210804
000250 ce d9 42 be ca 27 3e be f9 43 60 3d ba d4 74 3d
       -0.19028398 -0.18569866 0.054752324 0.059773184
000260 6d 42 15 be 40 c8 0a be 85 cf 60 bb 03 a5 98 bd
       -0.1457612 -0.13552952 -0.0034303379 -0.074533485
000270 be a0 99 3b fb cc 1b 3d 8b e2 87 3d 58 68 db 3d
       0.0046883514 0.03803728 0.066350065 0.10713261
000280 16 32 80 3e 0d e7 e7 bd 39 d4 5d be 9d c2 ac 3d
       0.25038213 -0.11323366 -0.21662988 0.08435557
000290 4e 80 3d 3e df 9c 0d 3e a8 33 af 3d a0 34 3a 3e
       0.18505976 0.13829373 0.085547745 0.18184137
0002a0 87 c3 42 3d e4 2f 16 bd d1 ae a1 bd 11 02 0c 3e
       0.04754975 -0.036666766 -0.07894672 0.13672663
0002b0 e7 6f 85 bd f8 eb cc 3b de bc 24 3e 9d e2 78 3c
       -0.06515484 0.0062537156 0.16087672 0.015190748
0002c0 a5 4c 09 be 1f d9 da 3d 20 22 45 3d 8d bb 18 3e
       -0.13408144 0.10685944 0.048128247 0.14915295
0002d0 d9 28 8b 3d 43 ba b2 bc 63 a9 17 bd c1 4d d7 bd
       0.067949004 -0.021817332 -0.037026774 -0.10512877
0002e0 28 52 87 bd 41 cf 0d be 2d d1 9f bd ca c6 14 3d
       -0.06607467 -0.13848592 -0.07803569 0.036322393
0002f0 8e 0e 6f 3e 38 71 2d be 12 54 37 bd 03 7a 6c 3e
       0.23345396 -0.16937721 -0.04475791 0.23093419
000300 6c 6b 21 3e 1a 77 fb 3d cf 00 26 be b7 cc 2d 3e
       0.15763634 0.12278576 -0.16211246 0.16972624
000310 bc 92 7e be fb b1 a3 bd 31 a9 e2 3d a7 7c e7 3d
       -0.24860662 -0.079929315 0.11067427 0.113030724
000320 32 f2 41 3e 9b 3b e7 bd b9 bd 3c be ca b6 e5 bd
       0.18940046 -0.11290666 -0.18431748 -0.11216505
000330 fa ee 78 3d 32 40 54 bd 3b 4e 91 3c 83 db 3d 3d
       0.06077478 -0.051819034 0.017737499 0.04635192
000340 93 b8 c1 3d 1e 7f fc 3d e9 b4 ca 3d 26 07 45 3e
       0.09459033 0.12328933 0.09897787 0.19241008
000350 4a bf f3 bd a0 49 06 be b9 44 72 bd 39 e9 54 3d
       -0.1190172 -0.13114023 -0.05914757 0.05198023
000360 c8 a4 36 3e e4 d4 70 3d 10 33 e2 3d a8 96 ee bd
       0.17836297 0.05879678 0.11044896 -0.11649829
000370 5f 1f 1c 3b 42 f9 32 3d ca b4 f3 bd 84 d7 20 be
       0.002382241 0.043694742 -0.11899717 -0.15707213
000380 03 a8 88 3e bc cc 2c 3e 8b 0c 49 be 85 c1 31 bd
       0.26690683 0.16874975 -0.19633691 -0.043397445
000390 70 dc 01 3c b5 f0 2e 3e 0f 16 df bd 14 ba cb bd
       0.007926092 0.1708401 -0.10892879 -0.09947601
0003a0 d7 a2 00 be 2d f1 1e 3e 5a 82 0e be c4 3a f0 3c
       -0.12562118 0.15521689 -0.13916913 0.029324897
0003b0 97 57 2d 3e 28 a9 4a 3b 5a b6 8d 3e 77 c5 11 be
       0.16927944 0.003092358 0.27678186 -0.14235483
0003c0 15 95 37 3d 38 11 51 bc 14 77 00 3e 15 d3 52 3e
       0.04481991 -0.012760453 0.12545425 0.20588334
0003d0 05 ee 4c 3e 2d 0f 50 be 73 5c 4b 3d 17 92 69 3e
       0.20012672 -0.20318289 0.049648713 0.22809635
0003e0 06 15 eb 3d f7 17 16 be a4 42 90 bd 96 3b 28 be
       0.11478619 -0.1465758 -0.07043961 -0.1642898
0003f0 a0 73 e2 bd ee bf 18 be 48 84 07 3d 85 d7 f2 3d
       -0.1105721 -0.14916965 0.033085138 0.11857513

glu_encoder.rnn.bias_ih_l0 f4 [48]
000000 79 28 45 3e dc e2 5d be 51 15 c4 bc c5 05 9b 3c
       0.1925372 -0.21668571 -0.023935946 0.01892365
000010 21 17 42 be 04 88 82 bd 01 29 72 bb 2d d7 e8 bd
       -0.18954135 -0.06373599 -0.003695071 -0.113691665
000020 b7 b7 c1 3d 94 15 ca 3d ce e0 ab 3c 27 68 a8 bd
       0.09458869 0.09867397 0.020981219 -0.082229905
000030 a7 65 c2 bd f9 0c e2 3d 7d 66 a7 bd 3f d3 c5 bd
       -0.09492045 0.110376306 -0.08173845 -0.096594326
000040 11 4f 6d 3e b2 51 5d be 43 54 28 3e 13 71 6c be
       0.23174693 -0.21613196 0.16438393 -0.2309001
000050 fd d9 3d 3e ee c5 1d be 64 19 45 3e 93 b8 a7 bd
       0.18540187 -0.15407535 0.19247967 -0.081895016
000060 02 d0 90 3c a0 70 50 3e a6 9b a8 3d f7 e2 50 3e
       0.01767731 0.20355463 0.082328126 0.2039908
000070 b0 3b ab 3c 3c d9 63 bc d1 8f f0 3d ea 01 a6 bd
       0.020902485 -0.013906773 0.11746181 -0.08105834
000080 5a c9 5b 3e 7f 10 30 3e 4a e5 ff bd 0f a8 41 be
       0.21463528 0.17193793 -0.12494905 -0.18911766
000090 3d 6f 23 be 20 8e 29 be 47 96 22 be 2f 74 33 be
       -0.15960403 -0.16558123 -0.15877639 -0.1752479
0000a0 3a b7 52 bd 5e 18 75 3e ef cf fa 3c 8d 5b 0a be
       -0.05144427 0.23935077 0.030616729 -0.13511486
0000b0 fd 40 a0 3d c1 df 6a be 38 4c b5 bd 05 ca cc bd
       0.078248955 -0.22936918 -0.08852428 -0.0999947

glu_encoder.rnn.bias_hh_l0 f4 [48]
000000 4e e4 02 bd 76 0d 69 3e d5 ea 63 3e 55 f7 97 bd
       -0.03195601 0.22759041 0.2225755 -0.07420222
000010 01 85 18 be 4b f1 99 bb 71 34 73 be 04 5a 32 be
       -0.14894487 -0.004697954 -0.23750474 -0.1741715
000020 de 8b 2f bd 16 a1 d2 bd e7 e7 4d 3d b9 b9 37 bc
       -0.042857997 -0.10284631 0.050269987 -0.011213713
000030 44 fc 61 3e 36 95 24 be 67 f6 82 3d 9e e3 06 3e
       0.22068888 -0.16072544 0.06394654 0.13172767
000040 c5 3f 71 bd 66 a8 33 3e 1c a4 6f 3e e9 92 3e 3e
       -0.058898706 0.17544708 0.23402447 0.1861073
000050 f3 67 62 be 09 f8 98 bd b0 06 01 3e 3d 3e f9 3d
       -0.22109966 -0.07469184 0.12600207 0.12170074
000060 51 17 e6 3d 87 33 6d be d2 64 32 3e df 08 4d 3e
       0.11234916 -0.23164187 0.17421272 0.20022915
000070 cc 29 3d 3e 19 be 6a 3e 30 3b d0 3d 6e 9b 4b 3e
       0.18472975 0.22924079 0.10167539 0.1988351
000080 12 24 a1 3d c0 57 b7 bc 88 a4 2f 3e 80 3c d9 3d
       0.07868208 -0.02238071 0.17152607 0.106072426
000090 2d b7 70 be 30 62 04 be 17 56 34 be 71 2d 02 3e
       -0.23507376 -0.1292808 -0.17610966 0.12712647
0000a0 db bc 35 3e 67 a2 a4 bd 9f f3 98 bd f4 87 37 be
       0.17747824 -0.08038788 -0.07468342 -0.17922956
0000b0 35 01 83 be 9f f0 57 be 1e 3e d5 3c 7b 66 1a be
       -0.25586858 -0.21087883 0.026030596 -0.15078156

glu_encoder.hid2lat.weight f4 [64, 16]
000000 d6 c2 85 be a5 a4 1d be 4d 52 be bd bf 34 13 3e
       -0.2612521 -0.15394838 -0.092930414 0.1437559
000010 3c b7 3e 3d 58 89 16 3e 78 97 19 be 73 2f 0b 3d
       0.046561465 0.1470083 -0.14999187 0.033980798
000020 d7 9a 8c bd 36 14 75 be fb 16 11 be 77 e9 ff bc
       -0.06865471 -0.23933491 -0.14168923 -0.031239254
000030 fd 68 60 3e d6 bb 1a be 3e 01 43 be d4 7b 32 be
       0.2191505 -0.15110716 -0.19043443 -0.17430049
000040 07 64 10 3e 3c d5 10 3e f1 7a 5f be 06 ed d0 3d
       0.14100657 0.14143842 -0.21824242 0.10201459
000050 1a 0a 6c 3e 9a bd 16 bb 1e 31 67 3d 0d 2c a4 bd
       0.23050728 -0.0023001195 0.056443326 -0.080162145
000060 f4 44 2c 3e c1 2f 13 bd 69 5b 2b be 61 2d c2 bd
       0.16823179 -0.035934214 -0.16734089 -0.094813116
000070 c5 d4 08 3e 8c 52 c3 3d a3 c7 45 be 29 13 59 bd
       0.13362415 0.09537229 -0.19314437 -0.05299679
000080 bb 4a ef bd 2c 6c 37 bc a5 01 f0 bc e3 43 81 3e
       -0.116841756 -0.011195224 -0.02929766 0.25247106
000090 81 96 73 bc db 9c b0 3d 02 d3 74 3e 83 28 56 3e
       -0.014867426 0.08623668 0.23908618 0.20913891
0000a0 0d 8f 26 bd fe 87 7d 3e f4 b0 48 be a0 91 03 3d
       -0.040663768 0.24758908 -0.19598752 0.0321213
0000b0 75 fc bc 3d bc fe d2 bd c2 dc e8 3d b0 0b 58 be
       0.0922784 -0.10302493 0.11370231 -0.21098208
0000c0 59 18 1e 3e cd e1 ec bd c7 50 75 3e 08 00 9d 3d
       0.15438975 -0.115665056 0.23956595 0.076660216
0000d0 48 78 ec bd 4b 46 3b 3e d4 9e fb 3a a9 59 7a 3e
       -0.11546379 0.18288533 0.0019197115 0.24448265
0000e0 49 78 33 be 70 a4 ad bd e5 9a 73 be 06 b3 f5 3c
       -0.17526354 -0.084786296 -0.23789556 0.029992592
0000f0 3d c1 e7 3c b5 09 bd bd e2 02 8e 3c 81 13 b9 bd
       0.028290385 -0.09230367 0.017335359 -0.09036923
000100 04 42 5c 3e d4 8e 0a 3e 19 a2 62 be 44 47 54 3c
       0.21509558 0.13531047 -0.22132148 0.012956444
000110 39 07 4f 3e ac ef 4d 3e f2 02 43 3e 6c e5 33 bd
       0.20217599 0.20110959 0.19044092 -0.043919966
000120 c7 1f d4 3d 67 78 ca bd 4f df 3c 3e a9 22 88 be
       0.103576235 -0.09886246 0.1844456 -0.26588944
000130 f2 86 5a be e0 84 e3 bd 80 84 d5 bd 9a 72 40 3e
       -0.2134054 -0.11109328 -0.10425663 0.18793717
000140 0f 1c f5 bd bf ff 30 be 73 ef 86 3e 28 4f 7c 3e
       -0.119682424 -0.1728506 0.2635456 0.2463957
000150 9a 66 36 3d 0d f8 56 3e 7a ed 35 3e 4f 2f 62 be
       0.044531442 0.20993061 0.17766371 -0.2208836
000160 b5 a3 87 bd 78 6f 07 3e 36 ae fd bd 31 d9 17 3e
       -0.066230215 0.13226116 -0.12386744 0.14828946
000170 fc ec b0 bc 88 bb c7 bd 8a f0 04 be 87 d0 c7 3d
       -0.021597378 -0.097525656 -0.12982383 0.0975657
000180 44 2f 1b 3d a1 73 04 be 3f a6 6b 3d 32 80 3e 3e
       0.037886873 -0.12934734 0.05753159 0.1860359
000190 00 ad 9b 3d 10 58 3e be 70 c4 02 3e 45 52 4d 3e
       0.076013565 -0.1858828 0.12770247 0.20050915
0001a0 08 c0 f2 bd 0e f9 07 3e c7 96 4c 3d 07 7a 00 3e
       -0.11853033 0.132786 0.04994848 0.1254655
0001b0 ce b2 c3 bd 27 3a 8b bc 96 56 16 be 2f 90 a6 bd
       -0.09555589 -0.016995503 -0.14681467 -0.081329696
0001c0 cc c3 ea bd 29 ee df 3d de c6 3c 3e 49 05 ba bd
       -0.114631265 0.10934097 0.18435237 -0.09083039
0001d0 cb 06 0a bd 75 f4 1e be 0d 8c d0 bd 95 99 38 3d
       -0.033697885 -0.1552294 -0.101829626 0.045068342
0001e0 54 2a e4 bd d4 b3 e7 bd 08 e9 86 be f9 46 13 3e
       -0.11140886 -0.11313596 -0.26349664 0.14382543
0001f0 12 5b 44 3e d6 25 19 3e c4 24 05 3e af 86 58 3e
       0.19175366 0.1495584 0.13002306 0.21145128
000200 6d b3 42 3d 7a 62 9a bd 14 07 28 be 86 96 5d 3e
       0.047534395 -0.07538314 -0.1640895 0.21639451
000210 bd b8 31 3e 63 4e 4b be 6a f0 45 be 45 99 3e be
       0.17355628 -0.19854121 -0.19329992 -0.18613155
000220 08 12 6d bd 1c 70 14 3e 31 49 2f 3e 77 73 4a be
       -0.057878524 0.14495891 0.17117764 -0.19770609
000230 57 6b a1 3c 40 46 63 3e f2 46 1a be fa 2f 0c 3d
       0.019704504 0.22194767 -0.15066126 0.03422544
000240 ae a2 ce 3c 86 02 58 be 45 43 b4 3d 6c 00 fc 3c
       0.025224056 -0.21094713 0.08801893 0.03076192
000250 e6 16 70 3d ea b9 2f 3e ec 1f 02 be 64 ef 9c 3d
       0.058615588 0.17160764 -0.1270749 0.07662848
000260 93 29 33 be 2f 26 f9 bd c3 1a 4f bd d9 da fd 3d
       -0.17496328 -0.12165486 -0.05056263 0.123952575
000270 4e f1 a2 bd 48 d0 c7 3d 1e 03 a0 3d f2 b9 08 3e
       -0.079561815 0.09756523 0.078130946 0.13352183
000280 5e bc f8 3d a5 1e 40 be 97 6e a1 3d 10 33 86 3e
       0.12145303 -0.1876169 0.078824215 0.26210833
000290 c5 30 2e 3e e3 e8 15 3e 66 a1 8e 3d 66 05 09 bd
       0.17010792 0.1463962 0.06964378 -0.033452414
0002a0 bf c5 09 3e 9d 40 ff bc 3a 75 18 be 89 41 ea bd
       0.1345434 -0.03115874 -0.14888468 -0.11438281
0002b0 f7 33 1c be 4a b7 87 bb bf f9 60 3e 9f 58 b8 bd
       -0.15254198 -0.004141723 0.2197027 -0.09001278
0002c0 f7 54 09 be 84 26 2e be 0a e0 2b be c8 a1 1b 3c
       -0.13411318 -0.1700688 -0.16784683 0.009499021
0002d0 ac 95 d3 3d b2 81 3f bd ab 19 49 3d 05 68 07 be
       0.10331282 -0.046754546 0.049096745 -0.13223274
0002e0 0f 1a 5e be 93 57 5a 3e e7 05 0f 3e 99 50 76 3c
       -0.21689628 0.2132247 0.13967095 0.015033864
0002f0 59 aa 73 be 72 19 07 3d 1e 0a 82 be 78 9b 09 be
       -0.23795451 0.03298325 -0.25398344 -0.13438213
000300 ea 10 4b 3d 2a 15 94 bd 08 db 09 3e 3b b8 31 3e
       0.049576677 -0.07230599 0.1346246 0.17355435
000310 c0 78 05 be 88 39 6f bd 59 42 99 bd fc dd 20 3e
       -0.13034344 -0.058404475 -0.07483358 0.1570968
000320 47 f6 75 3e b6 8c 52 3e 83 4f 37 3d dc a4 5b 3e
       0.24019729 0.2056149 0.044753563 0.21449608
000330 03 d8 14 3e 7d 4e 57 be 30 34 07 3e e3 35 30 be
       0.14535527 -0.21026035 0.13203502 -0.17208056
000340 0b d4 ca bd 7c d7 80 3d d4 e6 9c bd 1c e0 57 be
       -0.09903725 0.062911004 -0.076612145 -0.21081585
000350 e1 bb 5b be 60 32 30 be 5e 84 81 be 3e e2 0d 3e
       -0.21458389 -0.17206717 -0.252963 0.13855836
000360 60 db 5b 3e 63 42 27 be 2a 8a 20 3e a2 e2 2a 3e
       0.21470404 -0.16333918 0.15677705 0.16688016
000370 66 b6 82 bd 2f 79 86 3c 19 e6 6b be f2 d7 5c 3e
       -0.06382446 0.016415207 -0.23036994 0.21566752
000380 08 4d 39 3e 86 af 92 bd 89 79 da 3d e9 a8 44 3b
       0.18095791 -0.07162385 0.10667712 0.0030007905
000390 f0 ca 39 3c c7 ca 09 3e dd 5f 53 3d ec 07 88 be
       0.011339888 0.1345626 0.051605094 -0.26568544
0003a0 1c dc 89 be 63 13 ec bc a4 4f 89 be d5 00 56 3d
       -0.26925743 -0.028817838 -0.26818573 0.052246887
0003b0 b4 f4 fd 3b 3f b2 03 3d 83 d4 7c be 45 5d 1b 3e
       0.007750118 0.03215241 -0.24690442 0.15172298
0003c0 b0 78 47 be c3 05 b6 3d 40 22 ca bb c2 aa 39 be
       -0.19479632 0.08887818 -0.0061686337 -0.18131545
0003d0 79 8b 35 3d 77 de 5a 3e 45 98 b5 bc 02 dd d9 3d
       0.044322465 0.21373926 -0.022167334 0.10637857
0003e0 e3 64 f2 bd c0 d0 27 bc 7d c0 f8 3d fd ae 35 be
       -0.11835649 -0.010242641 0.12146089 -0.17742534
0003f0 bd 21 06 bd b2 87 05 3c f8 16 e0 ba 6e 4a 2c bd
       -0.03274702 0.008150028 -0.0017096689 -0.04206317

glu_encoder.hid2lat.bias f4 [64]
000000 a1 79 9b 3c 89 a8 88 bd a0 c0 43 be 54 a4 0a 3d
       0.018978896 -0.066727705 -0.1911645 0.03384812
000010 17 88 3c 3d a6 b5 02 3d 65 17 3e 3e 6f e0 ac bd
       0.046028223 0.031911515 0.18563612 -0.08441245
000020 f0 ef 78 3c 58 cb 01 3e e2 9d 6c 3e 56 c5 e0 3d
       0.015193924 0.12675226 0.23107103 0.10975139
000030 bc b7 e1 3b 7a 2c 0c bc 8a 85 21 bc 25 6f 45 be
       0.006888358 -0.008555526 -0.009858498 -0.1928068
000040 d7 44 57 bd 7e ad 79 3d f7 d2 b4 3b ad a0 63 3e
       -0.052555885 0.06095647 0.005518313 0.22229262
000050 83 fa ae bd 6a 4b 42 3e aa de ed 3d 9d 66 97 3d
       -0.08543875 0.1897408 0.116147354 0.07392619
000060 7c e9 27 3e c6 43 bc 3d 81 16 a1 3d 5e a2 d3 3c
       0.16397661 0.09192614 0.078656204 0.025834259
000070 62 04 1a be 64 7b 5f 3e fe 21 24 be a8 be 37 bd
       -0.15040734 0.21824414 -0.16028592 -0.04485956
000080 99 4e 72 be ef 65 80 be b0 7f 43 3e 0d 5c fd bd
       -0.23662795 -0.2507777 0.19091678 -0.12371073
000090 82 bd 5f 3e 71 f4 4c bd 8c 38 56 be 86 95 da bd
       0.21849635 -0.050037805 -0.20920008 -0.106730506
0000a0 37 e1 15 bd 5a 9f 18 3c 79 22 12 3e 3f a8 44 3c
       -0.036591735 0.009315336 0.14270963 0.012003004
0000b0 7e 86 83 3e 98 50 04 3e 7d ad f4 3d 45 2a 50 3e
       0.25688547 0.12921369 0.11947153 0.20328625
0000c0 6d e5 25 be f1 50 85 3c 0c a9 4e 3e 59 f3 60 3e
       -0.162008 0.016273947 0.20181674 0.2196783
0000d0 3b 55 89 3c f7 1e cd bd 25 c5 3c 3d 9f 53 74 bd
       0.016764274 -0.10015672 0.04608645 -0.05965006
0000e0 10 ca 84 be 6e 0e 48 be 19 a4 7c be 97 e1 63 bd
       -0.2593541 -0.19536754 -0.24671973 -0.05563506
0000f0 29 5a 50 be ff db 0f bd fb 13 3a 3d a5 b4 37 3e
       -0.20346893 -0.035121914 0.04542921 0.17940004
