code/baseline/saved/GAMNet_learning_rate_0.0001_hidden_size_64_epoch_6000_batch_size_32/Epoch_950_JA_0.6032_DDI_0.0924.model (torch, 455805 bytes, 29 tensors)

lab_embeddings f4 [32, 64]
00000000: d673 a13e 9652 cd3d dd45 36bf 1cde d1bf
00000010: aa8f 2fbf d63e bbbf 1d10 943f 5acd f53e
00000020: 7352 313f 4bf1 123f b89b debf 1879 adbf
00000030: 4d39 f73e 05e2 d8be 76c4 273f 2c43 f93f
00000040: a765 293f a762 373e 2948 b13e 8bb0 013f
00000050: be2c 693e f4d7 46bf 87f1 8bbf fbb2 6bbf
00000060: 92b3 24bf d848 84bf 7eea 313f cb91 14c0
00000070: 111a bcbe 0faf 4e3f 748b b53f e830 c03e
00000080: 876b 09c0 8911 d83f aee1 7bbe 8d51 f1bf
00000090: ec71 e8be 5e90 22bf 86ee 90bf 9876 68bf
000000a0: ec6a f93e ea22 cd3e 4b74 703f bfcb dfbe
000000b0: e0da b23e 20f9 633f 3bda 0e40 aec5 073f
000000c0: 6871 9cbe b574 d5be 4863 823e 49bc 06bf
000000d0: cfb7 3bbf 97ab 4f3e 6052 1ebf 8e39 3c3f
000000e0: bb86 84be cd9e 6dbe 4844 2140 c903 13bf
000000f0: f850 953d 1af3 b73e fdd6 eb3f ac35 2b3d
00000100: a10c 1bbe c6a8 28bf 4135 cbbe c492 c6bd
00000110: 79d9 5a3e f678 123f c6f9 ec3f 54c0 913e
00000120: 06f3 86bf e7b4 9dbf 794b a6bf afa5 933d
00000130: 1be6 c2bf ea02 89bf e098 593f 4788 6fbf
00000140: 106e 3bbe e20c 173f e873 ba3f 61ab 9a3f
00000150: 86d5 bf3e aa0e 07bf 0eeb 323e 1541 1440
00000160: 7fbc e6bc cf16 833f 6456 aa3e caa2 743f
00000170: e37e d53c fafe ec3f 5f04 613f 6893 d93d
00000180: f0cf 40bf b9bc b4bf 75a2 f7be b511 083f
00000190: 6064 a23f bf7e a9be 4123 563e 6011 aa3e
000001a0: d279 dc3e ba24 99bf 5225 333f 7602 263f
000001b0: 5f2a cc3f 0a75 86be f73b f8bf 2915 23bf
000001c0: 1f3e 323f 79b5 d2bf 6dfe 3d3f bbca 143f
000001d0: e4ca 153f 640f e6be 90b1 9bbf 33ca 4bbf
000001e0: 95b7 f6bf 41f6 5140 78b2 3e3e 9397 bf3e
000001f0: 1da8 373f b57a 753f 0204 0bc0 f1f0 ae3f
00000200: b40d 5cbf 63f2 81be 127f ce3f 5db6 2bbe
00000210: e5df 783e 26e0 7abf 0b80 79bf 7ca9 3cbf
00000220: 6739 54bf f820 5f3f e1cc acbb f4fd 9b3f
00000230: 4e76 a3be 9b87 173f 9270 f8be 901b 0940
00000240: 1f49 4ebf 6bc4 4a3e c5ad 4b3f 29cc c3be
00000250: e7c8 49bf 7261 073f 8f14 c63f 00ec 6ebc
00000260: 888e adbf 6e10 80be 2512 15bf 66a1 43bf
00000270: 15e5 c43e c2ff 87be 8f4b 1abe 3544 3f3f
00000280: d7f4 4ebf fe90 af3f db9f 993e e252 013f
00000290: 32c6 393f 307a c43e ed55 8dbc e469 b73f
000002a0: 9377 ff3f 9b82 4bbe 89ad cb3e 7b5a 26be
000002b0: 6186 9e3f 354f 9fbe 65c4 e6be 99a1 35bf
000002c0: 3b81 babe a5d6 943e 4c8b 82bf dbb2 b43e
000002d0: befb b5bf 1e26 b53e 1b6a 8d3d b82c d9bf
000002e0: a2e5 25bc a505 4f3f 8039 793e 2fae acbc
000002f0: 580e ce3e 1c8f b1bf 38d2 5fbf bf53 00bf
00000300: af78 7bbd d23b 1abf 38c3 653f 2554 8abf
00000310: 8121 efbd 92fe 00c0 880d b7bf 0573 2e3e
00000320: a3d6 893e be06 993f 84ed efbe f953 85bf
00000330: 8472 583f f568 fa3f 8545 5e3e df83 97bd
00000340: 41a9 803e e25a 0f3f 6328 83be 7602 5f3d
00000350: 697f 773e 4893 aabf 9274 20c0 1599 c1be
00000360: ed9f 1bbf db58 51bd 8146 1040 520c e5bf
00000370: 81e6 113f b0f5 773d 7c7d 8cbe 1199 cd3e
00000380: a792 713e 50d8 9d3f 0bda 783f fb1e a3bf
00000390: e60b 093f aa59 2cbd c4f5 f53f 133a 04c0
000003a0: 9701 433f d9fc a33e c816 0fbd 7b11 cbbe
000003b0: 63b8 41bf 13f1 133f f925 97bf c7be 5e3f
000003c0: a620 29bf e978 a6bf f4f9 fb3e 187d 613f
000003d0: d273 ad3f cc0d fe3e 5cda f2bf 8a14 3b3f
000003e0: 6f6c 1c3f 7536 b93f 92e7 62bf be3b 343f
000003f0: d8dd 8e3f b455 4cbe 40ee 203f a329 0b40
0.31533688 0.10025518 -0.7120035 -1.6395907 -0.6857859 -1.4628551 1.1567417 0.48008233
0.6926643 0.57399434 -1.7391272 -1.355258 0.48285905 -0.4235994 0.6553415 1.9473624
0.66170734 0.17908727 0.34625366 0.5066001 0.22770974 -0.7767327 -1.0933083 -0.9206998
-0.643365 -1.033473 0.6949843 -2.3213985 -0.36738637 0.8073587 1.4183183 0.37537313
-2.147188 1.6880351 -0.24597809 -1.8853012 -0.45399415 -0.63501537 -1.1322792 -0.9080596
0.48714387 0.400657 0.9392745 -0.43710133 0.34932613 0.8905201 2.2320697 0.5303601
-0.30555272 -0.41690603 0.2546637 -0.5263105 -0.73327345 0.202803 -0.61844444 0.7352532
-0.2588404 -0.23205109 2.5197926 -0.5742765 0.07290834 0.3592766 1.8424984 0.041799232
-0.15141536 -0.6588253 -0.39689067 -0.09695962 0.21372022 0.5721582 1.8513725 0.28467047
-1.0542915 -1.2320832 -1.2991782 0.07209336 -1.5226473 -1.0704014 0.84998894 -0.9356732
-0.18303704 0.5900403 1.4566622 1.2083551 0.37467593 -0.5275675 0.17472479 2.3164723
-0.028166054 1.0241336 0.33269036 0.95560896 0.02606148 1.8515313 0.87897295 0.10623819
-0.7531729 -1.4120094 -0.48366132 0.5315202 1.2686882 -0.33104512 0.20911886 0.3321638
0.43061692 -1.1964333 0.6997882 0.64847505 1.5950431 -0.2626117 -1.93933 -0.6370416
0.6962604 -1.6461631 0.7421635 0.5812184 0.5851271 -0.44933617 -1.2163563 -0.79605407
-1.9274775 3.2806551 0.18622768 0.3742033 0.71740896 0.9589036 -2.1721196 1.366728
-0.8595841 -0.2538024 1.6132529 -0.16768785 0.24304159 -0.97998273 -0.97461003 -0.7369611
-0.8290009 0.8715968 -0.005273447 1.2186875 -0.31926197 0.5919129 -0.48523384 2.1423073
-0.80580324 0.1980149 0.79562026 -0.382417 -0.7882218 0.52883065 1.5475024 -0.014582634
-1.3559122 -0.25012535 -0.5823081 -0.7641815 0.38456026 -0.26562315 -0.15067886 0.7471345
-0.80842346 1.3716123 0.30004773 0.50517094 0.7256805 0.38374472 -0.017252887 1.432919
1.9958366 -0.19874041 0.39780834 -0.16245453 1.2384759 -0.31115118 -0.45071712 -0.70949703
-0.3642672 0.2907001 -1.019876 0.35292706 -1.4217451 0.35380644 0.06905004 -1.6966772
-0.0101255495 0.8086799 0.24338341 -0.021079151 0.40245318 -1.3871799 -0.87430143 -0.50127786
-0.06139439 -0.6024753 0.89751005 -1.0806929 -0.11676312 -2.0155377 -1.4301004 0.17036064
0.26921567 1.1955183 -0.46860898 -1.0416251 0.84549737 1.956328 0.21706207 -0.07398199
0.2512913 0.5599805 -0.2561675 0.054445706 0.24169697 -1.3326197 -2.507115 -0.37812105
-0.607909 -0.05111013 2.2543032 -1.7894385 0.56992346 0.06053704 -0.27439487 0.40155843
0.235911 1.2331638 0.9720771 -1.274383 0.5353378 -0.042077698 1.9215627 -2.0660446
0.761743 0.32028845 -0.034933835 -0.39661774 -0.75671977 0.57789725 -1.1808463 0.87009853
-0.6606544 -1.3005649 0.49214137 0.880815 1.355097 0.496199 -1.8972888 0.73078215
0.61102957 1.4469744 -0.886346 0.7040366 1.1161451 -0.19954568 0.6286354 2.1744163

static_ll.0.weight f4 [128, 64]
00000000: 83dd a93d 7724 a4bd f1d3 e1bd bf31 02be
00000010: 2352 663d 4afb a5bd a212 c2bd 1c8c c13c
00000020: ab7c 6c3d 2081 7dbd fbd6 39bd 9e0d 83bd
00000030: 96b6 123e 36b5 98bd f020 013c b362 babd
00000040: 408c 07be d633 d13d 323c 87bd 3e8a fbbd
00000050: 8bc6 35bd ff31 8fbd 2b18 15be 063e e9bd
00000060: 32e2 e23d 328b 4aba 38ca ff3c f194 edbd
00000070: 0716 543d bb9e a9bd 080a 993d 95a4 ef3d
00000080: bdde c43d a41b d33d f424 8cbb 938b f4bd
00000090: 573b 673d b24b 843d 56f5 313d 480e 1fbd
000000a0: d11c 183c df83 ba3d 4431 a93d 76a3 e33c
000000b0: b1e5 99bd 91c4 823d afc8 2ebd 081e 62bd
000000c0: d2be 25bd 70dd ffbd 8ffd fc3d 2ddb 063e
000000d0: af3c 283d b006 7cbc bdca 2bbd c94f f2bd
000000e0: 6c5f ac3c 57f1 8e3c 0be8 2ebd b92a bd3c
000000f0: 221b 00be 6d16 d2bd 6337 3abd f036 e5bc
00000100: 1233 3a3c c8b0 fd3d 079b acbd 4c53 cc3d
00000110: dfd8 03bc 5ec6 c8bd 9556 a43d 7b99 a1bd
00000120: 3623 b4bd 7620 3f3d b66c 13bd e82f b83d
00000130: 6a37 33bd 00ea 493c c641 293d f34b 96bd
00000140: 01ea dfbd 033c a9bd 25f2 7ebc 98b7 bc3d
00000150: 4a12 ec3d 9027 913d 8a8a 5f3d 9095 c23b
00000160: 7c65 b93d cbd0 143d 46db c03d cd5c fd3d
00000170: c261 eb3d e821 e83d ec77 473c 77c6 dfbd
00000180: 5e6c 02be 551d bbbd 1af4 5a3d ba84 57bd
00000190: 02f6 42bd 3cbe eb3d 8ec3 93bd 78ea d53d
000001a0: e765 9fbd 382e d7bd 4a96 023e a293 ebbd
000001b0: 297c b1bd de50 10bc f5ef 84bc 495f 47bd
000001c0: aaa2 72bd 16ab 003d 9f7f 013e 0ae5 b63c
000001d0: 559c efbd f673 09bd dfdc bebd d3bb 9d3c
000001e0: ecb0 96bd 6f22 ec3d 6ae7 ddbb 0242 c43d
000001f0: 6ae9 9cbc b70b 843d ebad f4bd c9d6 d83d
00000200: 8219 aa3d 9f82 34bc 2e73 e7bb 20ef 0a3c
00000210: 42dd d03d 3f11 10be 95b3 cdbd c06b bbbc
00000220: 55db cdbd 0170 c4bc f845 b4bd 1180 09be
00000230: 603d 3bbc 05b9 c0bd f087 d8bd 86d7 6ebc
00000240: 1444 a8bd 02ad dc3d 9665 31bd 8c51 eebd
00000250: 5041 893d 842a 50bd ed35 17bd 0420 243d
00000260: 437d 7ebd 5628 cdbd 7368 b9bd 5711 8fbd
00000270: 403f 9bbd 3b41 8f3d d778 583d 29ef a2bc
00000280: 3fe9 02be 63b1 983d 569a ce3c 686a 053d
00000290: f0fa 783d 5e9a 09bc 2171 263d 9eb0 29bc
000002a0: 07d8 fdbc a69a bbbd fce2 b53d fc70 82bd
000002b0: cef2 fa3d 0f92 ce3d 7d3e f93d bc98 68bd
000002c0: 1fb9 cbbd 2a60 e2bc 61b1 c73d 75b5 8e3d
000002d0: a93b 8cbb 9f61 f23d 3cac 9f3d f840 30bd
000002e0: b13a 043c 7f4e e6ba 49b8 d53c e6de b3bd
000002f0: bc53 023e 0f2e ad3d d94b 733c f52f 8abd
00000300: 77c2 e4bd fb5e 57bd c528 32bd b252 84bc
00000310: 043d e83d 618e ee3d 22b4 f0bd 0965 a63d
00000320: d6b7 aebd 4aca b83d 99be 963d 2ab6 cb3a
00000330: 1bcc b33d 92d9 5a3d 399f 4a3d 304b 323d
00000340: 787d be3d b1fd 18bc 4f1b a53c 4a83 563d
00000350: 4f1c c93d c676 bf3d 01c9 21bd 76f4 51bd
00000360: f052 c03d a0bd eabc ec3b 04be 2120 e43c
00000370: 21da ee3c a809 7fbc 2a90 c23c 513e 693d
00000380: 64e3 f73b f920 b2bd f136 02bd 35ab 6d3d
00000390: b255 1abd e1c9 66bd fa48 00be aa6b 1e3d
000003a0: df15 e53d feca f8bd e3dd dbbd 011a c03d
000003b0: 5d69 28bd ed48 57bd 549e cd3d 762a c4bd
000003c0: 42dc 7e3c 79c3 7b3d 526e 00be cd72 dcbc
000003d0: 41a2 e43d 61eb b4bd 2ed9 eebc 1605 85bd
000003e0: d3a6 433c 5dd4 74bd 76bd fc3b 0d98 97bd
000003f0: 57f0 acbd a6fe b2bd 0516 4fbd 294e 9fbc
0.08294203 -0.080147676 -0.11026753 -0.12714289 0.056230675 -0.0810457 -0.0947621 0.02362638
0.05773608 -0.06189072 -0.045371037 -0.06399082 0.14327464 -0.07456438 0.007881388 -0.09100857
-0.13237095 0.10214965 -0.06603278 -0.12282227 -0.0443788 -0.06991958 -0.1456 -0.11388783
0.110782996 -0.000772643 0.031224355 -0.11600674 0.05177882 -0.082822286 0.074726164 0.117013134
0.096127965 0.103080064 -0.004276866 -0.11940684 0.056453075 0.0645975 0.04344686 -0.03883198
0.009284214 0.09107184 0.0826135 0.027787905 -0.07514513 0.06385148 -0.042671856 -0.05520442
-0.040465184 -0.12493408 0.1235305 0.13169546 0.041073497 -0.015382454 -0.041941393 -0.11831624
0.021041594 0.017449064 -0.042701762 0.02309166 -0.1251035 -0.10258184 -0.045462977 -0.027980298
0.011364715 0.12387234 -0.084280066 0.09976825 -0.008047312 -0.098034605 0.08024327 -0.07890602
-0.087957785 0.046661817 -0.035992347 0.089935124 -0.04375402 0.012323856 0.041322492 -0.07338705
-0.109333046 -0.082633995 -0.015560661 0.09214705 0.11526926 0.07087624 0.05457548 0.0059382394
0.0905256 0.036331933 0.09416823 0.12371216 0.11493255 0.11334592 0.012174588 -0.10926526
-0.12736651 -0.09136454 0.05345545 -0.052616812 -0.047597893 0.11510894 -0.072150335 0.10445112
-0.07783108 -0.105068624 0.12752643 -0.11502768 -0.0866626 -0.008808343 -0.016227702 -0.048674855
-0.05923716 0.03141316 0.1264634 0.022326011 -0.1169974 -0.033557855 -0.093194716 0.0192546
-0.07357964 0.11530005 -0.0067719715 0.095829025 -0.01915427 0.06447547 -0.11947235 0.10587842
0.083056465 -0.011017471 -0.007063291 0.008479863 0.101984516 -0.14069079 -0.10044018 -0.022878528
-0.100516 -0.023979189 -0.08802408 -0.1342776 -0.011428207 -0.0941029 -0.10572803 -0.014577752
-0.0821611 0.10775186 -0.04330977 -0.116366476 0.067019105 -0.050821796 -0.036916662 0.040069595
-0.062131178 -0.10017459 -0.09053125 -0.06985729 -0.07580423 0.069948636 0.052849617 -0.019889431
-0.12784289 0.07455709 0.025220077 0.03257218 0.060786188 -0.00839862 0.040635232 -0.01035705
-0.030986799 -0.09160356 0.088811845 -0.06369206 0.122533426 0.10086452 0.12170122 -0.056786284
-0.099474184 -0.027633745 0.09750629 0.06968204 -0.004279573 0.11835026 0.07796523 -0.04303071
0.008070634 -0.0017571001 0.02608885 -0.08782749 0.12727255 0.084560506 0.014849626 -0.06747428
-0.11169904 -0.052580815 -0.043495912 -0.016152713 0.11339763 0.1164825 -0.117531076 0.0812474
-0.08531158 0.090229586 0.07360572 0.001554196 0.087791644 0.053430147 0.049468253 0.043528736
0.09301275 -0.0093378285 0.020154623 0.0523713 0.098198526 0.09348826 -0.039498333 -0.051258527
0.09390819 -0.028654873 -0.12913483 0.027847352 0.029156746 -0.015566267 0.023750383 0.056944195
0.007564949 -0.08697695 -0.031790677 0.058024604 -0.03767938 -0.05634487 -0.12527838 0.038676895
0.11185812 -0.12148093 -0.10735681 0.0937996 -0.041116107 -0.05255978 0.10039964 -0.09578411
0.015555443 0.061465714 -0.12542084 -0.02691021 0.1116376 -0.088339575 -0.029156294 -0.06495111
0.011941629 -0.059772838 0.007713015 -0.07402048 -0.08444279 -0.087399766 -0.05055811 -0.01944645

static_ll.0.bias f4 [128]
00000000: 15d6 d13d e121 bcbd 4037 223c 0b43 94bd
00000010: b14f e23d b15c 933d 1d87 b2bd 9671 9b3d
00000020: 1441 b33c f421 0a3e 9f97 0a3e b6d7 91bd
00000030: 185b 29bd 51df b43d 87c3 993b 1d53 d03d
00000040: 15e5 f63d c1aa 99bd c567 d33c 428a 863d
00000050: 69df af3d f760 943a 3def 963d 466d 143e
00000060: 634b c33d d36c 903d 7fdb 46bd df82 bfbd
00000070: c5e1 9bbd 95fc e23d 69c7 efbc 79e6 8bbd
00000080: 4fa4 17bc 5e84 a43d deac c03d aa55 a3bd
00000090: 031b ce3d fc01 eb3d 489d ca3b f7e2 323d
000000a0: ea4b 653c 511e 21bd 44bd e5bc 47b1 b8bd
000000b0: b37c aeb9 f068 39bd 5b19 46bd f8c7 2ebd
000000c0: ab29 2bbd fa51 d03d a07b d43d a2f2 d33c
000000d0: 41ff f33c d8b6 013e 1dcf 36bd 8351 6d3d
000000e0: 7dcf 0b3e 4a9f c03d 3f07 d5bd 5fd8 a5bd
000000f0: 4e03 eabc a827 e83d 4c71 7dbd 5f22 9cbd
00000100: 94b4 5fbd cb04 84bd 49b0 c33c 6a84 aabd
00000110: 167b 87bc ec69 4ebc 472a 553d 45f6 a53d
00000120: 106b d3bb 188c acbc 158f 8fbd 495a bebb
00000130: 1ea3 543c eb32 883b c820 28bd 7738 6bbc
00000140: f45d c33b e3fb ae3d efc8 c2bd f6de 833b
00000150: f8e5 aabd bcd2 89bc c04f 90bd bd80 3c3d
00000160: 2f45 fd3d ee2b 9dbd c708 c43d 8443 0bbd
00000170: cb64 dcbd 902c 703c 4c74 8bbb 544f a7bc
00000180: 7d2b 88bd 2850 963d bb21 b73b ccca 44bc
00000190: 4b7e f43d 2681 91bd 5064 693d b8d7 69bd
000001a0: 553e b0bd 9a4c 72bd a29f e33d 023b c83d
000001b0: 250b 4e3d 6956 323d ce87 383d f320 efbc
000001c0: 36d0 fb3d 64a2 abbd 913b 933d ed5f 21bd
000001d0: d3c3 2a3d aaea 823d 5f6e 4b3d c11d ccbd
000001e0: 6d40 853d da3f bbbc 4f76 b63d 0a46 83bd
000001f0: 12ed 693d bac7 01be 8ee1 ec3d 731f da3c
0.10245911 -0.091861494 0.009900868 -0.0723935 0.11050356 0.07195414 -0.08717177 0.07590024
0.021881618 0.13489515 0.13534401 -0.07121222 -0.04134664 0.08831657 0.004692498 0.101721026
0.12055413 -0.07503272 0.025806317 0.06569339 0.08587534 0.0011320402 0.0736985 0.1449481
0.09535863 0.070520066 -0.04854917 -0.093511336 -0.076114215 0.110833324 -0.02926989 -0.068310685
-0.009255483 0.080330595 0.09407972 -0.079753235 0.10063746 0.11474988 0.0061833 0.04367348
0.01399515 -0.039335553 -0.02804435 -0.09018188 -0.00033280774 -0.04526609 -0.048364025 -0.042671174
-0.041787785 0.10171886 0.10375142 0.025872532 0.0297848 0.12667406 -0.044631112 0.057939064
0.13653369 0.09405382 -0.10401773 -0.0809791 -0.028566029 0.11335689 -0.061875626 -0.07623743
-0.054615572 -0.06446227 0.02388777 -0.08326037 -0.016538184 -0.012598496 0.052042272 0.08103613
-0.006451972 -0.021062896 -0.070097126 -0.0058091027 0.012978343 0.0041564605 -0.041046888 -0.014356724
0.005962128 0.08544137 -0.09510981 0.0040243817 -0.08344644 -0.016824119 -0.07046461 0.046021212
0.12366711 -0.076743945 0.09571987 -0.033999935 -0.10761412 0.014659062 -0.004255807 -0.020423569
-0.0664892 0.07339507 0.005588738 -0.012011241 0.11938151 -0.07104711 0.05698043 -0.05709049
-0.08605639 -0.059155084 0.11114432 0.0977688 0.050303597 0.04353944 0.04505139 -0.029190516
0.122955725 -0.08380583 0.07189096 -0.039398123 0.04169066 0.06392415 0.049665805 -0.099666126
0.06506429 -0.022857595 0.08909284 -0.06409843 0.057110853 -0.12673846 0.11566459 0.026626324

static_ll.2.weight f4 [64, 128]
00000000: 960b 203d 534c 50bd 4979 833d e0a3 553d
00000010: b679 9c3d 99ec 983c 1a77 2dbd 73e2 07bd
00000020: 53f5 8cbd dba4 003d 194a 86bc a1bc 543b
00000030: b5cf 84bc 5b61 443c 1a16 ba3c 07b6 833d
00000040: dfcb 433d f20f 87bd 1744 eebc 8de4 7fbd
00000050: 71db 4bbd fb8b 963d 3fd3 663d e7b2 1f3d
00000060: f351 4f3b d191 aa3d 9c9a 2dbd eeaa 67bc
00000070: 5100 2f3c bfa0 d1bb 996c 9b3c e7a6 adbd
00000080: 5811 c83d d666 32bd 111c 52bc 3bda 8abd
00000090: 0f14 863d 7033 313d 5fcc 25bc 35d6 d63c
000000a0: d057 f6bc 3605 d93c a150 9a3c d5f3 703d
000000b0: 7463 1c3d 4663 6cbd 6854 563d 90e0 733d
000000c0: 14ee 3b3d d525 4abc 1102 9bbc 060c 8cbd
000000d0: 9ea7 b6ba b76c c13d 397d 35bd 71f1 9e3d
000000e0: cb8c 163d a1e5 8ebd 0678 75bd beaa 593d
000000f0: 6289 ae3d dc12 a63d 70fd b33b 0ae2 033c
00000100: 4d11 f33b a434 8bbc e811 b83d ab85 48bd
00000110: 3494 c1bc 0bf7 6e3d 859b 03bc 5c7a 8fbd
00000120: 89e6 103d 6c60 2e3c 349f 4d3c 584a fbbc
00000130: 178e 8bbd 450c adbc f8fb 2d3d 6915 8dbc
00000140: bf1d 193d b9d2 9a3d e83e 423d 1ec1 8fb8
00000150: 01ae 963b 4228 49bc 18e9 85bd 4a7d de3b
00000160: a126 f03b d6ce 20bd 6fb8 71bd 9003 83bd
00000170: 10e9 2f3d d128 883d cf19 01bd 6e4b 89bd
00000180: abf9 683b 93b8 003d 1480 823d 0ee5 9e3d
00000190: a713 b33c d788 683d dbba 2f3d 9c3e ad3d
000001a0: 810a 463d 5650 5bbd be3f a23d db9c bd3c
000001b0: 8105 ea3c fee5 a53d 9c38 f6bc 2592 81bd
000001c0: 7adf 2dbc 32e9 533d 9c29 b4bc db49 ba3d
000001d0: afee ca3d c299 e1ba c4ee 66bc b56c a0bc
000001e0: 55e5 1fbd 93f9 383d 3d89 8e3d 6459 72bd
000001f0: c73f 0d3d 82ae be3c 4563 973d 158b bd3c
00000200: 3633 193d 4312 92bc 48ad fc3c 3e70 38bc
00000210: e635 2c3d 2d0c 34bd e970 583d 06b9 ab3d
00000220: 9652 d43c 06da e0bb dfb1 523d 0240 e03d
00000230: a778 6dbb 4887 5c3d ceec 1dbd 1c86 a83d
00000240: 17cd b7bc c156 d6bc 12d5 043d bfec 3b3d
00000250: 357c 83bd 7ebe 7c3d a77f 4f3d e935 06bd
00000260: 7784 603c b1ad 793d bbbf ff3c 0659 a13d
00000270: 4474 8bbd 2aa2 9f3d 5a49 e83c c815 613d
00000280: fca7 0fbb b9a8 f13c e5cf 0bbc e00f 333d
00000290: 3e77 403d 74c9 6f3d bdca 83bc cce0 a13d
000002a0: ed4b 633d 1e55 edbc a383 8b3c 99f8 8fbd
000002b0: 2b68 8e3d a1ce 623d d283 953d d7e0 a43d
000002c0: 0710 c6bd 4f6e ce3d 648e 6f3d 7450 c33c
000002d0: 761c 28bd f4ee 993d 7e38 ad3c f2f6 a2bd
000002e0: 9e7f ce3c 07cc b2bd f81b afbd 7be8 cc3b
000002f0: 88b6 c83d 82cd f5bc 3d6e 203d 040a 833c
00000300: bd80 d83c 3790 4ebc 44e8 ad3d 64cb a23c
00000310: 512d a6bd a323 5dbd 869f 8d3d 84da babd
00000320: 3f23 883c e9ab 2bbb 8d39 283d eeba d2bb
00000330: 9a5f 663a f719 033b b4c9 ddbc 1d47 cb3d
00000340: 60e1 21bd 53fd 783d 39bf 8fbd fda3 b6bb
00000350: b23b 73bd 3c41 3f3d 924d b43d a2e4 53bd
00000360: 2e55 fb3c 6d00 cc3d 95b6 34bd c0c0 8cbd
00000370: 4f78 833d 9f59 813d d47b af3b e035 a13d
00000380: 2516 b13d defd 933d f47b bf3d a978 90bc
00000390: 7389 d03c 076c 06bd 03fc c03b 3809 d33c
000003a0: 64dc 34bd a8fd 363d 15af bc3c b9c5 4d3d
000003b0: eeae bebc fa79 2fbd 2436 d03a d5f2 5abc
000003c0: 847c 2fbd d961 a6bd 7480 313c d3db cf3c
000003d0: fa40 91bd 9c8f 643d dbf5 a53d 3eb1 dabc
000003e0: 2c69 8fbd ec8e 84bc fa95 71bd a885 67bb
000003f0: e75b a0bc a398 f9ba 39d0 8fba 70ea 84bd
0.03907355 -0.05085404 0.06419618 0.052158237 0.07640402 0.018667506 -0.042349912 -0.033174943
-0.068827294 0.03140722 -0.016392754 0.0032461064 -0.016212324 0.011986102 0.022715617 0.06431203
0.04780185 -0.06594838 -0.029085202 -0.062473822 -0.049769823 0.07350918 0.056353804 0.038988974
0.003163454 0.083285935 -0.042383775 -0.014139874 0.010681228 -0.0063973363 0.018972682 -0.084791
0.09768933 -0.043555103 -0.012824074 -0.067799054 0.065467946 0.043261945 -0.010119527 0.026225189
-0.03007117 0.026491743 0.018837275 0.058826286 0.038180783 -0.057711862 0.05232659 0.05954033
0.045881346 -0.012338121 -0.018921884 -0.06838231 -0.0013935452 0.09444564 -0.044308875 0.07760895
0.036755364 -0.06977392 -0.059928916 0.053141348 0.085222974 0.08109066 0.0054928586 0.008049497
0.007417834 -0.016992874 0.0898779 -0.0489556 -0.02363024 0.058341067 -0.008032684 -0.0700576
0.035376105 0.010643106 0.012550164 -0.030675098 -0.06814211 -0.021124015 0.042476624 -0.017222123
0.037381884 0.075597234 0.047423273 -6.854742e-05 0.0045983796 -0.012277665 -0.065386 0.006789838
0.0073288237 -0.039259754 -0.05901378 -0.06397164 0.042946875 0.0664841 -0.031518754 -0.0670384
0.0035549204 0.031426024 0.06372085 0.077585325 0.021859957 0.056771126 0.04290281 0.084592074
0.04834986 -0.05354341 0.07922314 0.023146084 0.028567078 0.08100508 -0.03005629 -0.06326703
-0.010612363 0.051736064 -0.021992497 0.09096118 0.099088065 -0.0017211961 -0.014095012 -0.019583086
-0.039037067 0.045159888 0.0695977 -0.05916728 0.03448465 0.023276571 0.07391981 0.023137609
0.037402354 -0.017830973 0.030844346 -0.011257229 0.04204359 -0.043956924 0.052842055 0.083849
0.025918286 -0.006861928 0.051439162 0.109497085 -0.0036235244 0.05383995 -0.038555913 0.08228704
-0.022436662 -0.026164414 0.032429762 0.045880076 -0.06420175 0.061705105 0.050658848 -0.032766256
0.013703457 0.06095666 0.031219354 0.07878308 -0.06809285 0.07794602 0.02835529 0.054952413
-0.0021920195 0.029499399 -0.008533453 0.04371631 0.04698872 0.05854173 -0.016087884 0.07904205
0.05549233 -0.028971251 0.017030543 -0.07029838 0.06953462 0.055372838 0.07300533 0.08050697
-0.09671026 0.100796334 0.058485404 0.023842074 -0.041042767 0.0751628 0.021145102 -0.07957257
0.025207337 -0.087303214 -0.085502565 0.0062533 0.0980044 -0.03000522 0.03916763 0.015995987
0.026428575 -0.012607626 0.08491567 0.019872375 -0.08114112 -0.053989064 0.06915192 -0.0912371
0.01661837 -0.0026194996 0.04107051 -0.006430975 0.00087880495 0.002000449 -0.027073719 0.09925673
-0.039521575 0.060788464 -0.07018895 -0.005573748 -0.0593831 0.04669307 0.08803858 -0.051731713
0.030680265 0.09961019 -0.044119436 -0.06872702 0.064194314 0.06315922 0.0053553376 0.07871604
0.08646802 0.07226156 0.09349814 -0.01763566 0.025456166 -0.032817867 0.005889417 0.025761232
-0.044155493 0.0446755 0.023032704 0.05023739 -0.023276772 -0.042840935 0.0015885276 -0.01336356
-0.042843357 -0.08124132 0.010833848 0.025373375 -0.070924714 0.05580102 0.08103534 -0.026695844
-0.07002482 -0.016181432 -0.05898092 -0.0035327468 -0.019575072 -0.0019042682 -0.0010972089 -0.06490028

static_ll.2.bias f4 [64]
00000000: 262e 593d d9a8 233d 5b81 6fbc 3e5d 6bbd
00000010: e5ab f7bc c5bd 133d 5623 ec3c c89a 1dbc
00000020: 175a 203d 87ed 9dbd 2e11 983d 8ef3 eabc
00000030: 2505 aabc d133 2a3c 0d17 a33d 3eb5 c53d
00000040: 6258 a0bd 63d1 973c 4c7b b73d 298e 8abd
00000050: 6569 1abd 75f2 bdbc c97c 673d 2aaa 923d
00000060: cbe7 0abd a26f 9b3d 7480 073d 66c8 04bd
00000070: 0dc9 6f3c 70eb 323c f4e4 773d 1929 793c
00000080: bb23 3dbd b227 93bd c488 b43d 9d05 393b
00000090: a09f 143d 78b8 4cbd 9201 9ebc fef9 2f3c
000000a0: 3761 0d3d d663 763d 4aad a6bc 075b cb3c
000000b0: b314 84bc 1258 8b3d ab47 d6bc b21d 293c
000000c0: 9f91 333d 85a4 cd3b cc63 4e3c 9166 8e3c
000000d0: 22bf 46bd 5346 843d ef07 993d 64cc 4d3d
000000e0: f202 f2bc 1e93 a43d 44ca 2cbd 9279 bc3d
000000f0: 4e53 933d aecf 843c 9657 47bd 22d7 c93d
0.053022526 0.039955948 -0.014618243 -0.05746197 -0.030233333 0.03606965 0.028825443 -0.009619422
0.039148416 -0.0771132 0.07425152 -0.028680589 -0.020754406 0.010388331 0.07963381 0.0965371
-0.07829358 0.01853246 0.08959064 -0.06765396 -0.03769817 -0.023186902 0.05651549 0.071613625
-0.03391246 0.07589652 0.033081487 -0.032417677 0.014635337 0.0109203905 0.06052108 0.015207552
-0.046176653 -0.07185306 0.088151485 0.0028232106 0.036285043 -0.04998061 -0.019287858 0.010740755
0.03451654 0.060153805 -0.020346303 0.024823679 -0.016123151 0.068039075 -0.02615722 0.010322021
0.043840047 0.006275716 0.012597036 0.017382892 -0.048522122 0.06458726 0.07472216 0.05024375
-0.02954242 0.08035873 -0.042185083 0.09202875 0.071936235 0.01621231 -0.048667513 0.098554865

glu_encoder.rnn.weight_ih_l0 f4 [48, 2]
00000000: 9e79 3b3e 0bac 2cbe 089c cf3d 98c3 4ebd
00000010: 8ebe 4c3e 55ed 393e c96d b1bd 2032 35be
00000020: 19b0 20be 767f 413e f8ee 8d3e 728c 0a3e
00000030: 60fe 68be f05f b13d d1e0 913e 1faa 95be
00000040: 7c19 bbbd d128 71be 3cb7 793e 3794 26be
00000050: a8ed 153e 700e a3bc 60ee 0d3e 3cd8 723e
00000060: 5386 5b3e 8331 a2bd cc11 ca3d a388 e83c
00000070: 28a3 a93c 5d17 15bd c400 35be 3c0c 71bd
00000080: 27fd 5b3e b1b1 b5bd a5cd 513d ab0f 7e3e
00000090: c44c 61be 886c 55be bb4a 0bbc aea3 6e3e
000000a0: 56be fbbd ec92 603e 27ed 82bd 7993 a9bd
000000b0: 1068 ddbd 4059 093e ce07 5c3e ed96 483e
000000c0: 43b7 813d d435 32bd 645e 95be 7628 5e3e
000000d0: d895 91be 0659 03bd e052 743d 533e 37bd
000000e0: 2304 4e3e d614 43bd 2e2b 613d 1e4d 56bc
000000f0: b279 573e a747 dcbc eb8e 25be c6f1 10bd
00000100: f9fa 003e 426b ccbd f1dd 23be a153 533e
00000110: 8f09 0e3e b5e1 7a3c 5018 823e 85d3 aabd
00000120: 69eb e8bd 7854 3abe 5b74 6d3e e873 69be
00000130: da74 503e 2412 38bd 62c4 c13d a2e0 23bd
00000140: 89ed 1d3e 51e5 0cbe 4d36 7b3e 247a 3a3e
00000150: 9caa 133e 2559 503e 3c24 2fbd c8d5 6cbd
00000160: 68ad e6bd c66a e9bd c469 76be 0669 693e
00000170: dfc2 653e 1881 51bd 4cee 243d 0e47 3d3e
0.18308112 -0.16862504 0.101371825 -0.0504795 0.19994566 0.18156941 -0.08663518 -0.17694902
-0.15692176 0.18896279 0.2772138 0.13530138 -0.22753286 0.08660877 0.28491834 -0.29231355
-0.0913572 -0.23550726 0.24386305 -0.16267477 0.1464144 -0.019904345 0.13860464 0.237153
0.2143796 -0.079196 0.09866676 0.028385466 0.020707682 -0.036399234 -0.17676073 -0.05884956
0.21483289 -0.088717826 0.05122151 0.24810664 -0.2200194 -0.20842183 -0.008501704 0.23304626
-0.12292163 0.21931046 -0.063928895 -0.08280081 -0.10810864 0.13412952 0.21487352 0.19588824
0.063337825 -0.043508366 -0.29173577 0.21695122 -0.28434634 -0.03206732 0.05964935 -0.04473717
0.20118766 -0.047627293 0.05497282 -0.01307991 0.21042517 -0.026889635 -0.161678 -0.035386823
0.12595738 -0.09981395 -0.16002633 0.2063737 0.13870834 0.015312602 0.25409174 -0.083411254
-0.11373026 -0.18196285 0.23188917 -0.22798121 0.20357075 -0.044939175 0.09461285 -0.04000915
0.15422644 -0.13759352 0.24532433 0.18210655 0.14420551 0.20346506 -0.042759165 -0.057821065
-0.11263543 -0.113973185 -0.24063784 0.2279397 0.22437619 -0.051148504 0.04026632 0.18484136

glu_encoder.rnn.weight_hh_l0 f4 [48, 16]
00000000: f519 3bbe 6d51 70be a0da b3bd dccd 0d3e
00000010: e2f9 c93d 53e4 8ebd 0b7c 83be 0afe 423e
00000020: 0a44 783d 6989 4f3e 3baa 38be 2e2c 2abe
00000030: a7b1 10bd d873 06be 9586 ff3d 94f9 8bbd
00000040: a5cd cc3d a59f 9dbd d8aa 023e 6740 86be
00000050: 6d58 f8bd 4393 483e 765d b6bb 40ab 2a3d
00000060: 2f09 80be 9912 5b3e 7fa3 adbd afe3 e93d
00000070: b096 073e 8a6c e6bd 7816 64be b7e1 903d
00000080: 1671 353e c04c 22be 5770 f6bd 7476 58be
00000090: c08f bf3c 00d0 5c3d 7826 2ebe 9883 393e
000000a0: 99ea 113e b4af a3bd f932 8abd 406e 193e
000000b0: 0ebf edbd f62c 1b3e 2eb5 39be c1fa 3a3e
000000c0: e552 163e 79a5 3abe 8133 073e 4820 5f3e
000000d0: 34ba 613c c22d 1d3e 6bfc 3e3e b753 f23d
000000e0: 778d 45be 0814 a1bd f86b 1cbe ece6 0dbe
000000f0: ca05 103e 8787 1a3d 1c67 0e3c 5e4c 03bd
00000100: 723a b7bd 742b 833c 2d7a 0e3d 9eb6 45bd
00000110: 226f 343d 457f abbd c75e 913e c6b0 ec3d
00000120: d012 e83b 56f2 043e 58e4 323d 613a 8bbe
00000130: a2a8 8fbe 9a09 e33d db34 c93c 8074 22be
00000140: ad24 cb3d ed46 333e 947a 8a3c 2ed1 733d
00000150: 0e65 fdbb 66fa 4dbc 8f61 e3bc f87d 593e
00000160: 0cce 8f3d 1873 7e3e c98c 1dbe f8d8 acbd
00000170: 205a 48be 07d1 84be b770 21bd 2d4a eebc
00000180: dbd1 d1bd 3446 3c3e 23ea f13d 41e2 4b3e
00000190: ab15 aa3d dee4 453e 54f0 c4bd 9247 203b
000001a0: 1e92 3c3e 6e00 7dbc 0217 5ebe 2023 553e
000001b0: 986d 473e f18f 15be 8335 833d d238 4ebe
000001c0: 6aef 963d bbc2 20be bca4 f2bc 0782 9c3d
000001d0: 8afc 5dbe 5196 193e e3e3 b2bd 44ec 9dbd
000001e0: 286f 2abe fb03 163e b648 7f3d cb01 58be
000001f0: d4d5 84be f9fc 81be dddd 503e 0c5c 78bd
00000200: 45ae cf3c 9eaf 763e 357d 643e 28d0 3cbe
00000210: e93d 2bbe b944 f53d b33e 5dbd baa5 68be
00000220: fd0b f0bc 68a3 be3d 7385 b9bd 5882 4e3e
00000230: 179c 65be 9b47 c3bd baee 673e 3ed0 bebd
00000240: 3b17 8b3e 9a6a a5bd c081 2a3e 9a4a 44be
00000250: 6d30 43be 5ab4 3dbe 8452 613d 9b58 773d
00000260: 71da 14be 101a 0abe faa6 43bb a865 99bd
00000270: 93ad 8d3b 7ede 193d 1809 893d f19f d93d
00000280: 1449 7e3e 1078 e0bd ba76 61be 609c a63d
00000290: 14e7 403e 2c92 0a3e 4e01 a83d 36eb 373e
000002a0: 91b3 363d 3d60 21bd c534 a8bd 98a0 0f3e
000002b0: 918e 81bd 0c33 143c 1cf3 223e 887d 223c
000002c0: cc32 09be b015 da3d 5a76 473d e928 193e
000002d0: f400 8a3d a79e aebc 6494 15bd f2df d7bd
000002e0: ab37 87bd e848 0dbe 24a7 9ebd c315 153d
000002f0: 9ba3 6e3e 02d6 2dbe 3c89 36bd 65b2 6c3e
00000300: 9b94 253e a14b f43d 28d0 22be 1258 313e
00000310: db16 81be a994 9cbd 8863 e93d c693 f13d
00000320: 0780 453e 1aa4 dfbd ba37 39be c414 eebd
00000330: 4477 683d 5a45 62bd a5e0 b03c d274 453d
00000340: 499d bc3d 7b80 003e b615 c73d 28f4 423e
00000350: 1f7e efbd be5d 08be 921e 7abd 52b8 463d
00000360: 2973 343e 3095 683d 2c12 de3d 593b e9bd
00000370: 2f00 a03b c858 3b3d 31a8 f8bd ab43 22be
00000380: fd70 8b3e ff9d 273e a47c 44be bf92 1ebd
00000390: 2f64 513b 08a7 333e 3a91 d5bd 588f bebd
000003a0: 3347 f7bd 649f 233e babf 09be 4454 c13c
000003b0: d8ae 273e 17bb d8ba 4068 903e 6d01 0dbe
000003c0: 0932 2d3d 032f 0fbc 2146 fa3d 9cc3 4f3e
000003d0: 8c68 503e 670d 53be 6c86 3d3d c923 663e
000003e0: 2d7d e43d 52d7 18be 62af 96bd 85c8 23be
000003f0: bea7 ddbd 7ece 15be 63b6 fd3c 4ad7 e93d
-0.1827162 -0.23468561 -0.08781934 0.1384806 0.098621145 -0.06977143 -0.25680575 0.1904222
0.060611762 0.20267262 -0.18033688 -0.16618416 -0.035325672 -0.13130128 0.12476841 -0.068347126
0.10000161 -0.076964654 0.12760484 -0.2622101 -0.12126241 0.19587426 -0.0055653406 0.041667223
-0.25007007 0.21393813 -0.0847845 0.1142038 0.13241076 -0.11251171 -0.22274196 0.07074302
0.1771892 -0.1584959 -0.12033146 -0.21138936 0.023383975 0.0539093 -0.17006862 0.18116605
0.14249648 -0.07992497 -0.067480035 0.14983463 -0.116087064 0.1515387 -0.18135521 0.18259718
0.14680059 -0.18227185 0.13203241 0.21789658 0.013777304 0.15349486 0.18650977 0.118323736
-0.19292246 -0.07865149 -0.15275562 -0.13857621 0.14064708 0.037726905 0.008691575 -0.03205525
-0.089466944 0.016011931 0.034784485 -0.04826986 0.044051297 -0.08373884 0.28392622 0.11557154
0.0070823207 0.12983069 0.043674797 -0.27192977 -0.28058344 0.11085816 0.024561336 -0.15864754
0.09919105 0.17507525 0.016904153 0.05952566 -0.007732994 -0.012571907 -0.02775648 0.2123946
0.07021722 0.24848592 -0.15385737 -0.08439821 -0.1956563 -0.25940725 -0.039414134 -0.029088104
-0.10245105 0.18386155 0.11812236 0.19910528 0.08304914 0.19325587 -0.096161515 0.0024456722
0.18415114 -0.015441997 -0.21688464 0.2081418 0.194754 -0.1460569 0.06406691 -0.20138863
0.07369883 -0.15699284 -0.029619567 0.07641988 -0.21678367 0.14998747 -0.08734872 -0.0771108
-0.16643965 0.14649956 0.062325202 -0.21094434 -0.25944388 -0.25388315 0.20397134 -0.060634658
0.025351653 0.2409043 0.22313388 -0.1843878 -0.16722836 0.119759984 -0.054014873 -0.2271947
-0.029302591 0.09308511 -0.090586565 0.2016691 -0.22422825 -0.09535142 0.2264966 -0.09317063
0.2716616 -0.08076973 0.16651058 -0.19169083 -0.19061442 -0.1852583 0.055010334 0.060387235
-0.14536454 -0.13486505 -0.0029854164 -0.074900925 0.00432367 0.0375657 0.066911876 0.106262095
0.24832565 -0.109604 -0.22017947 0.08135295 0.1883815 0.13532323 0.08203374 0.1796082
0.04460484 -0.03939842 -0.0821319 0.14026105 -0.063260205 0.009045374 0.15913051 0.009917624
-0.13398284 0.10648668 0.048696853 0.14957012 0.06738463 -0.021315886 -0.03651847 -0.10540761
-0.06602415 -0.13797343 -0.07746723 0.036397707 0.23304598 -0.16976169 -0.04456447 0.23114927
0.1616997 0.119284876 -0.15899718 0.17318752 -0.2521275 -0.07645542 0.11395937 0.11795764
0.1928712 -0.10919972 -0.18087664 -0.116250545 0.056754366 -0.05524192 0.021591494 0.04820711
0.09209687 0.12549011 0.09720938 0.1903845 -0.116939776 -0.1331701 -0.06106431 0.048515625
0.17622055 0.0567829 0.1084331 -0.11388273 0.0048828344 0.045738965 -0.12141455 -0.15846126
0.2723464 0.16368864 -0.19188172 -0.038714167 0.0031950583 0.17544186 -0.104280904 -0.093046844
-0.12074127 0.15978771 -0.13452044 0.023599751 0.16375291 -0.0016535249 0.28204536 -0.13770075
0.042284045 -0.008739236 0.12220407 0.20289463 0.20352381 -0.20610581 0.046270773 0.22474588
0.11156688 -0.14925888 -0.0735767 -0.15994461 -0.1082301 -0.14629552 0.030970758 0.11418016

glu_encoder.rnn.bias_ih_l0 f4 [48]
00000000: 8f87 433e 28d1 60be cecb dcbc 0d1a b33c
00000010: 40ab 3dbe 2b5d 80bd 0ec3 1ebb 9703 debd
00000020: ca82 c83d ef37 cb3d 16e0 963c a960 a7bd
00000030: 1cb1 b9bd b461 de3d 98e9 9dbd eaf5 cabd
00000040: 158a 6c3e 79f0 61be 967c 213e 9c3f 70be
00000050: 77dd 373e b6ae 22be b8a4 3e3e 90c1 acbd
00000060: 47da 823c e701 4b3e f7da 9a3d f086 4d3e
00000070: f6a0 993c c139 73bc 6558 ec3d f533 b9bd
00000080: 4f61 5f3e 0036 2f3e 2825 01be ad53 3ebe
00000090: af7c 26be 9971 26be e53a 23be b8ce 2fbe
000000a0: e561 4bbd 1656 773e eab6 f33c 02ab 0abe
000000b0: 547b 973d 43cb 6dbe 47cf abbd bcd0 cdbd
0.1909468 -0.21954787 -0.02695265 0.021863008 -0.18522358 -0.062677704 -0.0024225148 -0.108405285
0.09790571 0.09922778 0.0184174 -0.08172733 -0.09066984 0.10858479 -0.0771057 -0.09910186
0.23099549 -0.2206439 0.15770182 -0.23461765 0.17955576 -0.1588696 0.18617523 -0.084353566
0.015973223 0.19824944 0.075612955 0.20071006 0.01875351 -0.014845313 0.115402974 -0.09043113
0.21814464 0.17110443 -0.1261183 -0.18586607 -0.162585 -0.16254272 -0.15940435 -0.171687
-0.049653906 0.24153933 0.029750306 -0.13541797 0.0739657 -0.2322207 -0.083891444 -0.100495785

glu_encoder.rnn.bias_hh_l0 f4 [48]
00000000: c567 09bd 2a1f 663e 09d4 603e 49f2 91bd
00000010: 2019 14be c786 6ebb dae6 71be 40f0 2cbe
00000020: 9af5 21bd bb7e d1bd 8d67 433d d27d 2fbc
00000030: 8456 663e db6a 26be 4c73 8c3d 4f52 043e
00000040: af53 74bd 9f09 2f3e 6fcc 683e 60c4 3a3e
00000050: 7964 68be 9cc9 a2bd 0524 f53d 4035 f43d
00000060: dd99 e23d 3fa2 72be 7a84 2b3e d8ac 493e
00000070: 75f6 3a3e 10c8 693e c403 cc3d 6a02 423e
00000080: 401a a83d 3625 bebc a8e9 2e3e 290d e03d
00000090: 12a2 75be 7335 01be 7265 35be 3fdd 053e
000000a0: 3489 373e 4eb3 9fbd 0935 9abd 1580 38be
000000b0: 6c39 85be bca1 5abe 54cd 003d 1e68 1fbe
-0.033546228 0.22472826 0.21955885 -0.0712629 -0.1446271 -0.0036396252 -0.23623219 -0.16888523
-0.039540865 -0.1022925 0.047706176 -0.01071115 0.2249394 -0.162517 0.06857929 0.12922023
-0.05965012 0.17093514 0.22734235 0.18238974 -0.22694577 -0.0794861 0.11969761 0.11924219
0.11064503 -0.23694704 0.16749755 0.19694841 0.18258078 0.22830224 0.09961656 0.18946233
0.08208132 -0.023211103 0.1708132 0.1094001 -0.23987606 -0.12618046 -0.1771448 0.1307268
0.17923433 -0.077978715 -0.07529647 -0.1801761 -0.26020372 -0.2135076 0.031445816 -0.15567061

glu_encoder.hid2lat.weight f4 [64, 16]
00000000: 1d42 86be 93ab 1dbe 25ad bebd 7e0b 133e
00000010: ea64 3f3d c246 163e 4bbe 19be 18e3 053d
00000020: 0b0a 8dbd 6082 75be 5961 11be f7ad 01bd
00000030: 9f68 613e 338c 1abe a1e4 43be 091b 31be
00000040: 37c3 0d3e 2302 133e b106 62be c7b3 cc3d
00000050: 55a2 6e3e 8840 92bb 2907 5d3d 7f0f aabd
00000060: 2f48 2a3e 251b 1dbd 5f1f 2ebe 1a69 bdbd
00000070: 24c4 0b3e d138 c73d 934c 48be 1e2d 6abd
00000080: b1fb eabd 81ca 60bc e945 debc 765d 823e
00000090: b26c 8dbc 6ae1 b43d c513 773e 1c30 593e
000000a0: 42c2 1cbd b796 7f3e 2271 46be 6a35 eb3c
000000b0: 135d b83d fe56 d7bd 2321 ed3d b14a 54be
000000c0: db73 1f3e 7754 e9bd 0b87 733e 70ce 9a3d
000000d0: c11f e9bd 0a3c 3a3e 3dd6 8e39 d019 7c3e
000000e0: 9a6e 34be 5a73 afbd 7010 75be 63d6 053d
000000f0: 9933 d73c cd80 bbbd 36fe 9a3c b3aa c3bd
00000100: 309b 5d3e cef2 073e 64ce 5fbe 52a2 723c
00000110: c26e 4c3e debd 4f3e bcc4 453e 7490 2ebd
00000120: 132f d83d 0c89 c6bd d688 3f3e 6fcc 89be
00000130: a84e 5bbe dae8 e6bd eadf d3bd 5692 473e
00000140: 4d40 f2bd a09a 30be 85fd 863e 157b 7c3e
00000150: 319b 353d 6656 573e af0e 363e a73d 60be
00000160: 72bb 87bd ce0d 083e 50ca fcbd 10f6 183e
00000170: 3838 c2bc 450e c8bd db35 03be d1e0 c43d
00000180: 7d6d 1e3d 5684 07be 3bf6 753d 1bc9 403e
00000190: 520b 963d b419 3cbe d258 053e 7790 4e3e
000001a0: 1a25 eebd a815 0a3e a49c 563d 0af3 f83d
000001b0: c36a c4bd a2ac 9bbc cdc8 15be ce34 9dbd
000001c0: 2418 eebd e46b e03d d647 3c3e a423 bbbd
000001d0: 647f 07bd 37a2 1fbe 0992 d1bd 0fad 2d3d
000001e0: 5339 e5bd 1562 e9bd e049 87be 3e45 133e
000001f0: b7de 463e c8b5 193e 1932 033e dad4 583e
00000200: b0a7 423d 6673 a0bd 46ab 24be 0bce 5f3e
00000210: e673 2e3e 7f0f 49be 54a2 42be 3731 3fbe
00000220: aeef 65bd a3dc 163e 2b92 323e a05c 4ebe
00000230: 3634 a83c e592 613e cff2 1abe cf1e 293d
00000240: 1d2f da3c fca5 5bbe db2b ba3d 2d3f 093d
00000250: 91ff 623d 8e69 323e a953 febd f1cc a13d
00000260: 7613 30be fe2a f4bd 709e 43bd 84d2 f23d
00000270: 485b a5bd 1893 c23d 1f9c a23d 3aa6 0e3e
00000280: 8eb4 fe3d 369b 43be 7e76 a73d bfcb 873e
00000290: fddd 2a3e b116 193e facb 943d 93bc f2bc
000002a0: e605 0d3e ab81 e6bc 775a 15be b953 f3bd
000002b0: 143c 1fbe d7d8 ebbb 30ea 633e 3ad0 b1bd
000002c0: 05eb 07be 560f 2fbe f7a4 2abe 2715 2d3c
000002d0: c0ad d03d 3a93 3abd 823f 4e3d e9c0 04be
000002e0: d041 5dbe 6ebe 5b3e 3299 103e a8eb 673c
000002f0: 7fe2 75be 686c 033d ec2c 81be 91ae 07be
00000300: 51f8 4f3d ce01 9dbd a613 0d3e d900 353e
00000310: 07f4 08be 2435 63bd 8caf 92bd 6975 223e
00000320: 2da9 793e 8319 553e 12d1 423d 866c 553e
00000330: f9b9 143e b584 5abe 47e8 073e 69e5 2abe
00000340: 20e1 cdbd 0f4a 823d c0e0 9ebd 51b0 58be
00000350: 46ba 5abe 141c 31be 9602 82be bdf2 0b3e
00000360: 1915 5b3e 4b5b 28be 1068 1f3e 0f79 2b3e
00000370: e5e2 7ebd 479d 8c3c 145d 6dbe 5fb3 5b3e
00000380: a64a 373e 6d64 93bd 59bc da3d 2ac4 353b
00000390: 3ecb 3a3c 4a71 093e 4a99 533d cd6b 89be
000003a0: ddfc 89be 165c f0bc c36d 89be 33e9 523d
000003b0: e48d 2c3c 6b38 053d fe45 7fbe 8b70 1d3e
000003c0: 05b7 48be d732 b43d 3870 d1bb 2d7f 39be
000003d0: b174 363d 2ab1 5a3e 781c b7bc d92e d73d
000003e0: 4b06 f1bd 285a 33bc d94b f73d 526b 37be
000003f0: 0598 fbbc 905a 003c e7fc 55bb b2ca 2ebd
-0.26222315 -0.15397482 -0.093103684 0.14359853 0.0467271 0.1467543 -0.15013997 0.032687277
-0.06886681 -0.23975515 -0.14197291 -0.031660046 0.22012566 -0.15092544 -0.19130184 -0.1729547
0.13844 0.14356284 -0.22072865 0.09995227 0.23304112 -0.004463259 0.053961907 -0.08303737
0.16629098 -0.038355965 -0.17004155 -0.09248562 0.1364904 0.09727634 -0.19560461 -0.057171933
-0.114737876 -0.013720156 -0.027132945 0.2546193 -0.017263744 0.08832057 0.24128635 0.21209759
-0.038271196 0.24959837 -0.19379094 0.028711993 0.090021275 -0.10514639 0.11578586 -0.20731618
0.15571539 -0.113930635 0.23781984 0.07558906 -0.1138301 0.18186966 0.0002724397 0.24619222
-0.17620316 -0.085669234 -0.23932052 0.03267516 0.02626972 -0.09155426 0.018920045 -0.09554043
0.2164123 0.13276216 -0.21856076 0.014809208 0.19964126 0.20287272 0.1931333 -0.04261823
0.10555854 -0.09694108 0.18704543 -0.26913783 -0.21416724 -0.11274882 -0.103454426 0.19489416
-0.11828671 -0.17246485 0.26365295 0.24656327 0.044337455 0.21029052 0.17779039 -0.21898519
-0.06627549 0.13286516 -0.123432755 0.14937615 -0.023708448 -0.09768347 -0.12813513 0.09613193
0.038678635 -0.13234076 0.060049277 0.18826716 0.07326378 -0.1836918 0.13022164 0.20172296
-0.1162817 0.13484824 0.052395478 0.12155731 -0.09590676 -0.019003216 -0.1462738 -0.07676087
-0.11625698 0.109580785 0.18386778 -0.09137657 -0.033080474 -0.15589224 -0.10232932 0.04240137
-0.11192574 -0.11395661 -0.2642355 0.14381883 0.19420896 0.1501075 0.1281208 0.21174946
0.0475232 -0.078345105 -0.1608096 0.21855943 0.17036399 -0.19634818 -0.19007236 -0.18671118
-0.05613678 0.14732604 0.17438571 -0.20152521 0.020532709 0.22028692 -0.15131687 0.041289147
0.026633793 -0.21450037 0.09090396 0.033507515 0.05541951 0.17423078 -0.12418301 0.079004176
-0.17194924 -0.119222626 -0.04775852 0.11856559 -0.08074051 0.09500712 0.07939934 0.13930598
0.12436782 -0.19102177 0.081768975 0.26522633 0.16686244 0.14950062 0.07265468 -0.029630935
0.13771781 -0.028138002 -0.14585291 -0.11881203 -0.15550262 -0.00719748 0.22257304 -0.08682294
-0.13273247 -0.17095694 -0.16664492 0.010564125 0.1018939 -0.045550562 0.050353535 -0.12964214
-0.21607137 0.21459362 0.1412094 0.014155306 -0.24012183 0.032085806 -0.25229585 -0.13250186
0.050773922 -0.0766636 0.13777027 0.17676105 -0.13374339 -0.0554706 -0.07162389 0.15865101
0.24380942 0.20810513 0.047562666 0.2084218 0.14524068 -0.21339686 0.132722 -0.16689076
-0.10052705 0.06361782 -0.077577114 -0.2116101 -0.2136012 -0.17295867 -0.25392598 0.13666816
0.21394767 -0.16441076 0.1556704 0.16745399 -0.062228102 0.01716484 -0.23180038 0.21455143
0.1789957 -0.07196889 0.10680456 0.002773533 0.011400996 0.13422123 0.05165986 -0.26840058
-0.26950732 -0.029340785 -0.26841554 0.051491927 0.010531876 0.032524507 -0.24929044 0.15374963
-0.19601066 0.087987594 -0.0063915513 -0.1811492 0.04454488 0.21356645 -0.022352442 0.10506982
-0.117687784 -0.010946788 0.12075014 -0.17912033 -0.030712137 0.007834092 -0.0032651962 -0.042673774

glu_encoder.hid2lat.bias f4 [64]
00000000: ccc0 973c 5e6e 8dbd ddba 41be c6d6 073d
00000010: 0b71 433d 844a 053d 9e1c 403e 3699 aebd
00000020: cd55 8d3c 1e34 043e 40b7 6f3e 7c6c e33d
00000030: 32c0 183c 6c65 1dbc 8c7b 2bbc 6418 46be
00000040: 1d90 4bbd 7980 7d3d 1f8d d23b d2fa 633e
00000050: c251 aabd c2ca 433e 7189 ee3d 3ef0 993d
00000060: 8553 263e 91a0 bb3d b5c1 9d3d e977 ce3c
00000070: ef2c 1bbe 1427 5d3e c784 22be 34bc 33bd
00000080: fc9c 72be 478f 81be 5f0e 433e ebf7 fbbd
00000090: 2030 603e b96b 4fbd cf65 57be 057c dbbd
000000a0: 9777 19bd 125a 0f3c 5e17 123e 473e 513c
000000b0: f5aa 853e 3030 043e 39d3 ef3d f95a 503e
000000c0: 008d 26be f975 8a3c 65e0 4d3e 6b25 603e
000000d0: 2883 8d3c 697a cbbd 7fa4 3d3d e851 77bd
000000e0: c711 85be 23a7 48be 39fa 7dbe f555 62bd
000000f0: 4415 53be fe70 08bd 6e2a 353d fee2 373e
0.01852455 -0.069058165 -0.18918939 0.03316381 0.047715228 0.032541767 0.18760917 -0.085253164
0.017252827 0.12910506 0.23409748 0.11104676 0.009323167 -0.0096067 -0.010466468 -0.19345242
-0.049697984 0.0618901 0.0064255144 0.22263649 -0.08316375 0.19120315 0.116473086 0.07516526
0.16242798 0.09161485 0.07702962 0.025203662 -0.1515386 0.21596938 -0.15870963 -0.043880656
-0.23692697 -0.25304624 0.19048451 -0.12303146 0.21893358 -0.05063984 -0.2103493 -0.10717014
-0.037467565 0.008749502 0.14266726 0.012771196 0.26106992 0.12909007 0.117102094 0.20347203
-0.16264725 0.016901957 0.20105131 0.21889274 0.017274454 -0.09935457 0.046299454 -0.060380846
-0.25990126 -0.19595008 -0.24802484 -0.055257756 -0.20613581 -0.033310883 0.044229917 0.17957684

encoders.weight_ih_l0 f4 [192, 64]
00000000: abd0 72bd 302e ebbd 1fe5 a2bd f5ef 1f3e
00000010: dd4d b83c 72c3 613d e6c3 a63d ebc4 0b3d
00000020: a5b2 953d 0589 81bd 0a5e 073e fe08 c8bd
00000030: 0c81 a6bd f7d0 f2bc c198 a5bd f04e 853d
00000040: 87f7 0e3d 9f03 0c3d 2209 b2bd 1a2d d13d
00000050: b2af 033e 3428 80bd acc4 2d3d 06ac 8a3c
00000060: 2b87 1a3d a2c5 1c3e d3e0 e5bd 9720 b7bd
00000070: 1d77 0fbe e142 35bd 4389 c73d 44b3 5bbd
00000080: 8883 34bd de80 493d 6cd4 1fbc 2644 96bd
00000090: c40b 1bbe d38a 84bd 85cd d8bd 5593 db3d
000000a0: 5722 853b 4d42 71bb 8634 7d3d dd06 1f3e
000000b0: 551f 6abd 6201 b53d eed0 59bd 6eaa 81bd
000000c0: 98a0 13be 7854 bfbd a440 afbd 764b 93bd
000000d0: 4d3c 843d 09e4 c33d 8a4a 223d f6a6 fcbd
000000e0: 31a8 45bd bfb0 b9bb 2d43 0fbe abac 22be
000000f0: 0b28 85bd f072 573d 7e97 49bc a2a0 f73d
00000100: 057a 30bd e77f d23c f618 a7bd 7eba a6bd
00000110: e47a 92bd d5aa c43d 2aae a13d 28b8 bb3c
00000120: 1589 22bc f2aa bebd 59c2 da3c 7a32 a2bd
00000130: 6b98 0c3d be47 59bd 03ff 0fbd a67c 39bd
00000140: c10c 263d d221 dcbd d977 c7bd 87d7 933d
00000150: 4e31 ca3d 2843 e53d ddb7 d63d db1e b9bd
00000160: bfc7 c73d aad6 ab3d 8943 893d b95e 85bd
00000170: 9ef9 e33d e931 5c3c 78cc 133c cf22 9ebd
00000180: 8c07 d3bd 86da babd f304 ba3c a528 a33d
00000190: b2f9 9f3d e301 d83d e18c d9bc de26 90bd
000001a0: 3370 263d 69f9 54bd ecab c8bc c0a5 5a3c
000001b0: 2ba3 ee3d 31fa 22bd e1d2 893d cccd 32bd
000001c0: 04de f7bd ad91 613d ad15 25bd 4691 c53d
000001d0: 8e13 873d fd2a 9fbd c896 bbbd 2d52 eebd
000001e0: dd1c 073c f5ea be3c 7d6d ddbd 2c11 99bc
000001f0: 2009 b03d c58f 06bd ff5a 293a 026e 45bd
00000200: 0aed 53bd 153a 48bd 9b9e 46bd c236 23bd
00000210: 1346 0dbd 9646 72bb 47ad 85bd 2b53 73bc
00000220: 919e 0fbe dc68 40bd e3d7 66bd 495d 7fbd
00000230: 32b3 013e 6f1f 52bc 1594 933c a3c7 63bd
00000240: 597e 543d 378f e13d b599 d33d 5c59 41bd
00000250: 5e9e 18bc 2b15 a6bd d750 0f3e 636e 9abd
00000260: e8f9 363c 4152 cc3d 5f14 93bc 4c0a 8ebd
00000270: 8676 783d 5d47 2a3d 88ad 613d ab60 d83c
00000280: a542 07be ea9c bfbd ffce 023e 8fce 393d
00000290: 80f0 95bd c30e 803d 06fc eebd 2eae ba3d
000002a0: ffc4 b9bc 38da edbc c252 fabc 1fbb a7bc
000002b0: 3f37 d83d b476 9b3d 0eda d23c 4f24 adbd
000002c0: b192 87bc eff1 2abd b434 16bd dc86 6f3c
000002d0: b2dc 7ebd 4fa2 96bd 21b5 05bd 60d9 183b
000002e0: 2c29 4e3c 26c9 14bd abe2 09be 9130 08be
000002f0: bf14 50bd 62c4 9abd 7596 e6bd 0a7f 523d
00000300: 1d0b 4c3c 2e4e a13d 4202 0e3e 6a45 673c
00000310: 7dc6 f23d 27d2 cabd 86da 083e 2726 e4bd
00000320: 4adf 92bd 9945 29bc b8dd 993d 3409 cfbd
00000330: bc5f 083e e989 0b3d 88c3 7bbd 824d 6c3d
00000340: 6c0e c4ba 0ff7 1f3d 16fd 93bc 293f 98bd
00000350: 1a17 f43d 7578 263d 5c76 cdbd c9a1 a1bd
00000360: cf04 773d 82c4 393d b1c4 9b3c e888 10be
00000370: b153 c13b c45c 76bd dc7f 6b3d 1576 09be
00000380: 5c69 21bd 2a75 cd3d 2253 0bbd a4bb e8bc
00000390: 8ee6 22bd 2f76 ddbc 4246 b53d e7fd 6fbd
000003a0: b581 63bd be95 943d 59e2 9f3d ff61 f63c
000003b0: 25d9 eb3d a60b 6a3d 0116 ffbb 92de f53c
000003c0: 86d4 b63d 3e61 713d e24d abbd a8e5 6cbd
000003d0: bef4 9bbc fda9 b63d 1416 a2bd 22d6 e03c
000003e0: 5cd5 843d 9efa 3cbd 2243 4a3d 5416 f43b
000003f0: 477c dbbd 9337 b43d 4569 f2bd c81a 103e
-0.059281033 -0.11483419 -0.07953858 0.1561888 0.022498066 0.05511803 0.081428334 0.034123342
0.07309464 -0.063249625 0.13219467 -0.0976734 -0.081300825 -0.029640658 -0.08085776 0.06509197
0.03490403 0.03418314 -0.08693148 0.102136806 0.12859991 -0.06257668 0.04242389 0.01692773
0.037726562 0.15309766 -0.112245224 -0.08941763 -0.14010282 -0.044253234 0.097429775 -0.053637758
-0.04407075 0.049195163 -0.009755235 -0.07337217 -0.15141207 -0.06471791 -0.10586075 0.10721461
0.0040629315 -0.00368132 0.06181767 0.15529962 -0.057158787 0.088381544 -0.053177767 -0.06331335
-0.1441673 -0.09342283 -0.08557251 -0.071921274 0.06456814 0.09564979 0.039621867 -0.12336533
-0.048256103 -0.0056668217 -0.1399047 -0.1588618 -0.06501778 0.052599847 -0.012304185 0.12091185
-0.043085117 0.025695754 -0.08159058 -0.08141039 -0.07152346 0.09602896 0.07894547 0.022914961
-0.009920378 -0.09309949 0.026704 -0.07919784 0.034325045 -0.053046934 -0.035155308 -0.04528489
0.040539507 -0.10748638 -0.09739656 0.07218843 0.098726854 0.1119445 0.10484288 -0.09039088
0.097548954 0.08390553 0.067023344 -0.065122075 0.11131595 0.013439634 0.009020917 -0.07721483
-0.10304174 -0.09123711 0.022707438 0.07966737 0.078112975 0.10547235 -0.026556434 -0.07038663
0.040634345 -0.05199567 -0.024496041 0.013345182 0.116522156 -0.039789382 0.06729675 -0.043653294
-0.12102893 0.055070568 -0.040303875 0.09646849 0.06595527 -0.07771871 -0.091596186 -0.116367675
0.008246628 0.023305396 -0.10811899 -0.018684946 0.085954905 -0.032851953 0.0006460398 -0.048200615
-0.05173973 -0.048883516 -0.0484911 -0.039847143 -0.034490656 -0.0036968342 -0.06527191 -0.014851372
-0.14025332 -0.046975 -0.05635823 -0.062344823 0.12666014 -0.012824877 0.018014947 -0.05561031
0.051878307 0.11013644 0.10332052 -0.04720436 -0.009315101 -0.08109506 0.13995682 -0.07540586
0.011167981 0.09976626 -0.01795405 -0.06935558 0.060659908 0.041571964 0.055097133 0.026413282
-0.13209017 -0.09356101 0.12774275 0.045363005 -0.07321262 0.062528156 -0.116691634 0.091152534
-0.022676943 -0.029034719 -0.03055704 -0.020474968 0.10557412 0.07591 0.025738742 -0.08454191
-0.01654944 -0.041734632 -0.036671355 0.014619555 -0.06222219 -0.07355177 -0.03264344 0.0023322925
0.012583058 -0.036324643 -0.13465373 -0.13299777 -0.050801035 -0.07556988 -0.11259166 0.051390685
0.0124538215 0.0787624 0.13868049 0.014115671 0.11854265 -0.09903365 0.1336461 -0.111400895
-0.07171495 -0.010331535 0.075129926 -0.10109177 0.1331777 0.03406707 -0.06146577 0.057691105
-0.0014957911 0.039053973 -0.018065017 -0.07433922 0.11918469 0.04064222 -0.10032341 -0.07892186
0.06030732 0.04535342 0.019014688 -0.14114726 0.0058998694 -0.060147062 0.057494983 -0.13423951
-0.03940712 0.10032113 -0.03401483 -0.028409787 -0.039770655 -0.027033893 0.08851291 -0.05859175
-0.05554362 0.072551236 0.07806844 0.030076025 0.115160264 0.057140015 -0.0077846055 0.030013356
0.089272544 0.058930628 -0.08364464 -0.057836205 -0.0190376 0.089191414 -0.07914367 0.027445856
0.064860076 -0.046137445 0.04938043 0.007448951 -0.107170634 0.087996624 -0.11836485 0.14072716
