code/baseline/saved/GAMNet_learning_rate_0.0001_hidden_size_64_epoch_6000_batch_size_32/Epoch_3850_JA_0.7320_DDI_0.0903.model (torch, 455805 bytes, 29 tensors)

lab_embeddings f4 [32, 64]
0.28703338 0.16794936 -0.7427302 -1.6509134 -0.6600762 -1.5224936 1.1893197 0.50012296
0.7643187 0.50479305 -1.7263006 -1.3668576 0.52461755 -0.46178564 0.6721306 1.9399084
0.7011221 0.1919456 0.38661423 0.44135147 0.25722632 -0.7698351 -1.0963178 -0.9848745
-0.6605056 -1.0106803 0.71191776 -2.349741 -0.3579484 0.83995366 1.4290234 0.39121652
-2.2206833 1.7280279 -0.2707255 -1.9061102 -0.42170402 -0.60842407 -1.1319717 -0.9336421
0.5071209 0.45035678 1.0145464 -0.4599264 0.4153014 0.9152031 2.2588048 0.56604093
-0.28939018 -0.36650518 0.27336797 -0.48028168 -0.80852735 0.17525035 -0.6365302 0.7907695
-0.30225164 -0.17468044 2.5150337 -0.5549504 0.047735352 0.33096498 1.8078315 0.028772531
-0.18423419 -0.60505563 -0.4520804 -0.06864832 0.19328992 0.5797987 1.8670386 0.30769038
-1.0366349 -1.3079448 -1.296628 0.0462849 -1.5008103 -1.114311 0.8773743 -0.90815866
-0.11369143 0.5574489 1.4920267 1.1960974 0.38730118 -0.4871543 0.21116221 2.3025181
-0.04054836 1.0219965 0.36998397 0.97164094 0.045032427 1.8637519 0.84169567 0.12154142
-0.8150321 -1.4230105 -0.5507271 0.51813734 1.2873367 -0.26687002 0.15904967 0.38230008
0.4248986 -1.1853708 0.7595745 0.69859564 1.5970596 -0.2555676 -1.9574133 -0.61602515
0.68535936 -1.6130481 0.7887049 0.60090476 0.531579 -0.4912664 -1.2430019 -0.73800457
-1.9862541 3.3329823 0.186034 0.39452115 0.683997 0.96291006 -2.2013655 1.4029919
-0.894182 -0.25598657 1.6320553 -0.21419416 0.23777537 -1.0354965 -0.99460405 -0.75686145
-0.8630462 0.92570806 -0.042633288 1.2230436 -0.32067445 0.5867213 -0.46303463 2.128393
-0.8053595 0.2173145 0.810557 -0.375615 -0.80669343 0.57178354 1.5379738 0.009972654
-1.3902289 -0.17777514 -0.6578886 -0.8018654 0.35371625 -0.2761305 -0.1733841 0.7792724
-0.80275387 1.4486734 0.37195644 0.5465702 0.76039255 0.33203202 0.027378995 1.4398112
2.0243661 -0.23702227 0.4429249 -0.2235669 1.262269 -0.2842355 -0.38465297 -0.64913034
-0.37957573 0.30616075 -1.0449226 0.3601677 -1.374731 0.3438777 0.08822455 -1.7336841
-0.046309907 0.8448091 0.27006027 -0.07899076 0.3730872 -1.3655261 -0.8978982 -0.5132803
-0.040159546 -0.65645736 0.9264862 -1.0760704 -0.10801485 -2.0027754 -1.472407 0.15437114
0.26715013 1.178617 -0.42986023 -1.0319326 0.87109655 1.9879111 0.25655317 -0.11083211
0.26352325 0.6312575 -0.30570605 0.0429767 0.276578 -1.3761367 -2.5121841 -0.40545735
-0.604809 -0.09304669 2.238642 -1.759673 0.5730713 0.03708794 -0.3056443 0.41295323
0.21233335 1.2382666 0.96338177 -1.2604429 0.5154478 -0.04922305 1.9440566 -2.117916
0.76839036 0.30891964 -0.05409683 -0.40101045 -0.767314 0.6265851 -1.1929666 0.78557444
-0.6379546 -1.2815021 0.5495076 0.9562261 1.3574237 0.48638308 -1.8735199 0.7278714
0.6317494 1.4045998 -0.9292395 0.7471899 1.1245304 -0.23130046 0.6739694 2.1916106
00000000: 0af6 923e ebfa 2b3e 9123 3ebf 2151 d3bf
00000010: c1fa 28bf 12e1 c2bf a13b 983f 0f08 003f
00000020: 64aa 433f 1e3a 013f 6bf7 dcbf 31f5 aebf
00000030: 564d 063f 2b6f ecbe c010 2c3f eb4e f83f
00000040: bd7c 333f 638d 443e 4df2 c53e d2f8 e13e
00000050: 2bb3 833e ea13 45bf 2454 8cbf bc20 7cbf
00000060: e516 29bf f95d 81bf 3e40 363f 2862 16c0
00000070: 0345 b7be 3407 573f 3dea b63f 884d c83e
00000080: ad1f 0ec0 0530 dd3f 889c 8abe 6bfb f3bf
00000090: 97e9 d7be aec1 1bbf 73e4 90bf 2b03 6fbf
000000a0: add2 013f 2a95 e63e a8dc 813f 797b ebbe
000000b0: 63a2 d43e c04a 6a3f 4290 1040 0fe8 103f
000000c0: f32a 94be 91a6 bbbe e3f6 8b3e 7be7 f5be
000000d0: a6fb 4ebf d474 333e a5f3 22bf df6f 4a3f
000000e0: bac0 9abe 6edf 32be 50f6 2040 3b11 0ebf
000000f0: 2586 433d 3e74 a93e 0667 e73f 5fb4 eb3c
00000100: e3a7 3cbe ede4 1abf 1577 e7be 7e97 8cbd
00000110: cbed 453e b06d 143f 1ffb ee3f 9889 9d3e
00000120: 74b0 84bf bc6a a7bf e8f7 a5bf 3c95 3d3d
00000130: 8d1a c0bf bea1 8ebf 9a9b 603f 167d 68bf
00000140: 0dd7 e8bd f9b4 0e3f bbfa be3f b819 993f
00000150: 574c c63e 4a6c f9be e83a 583e 755c 1340
00000160: 0a16 26bd c8d0 823f 8a6e bd3e 76bd 783f
00000170: ec73 383d 6c8f ee3f 5e79 573f b5ea f83d
00000180: f2a5 50bf 3525 b6bf 74fc 0cbf a6a4 043f
00000190: 73c7 a43f 30a3 88be ebdd 223e d6bc c33e
000001a0: 4f8c d93e 3bba 97bf 7973 423f 2ad7 323f
000001b0: 736c cc3f c2d9 82be 858c fabf d3b3 1dbf
000001c0: b673 2f3f 5c78 cebf 90e8 493f e5d4 193f
000001d0: 9015 083f 4587 fbbe b01a 9fbf deed 3cbf
000001e0: 933d febf 954f 5540 b27f 3e3e adfe c93e
000001f0: 6d1a 2f3f 4681 763f 2ce3 0cc0 3d95 b33f
00000200: 1de9 64bf ac10 83be 30e7 d03f b755 5bbe
00000210: 637b 733e 268b 84bf 5f9e 7ebf acc1 41bf
00000220: 99f0 5cbf 34fb 6c3f 3ea0 2ebd b18c 9c3f
00000230: 712f a4be 5e33 163f e012 edbe 9737 0840
00000240: 0a2c 4ebf b187 5e3e aa80 4f3f 9c50 c0be
00000250: 7683 4ebf 6860 123f 53dc c43f 5864 233c
00000260: 05f3 b1bf b00a 36be 636b 28bf 0d47 4dbf
00000270: 4c1a b53e fa60 8dbe 9a8b 31be 657e 473f
00000280: 4781 4dbf 216e b93f 1371 be3e 06ec 0b3f
00000290: 16a9 423f 1a00 aa3e ea49 e03c bc4b b83f
000002a0: 378f 0140 f7b5 72be 0dc7 e23e b9ee 64be
000002b0: 0892 a13f 5187 91be 3cf1 c4be 682d 26bf
000002c0: c057 c2be 1ac1 9c3e 06c0 85bf e767 b83e
000002d0: 2ff7 afbf bd10 b03e 13af b43d 5ce9 ddbf
000002e0: 75af 3dbd 6945 583f 5745 8a3e e8c5 a1bd
000002f0: 4905 bf3e 8fc9 aebf a8dc 65bf 5666 03bf
00000300: 567e 24bd 970d 28bf 332e 6d3f adbc 89bf
00000310: e436 ddbd 792d 00c0 d577 bcbf 7813 1e3e
00000320: e7c7 883e ecdc 963f a416 dcbe 5e16 84bf
00000330: 2f00 5f3f df73 fe3f f05a 833e f2fb e2bd
00000340: 85ec 863e 179a 213f 8185 9cbe 5608 303d
00000350: a29b 8d3e 3f25 b0bf a0c7 20c0 1b98 cfbe
00000360: c3d4 1abf 438f bebd e945 0f40 f73c e1bf
00000370: cdb4 123f 86e9 173d 697d 9cbe 9b6e d33e
00000380: ea6d 593e 857f 9e3f 30a0 763f 3156 a1bf
00000390: 63f4 033f 1c9e 49bd d9d6 f83f f08b 07c0
000003a0: 3bb5 443f b72a 9e3e a394 5dbd 3e51 cdbe
000003b0: b16e 44bf e267 203f 21b3 98bf 681b 493f
000003c0: fe50 23bf 4308 a4bf 88ac 0c3f 3ccb 743f
000003d0: 0fc0 ad3f 3407 f93e 80cf efbf c855 3a3f
000003e0: 54ba 213f edc9 b33f a4e2 6dbf d647 3f3f
000003f0: 9df0 8f3f 07da 6cbe 4289 2c3f 5943 0c40

static_ll.0.weight f4 [128, 64]
0.1377514 -0.09516635 -0.100632116 -0.12870057 0.079733916 -0.066518284 -0.14439026 0.020277804
0.071191676 -0.06501223 -0.027964197 -0.0766789 0.17959167 -0.040333293 0.01698009 -0.07910753
-0.1338894 0.10062182 -0.06252558 -0.1056932 -0.045449868 -0.07350679 -0.13283218 -0.10491459
0.10501117 -0.030777557 0.071204275 -0.09799048 0.078518935 -0.060090788 0.0788064 0.12672846
0.105887875 0.09677114 -0.009078489 -0.12400264 0.036366597 0.067748606 0.046594925 -0.05748176
0.014463382 0.06462749 0.061901428 0.047714345 -0.072439104 0.06305967 -0.05084998 -0.0858023
-0.0609506 -0.12797512 0.13595277 0.15776518 0.04594143 -0.018180905 -0.056249537 -0.12484549
0.012865727 -0.001013392 -0.041342407 0.045193505 -0.1335795 -0.10329534 -0.021838091 -0.012138075
-0.03890125 0.086687915 -0.11946117 0.1347481 -0.061604235 -0.06851455 0.09913657 -0.07981929
-0.08539438 0.056086212 -0.028182613 0.106260754 -0.07115423 0.014395465 0.06446504 -0.113124095
-0.09113096 -0.094814576 0.012636365 0.12338387 0.07111936 0.0639363 0.057798024 0.035545237
0.08149749 0.04169238 0.083183594 0.15057896 0.086854644 0.12860481 0.02335843 -0.13388018
-0.08505661 -0.13542522 0.03190035 -0.035843674 -0.02810362 0.122603305 -0.03611978 0.13524348
-0.042777874 -0.09568305 0.1271467 -0.105206445 -0.082193226 -0.015938945 -0.047456976 -0.019148646
-0.069496326 0.03274096 0.15893802 -7.371579e-05 -0.1415153 -0.020469995 -0.07870896 0.0057842466
-0.081287585 0.158172 -0.025143199 0.07902528 0.0018049116 0.10383546 -0.11413365 0.10269393
0.08237352 -0.0023020671 -0.0072779963 0.007592555 0.0880106 -0.15921678 -0.11382204 -0.031662617
-0.07652957 -0.029630367 -0.080172755 -0.13100788 0.00797851 -0.07438985 -0.09190584 -0.017937977
-0.07949205 0.115035295 -0.043069247 -0.106412694 0.04864027 -0.061928123 -0.029945817 0.03538099
-0.063114524 -0.11187547 -0.08654132 -0.054515854 -0.06748599 0.07671563 0.06391477 -0.030639444
-0.12843841 0.083917305 0.017264618 0.027057646 0.03488357 -0.0070742005 0.03459632 -0.024060283
-0.020244127 -0.08671676 0.08392136 -0.06399051 0.14606136 0.11217149 0.12604731 -0.042241488
-0.10603567 -0.01735223 0.08021982 0.09176482 -0.0060415203 0.111890845 0.101739414 -0.033223838
0.0094261095 -0.0008055644 0.020403517 -0.07034757 0.12736733 0.098757006 0.042932007 -0.06862217
-0.08201176 -0.057884373 -0.021236636 -0.032286264 0.1439835 0.10922421 -0.14048435 0.07682386
-0.09356289 0.07902606 0.050200865 -0.009379849 0.08273286 0.05057678 0.028890155 0.054448538
0.08039938 -0.019680124 -0.025412269 0.057435554 0.09021901 0.09240803 -0.028473144 -0.039200976
0.09503522 -0.009825609 -0.1481836 0.027293261 0.021980138 -0.010467584 0.013322418 0.058736186
0.01760092 -0.08938452 0.0074842805 0.045912553 -0.035964895 -0.076430306 -0.11768143 0.055786368
0.12215189 -0.16481538 -0.10524319 0.098697 -0.03620478 -0.06721324 0.095803164 -0.10059792
0.019529033 0.037956033 -0.15278889 -0.0259266 0.14633639 -0.08821066 -0.01581385 -0.07189712
0.02904746 -0.0513314 0.0009871853 -0.07541415 -0.07157194 -0.087560214 -0.07734972 -0.019342015
00000000: b40e 0d3e 93e6 c2bd 3618 cebd 15ca 03be
00000010: 894b a33d bd3a 88bd 0adb 13be a31d a63c
00000020: f1cc 913d 2225 85bd 2c15 e5bc d409 9dbd
00000030: e1e6 373e 8634 25bd d419 8b3c 2103 a2bd
00000040: 4e1a 09be d012 ce3d 690d 80bd ad75 d8bd
00000050: a429 3abd ba8a 96bd 2905 08be 76dd d6bd
00000060: 1910 d73d 3721 fcbc 8cd3 913d 3caf c8bd
00000070: 89ce a03d c221 76bd 4065 a13d 1bc5 013e
00000080: bedb d83d f32f c63d f1bd 14bc 19f5 fdbd
00000090: 24f5 143d c8bf 8a3d 52da 3e3d fe71 6bbd
000000a0: d2f7 6c3c 6b5b 843d 5a8c 7d3d 1e70 433d
000000b0: f45a 94bd 6e25 813d 1248 50bd 1eb9 afbd
000000c0: 56a7 79bd e90b 03be 3437 0b3e 328d 213e
000000d0: 152d 3c3d 1ff0 94bc ea65 66bd feae ffbd
000000e0: c5ca 523c cbd3 84ba a856 29bd d31c 393d
000000f0: 10c9 08be 828c d3bd cce5 b2bc c7de 46bc
00000100: eb56 1fbd 6f89 b13d 0fa8 f4bd 68fb 093e
00000110: b954 7cbd 5b51 8cbd 1d08 cb3d 4c78 a3bd
00000120: 40e3 aebd a8ba 653d 39df e6bc 3d9f d93d
00000130: 4fb9 91bd f5da 6b3c 3f06 843d 9bad e7bd
00000140: dea2 babd 252e c2bd c208 4f3c afb0 fc3d
00000150: 07a7 913d 09f1 823d 9fbd 6c3d e297 113d
00000160: 28e8 a63d a1c5 2a3d 295c aa3d 5f31 1a3e
00000170: d9e0 b13d fbb0 033e 2e5a bf3c e317 09be
00000180: 2932 aebd e9ac 0abe f1a9 023d d1d0 12bd
00000190: 9039 e6bc 7117 fb3d 56f2 13bd 447d 0a3e
000001a0: da37 2fbd 7af5 c3bd bf32 023e 7a76 d7bd
000001b0: ec54 a8bd 6492 82bc 3f62 42bd 9fdd 9cbc
000001c0: 1754 8ebd 631b 063d a6c0 223e dd97 9ab8
000001d0: 63e9 10be b1b0 a7bc 2a32 a1bd c789 bd3b
000001e0: 1b7a a6bd d7f7 213e 1cf9 cdbc 02d8 a13d
000001f0: c992 ec3a b0a7 d43d e7be e9bd 3251 d23d
00000200: 73b3 a83d 47de 16bb 427c eebb f8ca f83b
00000210: e73e b43d b909 23be 881b e9bd a9b0 01bd
00000220: 89bb 9cbd 62bb f2bc 9d31 a4bd ee26 06be
00000230: 4cb8 023c b559 98bd 2139 bcbd aaf2 92bc
00000240: bacc a2bd a097 eb3d 6169 30bd e6ee d9bd
00000250: 053b 473d 58a8 7dbd ee50 f5bc a8eb 103d
00000260: 3042 81bd f71e e5bd 933c b1bd 044c 5fbd
00000270: 1836 8abd 161d 9d3d bfe5 823d 92ff fabc
00000280: 5c85 03be d6dc ab3d 876e 8d3c ffa7 dd3c
00000290: 13e2 0e3d b2ce e7bb dfb4 0d3d 121a c5bc
000002a0: 03d7 a5bc 8f98 b1bd f6de ab3d 750d 83bd
000002b0: 1c91 153e 2bba e53d 8c12 013e 6905 2dbd
000002c0: 3b29 d9bd 4426 8ebc 4a4a a43d 32ef bb3d
000002d0: f2f7 c5bb 0727 e53d c15c d03d b815 08bd
000002e0: f86f 1a3c 832c 53ba 4725 a73c 6312 90bd
000002f0: 956c 023e 1d41 ca3d 79d9 2f3d c889 8cbd
00000300: c8f5 a7bd 2a18 6dbd 74f8 adbc 9a3e 04bd
00000310: 6970 133e f1b0 df3d 21db 0fbe d455 9d3d
00000320: e79d bfbd 6ad8 a13d 6c9f 4d3d f0ad 19bc
00000330: d96f a93d 9929 4f3d 0cab ec3c 6e05 5f3d
00000340: 6ea8 a43d 3638 a1bc 642d d0bc 8b41 6b3d
00000350: bfc4 b83d 6c40 bd3d 8340 e9bc 3491 20bd
00000360: d3a1 c23d 97fb 20bc 71bd 17be 1e96 df3c
00000370: b10f b43c 3b80 2bbc 4546 5a3c 5b95 703d
00000380: ce2f 903c 3b0f b7bd b23e f53b cd0e 3c3d
00000390: ed4f 13bd 7e87 9cbd f602 f1bd 3f80 643d
000003a0: c52a fa3d 5dc5 28be be89 d7bd a721 ca3d
000003b0: 774b 14bd 18a7 89bd 7334 c43d 4806 cebd
000003c0: 5afb 9f3c c977 1b3d b174 1cbe 0564 d4bc
000003d0: 35d9 153e caa7 b4bd 0c8c 81bc cc3e 93bd
000003e0: f0f4 ed3c e040 52bd 7164 813a bc72 9abd
000003f0: 4f94 92bd c552 b3bd 8869 9ebd 2573 9ebc

static_ll.0.bias f4 [128]
0.11432039 -0.089123696 0.017196862 -0.053384494 0.11106753 0.08375299 -0.07105607 0.12086409
0.01744845 0.13944115 0.13636939 -0.053442616 -0.025593324 0.09592316 0.016690588 0.116903305
0.12402711 -0.080009446 0.030738704 0.075104445 0.09816048 0.0066103917 0.07364546 0.14694498
0.11640498 0.106344976 -0.049684275 -0.08323657 -0.0673196 0.114088066 -0.023336278 -0.06875229
-0.0019072539 0.08214881 0.114852786 -0.08223952 0.12687565 0.10625772 0.0068476577 0.067426875
0.008196991 -0.01877938 -0.017990198 -0.07681832 0.0010622315 -0.028617114 -0.061130974 -0.051128585
-0.026649438 0.110772625 0.11485004 0.026169663 0.035632215 0.13653083 -0.032791715 0.07194792
0.13957626 0.09680466 -0.11012598 -0.078372404 -0.029289601 0.10243981 -0.058045756 -0.07367836
-0.05306559 -0.040336486 0.04607277 -0.06795657 -0.0017378881 -0.015299954 0.05105356 0.07150647
-0.010374463 -0.028134283 -0.0589064 0.023614228 0.011251768 0.021936838 -0.032258563 0.011196257
0.008841299 0.092672884 -0.08193949 0.00814943 -0.071362935 -0.004339563 -0.07187047 0.038670786
0.1628426 -0.073863454 0.10143847 -0.035924323 -0.09868796 0.03190401 -0.015501651 -0.0051170774
-0.06414201 0.07547836 0.010345328 -0.0040842267 0.116894536 -0.068492234 0.058660477 -0.053145543
-0.081151165 -0.041945085 0.119028635 0.10630071 0.05405249 0.03966147 0.04457268 -0.016737856
0.11807427 -0.07877217 0.059128113 -0.036530685 0.04558817 0.06200948 0.058859494 -0.10185079
0.07207914 -0.012967799 0.10842062 -0.06306564 0.07070983 -0.122223735 0.12525293 0.018598227
00000000: cf20 ea3d 7c86 b6bd 6fe0 8c3c b3a9 5abd
00000010: 6077 e33d b086 ab3d d885 91bd 9887 f73d
00000020: 0df0 8e3c a9c9 0e3e 6ba4 0b3e a5e6 5abd
00000030: 17a9 d1bc 5d73 c43d b3ba 883c 006b ef3d
00000040: ed01 fe3d fedb a3bd bccf fb3c 5cd0 993d
00000050: 5d08 c93d fc9b d83b 6ed3 963d bf78 163e
00000060: bc65 ee3d 65cb d93d bd81 4bbd ef77 aabd
00000070: dcde 89bd 01a7 e93d b92b bfbc 00ce 8cbd
00000080: d2fc f9ba a33d a83d f037 eb3d 326d a8bd
00000090: b1eb 013e a69d d93d 5162 e03b 1a17 8a3d
000000a0: ac4c 063c 37d7 99bc 2e60 93bc ec52 9dbd
000000b0: 933a 8b3a 706e eabc 7964 7abd 356c 51bd
000000c0: ec4f dabc c2dc e23d 7f36 eb3d c361 d63c
000000d0: 16f3 113d bdce 0b3e 9b50 06bd 6e59 933d
000000e0: 14ed 0e3e 8641 c63d bb89 e1bd b681 a0bd
000000f0: bff0 efbc f7cb d13d 63c1 6dbd aee4 96bd
00000100: 4e5b 59bd df37 25bd cdb6 3c3d d02c 8bbd
00000110: d9c9 e3ba a9ac 7abc 8a1d 513d fc71 923d
00000120: a7f9 29bc de79 e6bc d647 71bd a072 c13c
00000130: 5659 383c e2b4 b33c 8e21 04bd 8170 373c
00000140: 19db 103c 48cb bd3d e4cf a7bd 3085 053c
00000150: bb26 92bd e532 8ebb d330 93bd 4265 1e3d
00000160: 36c0 263e b945 97bd f9be cf3d 6225 13bd
00000170: ea1c cabd c7ad 023d a3fa 7dbc 28ad a7bb
00000180: e35c 83bd 6694 9a3d 737f 293c fad4 85bb
00000190: 6766 ef3d a845 8cbd f845 703d 24af 59bd
000001a0: 9532 a6bd 9cce 2bbd 49c5 f33d 30b4 d93d
000001b0: 2566 5d3d 1174 223d d891 363d d41d 89bc
000001c0: ecd0 f13d 4e53 a1bd 5230 723d 33a1 15bd
000001d0: a9ba 3a3d a7fd 7d3d a716 713d 2697 d0bd
000001e0: 3a9e 933d e476 54bc a10b de3d 8f28 81bd
000001f0: 51d0 903d 7050 fabd 4e42 003e 4f5b 983c

static_ll.2.weight f4 [64, 128]
0.04027296 -0.07439765 0.04976007 0.06435085 0.0817338 0.013267083 -0.057286147 -0.03557709
-0.08270985 0.007399125 -0.02508459 0.002900471 -0.018716475 0.008499783 0.045999 0.07752268
0.05209454 -0.048162345 -0.024801759 -0.052677337 -0.0424817 0.07056472 0.052417107 0.02775419
-0.0033850628 0.060003232 -0.050331276 -0.01132817 0.006145869 -0.0055811843 0.0031431827 -0.08306958
0.086357966 -0.046903487 -0.017283157 -0.06940152 0.11180771 0.03305592 0.005351322 0.009574244
-0.041263323 0.037412815 0.0034491993 0.08006503 0.0400981 -0.06651541 0.05294557 0.057103053
0.040978543 -0.010200311 -0.028846104 -0.07374493 -0.00032137646 0.081358254 -0.037305534 0.07988523
0.029614884 -0.092122935 -0.055668686 0.05587365 0.09565196 0.076140955 0.00801025 -0.005320318
0.0037599 -0.01939918 0.08553876 -0.04066196 -0.025422491 0.055856105 8.5231775e-05 -0.066657625
0.030017644 0.020161498 0.009367975 -0.021000588 -0.06924138 -0.02806393 0.038689043 -0.019387908
0.02988525 0.06776817 0.03440255 0.00448364 -0.017844524 -0.015095908 -0.0737712 0.005254254
0.00016129293 -0.049033735 -0.070759594 -0.06700497 0.05222103 0.067551985 -0.04466036 -0.07178485
0.0015668703 0.02710443 0.06381609 0.07657828 0.020491881 0.054593496 0.043467015 0.084896915
0.046411924 -0.044659324 0.079229884 0.0419711 0.01741571 0.071256846 -0.02917587 -0.05524266
-0.0077671986 0.04914607 -0.028553016 0.07989588 0.098649845 0.013725132 -0.007019633 -0.024072692
-0.0352105 0.045858778 0.081661075 -0.060478453 0.024807656 0.0061666463 0.09632235 0.03908727
0.041696254 -0.039702386 0.01932531 -0.01157279 0.043456353 -0.06850007 0.049094927 0.06853454
0.01736204 -0.021334935 0.05333305 0.12451614 0.0050567565 0.040211964 -0.018886056 0.07397495
-0.020935006 -0.012107795 0.06949958 0.049217816 -0.05962338 0.0732737 0.060771547 -0.056307074
0.00448109 0.037634354 0.030701006 0.0493801 -0.074363954 0.088320605 0.019915514 0.06819604
-0.015062062 0.010355272 0.023012951 0.045951344 0.06299303 0.059433397 0.017897194 0.07045358
0.044547148 -0.039830457 0.013649346 -0.0740118 0.052944355 0.054441575 0.06826936 0.077465914
-0.097884655 0.11737363 0.0567641 0.031035956 -0.047423903 0.06395184 0.03323303 -0.07873244
0.03379778 -0.12381914 -0.08008163 0.006130056 0.11920133 -0.024823321 0.03079914 0.0060019917
0.018623808 -0.027154105 0.09384567 0.030626982 -0.08977815 -0.044393122 0.060999513 -0.093065746
-0.0020355545 -0.0081096655 0.028858349 -0.016176961 0.01544999 -0.01062062 -0.030147629 0.08543974
-0.027202679 0.061234325 -0.092181854 0.0051493566 -0.08256622 0.03940757 0.08545416 -0.051839687
0.026571129 0.10168365 -0.049568042 -0.06416762 0.06386365 0.07437448 -0.0003011913 0.09724222
0.08654003 0.08517092 0.09455227 -0.014623081 0.04108715 -0.037628606 0.0017133952 0.008405685
-0.0425357 0.035383455 0.033876278 0.046323933 -0.045913957 -0.046975367 0.0042031086 -0.003434003
-0.04157107 -0.08046729 0.0105008595 0.0281567 -0.06681332 0.08292735 0.075990684 -0.022256978
-0.063528635 -0.025704637 -0.07734329 -0.01032091 -0.023724135 0.0016233617 -0.008894736 -0.04208916
00000000: 42f5 243d cc5d 98bd 37d1 4b3d 61ca 833d
00000010: 0d64 a73d 2e5e 593c e1a4 6abd 48b9 11bd
00000020: c863 a9bd 5c74 f23b 337e cdbc d415 3e3b
00000030: 4b53 99bc ad42 0b3c 7369 3c3d 36c4 9e3d
00000040: 1661 553d e145 45bd 0f2d cbbc 31c4 57bd
00000050: 4b01 2ebd 3c84 903d 52b3 563d c15c e33c
00000060: eed7 5dbb f3c5 753d 2b28 4ebd ca99 39bc
00000070: 4963 c93b 5ee2 b6bb dbfd 4d3b 6220 aabd
00000080: 72dc b03d df1d 40bd 6895 8dbc 6222 8ebd
00000090: 71fb e43d a565 073d 245a af3b 4add 1c3c
000000a0: bb03 29bd 2e3e 193d f60b 623b 22f9 a33d
000000b0: e83d 243d 3b39 88bd 74dd 583d e4e4 693d
000000c0: 1ed9 273d 351f 27bc aa4e ecbc 9507 97bd
000000d0: 6b7e a8b9 289f a63d b0cd 18bd de9a a33d
000000e0: ea9a f23c f3aa bcbd d904 64bd c5db 643d
000000f0: 2de5 c33d caef 9b3d 6c3d 033c 1056 aebb
00000100: a868 763b 07eb 9ebc f22e af3d 288d 26bd
00000110: d442 d0bc 5fc9 643d 76be b238 cb83 88bd
00000120: 90e7 f53c ba29 a53c 237c 193c 6d09 acbc
00000130: 6dce 8dbd 54e6 e5bc 6778 1e3d 64d3 9ebc
00000140: e9d1 f43c 0aca 8a3d b0e9 0c3d 80eb 923b
00000150: ae2e 92bc d454 77bc 5b15 97bd e12b ac3b
00000160: be20 2939 99d7 48bd 68ea 90bd e739 89bd
00000170: b8e5 553d b258 8a3d c8ed 36bd ef03 93bd
00000180: 715f cd3a 1c0a de3c 03b2 823d 13d5 9c3d
00000190: 97de a73c 6e9d 5f3d 780a 323d 6fde ad3d
000001a0: 6e1a 3e3d b2ec 36bd 4743 a23d e3e9 2b3d
000001b0: 64ab 8e3c 1cef 913d 3c02 efbc 2146 62bd
000001c0: fc83 febb 644d 493d 04e8 e9bc 73a0 a33d
000001d0: ee08 ca3d 60df 603c f304 e6bb 1834 c5bc
000001e0: e338 10bd 6ad6 3b3d ec3d a73d 41b8 77bd
000001f0: 6d39 cb3c 9411 ca3b a744 c53d f919 203d
00000200: b1c9 2a3d f89e 22bd 1d50 9e3c cd9b 3dbc
00000210: 4aff 313d c449 8cbd c317 493d d65b 8c3d
00000220: d63a 8e3c 9ac6 aebc c273 5a3d 5102 ff3d
00000230: 26b3 a53b 4db5 243d eeb6 9abc 2e80 973d
00000240: e47f abbc c65f 46bc cc55 8e3d 9f98 493d
00000250: a537 74bd 8610 963d 96eb 783d 3fa2 66bd
00000260: 1cd6 923b 7b26 1a3d ad80 fb3c ca42 4a3d
00000270: 214c 98bd 6fe1 b43d dc25 a33c 5eaa 8b3d
00000280: dec6 76bc 29a9 293c a885 bc3c 7a37 3c3d
00000290: 7d02 813d 6f70 733d 239d 923c f749 903d
000002a0: 1277 363d 4325 23bd 82a1 5f3c 8093 97bd
000002b0: 2edc 583d 21fe 5e3d ced0 8b3d 73a6 9e3d
000002c0: c077 c8bd 9661 f03d 7981 683d 1e3f fe3c
000002d0: 913f 42bd 2ff9 823d 5c1f 083d 793e a1bd
000002e0: 8a6f 0a3d e494 fdbd d601 a4bd a3de c83b
000002f0: d41f f43d 475a cbbc 7a4e fc3c 5bac c43b
00000300: f590 983c 4972 debc 2932 c03d 70e5 fa3c
00000310: 9bdd b7bd 90d5 35bd a0da 793d 4199 bebd
00000320: f066 05bb 67de 04bc 5868 ec3c 8c85 84bc
00000330: f421 7d3c 1c02 2ebc 29f8 f6bc 08fb ae3d
00000340: 27d8 debc d8d0 7a3d d7c9 bcbd efbb a83b
00000350: 7a18 a9bd d569 213d 9702 af3d da55 54bd
00000360: b2ab d93c 843f d03d dc07 4bbd 506a 83bd
00000370: f2ca 823d a651 983d 36e9 9db9 ee26 c73d
00000380: e63b b13d 176e ae3d 9fa4 c13d a695 6fbc
00000390: 004b 283d 7420 1abd 0194 e03a 00b8 093c
000003a0: ea39 2ebd 3eee 103d dac1 0a3d 2abe 3d3d
000003b0: 4610 3cbd 3e69 40bd 3bba 893b 030d 61bb
000003c0: 6d46 2abd 09cc a4bd cc0b 2c3c e1a8 e63c
000003d0: 6cd5 88bd d1d5 a93d 01a1 9b3d 4454 b6bc
000003e0: 4d1b 82bd 8892 d2bc 2966 9ebd 0919 29bc
000003f0: 1e59 c2bc fbc6 d43a 3abb 11bc af65 2cbd

static_ll.2.bias f4 [64]
0.05549794 0.0395207 -0.022029616 -0.055794008 -0.03358815 0.03672301 0.029175017 -0.0107133165
0.045280375 -0.061830297 0.08149708 -0.026947133 -0.012095543 0.017189484 0.0765488 0.10043309
-0.08262164 0.018443774 0.087071136 -0.06526908 -0.030973317 -0.00040020948 0.057968095 0.08332295
-0.034582492 0.08892507 0.05891871 -0.025695324 0.018559027 0.016595664 0.06250988 0.020062841
-0.042531487 -0.071835905 0.093121246 0.002936219 0.045018706 -0.048124857 -0.017808832 0.022916242
0.030089295 0.061362367 -0.013487208 0.021613855 -0.008357318 0.07417355 -0.022987647 0.0076170866
0.045687295 0.014051044 0.031847198 0.023696218 -0.03959823 0.0636468 0.07549643 0.056648687
-0.027072433 0.08948868 -0.0350965 0.09786501 0.07787163 0.029571883 -0.046936926 0.09906973
00000000: cf51 633d 75e0 213d 7477 b4bc 4288 64bd
00000010: ba93 09bd de6a 163d 7200 ef3c e886 2fbc
00000020: ea77 393d c441 7dbd f1e7 a63d 3cc0 dcbc
00000030: 622c 46bc f6d0 8c3c 9ec5 9c3d ddaf cd3d
00000040: 8935 a9bd 6617 973c 5a52 b23d ccab 85bd
00000050: c1bb fdbc 35d3 d1b9 f46f 6d3d 39a5 aa3d
00000060: 5fa6 0dbd 591e b63d bf54 713d 007f d2bc
00000070: 1a09 983c a1f3 873c 2e05 803d d45a a43c
00000080: 7f35 2ebd b41e 93bd 5ab6 be3d 956d 403b
00000090: 8965 383d 921e 45bd d4e3 91bc d8ba bb3c
000000a0: d37d f63c 1b57 7b3d 73f9 5cbc 8a0f b13c
000000b0: 22ed 08bc 4de8 973d 9750 bcbc c198 f93b
000000c0: 9a22 3b3d 5a36 663c 3572 023d 921e c23c
000000d0: c131 22bd 4159 823d df9d 9a3d 7408 683d
000000e0: 02c7 ddbc d745 b73d 59c1 0fbd 736d c83d
000000f0: 297b 9f3d bc40 f23c ef40 40bd 12e5 ca3d

glu_encoder.rnn.weight_ih_l0 f4 [48, 2]
0.17192738 -0.156583 0.14833121 -0.1309797 0.18726836 0.1599409 -0.08425237 -0.1693451
-0.16229156 0.21437348 0.25217247 0.16745038 -0.18429784 0.01082859 0.30469948 -0.29843336
-0.119739555 -0.21771176 0.22319877 -0.14863664 0.12571596 0.027349163 0.112624556 0.21916923
0.24018148 -0.09857355 0.07213822 0.022195688 0.028687464 -0.047448944 -0.21879369 -0.060722146
0.22527383 -0.10491265 0.046259895 0.22272925 -0.17051995 -0.20810622 -0.013011214 0.2250823
-0.094799094 0.15840797 -0.12971178 -0.04259076 -0.093615614 0.11777992 0.22545508 0.19730055
0.040243704 -0.059172392 -0.3545896 0.27136382 -0.30119455 -0.0001933198 0.032355633 -0.058369197
0.21229188 -0.05006529 0.074663 -0.0440074 0.23214944 -0.019642249 -0.08322223 -0.10037408
0.1361246 -0.10750134 -0.13637207 0.14502943 0.1122427 0.091839924 0.25288045 -0.07776386
-0.10462078 -0.21118799 0.24838606 -0.20434007 0.16587065 0.022630248 0.114867926 -0.04858386
0.13831669 -0.091373146 0.24267586 0.19271962 0.12508902 0.25517377 -0.056570884 -0.096388094
-0.13782912 -0.09520169 -0.24807543 0.21815167 0.2589794 -0.06498081 0.05558121 0.23487255
00000000: bb0d 303e 4b57 20be 23e4 173e 8b1f 06be
00000010: 47c3 3f3e 8cc7 233e 828c acbd cd68 2dbe
00000020: c22f 26be b984 5b3e c01c 813e 1d78 2b3e
00000030: 93b8 3cbe 666a 313c 9201 9c3e 42cc 98be
00000040: 033a f5bd d5ef 5ebe 388e 643e 3434 18be
00000050: afbb 003e 5a0b e03c b4a7 e63d e66d 603e
00000060: 22f2 753e eee0 c9bd 34bd 933d bbd3 b53c
00000070: f901 eb3c d359 42bd 740b 60be c9b7 78bd
00000080: 2fae 663e 72dc d6bd 047b 3d3d 2313 643e
00000090: c89c 2ebe cc19 55be fd2c 55bc f97b 663e
000000a0: 0726 c2bd b335 223e 2ad3 04be a673 2ebd
000000b0: 8bb9 bfbd 9936 f13d b2dd 663e 2809 4a3e
000000c0: 95d6 243d c05e 72bd c58c b5be 33f0 8a3e
000000d0: 2c36 9abe e3b5 4ab9 5787 043d 8a14 6fbd
000000e0: 0b63 593e 4311 4dbd eae8 983d 1a41 34bd
000000f0: 95b8 6d3e c8e8 a0bc 6b70 aabd ed90 cdbd
00000100: 3f64 0b3e aa29 dcbd 1fa5 0bbe 9882 143e
00000110: 80df e53d 9216 bc3d 8c79 813e a942 9fbd
00000120: 6b43 d6bd aa41 58be ea58 7e3e 863e 51be
00000130: ffd9 293e 1263 b93c e03f eb3d dfff 46bd
00000140: e4a2 0d3e d821 bbbd 0580 783e 4b58 453e
00000150: 5617 003e 23a6 823e dfb6 67bd 1f67 c5bd
00000160: 1423 0dbe 1bf9 c2bd 7c07 7ebe 2763 5f3e
00000170: f398 843e a914 85bd 1fa9 633d 6e82 703e

glu_encoder.rnn.weight_hh_l0 f4 [48, 16]
-0.19681172 -0.21421783 -0.10859685 0.11962215 0.11866229 -0.088315964 -0.27721593 0.17779018
0.04133558 0.18422766 -0.19923405 -0.14147171 -0.025522139 -0.11427377 0.113998175 -0.099848695
0.13369393 -0.11621284 0.17040144 -0.22206986 -0.16104853 0.23890874 0.039782234 0.07280846
-0.21418531 0.25994104 -0.039027657 0.07737944 0.1001337 -0.14786012 -0.19238943 0.11128507
0.15819688 -0.1505929 -0.12694666 -0.21874212 0.032333612 0.047007903 -0.17798258 0.15870011
0.13169838 -0.08784725 -0.07633609 0.157802 -0.09703076 0.16014218 -0.1980819 0.17522041
0.15258917 -0.19117957 0.14051165 0.22470903 0.0057104817 0.15911505 0.19375621 0.12329395
-0.18392685 -0.0733559 -0.14697246 -0.15185241 0.1385435 0.030432727 0.012418305 -0.013391049
-0.08422883 0.0051646093 0.042300962 -0.045679998 0.039970327 -0.084506676 0.2903379 0.12565304
0.017033106 0.1277214 0.045631662 -0.28823295 -0.28535584 0.10626177 0.028872084 -0.13119903
0.07685918 0.19740283 -0.007160132 0.03269403 0.019863952 -0.041354463 -0.051746488 0.1887249
0.0473988 0.22177176 -0.17946567 -0.060700666 -0.17058626 -0.23547132 -0.063706495 -0.054132663
-0.056012027 0.15303957 0.15210384 0.24159272 0.042253334 0.23935154 -0.059750248 0.04722889
0.21832392 0.03234566 -0.17350964 0.17977531 0.14553086 -0.18659566 0.111491166 -0.1867926
0.10034926 -0.17294374 -0.025485145 0.089345396 -0.22436945 0.1589101 -0.07784606 -0.048618518
-0.1492686 0.15259449 0.07070019 -0.22675164 -0.28438395 -0.27259895 0.22781047 -0.060282484
0.0029809752 0.24175459 0.21854165 -0.19632135 -0.1558624 0.10512594 -0.058808096 -0.24865387
-0.037507903 0.07282574 -0.10265171 0.2038282 -0.19910978 -0.08331805 0.20450474 -0.075751334
0.24518964 -0.053301886 0.14039916 -0.2197546 -0.16238792 -0.21282098 0.028673813 0.03300178
-0.1736412 -0.16052695 -0.029108478 -0.044421412 0.029111268 0.06514524 0.04185019 0.07552963
0.22616568 -0.08919847 -0.2425569 0.057042196 0.21211375 0.10919077 0.058571808 0.1579014
0.02502668 -0.0653589 -0.10728089 0.15725522 -0.039628703 0.030847095 0.13711755 -0.0060551194
-0.13655108 0.11434714 0.041524585 0.1457527 0.07186031 -0.024395142 -0.042890776 -0.109780565
-0.07358524 -0.14113633 -0.081964426 0.04964788 0.23244798 -0.16639858 -0.044603456 0.20902072
0.19028111 0.09501291 -0.14257447 0.19668244 -0.2726089 -0.054918464 0.13300008 0.14770319
0.21814309 -0.088344984 -0.16158877 -0.14588057 0.031351775 -0.08049547 0.046272147 0.06413162
0.061135646 0.14987256 0.078181416 0.1650218 -0.09094669 -0.15763949 -0.08183797 0.013727947
0.1481239 0.03315537 0.08603123 -0.07944219 0.03290007 0.07184934 -0.14905068 -0.1889211
0.27249128 0.1717056 -0.2037217 -0.046886735 0.014776551 0.16642629 -0.11374446 -0.09514111
-0.12827659 0.15463342 -0.14261843 0.034336146 0.16615942 0.0038518966 0.27871576 -0.1650978
-0.019489147 0.05929814 0.06167138 0.14238544 0.26759094 -0.26389268 -0.014213856 0.15560743
0.042674944 -0.20503588 -0.13223773 -0.07685496 -0.049261905 -0.085523166 -0.026638469 0.02598055
00000000: 0389 49be eb5b 5bbe 0668 debd 75fc f43d
00000010: 3705 f33d 00df b4bd 3fef 8dbe a10e 363e
00000020: 7f4f 293d 2da6 3c3e 0304 4cbe f6dd 10be
00000030: ce13 d1bc 5e08 eabd e077 e93d 797d ccbd
00000040: 10e7 083e ff00 eebd b77d 2e3e 4866 63be
00000050: e8e9 24be 7ea4 743e b2f2 223d 9a1c 953d
00000060: 6553 5bbe fe16 853e 77db 1fbd 1d79 9e3d
00000070: e612 cd3d a568 17be bc01 45be 6de9 e33d
00000080: 5dfe 213e 0635 1abe 4efe 01be effd 5fbe
00000090: 4070 043d 5c8b 403d 1141 36be 4882 223e
000000a0: f1db 063e 42e9 b3bd 1956 9cbd d996 213e
000000b0: 10b8 c6bd 50fc 233e fbd5 4abe fb6c 333e
000000c0: 5640 1c3e 94c4 43be 49e2 0f3e 201a 663e
000000d0: fe1e bb3b 0eef 223e 0768 463e 8a81 fc3d
000000e0: 5257 3cbe 9e3b 96bd f37f 16be 337f 1bbe
000000f0: 59de 0d3e 0e4e f93c 2576 4b3c 2166 5bbc
00000100: 2a80 acbd e23b a93b c643 2d3d f31a 3bbd
00000110: edb7 233d d611 adbd 2ba7 943e 31ab 003e
00000120: 0389 8b3c 66c9 023e 44e8 3a3d 4593 93be
00000130: 291a 92be c59f d93d 2685 ec3c 0a59 06be
00000140: 5968 9d3d f823 4a3e 8a9f eabb 2dea 053d
00000150: bab9 a23c 4c63 29bd 20f4 53bd 1a41 413e
00000160: 3e25 423d 2318 633e d9c5 37be 43a1 78bd
00000170: 2aae 2ebe 651f 71be 8d78 82bd 36ba 5dbd
00000180: de6c 65bd 68b6 1c3e 1cc1 1b3e 1564 773e
00000190: d511 2d3d 9218 753e adbc 74bd 1573 413d
000001a0: 4e90 5f3e e27c 043d 83ac 31be 0517 383e
000001b0: 0b06 153e ef12 3fbe 7b55 e43d 8f46 3fbe
000001c0: ea83 cd3d 2a18 31be 39c6 d0bc b8fa b63d
000001d0: 1bc1 65be 54b9 223e c16d 9fbd 3624 47bd
000001e0: ded9 18be bb41 1c3e 43cb 903d 9531 68be
000001f0: c69a 91be 1792 8bbe 2647 693e c4ea 76bd
00000200: 775c 433b 848e 773e 62c9 5f3e 7708 49be
00000210: 659a 1fbe 454c d73d c2e0 70bd 1f9f 7ebe
00000220: e3a1 19bd a925 953d 0f3b d2bd 57b8 503e
00000230: 6fe3 4bbe a7a2 aabd b169 513e 8423 9bbd
00000240: fe12 7b3e 1453 5abd ccc4 0f3e 5a07 61be
00000250: 0549 26be beed 59be 58e5 ea3c e02c 073d
00000260: 00cf 31be 2d61 24be e774 eebc 3af3 35bd
00000270: c17a ee3c de6a 853d 1b6b 2b3d 47af 9a3d
00000280: fa97 673e b0ad b6bd d660 78be 14a5 693d
00000290: 5934 593e 699f df3d fee8 6f3d e8b0 213e
000002a0: c104 cd3c e3da 85bd 15b6 dbbd 8307 213e
000002b0: b551 22bd 0cb3 fc3c 8b68 0c3e 066a c6bb
000002c0: 0cd4 0bbe d52e ea3d af15 2a3d 3240 153e
000002d0: 802b 933d 52d8 c7bc 3dae 2fbd a2d4 e0bd
000002e0: dcb3 96bd 0b86 10be f7dc a7bd 935b 4b3d
000002f0: d806 6e3e 6464 2abe 1db2 36bd 8709 563e
00000300: 0dd9 423e 2196 c23d 0bff 11be 1f67 493e
00000310: 6593 8bbe 2ff2 60bd 2c31 083e 813f 173e
00000320: e760 5f3e 37ee b4bd 8777 25be b761 15be
00000330: b86a 003d cfda a4bd dd87 3d3d 7057 833d
00000340: 5f69 7a3d 3178 193e 941d a03d 7afb 283e
00000350: 4242 babd 3f6c 21be aa9a a7bd 2feb 603c
00000360: cbad 173e edcd 073d 2431 b03d 96b2 a2bd
00000370: 39c2 063d bf25 933d bea0 18be 8874 41be
00000380: fa83 8b3e 98d3 2f3e 6c9c 50be 4e0c 40bd
00000390: 5919 723c a76b 2a3e dbf2 e8bd 58d9 c2bd
000003a0: f05a 03be 3958 1e3e 910a 12be 0fa4 0c3d
000003b0: b225 2a3e 1a70 7c3b d5b3 8e3e 660f 29be
000003c0: b4a7 9fbc 9be2 723d 219b 7c3d 7dcd 113e
000003d0: ae01 893e f11c 87be 3ce1 68bc 8e57 1f3e
000003e0: eccb 2e3d edf4 51be 5469 07be 2266 9dbd
000003f0: dac6 49bd c526 afbd eb38 dabc 2ad5 d43c

glu_encoder.rnn.bias_ih_l0 f4 [48]
0.17183186 -0.1753434 -0.03872698 0.027643526 -0.18712287 -0.09499403 0.046331156 -0.095423676
0.061194576 0.07179254 -0.0068722307 -0.09904371 -0.063636795 0.079857245 -0.0791026 -0.1329133
0.23656534 -0.19520211 0.19028871 -0.23080967 0.22102751 -0.22392225 0.22042061 -0.09049113
0.022579715 0.13437353 0.049792934 0.20877649 0.013281775 0.0091002425 0.11328378 0.013516023
0.23786877 0.20110564 -0.16817263 -0.18324085 -0.15344079 -0.15105149 -0.20563087 -0.15325859
-0.07229517 0.22585462 0.0036251883 -0.12608205 0.04344251 -0.24660125 -0.056133643 -0.10696341
00000000: b1f4 2f3e 388d 33be 2fa0 1ebd ad74 e23c
00000010: 239d 3fbe 3b8c c2bd bdc5 3d3d 7d6d c3bd
00000020: 2aa7 7a3d f807 933d 7330 e1bb 6ed7 cabd
00000030: 0254 82bd 328c a33d 8b00 a2bd 6d1a 08be
00000040: 2f3e 723e 10e3 47be 0bdb 423e 5f59 6cbe
00000050: 0955 623e e04b 65be f1b5 613e 6a53 b9bd
00000060: 18f9 b83c 3799 093e adf3 4b3d 81c9 553e
00000070: cd9b 593c 2f19 153c 5401 e83d 4f72 5d3c
00000080: df93 733e a3ee 4d3e 7235 2cbe 7da3 3bbe
00000090: 951f 1dbe 3ead 1abe e690 52be d2ef 1cbe
000000a0: 7d0f 94bd 6f46 673e 9194 6d3b a71b 01be
000000b0: c6f0 313d 0a85 7cbe 64ec 65bd a20f dbbd

glu_encoder.rnn.bias_hh_l0 f4 [48]
-0.052661356 0.2689332 0.20778418 -0.0654823 -0.14652638 -0.035956074 -0.1874786 -0.15590413
-0.07625198 -0.12972765 0.022416625 -0.028027568 0.2519727 -0.1912446 0.066582404 0.09540885
-0.054080553 0.19637692 0.2599293 0.18619774 -0.18547402 -0.14453854 0.15394281 0.11310461
0.117251635 -0.30082348 0.1416778 0.20501482 0.17710912 0.25224805 0.09749736 0.29340965
0.09926066 0.006137249 0.13303986 0.1140566 -0.23570484 -0.11460776 -0.23063922 0.1501089
0.15265451 -0.08883904 -0.09988187 -0.17925502 -0.29093775 -0.22604169 0.06400255 -0.18199855
00000000: 6fb3 57bd 9db1 893e 60c5 543e 961b 86bd
00000010: 030b 16be ad46 13bd 64fa 3fbe 55a5 1fbe
00000020: 002a 9cbd 53d7 04be 12a3 b73c 129a e5bc
00000030: 9102 813e a0d5 43be 5b5c 883d b765 c33d
00000040: 9283 5dbd 0817 493e 7415 853e 9faa 3e3e
00000050: e7ec 3dbe e901 14be 2fa3 1d3e 64a3 e73d
00000060: a021 f03d 8905 9abe fc13 113e 68ef 513e
00000070: 185c 353e a826 813e b2ac c73d ca39 963e
00000080: 2c49 cb3d fa1a c93b 9a3b 083e 8296 e93d
00000090: 9c5c 71be 79b7 eabd b02c 6cbe 26b6 193e
000000a0: 7751 1c3e 3ef1 b5bd de8e ccbd a18e 37be
000000b0: cbf5 94be 7977 67be c513 833d d45d 3abe

glu_encoder.hid2lat.weight f4 [64, 16]
-0.24478808 -0.17568883 -0.08336796 0.16068389 0.032822713 0.15789698 -0.13973486 0.05438006
-0.04461482 -0.2328617 -0.13239853 -0.069139756 0.19923167 -0.17445472 -0.17033154 -0.14145082
0.13375781 0.15133497 -0.22849703 0.095765054 0.23882607 -0.0073984615 0.047215547 -0.08761631
0.15808867 -0.041504476 -0.1759264 -0.078226306 0.14049257 0.10296293 -0.20027822 -0.079550825
-0.110423975 -0.017063571 -0.025182111 0.2563289 -0.019849915 0.089121394 0.24285927 0.21786815
-0.032634445 0.24979235 -0.19301142 0.01802474 0.085878916 -0.10818847 0.120229356 -0.19401535
0.15415178 -0.10456513 0.22936812 0.06559891 -0.104123905 0.17118761 -0.010480384 0.24868874
-0.18343674 -0.09663876 -0.25027233 0.04277043 0.024040136 -0.08391238 0.020802567 -0.107227564
0.22261468 0.12114161 -0.20852232 0.021954838 0.19113062 0.2079708 0.20192152 -0.034419466
0.11845191 -0.092739835 0.19409376 -0.28934875 -0.21903704 -0.12163719 -0.09728377 0.22177498
-0.11954844 -0.17478074 0.27305192 0.24774984 0.039599497 0.21489358 0.18669133 -0.22417839
-0.067622826 0.14037633 -0.115351625 0.1527463 -0.020019995 -0.095027745 -0.13189255 0.10487894
0.03861042 -0.1485078 0.07417044 0.19842197 0.06152164 -0.17566457 0.14184123 0.20273975
-0.10220078 0.14168313 0.06276016 0.097986095 -0.09433972 -0.029451143 -0.14679553 -0.04709715
-0.11974529 0.105728984 0.18204683 -0.09009974 -0.031587347 -0.1570573 -0.10328954 0.03682129
-0.110269055 -0.117258914 -0.26674217 0.14003365 0.20022547 0.14712314 0.123918764 0.21065958
0.046701737 -0.08881607 -0.15230028 0.22407344 0.16367742 -0.19278085 -0.18174021 -0.19014254
-0.04793878 0.15055072 0.1814287 -0.21941657 0.024522556 0.21328922 -0.15297225 0.068340145
0.03673791 -0.22931783 0.09918046 0.04334794 0.045793444 0.18030967 -0.11636352 0.09320831
-0.154203 -0.11575378 -0.041396115 0.089470915 -0.09071255 0.0812232 0.09055889 0.16923462
0.13240843 -0.21065892 0.09964003 0.27901486 0.15117005 0.16204049 0.08992714 -0.020567287
0.15602146 -0.015767371 -0.13092688 -0.14565064 -0.15823631 -0.020788204 0.2272152 -0.054834545
-0.1310511 -0.14297669 -0.18848814 -0.0019892524 0.11681583 -0.053670667 0.032506857 -0.12614857
-0.23853332 0.20924066 0.12989065 0.052005496 -0.24969004 0.046160407 -0.24498956 -0.1753494
0.05476693 -0.1018355 0.1551939 0.1922953 -0.14903463 -0.044073 -0.05523975 0.16241573
0.26660144 0.21678643 0.059880067 0.17328538 0.14807615 -0.23093304 0.13270138 -0.13157368
-0.077901706 0.05047804 -0.075650826 -0.19602357 -0.22411421 -0.16229822 -0.2505773 0.16539921
0.23341362 -0.15761122 0.16122946 0.1432889 -0.090908855 -0.004618986 -0.2048536 0.21964015
0.16936633 -0.07852584 0.11051653 0.0053905966 0.009622285 0.13520077 0.05469851 -0.28070694
-0.26760745 -0.02978422 -0.26701137 0.044559628 0.022708783 0.03032235 -0.2600017 0.16347392
-0.20351458 0.0862633 -0.007935221 -0.1817096 0.04660956 0.2121622 -0.02404249 0.09740651
-0.11794463 -0.013935319 0.11721575 -0.17861786 -0.020365564 0.009081831 -0.012970396 -0.0518077
00000000: baa9 7abe c6e7 33be d2bc aabd 518a 243e
00000010: 1c71 063d bfaf 213e a816 0fbe a0bd 5e3d
00000020: 08be 36bd 4c73 6ebe 7b93 07be 2599 8dbd
00000030: 6303 4c3e 42a4 32be 646b 2ebe 7cd8 10be
00000040: cff7 083e 8ef7 1a3e 20fb 69be 7820 c43d
00000050: d28e 743e cb6e f2bb 1765 413d 2e70 b3bd
00000060: ffe1 213e 9900 2abd 0d26 34be 1d35 a0bd
00000070: 49dd 0f3e 3bde d23d bc15 4dbe 8beb a2bd
00000080: f725 e2bd e7c8 8bbc b74a cebc 8b3d 833e
00000090: 4a9c a2bc 4785 b63d 1ab0 783e d418 5f3e
000000a0: b2ab 05bd 91c9 7f3e c9a4 45be 9fa8 933c
000000b0: 49e1 af3d eb91 ddbd cf3a f63d f6ab 46be
000000c0: f7d9 1d3e 3e26 d6bd 7adf 6a3e b958 863d
000000d0: ea3e d5bd ce4b 2f3e ebb5 2bbc 43a8 7e3e
000000e0: d7d6 3bbe 8bea c5bd b223 80be 0c30 2f3d
000000f0: d2ef c43c 41da abbd 256a aa3c 209a dbbd
00000100: 1af5 633e 1819 f83d e086 55be a2da b33c
00000110: bfb7 433e 4cf6 543e 84c4 4e3e 6dfb 0cbd
00000120: ea96 f23d 62ee bdbd 84c0 463e 8525 94be
00000130: 3f4b 60be eb1c f9bd b73c c7bd fb18 633e
00000140: d0d5 f4bd b9f9 32be 76cd 8b3e 22b2 7d3e
00000150: 1533 223d 100d 5c3e 032c 3f3e 058f 65be
00000160: d67d 8abd d0be 0f3e 793d ecbd 8769 1c3e
00000170: f900 a4bc e89d c2bd d70e 07be c5ca d63d
00000180: f625 1e3d 6e12 18be ace6 973d 212f 4b3e
00000190: 1dfe 7b3d 6ae1 33be d43e 113e 029b 4f3e
000001a0: a44e d1bd 6215 113e 6688 803d efac c83d
000001b0: 2f35 c1bd 8643 f1bc 9151 16be f1e8 40bd
000001c0: 053d f5bd 7088 d83d 7c6a 3a3e 3686 b8bd
000001d0: bc61 01bd a1d3 20be 7789 d3bd ecd1 163d
000001e0: bed4 e1bd 7125 f0bd 6e92 88be fb64 0f3e
000001f0: e807 4d3e 73a7 163e 1fc9 fd3d 25b7 573e
00000200: 524a 3f3d 33e5 b5bd 9bf4 1bbe 8273 653e
00000210: 0e9b 273e 5868 45be 1b1a 3abe bab4 42be
00000220: 745b 44bd f829 1a3e 72c8 393e bdae 60be
00000230: 87e3 c83c 7d68 5a3e c2a4 1cbe ebf5 8b3d
00000240: 7e7a 163d 4bd2 6abe 201f cb3d 9c8d 313d
00000250: e891 3b3d 19a3 383e ff4f eebd 00e4 be3d
00000260: 64e7 1dbe 5110 edbd f98e 29bd 873c b73d
00000270: 80c7 b9bd 5958 a63d f076 b93d d74b 2d3e
00000280: 1396 073e f9b6 57be 1210 cc3d 09db 8e3e
00000290: 52cc 1a3e f1ed 253e b82b b83d ba7c a8bc
000002a0: 17c4 1f3e 932a 81bc b211 06be 7125 15be
000002b0: b308 22be 064c aabc 1aab 683e 309a 60bd
000002c0: 4232 06be 7b68 12be 0903 41be 1e5e 02bb
000002d0: 233d ef3d c6d5 5bbd e925 053d 172d 01be
000002e0: 1442 74be 2f43 563e 0e02 053e b703 553d
000002f0: bfae 7fbe b212 3d3d 8bde 7abe cb8e 33be
00000300: 4a53 603d 218f d0bd 26eb 1e3e 0fe9 443e
00000310: 899c 18be e485 34bd 1343 62bd 4f50 263e
00000320: fc7f 883e 43fd 5d3e cd44 753d b971 313e
00000330: 46a1 173e b679 6cbe dfe2 073e 40bb 06be
00000340: ee8a 9fbd 10c2 4e3d d2ee 9abd 67ba 48be
00000350: 327e 65be 8131 26be ab4b 80be 695e 293e
00000360: fb03 6f3e d664 21be 5619 253e 53ba 123e
00000370: 6c2e babd dd5a 97bb 24c5 51be 59e9 603e
00000380: 5e6e 2d3e 28d2 a0bd 7e56 e23d 9aa3 b03b
00000390: caa6 1d3c 1272 0a3e 8b0b 603d d2b8 8fbe
000003a0: d803 89be 09fe f3bc b7b5 88be 2884 363d
000003b0: c507 ba3c 9466 f83c f11e 85be b565 273e
000003c0: 2066 50be d0aa b03d bb02 02bc 1512 3abe
000003d0: aae9 3e3d 0c41 593e c2f4 c4bc 107d c73d
000003e0: f48c f1bd f750 64bc d00e f03d 9ae7 36be
000003f0: afd5 a6bc f6cb 143c c981 54bc 5034 54bd

glu_encoder.hid2lat.bias f4 [64]
0.025420524 -0.07163657 -0.18905857 0.022931902 0.051361475 0.039243728 0.19416338 -0.08890103
0.019252017 0.1322345 0.24579948 0.10680445 0.017316679 -0.0013356912 -0.0112899095 -0.19632593
-0.04304648 0.06249244 0.004653655 0.22210634 -0.077559575 0.19410744 0.11222902 0.074622475
0.15684082 0.08104465 0.06583464 0.02371444 -0.15630879 0.21856825 -0.15488248 -0.040123306
-0.23543158 -0.2631172 0.18507995 -0.114323445 0.23588896 -0.050416525 -0.21339786 -0.11388818
-0.038983356 0.0066764182 0.1406825 0.017600868 0.27115557 0.13057946 0.10893271 0.20377384
-0.16577156 0.008377381 0.20065422 0.21601142 0.016992504 -0.09887782 0.05007835 -0.05733582
-0.25995147 -0.19248824 -0.24794647 -0.05369628 -0.21447757 -0.027393626 0.037775032 0.1882844
00000000: b43e d03c 32b6 92bd 9298 41be afdb bb3c
00000010: 6960 523d 08be 203d c4d2 463e be11 b6bd
00000020: 68b6 9d3c 7b68 073e dcb2 7b3e 4bbc da3d
00000030: b5db 8d3c 5c12 afba 50f9 38bc aa09 49be
00000040: 8151 30bd 13f8 7f3d b07d 983b d86f 633e
00000050: 8ed7 9ebd 1ac4 463e 54d8 e53d abd3 983d
00000060: e19a 203e bdfa a53d 50d4 863d c944 c23c
00000070: 690f 20be 5bd0 5f3e 8399 1ebe 5658 24bd
00000080: fa14 71be 4cb7 86be 9985 3d3e 6922 eabd
00000090: e08c 713e 8f81 4ebd f884 5abe 353e e9bd
000000a0: 03ad 1fbd dbc5 da3b 130f 103e b22f 903c
000000b0: e7d4 8a3e 9fb6 053e 1d18 df3d 17aa 503e
000000c0: 05c0 29be 4841 093c 4d78 4d3e 1932 5d3e
000000d0: dd33 8b3c 7480 cabd f51e 4d3d f7d8 6abd
000000e0: 5c18 85be a31b 45be aee5 7dbe a1f0 5bbd
000000f0: 02a0 5bbe 9968 e0bc feb9 1a3d a0cd 403e

encoders.weight_ih_l0 f4 [192, 64]
-0.07791467 -0.12886186 -0.066596285 0.16914696 0.039134778 0.06110122 0.09291793 0.022673687
0.060219668 -0.041464012 0.1464477 -0.12489374 -0.06936718 -0.039884746 -0.10344841 0.053132992
0.049645677 0.05035576 -0.075910956 0.10868095 0.1460467 -0.044831846 0.04887456 0.03203077
0.047915895 0.16244029 -0.12476219 -0.10279203 -0.14654599 -0.056730784 0.09186629 -0.087152645
-0.047325447 0.04345816 0.015791161 -0.059096307 -0.16247183 -0.07413108 -0.118099295 0.13482413
-0.011422695 -0.014983489 0.045477983 0.16746077 -0.039944623 0.079196654 -0.063145675 -0.050699346
-0.15848537 -0.107667066 -0.0951025 -0.081251785 0.091981724 0.10393426 0.06416988 -0.15477648
-0.07665443 -0.01854358 -0.15165903 -0.17493024 -0.07300188 0.06824209 -0.034723546 0.14639392
-0.038683094 0.039687056 -0.090616405 -0.089756 -0.08973156 0.072390206 0.066591635 0.034867108
-0.005612674 -0.103079565 0.014015055 -0.020384975 0.021100584 -0.04623863 -0.036514655 -0.03100567
0.022554647 -0.12054951 -0.12396662 0.04280659 0.0882769 0.09821902 0.07894748 -0.09011565
0.09241315 0.06612808 0.07940642 -0.035750117 0.13674557 0.045692343 0.031887803 -0.15504971
-0.10228062 -0.059113942 0.063746236 0.060397938 0.08888991 0.12214506 -0.011348446 -0.09415292
0.06177527 -0.028320566 -0.01195047 -0.0036558458 0.11573173 -0.10040159 0.08573554 -0.04498
-0.11361057 0.061218135 -0.022310771 0.1171857 0.0708868 -0.10436899 -0.09619765 -0.13354859
-0.05087605 0.03588465 -0.08763758 -0.03529253 0.114253886 -0.040437862 -0.012816418 -0.02789762
-0.06553429 -0.059265967 -0.040050708 -0.032790247 -0.0254076 0.0019162222 -0.05455447 -0.023549085
-0.14515078 -0.03322228 -0.047265362 -0.044287134 0.13460326 -0.021571951 0.0035746277 -0.06471636
0.060106996 0.11811483 0.10723834 -0.043485112 0.00056589226 -0.06668781 0.1453847 -0.055847697
0.023422029 0.10529255 -0.027553422 -0.071448624 0.050546687 0.042219184 0.052646216 -0.00015944299
-0.15015712 -0.10081814 0.14584346 0.052615296 -0.07813468 0.054330815 -0.1258879 0.07658803
-0.03163629 -0.038653187 -0.03773077 -0.013770169 0.123882204 0.080260895 0.01884192 -0.06793871
-0.02779589 -0.05175533 -0.043198746 0.01225908 -0.04477433 -0.06986706 -0.021047411 -0.014274176
-0.01339961 -0.04583069 -0.14504208 -0.14276698 -0.055420864 -0.06487211 -0.12923102 0.07685375
0.003086632 0.07281131 0.14428562 0.01967708 0.124868944 -0.09734618 0.139419 -0.11590809
-0.07670319 -0.0009338897 0.08079928 -0.10977668 0.13788842 0.029301815 -0.07215206 0.052432884
0.004377585 0.04486613 -0.015137157 -0.072464 0.12632516 0.047832683 -0.09791971 -0.07040942
0.06588853 0.048179608 0.014294728 -0.14465678 0.0025556784 -0.06284612 0.055684306 -0.1554048
-0.044888895 0.098514415 -0.02159958 -0.022983186 -0.044687275 -0.030892465 0.08392561 -0.053313885
-0.06289248 0.06791013 0.072045274 0.034027316 0.12574248 0.052265402 -0.01142766 0.03820853
0.08260834 0.053312078 -0.08711691 -0.06082533 -0.00558219 0.09157658 -0.069699466 0.014065194
0.04817647 -0.05133133 0.04459541 0.00061006186 -0.10937369 0.09456634 -0.12896791 0.15474017
00000000: ba91 9fbd 5df4 03be a263 88bd dc34 2d3e
00000010: ca4b 203d 4645 7a3d c14b be3d 2bbe b93c
00000020: e6a8 763d 2bd6 29bd 63f6 153e 4ac8 ffbd
00000030: 6110 8ebd 305e 23bd c3dc d3bd fba1 593d
00000040: 4459 4b3d d741 4e3d 3477 9bbd 1e94 de3d
00000050: 448d 153e 99a1 37bd b130 483d b232 033d
00000060: 7543 443d bf56 263e 5283 ffbd a184 d2bd
00000070: 2710 16be 8a5e 68bd 6524 bc3d 167d b2bd
00000080: 54d8 41bd 2f01 323d 775c 813c f80e 72bd
00000090: 045f 26be 09d2 97bd 0bde f1bd 560f 0a3e
000000a0: 4126 3bbc 4f7d 75bc 1f47 3a3d d67a 2b3e
000000b0: f99c 23bd db31 a23d 8552 81bd 1eaa 4fbd
000000c0: fd49 22be 8d80 dcbd 19c5 c2bd 5667 a6bd
000000d0: ea60 bc3d 7cdb d43d 7f6b 833d ba7d 1ebe
000000e0: fffc 9cbd b5e8 97bc 814c 1bbe ea20 33be
000000f0: 0282 95bd 82c2 8b3d 473a 0ebd 4ae8 153e
00000100: 2a72 1ebd e58e 223d 1895 b9bd fed1 b7bd
00000110: 2ec5 b7bd 5141 943d 3261 883d d0d0 0e3d
00000120: 86ea b7bb 611b d3bd 679f 653c 64fe a6bc
00000130: 22db ac3c b864 3dbd 6490 15bd 9aff fdbc
00000140: 86c4 b83c a9e2 f6bd 36e2 fdbd f755 2f3d
00000150: 85ca b43d 0e27 c93d 37af a13d 8e8e b8bd
00000160: 1b43 bd3d 296e 873d d59f a23d b76e 12bd
00000170: 0807 0c3e e527 3b3d c99c 023d 5ac5 1ebe
00000180: 8078 d1bd 7621 72bd 638d 823d d463 773d
00000190: ea0b b63d 3027 fa3d d5ee 39bc 3fd3 c0bd
000001a0: 1108 7d3d 8800 e8bc e7cb 43bc ea96 6fbb
000001b0: c204 ed3d 599f cdbd 1d96 af3d f33c 38bd
000001c0: a9ac e8bd debf 7a3d 14c5 b6bc 0eff ef3d
000001d0: 192d 913d 69bf d5bd 4603 c5bd f6c0 08be
000001e0: 6863 50bd c8fb 123d 557b b3bd e68e 10bd
000001f0: f1fd e93d 2ca2 25bd f4fb 51bc 8d89 e4bc
00000200: d836 86bd dfc0 72bd 360c 24bd 114f 06bd
00000210: 9923 d0bc bf29 fb3a 8274 5fbd 03ea c0bc
00000220: 68a2 14be 1614 08bd 5399 41bd 6d66 35bd
00000230: 70d5 093e a9b7 b0bc 4d44 6a3b 038a 84bd
00000240: c132 763d 30e6 f13d c69f db3d 721d 32bd
00000250: 6358 143a 9e93 88bd badf 143e 8ec0 64bd
00000260: 8edf bf3c 9fa3 d73d b7b7 e1bc a853 92bd
00000270: 0b0a 4f3d 06ee 2c3d 8fa3 573d 2730 27b9
00000280: cac2 19be be79 cebd fd57 153e 2383 573d
00000290: 1305 a0bd fd89 5e3d c2e8 00be 2fda 9c3d
000002a0: 0e95 01bd ce52 1ebd 948b 1abd 469c 61bc
000002b0: f4b5 fd3d d35f a43d 5f5a 9a3c 7323 8bbd
000002c0: 35b4 e3bc 66fd 53bd 2bf1 30bd 4fda 483c
000002d0: 4a65 37bd 7616 8fbd 9f6b acbc 3cde 69bc
000002e0: 0a8a 5bbc f6b8 3bbd e985 14be 8231 12be
000002f0: fd00 63bd abdb 84bd 2355 04be 8065 9d3d
00000300: 1749 4a3b 191e 953d 9cbf 133e d431 a13c
00000310: 4abb ff3d 6f5d c7bd dbc3 0e3e 3861 edbd
00000320: 9016 9dbd 47d0 74ba 187a a53d 99d2 e0bd
00000330: 9f32 0d3e 5c0a f03c 76c4 93bd ddc3 563d
00000340: d871 8f3b 8cc5 373d d701 78bc 0168 94bd
00000350: 625b 013e 34ec 433d 218a c8bd d032 90bd
00000360: 91f0 863d fb57 453d 6f34 6a3c e820 14be
00000370: 2b7d 273b 77b5 80bd 3a15 643d 7022 1fbe
00000380: 6bdd 37bd edc1 c93d 9af1 b0bc 3c47 bcbc
00000390: 010a 37bd 3212 fdbc 31e1 ab3d a95f 5abd
000003a0: c6cd 80bd 7714 8b3d 798c 933d 3a60 0b3d
000003b0: a3c2 003e 3f14 563d 143b 3bbc 8c80 1c3d
000003c0: 902e a93d c45d 5a3d 5a6a b2bd fb23 79bd
000003d0: ceea b6bb 818c bb3d 98be 8ebd b371 663c
000003e0: b154 453d cd40 52bd ada9 363d 8fec 1f3a
000003f0: 50ff dfbd ffab c13d 2a10 04be 3574 1e3e
