code/baseline/saved/GAMNet_learning_rate_0.0001_hidden_size_64_epoch_6000_batch_size_32/Epoch_1600_JA_0.6610_DDI_0.0908.model (torch, 455805 bytes, 29 tensors)

lab_embeddings f4 [32, 64]
00000000: 4475 9f3e 6d1f f13d e597 38bf d67c d2bf
00000010: c365 2cbf 134e bdbf 2ffc 943f 707a f93e
00000020: 845e 363f 731f 0d3f d089 debf 0c12 aebf
00000030: 9f13 003f 144a dfbe 88a5 283f 5c37 f93f
00000040: ec1e 2a3f 7496 3a3e 779b b63e 6567 f93e
00000050: b0cb 6f3e 7243 48bf 455e 8cbf 478c 6fbf
00000060: da56 24bf 5722 83bf fbeb 323f ef08 15c0
00000070: 23c8 bcbe c679 513f 3b12 b63f a9d7 c23e
00000080: e1d1 0ac0 aab0 d93f 381d 7ebe 4046 f2bf
00000090: 66e4 e3be 3483 21bf de97 90bf b6bf 69bf
000000a0: 4848 fe3e 04a5 d23e 846d 753f ea6c e1be
000000b0: ee1b ba3e ab04 643f b64d 0f40 f7b1 0a3f
000000c0: da26 9fbe df68 d0be 00d2 863e a180 05bf
000000d0: 41e5 41bf 8c80 4a3e 1da9 20bf b6aa 3f3f
000000e0: 54c5 88be 6085 62be 5934 2140 7844 13bf
000000f0: 8a4b 8a3d 4246 b03e 3598 ea3f 93e9 143d
00000100: 0152 1cbe 0c13 24bf 27a5 d2be b76c bbbd
00000110: 8cc6 563e 6c98 123f 1b9f ed3f d959 973e
00000120: 36f9 85bf 444a a1bf 7437 a6bf c07e 7d3d
00000130: ded2 c0bf b0cf 8abf 5c8d 593f 88e9 6cbf
00000140: fbe9 2dbe b038 143f 0487 bb3f ad7e 993f
00000150: 0a8f c43e 16de 05bf cb6e 3b3e c388 1340
00000160: 53a3 dcbc 7aef 823f a27a b13e 629c 753f
00000170: 7af2 163d 1a2f ed3f 6046 5e3f 59a5 ed3d
00000180: 5ebe 45bf 3491 b4bf 241c 00bf 9f09 053f
00000190: 554a a23f 3224 9ebe 0765 4b3e 0206 ae3e
000001a0: 9e46 dd3e 35b9 98bf dd0d 363f eeb4 2a3f
000001b0: 49d6 cb3f 2373 85be 36b8 f8bf 294b 21bf
000001c0: 9193 2f3f c799 d1bf 0f21 413f c3d8 163f
000001d0: 08a1 0f3f 945f ecbe 988a 9cbf 4e80 46bf
000001e0: 6f75 f8bf 899b 5240 5ad2 3c3e 64bb c53e
000001f0: ffd7 343f eb13 743f 1c8a 0bc0 6729 b03f
00000200: 0403 5fbf 2d60 86be 27c7 cf3f 708a 35be
00000210: 9408 7f3e bdb9 7ebf 8b73 79bf 0c11 3fbf
00000220: cb1a 56bf fc1a 653f 405d 30bc 35bf 9b3f
00000230: 5417 a5be 8089 173f 7698 f2be 9d89 0840
00000240: 28e4 4fbf 8a6f 583e 31d7 4c3f fa3b c3be
00000250: 933d 4bbf 5cc7 0a3f bcbd c43f b9ed 04bc
00000260: d711 aebf 5f1c 6cbe 3f4a 1cbf 88a9 45bf
00000270: 024d bd3e a24a 87be 74d3 18be e4da 403f
00000280: 61f2 4ebf 3c24 b23f cb39 a43e aa1a 043f
00000290: cfd9 3b3f ff88 bb3e 98c3 d9b9 dc07 b83f
000002a0: 60a9 0040 506f 57be c03b d13e a427 3ebe
000002b0: b5fd 9f3f 9e6f 9abe 5994 dfbe 397c 32bf
000002c0: b594 bdbe bade 983e 003a 83bf d16a b53e
000002d0: 4b13 b4bf dc17 b83e c678 8d3d 2f9e dbbf
000002e0: b078 98bc 8d45 513f 720d 833e 88e3 23bd
000002f0: 41a8 ca3e 05d7 afbf 643b 5fbf 6a8b 03bf
00000300: 4a22 5dbd be1e 20bf 709f 673f 6d22 8abf
00000310: 1f2c f3bd d3b4 00c0 b0c5 b8bf c39f 2a3e
00000320: 8d44 863e b7a2 993f 3cef eabe 0119 84bf
00000330: 3133 593f df62 fb3f 11be 643e 41da b1bd
00000340: d40c 833e ab05 143f 679e 8bbe 57fb 643d
00000350: efb0 7e3e 1076 acbf 794b 20c0 7d35 c4be
00000360: b163 1cbf 673d 79bd 9ce2 0f40 0c7e e3bf
00000370: 0f38 113f c412 5c3d 2f8d 8fbe 905b cd3e
00000380: fb59 743e 132c 9d3f 271e 783f 6da0 a1bf
00000390: 8c47 073f 22f4 4ebd 6973 f63f 11c9 04c0
000003a0: e5e2 413f 068b a03e 912f 35bd 5b5d ccbe
000003b0: 64fd 42bf 4ef2 163f 33d6 97bf 59c4 583f
000003c0: cf3f 26bf 5ad7 a5bf 3e3a 013f ec63 643f
000003d0: 79d0 ad3f d903 fd3e cea6 f1bf 046a 3a3f
000003e0: 56ca 1e3f 06c7 b73f 7417 65bf a32f 343f
000003f0: f04c 8f3f 812d 55be 7dbe 233f 4d29 0b40
0.31144154 0.11773572 -0.7210677 -1.6444347 -0.67342776 -1.4789451 1.163946 0.48726225
0.7123797 0.5512611 -1.7385807 -1.3599257 0.5002994 -0.43611205 0.6587758 1.9470019
0.66453433 0.18221456 0.35665485 0.48711696 0.23417544 -0.78227913 -1.0966269 -0.9357342
-0.64195025 -1.0244855 0.6989133 -2.3286703 -0.36871442 0.81826437 1.4224313 0.3805516
-2.16906 1.7007039 -0.24815834 -1.8927689 -0.44510192 -0.63090825 -1.1296346 -0.9130815
0.4966452 0.41141522 0.9587023 -0.44028407 0.36349434 0.8906962 2.239118 0.541778
-0.3108433 -0.4070501 0.26332092 -0.521494 -0.7574044 0.19775599 -0.62758046 0.7486986
-0.2671305 -0.22121191 2.51882 -0.5752635 0.06752689 0.34428602 1.83277 0.036355566
-0.15265657 -0.64091563 -0.41141626 -0.09151595 0.20974177 0.5726383 1.856418 0.29560736
-1.0466678 -1.2600789 -1.2985673 0.061888456 -1.5064352 -1.0844631 0.8498132 -0.9254384
-0.16983788 0.57899 1.4650578 1.1991783 0.3839038 -0.52292 0.18303983 2.3052223
-0.026933348 1.0229332 0.34663874 0.95941746 0.036852337 1.8529999 0.86826134 0.11603803
-0.772436 -1.4106812 -0.5004294 0.51967806 1.2678934 -0.3088699 0.19862758 0.3398896
0.4321794 -1.1931521 0.71114904 0.66682327 1.592477 -0.26064405 -1.9431217 -0.6300531
0.68584543 -1.6375054 0.7544107 0.589245 0.5610509 -0.4616667 -1.2229795 -0.7753953
-1.9410838 3.290743 0.18439618 0.3861953 0.70642084 0.9534289 -2.1803045 1.3762635
-0.87113976 -0.2624525 1.6232651 -0.17728591 0.24905616 -0.99502164 -0.9744193 -0.74635386
-0.8363463 0.894943 -0.01076442 1.2167727 -0.3224436 0.59194183 -0.47381943 2.1333992
-0.81207514 0.21136299 0.80015856 -0.38131696 -0.7939083 0.5421045 1.5370402 -0.008113318
-1.3599194 -0.23057698 -0.6105079 -0.7721181 0.36972815 -0.26424128 -0.14924413 0.75334
-0.8083859 1.3917308 0.32075343 0.51603186 0.73379225 0.36627957 -0.00041535194 1.4377398
2.0103378 -0.21038556 0.40865898 -0.18569809 1.24993 -0.30163282 -0.43667868 -0.697208
-0.37027517 0.29857427 -1.0252075 0.35433057 -1.4068388 0.35955703 0.06907801 -1.7157649
-0.018612236 0.8174675 0.25596195 -0.040011913 0.39581493 -1.3737494 -0.872 -0.51384604
-0.05398778 -0.6254691 0.9047766 -1.0791756 -0.1187365 -2.0110366 -1.443533 0.16662507
0.26224175 1.2002782 -0.45885646 -1.032013 0.84843737 1.9639548 0.2233813 -0.08684207
0.25595725 0.5782115 -0.2726929 0.05590376 0.24872182 -1.347353 -2.5046065 -0.38322058
-0.61089617 -0.060849573 2.2482061 -1.7772841 0.56726164 0.053728834 -0.28037402 0.4010892
0.2386245 1.2279075 0.9692101 -1.2627083 0.52843547 -0.050525792 1.925397 -2.0747721
0.7573684 0.31356066 -0.044234816 -0.39914975 -0.76167893 0.5896348 -1.1862243 0.846746
-0.64941114 -1.2956345 0.50479496 0.8921497 1.3579246 0.49416998 -1.887903 0.72818017
0.6202749 1.4357612 -0.8948891 0.7038519 1.1195354 -0.2081814 0.6396254 2.1743958

static_ll.0.weight f4 [128, 64]
00000000: affe d23d f187 b2bd 2274 e8bd 2776 04be
00000010: 155e 873d 3760 8fbd 922a edbd 851a 013d
00000020: b0ba 863d db17 83bd a24f 2bbd 7ad7 8cbd
00000030: 6274 1d3e 77de 6fbd 2dc1 273c d17f adbd
00000040: fecd 08be a22d d13d 6144 7abd 1f5e f3bd
00000050: ac7d 23bd 407d 92bd 2e49 13be b125 ddbd
00000060: db7e e33d 057b 2bbc 1838 383d bd7c ddbd
00000070: 3e76 6d3d 1430 96bd 0979 983d 1949 f93d
00000080: ee15 cb3d e1ab c33d c56a d5bb 29e8 f9bd
00000090: 3c44 4d3d 0188 843d 6f41 333d 9da5 2cbd
000000a0: 96d4 3c3c b740 a03d b49a 933d 28e4 063d
000000b0: d8a7 96bd fb45 773d e815 31bd f371 86bd
000000c0: f5f8 43bd ab21 00be 2d71 073e 4966 0d3e
000000d0: 9160 283d d618 63bc f06c 3cbd 6e33 04be
000000e0: 685f 963c e2e4 fb3b 4cd4 24bd f0cb fb3c
000000f0: d9bb 05be 637f e0bd 74a5 20bd c0bd bcbc
00000100: b757 1aba 4d52 f43d 0d00 bfbd db2d d13d
00000110: 5ec8 a0bc 3f01 bebd d395 ae3d c1e0 90bd
00000120: 8d0e aabd f79c 443d b450 0fbd dab4 b73d
00000130: 925f 56bd e733 183c 7a83 3e3d 8e62 a3bd
00000140: caf1 d8bd 435a b6bd 3a9c a9ba e691 c73d
00000150: 2a81 d03d 9724 863d 5aa6 613d 97d9 313c
00000160: 8b69 bb3d 40a6 213d 03dc c63d 8ef3 033e
00000170: 498d e83d 932f 003e fcf5 853c 243c f4bd
00000180: 9c39 f7bd 5cdf d1bd c514 3a3d f98f 4cbd
00000190: a4f4 38bd 3e95 f43d 3adf 90bd 9037 e43d
000001a0: 368e 8bbd 644f bfbd 73aa 023e bdda eabd
000001b0: 7e15 a5bd ab8a 14bc 4a4c bdbc f98e 26bd
000001c0: c9c9 7cbd f8f9 003d 80e9 0a3e 0815 8e3c
000001d0: 48ec febd a7dc e7bc 45b9 bbbd 4c82 903c
000001e0: 8116 99bd 05ed fe3d 962e 32bc 8ff8 c13d
000001f0: d06c 85bc 9c8f 8f3d de3f fabd c09b d33d
00000200: 5f4c a73d dcbe debb 0eaa ffbb ec60 c93b
00000210: 4d53 c53d 67a4 14be 49f5 d5bd 71a7 a8bc
00000220: c1a9 b8bd f17d dcbc ce46 aebd f51c 08be
00000230: 3039 1fbc 6bea bcbd 35fe d2bd 3800 94bc
00000240: e636 9dbd 020a dc3d 0d6b 2abd fa29 eabd
00000250: 2065 873d 752c 5abd cc22 06bd f797 113d
00000260: 63e7 77bd 9acd d0bd 56cf bbbd baf8 76bd
00000270: d0a0 97bd 263a 983d 6b3c 5f3d 2976 bbbc
00000280: 970e 06be 3459 a13d f6b0 be3c 1cdf e93c
00000290: 3e45 583d e057 e0bb 0317 1c3d f54b 5dbc
000002a0: 979d d1bc 9d34 b0bd 3fed b63d 1221 84bd
000002b0: fb30 073e 7f27 d23d 1310 fd3d 22a1 5bbd
000002c0: df10 c8bd ce0c bbbc 93c4 c33d bf28 9e3d
000002d0: 8750 13bc d62a ed3d 33e5 b13d 1bae 23bd
000002e0: 3106 243c 49eb 49ba a862 b83c 1828 a6bd
000002f0: e6c0 043e c011 ae3d 8172 a13c 6c06 8ebd
00000300: fd8b d9bd 47ab 69bd a0e1 05bd 2400 b3bc
00000310: b21d f43d 0e68 e73d f874 fdbd 6f1e 953d
00000320: f124 bfbd 0794 bf3d fab2 873d ebca ba3a
00000330: 0b2a b23d 1fb0 613d 39df 273d 2a68 383d
00000340: 7baa b33d 19b2 4dbc 65f2 8e3b 43ce 533d
00000350: feca bd3d 7da8 be3d d284 1bbd 12c4 41bd
00000360: 5de0 be3d fd9b d4bc 7817 0ebe 09c4 d93c
00000370: 3aa5 b53c bd90 a7bc adc4 a23c c1cf 723d
00000380: c42c 663c dbf8 adbd dcd6 99bc f48f 703d
00000390: 5e8d 0dbd 9705 8bbd 9564 eabd d452 373d
000003a0: 320b f03d 6363 0cbe 76ad dabd 859c c83d
000003b0: 0592 29bd cdc0 70bd ef06 c73d 4f6e c0bd
000003c0: f6dd 743c 8027 543d 912b 07be a191 debc
000003d0: f3a9 003e ecd7 b2bd a12e c8bc cda2 87bd
000003e0: 8444 7c3c 23ef 7dbd 577e ba3b 7613 99bd
000003f0: 7b82 a1bd 1573 a8bd ac50 6fbd 086f a5bc
0.10302483 -0.08717335 -0.113502756 -0.12935697 0.066097416 -0.070007734 -0.11580385 0.03151943
0.065785766 -0.064010344 -0.04182399 -0.068770364 0.15376428 -0.05856177 0.010238928 -0.08471645
-0.1335983 0.10213782 -0.061100367 -0.118831865 -0.039914772 -0.07152796 -0.14383385 -0.10798205
0.1110818 -0.010466342 0.04497537 -0.108148076 0.057974093 -0.07333389 0.074449606 0.121721454
0.09916292 0.09554268 -0.006512972 -0.12202484 0.0501139 0.06471253 0.043763574 -0.04215013
0.011525294 0.078248434 0.07207242 0.03293243 -0.073562324 0.060369473 -0.043233782 -0.06564703
-0.047844846 -0.12512843 0.13226767 0.1380855 0.041107718 -0.013860902 -0.04600233 -0.12910244
0.01835604 0.007687197 -0.040241525 0.030736893 -0.1305994 -0.10961797 -0.03922029 -0.023039699
-0.00058877043 0.1192976 -0.093261816 0.10213824 -0.019626793 -0.092775814 0.085246705 -0.070741184
-0.083035566 0.048001256 -0.034989074 0.089700416 -0.052337237 0.009289718 0.046512105 -0.07977782
-0.105929926 -0.08903935 -0.0012940236 0.09744625 0.10180886 0.06549948 0.055090286 0.0108551
0.0915099 0.03946519 0.09709933 0.12885877 0.11355073 0.12518148 0.016352646 -0.119255334
-0.12071535 -0.102476805 0.045429964 -0.04994199 -0.045155182 0.11942528 -0.07073827 0.1114341
-0.06814234 -0.093413144 0.12760334 -0.11467502 -0.0806074 -0.009066264 -0.023107667 -0.040663693
-0.061715875 0.03148839 0.13565636 0.017344013 -0.12447411 -0.028303457 -0.09166197 0.017640255
-0.074749954 0.12447552 -0.010875365 0.09471237 -0.016287237 0.07009813 -0.12219213 0.10332441
0.081688635 -0.0067976546 -0.0078022545 0.006145587 0.09635029 -0.1451584 -0.10447175 -0.020587655
-0.09016753 -0.026915522 -0.08509599 -0.13292296 -0.009718224 -0.09224399 -0.103023924 -0.01806651
-0.07676487 0.10744096 -0.041605998 -0.11433788 0.06611085 -0.053265054 -0.03274803 0.035545316
-0.060523402 -0.101954654 -0.091704056 -0.060295798 -0.074037194 0.07432966 0.05450098 -0.022883492
-0.13091503 0.07878342 0.02327774 0.02854877 0.05280041 -0.006846413 0.038107883 -0.013506879
-0.02558784 -0.08603785 0.0893197 -0.0645162 0.13202278 0.102614395 0.123565815 -0.053620465
-0.09768843 -0.022833254 0.09558978 0.077226155 -0.008991367 0.11580436 0.086862944 -0.03996096
0.010011242 -0.0007702602 0.02250798 -0.08113116 0.1296421 0.08499479 0.01970792 -0.069348186
-0.10622404 -0.05704811 -0.032685876 -0.021850653 0.119197264 0.11299144 -0.12375826 0.07281195
-0.09333218 0.09354406 0.06625934 0.0014251148 0.08699425 0.055099603 0.040984366 0.045021214
0.08772751 -0.012554669 0.004362392 0.05171038 0.09267233 0.0930948 -0.037968464 -0.047306128
0.09320138 -0.025953287 -0.1387614 0.026582735 0.022173513 -0.020454759 0.019869173 0.05928016
0.014048759 -0.08494731 -0.01877921 0.058731034 -0.034558646 -0.067881756 -0.11444966 0.044756725
0.11720885 -0.13709788 -0.10677616 0.09795479 -0.04139902 -0.05877762 0.09718119 -0.0939604
0.014945498 0.051795483 -0.13200213 -0.02716905 0.1256483 -0.0873259 -0.024436297 -0.06622849
0.015397195 -0.061995637 0.0056913304 -0.07474415 -0.07886215 -0.08225075 -0.058426544 -0.020194545

static_ll.0.bias f4 [128]
00000000: 65bd de3d 2827 b7bd 311e 303c 63ee 88bd
00000010: fe4c e33d 2c84 a73d e40a aebd ba40 c23d
00000020: 0f83 be3c a333 093e 5df0 083e ca2a 84bd
00000030: 89b3 07bd 1ae6 bf3d 7acf b83b bfbf ec3d
00000040: 2dd0 fe3d 5dbb 91bd 4837 e23c 9499 8e3d
00000050: 31f7 b53d 7f07 7dba 14ba 9d3d 1e86 153e
00000060: d63c e03d 71fb a23d 7b0d 4dbd 7097 b7bd
00000070: 56e1 91bd 71ca eb3d 89c4 c9bc b28f 84bd
00000080: f69b bcbb ec00 a73d a6f6 d13d 20da a0bd
00000090: d101 d53d 2008 e73d a4d7 473c 6242 513d
000000a0: f3cb 7e3c ee31 09bd f595 c6bc e7cb b1bd
000000b0: 834a 183b b5a0 28bd e7a0 4bbd 9ecf 35bd
000000c0: f9d6 1abd d1a6 e23d b83a d93d 4076 d33c
000000d0: 43a9 043d 4aa0 043e 2317 25bd 6ee3 723d
000000e0: 6535 0e3e ef96 d53d db34 d6bd 5f12 a4bd
000000f0: 4b40 bfbc c554 e43d 42d5 6dbd e0e6 98bd
00000100: 5d70 5ebd 0a49 5dbd 2bc5 0c3d 1e03 a0bd
00000110: 76e8 65bc 8211 6cbc 80c6 573d 3f29 a63d
00000120: 2573 08bc 87f0 a9bc 86c5 81bd 6dbf 173a
00000130: 5931 4e3c 1cd8 143c f918 27bd 20b3 16bc
00000140: 56c9 973b bacd b53d 7fe1 b9bd dd82 473c
00000150: c225 98bd 2f4a 28bc f9c9 90bd 1d76 303d
00000160: a161 0f3e c6da 93bd 623d c43d 65ca 09bd
00000170: db0f d7bd 2a70 9a3c a42e fbbb 9fe8 20bc
00000180: 8fb4 8abd c4af 923d da16 9539 bbc4 bdbb
00000190: e327 f13d 6e0c 8cbd 6c14 713d 765e 55bd
000001a0: ed32 abbd a7d3 54bd dbc5 e63d e32d ce3d
000001b0: 8f9c 633d 22ae 2d3d e12a 443d cc74 ccbc
000001c0: fec5 f93d 24d2 a8bd 20df 8d3d 9a81 1fbd
000001d0: f605 383d d574 863d 9bc9 563d 242f cabd
000001e0: 4357 883d caad a2bc e401 bd3d a1d0 76bd
000001f0: b0e8 753d 5227 02be 55d2 ed3d 8e64 d13c
0.10875968 -0.08943015 0.010749386 -0.06686094 0.110986695 0.08179507 -0.08498171 0.09485002
0.023255853 0.13398604 0.13372941 -0.06453474 -0.033130202 0.0937006 0.0056399675 0.1156001
0.1244205 -0.07115815 0.02761425 0.069628865 0.08885039 -0.0009652301 0.07701507 0.14601943
0.109491035 0.07958115 -0.050061684 -0.08964431 -0.071230575 0.11513222 -0.024629848 -0.0647272
-0.0057558967 0.08154473 0.102521226 -0.07854104 0.10400737 0.112808466 0.012197409 0.0510887
0.015551555 -0.033494882 -0.024241427 -0.086814694 0.0023237772 -0.041168887 -0.049713995 -0.044387452
-0.03780267 0.11066974 0.10606903 0.025813222 0.032387983 0.1295177 -0.040305268 0.059298925
0.13887556 0.10429179 -0.104593 -0.080113165 -0.023346087 0.11148981 -0.058064707 -0.07465911
-0.054306377 -0.054024734 0.03436772 -0.078130946 -0.014032474 -0.014408471 0.05267954 0.08113336
-0.008328234 -0.020744575 -0.06336503 0.00057887175 0.012585008 0.009084728 -0.0407953 -0.00919798
0.0046321554 0.0887713 -0.09076213 0.012177196 -0.07429077 -0.010271593 -0.07069773 0.04308139
0.14002086 -0.07219462 0.0958202 -0.033640284 -0.10501071 0.018852312 -0.007665472 -0.009821086
-0.0677272 0.07162431 0.0002843652 -0.0057912744 0.11775186 -0.06838308 0.058857366 -0.052092038
-0.08359323 -0.05195966 0.11268207 0.10067346 0.055569228 0.042402394 0.047892455 -0.024958037
0.12195967 -0.08243206 0.06927323 -0.038941957 0.04492756 0.06565253 0.05243836 -0.098722726
0.06657269 -0.01985826 0.09228876 -0.060257558 0.06003636 -0.12710312 0.11612383 0.025560644

static_ll.2.weight f4 [64, 128]
00000000: c1f2 173d 002e 6dbd c9d7 7d3d fb16 583d
00000010: b0b7 9f3d 1040 a43c b726 2ebd f885 e8bc
00000020: be68 9cbd b12c ea3c d9a2 8abc b86c 943b
00000030: 96a7 93bc 0f2e 443c 656a e13c c2ec 903d
00000040: e6cb 3f3d 361d 81bd 80be 03bd fc88 78bd
00000050: c485 4abd b277 9a3d 2a59 5c3d 2c0a 0b3d
00000060: 2d63 9c3a 5aaa 9a3d 2f0e 2bbd 4c33 36bc
00000070: 6aaf 003c 28ea 17bc ebca 8d3c 0ac0 b3bd
00000080: ef5d c13d 2e2d 3ebd 6e81 50bc e9fa 91bd
00000090: 6efc 933d 248b 223d 38d9 1bbc a33e c33c
000000a0: e098 0fbd 2b7c e63c 9dd2 673c 549c 7e3d
000000b0: de89 113d 5da3 72bd 20c7 4a3d 5583 653d
000000c0: 2384 333d 76df d7bb 872c b1bc bb1c 98bd
000000d0: 40cb 1cbb ad35 bc3d dbf6 25bd 9ba2 9d3d
000000e0: cdf8 073d 8274 a2bd d98c 74bd 044b 543d
000000f0: e23b b63d 6bda a13d 5956 863b e6ab 5d3b
00000100: 0945 af3b 57ba bbbc c2bd b73d ecf3 3ebd
00000110: b964 abbc d198 663d 7bd9 c7bb 5dd1 96bd
00000120: 1f60 033d 8fab 1f3c 5bda 0b3c 1244 dfbc
00000130: fba9 87bd d744 c0bc 432a 243d f4a5 86bc
00000140: 012a 103d dfff 9a3d e66d 3d3d 817c ee3a
00000150: ea91 563a 05a2 31bc d4ce 8abd 17bb 8a3b
00000160: ac7f b23b baf4 29bd 6ece 81bd 9a45 84bd
00000170: c259 3b3d 991d 873d f1c5 10bd 6826 8cbd
00000180: 353a 5d3b 9d61 003d 8ff4 813d 3e29 9e3d
00000190: 49a3 9f3c 14d3 623d e6f1 213d dd22 ab3d
000001a0: adbf 353d 71c9 4fbd 973d 9b3d 83ac ca3c
000001b0: caff c63c 7aa6 9b3d 7c6b 08bd eb6c 80bd
000001c0: 2ad9 54bc 2708 4a3d c755 c7bc b733 b43d
000001d0: 3d72 cd3d 5995 b2b9 9a3f 7abc 5541 c6bc
000001e0: 4a80 20bd 995d 3a3d e3cd 923d 5c28 6ebd
000001f0: 7166 ed3c b466 ab3c e608 9f3d 12fe fe3c
00000200: 2301 1f3d fc2b dbbc 6547 043d 1f75 5abc
00000210: 83f3 353d 1c58 6abd 0ff8 603d a766 b23d
00000220: 4784 993c ac78 fcbb 99c6 483d d7d5 e73d
00000230: 7505 3ab9 fc47 643d df8c f2bc 8c93 9b3d
00000240: c4ee d1bc 7924 abbc 13e8 373d 2c59 4e3d
00000250: d6f3 73bd bf4a 753d 033d 603d 13c7 0ebd
00000260: a112 7e3c 4f22 603d e519 fa3c 0e25 893d
00000270: 2f95 9abd aa8f a43d 92aa df3c 8268 673d
00000280: 4638 0fbc ac69 c03c be52 85bb d9e6 323d
00000290: 111f 483d 23e6 803d 6d06 5bbb e312 a33d
000002a0: ef9c 463d e778 05bd b4f7 a83c 4da6 87bd
000002b0: 7861 7b3d c0c7 4f3d d880 8f3d 77f4 a43d
000002c0: cf9d cbbd 047e d93d 35c2 6f3d 7e32 e43c
000002d0: 46f7 2abd aa41 993d 0a8f d03c 97a7 a6bd
000002e0: 57a6 d53c b661 d2bd c88e aebd 1a67 fa3b
000002f0: 27fa e23d f55e 05bd 8b73 103d 17a7 833c
00000300: e41c c93c c031 76bc a1b9 b03d 7bd0 c63c
00000310: 0491 a4bd 923f 55bd e6a4 8f3d be2f c5bd
00000320: 3ca9 443c 9ccf 49bb 0aa1 1c3d 7378 88bb
00000330: 0848 013c 4000 b3bb a216 c2bc 5a84 c73d
00000340: 7634 0bbd c375 803d 074d a2bd d4f1 8c3a
00000350: ae4b 8abd 1f61 343d 6d99 bb3d 8e4d 4dbd
00000360: 94d0 e93c 41bb ca3d 2311 3abd ed4b 83bd
00000370: 4e91 833d ffdc 8b3d 0867 593b a368 b73d
00000380: 87a3 b33d 5007 9a3d f2e5 b63d 6fb7 91bc
00000390: 8852 053d 2145 1fbd 353d 953a 9289 9a3c
000003a0: 4672 2dbd e81a 2c3d 046e df3c 456f 443d
000003b0: c4df 00bd d94c 39bd 94da 153b 6f48 42bc
000003c0: 9948 26bd b3a5 a7bd 77fb 2e3c 07b6 f73c
000003d0: c407 94bd 13dd 7a3d 812f a63d 79b0 c7bc
000003e0: 00e8 8abd 9ffb 9cbc 1b9a 68bd 8726 a3bb
000003f0: 3e04 a3bc bdfc 8639 423d d3bb d01b 6bbd
0.037096743 -0.057905197 0.061973367 0.05275629 0.077987075 0.020050079 -0.04251739 -0.028384194
-0.076371655 0.028585764 -0.016923355 0.004529562 -0.018024247 0.011973872 0.027516553 0.07076408
0.046825312 -0.063044 -0.032164097 -0.060677513 -0.049443975 0.07542361 0.05379597 0.033945248
0.0011931412 0.07552023 -0.041761573 -0.011120629 0.007854322 -0.009272136 0.017308673 -0.08776863
0.094417445 -0.046429805 -0.012726171 -0.071279354 0.072258815 0.039683476 -0.009512238 0.023833578
-0.035057902 0.02813538 0.014149335 0.062160805 0.03553187 -0.059237827 0.049506307 0.05603345
0.043827187 -0.006587918 -0.021627678 -0.07427355 -0.0023924857 0.09189925 -0.040518623 0.0769703
0.03319626 -0.07932378 -0.059704635 0.051829353 0.088981405 0.07902988 0.004099649 0.0033824383
0.005348806 -0.022916002 0.0897174 -0.04661934 -0.020922052 0.05629808 -0.0060989237 -0.073641516
0.03207409 0.009745493 0.008535947 -0.027254138 -0.06624218 -0.023470325 0.040079366 -0.016436554
0.035196308 0.07568335 0.046247385 0.0018195064 0.0008185195 -0.010841851 -0.067777306 0.0042337286
0.0054473486 -0.041493155 -0.063382015 -0.06458588 0.045739897 0.06597442 -0.03534502 -0.06843263
0.0033756618 0.03134309 0.06345474 0.0772271 0.01948704 0.05537708 0.039537333 0.08356259
0.04437225 -0.05072922 0.07580107 0.024740463 0.024291892 0.07600112 -0.03330563 -0.062707745
-0.012991229 0.04932418 -0.024332894 0.08798926 0.10031555 -0.00034062078 -0.015273953 -0.024201075
-0.039184846 0.045499418 0.07168176 -0.05814396 0.028979512 0.020922996 0.07765369 0.03112701
0.038819443 -0.026754372 0.03229465 -0.013333588 0.044421684 -0.057212934 0.054924067 0.08710986
0.018739833 -0.007704815 0.049017522 0.113200836 -0.00017740375 0.055732712 -0.029608188 0.07596502
-0.025626548 -0.020891415 0.044899058 0.05037801 -0.059558712 0.059885737 0.054745685 -0.03485782
0.015507371 0.05472022 0.030529926 0.06696521 -0.07547986 0.08035214 0.027303014 0.05649615
-0.008741444 0.023487888 -0.0040687015 0.043677185 0.048857752 0.06293895 -0.0033420578 0.07962587
0.048489507 -0.032586005 0.020625927 -0.06623516 0.06137225 0.050727606 0.07006997 0.080544405
-0.09942209 0.10619739 0.05853482 0.027856108 -0.041739725 0.074832276 0.025458831 -0.08137434
0.026080294 -0.10272543 -0.08523327 0.007641685 0.11082869 -0.03256126 0.03526644 0.016070886
0.024549909 -0.01502651 0.08629156 0.024269333 -0.08035472 -0.05206258 0.07013874 -0.09628247
0.012003239 -0.003079391 0.038239516 -0.0041647493 0.007890709 -0.0054626763 -0.023692433 0.09742041
-0.033985578 0.06272461 -0.07924848 0.0010753223 -0.06752716 0.044037934 0.09160123 -0.05012279
0.02854184 0.09898997 -0.0454265 -0.06410966 0.06424199 0.06829261 0.0033172984 0.08955505
0.08771425 0.07520926 0.08930577 -0.017787663 0.03254941 -0.038884286 0.0011386039 0.018864427
-0.042345308 0.042017847 0.02727414 0.047957677 -0.0314634 -0.045239303 0.0022865878 -0.01185809
-0.04059658 -0.081859015 0.010680071 0.030238165 -0.07228044 0.06124599 0.081145294 -0.02437614
-0.06782532 -0.019162951 -0.05678759 -0.004978958 -0.019899484 0.00025746776 -0.0064465115 -0.05739957

static_ll.2.bias f4 [64]
00000000: 8a57 5c3d e792 233d cf07 74bc 93a2 67bd
00000010: a6d1 f6bc a421 0e3d 2782 033d cbca 17bc
00000020: 0388 1b3d 5ae5 89bd 37aa 9d3d 01e5 debc
00000030: 6f67 91bc fb52 763c 5428 a33d 421c cb3d
00000040: 9f8f 9ebd 5d7d 983c 9154 b33d 5e23 84bd
00000050: 4b04 13bd 77ae 64bc fb23 6e3d a9d9 9c3d
00000060: 6357 12bd 1e69 ac3d c2ad 0b3d 7a2a e4bc
00000070: 0132 893c 43b6 513c 450b 763d 5a76 863c
00000080: 323c 38bd ffeb 92bd 22a8 bb3d 07a3 273b
00000090: e6f8 2a3d 3049 49bd 3368 96bc fad0 833c
000000a0: 2fa7 053d 721a 7a3d e622 98bc d0d0 c83c
000000b0: f223 68bc efe0 933d f3d5 cebc 87b6 243c
000000c0: 6e0a 363d 55b5 193c 44e0 943c 348d 903c
000000d0: a1db 37bd 252f 8e3d f172 9e3d 4696 583d
000000e0: 9adb e0bc 14a3 a73d e737 1cbd 855b c53d
000000f0: 840b 983d 148c 8e3c cb47 42bd 40a9 c93d
0.05379442 0.03993502 -0.01489444 -0.056551527 -0.030129265 0.03470005 0.032106545 -0.009264658
0.037971508 -0.067331985 0.076984815 -0.027208807 -0.017749516 0.0150344325 0.07966676 0.09917499
-0.07742237 0.018614465 0.08756364 -0.06452058 -0.035892766 -0.013957611 0.058139782 0.07658703
-0.03572787 0.08418487 0.034101255 -0.027852286 0.016747477 0.012799802 0.06006934 0.016413856
-0.04497928 -0.07173919 0.09162928 0.002557935 0.041741274 -0.049142063 -0.018360233 0.016090859
0.03263014 0.061060376 -0.018571328 0.024513632 -0.014168726 0.07220637 -0.025248503 0.010053284
0.04444354 0.009381612 0.018173344 0.017645456 -0.04488719 0.06942586 0.07736767 0.052877687
-0.027448464 0.081854016 -0.03813925 0.096365966 0.074240714 0.017400779 -0.04743175 0.09846735

glu_encoder.rnn.weight_ih_l0 f4 [48, 2]
00000000: f01f 373e f9fe 25be 6624 cd3d 6519 3cbd
00000010: e736 463e ddcc 413e 5f15 a5bd 23d3 3bbe
00000020: 9c3e 1cbe a102 3e3e de14 8e3e c064 093e
00000030: 82bc 62be 8e48 a03d 27ca 953e 4a61 98be
00000040: 7018 b8bd 4b63 70be ba47 783e c851 27be
00000050: cf9b 143e 9776 90bc d74e 0e3e c6b7 6a3e
00000060: ab91 633e d41b b3bd 5a5d c33d bcba fb3c
00000070: bbd3 de3c 8b07 34bd 6325 39be b415 64bd
00000080: 87e1 603e ae21 b7bd c4b5 2b3d 9b20 813e
00000090: 9b4e 68be f2f2 4dbe 18df 75bc 1a8c 763e
000000a0: 25ec 04be 4f00 6a3e 11e0 98bd 69c6 94bd
000000b0: f0ac f1bd 2fa7 113e 986c 5c3e e8d4 493e
000000c0: a833 683d 2f2b 2abd f0f3 9cbe ad93 6b3e
000000d0: 766f 98be aa64 a7bc 248f 4e3d 9f93 36bd
000000e0: e99a 503e 06bd 39bd 7a62 763d e37c 6dbc
000000f0: 04cf 5b3e 56e9 ccbc 1f31 2abe 11a7 fabc
00000100: b98d 063e 8cde ddbd 525b 22be 8aeb 4d3e
00000110: 4a65 093e 5f72 c93c 575c 853e 6f55 b8bd
00000120: daef eebd 40da 37be 1f9c 733e b0b2 6cbe
00000130: 5414 4c3e a3d3 1abd c8df cc3d 0000 31bd
00000140: 863d 1f3e df87 0bbe 363b 803e aade 363e
00000150: 2ba7 153e 33ec 513e 97ff 39bd ce00 84bd
00000160: 1d09 f5bd e7c4 d9bd cd81 7bbe 2c83 6d3e
00000170: c3fc 6e3e ee20 6dbd e35c 433d 7144 443e
0.17883277 -0.16210546 0.10016708 -0.045922656 0.19356881 0.18925805 -0.08060717 -0.18342261
-0.15258259 0.1855569 0.27750295 0.1341734 -0.22142223 0.07826339 0.29255792 -0.29761726
-0.08989036 -0.23475377 0.24246112 -0.16339791 0.14512561 -0.017634673 0.13897263 0.22921667
0.22223537 -0.08745542 0.0953929 0.03072869 0.02720057 -0.043952506 -0.18080668 -0.05568476
0.21961032 -0.08941971 0.041921392 0.25220188 -0.22686236 -0.20112208 -0.015006803 0.24076882
-0.12980707 0.2285168 -0.07464612 -0.07264406 -0.11800563 0.14223932 0.215258 0.19710124
0.05668989 -0.04154509 -0.3065486 0.23005553 -0.29772538 -0.020433743 0.05042948 -0.044574376
0.20371594 -0.045346282 0.06015251 -0.014495107 0.21465689 -0.025013607 -0.166203 -0.030597242
0.1314 -0.10833463 -0.15855148 0.20109382 0.13417545 0.02459067 0.26047012 -0.0900067
-0.11666842 -0.1795435 0.23790024 -0.23115039 0.1992963 -0.03779949 0.100036204 -0.04321289
0.15550813 -0.1362605 0.25045174 0.17858377 0.14614551 0.20500259 -0.045409765 -0.06445466
-0.11964629 -0.10633259 -0.24561234 0.2319457 0.23338608 -0.057892732 0.047696006 0.19166733

glu_encoder.rnn.weight_hh_l0 f4 [48, 16]
00000000: fec9 3dbe 2817 6dbe d0c9 babd 2d3b 0a3e
00000010: 744e d13d 2c4d 96bd a847 85be 022f 413e
00000020: 0cc0 6b3d 620d 4b3e 2065 3cbe 9999 26be
00000030: e50a 0dbd dc49 03be da7c fc3d 3dea 90bd
00000040: 87bc cb3d 2a3f 9cbd dd9f 013e b592 86be
00000050: fec7 f6bd 88ca 473e eb8f d9bb 58e4 2b3d
00000060: 7919 80be ee0a 5a3e 51d8 afbd 9aba e83d
00000070: 6f4e 073e ea53 e5bd 7209 64be 9023 923d
00000080: c4ea 2c3e 7d9d 1abe 6e36 03be ef82 60be
00000090: 92f0 003d 76de 3b3d 762a 36be 46fc 2f3e
000000a0: c226 0a3e 8240 b4bd b3f7 9abd 25db 203e
000000b0: 03d2 dabd f8c8 223e 454f 42be ea73 333e
000000c0: cfcb 183e cd72 3dbe 1c33 0a3e c409 623e
000000d0: 9a9f 313c 7927 203e af35 423e ba6a f53d
000000e0: f8d6 42be 5a80 99bd 901a 19be 5717 11be
000000f0: e49d 0f3e d022 103d 521b 1f3c ac28 f6bc
00000100: 0a19 a9bd 80b1 333c 0062 213d c682 31bd
00000110: 2f48 203d b5c3 a1bd 8fc9 933e 01ed fd3d
00000120: ab8f 523c 7b3a 0a3e bdfc 463d 5696 8ebe
00000130: ea4a 93be 92b5 d83d 9668 ff3c 2d2e 1dbe
00000140: 04c2 c93d 635b 343e 857e 833c 477b 6f3d
00000150: 0a5a d8bb dba4 60bc b815 e9bc 07a0 573e
00000160: 54e5 8d3d 2f00 7e3e 2733 1ebe 7542 abbd
00000170: dc03 46be 0d44 84be 3f51 29bd e37c fabc
00000180: 7624 bfbd 0428 343e 60da 003e ab54 543e
00000190: 43ce 983d 8a8a 4e3e e2e2 b4bd 6fe3 4b3c
000001a0: 957e 443e bb5e edbb 10a8 55be 8299 4d3e
000001b0: a30f 3d3e bee6 1dbe 53a7 963d 1c36 47be
000001c0: 5b85 a93d 0f0b 29be f521 bebc 7323 ab3d
000001d0: 59cd 64be c64d 203e 67a4 a4bd ab84 8abd
000001e0: 1a33 22be a978 1c3e 9a60 8d3d 08bd 60be
000001f0: 0944 89be 5df2 85be a154 593e 5566 5dbd
00000200: 4e05 bf3c e71b 753e ee7e 653e d862 3cbe
00000210: 4cdf 2bbe 37f2 f53d 271c 59bd e759 6abe
00000220: 0c16 eabc 23bb be3d e8c1 b8bd 1661 4c3e
00000230: 9e29 62be e64d c3bd ca77 653e 6a33 b7bd
00000240: 0e31 893e 4ec9 9bbd d51a 263e 7cd0 48be
00000250: c89d 3ebe 461f 42be ab3f 503d 7e48 643d
00000260: 3b7e 19be d3da 0dbe 108b e4bb a3a8 8fbd
00000270: 42f1 113c 85b4 2b3d 0415 803d a1a2 ce3d
00000280: 28bd 7b3e e03e d7bd ba0a 66be aab7 9e3d
00000290: ee2d 453e e6a5 063e 6221 9f3d bebb 343e
000002a0: 1f9e 273d 0675 2fbd ed6f b0bd 18cb 133e
000002b0: eff2 75bd 9d84 4d3c a731 203e 3043 583b
000002c0: bb76 04be aa4c d53d 4b90 523d a492 1c3e
000002d0: ee22 833d 24a2 90bc 8227 0abd 267e cfbd
000002e0: a330 82bd fc63 09be 0ea4 97bd b115 103d
000002f0: 91ac 683e be5c 31be a1c2 21bd f724 6c3e
00000300: d7e3 2c3e a086 e53d 5f79 1cbe 6146 383e
00000310: e591 84be 93e9 8ebd a1ff f63d a096 003e
00000320: f17a 4c3e 681b d1bd 9164 32be 66a8 febd
00000330: 9668 503d a910 7dbd 74aa e13c 23e5 5c3d
00000340: 3ab1 b43d 46d6 043e 1e93 c03d 917b 3f3e
00000350: 7266 e8bd 80ac 0bbe 975f 84bd e6c2 333d
00000360: 047b 303e c2b1 5b3d d51d d73d 0bfd debd
00000370: c736 f83b 9151 493d a7ca febd 5ad2 26be
00000380: 483a 8f3e e738 223e fdf5 3fbe ba86 09bd
00000390: 22e8 d0ba 67a3 383e a5ad cbbd c05e aebd
000003a0: 1cd8 ebbd 8038 293e e88f 04be 5851 903c
000003b0: 3ca4 203e b587 e6bb dfad 933e 4b89 0abe
000003c0: e3fa 143d be32 1cbb a9f5 ef3d f287 4a3e
000003d0: d0fb 553e 5e0a 58be dd9b 273d 354c 5e3e
000003e0: 8cd7 d73d 52ab 1dbe f385 a1bd 25b7 1bbe
000003f0: a61f d3bd 9b8b 10be b7a8 d53c 2c37 da3d
-0.18534085 -0.23153365 -0.09120524 0.13499136 0.10220042 -0.07338938 -0.26031232 0.18865588
0.057556197 0.19829324 -0.18397951 -0.1626953 -0.034434218 -0.12821144 0.12328501 -0.070759274
0.09948068 -0.07629235 0.12658639 -0.26283804 -0.12049864 0.19510853 -0.006639471 0.041965812
-0.25019434 0.21293232 -0.08586181 0.113637164 0.13213514 -0.11197646 -0.22269228 0.07135689
0.16886431 -0.1509914 -0.12813732 -0.21924947 0.031479426 0.045866452 -0.17789635 0.17186078
0.13491347 -0.088013664 -0.07566776 0.15708597 -0.10684588 0.15896976 -0.18975551 0.17524686
0.14921497 -0.18500824 0.13496059 0.22074038 0.010841275 0.15640058 0.18965791 0.11983247
-0.19027317 -0.07495184 -0.14951539 -0.1416906 0.14025074 0.03518945 0.0097111035 -0.03004869
-0.08256729 0.010967612 0.0394001 -0.043337606 0.03913134 -0.07898656 0.28864715 0.123987205
0.012851636 0.13498871 0.048580874 -0.27849072 -0.28768092 0.10581507 0.0311778 -0.15349646
0.09851459 0.17612986 0.01605154 0.058467176 -0.0066025304 -0.01371118 -0.02845274 0.2105714
0.069285065 0.24804758 -0.154492 -0.08362285 -0.1933741 -0.2583317 -0.041337248 -0.030577129
-0.09333126 0.1759339 0.12583303 0.20735423 0.07461216 0.20170036 -0.08832337 0.012444361
0.19188912 -0.007243959 -0.20864892 0.2007809 0.18462996 -0.15420052 0.07356133 -0.19454235
0.08277389 -0.16508125 -0.023209551 0.08356371 -0.22343959 0.15654668 -0.0803917 -0.06763586
-0.15839806 0.15280403 0.06903191 -0.2194711 -0.2680972 -0.2616147 0.2122369 -0.05405267
0.02331796 0.23936425 0.22411701 -0.18397081 -0.167844 0.120090894 -0.053005364 -0.22885858
-0.028574966 0.09313037 -0.0902136 0.1995891 -0.22086188 -0.09536342 0.22408977 -0.08945353
0.26795238 -0.07606755 0.16221173 -0.1961078 -0.18614876 -0.18957242 0.05084197 0.055733196
-0.1498956 -0.13853006 -0.0069745854 -0.07014587 0.008907618 0.041920204 0.062540084 0.10089613
0.24583876 -0.10510039 -0.2246503 0.07749875 0.19255802 0.13149223 0.07770039 0.17649743
0.04092228 -0.04283621 -0.08615098 0.14432943 -0.060046133 0.0125438245 0.15643941 0.0032999031
-0.12935917 0.10415013 0.05140714 0.15290314 0.06403147 -0.01765544 -0.033729084 -0.10131483
-0.06356933 -0.13417047 -0.07404338 0.035176937 0.22722079 -0.17320535 -0.039492253 0.23060976
0.16883789 0.11207318 -0.15280674 0.17995597 -0.2589256 -0.069781445 0.12060476 0.12557459
0.19968773 -0.102103055 -0.17421176 -0.12434463 0.05088099 -0.061783466 0.027547099 0.05392946
0.08822866 0.12972364 0.094030604 0.1869948 -0.11347665 -0.13640022 -0.06463545 0.04388704
0.17234427 0.05363632 0.10503737 -0.10888108 0.0075748893 0.049150053 -0.124409966 -0.1629118
0.27974153 0.15842019 -0.18746181 -0.03357575 -0.0015938322 0.18031083 -0.099452294 -0.08514166
-0.11515829 0.1652546 -0.12945521 0.017616913 0.1568765 -0.0070352205 0.2884359 -0.13528936
0.036372077 -0.0023833956 0.11716778 0.19778422 0.2089684 -0.21097705 0.040920127 0.21708758
0.10539159 -0.15397385 -0.07886877 -0.15206583 -0.10308771 -0.14115755 0.026081426 0.106550545

glu_encoder.rnn.bias_ih_l0 f4 [48]
00000000: 2606 3f3e a3ae 61be cac9 0ebd 4f6f d53c
00000010: 4dbc 37be d1f4 82bd f771 b63b 6f43 cebd
00000020: 316f c93d cc1a c33d eb6f 763c 4ce9 9fbd
00000030: 958f a8bd cb1e d93d 5799 91bd 82bd d2bd
00000040: bd3d 6c3e 6d36 68be db13 193e 9c95 79be
00000050: 11ad 2d3e 3a0d 2fbe 8779 353e aa51 b4bd
00000060: 0de1 453c 01a4 3b3e 18e4 7d3d 8d8e 4a3e
00000070: 18f8 803c e67f 6bbc cdf8 e73d 2632 c2bd
00000080: abf7 663e 18ef 313e 4306 09be 0ec4 38be
00000090: dbf8 2abe 58e3 20be 00c8 29be c08d 29be
000000a0: 9878 4abd 2c2b 7a3e d602 f03c a44d 08be
000000b0: 7489 853d 620c 73be 454f 99bd 5e49 cabd
0.18654689 -0.22039275 -0.03486041 0.026054053 -0.17942925 -0.06394351 0.005567785 -0.10071456
0.09835661 0.095265955 0.015041332 -0.0780817 -0.08230511 0.106015764 -0.071093254 -0.10290052
0.23070426 -0.22677012 0.1494898 -0.24373478 0.16960551 -0.1709489 0.1772214 -0.08804639
0.012077582 0.18324281 0.061985105 0.19780941 0.0157433 -0.014373755 0.11326752 -0.09482221
0.22555415 0.17376363 -0.13381295 -0.18043539 -0.16696493 -0.15711725 -0.165802 -0.1655798
-0.049431413 0.24430531 0.029298227 -0.13310868 0.06520358 -0.23735192 -0.074858226 -0.09877275

glu_encoder.rnn.bias_hh_l0 f4 [48]
00000000: 1f6d 1bbd ae41 653e 0cbb 583e f35c 89bd
00000010: 2d2a 0ebe 66be a0bb 48b8 69be 3410 25be
00000020: ba1c 20bd de9b d9bd 9193 353d 2085 e7bb
00000030: 51e7 6e3e 520c 29be 8dc3 983d 846e 003e
00000040: 1c85 75bd abc3 283e b463 603e 616e 313e
00000050: df94 72be 8c86 bbbd a3cd e23d 24a5 ec3d
00000060: 749f da3d 1400 81be f98f 1d3e 75b4 463e
00000070: 60e1 373e b243 6a3e 2ca4 c73d 6083 3d3e
00000080: 2879 b63d 7843 aabc b507 283e a7cf ea3d
00000090: 88bb 7cbe b8fe f6bd 9981 3dbe 2a43 0c3e
000000a0: 1e00 373e a861 98bd 30fc 99bd 8d0d 38be
000000b0: 49c2 89be eb8a 5fbe f395 2c3d 1450 23be
-0.037945863 0.22388336 0.21165103 -0.06707182 -0.13883276 -0.0049055098 -0.22824204 -0.16119462
-0.039089896 -0.106254324 0.044330183 -0.0070654303 0.23330428 -0.16508606 0.07459173 0.12542158
-0.059941396 0.16480891 0.21913034 0.17327262 -0.23689602 -0.09156522 0.11074378 0.115549356
0.106749445 -0.25195372 0.15386952 0.19404776 0.17957067 0.22877386 0.0974811 0.18507147
0.089098275 -0.020784125 0.1640919 0.11465388 -0.24680912 -0.120603025 -0.18506469 0.13697496
0.17871138 -0.074405015 -0.07518804 -0.17973919 -0.2690604 -0.21830337 0.04213519 -0.15948516

glu_encoder.hid2lat.weight f4 [64, 16]
00000000: 274a 85be 1045 23be 4137 b7bd 066e 173e
00000010: 405e 2e3d 5d0b 1a3e d8e5 15be 72cb 123d
00000020: 3648 83bd feab 72be 97e1 0dbe 6ae0 24bd
00000030: 8f83 5e3e 0025 1fbe 371b 41be 6c52 27be
00000040: ecf3 0b3e 7911 153e 0717 65be dafd c73d
00000050: 3399 713e 1fa3 e4bb f729 513d 62b4 adbd
00000060: b64d 283e 078b 29bd 8472 31be dce6 b7bd
00000070: 07bb 0d3e b512 cb3d e43f 4abe e5f0 7ebd
00000080: 5988 e7bd 575a 80bc 5119 d1bc e02f 833e
00000090: 8442 9cbc 25d2 b73d 0eac 783e b7aa 5b3e
000000a0: 88fd 12bd 5875 803e 13ee 44be 35d3 ca3c
000000b0: c1c6 b43d 7fe8 dabd f600 f13d 2589 4fbe
000000c0: 5185 233e 84ad e6bd b3e4 713e b66c 993d
000000d0: 8470 e6bd 9481 393e a398 acba 868c 803e
000000e0: 9905 34be c8f9 b0bd 0c70 76be 742e 0d3d
000000f0: 4946 af3c 7dd5 bbbd 2fd9 be3c 7aa1 d0bd
00000100: fda0 5f3e 5fea 033e e87e 5bbe 7eb4 963c
00000110: 674c 483e 0d47 533e 09f5 493e b6ea 23bd
00000120: ff61 e03d 806c bfbd cf9c 433e fcbe 8cbe
00000130: eae8 5cbe edca edbd c585 cfbd 87cd 4f3e
00000140: 2f36 eebd 9c1e 30be fb5a 873e bf0e 7d3e
00000150: 5734 323d 6573 583e 54f6 363e 9684 5ebe
00000160: f1c8 88bd e7d4 093e 7e03 fabd 3264 1b3e
00000170: 7105 d5bc 555e c8bd 4c52 01be af2f c13d
00000180: bc28 213d 2a09 0fbe 657e 883d 2b62 463e
00000190: cecb 883d b6d3 36be 6db8 0b3e 26cc 4f3e
000001a0: f314 e2bd 74fb 0e3e fc82 6e3d b421 e53d
000001b0: fc7c c3bd 0e0d c4bc a488 15be 4f73 83bd
000001c0: 666b f3bd 9a90 df3d 05b6 3b3e 4085 bcbd
000001d0: 2fd7 03bd 23b8 20be ffd5 d2bd 824f 1e3d
000001e0: 7cc1 e5bd 0e95 ecbd 22e5 87be d715 123e
000001f0: 55e1 4a3e d326 1a3e e215 003e 27b5 5a3e
00000200: d6c7 3c3d 150c a9bd 8c5b 1fbe edc1 633e
00000210: 215c 293e 82db 44be d256 3dbe 54c5 41be
00000220: 8ed5 5cbd 8884 1b3e e802 383e 02aa 53be
00000230: 4e3c bd3c 2bbc 5e3e e0ba 1cbe b401 523d
00000240: e738 eb3c f161 62be 5292 c43d 903a 1e3d
00000250: 287c 4c3d 0f02 373e ff3d f4bd 439f a93d
00000260: 7753 29be a163 ecbd 00d4 30bd a88b db3d
00000270: 0d03 a9bd df0d b83d 7367 a73d 2d38 1b3e
00000280: c036 023e 7179 48be 71dd af3d 42d8 893e
00000290: 8064 263e 7d0b 1d3e 4b3d 9d3d ac85 d3bc
000002a0: 1e92 113e 4e1b c7bc af3d 11be 27e2 00be
000002b0: 6063 21be 0392 33bc ae45 663e 4db4 a2bd
000002c0: 0c52 0abe fba5 27be 4f90 2fbe b2e9 d43b
000002d0: abfb d93d 3d35 48bd 6c1f 3c3d c9c1 06be
000002e0: a693 63be e62f 593e 4e27 0d3e 794e c53c
000002f0: 8e7f 75be 79c5 153d aa8d 81be b3c6 0fbe
00000300: 49f4 583d ac4d b0bd f466 143e 44d8 3b3e
00000310: 0727 10be 1774 4bbd 9e7e 84bd e330 253e
00000320: 6e21 813e f607 5a3e ff12 5b3d 68c1 473e
00000330: e3d6 143e 537d 61be c304 093e c458 1cbe
00000340: c331 c8bd 667b 773d 58b2 9bbd 6dc6 55be
00000350: c918 5dbe 38b9 2ebe 2c2d 81be f96e 103e
00000360: c2ca 5e3e 11c2 26be 810f 213e 160c 263e
00000370: 3553 88bd e31f 633c b292 69be d441 5e3e
00000380: d66d 333e a5cb 99bd 7754 df3d 7728 823b
00000390: d9e4 203c 9d34 0a3e 5173 5b3d ddea 8bbe
000003a0: b94f 89be c266 eebc 87d3 88be f725 403d
000003b0: a7ea 803c 679b 013d d4f4 81be e395 253e
000003c0: c4f1 49be 98cd ae3d 4886 c3bb fe11 39be
000003d0: b574 363d 6432 5a3e f4c7 b5bc 9efe d43d
000003e0: 1108 ecbd 613e 4dbc 1465 f53d ae26 3cbe
000003f0: 24a6 e6bc 9dd6 dc3b 42e2 adbb 6703 26bd
-0.26033136 -0.15944314 -0.08946086 0.14788064 0.042570353 0.15043397 -0.1463846 0.03583855
-0.064102575 -0.23698422 -0.13855587 -0.04025308 0.21729873 -0.15541458 -0.18858038 -0.16340035
0.13667268 0.14557447 -0.22372065 0.09765215 0.23593597 -0.0069774534 0.05106541 -0.08481671
0.16435894 -0.041392352 -0.1732884 -0.0897958 0.13840877 0.099156775 -0.19750935 -0.062241454
-0.11305303 -0.015668077 -0.025524767 0.25622463 -0.019074686 0.08975629 0.24284384 0.21451841
-0.035886317 0.25089526 -0.19231443 0.024758914 0.08826972 -0.10688876 0.117677614 -0.2026716
0.15968825 -0.11263564 0.23622398 0.07491438 -0.112519294 0.18115836 -0.0013168048 0.2510721
-0.1758026 -0.08641392 -0.2406618 0.03446813 0.02139582 -0.09171579 0.02329692 -0.10187049
0.21838756 0.12882374 -0.2143513 0.018396612 0.19560395 0.20632572 0.1972238 -0.04001876
0.10956191 -0.093468666 0.19102786 -0.2748946 -0.21573225 -0.11610971 -0.101329364 0.20293246
-0.116314285 -0.17199177 0.264366 0.24712656 0.043506946 0.2113777 0.17867404 -0.21730265
-0.066789515 0.13460122 -0.12207697 0.1517494 -0.026003571 -0.097836174 -0.1262905 0.09432923
0.039345488 -0.1396834 0.06664733 0.19373386 0.06679498 -0.17854199 0.13644572 0.2029272
-0.11039152 0.13963109 0.058230385 0.11188069 -0.09545323 -0.023932006 -0.14602906 -0.06418478
-0.11885719 0.109162524 0.18331154 -0.09205103 -0.032187637 -0.15695243 -0.10294723 0.038650043
-0.11218545 -0.115518674 -0.26542002 0.14266144 0.1981252 0.15053873 0.12508348 0.21358167
0.046089016 -0.082542576 -0.15562266 0.22241946 0.1653905 -0.1922436 -0.1849015 -0.18922931
-0.0539146 0.15187275 0.17969859 -0.20670322 0.023100045 0.21751468 -0.15305662 0.051271155
0.028713657 -0.22107674 0.09598221 0.03863007 0.049923092 0.17871879 -0.11925887 0.0828233
-0.16535746 -0.1154244 -0.04317093 0.10719997 -0.08252535 0.08987021 0.08174028 0.15158148
0.12716198 -0.19577576 0.085871585 0.26922804 0.16249275 0.15336414 0.07677706 -0.025820576
0.14215896 -0.024305012 -0.14183687 -0.1258627 -0.15760565 -0.010960105 0.22487518 -0.07944546
-0.13507861 -0.1637191 -0.17144893 0.006497585 0.10643705 -0.048878897 0.045928404 -0.1315986
-0.22224292 0.21209678 0.13784525 0.02408527 -0.2397444 0.036565278 -0.25303394 -0.14040641
0.052967343 -0.08608565 0.14492399 0.18344218 -0.14077388 -0.04967126 -0.06469463 0.1613193
0.25220817 0.212921 0.053484913 0.19507372 0.14535098 -0.22020464 0.13380723 -0.15268236
-0.09775116 0.060420416 -0.07602376 -0.20876475 -0.21591486 -0.17062843 -0.25229776 0.14104833
0.21757033 -0.16284968 0.1572857 0.16215548 -0.066564955 0.013862583 -0.22809866 0.21704799
0.17522368 -0.07509545 0.10904782 0.003972109 0.0098201865 0.13496633 0.05357677 -0.27327624
-0.26818636 -0.029101733 -0.26723883 0.046911206 0.015736891 0.031642344 -0.25382102 0.16170458
-0.19721133 0.08535308 -0.0059669353 -0.1807327 0.044544894 0.21308285 -0.022190072 0.10400127
-0.11524976 -0.012527079 0.1198217 -0.1837413 -0.028155394 0.006739451 -0.005306513 -0.04053059

glu_encoder.hid2lat.bias f4 [64]
00000000: 4b44 ad3c 7686 93bd 4b70 40be a2ae 053d
00000010: b0e3 503d f68b 0c3d e0d1 443e e202 b2bd
00000020: 02cf af3c aff4 073e 6fa1 733e c595 de3d
00000030: 61fb 633c cb46 02bc 46ca 2abc bacb 47be
00000040: 5abc 32bd 4647 7e3d af06 0a3c 091b 643e
00000050: 9c5b 9dbd 9fe7 463e 9967 eb3d a518 9e3d
00000060: 059f 213e 4e42 b83d 2b13 913d 3093 c23c
00000070: 8fcd 1cbe 939c 5c3e e653 20be 4f2e 20bd
00000080: dc01 73be 6433 84be 0a80 3e3e d1e6 f6bd
00000090: b79c 643e f2fe 52bd 74b6 57be 139a dfbd
000000a0: 0e4d 20bd ba27 e23b 5fe1 113e b3ed 7d3c
000000b0: 6a44 883e 13b5 043e 590c e53d eb29 503e
000000c0: d70e 28be e1ba 863c dfdc 4d3e 839f 5e3e
000000d0: dbed 8c3c 43c9 cbbd 338f 423d cc70 77bd
000000e0: 7d7a 84be da80 48be e105 80be 01d2 57bd
000000f0: 2050 5abe a172 fbbc b940 2c3d 96d9 383e
0.021150729 -0.07203381 -0.18792836 0.032637246 0.05099839 0.034313165 0.19220686 -0.08691956
0.021461014 0.13276933 0.23792051 0.1086841 0.013914914 -0.007951449 -0.010424202 -0.1951131
-0.043636657 0.06207969 0.008424445 0.22275938 -0.07683489 0.19424294 0.11494369 0.07719544
0.15783317 0.089970216 0.07083734 0.023751825 -0.1531279 0.21544103 -0.15657005 -0.039106663
-0.23731178 -0.25820458 0.1860353 -0.120557435 0.22325407 -0.051512666 -0.21065694 -0.10918059
-0.039135985 0.0069017084 0.14246128 0.015498566 0.26614696 0.129597 0.11183996 0.2032849
-0.16411911 0.016446533 0.20103787 0.21740536 0.017203262 -0.09950497 0.047499847 -0.060410306
-0.258747 -0.19580403 -0.25004485 -0.05269051 -0.21319628 -0.030694308 0.04205391 0.18051752

encoders.weight_ih_l0 f4 [192, 64]
00000000: 8c50 8bbd 669d fbbd f111 92bd eb1e 273e
00000010: 3bdf 003d 6bc2 793d 424a b63d ee14 dd3c
00000020: 2f33 893d c7a7 57bd 60b4 0f3e 319e d3bd
00000030: f9bd 97bd d547 18bd 4b81 babd a451 6c3d
00000040: 00ba 303d 3e2d 2d3d 5d34 a3bd fe78 de3d
00000050: 8ad8 0c3e ec9c 5abd 3e4b 473d 2e10 ce3c
00000060: d345 373d 3a45 233e a284 f4bd a957 c7bd
00000070: 743a 16be 1b3c 57bd 65cf bc3d 5e43 85bd
00000080: 807f 4bbd f449 2e3d cb5e 88b9 e8c9 84bd
00000090: 8104 23be f2ef 91bd 9dff e7bd 82a2 ec3d
000000a0: 6fe0 a1bb 68a2 2bbc 36f3 5a3d a175 263e
000000b0: 9796 41bd 8c7a b83d 5d09 77bd 721e 66bd
000000c0: 1ab7 1bbe 19b0 cebd c4a6 bdbd 627b a1bd
000000d0: 4e4e 9a3d f6f7 d13d 3b0a 4b3d 4f01 0abe
000000e0: f049 74bd 5cd2 58bc 2d43 17be 74e4 2abe
000000f0: 4bf8 92bd f6ad 783d 29c8 b3bc a70d 063e
00000100: c69e 33bd 9f91 de3c 724c a8bd 1e2a a8bd
00000110: 3261 98bd 0de9 bc3d f5e1 9f3d f8d6 c53c
00000120: b07a 24bc 0eae bebd 4739 d23c 10ee 80bd
00000130: f366 073d 43e4 58bd bfda 18bd 656b 32bd
00000140: edde 1b3d de1d dfbd 66cc d1bd e573 8a3d
00000150: 49cf c83d 883d e03d 2c84 ce3d 5b4d b7bd
00000160: ed7d c83d a79c a63d 2c65 8a3d a329 73bd
00000170: 89f3 ec3d e163 a03c bd46 3d3c 6a01 babd
00000180: 87de d4bd 8842 aebd 289f f73c 07d5 9e3d
00000190: 7254 a33d 1db3 dc3d 4f99 cbbc ceb0 9ebd
000001a0: 3040 343d d03b 45bd 7279 bdbc b24f 363c
000001b0: 4529 f33d 9041 50bd 3969 8f3d d0e5 2ebd
000001c0: e9e5 f7bd a41c 623d 8dc5 19bd 37d0 cb3d
000001d0: e01c 8d3d 135b a8bd 7fbd bbbd 4e6d f9bd
000001e0: 108d 36bb a781 c93c dc9d d6bd e723 aebc
000001f0: 1c8e ba3d 932f 07bd d957 6fbb 6e73 2cbd
00000200: 21d6 5dbd ec91 4dbd 8e86 42bd 5ac4 1fbd
00000210: 6c11 0abd 4702 66bb 5602 83bd fbd6 80bc
00000220: 3169 10be 23c6 38bd 3b90 62bd d79b 69bd
00000230: 9c86 023e 62ae 66bc b3e3 793c 89f5 67bd
00000240: 88c3 573d e273 e33d 5366 d33d 8337 41bd
00000250: d254 04bc e2e2 a2bd 689c 0f3e ebad 94bd
00000260: c0c4 523c 420f cd3d b8d7 9bbc c40b 8dbd
00000270: 9301 763d f9ad 2d3d 661d 613d e655 a13c
00000280: 727f 09be aded bfbd f653 063e 0a7d 3d3d
00000290: 6b45 97bd d416 7d3d 3333 f1bd 3c00 b13d
000002a0: 1e79 c2bc 9712 f4bc e376 00bd c2dd a2bc
000002b0: 5b84 de3d d5e6 993d edf7 ce3c a29d a8bd
000002c0: ccfa 92bc ccd6 2fbd a8d1 17bd a47e 6d3c
000002d0: 9319 70bd c7b3 96bd 4598 ffbc 44f8 c2ba
000002e0: dede e33b 443c 19bd 19da 0abe 18c2 09be
000002f0: 1aba 4fbd caef 97bd b73a ecbd 05ba 633d
00000300: dc4a 163c 6e46 9c3d 29a6 103e 2345 853c
00000310: d024 f93d 3991 c8bd df2c 0b3e a253 e8bd
00000320: ab91 96bd 0c2d dfbb 1f1c 9f3d ed34 d8bd
00000330: 4576 0a3e 0002 023d e0fd 86bd c1e4 623d
00000340: 6f1e 913a c177 2a3d 6739 85bc 5b28 95bd
00000350: 564f fa3d 9a2c 323d 2f6d cabd 8785 9cbd
00000360: c6d7 7f3d 3735 403d 1f95 8b3c 16df 12be
00000370: 5d35 903b 0d73 80bd 28e2 653d b168 10be
00000380: 9867 26bd ea31 cb3d 2b8d f7bc 0687 d1bc
00000390: c228 2dbd 13b4 eabc 1de2 b03d 93a7 5fbd
000003a0: 6c4d 72bd cc7e 913d 40fe 993d cb6b 033d
000003b0: 7886 f33d 9555 633d 8318 1fbc 8a1f 043d
000003c0: 79cf b13d cf2e 683d 5429 afbd cf37 75bd
000003d0: 73a7 67bc 2f30 ba3d 60aa 9abd 1bd4 b33c
000003e0: f827 743d 052f 46bd eca1 413d 0f51 9c3b
000003f0: 027d debd 5a9f b93d 39f7 f9bd 0c39 143e
-0.068024725 -0.12285881 -0.07132328 0.16320388 0.03146289 0.060976427 0.08900882 0.02698752
0.066992156 -0.05265024 0.14033651 -0.10332907 -0.07409281 -0.03717788 -0.09106692 0.057695046
0.043146133 0.042279474 -0.07968972 0.10862921 0.13754478 -0.05337231 0.04865574 0.0251542
0.044744324 0.15944377 -0.1193936 -0.09733517 -0.14670736 -0.052547555 0.09219245 -0.0650699
-0.04968214 0.042550996 -0.00026010568 -0.06483823 -0.15919687 -0.07125844 -0.11328051 0.115544334
-0.0049400846 -0.010475732 0.0534546 0.1625581 -0.047262754 0.09007749 -0.060311664 -0.05618138
-0.15206566 -0.10092182 -0.09260324 -0.078848615 0.07534467 0.10252373 0.049570303 -0.13477062
-0.059640825 -0.013233747 -0.1477172 -0.1668871 -0.071762644 0.060712777 -0.02194603 0.13091145
-0.04385259 0.027169047 -0.08217706 -0.08211158 -0.074404135 0.092241384 0.0780677 0.024150357
-0.010039017 -0.09310542 0.025662078 -0.06295407 0.033057164 -0.052952062 -0.037317988 -0.04355945
0.038054395 -0.108943686 -0.10244064 0.067603864 0.098051615 0.10949236 0.100838035 -0.08950301
0.097896434 0.08135348 0.06757578 -0.05936588 0.11569888 0.019578876 0.01155251 -0.09082301
-0.10394006 -0.085087836 0.030227259 0.077554755 0.07975091 0.10776351 -0.024853377 -0.077485666
0.044006526 -0.048152745 -0.023129199 0.011127399 0.11873106 -0.050843775 0.070024915 -0.042699635
-0.12104399 0.055203095 -0.037541915 0.09951823 0.06890273 -0.08220496 -0.09167003 -0.12179051
-0.0027855076 0.024597956 -0.10479328 -0.021257354 0.091091365 -0.033004355 -0.0036520867 -0.04210227
-0.054159287 -0.05018799 -0.047491603 -0.039005615 -0.03370802 -0.0035096572 -0.0639693 -0.01572751
-0.14102627 -0.045110833 -0.05531333 -0.057033386 0.12746662 -0.014079662 0.015252042 -0.056630645
0.052676708 0.11106087 0.10322251 -0.04717208 -0.008076863 -0.07953431 0.14024508 -0.07259735
0.012864292 0.10012676 -0.019023761 -0.0688701 0.060060095 0.04240224 0.054959677 0.01969428
-0.13427523 -0.09371505 0.13117966 0.046261825 -0.07386287 0.06178935 -0.117773436 0.08642623
-0.023739394 -0.02979402 -0.03136338 -0.019881133 0.108650886 0.07514731 0.025264705 -0.08233191
-0.017941855 -0.042929456 -0.03706518 0.0144955255 -0.05861814 -0.073585086 -0.031200537 -0.0014875014
0.006954058 -0.03741099 -0.1355976 -0.13452947 -0.05071459 -0.07418783 -0.115346365 0.055597324
0.009173121 0.07630621 0.14125885 0.016268319 0.121652246 -0.09793324 0.13591336 -0.11344077
-0.07352003 -0.00681079 0.077690355 -0.1055697 0.13521679 0.03174019 -0.065913916 0.055393938
0.0011071692 0.041618112 -0.016262723 -0.07283088 0.122221634 0.043499567 -0.09884106 -0.07642656
0.062461637 0.04692575 0.01703888 -0.14342913 0.0044008926 -0.06271944 0.056123883 -0.14102437
-0.04062614 0.0992163 -0.030218681 -0.02557708 -0.042275198 -0.02865032 0.08636878 -0.05460317
-0.059155867 0.07104263 0.075191975 0.03208522 0.11890882 0.05550154 -0.009710434 0.03225664
0.086821504 0.056685265 -0.085528046 -0.059867676 -0.014139044 0.090912215 -0.07552028 0.021951726
0.05960843 -0.048384685 0.04727356 0.004770405 -0.10863687 0.09063597 -0.12205357 0.14474887
