code/baseline/saved/GAMNet_learning_rate_0.0001_hidden_size_64_epoch_6000_batch_size_32/Epoch_1750_JA_0.6709_DDI_0.0734.model (torch, 455805 bytes, 29 tensors)

lab_embeddings f4 [32, 64]
000000 a4 8b 9f 3e 9a 05 f9 3d 87 7f 39 bf 2e a5 d2 bf
       0.31161225 0.121592715 -0.72460216 -1.6456659
000010 bb d6 2b bf f2 8d bd bf 2d 6f 95 3f 07 eb fa 3e
       -0.6712453 -1.4808943 1.1674553 0.49007437
000020 cc e4 37 3f e0 fd 0b 3f 51 92 de bf bf 3b ae bf
       0.7183349 0.5468426 -1.7388402 -1.3611983
000030 c1 99 00 3f e8 af e0 be f9 78 28 3f 0e 70 f9 3f
       0.5023461 -0.43884206 0.6580959 1.9487321
000040 ef dc 2a 3f f0 a0 38 3e eb 8f b8 3e 1c 3f f7 3e
       0.6674337 0.18030143 0.360473 0.48290336
000050 70 e0 70 3e d7 1c 48 bf 55 87 8c bf b0 f1 70 bf
       0.23523116 -0.78169006 -1.09788 -0.94118786
000060 c6 5e 24 bf a9 0e 83 bf c8 07 34 3f 5b 2e 15 c0
       -0.6420711 -1.0238849 0.70324373 -2.3309543
000070 38 71 bb be ae 37 52 3f cb 41 b6 3f 90 50 c3 3e
       -0.36609817 0.8211621 1.4238828 0.38147402
000080 e0 24 0b c0 80 f9 d9 3f 2d 75 80 be 32 77 f2 bf
       -2.1741257 1.7029266 -0.25089398 -1.8942626
000090 62 e8 e2 be 64 cb 20 bf a0 c1 90 bf 4e 40 69 bf
       -0.4431792 -0.6281035 -1.130909 -0.91113746
0000a0 23 e5 fe 3e d4 40 d4 3e e4 52 76 3f 3a 52 e1 be
       0.49784192 0.4145571 0.9622023 -0.44008046
0000b0 9f 47 bc 3e f1 da 63 3f 0a 55 0f 40 ee df 0a 3f
       0.36773393 0.89005953 2.2395654 0.5424794
0000c0 de a7 9f be 2d 69 cf be 4c 9d 88 3e 28 6e 05 bf
       -0.3118276 -0.4050993 0.26682508 -0.5212121
0000d0 84 44 43 bf dc 93 48 3e 82 59 21 bf 48 93 40 3f
       -0.7627642 0.19587654 -0.63027203 0.75224733
0000e0 c5 bc 89 be 70 33 5f be 13 36 21 40 2d fb 12 bf
       -0.26901832 -0.21796966 2.5189254 -0.57414514
0000f0 fb 54 8b 3d db eb ad 3e 93 f1 e9 3f 02 2f 21 3d
       0.06803318 0.33969006 1.8276848 0.03935147
000100 e9 51 1b be 30 8b 23 bf 31 f7 d3 be 32 2e b7 bd
       -0.15167965 -0.6388426 -0.4139953 -0.08944358
000110 1d 49 57 3e 4d f5 12 3f 68 aa ed 3f 63 0a 98 3e
       0.21023984 0.5740555 1.8567629 0.29695424
000120 71 1a 86 bf 43 c9 a1 bf 51 32 a6 bf ac 61 7b 3d
       -1.0476819 -1.2639545 -1.2984105 0.061372444
000130 67 bb c0 bf b7 f3 8a bf 45 43 59 3f bf 47 6c bf
       -1.5057191 -1.0855626 0.8486827 -0.92296976
000140 70 b5 2b be f1 aa 13 3f 82 8e bb 3f 87 72 99 3f
       -0.16768432 0.5768271 1.4652865 1.1988076
000150 fe b0 c5 3e 49 45 05 bf e7 bd 3d 3e 93 76 13 40
       0.38611597 -0.52058846 0.18529473 2.3041122
000160 1d ac dd bc ea c7 82 3f 28 a3 b3 3e 64 a3 75 3f
       -0.02705961 1.0217259 0.35085416 0.9595244
000170 80 a2 22 3d 13 0d ed 3f 56 39 5d 3f 1b 8e ed 3d
       0.039705753 1.8519615 0.8641561 0.1159937
000180 4c 91 46 bf e6 91 b4 bf 68 02 01 bf 4e fa 04 3f
       -0.77565455 -1.4107025 -0.50394297 0.51944435
000190 5f 44 a2 3f 3f e4 9c be 93 7e 49 3e ec af ae 3e
       1.2677115 -0.30642888 0.1967719 0.34118593
0001a0 18 f8 dc 3e b6 ca 98 bf 3e a7 36 3f c1 6e 2b 3f
       0.4315803 -1.1936862 0.7134894 0.6696587
0001b0 e0 bb cb 3f 38 b5 85 be 72 cc f8 bf 60 52 21 bf
       1.591671 -0.2611482 -1.9437392 -0.6301632
0001c0 42 92 2f 3f 4f 7a d1 bf 0f 43 42 3f 84 02 17 3f
       0.68582547 -1.6365451 0.75883573 0.58988214
0001d0 69 2c 0f 3f 58 c6 ed be 57 98 9c bf 3f 95 45 bf
       0.5592714 -0.46440387 -1.223399 -0.77180856
0001e0 2c 7c f8 bf a9 ae 52 40 4e c7 3b 3e 27 ef c6 3e
       -1.9412894 3.2919104 0.18337747 0.38854334
0001f0 e1 f3 34 3f 49 7d 73 3f da a0 0b c0 ea 96 b0 3f
       0.7068463 0.95113045 -2.1816926 1.3796055
000200 b8 0a 60 bf e4 b4 85 be 78 c8 cf 3f b1 4b 38 be
       -0.87516356 -0.2611457 1.6233053 -0.17997624
000210 c5 5b 7f 3e c3 71 7f bf a0 06 79 bf df d9 3e bf
       0.24937351 -0.9978296 -0.97275734 -0.74551195
000220 c5 ed 55 bf 4c 82 65 3f 39 81 60 bc ac bf 9b 3f
       -0.8356593 0.8965194 -0.013702684 1.2167869
000230 92 17 a5 be d0 31 17 3f 5b 93 f2 be 78 8c 08 40
       -0.32244545 0.5906038 -0.47378048 2.1335735
000240 c2 e5 4f bf 92 94 57 3e 39 71 4d 3f 1e aa c3 be
       -0.8120996 0.21052769 0.8025089 -0.38215727
000250 3c 71 4b bf db f8 0a 3f 70 a1 c4 3f ea 1e 03 bc
       -0.79469657 0.54285973 1.5361767 -0.008002976
000260 a4 23 ae bf 3d 00 69 be 13 97 1c bf cb 53 46 bf
       -1.3604627 -0.22753997 -0.6116802 -0.7747161
000270 3b b2 bc 3e dd d9 86 be 61 b6 1a be 50 5a 41 3f
       0.3685473 -0.26338091 -0.15108635 0.7552843
000280 5b 56 4f bf 88 a8 b2 3f 08 95 a5 3e cd e1 03 3f
       -0.80991143 1.3957682 0.32340264 0.5151642
000290 29 68 3c 3f 8a ed ba 3e 1c fc fc 3a a7 37 b8 3f
       0.73596436 0.36509353 0.0019301209 1.4391984
0002a0 5b c6 00 40 df 09 57 be 6d 86 d2 3e c2 ec 40 be
       2.0121067 -0.2099986 0.41118184 -0.18840316
0002b0 4a 5b a0 3f 20 3f 9a be b8 a8 de be ae dc 31 bf
       1.2527859 -0.30126286 -0.43488097 -0.69477355
0002c0 84 1b be be 2a cc 99 3e 0f 75 83 bf 67 7b b5 3e
       -0.37130368 0.30038577 -1.0270098 0.3544571
0002d0 fa 05 b4 bf ea bb b7 3e c7 27 8b 3d 2f d7 db bf
       -1.4064324 0.35885555 0.06794696 -1.7175044
0002e0 01 ac 9d bc 14 f0 51 3f 7e 4f 84 3e d5 39 2d bd
       -0.019247057 0.82006955 0.25841898 -0.04229148
0002f0 59 fa c8 3e 4c f9 af bf 18 61 5f bf 00 09 04 bf
       0.392535 -1.3747954 -0.8725753 -0.5157623
000300 5a 1f 5e bd 7a 8c 20 bf a8 2b 68 3f b1 f7 89 bf
       -0.054229118 -0.6271435 0.90691614 -1.0778714
000310 ef 25 f4 bd 77 a5 00 c0 23 51 b9 bf fb dc 27 3e
       -0.11921298 -2.0100992 -1.4477886 0.16392891
000320 f8 6b 85 3e bc c1 99 3f b9 61 e9 be 37 a3 83 bf
       0.26058936 1.2012248 -0.4558237 -1.0284184
000330 2a a9 59 3f b5 c3 fb 3f b9 cb 66 3e 4a a1 b9 bd
       0.8502375 1.96691 0.22538652 -0.090639666
000340 fa 1a 83 3e 08 5f 15 3f 35 ab 8d be c3 5d 67 3d
       0.2560652 0.5834813 -0.27669683 0.056485903
000350 ef 25 81 3e 57 ad ac bf 5d 55 20 c0 24 74 c4 be
       0.25224254 -1.3490399 -2.5052102 -0.38369858
000360 1b ac 1c bf 90 39 81 bd 65 ad 0f 40 9e 50 e3 bf
       -0.6120011 -0.06309807 2.2449582 -1.7758977
000370 1c 0f 11 3f 7e 04 55 3d 77 aa 90 be ac 05 cd 3e
       0.5666368 0.052006237 -0.28255054 0.4004339
000380 bd dc 74 3e 4a 34 9d 3f e5 47 78 3f 97 46 a1 bf
       0.2391233 1.2281582 0.969847 -1.2599667
000390 a7 de 06 3f 0c a7 59 bd 11 8e f6 3f 0a d2 04 c0
       0.5268349 -0.053137824 1.9262105 -2.0753198
0003a0 0b 75 41 3f 5a 0b a0 3e 9c dd 31 bd 12 c7 cc be
       0.7556922 0.3125866 -0.043424234 -0.3999563
0003b0 6f 62 43 bf d9 4d 17 3f 80 f1 97 bf 44 c0 57 3f
       -0.7632207 0.5910316 -1.1870575 0.8427775
0003c0 22 ea 25 bf 8a df a5 bf 1b f4 01 3f a8 8f 65 3f
       -0.64810383 -1.2958844 0.507631 0.8967233
0003d0 06 1c ae 3f 2b a9 fb 3e 6a 51 f1 bf 78 1d 3a 3f
       1.3602302 0.49152502 -1.8852971 0.72701216
0003e0 22 0f 1f 3f 22 5c b7 3f 2b 78 65 bf f5 97 34 3f
       0.62132466 1.4324992 -0.89636487 0.7054437
0003f0 e7 90 8f 3f dc ee 55 be 36 41 24 3f 2d 48 0b 40
       1.1216096 -0.20891899 0.64162004 2.1762803

static_ll.0.weight f4 [128, 64]
000000 62 8b da 3d e1 5c b6 bd 9a 03 e8 bd 3e 99 04 be
       0.106711164 -0.08904434 -0.11328812 -0.12949082
000010 98 73 8a 3d 7a ec 8a bd 28 32 ee bd b8 ba f4 3c
       0.06760329 -0.067833856 -0.1163066 0.02987419
000020 18 36 85 3d f7 33 80 bd cf ad 29 bd 54 1f 8d bd
       0.06504458 -0.062599115 -0.041425522 -0.06890741
000030 75 a3 1e 3e e4 af 73 bd 3d 63 32 3c c6 cc ad bd
       0.15492041 -0.059493914 0.010887918 -0.08486323
000040 61 7d 09 be 54 31 d1 3d 55 20 80 bd 80 c1 f0 bd
       -0.13426735 0.10214487 -0.06256167 -0.11755657
000050 49 49 28 bd 95 4b 90 bd c5 82 12 be b1 ea d9 bd
       -0.041085515 -0.07045666 -0.14307697 -0.10640467
000060 e6 12 e3 3d 01 51 49 bc b4 6c 44 3d c4 72 da bd
       0.11087589 -0.012287379 0.04795523 -0.10666421
000070 2f d2 71 3d 52 19 93 bd 92 35 9a 3d 76 5b f7 3d
       0.059038337 -0.07182564 0.07529749 0.12077992
000080 47 3c cb 3d 31 1b c5 3d 6e 02 02 bc 05 b9 f8 bd
       0.09923606 0.09624327 -0.00793515 -0.12144665
000090 f1 98 4c 3d 66 53 82 3d 88 6b 2d 3d 85 b8 26 bd
       0.049950544 0.06363563 0.042338878 -0.040703315
0000a0 46 d8 35 3c f5 4b 9d 3d 9a 3f 93 3d fe 6c 07 3d
       0.011098927 0.07680503 0.071898654 0.033062927
0000b0 62 bd 92 bd 87 61 79 3d 56 30 35 bd 44 0c 89 bd
       -0.07165028 0.060884025 -0.04423555 -0.066917926
0000c0 d1 4b 42 bd d8 1e 00 be 68 68 07 3e 30 21 0e 3e
       -0.047435585 -0.12511766 0.13223422 0.13879848
0000d0 ae 1d 37 3d a1 23 6a bc d7 be 3b bd 7e a4 02 be
       0.04470604 -0.014290721 -0.045836296 -0.12758061
0000e0 f8 88 94 3c 0c 78 fb 3b 90 09 23 bd 5e b9 04 3d
       0.018131718 0.007674223 -0.03980404 0.032403342
0000f0 72 22 06 be ec ba df bd 3b f2 13 bd 5a db bb bc
       -0.13099077 -0.109243244 -0.03611968 -0.022931743
000100 83 48 73 ba 97 27 f4 3d 27 5e c8 bd 9d 03 d5 3d
       -0.00092805194 0.11921614 -0.09783583 0.1040108
000110 ea 69 a8 bc a4 09 ba bd 46 29 b7 3d 92 37 8d bd
       -0.020558316 -0.0908387 0.08943419 -0.06895365
000120 a2 fd ab bd 5c 34 47 3d 7c 93 0f bd aa d3 b7 3d
       -0.08397986 0.04863392 -0.03505276 0.089759186
000130 30 86 5a bd bb 40 05 3c 65 5e 45 3d 70 9f a3 bd
       -0.053350627 0.008133109 0.048185725 -0.07989395
000140 d9 bd d7 bd 31 70 ba bd 4e f6 18 3b da 4e c8 3d
       -0.105342574 -0.0910343 0.0023340168 0.09780665
000150 46 e4 cc 3d f8 5b 85 3d 0f be 5d 3d 34 a4 34 3c
       0.10004477 0.06511682 0.054136332 0.011025477
000160 b6 68 b8 3d 47 59 27 3d 10 f9 c6 3d 92 52 05 3e
       0.09004347 0.040856626 0.09715474 0.1301978
000170 51 76 e2 3d 32 17 02 3e ee 67 95 3c 95 2e f6 bd
       0.11057723 0.12704161 0.018238034 -0.120206036
000180 e6 71 f1 bd 66 73 d5 bd e8 b8 32 3d 07 8e 46 bd
       -0.117893025 -0.10422401 0.04363337 -0.04847529
000190 5a ce 37 bd 1c 17 f0 3d 50 e1 92 bd 8d 99 ea 3d
       -0.044874527 0.11723158 -0.07171881 0.11455069
0001a0 5f f7 84 bd 16 06 bc bd 5b c8 ff 3d fd 7f ec bd
       -0.06492495 -0.09180848 0.12489387 -0.11547849
0001b0 ef e4 a4 bd a0 19 1b bc 85 c7 c4 bc f9 45 1e bd
       -0.08051478 -0.009466559 -0.02402092 -0.03864095
0001c0 ed 34 80 bd ee f4 00 3d b6 a3 0d 3e 76 32 80 3c
       -0.06260095 0.031483583 0.13831982 0.015649062
0001d0 12 e4 01 be fe 5e d4 bc 2e 10 ba bd b1 85 94 3c
       -0.12684658 -0.025924202 -0.09085117 0.018130155
0001e0 f2 78 9e bd 65 40 00 3e a6 d2 40 bc 7d 41 c1 3d
       -0.07737912 0.12524565 -0.0117689725 0.09436319
0001f0 22 60 81 bc 65 00 96 3d 86 b9 f8 bd 6e 5e d4 3d
       -0.01579291 0.07324294 -0.12144761 0.103695735
000200 42 05 ac 3d 30 21 f1 bb 91 f6 15 bc 80 e8 99 3b
       0.0839944 -0.0073586926 -0.009153024 0.0046969056
000210 d7 06 c1 3d 9a 05 13 be 1d 03 da bd e8 ba ad bc
       0.09425133 -0.14357606 -0.10645125 -0.021207288
000220 b6 9b b7 bd 03 9c df bc eb e9 ad bd 60 87 07 be
       -0.089652464 -0.027296072 -0.08491882 -0.13235235
000230 f7 d8 f8 bb 51 83 bc bd ad 6c d1 bd 72 51 8f bc
       -0.0075942236 -0.09204734 -0.102258064 -0.01749489
000240 cf 4c 9d bd 8e f3 db 3d 4f e1 27 bd bb 01 e7 bd
       -0.07680666 0.10739814 -0.040986355 -0.11279627
000250 e8 e2 81 3d ba 41 59 bd 97 38 06 bd 39 9e 0f 3d
       0.06342107 -0.053041197 -0.032768812 0.035063002
000260 ca 03 79 bd f5 0e d5 bd 61 b7 bd bd 6f 31 73 bd
       -0.06079463 -0.104032435 -0.092634924 -0.059373315
000270 8d e6 97 bd 7b 2b 9a 3d 84 8d 63 3d b0 be cd bc
       -0.07417021 0.075278245 0.05555488 -0.025115341
000280 ba f6 07 be 32 95 9f 3d 00 c7 b2 3c 10 36 ed 3c
       -0.13277712 0.077921286 0.021823406 0.028956443
000290 84 2e 56 3d e1 53 00 bc fc ee 1e 3d 44 00 54 bc
       0.052290455 -0.007832498 0.038802132 -0.012939516
0002a0 90 9f cb bc c5 96 b3 bd a9 1d b6 3d 31 0f 84 bd
       -0.024856359 -0.087689914 0.08892376 -0.0644821
0002b0 52 7f 07 3e 10 af d2 3d 6d 8f fd 3d 06 1d 59 bd
       0.13232163 0.10287297 0.12380872 -0.053006195
0002c0 61 87 c8 bd 5a b2 b6 bc 44 d0 c5 3d 7a cb 9d 3d
       -0.097914465 -0.022301842 0.09658864 0.07704826
0002d0 53 23 13 bc 25 4e eb 3d 20 ee ba 3d b0 28 1e bd
       -0.00898059 0.11489514 0.0912745 -0.03861302
0002e0 ab 76 2c 3c ae 84 34 ba 0d 91 a5 3c 90 c5 a5 bd
       0.0105263395 -0.0006886226 0.020210767 -0.08094323
0002f0 0b 1a 07 3e 62 fa ad 3d ce c0 ac 3c e6 cd 8e bd
       0.13193528 0.08495022 0.02108803 -0.06972866
000300 5b 7c d0 bd 53 34 6d bd 2d 31 f6 bc a6 e5 bd bc
       -0.10179969 -0.05791123 -0.030052746 -0.023180794
000310 b5 58 f9 3d c7 2e e2 3d ec 33 03 be 34 a1 94 3d
       0.12175123 0.11044078 -0.12812775 0.072573096
000320 80 3d c2 bd da ee bb 3d a3 c4 83 3d 6d 97 79 b9
       -0.094843864 0.09176417 0.0643399 -0.00023802901
000330 91 24 b4 3d 98 73 65 3d 19 62 25 3d 09 1a 39 3d
       0.08796037 0.056018442 0.040376756 0.045190845
000340 c4 84 b0 3d f1 3d 34 bc 3f f8 f1 b8 d5 b5 56 3d
       0.08619073 -0.011001096 -0.00011538015 0.052419502
000350 17 9d c2 3d f5 33 bd 3d 21 dd 18 bd f0 29 3a bd
       0.09502619 0.09238426 -0.03732026 -0.04545015
000360 d2 ac bf 3d 72 2f dd bc b1 42 0e be 21 b0 d5 3c
       0.09359135 -0.027000163 -0.13892628 0.026084961
000370 80 66 c2 3c b8 33 b1 bc 07 11 8f 3c e0 a5 76 3d
       0.023730516 -0.021631107 0.017464174 0.060216784
000380 68 bc 55 3c 79 7e ad bd 38 2a 8c bc 0f 19 6d 3d
       0.013045408 -0.08471388 -0.017109975 0.057885226
000390 0b 96 07 bd ef bd 8d bd e6 f4 e4 bd 5a bc 2f 3d
       -0.033102077 -0.069209926 -0.11179523 0.042904235
0003a0 8e 36 ee 3d 4f c6 0f be d9 e5 d7 bd e2 81 c9 3d
       0.11631499 -0.14040492 -0.10541887 0.09839226
0003b0 29 ea 28 bd 5b 45 76 bd 24 ee c5 3d f8 b5 c3 bd
       -0.041238938 -0.060124736 0.09664562 -0.09556192
0003c0 f0 2b 84 3c 49 30 4a 3d 0e ed 07 be 98 3a d2 bc
       0.016134232 0.049362455 -0.13274023 -0.025662705
0003d0 0d 5c 02 3e aa 2f b7 bd c5 a6 c4 bc 65 61 88 bd
       0.12730427 -0.08944638 -0.024005303 -0.066592015
0003e0 00 b5 8b 3c 95 cc 79 bd 5c ef be 3b cb 05 9d bd
       0.017054081 -0.06098612 0.0058268737 -0.076671205
0003f0 60 a3 a1 bd 32 bf ae bd be 11 7c bd 87 a6 97 bc
       -0.078924894 -0.08532561 -0.061540358 -0.018512024

static_ll.0.bias f4 [128]
000000 1b f0 df 3d bb e4 b5 bd 17 cb 37 3c 73 df 87 bd
       0.10934468 -0.088815175 0.011217854 -0.066344164
000010 b6 93 e1 3d 29 1d a9 3d 98 f8 aa bd 7d ed c6 3d
       0.11014502 0.08257515 -0.08348197 0.09713266
000020 4e 23 bd 3c b9 90 08 3e 27 57 08 3e 60 1b 81 bd
       0.023088124 0.13336457 0.13314496 -0.063040495
000030 41 8b 07 bd f7 3c bd 3d 6c 2b d5 3b bc e0 e8 3d
       -0.033091787 0.09240144 0.0065054204 0.1137099
000040 8e cb fd 3d 33 ad 91 bd 6a 86 e0 3c eb 3c 8f 3d
       0.123923406 -0.07113113 0.027407844 0.06994041
000050 11 e9 b3 3d 73 70 aa 3a e2 5b 9f 3d 42 70 17 3e
       0.08784688 0.0013003483 0.07781197 0.14788917
000060 45 30 e0 3d 8f 65 a7 3d 37 83 4e bd 35 84 b7 bd
       0.10946707 0.08173668 -0.050418105 -0.08960763
000070 ae 2d 8e bd 51 72 ed 3d 46 18 cc bc c4 d4 85 bd
       -0.069423065 0.1159407 -0.024913918 -0.065347224
000080 10 b5 71 bb c6 3f a4 3d 92 79 d6 3d 8b c9 a1 bd
       -0.0036881603 0.08019976 0.104724064 -0.078997694
000090 f6 a1 d5 3d e3 72 e6 3d a9 a3 3a 3c 89 b5 57 3d
       0.10431282 0.11252382 0.011391559 0.05266336
0000a0 91 62 7d 3c 94 9d 03 bd 20 ca c2 bc f6 5b b0 bd
       0.015465395 -0.0321327 -0.023778021 -0.0861129
0000b0 bd 9a 37 3b c7 00 22 bd 1f 4c 4c bd e9 c3 35 bd
       0.0028015815 -0.039551523 -0.049877282 -0.044376288
0000c0 a4 b4 13 bd a1 09 e4 3d a5 f0 da 3d 4c 9f da 3c
       -0.036060944 0.11134649 0.106904306 0.026687287
0000d0 59 83 0a 3d a0 45 05 3e 3d 8b 23 bd 02 7b 79 3d
       0.03381667 0.13014841 -0.03992771 0.060908325
0000e0 2e 02 0f 3e a2 8f cf 3d 1f 58 d6 bd bc 9d a5 bd
       0.13965675 0.10134818 -0.104660265 -0.08086726
0000f0 df 5b b8 bc 2c ae e4 3d 3e 62 6c bd a7 5c 97 bd
       -0.022504745 0.11166033 -0.05771088 -0.07390719
000100 78 e2 5e bd 7e b1 5b bd 40 af 0f 3d e2 af a2 bd
       -0.054415196 -0.053636067 0.03507924 -0.07943703
000110 9e a1 43 bc 47 87 73 bc 6b 13 55 3d 30 db a5 3d
       -0.011940388 -0.014863796 0.05202047 0.08098447
000120 d5 8b 1e bc 5f 52 a5 bc ec 89 7c bd 8f b5 30 3b
       -0.009676893 -0.02018088 -0.06165497 0.0026963686
000130 17 cf 2f 3c d8 5a 06 3c 64 48 24 bd 0f 87 dd bb
       0.010730526 0.00820037 -0.0401081 -0.006760485
000140 55 69 91 3b b7 58 b6 3d 83 13 b7 bd 96 e7 62 3c
       0.0044376054 0.0890364 -0.089392684 0.01384916
000150 b3 11 97 bd 1a a9 23 bc 39 28 90 bd 85 cc 2e 3d
       -0.07376423 -0.009989047 -0.07038922 0.042675514
000160 8e 8b 10 3e f2 53 96 bd 03 17 c5 3d 9e 43 0e bd
       0.14115736 -0.0734023 0.0962353 -0.034732454
000170 42 b2 d6 bd 1d 9d 9e 3c 5f 71 0f bc c2 13 27 bc
       -0.10483219 0.019362027 -0.008755057 -0.010197582
000180 87 a9 8d bd 1e b3 8e 3d 74 28 77 39 66 d2 eb bb
       -0.069171004 0.06967758 0.00023570826 -0.0071967123
000190 05 9f f1 3d 44 b5 8b bd 2c e3 6e 3d 35 0c 4d bd
       0.11797909 -0.06821683 0.058322117 -0.05006047
0001a0 94 02 ab bd c5 f4 54 bd 6d 87 e8 3d 70 30 cf 3d
       -0.08350101 -0.051991243 0.113539554 0.101166606
0001b0 04 17 69 3d f4 c2 2c 3d e9 1b 44 3d 74 b3 c4 bc
       0.056906715 0.04217811 0.04787818 -0.024011351
0001c0 dd 6b f9 3d 4e 81 a7 bd b8 7b 8c 3d f1 51 21 bd
       0.121787764 -0.0817896 0.06859535 -0.039384786
0001d0 43 d4 36 3d 36 16 85 3d c0 29 56 3d d7 d9 ca bd
       0.044636022 0.06498377 0.05228591 -0.09904831
0001e0 e5 68 8b 3d 33 33 9d bc be 08 bf 3d ea 6d 74 bd
       0.068071164 -0.019189453 0.09327839 -0.059675135
0001f0 ae 84 79 3d df c7 01 be 33 e8 ed 3d 65 24 c5 3c
       0.06091755 -0.12673901 0.11616554 0.024065206

static_ll.2.weight f4 [64, 128]
000000 ac be 1e 3d f9 4e 6e bd ee 99 80 3d 38 b5 60 3d
       0.038756058 -0.058180783 0.0627936 0.054860324
000010 f9 90 9e 3d 07 55 b2 3c 0a 0d 33 bd fa 2c d5 bc
       0.07742495 0.02176906 -0.043713607 -0.026022423
000020 3f a2 9a bd 99 4e d9 3c 9a de 87 bc 52 93 99 3b
       -0.07550477 0.026526736 -0.016585637 0.0046867514
000030 88 17 95 bc 6b d4 38 3c 1a de f2 3c 88 54 8b 3d
       -0.018199697 0.011281113 0.029646922 0.068032324
000040 79 3d 42 3d fa b5 77 bd f0 c0 04 bd d8 93 77 bd
       0.047421906 -0.06047628 -0.032410562 -0.06044373
000050 1f bc 47 bd 84 93 9c 3d 1f cc 5c 3d 3e be 09 3d
       -0.04876339 0.07645324 0.053905603 0.033628695
000060 c2 d0 51 3b e4 57 a0 3d f4 5e 2d bd df 70 37 bc
       0.0032015298 0.07829264 -0.042326882 -0.011196344
000070 82 2a ef 3b ab 4e c7 bb 3e 93 98 3c af 0d b1 bd
       0.0072987685 -0.006082376 0.018624898 -0.08645188
000080 4e b9 bf 3d d5 31 4c bd dc 02 4d bc 40 2e 93 bd
       0.09361516 -0.04985221 -0.012512889 -0.07186556
000090 70 8a 99 3d 2f 4b 1e 3d dd e4 00 bc df 6a e3 3c
       0.07497108 0.03864592 -0.007867065 0.027760921
0000a0 36 0a 1b bd 75 09 fd 3c 72 74 69 3c 27 e0 7f 3d
       -0.037851535 0.030888299 0.014248954 0.062469628
0000b0 00 9b 10 3d 07 f6 76 bd ca 3f 4b 3d d7 e6 6a 3d
       0.03530407 -0.060293224 0.04962138 0.057349052
0000c0 ba 31 34 3d 03 b8 16 bc 6a e5 be bc 37 fa 96 bd
       0.043992735 -0.009199145 -0.023302753 -0.073719434
0000d0 49 fa 6f bb c0 2d ba 3d 8c 6a 23 bd c2 60 9e 3d
       -0.0036617687 0.09090757 -0.039896533 0.07733299
0000e0 7f 82 0b 3d 9c d1 9d bd 80 9b 77 bd b0 28 53 3d
       0.034059998 -0.077059954 -0.06045103 0.051552474
0000f0 62 a5 b9 3d b1 40 a1 3d 4d b2 41 3b 4f b0 38 3b
       0.090647474 0.07873667 0.0029555738 0.002818126
000100 6a 9e a3 3b 6e df af bc a7 95 b9 3d 3e 84 39 bd
       0.0049932497 -0.021468844 0.09061747 -0.04529213
000110 9c 74 97 bc 84 5e 65 3d 95 56 de bb 0d 7b 97 bd
       -0.01848822 0.05599834 -0.0067852237 -0.07396517
000120 59 a6 fc 3c 24 f0 2a 3c 01 bb 19 3c 94 c7 d8 bc
       0.03084104 0.010433231 0.009382964 -0.026462354
000130 8a 9d 87 bd ce c5 d5 bc d6 94 21 3d af 29 7d bc
       -0.06621845 -0.026095297 0.03944858 -0.015451833
000140 be 69 0b 3d f0 cf 9d 3d a8 4a 33 3d 66 67 2b 3b
       0.03403639 0.077056766 0.04377237 0.002615416
000150 2c 45 54 bb 7e 73 0e bc 89 13 8d bd e7 48 aa 3b
       -0.0032389862 -0.008694528 -0.06888492 0.005196679
000160 3e f7 ae 3b 54 c1 2a bd e2 8e 83 bd d1 a8 84 bd
       0.005339532 -0.04168828 -0.06423737 -0.06477512
000170 66 56 3d 3d f8 cd 89 3d 09 f0 0a bd 4f f2 8a bd
       0.046224974 0.067287385 -0.03392032 -0.06784498
000180 a5 ee 5a 3a 31 a6 02 3d 11 4c 7f 3d 39 c3 9a 3d
       0.0008351601 0.031896774 0.062328402 0.07556767
000190 b8 3e a0 3c 9f be 61 3d 80 0a 21 3d 08 8d ac 3d
       0.019561157 0.05511343 0.039316654 0.08425337
0001a0 d1 30 35 3d 1c 47 5a bd 20 6b 9b 3d be 4d cb 3c
       0.044236008 -0.05329047 0.07588792 0.024817344
0001b0 f2 ab ce 3c 0f 49 99 3d 45 2d 02 bd 9a 11 79 bd
       0.025228474 0.07484638 -0.031781454 -0.0608078
0001c0 50 24 50 bc 12 63 4d 3d 15 28 cc bc 2b 7e b1 3d
       -0.01270397 0.05014331 -0.024921456 0.08666643
0001d0 c4 75 cb 3d 35 d1 94 39 63 b7 6a bc 54 c1 c5 bc
       0.099345714 0.0002838463 -0.014325949 -0.024140038
0001e0 90 6d 17 bd b5 b1 37 3d 8c 0e 91 3d 4b 67 6c bd
       -0.03696972 0.04484721 0.07082853 -0.057715695
0001f0 47 45 f1 3c 24 ed a0 3c 78 87 a2 3d 0f c8 fe 3c
       0.02945198 0.019644327 0.07935995 0.031101255
000200 45 9b 24 3d 3c e3 e8 bc 98 ed fb 3c 31 5e 57 bc
       0.04018714 -0.028428666 0.030752942 -0.013145016
000210 dc 72 39 3d c3 9f 70 bd e2 63 62 3d 37 d3 ae 3d
       0.045275554 -0.05874611 0.055271037 0.0853638
000220 09 45 92 3c 45 7f 14 bc bc 0f 48 3d fb f8 e7 3d
       0.017855184 -0.009063547 0.04884313 0.11326786
000230 2f 3b a4 38 4e 10 63 3d 99 71 ee bc 63 23 98 3d
       7.831153e-05 0.05543547 -0.029106902 0.074286245
000240 7d d2 e2 bc dc 7e a4 bc 51 b5 3c 3d 20 a8 47 3d
       -0.02768826 -0.020080023 0.046071354 0.04874432
000250 1e 14 78 bd bd 32 7c 3d cf 3e 61 3d 17 39 0e bd
       -0.06056606 0.061571825 0.05499154 -0.034722414
000260 fc 65 83 3c 00 97 56 3d 52 96 f9 3c 9c e2 88 3d
       0.01603984 0.0523901 0.030467186 0.06683847
000270 71 7c 9b bd 7c 58 a4 3d 54 63 dc 3c 99 0f 61 3d
       -0.07592095 0.080246896 0.026902832 0.054946516
000280 b3 54 22 bc 6d 8e ab 3c 7f e2 1d bb 0a 94 30 3d
       -0.009907889 0.020941937 -0.00240913 0.04310993
000290 8e 32 4d 3d 51 ae 81 3d a7 76 e0 ba 1b d5 a1 3d
       0.05009704 0.06332076 -0.0017125205 0.07901975
0002a0 45 75 40 3d 45 85 01 bd b1 ea ab 3c 82 50 87 bd
       0.046986837 -0.031621236 0.020985933 -0.066071525
0002b0 bc 1b 74 3d 64 fc 4c 3d 67 3e 8f 3d f9 6d a4 3d
       0.059596762 0.050045386 0.06994324 0.08028788
0002c0 89 79 cd bd c6 b7 d9 3d f0 80 74 3d 33 9d db 3c
       -0.100329466 0.10630755 0.059693277 0.026808357
0002d0 04 e3 2c bd 40 97 98 3d 3c ac df 3c d3 cc a3 bd
       -0.042208686 0.07450724 0.027303807 -0.079980515
0002e0 36 52 c9 3c 31 36 d2 bd 0c 1f b1 bd 45 67 f0 3b
       0.024575334 -0.102642424 -0.086485 0.0073365294
0002f0 63 04 e7 3d a0 38 05 bd 06 e7 0c 3d cb 94 7b 3c
       0.112801336 -0.032524705 0.03440001 0.015355299
000300 85 c5 bb 3c 09 b0 81 bc 0a 2e ac 3d 2f 18 b2 3c
       0.022921333 -0.01583101 0.08407219 0.021740047
000310 9c 06 a8 bd b1 df 54 bd 1c 58 8f 3d 95 26 c6 bd
       -0.08204386 -0.05197114 0.069992274 -0.09675328
000320 d1 44 24 3c bf c7 77 bb 6a a6 1c 3d ba 04 7c bb
       0.010026173 -0.0037808267 0.038244642 -0.0038454966
000330 02 75 07 3c f5 2b c1 bb 02 1f bd bc 82 0f c9 3d
       0.008267643 -0.0058951327 -0.023086075 0.09817411
000340 4d 5e 0e bd 29 df 7b 3d f6 68 a6 bd d6 eb 91 3a
       -0.0347579 0.06149212 -0.081254885 0.0011132907
000350 02 66 8d bd 67 d4 29 3d fd 2a bc 3d bf e8 4b bd
       -0.06904222 0.04146233 0.09187887 -0.04978251
000360 cb cd e8 3c a1 e3 cc 3d a2 11 3d bd 0a 06 85 bd
       0.028418442 0.10004354 -0.046159394 -0.064952925
000370 01 b0 82 3d 65 ec 8b 3d 19 71 98 3a 5f 1a b8 3d
       0.06381226 0.06832198 0.0011630385 0.08989405
000380 73 32 b3 3d f0 5f 9b 3d 0c 33 b9 3d d7 b1 95 bc
       0.08749857 0.07586658 0.090429395 -0.018273277
000390 91 23 07 3d 01 0f 21 bd 58 60 42 3a 61 5d 92 3c
       0.032992903 -0.03932095 0.0007414869 0.017866792
0003a0 09 4d 32 bd 86 23 28 3d 68 67 dd 3c 07 a4 41 3d
       -0.043530498 0.041049503 0.027026847 0.04727557
0003b0 c2 a2 11 bd 0e 93 3c bd 8a 8c 8c 3a 15 dd 42 bc
       -0.03555561 -0.04603868 0.0010723036 -0.01189353
0003c0 11 17 28 bd ed 4c a9 bd f9 b5 1e 3c 9c 16 f9 3c
       -0.041037623 -0.082666256 0.00968694 0.030406289
0003d0 56 a2 93 bd 5f 46 79 3d 3a 48 a6 3d a1 80 d0 bc
       -0.072086975 0.060858127 0.08119245 -0.02545196
0003e0 18 b4 8c bd 45 bb af bc df b0 68 bd 8a 25 90 bb
       -0.06870288 -0.021451602 -0.056809302 -0.0043990063
0003f0 c2 4b 9d bc 8f 17 ce 38 b8 c0 e1 bb f2 48 67 bd
       -0.019201163 9.8272336e-05 -0.006889429 -0.05646605

static_ll.2.bias f4 [64]
000000 cc 59 5e 3d 24 53 22 3d b3 81 6f bc da 45 67 bd
       0.054284856 0.03963007 -0.014618325 -0.0564631
000010 09 d1 f0 bc c0 e2 0f 3d f3 69 08 3d 36 42 13 bc
       -0.02939655 0.035128355 0.033304166 -0.008987954
000020 c9 dc 1b 3d 76 f5 87 bd cd db 9b 3d b2 c6 e1 bc
       0.038052354 -0.06638615 0.07610283 -0.027560566
000030 81 8e 8a bc ef e9 82 3c 3c 94 a2 3d fc df cb 3d
       -0.016913654 0.015980689 0.0793843 0.09954831
000040 85 51 a0 bd 31 6e 9b 3c ba a0 b3 3d 3b 82 83 bd
       -0.078280486 0.018973442 0.087708905 -0.06421324
000050 52 bc 10 bd 68 e8 4b bc 99 4f 69 3d d2 3f 9c 3d
       -0.035335846 -0.012445547 0.056960676 0.0762936
000060 63 57 12 bd 1e 2f ac 3d 9a c6 1b 3d 1b 51 e2 bc
       -0.03572787 0.084074244 0.038031198 -0.027626565
000070 b1 51 8a 3c d9 ad 52 3c a4 fe 77 3d 0b b8 87 3c
       0.016884657 0.012858831 0.06054558 0.01656725
000080 ff bb 38 bd 9b 28 93 bd ed 6d ba 3d 55 99 36 3b
       -0.045101162 -0.07185479 0.09102998 0.002786239
000090 1e 3b 2c 3d 7f e4 4b bd be 4c 96 bc d9 cf 95 3c
       0.042048566 -0.049778458 -0.01834714 0.018287586
0000a0 ef 1f 0a 3d 0c 91 7a 3d c0 15 99 bc 92 7a c5 3c
       0.03372186 0.061173484 -0.018687129 0.024106298
0000b0 0c 5b 5d bc 16 52 92 3d be 4b d1 bc 20 28 25 3c
       -0.013510477 0.07144563 -0.025548812 0.010080367
0000c0 91 d2 32 3d 65 3c 23 3c 3e 68 a5 3c 27 ba 94 3c
       0.043657843 0.00996313 0.020191308 0.01815517
0000d0 a0 1e 33 bd 81 32 91 3d 12 ef 9e 3d 9d 2c 59 3d
       -0.04373038 0.07089711 0.07760443 0.053021062
0000e0 b1 d8 d5 bc dc 66 a7 3d 99 a3 0e bd 3d c2 c7 3d
       -0.026104303 0.08173916 -0.034823988 0.09753845
0000f0 cc 7a 97 3d a4 33 8f 3c ce 1b 44 bd cb eb c9 3d
       0.073964685 0.017480679 -0.04787808 0.09859427

glu_encoder.rnn.weight_ih_l0 f4 [48, 2]
000000 69 87 36 3e 15 29 25 be d1 3e d2 3d d3 02 40 bd
       0.17825092 -0.16128953 0.102658875 -0.046877693
000010 80 bb 43 3e 11 c0 44 3e 56 b7 a3 bd cd 97 3c be
       0.19114494 0.19213893 -0.07993953 -0.18417282
000020 43 7c 1b be 44 c6 3d 3e 7c ee 8d 3e 5b 44 09 3e
       -0.15184121 0.18532664 0.27721012 0.13404982
000030 cd 05 5f be 85 94 97 3d a7 fa 96 3e 8c 33 99 be
       -0.21779557 0.07401375 0.29488108 -0.2992214
000040 2d 81 ba bd 78 45 6e be f1 90 76 3e 79 ea 26 be
       -0.091066696 -0.23268688 0.24078728 -0.16300382
000050 ec 77 13 3e 30 8b 85 bc 4c 7c 0d 3e b2 04 68 3e
       0.14401215 -0.016301721 0.13816947 0.22658041
000060 34 44 65 3e c7 78 b6 bd 3b f2 c1 3d d2 f4 fe 3c
       0.22389299 -0.08909755 0.0947003 0.031122599
000070 f1 33 e8 3c 17 9c 3a bd cc ee 3c be 6a 7a 58 bd
       0.02834508 -0.045559015 -0.18450469 -0.05285112
000080 3d e6 60 3e 14 ed b6 bd b4 c5 2a 3d 41 47 80 3e
       0.21962829 -0.08931938 0.04169245 0.25054362
000090 72 ad 66 be cc 17 4e be eb f9 7c bc 1b d9 76 3e
       -0.22527102 -0.20126265 -0.015440444 0.24106257
0000a0 0d 8d 05 be 86 20 6a 3e 0c c5 9d bd 08 34 91 bd
       -0.13042088 0.22863969 -0.07703599 -0.07090002
0000b0 e0 7c f0 bd ea fc 10 3e 68 e3 5c 3e c3 b0 4a 3e
       -0.11742568 0.14158979 0.21571124 0.19793992
0000c0 83 03 60 3d c6 bb 2b bd 7f aa 9e be 3c 8c 6e 3e
       0.05469085 -0.04192712 -0.30989453 0.23295683
0000d0 b6 d2 98 be 62 2f 9a bc 2f 6a 45 3d f3 67 38 bd
       -0.2984826 -0.018821422 0.048196968 -0.04502101
0000e0 4b a6 50 3e 1c dc 35 bd 05 dd 7c 3d ef 2e 7f bc
       0.20375936 -0.044399366 0.06173422 -0.015575155
0000f0 1d 0a 5d 3e 61 e8 c4 bc 0d 66 26 be 43 0c 06 bd
       0.21585889 -0.024036588 -0.16249867 -0.032726537
000100 64 92 07 3e bb 74 e0 bd ef 8a 20 be b7 7b 4a 3e
       0.13239437 -0.109597646 -0.15677999 0.19773756
000110 1f 7e 06 3e be c8 ef 3c c6 b0 85 3e c4 e1 b9 bd
       0.13134049 0.029270526 0.2611143 -0.090762645
000120 4c c9 ef bd 0a d3 37 be 1e e7 74 3e 6d 32 6d be
       -0.11708316 -0.17951599 0.23916289 -0.23163767
000130 93 10 49 3e ba a2 0a bd f3 ac d0 3d 29 ca 36 bd
       0.19635229 -0.033846594 0.101892374 -0.04462639
000140 e4 88 1e 3e b4 51 09 be ca 70 80 3e aa 66 36 3e
       0.15481907 -0.13410074 0.2508605 0.178126
000150 36 a3 14 3e 3d 74 53 3e 1e db 3e bd db 93 88 bd
       0.14515385 0.2064981 -0.046595685 -0.06668826
000160 43 ab f8 bd 9d 56 d6 bd 06 83 7c be 54 34 6e 3e
       -0.121420406 -0.10465739 -0.24659356 0.23262149
000170 a4 64 71 3e de 55 73 bd e1 39 49 3d d0 17 47 3e
       0.23573548 -0.05940806 0.049127463 0.19442677

glu_encoder.rnn.weight_hh_l0 f4 [48, 16]
000000 5d cc 3d be 92 90 6c be 64 a1 bb bd 37 df 09 3e
       -0.1853499 -0.23102024 -0.09161642 0.13464056
000010 84 03 d2 3d b5 f8 96 bd 17 83 85 be 30 66 41 3e
       0.10254577 -0.07371656 -0.26076576 0.18886638
000020 f7 3d 6a 3d cc a3 4a 3e 94 c1 3c be 83 0b 26 be
       0.057188 0.19789046 -0.18433219 -0.16215329
000030 6e 10 0f bd f4 fc 02 be ed 21 fd 3d 2f e3 91 bd
       -0.034927778 -0.12791806 0.123599865 -0.0712341
000040 55 16 d2 3d 20 c5 a1 bd 99 e6 03 3e 7c 32 85 be
       0.10258166 -0.07898927 0.12880935 -0.2601508
000050 01 2a fc bd 6b 75 4a 3e d3 8d 8b bb ed 2c 3c 3d
       -0.12312699 0.19771354 -0.00425885 0.045941282
000060 49 38 7d be 0c 85 5c 3e de d9 aa bd 8d 05 e2 3d
       -0.24728502 0.21535128 -0.08342336 0.11036215
000070 3c 96 03 3e 56 d9 ea bd 89 a6 60 be 75 70 98 3d
       0.12850279 -0.11467235 -0.21938528 0.074433245
000080 13 47 2a 3e 18 de 18 be 36 39 05 be c4 b7 62 be
       0.16628675 -0.14928472 -0.13010105 -0.22140414
000090 54 fe 09 3d 5f 5c 32 3d a4 3b 38 be 62 40 2d 3e
       0.03368981 0.043545123 -0.17991501 0.16919091
0000a0 f7 3f 08 3e 59 47 b9 bd 8f 94 9f bd 63 53 22 3e
       0.1330565 -0.090468116 -0.07792007 0.15852122
0000b0 c4 fd d4 bd 2a cd 24 3e 47 f5 44 be a1 66 32 3e
       -0.103999645 0.16093889 -0.19234191 0.17421962
0000c0 00 c5 18 3e 16 df 3d be 6d 78 0a 3e f1 42 62 3e
       0.149189 -0.18542132 0.13522501 0.22095849
0000d0 14 96 2e 3c a6 53 20 3e 72 8c 42 3e a0 e3 f4 3d
       0.010655899 0.1565691 0.18998888 0.119574785
0000e0 b8 85 42 be 7b fe 98 bd 89 db 18 be 86 9c 11 be
       -0.18996322 -0.07470413 -0.14927496 -0.14219865
0000f0 73 34 10 3e 59 3c 0f 3d d0 02 19 3c a9 c5 f3 bc
       0.14082508 0.03496966 0.009339049 -0.029757338
000100 58 31 a6 bd 9d 36 1c 3c 7f 5e 26 3d 69 c5 2c bd
       -0.0811488 0.009534505 0.040617462 -0.042180452
000110 2e 80 1b 3d b6 9d 9f bd ff 6a 94 3e ee b1 00 3e
       0.03796404 -0.07793753 0.28987882 0.12567875
000120 7d dd 6a 3c 81 4a 0b 3e ab 8a 4b 3d 5f 86 8f be
       0.0143350335 0.1360264 0.04969279 -0.28032205
000130 23 f7 93 be 5c 3d d6 3d 11 d2 04 3d 92 f3 1a be
       -0.28899488 0.10460922 0.032426897 -0.15131977
000140 f0 ba c8 3d b5 c5 34 3e 96 2a 7e 3c 0f 1e 6d 3d
       0.098012805 0.17653544 0.015513083 0.057889994
000150 22 ad c1 bb 46 7b 6b bc 0e d3 ec bc 2c c8 56 3e
       -0.0059105316 -0.014372652 -0.028909232 0.20974797
000160 f3 07 8d 3d fe 73 7d 3e 88 bc 1e be f3 7d aa bd
       0.06886282 0.24751279 -0.15501606 -0.08324804
000170 df f9 44 be ad 04 84 be 9b d9 2c bd 19 aa 00 bd
       -0.19235943 -0.25784817 -0.042199712 -0.031412218
000180 ee 64 b6 bd 21 d9 30 3e a4 63 04 3e d0 4b 58 3e
       -0.089059696 0.17270328 0.12928635 0.2112267
000190 f4 b8 90 3d 21 b2 52 3e 00 ab ad bd 62 b1 89 3c
       0.07066527 0.20575763 -0.08479881 0.016808216
0001a0 35 02 48 3e 26 cf 4c bb cf ad 51 be e2 7a 4a 3e
       0.19532092 -0.00312514 -0.20476459 0.19773439
0001b0 09 59 38 3e b9 af 21 be 22 9b 9f 3d cd 80 44 be
       0.18002714 -0.15789689 0.07793261 -0.19189759
0001c0 76 ef ae 3d 2e 94 2b be 3b 19 ae bc ba 90 af 3d
       0.08541767 -0.16755745 -0.021252265 0.08572526
0001d0 63 de 66 be 91 5c 22 3e 80 33 a0 bd 8c d0 84 bd
       -0.22545771 0.15855624 -0.07822323 -0.0648509
0001e0 9e c1 1f be fb 4f 1e 3e 9f 71 91 3d a1 2d 63 be
       -0.15601203 0.15460198 0.0710175 -0.22185375
0001f0 ab 8a 8a be dd 1f 87 be e2 d0 5b 3e f3 93 54 bd
       -0.2705892 -0.26391497 0.21466401 -0.051898908
000200 c7 bf b2 3c 43 33 75 3e 8a 0c 65 3e 8c 37 3d be
       0.021819962 0.23945336 0.22368065 -0.1847822
000210 9a 0d 2b be ed f9 f3 3d 4b 08 5b bd 41 c7 6b be
       -0.16704407 0.11912904 -0.053474706 -0.23025228
000220 e5 b8 ed bc 6b 21 bc 3d f0 90 ba bd 27 47 4c 3e
       -0.029018829 0.091860615 -0.09109676 0.19949017
000230 ab 35 60 be 31 c2 c1 bd 58 d1 63 3e ce 65 b4 bd
       -0.21895473 -0.09460867 0.22247827 -0.0880848
000240 ab ff 87 3e f9 2f 97 bd 22 d1 23 3e 16 32 4b be
       0.26562247 -0.07382197 0.15997747 -0.19843325
000250 d7 2a 3c be 3a 82 44 be b0 58 47 3d 2c 12 5a 3d
       -0.18375717 -0.19190302 0.048668563 0.053239986
000260 5e db 1b be 97 13 10 be a1 05 16 bc ad e4 8a bd
       -0.152204 -0.14069973 -0.0091566155 -0.06781898
000270 e3 95 39 3c af 0c 35 3d 0c 6a 76 3d cd 74 c9 3d
       0.01132724 0.04420155 0.060159728 0.09836731
000280 05 50 7a 3e 5d ad d4 bd 4b 7a 67 be 45 be 9b 3d
       0.24444588 -0.10384629 -0.22605245 0.076046504
000290 9c bf 46 3e 3a 10 05 3e 9b 59 9c 3d 5c 26 33 3e
       0.1940903 0.12994471 0.076342784 0.17495102
0002a0 ca 9f 22 3d fb 97 35 bd 83 51 b3 bd 90 e1 14 3e
       0.039703168 -0.044334393 -0.087557815 0.1453917
0002b0 59 ae 6e bd ec fd 62 3c 33 92 1e 3e 8b ba 05 3b
       -0.05827174 0.013854485 0.15485458 0.0020405378
0002c0 18 0d 03 be 0a f1 d4 3d 24 e0 53 3d 9f 66 1d 3e
       -0.12797964 0.10397537 0.05172743 0.15371178
0002d0 d1 aa 81 3d 64 d4 88 bc e6 81 08 bd 89 b7 cc bd
       0.06331409 -0.016702838 -0.033327006 -0.09995944
0002e0 92 54 81 bd 4f 57 08 be 8d 2b 96 bd c8 e9 10 3d
       -0.06314959 -0.13314556 -0.073325254 0.0353792
0002f0 da b0 66 3e 15 32 32 be d4 eb 1a bd 58 c4 6a 3e
       0.22528401 -0.17401917 -0.03782256 0.22926462
000300 11 e1 2d 3e b7 5b e3 3d 78 a7 1b be 21 3b 39 3e
       0.16980387 0.111014776 -0.15200603 0.18088962
000310 f0 02 85 be 2e 19 8d bd f1 e1 f8 3d 7f 5d 01 3e
       -0.25978804 -0.06889568 0.1215247 0.12633322
000320 ea 7b 4d 3e 2f 03 cf bd 79 7a 31 be fc 7a 00 be
       0.200668 -0.10108029 -0.17331876 -0.12546915
000330 15 92 4e 3d b8 6c 80 bd b5 2c e6 3c 95 8e 5e 3d
       0.050432283 -0.062707365 0.02809749 0.054335196
000340 56 44 b3 3d 40 f5 05 3e 3e dc be 3d 2d b3 3e 3e
       0.087532684 0.13081837 0.093193516 0.18623038
000350 76 be e6 bd a1 66 0c be 30 3c 86 bd 43 d0 30 3d
       -0.11266796 -0.13711025 -0.065544486 0.043167364
000360 ec 89 2f 3e e3 e9 58 3d 72 83 d5 3d 12 67 dc bd
       0.17142457 0.052957427 0.10425462 -0.107618466
000370 48 d3 00 3c d4 68 4c 3d 2c a7 ff bd db 60 28 be
       0.007862873 0.04990466 -0.124830574 -0.16443197
000380 a5 76 8f 3e ec 19 22 3e 83 07 40 be b6 17 09 bd
       0.28020206 0.15830201 -0.18752865 -0.033469878
000390 e3 a4 c8 ba 5f b0 38 3e 9e 82 cb bd 4b 08 ae bd
       -0.0015307929 0.1803603 -0.099370226 -0.084976755
0003a0 36 8c eb bd 85 7f 29 3e 74 76 04 be 92 a2 90 3c
       -0.115013525 0.16552551 -0.12935811 0.017655645
0003b0 bb b3 20 3e 11 5e ec bb 21 af 93 3e 52 c1 0b be
       0.15693562 -0.007213362 0.2884455 -0.13647965
0003c0 1f 01 02 3d 1f 86 18 3b f3 a9 e7 3d 92 32 46 3e
       0.03173935 0.0023273302 0.11311712 0.19355229
0003d0 fd a1 5a 3e 25 58 5c be 21 27 16 3d 36 83 58 3e
       0.21350856 -0.21518 0.03665841 0.21143803
0003e0 3b 53 ce 3d 4e f3 21 be c4 73 aa bd c5 da 15 be
       0.10074469 -0.1581547 -0.08322862 -0.14634235
0003f0 8e 11 ca bd f1 5d 0c be 93 82 b3 3c 4f eb ce 3d
       -0.098666295 -0.13707711 0.021912849 0.10103475

glu_encoder.rnn.bias_ih_l0 f4 [48]
000000 f3 a4 3e 3e 12 52 5f be 41 0a 19 bd bb d9 d7 3c
       0.1861761 -0.21808651 -0.037363295 0.02634894
000010 80 9a 36 be 1d 89 84 bd 68 88 1f 3c 69 fc c9 bd
       -0.17832375 -0.06471465 0.009737112 -0.098625965
000020 d8 bc c5 3d d2 80 be 3d 06 a4 5d 3c 1c 7a 9e bd
       0.0965516 0.09301914 0.013527876 -0.07738134
000030 7d 70 a5 bd 32 ee d7 3d ce b6 90 bd 38 6b d9 bd
       -0.08078096 0.10543479 -0.07066117 -0.106161535
000040 60 b5 6b 3e 97 bb 66 be ab 72 19 3e 31 36 7a be
       0.23018408 -0.22532497 0.14985149 -0.24434735
000050 2e b0 2c 3e 8c b5 31 be 00 23 36 3e b1 72 b6 bd
       0.16864082 -0.17354411 0.17786789 -0.089085944
000060 08 c1 3f 3c 15 d9 37 3e 1e 67 78 3d c4 73 4a 3e
       0.011703737 0.17953904 0.060645215 0.19770724
000070 4f 62 70 3c 03 0f 5e bc 4b c3 e6 3d e7 36 ba bd
       0.014671876 -0.013553384 0.11267718 -0.09092503
000080 b8 09 68 3e b7 46 34 3e 3f bb 0c be 90 51 38 be
       0.22659957 0.176051 -0.13743304 -0.17999864
000090 5f b1 2b be c3 d2 1f be 7d 78 2d be 62 88 27 be
       -0.1676688 -0.15607743 -0.16940494 -0.1636062
0000a0 47 df 4f bd 81 cd 79 3e 93 49 e4 3c ba 95 07 be
       -0.050750043 0.243948 0.027867114 -0.1324071
0000b0 f7 54 81 3d 60 14 74 be 53 55 95 bd 17 8d ca bd
       0.06315034 -0.23835897 -0.07291665 -0.09890192

glu_encoder.rnn.bias_hh_l0 f4 [48]
000000 ee f1 1c bd 3f 9e 67 3e ef 2a 56 3e 58 c2 88 bd
       -0.03831666 0.2261896 0.20914815 -0.06677693
000010 60 08 0d be c7 02 ba bb 56 73 65 be b7 ec 22 be
       -0.13772726 -0.0056766006 -0.22407278 -0.15910612
000020 6c 81 27 bd d8 35 de bd 98 60 2f 3d 16 92 d0 bb
       -0.04089491 -0.10850114 0.04281673 -0.006365071
000030 dc 76 70 3e 9a a4 29 be 16 a6 99 3d 52 2f fa 3d
       0.23482841 -0.16566697 0.075023815 0.12216057
000040 9c a6 77 bd 81 3e 2a 3e 84 c2 60 3e cc cd 30 3e
       -0.060461625 0.16625406 0.21949202 0.17266005
000050 c2 91 73 be 28 d7 c0 bd 8c 20 e4 3d 1d 84 ea 3d
       -0.23786071 -0.09416038 0.1113902 0.1145098
000060 79 db d9 3d 8f e5 82 be c1 30 1c 3e ab 99 46 3e
       0.10637564 -0.25565764 0.15252973 0.19394557
000070 7d c8 36 3e c7 1a 6b 3e aa 6e c6 3d fb 80 41 3e
       0.17849918 0.22959433 0.09689076 0.18896858
000080 7b 95 b8 3d f7 59 98 bc e4 8a 24 3e 9f 9f eb 3d
       0.09012886 -0.018597586 0.16068608 0.11505055
000090 03 f1 7d be 44 cb f4 bd 4f b8 41 be c6 5d 0e 3e
       -0.2479897 -0.11952832 -0.18917964 0.13902959
0000a0 88 4e 35 3e 84 a7 98 bd 5d c4 9c bd 74 10 38 be
       0.17705739 -0.07453826 -0.07654641 -0.17975026
0000b0 c9 d3 8a be 93 85 60 be 88 f1 35 3d 40 a7 24 be
       -0.27114704 -0.21925955 0.044419795 -0.16079426

glu_encoder.hid2lat.weight f4 [64, 16]
000000 e9 c3 84 be b0 2a 25 be 4f 87 b4 bd 08 13 19 3e
       -0.25930718 -0.16129565 -0.088148706 0.14948666
000010 82 22 28 3d 2c 79 1b 3e 2f 93 14 be 5c 0a 19 3d
       0.041048534 0.15182942 -0.14509271 0.037363395
000020 d8 1e 7f bd 5e 8c 71 be ec 9b 0c be 7b 74 30 bd
       -0.062285274 -0.23588702 -0.13731354 -0.043079834
000030 f4 f2 5c 3e 50 e5 20 be 21 ac 3f be 29 38 24 be
       0.21577054 -0.15712476 -0.18718006 -0.16037048
000040 a1 5f 0b 3e 9a df 15 3e c7 d0 65 be cc b0 c6 3d
       0.13610698 0.14636078 -0.22442923 0.0970169
000050 c6 48 72 3e e6 0c f7 bb f3 4c 4e 3d e5 b7 ae bd
       0.23660573 -0.0075393794 0.050366353 -0.08531169
000060 1b 67 27 3e f5 d0 2b bd 29 1d 32 be 53 23 b5 bd
       0.16347925 -0.041947324 -0.17393936 -0.08844628
000070 c2 fc 0d 3e a0 79 cc 3d fe ae 4a be 7f af 82 bd
       0.1386595 0.09984136 -0.19793317 -0.063811295
000080 ec fe e6 bd 88 8f 81 bc 86 c7 d0 bc 85 3b 83 3e
       -0.11279091 -0.015815511 -0.025485765 0.25631347
000090 1d df 9c bc 78 e2 b7 3d be b4 78 3e 2a 00 5c 3e
       -0.019149357 0.08978742 0.24287698 0.21484438
0000a0 c4 98 11 bd cf 73 80 3e 64 ed 44 be 3f 94 c5 3c
       -0.03554608 0.25088355 -0.19231182 0.02411854
0000b0 ac 85 b4 3d c8 4a db bd 4a 82 f1 3d 21 fb 4e be
       0.088145584 -0.10707623 0.11792429 -0.20212986
0000c0 a5 3b 24 3e 6c 3e e5 bd 87 2c 71 3e 29 bd 98 3d
       0.16038378 -0.11193547 0.23552142 0.074579544
0000d0 12 70 e5 bd fa 2e 39 3e dc a2 08 bb 3d 1e 81 3e
       -0.11203016 0.18084326 -0.0020849025 0.25218382
0000e0 23 3f 34 be f3 bb b1 bd 6c 08 77 be 7f 9e 10 3d
       -0.1760221 -0.086784266 -0.24124306 0.035307404
0000f0 a2 8b a5 3c 3e 9b bb bd c2 57 c7 3c 52 83 d4 bd
       0.020208184 -0.091604695 0.024333838 -0.1037661
000100 66 7e 60 3e 08 d1 02 3e c3 96 5a be 53 c4 9d 3c
       0.21923217 0.12775052 -0.21346574 0.019258654
000110 bd 6a 47 3e 0b 07 54 3e c8 d1 4a 3e df d6 1f bd
       0.19474311 0.20705812 0.19806588 -0.039023276
000120 53 03 e3 3d 7c 23 be bd ae 61 44 3e 0d a8 8d be
       0.110846184 -0.09284112 0.19177887 -0.27667275
000130 3b 92 5d be 94 d0 ef bd 94 d8 cd bd 0e b8 51 3e
       -0.21637814 -0.11709705 -0.100510746 0.20480368
000140 f4 e8 ed bd 08 fe 2f be 0c 65 87 3e 9b 15 7d 3e
       -0.11616698 -0.17186749 0.2644428 0.24715273
000150 ac e7 31 3d 58 96 58 3e 03 26 37 3e 3c b2 5e be
       0.04343383 0.21151102 0.17885594 -0.21747679
000160 d4 37 89 bd ac 20 0a 3e bc 8d f9 bd a9 df 1b 3e
       -0.067001015 0.13489026 -0.12185237 0.15222038
000170 06 d9 d3 bc a3 2e c8 bd 27 63 01 be f6 4b c0 3d
       -0.02586032 -0.0977452 -0.1263548 0.093894884
000180 4e d0 1f 3d 39 24 10 be 63 90 8a 3d c5 f1 46 3e
       0.039017014 -0.14076318 0.06765821 0.19428165
000190 ef 45 87 3d e5 65 36 be 50 85 0c 3e 59 8b 4f 3e
       0.06605136 -0.17812307 0.1372273 0.20268
0001a0 43 4c e0 bd 63 4d 0f 3e ce f8 70 3d 28 a2 e1 3d
       -0.10952046 0.13994364 0.05883103 0.11017257
0001b0 3d 94 c2 bd ed 3b c8 bc bc ea 15 be b2 db 7a bd
       -0.095009305 -0.024442637 -0.14640325 -0.061244674
0001c0 6e cc f4 bd 8b 7b df 3d 8d 99 3b 3e 9e e1 bc bd
       -0.11953054 0.10912236 0.18320294 -0.092227206
0001d0 84 f9 02 bd 09 fa 20 be a0 2a d3 bd 2f 24 1b 3d
       -0.031976238 -0.15720381 -0.103108644 0.037876304
0001e0 78 16 e6 bd 7e 50 ed bd 93 08 88 be f2 03 12 3e
       -0.11234754 -0.11587618 -0.26569042 0.14259318
0001f0 dd 9a 4b 3e 8b 4b 1a 3e 5f e1 fe 3d ae 1f 5b 3e
       0.19883294 0.1506788 0.1244533 0.21398804
000200 ae a8 3c 3d ed 3d ab bd 0e 6c 1e be fa 80 64 3e
       0.046059303 -0.08361421 -0.15470907 0.22314826
000210 4b 90 28 3e 91 3b 44 be d1 5d 3c be e3 16 42 be
       0.16461293 -0.19163348 -0.18395163 -0.18954043
000220 31 3a 59 bd 0a 1c 1c 3e c0 d3 38 3e ba 6d 55 be
       -0.05303401 0.15245071 0.18049526 -0.20842639
000230 f0 ce c2 3c 55 00 5e 3e cc 10 1d be 6e 39 5b 3d
       0.023780316 0.21679814 -0.15338439 0.053521566
000240 09 f7 f1 3c 6c bd 63 be db 71 c6 3d f8 71 22 3d
       0.02953674 -0.22240227 0.09689685 0.03965947
000250 69 79 48 3d d7 d8 37 3e 59 7e f2 bd 29 f7 ab 3d
       0.04894391 0.17953812 -0.11840505 0.083967514
000260 ce b7 27 be 2e 28 eb bd e1 c4 2d bd 0d a3 d6 3d
       -0.1637871 -0.11482273 -0.042424086 0.10480318
000270 56 8a aa bd ef 8e b5 3d c9 34 a9 3d 62 b9 1d 3e
       -0.08327167 0.08865153 0.08262021 0.15402749
000280 9f e3 02 3e bf ae 49 be da da b1 3d c1 57 8a 3e
       0.12782143 -0.19695567 0.08684321 0.27020076
000290 7d 59 25 3e f8 fb 1d 3e e2 52 9f 3d 4c 5a cd bc
       0.16147418 0.1542815 0.077794805 -0.025067471
0002a0 d8 c3 12 3e 44 87 bf bc e4 43 10 be c6 b1 02 be
       0.14332521 -0.02337993 -0.14088398 -0.12763128
0002b0 b8 85 21 be 14 ae 42 bc 20 9d 66 3e 83 c5 9f bd
       -0.15773666 -0.011882324 0.22520876 -0.07801344
0002c0 59 53 0a be 7a 52 26 be 90 9e 30 be de 7c bc 3b
       -0.13508357 -0.162424 -0.17247987 0.00575219
0002d0 41 c2 db 3d b6 a9 4a bd 43 e1 38 3d bc e5 06 be
       0.1073041 -0.049478255 0.0451367 -0.13173574
0002e0 40 b6 64 be f2 cc 58 3e 84 8c 0c 3e d3 82 d3 3c
       -0.22335148 0.2117193 0.13725477 0.025819218
0002f0 e4 8f 75 be 9d 06 19 3d f5 86 81 be 67 71 11 be
       -0.23980671 0.037359823 -0.25298277 -0.14203416
000300 9f 7e 59 3d 88 a8 b3 bd 12 c2 15 3e c3 ea 3c 3e
       0.05309927 -0.08772379 0.14624813 0.1844893
000310 3e 4e 11 be fd f2 47 bd b7 18 82 bd 85 66 25 3e
       -0.14190003 -0.048815716 -0.0635237 0.1615239
000320 a9 df 81 3e 5d ba 5a 3e e4 df 5e 3d d9 55 45 3e
       0.25365952 0.21360154 0.054412737 0.1927103
000330 22 09 15 3e d6 9b 62 be 9c ff 08 3e f6 41 19 be
       0.14554265 -0.22129759 0.13378757 -0.14966568
000340 db 37 c5 bd a9 b8 72 3d c9 13 9a bd f8 66 54 be
       -0.09629794 0.059258137 -0.07523305 -0.20742404
000350 12 53 5e be 55 74 2d be 17 c6 80 be ab a3 12 3e
       -0.21711376 -0.16938908 -0.2515113 0.14320247
000360 97 31 60 3e 6c b9 25 be ba 04 22 3e fb 75 24 3e
       0.21893917 -0.16184014 0.15822116 0.16060631
000370 8a 19 8d bd ab c4 4b 3c a4 93 67 be 3e 2c 5f 3e
       -0.06889637 0.012437026 -0.22614914 0.21794221
000380 fa 28 32 3e 92 24 9a bd 83 90 df 3d b5 c4 78 3b
       0.17398444 -0.075265065 0.10916235 0.0037959043
000390 17 82 22 3c f0 f3 09 3e 09 67 5b 3d a6 9e 8c be
       0.009918711 0.13471961 0.05356506 -0.2746479
0003a0 a1 6f 89 be 48 23 f1 bc 6f e8 88 be cd 1f 3f 3d
       -0.2684298 -0.029435769 -0.26739833 0.046661187
0003b0 f7 08 8b 3c b1 b9 02 3d 33 94 82 be bb d9 26 3e
       0.016972048 0.03191537 -0.25503692 0.16293995
0003c0 81 b2 4a be 57 52 af 3d b5 11 cf bb be 94 39 be
       -0.19794656 0.08560627 -0.0063192495 -0.18123147
0003d0 7c 89 38 3d 64 9f 59 3e 97 bc b9 bc 6f b5 d3 3d
       0.04505299 0.21252209 -0.022672934 0.1033734
0003e0 3b c9 ec bd af 24 58 bc 59 2d f4 3d 09 bf 3b be
       -0.11561819 -0.01319234 0.11922712 -0.18334593
0003f0 01 6f e1 bc 89 51 eb 3b e6 ec c4 bb 5f 99 27 bd
       -0.027518751 0.0071813506 -0.006009686 -0.04091775

glu_encoder.hid2lat.bias f4 [64]
000000 a2 1e b6 3c 09 9c 94 bd 36 74 40 be 36 79 04 3d
       0.022231404 -0.07256324 -0.18794331 0.03234216
000010 e3 52 53 3d cc b8 0d 3d 91 16 45 3e b1 c9 b2 bd
       0.05159272 0.034600064 0.1924689 -0.08729876
000020 2f e6 b3 3c 80 8c 08 3e 0b 94 74 3e 6e e6 dd 3d
       0.021960346 0.13334846 0.23884599 0.108349666
000030 a0 53 6e 3c 36 97 e1 bb 45 ce 30 bc e2 7c 48 be
       0.014546305 -0.006884481 -0.010791366 -0.19578889
000040 b4 d1 2e bd 34 24 7f 3d 14 d8 0a 3c 0a 83 63 3e
       -0.042680457 0.062290385 0.008474369 0.22217956
000050 bf ac 9b bd 72 b2 47 3e 0f f7 ea 3d a7 cc 9e 3d
       -0.07601308 0.19501665 0.11472904 0.07753878
000060 30 65 20 3e 4c dd b5 3d cf b1 8e 3d de e0 c1 3c
       0.156636 0.088801 0.06967508 0.023666795
000070 56 9d 1d be 10 fb 5c 3e 63 5c 20 be 7d 59 1f bd
       -0.1539205 0.21580148 -0.15660243 -0.038903702
000080 aa d2 72 be 0b 85 84 be c0 6c 3d 3e b2 8d f6 bd
       -0.23713174 -0.25882754 0.18498516 -0.12038745
000090 7d 3a 65 3e 03 e4 54 bd bd 93 57 be ce b2 df bd
       0.22385593 -0.05197526 -0.21052451 -0.10922776
0000a0 62 25 22 bd 1f 4b e4 3b be b6 11 3e 66 8f 85 3c
       -0.039586432 0.006966963 0.14229867 0.01630373
0000b0 91 3a 88 3e 5a 03 05 3e 5e 74 e3 3d 6e 34 50 3e
       0.26607183 0.1298956 0.1110618 0.203325
0000c0 b0 65 28 be 1c e6 80 3c c7 51 4e 3e 0f 1b 5e 3e
       -0.1644504 0.015734725 0.20148383 0.2169001
0000d0 58 6a 8e 3c 3d d6 cc bd 57 8e 45 3d 41 01 79 bd
       0.017384693 -0.100018 0.04823145 -0.06079221
0000e0 00 61 84 be 2a 8d 48 be ff 2a 80 be d1 79 56 bd
       -0.25855255 -0.195851 -0.25032803 -0.052362267
0000f0 d8 17 5b be 95 00 fa bc ac 0f 2a 3d f1 48 39 3e
       -0.21395814 -0.030517856 0.041518852 0.18094231
