code/baseline/saved/GAMNet_learning_rate_0.0001_hidden_size_64_epoch_6000_batch_size_32/Epoch_1500_JA_0.6530_DDI_0.0989.model (torch, 455805 bytes, 29 tensors)

lab_embeddings f4 [32, 64]
0	0x3ea109ce	0.31452793
1	0x3ded465a	0.11585684
2	0xbf38a307	-0.7212376
3	0xbfd27993	-1.6443352
4	0xbf2c6762	-0.6734525
5	0xbfbce7bc	-1.475822
6	0x3f94cb3d	1.1624523
7	0x3efa0a3e	0.4883594
8	0x3f3595cf	0.70931715
9	0x3f0de71a	0.5543076
10	0xbfdeb4fa	-1.739898
11	0xbfae3042	-1.3608477
12	0x3f000fe4	0.5002425
13	0xbedeb1ae	-0.43494934
14	0x3f287013	0.6579601
15	0x3ff9a954	1.95048
16	0x3f29bc27	0.6630272
17	0x3e371a8f	0.17881225
18	0x3eb64c01	0.3560486
19	0x3efa5e81	0.48900226
20	0x3e6f83ab	0.23390071
21	0xbf484bef	-0.78240865
22	0xbf8c74a3	-1.0973095
23	0xbf6f6f09	-0.935288
24	0xbf242412	-0.6411754
25	0xbf8366fc	-1.0265803
26	0x3f336981	0.7008286
27	0xc014f998	-2.327734
28	0xbebc1378	-0.36733603
29	0x3f516e0d	0.8180855
30	0x3fb60a10	1.4221821
31	0x3ec2fd11	0.380837
32	0xc00ab45f	-2.167259
33	0x3fd96b0b	1.6985792
34	0xbe7f07a0	-0.24905252
35	0xbff27037	-1.8940495
36	0xbee40530	-0.44535208
37	0xbf218a60	-0.6310177
38	0xbf90961f	-1.1295813
39	0xbf69670c	-0.9117286
40	0x3efdb0cc	0.49548948
41	0x3ed2dbc9	0.41183308
42	0x3f74a033	0.95556945
43	0xbee0b43d	-0.4388751
44	0x3eb8f515	0.36124483
45	0x3f638669	0.8887697
46	0x400f3ee9	2.2382147
47	0x3f0a0863	0.5391905
48	0xbe9fb9ca	-0.31196433
49	0xbed210c8	-0.41028428
50	0x3e8658c7	0.26239607
51	0xbf05cc3b	-0.52264756
52	0xbf4151aa	-0.75515234
53	0x3e4c52da	0.1995348
54	0xbf20f9f0	-0.62881374
55	0x3f3f30bb	0.7468373
56	0xbe883c7e	-0.26608652
57	0xbe647bb3	-0.22312813
58	0x40212cb7	2.5183542
59	0xbf131a0c	-0.5746162
60	0x3d8f5935	0.06999437
61	0x3eb062d6	0.34450406
62	0x3fea8af2	1.8323653
63	0x3d1c24e1	0.038121108
64	0xbe1bd978	-0.15219676
65	0xbf252df6	-0.64523256
66	0xbed100fe	-0.4082107
67	0xbdbbaff4	-0.0916442
68	0x3e580e24	0.21099144
69	0x3f12f7c4	0.5740931
70	0x3fed69b2	1.8547881
71	0x3e9694eb	0.2941049
72	0xbf8641cb	-1.0488828
73	0xbfa0952f	-1.2545527
74	0xbfa633b5	-1.298453
75	0x3d8377d3	0.06419339
76	0xbfc1440c	-1.5098891
77	0xbf8aa8a3	-1.0832714
78	0x3f59674c	0.84923244
79	0xbf6cf1b3	-0.92556304
80	0xbe319bdd	-0.17344613
81	0x3f144eb1	0.57932574
82	0x3fbb2e97	1.4623593
83	0x3f99c9a3	1.201466
84	0x3ec368e9	0.38165978
85	0xbf068c9f	-0.5255832
86	0x3e3b7803	0.183075
87	0x4013b019	2.3076231
88	0xbce313c6	-0.02771939
89	0x3f82cf94	1.0219598
90	0x3eb12099	0.34595183
91	0x3f75e58a	0.96053374
92	0x3d12f383	0.035876762
93	0x3fed1487	1.852189
94	0x3f5ea983	0.86977404
95	0x3de88d36	0.11355059
96	0xbf44b95b	-0.7684533
97	0xbfb4ade5	-1.4115568
98	0xbefe9e12	-0.49729973
99	0x3f057db6	0.52144945
100	0x3fa22690	1.2668018
101	0xbea05764	-0.31316674
102	0x3e4cd66f	0.20003675
103	0x3eadb251	0.33925107
104	0x3edd0c24	0.43173325
105	0xbf98b46e	-1.1930063
106	0x3f355e19	0.70846707
107	0x3f2a27d5	0.6646703
108	0x3fcbd758	1.5925093
109	0xbe86f431	-0.26358178
110	0xbff8d8d6	-1.9441173
111	0xbf2169ee	-0.6305226
112	0x3f300634	0.68759465
113	0xbfd1fb3b	-1.6404794
114	0x3f401d89	0.7504507
115	0x3f164e50	0.58713245
116	0x3f112407	0.566956
117	0xbeeb326a	-0.459369
118	0xbf9c6c41	-1.2220536
119	0xbf4742f8	-0.7783656
120	0xbff817a9	-1.938222
121	0x4052794c	3.2886534
122	0x3e3c71cf	0.1840279
123	0x3ec428eb	0.38312468
124	0x3f35c20e	0.7099923
125	0x3f744c3d	0.9542883
126	0xc00b72fc	-2.178893
127	0x3fb01e71	1.375929
128	0xbf5e93b1	-0.8694411
129	0xbe85d4e5	-0.26138988
130	0x3fcf7d36	1.6210086
131	0xbe35741a	-0.1772007
132	0x3e7fcab1	0.24979664
133	0xbf7df858	-0.9920707
134	0xbf791fc8	-0.9731412
135	0xbf3e5e2a	-0.7436243
136	0xbf559c81	-0.8344193
137	0x3f638497	0.8887419
138	0xbc210bff	-0.00982952
139	0x3f9ba357	1.2159222
140	0xbea43b36	-0.32076424
141	0x3f17190a	0.5902258
142	0xbef35907	-0.4752886
143	0x4008c0a8	2.1367588
144	0xbf501cdb	-0.8129403
145	0x3e5548a6	0.20828494
146	0x3f4d0a01	0.8009339
147	0xbec3cd46	-0.3824255
148	0xbf4afea6	-0.7929481
149	0x3f0a46ca	0.54014266
150	0x3fc4f129	1.5386096
151	0xbc259969	-0.010107377
152	0xbfaded8e	-1.3588121
153	0xbe6f25de	-0.23354289
154	0xbf1ac0fd	-0.60450727
155	0xbf4581e3	-0.77151316
156	0x3ebe66d9	0.37187842
157	0xbe87595a	-0.26435357
158	0xbe188ab7	-0.14896666
159	0x3f410166	0.7539276
160	0xbf4efdf8	-0.80856276
161	0x3fb1c426	1.3887985
162	0x3ea220a1	0.3166552
163	0x3f030abf	0.5118827
164	0x3f3ba80b	0.7330329
165	0x3ebd5551	0.36979154
166	0xbb9a8686	-0.0047157435
167	0x3fb81cf5	1.4383837
168	0x40008203	2.0079353
169	0xbe53dd5a	-0.20689908
170	0x3ed0d305	0.40785995
171	0xbe39d186	-0.18146333
172	0x3f9fd5b4	1.2487092
173	0xbe9b4a66	-0.303302
174	0xbee0faeb	-0.43941435
175	0xbf3348e1	-0.7003308
176	0xbebdc24c	-0.370623
177	0x3e9823de	0.29714864
178	0xbf82ff24	-1.0234113
179	0x3eb52515	0.35379854
180	0xbfb48897	-1.4104184
181	0x3eb7ce85	0.3589975
182	0x3d88ff6f	0.06689345
183	0xbfdb418e	-1.7129381
184	0xbc94c8e5	-0.0181622
185	0x3f512d8d	0.8171013
186	0x3e824691	0.25444463
187	0xbd131547	-0.035908964
188	0x3ecb5072	0.39709812
189	0xbfb076bb	-1.3786234
190	0xbf5fb85f	-0.873907
191	0xbf0291d5	-0.5100377
192	0xbd690737	-0.056891646
193	0xbf1f1348	-0.62138796
194	0x3f6785d3	0.90438575
195	0xbf8a31e2	-1.0796473
196	0xbdf2fdbc	-0.11864802
197	0xc000d2e3	-2.0128715
198	0xbfb89b86	-1.4422462
199	0x3e2abbb1	0.16673161
200	0x3e8663fa	0.2624815
201	0x3f99b71d	1.2009007
202	0xbeec103d	-0.4610614
203	0xbf8441fb	-1.0332636
204	0x3f594a43	0.8487894
205	0x3ffb4a18	1.9631987
206	0x3e633466	0.22187957
207	0xbdad5b74	-0.08464709
208	0x3e829950	0.25507593
209	0x3f12f564	0.57405686
210	0xbe8a8d24	-0.27060807
211	0x3d662553	0.05618794
212	0x3e7dfa90	0.24802613
213	0xbfac05d6	-1.3439281
214	0xc0204151	-2.5039866
215	0xbec3c5e7	-0.38236925
216	0xbf1c5b50	-0.6107683
217	0xbd72d62a	-0.059286274
218	0x400ff102	2.249085
219	0xbfe3c93e	-1.7795789
220	0x3f117eff	0.56834406
221	0x3d600360	0.05469072
222	0xbe8fd289	-0.28090313
223	0x3eccce7c	0.40001285
224	0x3e749ec7	0.23888694
225	0x3f9d5cdf	1.2293967
226	0x3f785557	0.9700522
227	0xbfa1d411	-1.2642843
228	0x3f07e6b2	0.5308639
229	0xbd4cc559	-0.049992893
230	0x3ff6645b	1.9249376
231	0xc004b574	-2.073575
232	0x3f4205ca	0.75790083
233	0x3ea17f46	0.31542414
234	0xbd2b8f56	-0.041884743
235	0xbeccbe1d	-0.39988795
236	0xbf42ca82	-0.7609025
237	0x3f161c35	0.5863679
238	0xbf9791a0	-1.1841316
239	0x3f59ea6b	0.8512332
240	0xbf269eab	-0.6508586
241	0xbfa630b7	-1.2983617
242	0x3f007be2	0.5018903
243	0x3f63f82d	0.8905056
244	0x3fade261	1.358471
245	0x3efd1263	0.4942809
246	0xbff1e172	-1.8896925
247	0x3f3a75f8	0.72836256
248	0x3f1e999c	0.6195314
249	0x3fb81723	1.4382061
250	0xbf64ddf4	-0.89401174
251	0x3f33dfba	0.70263255
252	0x3f8f2a9b	1.1184877
253	0xbe53b2fc	-0.20673746
254	0x3f2339bc	0.6375997
255	0x400b295c	2.1743994

static_ll.0.weight f4 [128, 64]
0	0x3dcc6b9f	0.099814646
1	0xbdb2c948	-0.087297976
2	0xbdea0641	-0.11426974
3	0xbe0646d3	-0.13112955
4	0x3d8316ab	0.06400808
5	0xbd94dbf8	-0.07268518
6	0xbde75082	-0.112946525
7	0x3d03953d	0.032124747
8	0x3d839538	0.064249456
9	0xbd7f34ce	-0.062306218
10	0xbd3345ff	-0.043767925
11	0xbd8c9751	-0.06864799
12	0x3e1d0a53	0.1533597
13	0xbd7771da	-0.06041131
14	0x3c11f6e7	0.008908964
15	0xbdabf6be	-0.08396672
16	0xbe08c138	-0.13354957
17	0x3dd0bea8	0.10192615
18	0xbd7efd41	-0.06225324
19	0xbdf8888b	-0.121354185
20	0xbd25da46	-0.040491365
21	0xbd93a261	-0.07208706
22	0xbe143237	-0.1447228
23	0xbddf2347	-0.108954005
24	0x3de45052	0.111481324
25	0xbc245a25	-0.010031258
26	0x3d2deb33	0.04246063
27	0xbde29afe	-0.11064719
28	0x3d693f30	0.056945026
29	0xbd988010	-0.07446301
30	0x3d97bfdd	0.07409642
31	0x3df6a7f7	0.120437555
32	0x3dc7e37f	0.09760188
33	0x3dc94d3a	0.09829183
34	0xbbfb20ad	-0.0076638074
35	0xbdfc5a7f	-0.12321948
36	0x3d51c642	0.051214464
37	0x3d82d2eb	0.06387886
38	0x3d2f1097	0.04274043
39	0xbd294b49	-0.041331563
40	0x3c36625c	0.011131849
41	0x3da7cedf	0.081937544
42	0x3d963aa2	0.07335402
43	0x3d005062	0.03132666
44	0xbd96c83d	-0.07362411
45	0x3d72214b	0.059113782
46	0xbd2b79b8	-0.041864127
47	0xbd822a4d	-0.063557245
48	0xbd3bafbb	-0.045821887
49	0xbdfea356	-0.124334976
50	0x3e05ba6b	0.13059394
51	0x3e0bd5d6	0.1365579
52	0x3d2e03c6	0.042484067
53	0xbc5fcba0	-0.013659388
54	0xbd35e6be	-0.044409506
55	0xbe02279d	-0.12710424
56	0x3ca3d096	0.019996922
57	0x3c05249c	0.008126404
58	0xbd1d40a0	-0.03839171
59	0x3cef718a	0.029228944
60	0xbe052024	-0.13000542
61	0xbde1ab80	-0.11019039
62	0xbd20b242	-0.0392325
63	0xbcc0a9cb	-0.023518464
64	0x3b1bfb4a	0.0023800903
65	0x3df56943	0.11982968
66	0xbdbe3e88	-0.09289271
67	0x3dcee34f	0.101019494
68	0xbc8484b5	-0.01617656
69	0xbdc33388	-0.09531313
70	0x3dad4a01	0.08461381
71	0xbd950542	-0.072763935
72	0xbda6ad61	-0.08138538
73	0x3d3c92b7	0.046038356
74	0xbd0964a3	-0.03354324
75	0x3db6d07f	0.08926486
76	0xbd49d192	-0.049272127
77	0x3c1627c4	0.009164754
78	0x3d37c09d	0.044861425
79	0xbda134e4	-0.07871416
80	0xbdd830c0	-0.10556173
81	0xbdb448a2	-0.08802916
82	0xbb639233	-0.0034724593
83	0x3dc198ff	0.0945301
84	0x3dd88db3	0.10573902
85	0x3d844918	0.06459254
86	0x3d64858e	0.05579143
87	0x3bfae1f0	0.0076563284
88	0x3db86f83	0.09005644
89	0x3d1fb0c6	0.038986944
90	0x3dc678ee	0.09691034
91	0x3e030be1	0.127975
92	0x3de749a5	0.112933435
93	0x3dfd7d23	0.123773836
94	0x3c751d92	0.014960663
95	0xbdee5b18	-0.116384685
96	0xbdfc833a	-0.12329717
97	0xbdca8e64	-0.0989044
98	0x3d461b9c	0.048366174
99	0xbd4b7ce2	-0.049679644
100	0xbd35c3d5	-0.044376213
101	0x3df0e7c0	0.11762953
102	0xbd91fe86	-0.071286246
103	0x3de03270	0.1094712
104	0xbd8e6c8c	-0.069542974
105	0xbdc35276	-0.095372126
106	0x3e049bd6	0.12950072
107	0xbded7da5	-0.115962304
108	0xbda572b0	-0.080785155
109	0xbbd71586	-0.006563845
110	0xbcb4a75e	-0.022052463
111	0xbd3276af	-0.043570217
112	0xbd765f70	-0.06014961
113	0x3d0056d0	0.03133279
114	0x3e098ca7	0.13432561
115	0x3ca8107d	0.020515675
116	0xbdfc2e66	-0.12313537
117	0xbcf923f3	-0.03041265
118	0xbdbeb14a	-0.09311159
119	0x3c915596	0.017741006
120	0xbd96dd7a	-0.07366462
121	0x3dfd37c3	0.12364151
122	0xbc2aaea5	-0.010417615
123	0x3dc55fe3	0.096374296
124	0xbc8a189e	-0.016857442
125	0x3d8c94d6	0.06864326
126	0xbdf75ed4	-0.12078634
127	0x3dd51fe2	0.10406472
128	0x3daadc2d	0.083427764
129	0xbc0eb290	-0.008709565
130	0xbc0c5a75	-0.0085664885
131	0x3ba18732	0.0049294466
132	0x3dc8272c	0.097730964
133	0xbe13f83e	-0.14450166
134	0xbdd779dd	-0.105212905
135	0xbcac46c9	-0.021029847
136	0xbdbcc4c7	-0.0921722
137	0xbcd0b436	-0.025476556
138	0xbdaf7ce1	-0.08568741
139	0xbe08bc12	-0.13352993
140	0xbc028bba	-0.007967884
141	0xbdbc30cd	-0.091889955
142	0xbdd3fa55	-0.103504814
143	0xbc8865e1	-0.016650142
144	0xbd9ef61b	-0.07761785
145	0x3dda3f52	0.10656609
146	0xbd2d6fa7	-0.042342808
147	0xbdeb407d	-0.114869095
148	0x3d8a935d	0.067663886
149	0xbd5a13bc	-0.053241476
150	0xbd09f775	-0.03368326
151	0x3d114010	0.035461485
152	0xbd78365f	-0.060598727
153	0xbdd25b5e	-0.10271333
154	0xbdbc98fd	-0.09208868
155	0xbd80f7e7	-0.062972836
156	0xbd9a15f0	-0.075237155
157	0x3d968538	0.07349628
158	0x3d5ceadc	0.053934917
159	0xbcae0505	-0.021242628
160	0xbe0523f9	-0.13002004
161	0x3d9fe4e3	0.078073286
162	0x3cbf0976	0.023319941
163	0x3cedd33a	0.029031385
164	0x3d5e4c8a	0.054272212
165	0xbbecf33d	-0.0072311447
166	0x3d1bdad1	0.038050476
167	0xbc64e2f6	-0.013970127
168	0xbcd6609a	-0.02616911
169	0xbdb25aaa	-0.08708699
170	0x3db7bbac	0.089713424
171	0xbd86ac0b	-0.06575783
172	0x3e047793	0.12936239
173	0x3dceb7fc	0.10093686
174	0x3dfeb45a	0.12436743
175	0xbd628aa5	-0.055308003
176	0xbdc7a58e	-0.09748374
177	0xbcc04b54	-0.02347342
178	0x3dc644e1	0.09681106
179	0x3d98d494	0.07462421
180	0xbc1b78f1	-0.009489284
181	0x3def7921	0.116930254
182	0x3db070bb	0.08615252
183	0xbd2c8b86	-0.042125247
184	0x3c3b2528	0.011422433
185	0xbae6e62d	-0.0017616205
186	0x3cbbaa4c	0.022908352
187	0xbda878a6	-0.08226137
188	0x3e035cee	0.12828419
189	0x3dab5407	0.08365636
190	0x3ca31947	0.019909514
191	0xbd8e8e37	-0.06960719
192	0xbdda5299	-0.106602855
193	0xbd630b71	-0.055430833
194	0xbd0f7cda	-0.035031177
195	0xbcaea5ed	-0.021319354
196	0x3df6e040	0.12054491
197	0x3de69081	0.11258031
198	0xbdfe6ed2	-0.12423481
199	0x3d993c19	0.07482166
200	0xbdc0f208	-0.09421164
201	0x3dc05857	0.093918495
202	0x3d876be5	0.06612376
203	0xb8ae918b	-8.324076e-05
204	0x3db03ddc	0.08605549
205	0x3d624634	0.055242732
206	0x3d33c7cf	0.043891724
207	0x3d393c61	0.045223597
208	0x3db10e08	0.086452544
209	0xbc4b5a01	-0.012411595
210	0x3bc9e39b	0.006161166
211	0x3d5a8464	0.053348914
212	0x3dbd681d	0.09248374
213	0x3dbb2755	0.09138361
214	0xbd221b2a	-0.039576687
215	0xbd3e6edc	-0.046492442
216	0x3dc5daf1	0.096609004
217	0xbcc9db02	-0.024640564
218	0xbe0d1640	-0.13778019
219	0x3cce99b5	0.025219778
220	0x3ccfcbdd	0.025365764
221	0xbcab38bd	-0.020901078
222	0x3cb83dc1	0.022490384
223	0x3d675b1c	0.056483373
224	0x3c7f7ec4	0.015594188
225	0xbdb1a789	-0.08674533
226	0xbc9f136a	-0.019418437
227	0x3d742796	0.059608065
228	0xbd118aeb	-0.035532873
229	0xbd851b8c	-0.06499395
230	0xbdf2a5ae	-0.11848007
231	0x3d2eedf1	0.042707387
232	0x3dedea7a	0.116169885
233	0xbe0b1c31	-0.13584973
234	0xbddeb85f	-0.1087501
235	0x3dc22bc4	0.09481004
236	0xbd2a6a0b	-0.041605037
237	0xbd724d15	-0.059155542
238	0x3dc936e1	0.098249204
239	0xbdbd226e	-0.092350826
240	0x3c668975	0.014070858
241	0x3d57da7c	0.052698597
242	0xbe072027	-0.13195859
243	0xbcdff74d	-0.027339602
244	0x3dfb166c	0.12260136
245	0xbdb1ed7a	-0.08687873
246	0xbcc4c59f	-0.024020014
247	0xbd8b2544	-0.06794217
248	0x3c84d363	0.016214078
249	0xbd814fc5	-0.06314043
250	0x3be7a062	0.0070686797
251	0xbd9d641a	-0.076851085
252	0xbda7c3eb	-0.08191665
253	0xbda9c041	-0.08288623
254	0xbd70b9fa	-0.05877111
255	0xbca5e5bb	-0.020251146

static_ll.0.bias f4 [128]
0	0x3ddcad25	0.10775212
1	0xbdb91aa7	-0.09038287
2	0x3c371f1f	0.011176853
3	0xbd86cd3f	-0.06582116
4	0x3de25ddb	0.11053058
5	0x3da693f7	0.08133691
6	0xbdafa106	-0.08575635
7	0x3dbe4f78	0.09292501
8	0x3cbd580e	0.023113277
9	0x3e0a1461	0.13484336
10	0x3e0913c8	0.13386452
11	0xbd8661f3	-0.06561651
12	0xbd0d67e8	-0.03452292
13	0x3dbfd3d6	0.093665764
14	0x3ba9d25f	0.005182549
15	0x3de9ba71	0.11412514
16	0x3dfda562	0.1238506
17	0xbd91348b	-0.070901
18	0x3ce3e2fd	0.027818197
19	0x3d8f7485	0.07004646
20	0x3db56ca7	0.088586144
21	0x39017d4b	0.00012349074
22	0x3d9c688a	0.07637127
23	0x3e167eac	0.14696759
24	0x3ddc5c2a	0.107597664
25	0x3d9d7f0d	0.07690249
26	0xbd4d3bde	-0.050105922
27	0xbdb6efa7	-0.08932429
28	0xbd917107	-0.071016364
29	0x3dea4604	0.11439136
30	0xbccaa968	-0.024738982
31	0xbd858570	-0.06519592
32	0xbbc70f54	-0.0060748253
33	0x3da5fd7d	0.0810499
34	0x3dd1358b	0.10215291
35	0xbda1257b	-0.07868477
36	0x3dcefac9	0.10106427
37	0x3de912aa	0.11380513
38	0x3c5346f8	0.012895338
39	0x3d5528cb	0.052040856
40	0x3c6f5a14	0.014608879
41	0xbd07cc49	-0.033153806
42	0xbcca7c2d	-0.024717415
43	0xbdb344b6	-0.0875334
44	0x3b02be95	0.0019950022
45	0xbd2aa8e4	-0.041664973
46	0xbd46b644	-0.048513666
47	0xbd340338	-0.043948382
48	0xbd1d8ac7	-0.038462427
49	0x3de11da7	0.10991984
50	0x3dd8a3e6	0.10578136
51	0x3cd7f2df	0.026360927
52	0x3d04c013	0.03240974
53	0x3e0477f6	0.12936386
54	0xbd26e73e	-0.040747873
55	0x3d711d24	0.05886568
56	0x3e0eb83f	0.13937472
57	0x3dd2a953	0.10286202
58	0xbdd29a70	-0.10283363
59	0xbda3d670	-0.07999885
60	0xbcbdb940	-0.023159623
61	0x3de698df	0.112596266
62	0xbd6e5093	-0.05818231
63	0xbd97d888	-0.07414347
64	0xbd5f0f95	-0.05445822
65	0xbd69de68	-0.05709687
66	0x3d060e04	0.03272821
67	0xbda2d46e	-0.07950674
68	0xbc5a684f	-0.013330533
69	0xbc5dd231	-0.013538883
70	0x3d554bfd	0.05207442
71	0x3da57076	0.08078091
72	0xbc073add	-0.00825378
73	0xbca71e19	-0.020400094
74	0xbd83367a	-0.06406875
75	0xb9dcd7c9	-0.00042122442
76	0x3c49f2c2	0.012325944
77	0x3c05b1f7	0.008160106
78	0xbd28d215	-0.041215975
79	0xbc20e71c	-0.009820726
80	0x3ba753be	0.0051064184
81	0x3db4f571	0.08835877
82	0xbdbc5d9f	-0.09197544
83	0x3c3efc4d	0.011656833
84	0xbd9c713f	-0.076387875
85	0xbc304263	-0.010758015
86	0xbd923fbb	-0.07141062
87	0x3d349af3	0.044093084
88	0x3e0ba7b6	0.13638195
89	0xbd93b007	-0.07211309
90	0x3dc49761	0.09599186
91	0xbd08a8f9	-0.03336427
92	0xbdd7c531	-0.10535658
93	0x3c96e7b9	0.01842104
94	0xbbe9c026	-0.0071335016
95	0xbc29ed56	-0.010371527
96	0xbd8b0e3c	-0.06789824
97	0x3d92e426	0.07172422
98	0x3a874451	0.0010320042
99	0xbbcc3010	-0.0062313154
100	0x3df21bed	0.11821733
101	0xbd8c8cd4	-0.06862798
102	0x3d6d255d	0.05789696
103	0xbd57db21	-0.052699212
104	0xbdacb5c0	-0.084331036
105	0xbd5a3a3d	-0.053278197
106	0x3de6835c	0.112555236
107	0x3dcdb105	0.100435294
108	0x3d648b45	0.05579688
109	0x3d2ef96b	0.042718332
110	0x3d3ec22e	0.046571903
111	0xbccf81e0	-0.025330484
112	0x3dfab593	0.12241664
113	0xbda8c1be	-0.082400784
114	0x3d8f003b	0.06982466
115	0xbd1fb812	-0.038993903
116	0x3d3592c0	0.044329405
117	0x3d8736f4	0.06602278
118	0x3d57a236	0.05264493
119	0xbdc9b938	-0.09849781
120	0x3d88aa11	0.066730626
121	0xbca5c843	-0.020237094
122	0x3dbee9ae	0.093219146
123	0xbd781869	-0.060570154
124	0x3d74a507	0.059727695
125	0xbe02e910	-0.12784219
126	0x3def6cc7	0.116906695
127	0x3cd5054a	0.026003499

static_ll.2.weight f4 [64, 128]
0	0x3d1f180a	0.038841285
1	0xbd6a76fe	-0.057242386
2	0x3d80f41f	0.062965624
3	0x3d5dc87a	0.054146267
4	0x3d9e8642	0.077404514
5	0x3c9c0893	0.019047057
6	0xbd3011c8	-0.042985708
7	0xbcf24fd6	-0.029579084
8	0xbd9b18af	-0.075730674
9	0x3cea3561	0.028589906
10	0xbc89b3b5	-0.016809324
11	0x3b8ae243	0.0042383983
12	0xbc904626	-0.017611574
13	0x3c46e80e	0.012140287
14	0x3cd3ee9c	0.025870614
15	0x3d8b6e5a	0.06808157
16	0x3d42ea77	0.047586884
17	0xbd804d43	-0.062647365
18	0xbd0340b7	-0.03204414
19	0xbd75faa2	-0.060053475
20	0xbd49234a	-0.04910592
21	0x3d9a1e12	0.07525267
22	0x3d61738a	0.055041827
23	0x3d0d8760	0.03455293
24	0x3b69798d	0.0035625428
25	0x3da129f9	0.07869334
26	0xbd28b0b9	-0.04118416
27	0xbc407715	-0.011747141
28	0x3bfb4a0c	0.007668739
29	0xbbee7b84	-0.007277908
30	0x3c92423e	0.017853852
31	0xbdb2dbfe	-0.087333664
32	0x3dc1e3cf	0.09467279
33	0xbd42f6b4	-0.047598556
34	0xbc3b2299	-0.011421823
35	0xbd9283a7	-0.07154017
36	0x3d8e46a6	0.06947069
37	0x3d244cd9	0.04011235
38	0xbc2154c1	-0.009846867
39	0x3cd0dc82	0.025495771
40	0xbd128bc2	-0.035777815
41	0x3cf430a1	0.029808344
42	0x3c7ee15e	0.015556661
43	0x3d7cb081	0.061691765
44	0x3d13da53	0.036096882
45	0xbd736e7a	-0.05943153
46	0x3d491676	0.049093686
47	0x3d6b0ca0	0.057385087
48	0x3d343da2	0.04400409
49	0xbc0e3571	-0.008679734
50	0xbcac1bc8	-0.02100934
51	0xbd962821	-0.07331873
52	0xbb08809c	-0.002082861
53	0x3dbec2fd	0.09314535
54	0xbd28626c	-0.041109487
55	0x3d9e5df0	0.07732761
56	0x3d08a324	0.033358708
57	0xbd9ceabf	-0.07661962
58	0xbd7c0a9b	-0.06153355
59	0x3d525f65	0.051360507
60	0x3db54b5c	0.08852264
61	0x3da02ae5	0.078206815
62	0x3b6cb3fa	0.0036118017
63	0x3b8a93ac	0.0042290296
64	0x3bbfe486	0.0058560995
65	0xbcabc83a	-0.020969499
66	0x3db8926d	0.090123035
67	0xbd3cf049	-0.04612759
68	0xbcb3a75f	-0.021930395
69	0x3d653115	0.05595501
70	0xbbf0e322	-0.007351295
71	0xbd97329c	-0.073827
72	0x3d039292	0.032122202
73	0x3c15b1a8	0.009136595
74	0x3c19d222	0.0093884785
75	0xbce5d7b8	-0.028056964
76	0xbd87b523	-0.06626346
77	0xbcc5f771	-0.02416584
78	0x3d248367	0.040164378
79	0xbc8b6c4d	-0.017019415
80	0x3d0b13bb	0.033954363
81	0x3d9c29ca	0.07625158
82	0x3d437588	0.04771951
83	0x3ae24f32	0.0017266034
84	0x3913eb36	0.00014106635
85	0xbc22fc30	-0.0099478215
86	0xbd8af6dc	-0.06785366
87	0x3b9bce6b	0.0047548315
88	0x3bbc575b	0.0057477183
89	0xbd293a33	-0.04131527
90	0xbd808f65	-0.0627735
91	0xbd83cc4f	-0.06435453
92	0x3d3b6576	0.045751058
93	0x3d88a6d3	0.06672444
94	0xbd0d8391	-0.0345493
95	0xbd8cb344	-0.0687013
96	0x3b2c7bae	0.0026318836
97	0x3d0513be	0.03248953
98	0x3d811f4f	0.063048
99	0x3d9bdb9b	0.07610246
100	0x3ca68f21	0.020331921
101	0x3d623500	0.055226326
102	0x3d2297fe	0.039695732
103	0x3dab460d	0.083629705
104	0x3d36a095	0.044586737
105	0xbd5731e4	-0.052537814
106	0x3d9ba4ce	0.075997934
107	0x3cb38cb1	0.021917673
108	0x3cbee800	0.023303986
109	0x3d9c2404	0.07624057
110	0xbd0a2829	-0.033729706
111	0xbd807f80	-0.06274319
112	0xbc672796	-0.014108559
113	0x3d4a71c4	0.0494249
114	0xbcc4cf68	-0.02402468
115	0x3db4c74c	0.08827075
116	0x3dcce068	0.100037396
117	0xba1a6c81	-0.0005890802
118	0xbc777025	-0.015102421
119	0xbcbe6a1e	-0.02324396
120	0xbd2024ba	-0.039097525
121	0x3d35f104	0.044419304
122	0x3d90ba16	0.07066743
123	0xbd6d8156	-0.057984672
124	0x3cfb0fc2	0.030647162
125	0x3ca93ef6	0.020659905
126	0x3d9f4152	0.07776131
127	0x3cefaa34	0.029255964
128	0x3d1a6d75	0.037702043
129	0xbcc1e323	-0.023667878
130	0x3cfd36ac	0.030909859
131	0xbc59fd03	-0.013304952
132	0x3d30ecbd	0.04319452
133	0xbd67d5f4	-0.056600526
134	0x3d61fa4b	0.05517034
135	0x3db004aa	0.085946396
136	0x3c9e7f5d	0.01934784
137	0xbbec980b	-0.0072202734
138	0x3d462776	0.048377477
139	0x3de9d239	0.1141705
140	0xb9e1b591	-0.00043050622
141	0x3d62bef2	0.05535788
142	0xbd0480ad	-0.032349277
143	0x3d9d6851	0.076859124
144	0xbcd4b350	-0.02596441
145	0xbcb8cf3a	-0.02255975
146	0x3d308091	0.04309136
147	0x3d50569d	0.05086385
148	0xbd74bacf	-0.059748467
149	0x3d74f87a	0.05980728
150	0x3d60f177	0.05491778
151	0xbd0b978e	-0.03408008
152	0x3c6f36b0	0.014600441
153	0x3d5ee12f	0.05441397
154	0x3cff72f3	0.031182742
155	0x3d8dcb99	0.06923599
156	0xbd97e1c6	-0.0741611
157	0x3da2d302	0.07950403
158	0x3cde2593	0.027117526
159	0x3d63e9bb	0.055642825
160	0xbc0d41cd	-0.008621645
161	0x3cc79ec8	0.024367705
162	0xbb5e3f62	-0.003391229
163	0x3d316be7	0.043315794
164	0x3d46e4a4	0.048557892
165	0x3d81abc4	0.0633159
166	0xbb72b48e	-0.0037033889
167	0x3d9e118f	0.07718193
168	0x3d482a2c	0.048868343
169	0xbd031b92	-0.032008715
170	0x3ca3459b	0.019930651
171	0xbd86a7df	-0.065749876
172	0x3d7c89e8	0.061654955
173	0x3d4e7b24	0.050410405
174	0x3d901842	0.07035877
175	0x3da65508	0.08121687
176	0xbdcda0d4	-0.10040441
177	0x3dd6deaa	0.104916885
178	0x3d6df4bf	0.058094736
179	0x3cd92103	0.026504999
180	0xbd292ab0	-0.041300476
181	0x3d991ca1	0.07476164
182	0x3cc999a9	0.024609404
183	0xbda5f03e	-0.08102463
184	0x3ccce569	0.025011735
185	0xbdcf1743	-0.10111859
186	0xbdb147ab	-0.08656248
187	0x3be1bb27	0.0068887654
188	0x3de0bd14	0.10973564
189	0xbcffcd69	-0.031225877
190	0x3d1325c3	0.035924684
191	0x3c806249	0.015671866
192	0x3cc9c0fe	0.024628159
193	0xbc50bb1a	-0.012739921
194	0x3db3522d	0.08755908
195	0x3cc0f45d	0.023554021
196	0xbda7d28c	-0.081944555
197	0xbd531347	-0.051532056
198	0x3d8e31c4	0.06943086
199	0xbdc5649b	-0.096383296
200	0x3c4f9f2f	0.01267223
201	0xbb97bae9	-0.0046304357
202	0x3d174323	0.03692926
203	0xbb854ef0	-0.004068248
204	0x3bef7bd7	0.007308464
205	0xbbad8dc1	-0.0052964394
206	0xbcb858a9	-0.022503214
207	0x3dcb9de1	0.099422224
208	0xbd1232a1	-0.035692815
209	0x3d7e5cb6	0.062100135
210	0xbd9ee72e	-0.07758938
211	0x3a836877	0.001002564
212	0xbd88cd49	-0.0667978
213	0x3d3168ab	0.04331271
214	0x3db8ed6b	0.09029659
215	0xbd4f9ced	-0.050686765
216	0x3cd8d262	0.026467506
217	0x3dca829e	0.098881945
218	0xbd3852e4	-0.045000926
219	0xbd836363	-0.06415441
220	0x3d80d5aa	0.06290753
221	0x3d89a01c	0.067199916
222	0x3b4132d8	0.0029479768
223	0x3db560d7	0.08856361
224	0x3db2016b	0.08691677
225	0x3d9764d9	0.07392282
226	0x3db96a76	0.09053509
227	0xbc8e8de5	-0.017401645
228	0x3d01b143	0.03166319
229	0xbd20a7c1	-0.039222483
230	0x3ac1925e	0.0014768352
231	0x3c9aa8b6	0.018879276
232	0xbd2b3b00	-0.041804314
233	0x3d2ab32a	0.04167477
234	0x3ce28522	0.027651373
235	0x3d47b894	0.04876001
236	0xbcf3e7d3	-0.029773628
237	0xbd36b68e	-0.04460769
238	0x3b4791d1	0.0030451904
239	0xbc6653a8	-0.014058031
240	0xbd290588	-0.04126504
241	0xbda9666f	-0.08271491
242	0x3c32a3a6	0.010903275
243	0x3cefdf41	0.02928126
244	0xbd94be4b	-0.07262858
245	0x3d7c8428	0.06164947
246	0x3da617da	0.08110018
247	0xbcc59f03	-0.024123674
248	0xbd8bab53	-0.06819787
249	0xbca66a13	-0.020314252
250	0xbd6eca94	-0.058298662
251	0xbbb0538f	-0.0053810547
252	0xbca81e88	-0.020522371
253	0xbafdb073	-0.0019354954
254	0xbbde4bab	-0.0067839227
255	0xbd756e9b	-0.059919935

static_ll.2.bias f4 [64]
0	0x3d5bc46f	0.05365413
1	0x3d23c03f	0.039978262
2	0xbc6e9ad9	-0.014563286
3	0xbd66e392	-0.05636937
4	0xbcef3985	-0.029202232
5	0x3d0e39a4	0.03472294
6	0x3d0282fe	0.031863205
7	0xbc1707ee	-0.009218199
8	0x3d1db083	0.038498413
9	0xbd8bb722	-0.06822039
10	0x3d9b5398	0.075843036
11	0xbce0099a	-0.027348328
12	0xbc94e886	-0.018177282
13	0x3c6a8716	0.014314434
14	0x3da3e58e	0.080027685
15	0x3dcad2ca	0.09903486
16	0xbd9f0699	-0.0776493
17	0x3c9ef599	0.01940422
18	0x3db40c1a	0.08791371
19	0xbd84b88f	-0.06480514
20	0xbd13ccd2	-0.036084004
21	0xbc792e0e	-0.015208734
22	0x3d6cfdb4	0.057859138
23	0x3d99fc3b	0.07518812
24	0xbd125763	-0.03572787
25	0x3dab608d	0.08368025
26	0x3d0829fe	0.033243172
27	0xbcebb92c	-0.02877482
28	0x3c85fa30	0.01635465
29	0x3c4d087d	0.012514231
30	0x3d77ae05	0.060468692
31	0x3c84941d	0.016183907
32	0xbd389c83	-0.045071136
33	0xbd91c49e	-0.0711758
34	0x3dbcc8e6	0.09218006
35	0x3b362b43	0.0027796782
36	0x3d25b553	0.040456127
37	0xbd4986fe	-0.049201004
38	0xbc95f0ac	-0.018303238
39	0x3c818eba	0.015815128
40	0x3d09d606	0.033651374
41	0x3d797237	0.06089994
42	0xbca2a3c2	-0.019853476
43	0x3cc8cb7b	0.02451109
44	0xbc61cb56	-0.013781389
45	0x3d940d32	0.07229079
46	0xbcceb6bd	-0.02523362
47	0x3c26d889	0.010183462
48	0x3d34a2a5	0.044100422
49	0x3c24e4cc	0.010064315
50	0x3c8f79d5	0.017514149
51	0x3c91d4de	0.017801698
52	0xbd3a6de4	-0.045514956
53	0x3d8d3c98	0.06896323
54	0x3d9d473c	0.076796025
55	0x3d58125a	0.052751876
56	0xbce1e8f3	-0.0275769
57	0x3da88b59	0.082297035
58	0xbd24a5be	-0.040197127
59	0x3dc439fa	0.09581371
60	0x3d979e83	0.074032806
61	0x3c8597e2	0.016307775
62	0xbd422033	-0.04739399
63	0x3dca1c01	0.098686226

glu_encoder.rnn.weight_ih_l0 f4 [48, 2]
0	0x3e3764c0	0.17909527
1	0xbe26d1a7	-0.16290914
2	0x3dcce375	0.100043215
3	0xbd3b60fb	-0.045746785
4	0x3e470405	0.19435127
5	0x3e408093	0.18799047
6	0xbda66665	-0.08124999
7	0xbe3b2fad	-0.18279906
8	0xbe1c4b1f	-0.15263031
9	0x3e3d6ab8	0.18497741
10	0x3e8e2341	0.27761272
11	0x3e095774	0.13412267
12	0xbe639ade	-0.22227046
13	0x3da365a1	0.079783686
14	0x3e959a03	0.29219064
15	0xbe983769	-0.29729775
16	0xbdb717e7	-0.08940106
17	0xbe715b4a	-0.2356998
18	0x3e782918	0.24234426
19	0xbe273bef	-0.16331457
20	0x3e14b3f4	0.14521772
21	0xbc93d0d1	-0.018043907
22	0x3e0da5bb	0.13832752
23	0x3e6c77db	0.23092596
24	0x3e62d826	0.22152767
25	0xbdb14056	-0.08654849
26	0x3dc4176f	0.09574782
27	0x3cfb3dad	0.030669058
28	0x3cdae854	0.02672211
29	0xbd30b5ca	-0.043142118
30	0xbe37b78a	-0.17941108
31	0xbd678090	-0.05651909
32	0x3e5fbd5c	0.21849579
33	0xbdb4cb14	-0.088277966
34	0x3d304559	0.043034885
35	0x3e813548	0.25235963
36	0xbe68cb76	-0.22733864
37	0xbe4dfdeb	-0.20116393
38	0xbc63451a	-0.013871456
39	0x3e75ce09	0.24004377
40	0xbe040e89	-0.1289617
41	0x3e693228	0.2277304
42	0xbd946bcb	-0.072471224
43	0xbd98292f	-0.0742973
44	0xbdeffed5	-0.11718527
45	0x3e11322c	0.14179295
46	0x3e5bbf24	0.21459633
47	0x3e4a6566	0.19765243
48	0x3d6d55e2	0.057943232
49	0xbd29bd58	-0.041440338
50	0xbe9b9d3e	-0.30393404
51	0x3e696b57	0.22794853
52	0xbe9794f2	-0.29605824
53	0xbcaff5bd	-0.021479482
54	0x3d534a41	0.051584486
55	0xbd3595b2	-0.044332214
56	0x3e4f8a4c	0.202676
57	0xbd375263	-0.044756304
58	0x3d73db19	0.05953512
59	0xbc61487b	-0.013750191
60	0x3e5a9626	0.2134634
61	0xbccb7254	-0.02483479
62	0xbe2bde4f	-0.16784023
63	0xbcf0bddd	-0.029387409
64	0x3e066fce	0.13128588
65	0xbddca2ae	-0.10773216
66	0xbe232bcd	-0.15934677
67	0x3e4f9645	0.20272167
68	0x3e0a7d28	0.13524306
69	0x3cb6bc87	0.022306694
70	0x3e84f967	0.2597153
71	0xbdb6eb38	-0.08931583
72	0xbdee98ad	-0.11650214
73	0xbe378db1	-0.17925145
74	0x3e7295f1	0.2369001
75	0xbe6c7473	-0.23091297
76	0x3e4cfc4e	0.20018122
77	0xbd20f651	-0.039297406
78	0x3dcc20b8	0.09967178
79	0xbd30e9d3	-0.043191742
80	0x3e1f87ee	0.15579197
81	0xbe0c956b	-0.13728873
82	0x3e7f44c5	0.24928577
83	0x3e3794fa	0.17927924
84	0x3e154cac	0.14580029
85	0x3e5190bf	0.20465373
86	0xbd3a1bc1	-0.045436624
87	0xbd810b3c	-0.06300971
88	0xbdf3c2c6	-0.119023845
89	0xbddb39e0	-0.10704398
90	0xbe7b217a	-0.24524489
91	0x3e6d6aa3	0.2318521
92	0x3e6db101	0.23212053
93	0xbd698323	-0.057009827
94	0x3d40c560	0.04706323
95	0x3e422435	0.18959124

glu_encoder.rnn.weight_hh_l0 f4 [48, 16]
0	0xbe3d46a6	-0.18483981
1	0xbe6dc2f2	-0.23218897
2	0xbdb960c4	-0.0905166
3	0x3e0ae6d4	0.13564616
4	0x3dcfdeb0	0.10149896
5	0xbd94efa9	-0.07272274
6	0xbe84ee23	-0.25962934
7	0x3e419aa6	0.1890665
8	0x3d6e4387	0.058169868
9	0x3e4bc4be	0.1989927
10	0xbe3bb3ae	-0.18330261
11	0xbe275bb4	-0.16343576
12	0xbd0e8329	-0.034793053
13	0xbe03e931	-0.12881924
14	0x3dfd5667	0.123699956
15	0xbd8ebf8d	-0.06970129
16	0x3dcbbc70	0.09948051
17	0xbd9b8d2a	-0.07595284
18	0x3e0147c1	0.12625028
19	0xbe86b158	-0.26307178
20	0xbdf62577	-0.120188646
21	0x3e4790a5	0.19488771
22	0xbbe3fdc1	-0.00695774
23	0x3d2c143f	0.042011496
24	0xbe803a4e	-0.25044483
25	0x3e59cfea	0.21270719
26	0xbdb06f1a	-0.08614941
27	0x3de9c95f	0.114153616
28	0x3e0741c9	0.13208689
29	0xbde4f51c	-0.111795634
30	0xbe63f728	-0.22262251
31	0x3d8fd7de	0.07023595
32	0x3e2e221e	0.17005202
33	0xbe1b700c	-0.15179461
34	0xbe027717	-0.12740742
35	0xbe5fa917	-0.21841846
36	0x3cfb85f5	0.030703524
37	0x3d3f467a	0.04669807
38	0xbe3556b5	-0.17708857
39	0x3e313d76	0.17308602
40	0x3e0b0349	0.13575472
41	0xbdb28fcd	-0.08718834
42	0xbd993f6c	-0.074828
43	0x3e203610	0.15645623
44	0xbddd37c1	-0.1080165
45	0x3e21e5dd	0.15810342
46	0xbe412c1b	-0.18864481
47	0x3e33bad6	0.17551741
48	0x3e183298	0.1486305
49	0xbe3ce426	-0.18446407
50	0x3e099827	0.13436948
51	0x3e616fb1	0.22015263
52	0x3c3bcab1	0.0114619
53	0x3e1f8b1a	0.15580407
54	0x3e419916	0.18906054
55	0x3df45502	0.119302765
56	0xbe43729b	-0.19086687
57	0xbd9ad9ed	-0.07561097
58	0xbe19bf36	-0.15014347
59	0xbe106131	-0.14099576
60	0x3e100fc8	0.1406852
61	0x3d1263bf	0.035739657
62	0x3c175b02	0.009238007
63	0xbcfcfc03	-0.030881887
64	0xbda9af6c	-0.08285412
65	0x3c377a18	0.011198543
66	0x3d20b237	0.03923246
67	0xbd31f34a	-0.04344491
68	0x3d20beee	0.039244585
69	0xbda1d9eb	-0.07902893
70	0x3e93b551	0.2884927
71	0x3dfd159f	0.123576395
72	0x3c4d4676	0.012529006
73	0x3e0a24d3	0.1349061
74	0x3d46785c	0.048454627
75	0xbe8e5304	-0.2779771
76	0xbe932b6c	-0.28744066
77	0x3dd90956	0.10597484
78	0x3cfd9cc8	0.030958548
79	0xbe1df848	-0.15426743
80	0x3dc9cecc	0.098538965
81	0x3e3443cb	0.17603986
82	0x3c83a548	0.016070023
83	0x3d6ffe1a	0.05859194
84	0xbbdbb5be	-0.006705015
85	0xbc5e6555	-0.013573964
86	0xbce8ec19	-0.028432893
87	0x3e57b38e	0.21064588
88	0x3d8e04c0	0.069345
89	0x3e7e094f	0.24808238
90	0xbe1e2c95	-0.15446694
91	0xbdab498e	-0.08363639
92	0xbe46234f	-0.19349407
93	0xbe845652	-0.25847107
94	0xbd28b6bd	-0.041189898
95	0xbcfc21d7	-0.030777855
96	0xbdc0b795	-0.094100155
97	0x3e34f174	0.17670232
98	0x3e001ea0	0.12511683
99	0x3e538cd9	0.20659198
100	0x3d9a5643	0.07535984
101	0x3e4dbcdf	0.2009158
102	0xbdb67750	-0.08909476
103	0x3c40ee79	0.011775606
104	0x3e43da33	0.19126205
105	0xbc037d45	-0.008025472
106	0xbe5673f1	-0.20942666
107	0x3e4e1b90	0.20127702
108	0x3e3dcc19	0.18534888
109	0xbe1d20ed	-0.15344591
110	0x3d95334c	0.07285175
111	0xbe479451	-0.19490172
112	0x3da880a9	0.08227665
113	0xbe2852e3	-0.16437869
114	0xbcc213c3	-0.023691064
115	0x3daa4e21	0.08315683
116	0xbe6471da	-0.22309056
117	0x3e1ffa71	0.1562288
118	0xbda5cd39	-0.08095784
119	0xbd8b71f4	-0.06808844
120	0xbe22bf3c	-0.15893263
121	0x3e1c2c67	0.15251313
122	0x3d8c884d	0.06861935
123	0xbe602e87	-0.21892749
124	0xbe891fd1	-0.26782086
125	0xbe85b59d	-0.26115122
126	0x3e590b5e	0.21195742
127	0xbd604046	-0.054748796
128	0x3cc3c06a	0.023895461
129	0x3e74f9dd	0.2392344
130	0x3e65c40e	0.2243807
131	0xbe3c06c6	-0.18361959
132	0xbe2c3ddd	-0.16820474
133	0x3df6ca1d	0.12050269
134	0xbd57f42c	-0.052723095
135	0xbe69eaca	-0.22843471
136	0xbce89000	-0.028388977
137	0x3dbfe558	0.09369916
138	0xbdb7e868	-0.08979875
139	0x3e4c7135	0.1996506
140	0xbe62c3cb	-0.22145002
141	0xbdc3f3c5	-0.0956798
142	0x3e65ff5e	0.22460696
143	0xbdb87510	-0.09006703
144	0x3e892e84	0.267933
145	0xbd9c9687	-0.07645898
146	0x3e265b10	0.16245675
147	0xbe4898c4	-0.19589525
148	0xbe3ed077	-0.1863421
149	0xbe41f23f	-0.18940066
150	0x3d514fa6	0.05110135
151	0x3d647186	0.055772327
152	0xbe193e6a	-0.14965215
153	0xbe0dcc67	-0.13847505
154	0xbbdfa753	-0.0068253665
155	0xbd9041b4	-0.07043782
156	0x3c129cd1	0.008948521
157	0x3d2ac7ec	0.041694567
158	0x3d8019e8	0.06254941
159	0x3dcf6f5d	0.10128663
160	0x3e7bb3c1	0.2458029
161	0xbdd7d521	-0.10538698
162	0xbe65d644	-0.22445017
163	0x3d9ee99d	0.07759402
164	0x3e45164f	0.19246791
165	0x3e06b83a	0.13156214
166	0x3d9f9af0	0.07793224
167	0x3e34ae38	0.17644584
168	0x3d27fb6c	0.04101126
169	0xbd2f6f3c	-0.04283069
170	0xbdb02d0e	-0.086023435
171	0x3e13ba33	0.14426498
172	0xbd759274	-0.05995412
173	0x3c4be93a	0.012445742
174	0x3e201937	0.15634619
175	0x3b6b2b49	0.0035883954
176	0xbe058cb8	-0.13041961
177	0x3dd6d338	0.104895055
178	0x3d4f7c69	0.050655756
179	0x3e1badf5	0.15203078
180	0x3d84e143	0.06488278
181	0xbc98259e	-0.018572625
182	0xbd0d7f8e	-0.034545474
183	0xbdd164ee	-0.10224329
184	0xbd83ac45	-0.06429342
185	0xbe0a5c36	-0.13511738
186	0xbd997577	-0.07493108
187	0x3d121d4b	0.035672467
188	0x3e69cedc	0.22832817
189	0xbe307471	-0.17231919
190	0xbd262131	-0.040558998
191	0x3e6c0c3e	0.23051545
192	0x3e2c35f3	0.16817455
193	0x3de73880	0.112900734
194	0xbe1d2b1d	-0.15348478
195	0x3e37943b	0.17927639
196	0xbe8438f4	-0.25824702
197	0xbd903f6e	-0.07043348
198	0x3df57f69	0.11987192
199	0x3dffce35	0.12490503
200	0x3e4bbcb7	0.19896208
201	0xbdd273d4	-0.10275999
202	0xbe3315cd	-0.17488785
203	0xbdfcd68d	-0.1234561
204	0x3d5270df	0.051377174
205	0xbd7a5947	-0.061120298
206	0x3cdd817d	0.027039284
207	0x3d5868ed	0.05283444
208	0x3db60be8	0.0888899
209	0x3e04212d	0.1290328
210	0x3dc1aa1c	0.09456274
211	0x3e400c67	0.18754731
212	0xbde9925c	-0.11404869
213	0xbe0b23ff	-0.1358795
214	0xbd832e95	-0.06405369
215	0x3d372660	0.04471433
216	0x3e3129f1	0.17301156
217	0x3d5dad05	0.054120082
218	0x3dd83a16	0.10557954
219	0xbde0b838	-0.10972637
220	0x3be5ea22	0.007016436
221	0x3d470652	0.048590012
222	0xbdfd9e6e	-0.12383734
223	0xbe25da2d	-0.16196509
224	0x3e8f0deb	0.27940306
225	0x3e22454a	0.15846744
226	0xbe400303	-0.18751149
227	0xbd09d3c6	-0.03364923
228	0xbaccac9f	-0.001561541
229	0x3e38964d	0.18026085
230	0xbdcbd671	-0.09953011
231	0xbdaeadc7	-0.08529239
232	0xbdec0c42	-0.115257755
233	0x3e28fab8	0.16501892
234	0xbe04b258	-0.12958658
235	0x3c90f187	0.017693294
236	0x3e20d4e1	0.15706207
237	0xbbe308b5	-0.006928528
238	0x3e939e79	0.28831843
239	0xbe0a3e01	-0.13500215
240	0x3d1dac11	0.038494173
241	0xbb8fe4a5	-0.00439127
242	0x3df33f94	0.11877361
243	0x3e4c5d7a	0.19957533
244	0x3e54134b	0.20710485
245	0xbe56438b	-0.20924203
246	0x3d2e96e2	0.04262436
247	0x3e6115e9	0.21981014
248	0x3ddc18d1	0.10746921
249	0xbe1bf558	-0.1523031
250	0xbd9ded6e	-0.07711302
251	0xbe1e5ed1	-0.15465857
252	0xbdd7677c	-0.10517785
253	0xbe1268c2	-0.14297774
254	0x3ce5d4ee	0.028055634
255	0x3ddee6c3	0.10883858

glu_encoder.rnn.bias_ih_l0 f4 [48]
0	0x3e3fb3c6	0.18720922
1	0xbe61e832	-0.22061232
2	0xbd0b790a	-0.03405098
3	0x3ccf8561	0.025332155
4	0xbe37eb4f	-0.17960857
5	0xbd82849e	-0.06372951
6	0x3b9db54d	0.0048128725
7	0xbdcee0b5	-0.10101453
8	0x3dca90ed	0.09890924
9	0x3dc34ee2	0.0953653
10	0x3c7644dd	0.015031067
11	0xbda1de78	-0.07903761
12	0xbdaa3eac	-0.08312735
13	0x3dd9f2db	0.10642024
14	0xbd9256db	-0.071454726
15	0xbdd01f34	-0.101622015
16	0x3e6b9228	0.23004973
17	0xbe67f632	-0.2265251
18	0x3e18f8f3	0.14938717
19	0xbe7852a2	-0.24250272
20	0x3e2ed1c9	0.17072214
21	0xbe2cc238	-0.16870964
22	0x3e3604e0	0.17775297
23	0xbdb47d28	-0.08812934
24	0x3c4ade46	0.012382096
25	0x3e3e6dd9	0.18596591
26	0x3d82a615	0.06379334
27	0x3e4a8bcd	0.19779892
28	0x3c7cc81e	0.015428571
29	0xbc725d76	-0.014792791
30	0x3de7a0fc	0.11310002
31	0xbdc5a2bf	-0.09650182
32	0x3e6643f4	0.2248686
33	0x3e314cc4	0.1731444
34	0xbe07df6b	-0.13268821
35	0xbe399f6e	-0.18127224
36	0xbe2ab5be	-0.16670892
37	0xbe21d8b9	-0.1580533
38	0xbe28f60f	-0.16500114
39	0xbe29dfbc	-0.16589254
40	0xbd49374e	-0.04912501
41	0x3e792e17	0.24333988
42	0x3cebf24d	0.028802061
43	0xbe090d67	-0.13384019
44	0x3d875816	0.06608598
45	0xbe727fb0	-0.23681521
46	0xbd9bdb98	-0.076102436
47	0xbdca6175	-0.0988187

glu_encoder.rnn.bias_hh_l0 f4 [48]
0	0xbd18b6a1	-0.037283543
1	0x3e650820	0.2236638
2	0x3e598f3c	0.21246046
3	0xbd8ad76f	-0.06779372
4	0xbe0e592f	-0.13901208
5	0xbb99bb47	-0.0046915147
6	0xbe6a7e2b	-0.22899692
7	0xbe255ed4	-0.16149455
8	0xbd1dd94d	-0.038537312
9	0xbdd967c8	-0.10615498
10	0x3d3588d2	0.044319935
11	0xbc036c05	-0.008021359
12	0x3e6e0fc3	0.232482
13	0xbe28a245	-0.16468151
14	0x3d980609	0.07423026
15	0x3e01bdb0	0.12670016
16	0xbd783368	-0.0605959
17	0x3e2903e6	0.16505393
18	0x3e6048cc	0.2190277
19	0x3e32b15b	0.17450468
20	0xbe717027	-0.23577939
21	0xbdb6f08a	-0.08932598
22	0x3de3e45b	0.1112754
23	0x3dec79a6	0.1154664
24	0x3ddb3f18	0.107053936
25	0xbe7f364d	-0.24923058
26	0x3e1f6a01	0.15567781
27	0x3e46b1b5	0.19403727
28	0x3e378eda	0.17925587
29	0x3e69d5db	0.22835486
30	0x3dc74c5b	0.097313605
31	0x3e3bcb0c	0.18339175
32	0x3db552fe	0.0885372
33	0xbcafb79e	-0.02144986
34	0x3e292b56	0.16520438
35	0x3de90a3b	0.113789044
36	0xbe7c537e	-0.24641225
37	0xbdf8eed8	-0.12154931
38	0xbe3ccc2a	-0.18437257
39	0x3e0be942	0.136632
40	0x3e375f3c	0.17907423
41	0xbd9a8927	-0.07545691
42	0xbd9af0c1	-0.075654514
43	0xbe388ae6	-0.18021736
44	0xbe89501c	-0.2681893
45	0xbe5f0cfd	-0.21782298
46	0x3d26a058	0.04068026
47	0xbe22e334	-0.15906984

glu_encoder.hid2lat.weight f4 [64, 16]
0	0xbe85d09e	-0.26135725
1	0xbe21de14	-0.15807372
2	0xbdb90a49	-0.09035165
3	0x3e16548a	0.14680687
4	0x3d325fff	0.04354858
5	0x3e191e64	0.14953
6	0xbe16def2	-0.14733484
7	0x3d0cba79	0.03435752
8	0xbd861158	-0.06546277
9	0xbe7361a5	-0.23767717
10	0xbe0ec10c	-0.13940829
11	0xbd1cef20	-0.038313985
12	0x3e5fbec4	0.21850115
13	0xbe1de1fa	-0.15418234
14	0xbe424dde	-0.18975016
15	0xbe2912a2	-0.16511014
16	0x3e0b55bc	0.13606924
17	0x3e156555	0.14589436
18	0xbe654382	-0.22389033
19	0x3dc78341	0.097418316
20	0x3e71c26f	0.23609327
21	0xbbeb0198	-0.007171821
22	0x3d503fe5	0.050842185
23	0xbdaf01a9	-0.085452385
24	0x3e280190	0.16406846
25	0xbd2a1b21	-0.04152978
26	0xbe319af1	-0.17344262
27	0xbdb7ca50	-0.08974135
28	0x3e0e4de0	0.13896894
29	0x3dcbb462	0.09946515
30	0xbe4ac4cb	-0.19801633
31	0xbd7e5891	-0.062096182
32	0xbde75761	-0.11295963
33	0xbc80e44d	-0.015733862
34	0xbcd0d56a	-0.025492389
35	0x3e8339a7	0.25629923
36	0xbc9c6c91	-0.019094737
37	0x3db7fea5	0.089841165
38	0x3e78bf7f	0.242918
39	0x3e5bb21e	0.21454665
40	0xbd13312c	-0.035935566
41	0x3e808170	0.25098753
42	0xbe44dcd4	-0.19224864
43	0x3ccd3c17	0.025053067
44	0x3db4c24a	0.0882612
45	0xbddb07f7	-0.106948785
46	0x3df10dae	0.11770187
47	0xbe502042	-0.20324805
48	0x3e232c26	0.1593481
49	0xbde74d2c	-0.11294016
50	0x3e7229e7	0.23648797
51	0x3d9a1d1a	0.07525082
52	0xbde71c83	-0.11284735
53	0x3e39dc6b	0.18150489
54	0xba841a2e	-0.0010078603
55	0x3e8048b3	0.25055465
56	0xbe33f723	-0.17574744
57	0xbdb0431a	-0.086065486
58	0xbe761a5b	-0.24033491
59	0x3d0c017b	0.0341811
60	0x3cb24828	0.021762922
61	0xbdbc3ccb	-0.09191283
62	0x3cbbb52b	0.022913536
63	0xbdcfa0a3	-0.10138061
64	0x3e5fc556	0.21852621
65	0x3e041563	0.12898783
66	0xbe5bad28	-0.21452773
67	0x3c9586d5	0.01825277
68	0x3e487dd9	0.19579257
69	0x3e5327c6	0.20620641
70	0x3e49d14c	0.19708747
71	0xbd23f8b0	-0.04003209
72	0x3ddfd188	0.10928637
73	0xbdbf9a8f	-0.093556516
74	0x3e437972	0.19089296
75	0xbe8c731e	-0.27431577
76	0xbe5d066d	-0.21584482
77	0xbded8764	-0.11598089
78	0xbdcf6f18	-0.10128611
79	0x3e4f204b	0.20227163
80	0xbdedc083	-0.11608984
81	0xbe303465	-0.17207487
82	0x3e874961	0.2642317
83	0x3e7cf957	0.2470449
84	0x3d32e41c	0.043674573
85	0x3e5842dd	0.21119256
86	0x3e36d4f1	0.17854668
87	0xbe5df7df	-0.21676587
88	0xbd885566	-0.066569135
89	0x3e0985dd	0.13429971
90	0xbdfa6f44	-0.122282535
91	0x3e1b19e4	0.15146595
92	0xbcd75d9c	-0.026289754
93	0xbdc88962	-0.09791829
94	0xbe01062b	-0.12600009
95	0x3dc12091	0.0943004
96	0x3d21aa4e	0.039469056
97	0xbe0e59e9	-0.13901486
98	0x3d875748	0.066084445
99	0x3e45f053	0.19329958
100	0x3d89c4a6	0.06726961
101	0xbe3731f3	-0.17890148
102	0x3e0b30e6	0.13592872
103	0x3e4fdabc	0.20298284
104	0xbde33ffe	-0.1109619
105	0x3e0eae0d	0.13933583
106	0x3d6cc3e8	0.05780402
107	0x3de719fe	0.112842545
108	0xbdc40d38	-0.09572834
109	0xbcc08dc7	-0.023505105
110	0xbe15633e	-0.14588639
111	0xbd85a3fe	-0.0652542
112	0xbdf3f53f	-0.11912011
113	0x3de06cf9	0.10958285
114	0x3e3b8ac3	0.18314652
115	0xbdbce30e	-0.09222995
116	0xbd03559b	-0.03206406
117	0xbe20d016	-0.15704378
118	0xbdd33b08	-0.10313994
119	0x3d1cd49f	0.03828871
120	0xbde675cb	-0.11252936
121	0xbdec8e5e	-0.11550592
122	0xbe87f107	-0.26551077
123	0x3e129444	0.14314371
124	0x3e4b0b7f	0.19828604
125	0x3e1a72f8	0.1508292
126	0x3dffc7d2	0.124892846
127	0x3e5a34cb	0.21309201
128	0x3d3fd691	0.046835486
129	0xbda94c04	-0.08266452
130	0xbe1f58ad	-0.15561171
131	0x3e63be03	0.22240452
132	0x3e296e0c	0.16545886
133	0xbe44ec17	-0.19230686
134	0xbe3d4c0d	-0.18486042
135	0xbe40e047	-0.18835555
136	0xbd5be924	-0.053689137
137	0x3e1b6b40	0.15177631
138	0x3e37f2de	0.1796374
139	0xbe538275	-0.20655234
140	0x3cb7b4c2	0.02242506
141	0x3e5ea20c	0.21741503
142	0xbe1c1dae	-0.15245697
143	0x3d5027a3	0.05081905
144	0x3ce622ce	0.028092768
145	0xbe6166b4	-0.22011834
146	0x3dc30eef	0.09524333
147	0x3d1b1093	0.037857603
148	0x3d4fab34	0.05070038
149	0x3e3656be	0.17806527
150	0xbdf5b702	-0.119977966
151	0x3da79e63	0.08184507
152	0xbe2a7624	-0.1664663
153	0xbded7308	-0.11594206
154	0xbd338b8a	-0.043834247
155	0x3ddee962	0.10884358
156	0xbda78335	-0.08179323
157	0x3db9cf71	0.090727694
158	0x3da5dd63	0.08098867
159	0x3e196fc2	0.14984038
160	0x3e01c7b7	0.12673841
161	0xbe47f961	-0.19528724
162	0x3daeca94	0.085347325
163	0x3e899d57	0.26877853
164	0x3e26f328	0.16303694
165	0x3e1c937e	0.15290639
166	0x3d9c3517	0.076273136
167	0xbcd89eac	-0.026442848
168	0x3e110acc	0.14164275
169	0xbccb35a8	-0.024805859
170	0xbe11c945	-0.14236934
171	0xbe00198b	-0.12509744
172	0xbe20f4c5	-0.15718372
173	0xbc2d0c3b	-0.010561998
174	0x3e65e04a	0.2244884
175	0xbda52dfe	-0.08065413
176	0xbe0853f6	-0.13313279
177	0xbe2b039c	-0.16700596
178	0xbe2cc55e	-0.16872165
179	0x3c10ba9f	0.008833556
180	0x3dd48eeb	0.10378822
181	0xbd3f6725	-0.046729226
182	0x3d4735e2	0.04863537
183	0xbe04bd1f	-0.12962769
184	0xbe609fa4	-0.21935898
185	0x3e5b3828	0.2140814
186	0x3e0fa2af	0.14026903
187	0x3ca5a2db	0.020219257
188	0xbe76e01c	-0.24108928
189	0x3d0c18c4	0.034203306
190	0xbe80d301	-0.25160983
191	0xbe0bb54d	-0.1364338
192	0x3d5575b4	0.052114204
193	0xbdad5741	-0.08463908
194	0x3e13447a	0.1438159
195	0x3e3aca9f	0.18241356
196	0xbe0f19fd	-0.13974757
197	0xbd4f02e1	-0.050539855
198	0xbd86bf92	-0.06579508
199	0x3e242a71	0.16031815
200	0x3e8066b6	0.25078362
201	0x3e594a81	0.21219827
202	0x3d573b5f	0.052546855
203	0x3e49ba3f	0.19699953
204	0x3e1572b9	0.14594544
205	0xbe604e77	-0.21904932
206	0x3e0850c8	0.13312066
207	0xbe1e7a7a	-0.15476409
208	0xbdcc0ba9	-0.099631615
209	0x3d7e65d3	0.062108826
210	0xbd9e2237	-0.0772137
211	0xbe5748f9	-0.2102393
212	0xbe5bb542	-0.21455863
213	0xbe30105e	-0.17193744
214	0xbe81d522	-0.2535792
215	0x3e0def18	0.13860738
216	0x3e5cf229	0.21576752
217	0xbe27e746	-0.16396818
218	0x3e1fcd94	0.15605766
219	0x3e283b98	0.16428983
220	0xbd8419bd	-0.06450222
221	0x3c7e216f	0.015510901
222	0xbe6b93d3	-0.23005609
223	0x3e5ccd65	0.21562727
224	0x3e333150	0.1749928
225	0xbd9766fa	-0.07392688
226	0x3ddd804d	0.10815487
227	0x3b514ddd	0.003193728
228	0x3c2d84aa	0.010590712
229	0x3e0986aa	0.13430277
230	0x3d57c409	0.052677188
231	0xbe8c0341	-0.27346233
232	0xbe89c337	-0.2690675
233	0xbcf2f5aa	-0.029658157
234	0xbe89339c	-0.26797187
235	0x3d459239	0.048235152
236	0x3c808f26	0.015693258
237	0x3d04df14	0.032439306
238	0xbe81fcd8	-0.25388217
239	0x3e2400b8	0.16015899
240	0xbe4a7cfb	-0.19774239
241	0x3db014b0	0.08597696
242	0xbbcea484	-0.006306233
243	0xbe3953a6	-0.18098316
244	0x3d3739af	0.044732746
245	0x3e5a15d3	0.21297388
246	0xbcb8a0fe	-0.022537705
247	0x3dd3c381	0.10340024
248	0xbded556a	-0.11588557
249	0xbc4cd05e	-0.0125008505
250	0x3df51080	0.11966038
251	0xbe3b758d	-0.18306561
252	0xbce449d7	-0.02786724
253	0x3beb0e0a	0.0071733044
254	0xbbb8e95c	-0.005643053
255	0xbd281c58	-0.041042656

glu_encoder.hid2lat.bias f4 [64]
0	0x3ca80762	0.020511333
1	0xbd93c897	-0.07215994
2	0xbe4057ac	-0.18783444
3	0x3d072582	0.032994755
4	0x3d5096f2	0.050925203
5	0x3d0b2e79	0.033979867
6	0x3e448c14	0.1919406
7	0xbdb1e7ba	-0.086867765
8	0x3caeebd7	0.021352692
9	0x3e077836	0.1322945
10	0x3e731da5	0.23741777
11	0x3de26429	0.1105426
12	0x3c592ea2	0.013255747
13	0xbc141d4f	-0.009040191
14	0xbc32fb74	-0.010924209
15	0xbe47b338	-0.1950196
16	0xbd34360a	-0.04399685
17	0x3d7fe3d2	0.062473126
18	0x3c040c72	0.008059608
19	0x3e63d0c3	0.22247605
20	0xbd9f7614	-0.077861935
21	0x3e46bc3c	0.19407743
22	0x3dec8e16	0.11550538
23	0x3d9d6fda	0.076873496
24	0x3e225be8	0.15855372
25	0x3db8e210	0.09027493
26	0x3d92d0d1	0.07168735
27	0x3cc11049	0.023567336
28	0xbe1c83d0	-0.15284657
29	0x3e5c0140	0.21484852
30	0xbe20dd94	-0.15709525
31	0xbd246abc	-0.040140852
32	0xbe737d50	-0.23778272
33	0xbe83fa0f	-0.25776717
34	0x3e3f7b79	0.18699445
35	0xbdf8b116	-0.121431515
36	0x3e63e201	0.22254182
37	0xbd536047	-0.05160549
38	0xbe57a6a7	-0.21059667
39	0xbdddfb1d	-0.10838912
40	0xbd205fc3	-0.039153825
41	0x3bece108	0.0072289743
42	0x3e11d2e1	0.142406
43	0x3c789aa8	0.015173592
44	0x3e8847c4	0.26617253
45	0x3e04c630	0.12966228
46	0x3de67db8	0.11254448
47	0x3e5091bd	0.20368095
48	0xbe27f9a7	-0.16403829
49	0x3c881300	0.016610622
50	0x3e4d9b8b	0.20078866
51	0x3e5e8c4b	0.21733205
52	0x3c8f50eb	0.01749464
53	0xbdcb9050	-0.09939635
54	0x3d4373c1	0.047717813
55	0xbd79e8c4	-0.061013
56	0xbe84a1fd	-0.25904837
57	0xbe48fbfc	-0.19627374
58	0xbe7ff3e4	-0.2499538
59	0xbd59311b	-0.053025346
60	0xbe598068	-0.2124039
61	0xbcfb6947	-0.030689849
62	0x3d2dc227	0.042421486
63	0x3e38ba86	0.18039903
