code/baseline/saved/GAMNet_learning_rate_0.0001_hidden_size_64_epoch_6000_batch_size_32/Epoch_5400_JA_0.7813_DDI_0.0944.model (torch, 455805 bytes, 29 tensors)

lab_embeddings f4 [32, 64]
0	0x3e8d0dc1	0.27549556
1	0x3e4b6fcd	0.19866867
2	0xbf3e8229	-0.7441736
3	0xbfd326a3	-1.6496166
4	0xbf2a5f01	-0.66551214
5	0xbfc6b0f0	-1.5522747
6	0x3f998071	1.1992322
7	0x3f020579	0.507896
8	0x3f4b9c0f	0.79535
9	0x3ef73d14	0.48288786
10	0xbfdb50fb	-1.7134088
11	0xbfae0b22	-1.3597147
12	0x3f087aaa	0.5331217
13	0xbef0c465	-0.47024837
14	0x3f2baa33	0.6705658
15	0x3ff7378b	1.9313825
16	0x3f3957ad	0.7239941
17	0x3e551d85	0.20812042
18	0x3eca10a9	0.39465836
19	0x3ed4972f	0.41521594
20	0x3e8c25f0	0.27372694
21	0xbf41183e	-0.75427616
22	0xbf8b9d2e	-1.0907342
23	0xbf813c34	-1.0096498
24	0xbf2e76a8	-0.68149805
25	0xbf80eba0	-1.0071907
26	0x3f368040	0.71289444
27	0xc016c5b5	-2.355817
28	0xbeb2f875	-0.34955183
29	0x3f5754da	0.8411385
30	0x3fb710b6	1.4301975
31	0x3ecc2439	0.39871386
32	0xc0101724	-2.2514124
33	0x3fdf6dce	1.7455385
34	0xbe8f9653	-0.28044376
35	0xbff4d7bd	-1.9128338
36	0xbed360eb	-0.4128488
37	0xbf1871da	-0.59548724
38	0xbf914850	-1.1350193
39	0xbf726894	-0.94690824
40	0x3f023915	0.5086835
41	0x3eeec4a1	0.4663439
42	0x3f856001	1.0419923
43	0xbef052d5	-0.46938196
44	0x3edfed92	0.4373594
45	0x3f716461	0.9429379
46	0x40110087	2.2656572
47	0x3f128e1b	0.57248086
48	0xbe834d18	-0.25644755
49	0xbeb05cf6	-0.34445924
50	0x3e8a031b	0.26955494
51	0xbee95610	-0.45573473
52	0xbf523f17	-0.8212752
53	0x3e1fb726	0.1559721
54	0xbf24a702	-0.64317334
55	0x3f51508a	0.8176352
56	0xbea287f7	-0.31744358
57	0xbe1fe9cd	-0.15616532
58	0x40207ad4	2.5074968
59	0xbf0c18ce	-0.5472535
60	0x3d1c5b1e	0.038172834
61	0x3ea6a3a6	0.3254673
62	0x3fe6591e	1.7995946
63	0x3cf3f616	0.029780429
64	0xbe494b2b	-0.1965758
65	0xbf18c8d7	-0.5968146
66	0xbeef614e	-0.46753925
67	0xbd59fbcb	-0.053218644
68	0x3e315314	0.17316848
69	0x3f158521	0.58406264
70	0x3fee675b	1.8625292
71	0x3e9da85f	0.3079252
72	0xbf8561d5	-1.0420481
73	0xbfa9d57e	-1.3268278
74	0xbfa4fc13	-1.2889427
75	0x3d49cb6b	0.04926626
76	0xbfc0f9c0	-1.5076218
77	0xbf903e11	-1.1268941
78	0x3f639cf7	0.88911384
79	0xbf67d5d5	-0.90560657
80	0xbda7b183	-0.081881545
81	0x3f0ef96b	0.5584933
82	0x3fbff359	1.4996139
83	0x3f99e80a	1.2023938
84	0x3ec2ab7d	0.3802146
85	0xbef2a0f4	-0.47388422
86	0x3e704569	0.23463978
87	0x40139874	2.30618
88	0xbd5a4913	-0.053292345
89	0x3f81fcfb	1.0155329
90	0x3ec02053	0.3752466
91	0x3f7c0ce2	0.9845716
92	0x3d358cb6	0.044323646
93	0x3fee4dba	1.861747
94	0x3f537a9b	0.82608956
95	0x3e03227f	0.12806128
96	0xbf54df91	-0.83153635
97	0xbfb7d9fc	-1.4363399
98	0xbf111830	-0.5667753
99	0x3f04b2fc	0.5183561
100	0x3fa71490	1.305315
101	0xbe85109e	-0.2598924
102	0x3e1dd6eb	0.15414016
103	0x3ecf991b	0.40546498
104	0x3ed679ba	0.41889745
105	0xbf9827eb	-1.1887182
106	0x3f498d6c	0.7873142
107	0x3f3491df	0.7053508
108	0x3fcdaced	1.6068398
109	0xbe80b217	-0.25135872
110	0xbffc268a	-1.9699261
111	0xbf1c672b	-0.6109492
112	0x3f32dc00	0.69866943
113	0xbfcd26b2	-1.6027434
114	0x3f4bf55c	0.79671264
115	0x3f19fd21	0.6015187
116	0x3f06a372	0.5259315
117	0xbf03e90b	-0.5152747
118	0xbf9fd41e	-1.2486608
119	0xbf39a11e	-0.7251147
120	0xc0003a4a	-2.0035577
121	0x4056430f	3.347843
122	0x3e3296f4	0.17440397
123	0x3ec956c2	0.39324003
124	0x3f2d5c49	0.6771894
125	0x3f7b0dd2	0.98067963
126	0xc00d4086	-2.2070632
127	0x3fb649d0	1.4241276
128	0xbf64d4d5	-0.89387256
129	0xbe7adeb6	-0.2449902
130	0x3fd34cfd	1.650787
131	0xbe731b11	-0.23740794
132	0x3e7d5b23	0.24741797
133	0xbf867f15	-1.0507532
134	0xbf8192b8	-1.01229
135	0xbf40594a	-0.75136244
136	0xbf5c8876	-0.8614572
137	0x3f6f5862	0.93494236
138	0xbd7e50a8	-0.06208864
139	0x3f9cb199	1.2241699
140	0xbea3772a	-0.31926852
141	0x3f14bb57	0.5809836
142	0xbef4aad2	-0.47786576
143	0x4008ef6d	2.1396134
144	0xbf4ec0b9	-0.8076282
145	0x3e65cbfe	0.22441098
146	0x3f4dcac7	0.8038754
147	0xbec09f8b	-0.37621722
148	0xbf4c92b1	-0.79911333
149	0x3f160891	0.5860682
150	0x3fc59f7c	1.5439296
151	0x3c4c326a	0.0124631915
152	0xbfb62f1f	-1.423313
153	0xbe296b0d	-0.16544743
154	0xbf2be906	-0.6715244
155	0xbf50c0ae	-0.81544006
156	0x3eb4fd4f	0.3534951
157	0xbe8eeaeb	-0.27913603
158	0xbe3d5751	-0.1849034
159	0x3f4c06eb	0.79698056
160	0xbf4c68c8	-0.79847383
161	0x3fbc3623	1.4704021
162	0x3ecf5092	0.40491158
163	0x3f0cbd37	0.5497622
164	0x3f45ae1c	0.77218795
165	0x3e9fd8dc	0.31220138
166	0x3d338a87	0.04383328
167	0x3fb88690	1.4416065
168	0x40019341	2.0246127
169	0xbe81d82c	-0.2536024
170	0x3eee5c7f	0.46554944
171	0xbe6e64e9	-0.23280682
172	0x3fa16cc9	1.2611324
173	0xbe8de58d	-0.27714196
174	0xbeb6f30c	-0.35732305
175	0xbf231d28	-0.63716364
176	0xbec0efba	-0.37682897
177	0x3e99c980	0.30036545
178	0xbf86b456	-1.0523784
179	0x3eb9f683	0.36320886
180	0xbfad357e	-1.353195
181	0x3ea7a89f	0.32745835
182	0x3dc04cec	0.09389672
183	0xbfdfaafb	-1.7474054
184	0xbd4d3427	-0.050098564
185	0x3f5b6f07	0.8571629
186	0x3e8b4e75	0.27208295
187	0xbdb4ee63	-0.08834531
188	0x3ebb5480	0.36587906
189	0xbfb1ca3c	-1.3889842
190	0xbf6b559f	-0.9192752
191	0xbefddac5	-0.4958097
192	0xbd0d0ff5	-0.034439046
193	0xbf2be7d6	-0.6715063
194	0x3f707a4c	0.9393661
195	0xbf88cc90	-1.0687428
196	0xbddcfeeb	-0.10790809
197	0xc000092c	-2.0005598
198	0xbfbd9c44	-1.4813313
199	0x3e1891f4	0.14899427
200	0x3e8afcb6	0.27145928
201	0x3f954311	1.1661092
202	0xbecfd442	-0.40591627
203	0xbf84e152	-1.0381262
204	0x3f5e844b	0.86920613
205	0x3ffff368	1.9996157
206	0x3e8ea115	0.2785727
207	0xbdfe62be	-0.12421177
208	0x3e8d46b3	0.27593002
209	0x3f2937a6	0.6610054
210	0xbea42c69	-0.32065132
211	0x3d13f2a8	0.036120087
212	0x3e9745ab	0.2954534
213	0xbfb273d5	-1.3941599
214	0xc020cc6d	-2.5124772
215	0xbed6a4f7	-0.41922733
216	0xbf1a8692	-0.6036159
217	0xbdc63863	-0.09678724
218	0x400edf31	2.2323725
219	0xbfe0afa9	-1.7553607
220	0x3f1056b5	0.56382304
221	0x3ce57faf	0.028014986
222	0xbea504ac	-0.32230127
223	0x3ed9d993	0.42548808
224	0x3e4b48b7	0.19851957
225	0x3f9eef9d	1.2416874
226	0x3f759ad2	0.9593936
227	0xbfa2e4b1	-1.2726041
228	0x3efed0b4	0.49768603
229	0xbd0e28f2	-0.034707017
230	0x3ffb119d	1.961475
231	0xc00881af	-2.1329153
232	0x3f4597d9	0.77184826
233	0x3e9c04cd	0.30472413
234	0xbd80db8d	-0.06291876
235	0xbec4ed5b	-0.38462338
236	0xbf444093	-0.7666103
237	0x3f270469	0.65241104
238	0xbf98a615	-1.1925684
239	0x3f423ce6	0.75874174
240	0xbf201d55	-0.6254476
241	0xbfa1a2ce	-1.2627809
242	0x3f123523	0.5711233
243	0x3f7b176c	0.98082614
244	0x3fad55f7	1.3541859
245	0x3ef44ae8	0.477134
246	0xbfeea26f	-1.8643321
247	0x3f3a892f	0.72865576
248	0x3f256536	0.6460756
249	0x3fb210f5	1.3911425
250	0xbf73a210	-0.9516916
251	0x3f488c34	0.78338933
252	0x3f905893	1.1277031
253	0xbe717dc5	-0.23583134
254	0x3f31e4f9	0.6949001
255	0x400c63c6	2.1935897

static_ll.0.weight f4 [128, 64]
0	0x3e1c2533	0.15248565
1	0xbdb222e6	-0.086980626
2	0xbdc91f10	-0.09820378
3	0xbdf62471	-0.120186694
4	0x3dc3b95f	0.09556841
5	0xbd9b46eb	-0.07581886
6	0xbe1cfad7	-0.15330063
7	0x3c9a7a3c	0.018857114
8	0x3d9769b4	0.07393208
9	0xbd897109	-0.06711013
10	0xbcc0a5ab	-0.023516497
11	0xbd9b608b	-0.075867735
12	0x3e3f4fec	0.18682832
13	0xbd30a903	-0.043129932
14	0x3c4a6297	0.012352607
15	0xbda2a640	-0.07941866
16	0xbe091a22	-0.13388875
17	0x3dcad58d	0.09904013
18	0xbd8203fa	-0.06348415
19	0xbdda7f3e	-0.10668801
20	0xbd67ebf9	-0.056621525
21	0xbd92966e	-0.071575984
22	0xbe016db6	-0.12639508
23	0xbdeb884e	-0.115006074
24	0x3dcf81b9	0.101321645
25	0xbd053412	-0.03252036
26	0x3d9b050c	0.07569322
27	0xbdbde8ed	-0.09272943
28	0x3dbbd8a3	0.091721795
29	0xbd521f8e	-0.051299624
30	0x3dab6455	0.08368746
31	0x3dfdb73e	0.12388466
32	0x3de1a931	0.11018599
33	0x3dce3274	0.10068217
34	0xbb897c8e	-0.0041957563
35	0xbe004045	-0.12524517
36	0x3d20b895	0.03923853
37	0x3d92255f	0.07136034
38	0x3d399fce	0.045318417
39	0xbd736656	-0.059423767
40	0x3c9143e1	0.017732562
41	0x3d8f1813	0.06987014
42	0x3d6a24d4	0.05716403
43	0x3d466313	0.04843433
44	0xbd81fce9	-0.06347067
45	0x3d7c3197	0.06157073
46	0xbd6551b4	-0.05598612
47	0xbdb484b6	-0.08814375
48	0xbd852df8	-0.065029085
49	0xbe03a4fc	-0.12855905
50	0x3e04067d	0.128931
51	0x3e29825f	0.16553639
52	0x3d308121	0.043091897
53	0xbcb53ca5	-0.022123644
54	0xbd57d747	-0.05269554
55	0xbdf31211	-0.1186868
56	0x3c5b2337	0.013375095
57	0x3b93f6f8	0.004515525
58	0xbd39da98	-0.045374483
59	0x3d29630d	0.041354228
60	0xbe09ff06	-0.1347619
61	0xbdd0ffde	-0.10205053
62	0xbcb1893c	-0.021671884
63	0xbbb0051c	-0.005371703
64	0xbd309bc9	-0.04311732
65	0x3db8036f	0.0898503
66	0xbdfe5d81	-0.12420178
67	0x3e1b1d73	0.15147953
68	0xbd99642c	-0.074898094
69	0xbd8fd760	-0.070235014
70	0x3dc223bd	0.09479473
71	0xbdb6f245	-0.08932928
72	0xbda7ff59	-0.082030006
73	0x3d5f8882	0.054573543
74	0xbc9cba5c	-0.019131832
75	0x3dee5f0d	0.11639223
76	0xbd985cbf	-0.07439565
77	0x3b9cf7c7	0.0047902795
78	0x3d7221d2	0.059114285
79	0xbe0a33ab	-0.13496272
80	0xbd9b222d	-0.07574878
81	0xbdb0d259	-0.08633871
82	0x3bde23e5	0.0067791813
83	0x3e0ba86b	0.13638465
84	0x3d863786	0.06553559
85	0x3d8090ba	0.062776044
86	0x3d92c6e1	0.071668394
87	0x3cecc25c	0.028901272
88	0x3d92d019	0.07168598
89	0x3d16e825	0.036842484
90	0x3da37124	0.07980564
91	0x3e227244	0.15863901
92	0x3da503e7	0.08057385
93	0x3de8a55e	0.11359666
94	0x3cca6b86	0.024709474
95	0xbe10f4f5	-0.14155944
96	0xbd92c113	-0.07165732
97	0xbe1903c9	-0.1494285
98	0x3ce8a11e	0.02839714
99	0xbd038711	-0.03211123
100	0xbccc65b8	-0.024950847
101	0x3dfae202	0.12250139
102	0xbcc0fb6f	-0.023557393
103	0x3e079dbd	0.13243766
104	0xbd10d639	-0.03536055
105	0xbde461b9	-0.111514516
106	0x3e04009a	0.12890854
107	0xbdc3afe0	-0.0955503
108	0xbdb68226	-0.089115426
109	0xbbfdc40f	-0.0077443193
110	0xbd4a5311	-0.049395625
111	0xbc731dcf	-0.01483865
112	0xbd8cd9b4	-0.06877461
113	0x3ccf61ee	0.025315251
114	0x3e2a1e3c	0.16613096
115	0xbc440d09	-0.011965998
116	0xbe07a9e5	-0.13248403
117	0xbce3444e	-0.027742531
118	0xbda5020e	-0.080570325
119	0x3baf82d4	0.005356172
120	0xbda901f7	-0.08252328
121	0x3e318021	0.17334034
122	0xbd3277ba	-0.04357121
123	0x3da0753f	0.07834863
124	0x3bcee22f	0.0063135843
125	0x3dd28425	0.10279111
126	0xbdf006de	-0.1172006
127	0x3ddaace0	0.106775045
128	0x3db202ba	0.08691926
129	0xbb4ba763	-0.0031075112
130	0xbbebee86	-0.007200065
131	0x3be5847b	0.0070043183
132	0x3da4cba3	0.08046653
133	0xbe26c1ee	-0.16284916
134	0xbdf2c28b	-0.118535124
135	0xbd2c6ffe	-0.04209899
136	0xbd983544	-0.074320346
137	0xbcdd01ff	-0.02697849
138	0xbd9e9daf	-0.077449195
139	0xbe058bdf	-0.13041638
140	0x3cb8288a	0.022480268
141	0xbd83d8c0	-0.06437826
142	0xbdafaf5e	-0.085783705
143	0xbc58bb71	-0.013228283
144	0xbd9fd87b	-0.07804962
145	0x3dea05d4	0.11426893
146	0xbd42bf10	-0.047545493
147	0xbdd2877b	-0.10279747
148	0x3d1b5907	0.0379267
149	0xbd90bb69	-0.07066996
150	0xbcc2a5bf	-0.023760675
151	0x3d1b283e	0.037880175
152	0xbd6dcac8	-0.058054715
153	0xbde88acf	-0.11354601
154	0xbda3d5f8	-0.07999796
155	0xbd5953fc	-0.05305861
156	0xbd9244d3	-0.071420334
157	0x3d88a0ed	0.06671319
158	0x3d87522c	0.0660747
159	0xbd15e112	-0.036591597
160	0xbe0114c1	-0.12605573
161	0x3daf5524	0.08561161
162	0x3c40d46c	0.011769395
163	0x3ce2c6c0	0.027682662
164	0x3cade4ae	0.021227207
165	0xbc559d7e	-0.013038037
166	0x3d023bb9	0.031795237
167	0xbcd9b97c	-0.026577704
168	0xbcced243	-0.025246745
169	0xbdc5759d	-0.096415736
170	0x3da52bc6	0.0806499
171	0xbd6864a4	-0.056736603
172	0x3e1675d1	0.14693381
173	0x3de944b1	0.11390055
174	0x3df5d2cf	0.12003099
175	0xbd0ba6ee	-0.034094743
176	0xbde6b64c	-0.11265239
177	0xbc1134f8	-0.008862726
178	0x3d958c6e	0.073021755
179	0x3dbc243c	0.09186599
180	0x3ac2e149	0.0014868166
181	0x3de88fe3	0.11355569
182	0x3dd865f0	0.10566318
183	0xbd094a78	-0.033518285
184	0x3bf3d14f	0.007440723
185	0xbc2b8657	-0.010469041
186	0x3cc4df08	0.02403213
187	0xbd832689	-0.064038344
188	0x3df2a72d	0.118482925
189	0x3ddf8f3e	0.10915993
190	0x3d68646d	0.0567364
191	0xbd925564	-0.07145193
192	0xbda0453a	-0.07825704
193	0xbd64b554	-0.05583699
194	0xbc95299b	-0.018208316
195	0xbd0505c1	-0.03247619
196	0x3e216445	0.15760906
197	0x3dde0863	0.108414434
198	0xbe175734	-0.14779359
199	0x3da4b365	0.08042029
200	0xbdc0cfa2	-0.09414603
201	0x3d8cd749	0.06877
202	0x3d3881b2	0.045045562
203	0xbc4de1f8	-0.012566082
204	0x3d9d10dd	0.07669232
205	0x3d501632	0.050802417
206	0x3c9c83a9	0.01910575
207	0x3d72c88e	0.059273295
208	0x3d9fe203	0.0780678
209	0xbcb272ef	-0.02178332
210	0xbd040dd3	-0.032239746
211	0x3d493227	0.049120095
212	0x3dba3602	0.090923324
213	0x3dc6846a	0.09693225
214	0xbcbd528e	-0.023110654
215	0xbd0dcd45	-0.03461959
216	0x3dba4073	0.09094324
217	0xbc1b253b	-0.009469326
218	0xbe10e263	-0.1414886
219	0x3cdfe4b1	0.027330728
220	0x3cd4bad4	0.025967993
221	0xbc22ba01	-0.009932042
222	0x3bd06f86	0.006360951
223	0x3d7c3b9c	0.061580285
224	0x3c972d88	0.018454328
225	0xbdb3397d	-0.087511994
226	0x3c2c41cf	0.010513737
227	0x3d1f9fb5	0.038970668
228	0xbd36303f	-0.044479605
229	0xbd8cc8a9	-0.068742104
230	0xbdf736da	-0.12071009
231	0x3d7c091b	0.06153212
232	0x3df7cb16	0.120992824
233	0xbe308be0	-0.17240858
234	0xbdd34c0a	-0.10317238
235	0x3dcdb5c3	0.10044434
236	0xbd050218	-0.0324727
237	0xbd91c9ba	-0.071185544
238	0x3dbcfd0f	0.092279546
239	0xbddf14fb	-0.108926736
240	0x3cc231a4	0.023705311
241	0x3d1134ff	0.03545093
242	0xbe245960	-0.16049719
243	0xbc938547	-0.018007888
244	0x3e145d32	0.14488676
245	0xbdb4d8e3	-0.0883043
246	0xbc7529e0	-0.014963597
247	0xbd8d9a3f	-0.06914186
248	0x3cdf6452	0.027269516
249	0xbd34cb9b	-0.044139486
250	0x3a0fc4fa	0.0005484369
251	0xbd8e8f98	-0.06960982
252	0xbd91457d	-0.07093332
253	0xbdaa31d7	-0.083102874
254	0xbda12ab8	-0.07869476
255	0xbc68865a	-0.014192188

static_ll.0.bias f4 [128]
0	0x3de93013	0.113861226
1	0xbdc760a1	-0.097352274
2	0x3cacb041	0.021080138
3	0xbd53a3a2	-0.051669724
4	0x3de7a647	0.11311012
5	0x3daf9105	0.08572582
6	0xbd8f4e1b	-0.06997319
7	0x3df918c4	0.12162927
8	0x3c3d4c60	0.011553854
9	0x3e0f0103	0.1396523
10	0x3e0765a7	0.13222371
11	0xbd4b3d6b	-0.04961912
12	0xbcef0a46	-0.029179703
13	0x3dd17ca9	0.10228855
14	0x3c9a0007	0.018798841
15	0x3df85afd	0.1212673
16	0x3dfc02b3	0.12305202
17	0xbdafda8c	-0.085866064
18	0x3d0e89d4	0.034799412
19	0x3d9f2c36	0.077721044
20	0x3dc3658c	0.09540853
21	0x3c390505	0.011292701
22	0x3d94f012	0.07272352
23	0x3e18d035	0.14923175
24	0x3ded8088	0.11596781
25	0x3de0af84	0.10970977
26	0xbd45898c	-0.048226878
27	0xbd99a36f	-0.075018756
28	0xbd8685a1	-0.065684564
29	0x3de62091	0.1123668
30	0xbce3a25c	-0.02778738
31	0xbd935bc9	-0.07195241
32	0xbb4202d4	-0.0029603736
33	0x3d9db5dc	0.077007025
34	0x3df11437	0.11771434
35	0xbda825ec	-0.08210358
36	0x3e08a9e5	0.1334606
37	0x3dcde49a	0.10053368
38	0x3acf1392	0.0015798679
39	0x3d99b1cd	0.07504616
40	0x3b6517d1	0.0034956823
41	0xbc35f38e	-0.011105431
42	0xbc6e4ff8	-0.014545433
43	0xbd92fa58	-0.071766555
44	0xbb116c52	-0.0022189808
45	0xbcdbe558	-0.026842758
46	0xbd933adc	-0.07188961
47	0xbd53a9d7	-0.051675644
48	0xbcacde95	-0.02110223
49	0x3ddee28c	0.10883054
50	0x3df9875b	0.1218402
51	0x3cf6033b	0.030030837
52	0x3d17c475	0.03705259
53	0x3e110d9f	0.14165352
54	0xbcf92662	-0.03041381
55	0x3da09ae7	0.07842045
56	0x3e0a2201	0.13489534
57	0x3dc85207	0.097812705
58	0xbde53806	-0.11192326
59	0xbda741b8	-0.08166832
60	0xbd110f8d	-0.03541522
61	0x3dc7f28e	0.097630605
62	0xbd6e52cc	-0.05818443
63	0xbd97cb6f	-0.07411849
64	0xbd451707	-0.048117664
65	0xbd1c183c	-0.03810905
66	0x3d4151ea	0.04719726
67	0xbd865828	-0.06559783
68	0xbaeca6cc	-0.001805508
69	0xbc4d6ce3	-0.012538168
70	0x3d49e383	0.049289238
71	0x3d794c12	0.060863562
72	0xbc07c11e	-0.008285789
73	0xbd1eef33	-0.038802337
74	0xbd5b58b6	-0.0535514
75	0x3d2abbe5	0.041683096
76	0x3c4e7dc1	0.012603224
77	0x3c9f6855	0.01945893
78	0xbce7ccc7	-0.028295888
79	0x3c53ab1b	0.012919213
80	0x3c102d4e	0.008799864
81	0x3dbdad18	0.09261531
82	0xbd9af650	-0.07566512
83	0x3bc5dd58	0.006038349
84	0xbd9a6df8	-0.07540506
85	0x3ab8fcf8	0.0014113476
86	0xbd9044a5	-0.07044343
87	0x3d17cb59	0.03705916
88	0x3e2b11b0	0.16705966
89	0xbd950da3	-0.072779916
90	0x3ddd6076	0.10809414
91	0xbd2ba600	-0.041906357
92	0xbdc5f4d8	-0.09665841
93	0x3d24de69	0.04025117
94	0xbc9a328c	-0.01882293
95	0xba191012	-0.00058388815
96	0xbd89d649	-0.06730325
97	0x3d9c6feb	0.07638534
98	0x3ca4428c	0.020051263
99	0xbb35a03c	-0.0027713915
100	0x3de9713a	0.113985494
101	0xbd90c344	-0.07068494
102	0x3d6419ed	0.055688787
103	0xbd77520c	-0.06038098
104	0xbdab0cab	-0.083520256
105	0xbd2b6d95	-0.041852552
106	0x3df80a21	0.12111307
107	0x3ddc703e	0.10763596
108	0x3d52ab32	0.051432796
109	0x3d161ef1	0.0366506
110	0x3d2bfc12	0.04198844
111	0xbc75b7b5	-0.014997412
112	0x3de57533	0.112039946
113	0xbd9817c4	-0.07426408
114	0x3d54b32e	0.05192869
115	0xbd11e68c	-0.035620257
116	0x3d3fb43a	0.046802737
117	0x3d6cfd9c	0.05785905
118	0x3d838a83	0.064229034
119	0xbdd8c8da	-0.105851844
120	0x3d9ac09c	0.075562686
121	0xbc6a89a4	-0.014315043
122	0x3de9e7e8	0.11421186
123	0xbd877a88	-0.06615168
124	0x3da0d40f	0.07852947
125	0xbdf63236	-0.12021296
126	0x3dfef435	0.124489225
127	0x3c678cc0	0.0141326785

static_ll.2.weight f4 [64, 128]
0	0x3d227fa6	0.039672516
1	0xbd90c5ae	-0.070689544
2	0x3d3263c3	0.04355217
3	0x3d8a11ea	0.06741698
4	0x3db9f5d9	0.09080095
5	0x3c4f6ab0	0.012659714
6	0xbd7291f7	-0.059221234
7	0xbd06f9b5	-0.032952983
8	0xbda41338	-0.08011478
9	0xbb442bce	-0.0029933336
10	0xbcb3d776	-0.021953326
11	0x3b6a4707	0.0035747902
12	0xbc9fb246	-0.019494187
13	0x3b6bee57	0.0036000216
14	0x3d4040db	0.04693685
15	0x3db0a8bb	0.08625933
16	0x3d54e81f	0.05197918
17	0xbd30e62a	-0.04318825
18	0xbcc76d2f	-0.024344055
19	0xbd3f1bfc	-0.046657547
20	0xbd1150aa	-0.035477318
21	0x3d8dd263	0.06924894
22	0x3d691c29	0.05691162
23	0x3cd6c5db	0.026217392
24	0xbb86ad31	-0.0041100015
25	0x3d495776	0.049155675
26	0xbd6d4da8	-0.057935387
27	0xbbde43e7	-0.006782997
28	0x3c3d9ce7	0.011573053
29	0xbbacc868	-0.0052729137
30	0x3ab393df	0.0013700685
31	0xbd959566	-0.07303886
32	0x3db2b340	0.087255955
33	0xbd248c9f	-0.04017317
34	0xbc3ecb9b	-0.011645223
35	0xbd828a49	-0.06374032
36	0x3e09d8f5	0.13461669
37	0x3d042c84	0.032269016
38	0x3c55d4a9	0.01305119
39	0x3aa28944	0.0012400527
40	0xbd254fff	-0.040359493
41	0x3d30d770	0.043174207
42	0x3b818f29	0.0039538336
43	0x3db70016	0.08935563
44	0x3d327fbc	0.04357885
45	0xbd869a57	-0.06572407
46	0x3d7411cb	0.05958728
47	0x3d67fb51	0.05663616
48	0x3d2c3e55	0.042051632
49	0xbc359c84	-0.0110846795
50	0xbcf6bf1f	-0.03012043
51	0xbd8fb58f	-0.070170514
52	0x3a8d3b0f	0.0010775047
53	0x3d9e1dc3	0.0772052
54	0xbd0c7035	-0.034286696
55	0x3da890ae	0.082307205
56	0x3d0acaa7	0.03388467
57	0xbdc824d5	-0.0977265
58	0xbd480b99	-0.048839185
59	0x3d8479fe	0.06468581
60	0x3dc6c89e	0.097062334
61	0x3da8b86d	0.082383014
62	0x3c7bfcea	0.015380124
63	0xbbc2f356	-0.005949418
64	0x3bbc4059	0.0057449755
65	0xbc467e53	-0.012115079
66	0x3db1b069	0.08676226
67	0xbd1e8404	-0.03870012
68	0xbcc95ae4	-0.024579473
69	0x3d8243e4	0.06360605
70	0x3b88d764	0.004176067
71	0xbd810fe1	-0.06301857
72	0x3d198587	0.037480857
73	0x3ccaf540	0.024775147
74	0x3c05fbd6	0.008177718
75	0xbc8bf3af	-0.01708397
76	0xbd928f6b	-0.07156261
77	0xbce9061f	-0.028445302
78	0x3d3246b6	0.043524466
79	0xbccb2ee4	-0.024802633
80	0x3d0c940a	0.03432087
81	0x3d7b622b	0.061372917
82	0x3cce523b	0.025185695
83	0x3b935195	0.0044958093
84	0xbc97dc4c	-0.018537663
85	0xbc34e773	-0.01104151
86	0xbd9538ba	-0.0728621
87	0x3b8a9111	0.004228719
88	0x3b465533	0.0030263185
89	0xbd4acb33	-0.049510192
90	0xbd83b7ce	-0.06431542
91	0xbd87f1ea	-0.06637938
92	0x3d68e7bb	0.05686162
93	0x3d92c379	0.0716619
94	0xbd3d1c76	-0.04616972
95	0xbd949229	-0.0725444
96	0xbb4e486d	-0.0031476275
97	0x3cf2d244	0.029641278
98	0x3d69ba60	0.057062507
99	0x3d928f09	0.07156188
100	0x3ca70f8b	0.020393154
101	0x3d5ebe19	0.05438051
102	0x3d497c43	0.04919077
103	0x3dad2b44	0.08455518
104	0x3d47ef64	0.048812285
105	0xbd02f145	-0.031968374
106	0x3da6de82	0.08147909
107	0x3d571af0	0.052515924
108	0x3cb62250	0.022233158
109	0x3d98b834	0.07457009
110	0xbcb9a169	-0.022659974
111	0xbd62c71e	-0.055365674
112	0xbb9c005c	-0.004760785
113	0x3d5b8e4a	0.053602494
114	0xbcd3768d	-0.025813365
115	0x3da2fc20	0.07958245
116	0x3dbec887	0.09315591
117	0x3cdb0040	0.026733518
118	0xba94179c	-0.001129854
119	0xbcc8e7b8	-0.024524555
120	0xbd039ba3	-0.03213085
121	0x3d3ad166	0.045609854
122	0x3db23eaf	0.08703362
123	0xbd8529d0	-0.06502116
124	0x3cc54139	0.024078952
125	0x3adfca31	0.0017073808
126	0x3dce92f6	0.10086624
127	0x3d0fc19a	0.035096742
128	0x3d294392	0.041324206
129	0xbd291816	-0.041282736
130	0x3c87dcd7	0.016584797
131	0xbc70b538	-0.014691643
132	0x3d399bd6	0.045314632
133	0xbd97f445	-0.074196376
134	0x3d1f254e	0.038853936
135	0x3d64fd96	0.0559059
136	0x3caaa9d2	0.02083293
137	0xbcbdaa4d	-0.023152495
138	0x3d49dc55	0.04928239
139	0x3e026405	0.12733467
140	0x3ca7af9f	0.020469485
141	0x3d020c88	0.031750232
142	0xbbf63b95	-0.007514427
143	0x3d87fa1a	0.066395
144	0xbca7bbe5	-0.020475337
145	0xbc4f7f18	-0.012664579
146	0x3daafe78	0.08349317
147	0x3d433d02	0.047665603
148	0xbd898f21	-0.06716753
149	0x3dba5ed3	0.091001175
150	0x3d7464ac	0.05966632
151	0xbd80241f	-0.062568896
152	0xbb40a24a	-0.0029393607
153	0x3d10cf5d	0.035354007
154	0x3d010618	0.031499952
155	0x3d1dea61	0.0385536
156	0xbd96fafc	-0.0737209
157	0x3dbd85d4	0.09254041
158	0x3c4cc745	0.012498681
159	0x3d926cad	0.071496345
160	0xbcd03056	-0.025413673
161	0x3c07f8ea	0.008299092
162	0x3cf9c04e	0.030487206
163	0x3d4b567d	0.04964303
164	0x3d93559d	0.07194064
165	0x3d5d8a41	0.054086927
166	0x3ca70b76	0.020391207
167	0x3d87e759	0.06635923
168	0x3d357063	0.044296633
169	0xbd50da86	-0.05098965
170	0x3c0a1432	0.0084276665
171	0xbdb06497	-0.08612936
172	0x3d573b89	0.05254701
173	0x3d5e1289	0.054216895
174	0x3d88b00d	0.06674204
175	0x3d997fb8	0.074950635
176	0xbdc68bbd	-0.09694622
177	0x3deb8651	0.11500228
178	0x3d629fbe	0.055328123
179	0x3d03df53	0.0321954
180	0xbd52d86e	-0.051475935
181	0x3d691fc4	0.05691506
182	0x3ce3e6ae	0.027819958
183	0xbda6dcf7	-0.081476144
184	0x3d19c23b	0.03753875
185	0xbe0aff66	-0.1357399
186	0xbda273a2	-0.079322115
187	0x3c0a27bd	0.008432326
188	0x3df5fc1f	0.12010979
189	0xbc91a55f	-0.01777905
190	0x3ccddbad	0.025129164
191	0xbadbcc91	-0.001676934
192	0x3c76eb1c	0.015070703
193	0xbcef8ef9	-0.02924298
194	0x3dc4fd55	0.09618632
195	0x3d1de588	0.038548976
196	0xbdc5ebcd	-0.09664116
197	0xbd2db539	-0.042409156
198	0x3d49f79d	0.049308408
199	0xbdb42dd4	-0.087978035
200	0xbc2ce0a8	-0.010551609
201	0xbc19de57	-0.009391389
202	0x3ccd48de	0.02505916
203	0xbcc3949e	-0.023874577
204	0x3c90c607	0.017672552
205	0xbbbd9220	-0.0057852417
206	0xbd1116cd	-0.035422135
207	0x3d983408	0.07431799
208	0xbc9c8030	-0.019104093
209	0x3d635ffb	0.055511456
210	0xbdccc7d4	-0.09999052
211	0x3c20881e	0.009798078
212	0xbdb3ab4a	-0.08772905
213	0x3d1662ef	0.036715444
214	0x3da6f830	0.08152807
215	0xbd554dbb	-0.052076083
216	0x3cbd1419	0.023080872
217	0x3dd325a4	0.10309914
218	0xbd56b330	-0.05241698
219	0xbd8f0741	-0.069838054
220	0x3d76608c	0.060150668
221	0x3d9c67dd	0.07636998
222	0xbba1feb2	-0.004943692
223	0x3dc6c876	0.09706204
224	0x3dac82db	0.08423396
225	0x3db355e2	0.08756615
226	0x3dc7ae95	0.09750096
227	0xbc2bdcde	-0.010489671
228	0x3d2c2bd0	0.04203397
229	0xbd18341a	-0.037159063
230	0x3b6fc77a	0.0036587403
231	0x3b9b321f	0.0047361995
232	0xbd3a674e	-0.045508675
233	0x3d060343	0.032717954
234	0x3d220f64	0.03956546
235	0x3d3bacbe	0.045819037
236	0xbd6412cd	-0.055681992
237	0xbd37f1f6	-0.044908486
238	0x3a3e6a84	0.0007263797
239	0xbb90e687	-0.0044220123
240	0xbd1f904b	-0.038955968
241	0xbda68056	-0.08129947
242	0x3c36a41c	0.011147525
243	0x3cf26bf5	0.029592494
244	0xbd8cd92b	-0.06877359
245	0x3db675fd	0.08909223
246	0x3d9bdc96	0.07610433
247	0xbcb6788f	-0.022274284
248	0xbd7c5506	-0.061604522
249	0xbcef8ad3	-0.029241001
250	0xbdaaea8e	-0.08345519
251	0xbc5903c8	-0.01324553
252	0xbccca725	-0.024982044
253	0xbb26ec51	-0.0025470445
254	0xbc19833c	-0.009369668
255	0xbd21c667	-0.03949585

static_ll.2.bias f4 [64]
0	0x3d735663	0.059408557
1	0x3d1a2ee3	0.03764237
2	0xbce1d835	-0.027568916
3	0xbd7bf606	-0.061513923
4	0xbd1905e6	-0.03735914
5	0x3d12555f	0.035725947
6	0x3cbbe242	0.022935037
7	0xbc2a4e4b	-0.010394643
8	0x3d378632	0.044805713
9	0xbd8485da	-0.06470843
10	0x3daa6bcc	0.08321342
11	0xbce155c7	-0.027506722
12	0xbc02eefa	-0.007991547
13	0x3c92df05	0.01792861
14	0x3d98d50c	0.074625105
15	0x3dcc32f4	0.09970656
16	0xbdad9297	-0.084752254
17	0x3c9da53b	0.019243827
18	0x3dad5536	0.08463518
19	0xbd805c0f	-0.06267559
20	0xbce68fa3	-0.028144663
21	0x3b24a026	0.002511987
22	0x3d6ec34d	0.058291722
23	0x3db5eac5	0.08882669
24	0xbc65c71d	-0.014024523
25	0x3db91e60	0.09038997
26	0x3d78090f	0.060555514
27	0xbcbede10	-0.023299247
28	0x3c849381	0.016183617
29	0x3c96cb9a	0.018407632
30	0x3d81940a	0.06327064
31	0x3cc2b787	0.023769153
32	0xbd302f79	-0.043014023
33	0xbd97957e	-0.0740156
34	0x3dbe4a61	0.092915304
35	0x3b490804	0.0030674944
36	0x3d3e2554	0.046422318
37	0xbd449db1	-0.04800195
38	0xbc96348b	-0.018335601
39	0x3cd2c974	0.025730826
40	0x3cdee321	0.027207913
41	0x3d71eee3	0.05906571
42	0xbc14aeb8	-0.009074859
43	0x3c9e895e	0.019352611
44	0xbbd51a60	-0.0065033883
45	0x3d9dec79	0.07711119
46	0xbca8aacf	-0.02058926
47	0x3bd11d82	0.0063816914
48	0x3d43cc4c	0.047802255
49	0x3c5d4de3	0.013507339
50	0x3d189f92	0.037261553
51	0x3cd56858	0.026050732
52	0xbd1c5964	-0.038171187
53	0x3d73af13	0.059493136
54	0x3d996cd2	0.07491459
55	0x3d6ca846	0.057777666
56	0xbcf1a4e7	-0.029497577
57	0x3dbe097a	0.09279151
58	0xbd09b31f	-0.03361809
59	0x3dc5be83	0.09655478
60	0x3d9f7fc1	0.07788039
61	0x3cdb2982	0.02675319
62	0xbd3a5433	-0.045490455
63	0x3dcd1dd3	0.10015454

glu_encoder.rnn.weight_ih_l0 f4 [48, 2]
0	0x3e36a67b	0.17836945
1	0xbe1e044c	-0.15431327
2	0x3e2d7d0c	0.16942233
3	0xbe2d6521	-0.16933109
4	0x3e45e8ef	0.19327138
5	0x3de4fb1c	0.11180708
6	0xbdaae188	-0.08343798
7	0xbe27f0c4	-0.16400439
8	0xbe28fbb5	-0.16502269
9	0x3e6a3e89	0.22875418
10	0x3e7a728b	0.24457757
11	0x3e3dfc8b	0.18553369
12	0xbe325254	-0.17414218
13	0xbc56930b	-0.013096581
14	0x3ea5984c	0.32342756
15	0xbe9c0d58	-0.3047893
16	0xbe0c894c	-0.1372425
17	0xbe7ae324	-0.2450071
18	0x3e84cabf	0.25935933
19	0xbe30d675	-0.17269309
20	0x3dee238f	0.11627876
21	0x3d611bbd	0.054958094
22	0x3dced727	0.10099631
23	0x3e801528	0.2501614
24	0x3e83138e	0.25600857
25	0xbddf4c06	-0.10903172
26	0x3d82e746	0.06391768
27	0x3c1a5199	0.009418868
28	0x3d12a54c	0.03580217
29	0xbd6015d1	-0.054708306
30	0xbe61c3fa	-0.22047415
31	0xbd95c889	-0.0731364
32	0x3e69edb1	0.22844578
33	0xbdede4bd	-0.11615894
34	0x3d4168dd	0.047219146
35	0x3e50308d	0.2033102
36	0xbdcdabe3	-0.100425504
37	0xbe86931e	-0.26284117
38	0xbb8856f2	-0.0041607553
39	0x3e533c20	0.20628405
40	0xbd89b593	-0.06724086
41	0x3de3b9af	0.11119401
42	0xbe29aabd	-0.16569038
43	0xbcc56ae9	-0.02409883
44	0xbd9d7bc9	-0.07689626
45	0x3dad9d96	0.08477323
46	0x3e6d45ab	0.23171107
47	0x3e45b336	0.19306645
48	0x3d18fe5b	0.037351947
49	0xbd981280	-0.074254036
50	0xbecc7cf0	-0.3993907
51	0x3e975c71	0.29562715
52	0xbe970134	-0.29493105
53	0x397d83da	0.00024177079
54	0x3cf273b7	0.029596193
55	0xbd99d9dc	-0.075122565
56	0x3e5ee61d	0.21767469
57	0xbd56115d	-0.052262653
58	0x3da5356b	0.08066829
59	0xbd85302b	-0.06503328
60	0x3e76cb0d	0.24100895
61	0xbc8ec3cd	-0.01742735
62	0xbd845770	-0.0646199
63	0xbe22e2c2	-0.15906814
64	0x3e10ee57	0.1415342
65	0xbde3893e	-0.11110161
66	0xbe03da53	-0.12876253
67	0x3df69f9f	0.12042164
68	0x3ddbea56	0.107380554
69	0x3dee76f4	0.11643782
70	0x3e7d736b	0.2475106
71	0xbd93419e	-0.0719025
72	0xbdc53987	-0.09630113
73	0xbe6d63a7	-0.23182546
74	0x3e878bbd	0.264738
75	0xbe418c11	-0.18901087
76	0x3e1d1c3d	0.15342803
77	0x3d3dc49c	0.04633008
78	0x3e05d500	0.13069534
79	0xbd675be6	-0.056484126
80	0x3e077e91	0.13231875
81	0xbd94c04a	-0.07263239
82	0x3e7186f3	0.23586635
83	0x3e496bd7	0.19670044
84	0x3df54ec2	0.119779125
85	0x3e8f9cce	0.2804932
86	0xbd78e392	-0.060763903
87	0xbde59865	-0.112107076
88	0xbe1b536e	-0.15168545
89	0xbdacd7ec	-0.08439621
90	0xbe8329fb	-0.25617966
91	0x3e5e827f	0.21729468
92	0x3e8de488	0.27713418
93	0xbd974db3	-0.07387867
94	0x3d765125	0.06013598
95	0x3e80ee81	0.25181964

glu_encoder.rnn.weight_hh_l0 f4 [48, 16]
0	0xbe3b015c	-0.18262237
1	0xbe612d02	-0.21989825
2	0xbdd50e0d	-0.104030706
3	0x3e038e11	0.12847163
4	0x3de3702f	0.11105382
5	0xbda61012	-0.08108534
6	0xbe8bbb07	-0.27291128
7	0x3e449815	0.1919864
8	0x3d4e974a	0.05043725
9	0x3e425d57	0.18980919
10	0xbe47cfab	-0.19512813
11	0xbe1bff63	-0.15234141
12	0xbd1dc3a7	-0.038516667
13	0xbe001ced	-0.12511034
14	0x3e01648a	0.12636009
15	0xbdbdf4a4	-0.09275177
16	0x3e1196d2	0.1421769
17	0xbe02325e	-0.12714526
18	0x3e3aa91d	0.18228574
19	0xbe552705	-0.20815666
20	0xbe2fd49a	-0.17170945
21	0x3e834b31	0.25643304
22	0x3d58bf68	0.052916914
23	0x3da4436c	0.08020672
24	0xbe4fed60	-0.20305395
25	0x3e8f10ee	0.27942604
26	0xbcae958c	-0.021311544
27	0x3d8aae20	0.06771493
28	0x3dbc9760	0.0920856
29	0xbe22a94e	-0.15884897
30	0xbe3d5099	-0.18487777
31	0x3de5c2ea	0.112188175
32	0x3e1f9ecc	0.1558792
33	0xbe1d4929	-0.1535994
34	0xbdf48b68	-0.11940652
35	0xbe5926a6	-0.2120615
36	0x3ce9c177	0.028534634
37	0x3d68ec4d	0.05686598
38	0xbe2ff0e8	-0.17181742
39	0x3e1efaf9	0.15525426
40	0x3e094e9b	0.13408892
41	0xbd9ddb7c	-0.07707879
42	0xbd885428	-0.066566765
43	0x3e1fc2ad	0.15601607
44	0xbdc2fe90	-0.0952121
45	0x3e212ccf	0.1573975
46	0xbe4c9a0f	-0.19980644
47	0x3e2e9deb	0.17052428
48	0x3e2b94d8	0.16755998
49	0xbe51a509	-0.20473112
50	0x3e1ee2bf	0.15516184
51	0x3e728ef4	0.23687345
52	0xbc0f64cd	-0.00875206
53	0x3e2d0c18	0.16899145
54	0x3e53c491	0.20680453
55	0x3e0dc2b2	0.13843802
56	0xbe2e01b7	-0.16992842
57	0xbd85e337	-0.065374784
58	0xbe0c7d22	-0.1371961
59	0xbe2cb07b	-0.16864197
60	0x3dfe1b09	0.124075
61	0x3c8a193f	0.016857741
62	0x3cdcab15	0.026937047
63	0x3c39b2b5	0.011334111
64	0xbd99ba73	-0.075062655
65	0xbbed0973	-0.0072337925
66	0x3d5a0779	0.053229783
67	0xbd228a4e	-0.03968268
68	0x3cfd9b08	0.030957714
69	0xbda8b011	-0.08236707
70	0x3e99efd2	0.3006578
71	0x3e0a2d0b	0.13493745
72	0x3cdf3611	0.02724746
73	0x3e02fd6c	0.12791985
74	0x3d4c7f14	0.04992588
75	0xbe9a6b84	-0.30160153
76	0xbe960eda	-0.29308206
77	0x3dc8e901	0.09810067
78	0x3d176144	0.036957994
79	0xbddca990	-0.10774529
80	0x3d990c87	0.074730925
81	0x3e5109fc	0.20413965
82	0xbc8d25b6	-0.017229896
83	0x3cc46067	0.02397175
84	0x3cebdb49	0.028791087
85	0xbd523b7f	-0.05132627
86	0xbd7509cf	-0.059823807
87	0x3e403910	0.18771768
88	0x3d27a0fc	0.04092501
89	0x3e591f0c	0.2120325
90	0xbe40cc6d	-0.18827982
91	0xbd5b79a3	-0.0535828
92	0xbe2c3403	-0.16816716
93	0xbe6b0f35	-0.2295502
94	0xbd8843f8	-0.06653589
95	0xbd7f6a59	-0.06235728
96	0xbd538c4d	-0.051647473
97	0x3e209bcd	0.15684433
98	0x3e19425e	0.14966723
99	0x3e7c797f	0.24655722
100	0x3d2821b9	0.041047785
101	0x3e7d90b1	0.24762227
102	0xbd7bab5a	-0.06144271
103	0x3d52f9d3	0.051507782
104	0x3e5ffe7b	0.2187442
105	0x3d2b92e2	0.041888125
106	0xbe2bd46a	-0.16780248
107	0x3e3a2a01	0.18180086
108	0x3e0ef477	0.13960443
109	0xbe42f001	-0.19036867
110	0x3df0028c	0.11719236
111	0xbe4dbd47	-0.20091735
112	0x3df8d38f	0.121497266
113	0xbe3ce530	-0.18446803
114	0xbc9ba828	-0.019001082
115	0x3dd5ebdd	0.10445378
116	0xbe70f666	-0.23531494
117	0x3e2ffc23	0.17186026
118	0xbd8e980e	-0.06962596
119	0xbce39e10	-0.027785331
120	0xbe09317b	-0.13397782
121	0x3e283c78	0.16429317
122	0x3da75887	0.08171182
123	0xbe77d794	-0.2420333
124	0xbe9b727c	-0.30360782
125	0xbe94d872	-0.29071385
126	0x3e7cbeb3	0.24682121
127	0xbd6963ac	-0.05697982
128	0x3c0de68f	0.0086609265
129	0x3e5e6ce5	0.21721227
130	0x3e783565	0.24239118
131	0xbe3a6072	-0.18200853
132	0xbe2e7229	-0.17035736
133	0x3defffa4	0.117186815
134	0xbd0e3aae	-0.03472393
135	0xbe7b1f9d	-0.24523778
136	0xbcaa4ecc	-0.020789526
137	0x3da5e643	0.081005596
138	0xbdb13560	-0.086527586
139	0x3e3cce76	0.18438134
140	0xbe4eb8d7	-0.20187698
141	0xbdc20441	-0.094734676
142	0x3e54ce6e	0.20781872
143	0xbd3e7055	-0.046493847
144	0x3e94f73e	0.2909488
145	0xbdc55492	-0.09635271
146	0x3e3d0f56	0.18462881
147	0xbe31596e	-0.17319271
148	0xbe5605ab	-0.209006
149	0xbe2c609d	-0.1683373
150	0x3d91b690	0.07114899
151	0x3d9b8ecb	0.07595595
152	0xbe0229e8	-0.12711298
153	0xbdf313de	-0.11869024
154	0x3c47925e	0.012180893
155	0xbdc1bbdb	-0.09459659
156	0xbc301303	-0.01074672
157	0x3c9b50e7	0.018959476
158	0x3da88abb	0.08229586
159	0x3dffd98f	0.12492668
160	0x3e61c511	0.22047831
161	0xbdb0b297	-0.08627813
162	0xbe7ca427	-0.24671994
163	0x3d49dd17	0.049283113
164	0x3e5e64c8	0.21718132
165	0x3dcc35ed	0.09971223
166	0x3d5e1739	0.054221366
167	0x3e1c378b	0.15255563
168	0x3ca5d4b6	0.02024303
169	0xbd99b700	-0.075056076
170	0xbdecb065	-0.11557082
171	0x3e24af63	0.1608253
172	0xbd08b0e6	-0.03337183
173	0x3d17f1a1	0.03709567
174	0x3e063a93	0.13108282
175	0xbb217116	-0.0024634055
176	0xbe19b8c7	-0.15011893
177	0x3ddf908a	0.109162405
178	0x3d3b46da	0.045721866
179	0x3e0e39bf	0.13889216
180	0x3d96a506	0.073556945
181	0xbd10dee5	-0.03536882
182	0xbd262d81	-0.04057074
183	0xbdff6276	-0.12469952
184	0xbd991385	-0.07474426
185	0xbe1d0817	-0.15335117
186	0xbdb4f708	-0.0883618
187	0x3d3e121a	0.04640398
188	0x3e7f11c7	0.24909125
189	0xbe23978b	-0.15975778
190	0xbd774a6a	-0.0603737
191	0x3e68824e	0.22705957
192	0x3e5810ac	0.2110011
193	0x3da1c0bd	0.0789809
194	0xbe067850	-0.13131833
195	0x3e5add3b	0.21373455
196	0xbe92812a	-0.2861417
197	0xbd21d570	-0.03951019
198	0x3e155034	0.14581376
199	0x3e2d9d31	0.16954495
200	0x3e71d30d	0.23615666
201	0xbd982a6b	-0.074299656
202	0xbe17942d	-0.14802618
203	0xbe296c62	-0.16545251
204	0x3c358329	0.011078634
205	0xbdcb25a5	-0.099192895
206	0x3d85a759	0.0652606
207	0x3d99c6d8	0.075086296
208	0x3d86d3d5	0.065833725
209	0x3dff4df0	0.12466037
210	0x3dd94f50	0.10610831
211	0x3e382eb0	0.1798656
212	0xbddf50f8	-0.109041154
213	0xbe145ed7	-0.14489304
214	0xbd677da8	-0.05651632
215	0x3c81281c	0.015766196
216	0x3e29ca66	0.16581115
217	0x3d337a71	0.04381794
218	0x3dd257aa	0.10270627
219	0xbdd05c07	-0.10173803
220	0x3d01a65b	0.03165279
221	0x3d75461a	0.059881307
222	0xbe16946e	-0.14705059
223	0xbe1a522d	-0.1507041
224	0x3e8d0fa7	0.27551004
225	0x3e306c98	0.17228925
226	0xbe5398dc	-0.2066378
227	0xbd3b9ccd	-0.045803834
228	0x3c8779b1	0.01653752
229	0x3e2c4d3a	0.16826335
230	0xbdeb706b	-0.114960514
231	0xbdbc3deb	-0.091914974
232	0xbe02ecdf	-0.12785672
233	0x3e216d77	0.15764414
234	0xbe108391	-0.14112689
235	0x3d0f1395	0.034930784
236	0x3e268d84	0.16264921
237	0x3af96aa3	0.0019028973
238	0x3e90334d	0.2816414
239	0xbe31d097	-0.17364727
240	0xbd320cd9	-0.043469284
241	0x3dacc074	0.08435145
242	0x3d166376	0.036715947
243	0x3df88d9c	0.12136385
244	0x3e958114	0.2920004
245	0xbe901445	-0.28140464
246	0xbd1863eb	-0.037204664
247	0x3e06d29f	0.13166283
248	0x3c94482f	0.018100826
249	0xbe617dc5	-0.22020634
250	0xbe193291	-0.14960696
251	0xbd483640	-0.04887986
252	0xbcdb4e82	-0.026770834
253	0xbd803d47	-0.06261688
254	0xbd49a677	-0.04923102
255	0xbc42f4d8	-0.011899196

glu_encoder.rnn.bias_ih_l0 f4 [48]
0	0x3e35297d	0.17691608
1	0xbe2098a4	-0.15683228
2	0xbd051939	-0.032494757
3	0x3d132582	0.035924442
4	0xbe412511	-0.18861796
5	0xbdde8da7	-0.10866862
6	0x3d682fe4	0.056686297
7	0xbda29cc6	-0.079400584
8	0x3d124841	0.035713438
9	0x3de493f5	0.11161033
10	0xbc84c74b	-0.016208312
11	0xbdf4df8e	-0.11956702
12	0xbd44539b	-0.047931295
13	0x3da46e44	0.08028844
14	0xbd99d907	-0.07512098
15	0xbe07341e	-0.13203475
16	0x3e769a8d	0.24082394
17	0xbe35fbf8	-0.177719
18	0x3e8b9acd	0.2726654
19	0xbe5b29de	-0.2140269
20	0x3e88368c	0.26604116
21	0xbe86a37e	-0.2629661
22	0x3e87382e	0.2641005
23	0xbdc15e96	-0.09441869
24	0x3d0a63a9	0.03378645
25	0x3db45b44	0.0880647
26	0x3d5405d6	0.051763378
27	0x3e63ace5	0.22233923
28	0x3c2ff5cf	0.010739758
29	0x3cbd7db2	0.023131225
30	0x3de71667	0.1128357
31	0x3d8de21f	0.06927895
32	0x3e804dbc	0.25059307
33	0x3e573232	0.21015242
34	0xbe365b23	-0.17808203
35	0xbe3ab714	-0.18233901
36	0xbe11630f	-0.14197944
37	0xbe0ed18d	-0.13947125
38	0xbe61f419	-0.22065772
39	0xbe0b098d	-0.13577862
40	0xbda20859	-0.079117484
41	0x3e570dc8	0.21001351
42	0xbb7b1a4b	-0.0038315232
43	0xbdff65c2	-0.12470581
44	0x3ce2b6df	0.02767509
45	0xbe86c607	-0.26322958
46	0xbd258c0f	-0.040416773
47	0xbde1f87a	-0.11033721

glu_encoder.rnn.bias_hh_l0 f4 [48]
0	0xbd42e018	-0.047576994
1	0x3e932be2	0.28744417
2	0x3e5b2712	0.21401623
3	0xbd6a4c17	-0.05720147
4	0xbe1792f0	-0.14802146
5	0xbd4b4990	-0.0496307
6	0xbe355fcd	-0.17712326
7	0xbe0f3d08	-0.13988125
8	0xbdd05968	-0.10173303
9	0xbdb82296	-0.08990972
10	0x3c564fb2	0.013080524
11	0xbd46dd60	-0.048550963
12	0x3e890d1c	0.26767814
13	0xbe4364b1	-0.1908138
14	0x3d9083de	0.07056402
15	0x3dc53235	0.09628717
16	0xbd4c1205	-0.049821872
17	0x3e5afe20	0.21386003
18	0x3eaf42ca	0.34230644
19	0x3e4fda20	0.20298052
20	0xbe0fd4da	-0.1404604
21	0xbe3bfcf3	-0.18358211
22	0x3e4a5d98	0.19762266
23	0x3ddf9838	0.10917705
24	0x3e038a8d	0.12845822
25	0xbeb1bb60	-0.34713268
26	0x3e131876	0.143648
27	0x3e5fd2cc	0.21857756
28	0x3e32c1a2	0.17456678
29	0x3e8855b2	0.2662788
30	0x3dc6c1c4	0.097049266
31	0x3eb2c6bb	0.34917244
32	0x3de0d5f0	0.10978305
33	0x3c74969b	0.014928485
34	0x3dfd8299	0.12378425
35	0x3df3286d	0.11872945
36	0xbe6827ed	-0.2267148
37	0xbdd1b353	-0.102392815
38	0xbe7cb847	-0.24679671
39	0x3e2bbd6a	0.16771474
40	0x3e14e398	0.14539945
41	0xbdd1c883	-0.10243323
42	0xbddbc1ec	-0.10730347
43	0xbe37f11b	-0.17963068
44	0xbe9d20a1	-0.30688956
45	0xbe769f4c	-0.24084204
46	0x3da5e2b0	0.08099878
47	0xbe493ae5	-0.19651373

glu_encoder.hid2lat.weight f4 [64, 16]
0	0xbe710108	-0.2353555
1	0xbe3ccdb4	-0.18437845
2	0xbda0e9ab	-0.07857069
3	0x3e2a2d9e	0.16618964
4	0x3cd45893	0.025921142
5	0x3e2388b0	0.15970111
6	0xbe0a7c58	-0.13523996
7	0x3d80090a	0.06251724
8	0xbd116382	-0.03549529
9	0xbe6da7bb	-0.23208515
10	0xbe0522c5	-0.13001545
11	0xbda65cb2	-0.08123149
12	0x3e43e518	0.19130361
13	0xbe3c1b46	-0.18369779
14	0xbe25b214	-0.16181213
15	0xbe02291e	-0.12710997
16	0x3e06086e	0.13089153
17	0x3e1ce7e5	0.15322836
18	0xbe6b821a	-0.22998849
19	0x3dc51ca0	0.096246004
20	0x3e7610f7	0.24029909
21	0xbbb9d4ba	-0.005671111
22	0x3d3ddacb	0.046351235
23	0xbdb922a9	-0.09039814
24	0x3e202219	0.15638007
25	0xbd21b923	-0.0394832
26	0xbe33aa04	-0.17545325
27	0xbd993bd6	-0.07482116
28	0x3e12ee7a	0.14348784
29	0x3dd5e6b7	0.10444396
30	0xbe505b5b	-0.2034735
31	0xbdb55d6e	-0.08855711
32	0xbddd43a8	-0.1080392
33	0xbc5ed8b5	-0.013601472
34	0xbcef8c49	-0.029241698
35	0x3e8207cd	0.25396577
36	0xbc9629a8	-0.01833041
37	0x3db050c5	0.086091556
38	0x3e74750f	0.2387278
39	0x3e61b3cc	0.22041243
40	0xbd0d0137	-0.034424987
41	0x3e7c0bd4	0.24613887
42	0xbe4a414d	-0.19751473
43	0x3c9ff0b2	0.019523952
44	0x3daa2e9d	0.08309672
45	0xbddc59b2	-0.107592955
46	0x3dfbf165	0.12301902
47	0xbe465b1c	-0.19370693
48	0x3e233376	0.159376
49	0xbdce2be4	-0.10066965
50	0x3e65d8aa	0.22445932
51	0x3d7e4c61	0.06208456
52	0xbdcfafd3	-0.10140958
53	0x3e2a3919	0.16623344
54	0xbc7cadac	-0.015422266
55	0x3e8263fd	0.2546691
56	0xbe3e41b3	-0.1857975
57	0xbdd06e65	-0.10177306
58	0xbe825d8c	-0.25461996
59	0x3d37237f	0.044711586
60	0x3c906baa	0.017629463
61	0xbdabbae6	-0.083852574
62	0x3ce1ceb6	0.027564388
63	0xbddce66e	-0.107861385
64	0x3e67f53a	0.2265214
65	0x3df2082d	0.11817966
66	0xbe534db6	-0.20635113
67	0x3cb7a353	0.022416746
68	0x3e4102d2	0.18848732
69	0x3e53aeab	0.206721
70	0x3e50246b	0.20326392
71	0xbcfc1b0c	-0.030774616
72	0x3df88fba	0.12136789
73	0xbdc1a0d7	-0.09454506
74	0x3e462751	0.19350936
75	0xbe968ce8	-0.29404378
76	0xbe63ba7e	-0.2223911
77	0xbdfe6237	-0.12421077
78	0xbdbfe1b5	-0.09369222
79	0x3e6d9c74	0.23204213
80	0xbe02c268	-0.12769473
81	0xbe352462	-0.1768966
82	0x3e8f8f8c	0.28039205
83	0x3e7c4284	0.24634749
84	0x3d1e5489	0.038654838
85	0x3e5e6842	0.21719459
86	0x3e450f8b	0.1924421
87	0xbe6e2161	-0.2325492
88	0xbd8d95e0	-0.06913352
89	0x3e135aa5	0.14390047
90	0xbde4ece9	-0.111779995
91	0x3e1e1cec	0.1544072
92	0xbc3f8faa	-0.011691967
93	0xbdb77cf1	-0.089593776
94	0xbe0fd52b	-0.14046161
95	0x3de36a90	0.111043096
96	0x3d1f891e	0.038949125
97	0xbe1ec5de	-0.15505168
98	0x3da35a75	0.07976238
99	0x3e4daead	0.20086165
100	0x3d6b3601	0.05742455
101	0xbe32b629	-0.17452301
102	0x3e164dc7	0.14678107
103	0x3e4ee62a	0.20204988
104	0xbdc7f387	-0.09763246
105	0x3e1241d7	0.14282928
106	0x3d8739d0	0.06602824
107	0x3dbbaa12	0.09163298
108	0xbdc03183	-0.093844436
109	0xbd0417b0	-0.032249153
110	0xbe16ec3e	-0.14738557
111	0xbd19baa2	-0.037531503
112	0xbdf40ef6	-0.11916916
113	0x3dd1de48	0.10247475
114	0x3e3b02f0	0.1826284
115	0xbdb437aa	-0.087996796
116	0xbd02032b	-0.031741302
117	0xbe20861d	-0.1567616
118	0xbdd0f13e	-0.10202263
119	0x3d15a0bc	0.03653024
120	0xbddd0402	-0.1079178
121	0xbdf03752	-0.117293015
122	0xbe8806af	-0.265676
123	0x3e0ce000	0.13757324
124	0x3e4d4365	0.2004524
125	0x3e13e89a	0.14444199
126	0x3dfdd60d	0.123943426
127	0x3e54b563	0.20772319
128	0x3d464193	0.04840238
129	0xbdbb1f86	-0.09136872
130	0xbe1aa770	-0.15102935
131	0x3e65bfcb	0.22436444
132	0x3e2601fd	0.16211696
133	0xbe468402	-0.19386294
134	0xbe393c58	-0.18089426
135	0xbe41c981	-0.18924524
136	0xbd3ac81c	-0.045600995
137	0x3e18a324	0.14905983
138	0x3e396e3c	0.18108457
139	0xbe64f6ce	-0.22359774
140	0x3cbeb045	0.023277411
141	0x3e58639d	0.2113175
142	0xbe1b033d	-0.15137954
143	0x3d9c5a8e	0.076344594
144	0x3d2d2fed	0.042282034
145	0xbe6f15da	-0.2334818
146	0x3dd04abf	0.10170507
147	0x3d37c7cc	0.044868276
148	0x3d2cf700	0.042227745
149	0x3e37c4e3	0.179462
150	0xbdea7916	-0.114488766
151	0x3dc934d1	0.09824527
152	0xbe196ee8	-0.14983714
153	0xbdf05d2b	-0.117365204
154	0xbd2acf78	-0.041701764
155	0x3da9f353	0.082983635
156	0xbdc30eaa	-0.09524281
157	0x3d9dcbb6	0.077048704
158	0x3dc392b5	0.095494665
159	0x3e3921da	0.1807932
160	0x3e0c1370	0.1367929
161	0xbe5fc74a	-0.21853366
162	0x3ddbfcc1	0.10741568
163	0x3e910879	0.28326777
164	0x3e1462f2	0.1449087
165	0x3e28f44b	0.1649944
166	0x3dc5e644	0.0966306
167	0xbc89ef39	-0.016837703
168	0x3e26806a	0.16259924
169	0xbc56b678	-0.013105027
170	0xbe01993d	-0.12656112
171	0xbe1d8636	-0.15383229
172	0xbe253878	-0.16134822
173	0xbcd538b1	-0.02602801
174	0x3e6c23c3	0.23060517
175	0xbd294e81	-0.041334633
176	0xbe09a04d	-0.13440056
177	0xbe0a506f	-0.13507245
178	0xbe46ea51	-0.19425322
179	0xbb907b49	-0.004409228
180	0x3df93ae6	0.12169437
181	0xbd59b67d	-0.05315255
182	0x3ce4422b	0.027863583
183	0xbe0315be	-0.12801263
184	0xbe7ab93b	-0.24484722
185	0x3e578ee2	0.21050599
186	0x3e03eaf2	0.12882593
187	0x3d7a465f	0.061102267
188	0xbe7e68f6	-0.24844727
189	0x3d509a8f	0.05092865
190	0xbe7caca0	-0.24675226
191	0xbe4314c4	-0.1905089
192	0x3d67494a	0.05646638
193	0xbddeaf85	-0.108733214
194	0x3e22df4d	0.15905495
195	0x3e479670	0.19490981
196	0xbe1c3f45	-0.1525851
197	0xbd34eec7	-0.04417303
198	0xbd536472	-0.051609464
199	0x3e260d1e	0.16215941
200	0x3e8b5141	0.2721043
201	0x3e5d3fc9	0.21606363
202	0x3d783072	0.060593076
203	0x3e2a0282	0.16602519
204	0x3e189621	0.1490102
205	0xbe70d308	-0.23518002
206	0x3e075485	0.13215835
207	0xbdfc716e	-0.123263225
208	0xbd863f60	-0.065550566
209	0x3d3c7f71	0.046019975
210	0xbd9b9dd4	-0.07598463
211	0xbe446d51	-0.19182326
212	0xbe699ac5	-0.22812946
213	0xbe264152	-0.16235855
214	0xbe80458b	-0.25053057
215	0x3e35dcbb	0.17759983
216	0x3e75f928	0.24020827
217	0xbe22c45e	-0.1589522
218	0x3e24bf05	0.16088493
219	0x3e09f026	0.13470516
220	0xbdd2d68d	-0.102948286
221	0xbc63b175	-0.0138972895
222	0xbe450e80	-0.19243813
223	0x3e671f0d	0.22570439
224	0x3e296931	0.16544034
225	0xbda5d572	-0.08097352
226	0x3de68102	0.11255075
227	0x3bc2ffc8	0.0059509017
228	0x3c22a668	0.00992737
229	0x3e0a93dc	0.13532966
230	0x3d686310	0.0567351
231	0xbe9212ea	-0.28530055
232	0xbe88b551	-0.26700833
233	0xbcf270f5	-0.029594878
234	0xbe8807a6	-0.26568335
235	0x3d33e13f	0.043915983
236	0x3ce1a2c2	0.02754343
237	0x3cfc70da	0.03081553
238	0xbe877256	-0.2645442
239	0x3e25fc19	0.16209449
240	0xbe534402	-0.20631412
241	0x3db38159	0.087649055
242	0xbc22b452	-0.009930687
243	0xbe3a8516	-0.18214831
244	0x3d47a74b	0.048743527
245	0x3e591eb1	0.21203114
246	0xbcce9dbc	-0.025221698
247	0x3dc1704f	0.09445249
248	0xbdf53d09	-0.11974532
249	0xbc643c23	-0.013930353
250	0x3dee573a	0.11637731
251	0xbe336650	-0.17519498
252	0xbc8c6084	-0.017135866
253	0x3c2ec678	0.010667436
254	0xbc85bd09	-0.01632549
255	0xbd794948	-0.060860902

glu_encoder.hid2lat.bias f4 [64]
0	0x3cd9b904	0.02657748
1	0xbd8e8b5b	-0.06960174
2	0xbe44b390	-0.19209123
3	0x3c961eaa	0.018325169
4	0x3d4bd8ce	0.049767308
5	0x3d2ba0d8	0.04190144
6	0x3e479c20	0.1949315
7	0xbdb76fde	-0.08956884
8	0x3c90c292	0.017670903
9	0x3e05fb01	0.13084032
10	0x3e7e1b55	0.24815114
11	0x3ddd89a4	0.108172685
12	0x3c864c19	0.016393708
13	0xbaef2170	-0.0018244218
14	0xbc408788	-0.011751063
15	0xbe493f36	-0.1965302
16	0xbd36213b	-0.044465285
17	0x3d80885b	0.06276008
18	0x3ad57406	0.0016285188
19	0x3e614445	0.21998699
20	0xbda23d7b	-0.07921883
21	0x3e452150	0.19250989
22	0x3de5d653	0.1122252
23	0x3d98ba30	0.074573874
24	0x3e2193b5	0.15779002
25	0x3da316be	0.07963322
26	0x3d8750da	0.06607218
27	0x3cca7d6e	0.024718013
28	0xbe215bdb	-0.15757696
29	0x3e626401	0.22108461
30	0xbe1d3439	-0.15351953
31	0xbd277fb5	-0.040893275
32	0xbe740cde	-0.23833033
33	0xbe874f7d	-0.26427832
34	0x3e3e2b9d	0.18571325
35	0xbde8b00f	-0.113617055
36	0x3e750003	0.23925786
37	0xbd4c9ccd	-0.049954224
38	0xbe5d9c3c	-0.2164163
39	0xbdef0c6d	-0.11672292
40	0xbd205c9f	-0.03915083
41	0x3becd9bf	0.007228106
42	0x3e10314a	0.14081302
43	0x3c91c8f8	0.017796025
44	0x3e8b7450	0.27237177
45	0x3e060786	0.13088807
46	0x3ddee9d7	0.10884445
47	0x3e533dc7	0.20629035
48	0xbe290d0f	-0.16508888
49	0x3bd113bf	0.0063805277
50	0x3e4dd8bf	0.20102213
51	0x3e5e01f8	0.21680439
52	0x3c8d9f00	0.017287731
53	0xbdcc7a8f	-0.09984314
54	0x3d45bcc1	0.048275713
55	0xbd5f575e	-0.05452668
56	0xbe85ad8e	-0.26108974
57	0xbe43aa1e	-0.19107863
58	0xbe7b9bcd	-0.24571152
59	0xbd610cbe	-0.054943793
60	0xbe5a341b	-0.21308939
61	0xbce059d7	-0.027386589
62	0x3d0baf7a	0.034102894
63	0x3e4611d7	0.19342743
