code/baseline/saved/GAMNet_learning_rate_0.0001_hidden_size_64_epoch_6000_batch_size_32/Epoch_1900_JA_0.6753_DDI_0.0903.model (torch, 455805 bytes, 29 tensors)

lab_embeddings f4 [32, 64]
000000 7c 1e 9e 3e b9 2d 00 3e 7e b3 39 bf d7 d0 d2 bf
       0.30882633 0.12517442 -0.7253951 -1.6469983
000010 62 7e 2b bf 7e 38 be bf c3 ad 95 3f d5 95 fa 3e
       -0.6698972 -1.486099 1.1693653 0.48942438
000020 41 83 38 3f 20 ae 0b 3f e8 7f de bf ab 56 ae bf
       0.7207528 0.5456257 -1.7382784 -1.3620199
000030 99 e6 00 3f 89 30 e1 be 88 24 29 3f c1 07 f9 3f
       0.50351864 -0.43982342 0.6607137 1.9455491
000040 6e 0f 2b 3f 8c fd 39 3e 85 e3 b8 3e 45 ca f5 3e
       0.6682042 0.18163127 0.36111084 0.48005882
000050 f8 4a 71 3e 6b 35 48 bf e9 74 8c bf 60 95 71 bf
       0.23563755 -0.7820651 -1.0973178 -0.94368553
000060 12 72 24 bf 76 d2 82 bf 78 2e 34 3f da 69 15 c0
       -0.6423656 -1.0220478 0.70383406 -2.3345857
000070 15 9a bb be cb 14 52 3f c4 46 b6 3f b4 e0 c3 3e
       -0.36640993 0.8206298 1.4240346 0.38257372
000080 7e 58 0b c0 a1 61 da 3f 54 43 80 be 13 86 f2 bf
       -2.1772761 1.7061044 -0.25051367 -1.8947166
000090 54 04 e2 be 88 76 20 bf c3 df 90 bf d3 d5 69 bf
       -0.44143927 -0.62680864 -1.1318287 -0.91341895
0000a0 19 67 ff 3e 02 2b d5 3e 28 27 77 3f 1e 58 e2 be
       0.49883345 0.41634375 0.9654412 -0.44207853
0000b0 cd 35 be 3e d5 33 64 3f 61 71 0f 40 cc 96 0b 3f
       0.37150422 0.8914159 2.241295 0.5452697
0000c0 ea 92 9f be f9 25 cd be c5 13 89 3e 46 3f 04 bf
       -0.31166774 -0.40068033 0.26772895 -0.5165905
0000d0 dc f6 43 bf 67 26 48 3e 8d 28 21 bf 9b 5d 41 3f
       -0.7654855 0.195459 -0.629525 0.75533456
0000e0 f4 38 8b be d1 6e 5c be 44 2d 21 40 70 eb 12 bf
       -0.2719189 -0.21526648 2.5183878 -0.573905
0000f0 51 b0 86 3d 21 7d ae 3e ee ee e9 3f 49 52 1a 3d
       0.065765984 0.3407984 1.827604 0.03767613
000100 65 ba 1f be 61 5f 22 bf 79 89 d6 be 52 68 b4 bd
       -0.15598448 -0.63426787 -0.41901758 -0.0880896
000110 7b 14 58 3e 22 04 13 3f 8b 2a ee 3f 60 d0 98 3e
       0.21101563 0.5742818 1.8606733 0.29846478
000120 d7 c0 85 bf 95 b1 a2 bf 38 53 a6 bf d2 c1 6a 3d
       -1.0449475 -1.2710444 -1.2994146 0.057313748
000130 a3 b1 c0 bf 4e 90 8b bf 3c f9 59 3f 77 09 6c bf
       -1.505421 -1.0903413 0.85145926 -0.9220194
000140 5e 29 26 be 1a e3 12 3f 37 f9 bb 3f 72 22 99 3f
       -0.16226718 0.5737778 1.4685429 1.1963637
000150 58 07 c6 3e ca 68 04 bf 3d 8a 40 3e 73 7f 13 40
       0.38677478 -0.51722395 0.18802734 2.304654
000160 ee 20 df bc 74 eb 82 3f 7f 4c b5 3e 82 75 75 3f
       -0.027237382 1.0228105 0.35409924 0.9588243
000170 a9 4b 2c 3d 5f 27 ed 3f 31 c2 5c 3f 76 e4 ee 3d
       0.042064343 1.852764 0.8623381 0.11664669
000180 eb a7 47 bf 29 94 b4 bf 2e 7c 02 bf b2 f9 04 3f
       -0.779906 -1.4107715 -0.50970733 0.51943505
000190 f4 66 a2 3f 4b 95 98 be 29 68 44 3e 75 da af 3e
       1.2687669 -0.29801401 0.19180359 0.34346357
0001a0 1e 6f dd 3e 6f 8c 98 bf f9 ff 37 3f 82 61 2c 3f
       0.43248838 -1.1917857 0.7187496 0.67336285
0001b0 fb b9 cb 3f 61 ad 84 be 81 00 f9 bf 7d bd 20 bf
       1.5916132 -0.25913528 -1.9453279 -0.62789136
0001c0 2c 84 2f 3f 3a ab d0 bf c5 17 43 3f ff 99 17 3f
       0.68561053 -1.6302254 0.76208144 0.59219354
0001d0 ac 9a 0d 3f 7a 94 ee be 98 0f 9d bf 3f 4e 44 bf
       0.55314136 -0.46597654 -1.2270384 -0.76681894
0001e0 4a 4f f9 bf f7 06 53 40 ff 45 3c 3e 9f 97 c8 3e
       -1.9477322 3.2973 0.18386076 0.39178178
0001f0 47 07 34 3f a3 71 73 3f 45 c2 0b c0 74 d4 b0 3f
       0.70323604 0.9509527 -2.1837323 1.3814836
000200 a1 43 60 bf 0e 25 87 be 6f e4 cf 3f 15 87 3a be
       -0.87603194 -0.26395458 1.6241587 -0.18215592
000210 5f d6 7f 3e ac 28 80 bf 73 c4 79 bf 57 7c 3f bf
       0.2498412 -1.0012412 -0.9756538 -0.747991
000220 fb 55 57 bf 54 53 67 3f 98 d4 7a bc 08 ed 9b 3f
       -0.8411557 0.90361524 -0.015309475 1.2181711
000230 93 83 a5 be 1e 9a 17 3f d4 aa f1 be ea 6b 08 40
       -0.32326946 0.5921954 -0.47200644 2.1315866
000240 19 63 50 bf 3d 17 5a 3e eb 51 4d 3f 65 29 c3 be
       -0.8140121 0.21297927 0.8020312 -0.3811752
000250 5d 16 4c bf 4d a2 0b 3f 16 80 c4 3f 63 49 bd bb
       -0.79721624 0.54544526 1.5351589 -0.0057765706
000260 a8 5b ae bf 29 d4 64 be 09 dc 1d bf 1c 6e 46 bf
       -1.3621721 -0.22346558 -0.6166387 -0.77511764
000270 08 de bb 3e be 40 88 be 7a 45 1c be bc 97 41 3f
       0.36692834 -0.26611894 -0.15260878 0.75622153
000280 90 1b 4f bf 59 44 b3 3f ac 62 a8 3e fa c2 04 3f
       -0.8090143 1.4005233 0.3288778 0.5186001
000290 77 9b 3c 3f ad de b7 3e 3e 10 c0 3b bf 64 b8 3f
       0.7367472 0.35912076 0.005861311 1.4405745
0002a0 9a da 00 40 9a 83 5a be 1f 6d d3 3e 07 41 46 be
       2.0133424 -0.21339265 0.4129419 -0.19360743
0002b0 cf 7b a0 3f 62 ff 98 be f9 68 dc be 8d fd 30 bf
       1.2537783 -0.29882342 -0.43048838 -0.6913689
0002c0 74 1f bf be 90 62 9a 3e 2c fb 83 bf cc 24 b6 3e
       -0.37328684 0.30153322 -1.0311027 0.3557495
0002d0 89 66 b3 bf 97 4b b7 3e 29 96 91 3d 1f 2d dc bf
       -1.4015666 0.35799858 0.07108719 -1.720127
0002e0 87 76 ae bc cb 76 52 3f 72 76 85 3e 25 29 43 bd
       -0.021296753 0.82212514 0.2606693 -0.04764666
0002f0 1c 41 c8 3e 26 97 af bf f6 0e 5f bf 6f b0 04 bf
       0.39112175 -1.3718002 -0.87132204 -0.51831716
000300 b4 89 4e bd c2 af 21 bf 56 80 68 3f 53 f5 89 bf
       -0.050424293 -0.6315881 0.90820825 -1.0777992
000310 27 28 f0 bd 5c 8e 00 c0 b2 6f b9 bf 05 36 27 3e
       -0.117264085 -2.008689 -1.4487212 0.163292
000320 d6 fd 85 3e e5 c8 99 3f f2 1e e8 be b6 91 83 bf
       0.26170224 1.2014433 -0.4533611 -1.0278842
000330 16 b2 59 3f 28 f8 fb 3f 00 b6 6a 3e 24 aa bc bd
       0.8503736 1.9685106 0.2292099 -0.09212139
000340 a1 bc 82 3e 9d e7 15 3f 5e 26 8f be 48 f5 5d 3d
       0.25534537 0.5855654 -0.2795896 0.054188997
000350 24 db 81 3e 3e db ac bf 5e 4f 20 c0 1c 6d c5 be
       0.25362504 -1.3504407 -2.5048442 -0.38559806
000360 d4 60 1c bf fd a7 83 bd 2e c8 0f 40 d1 0d e3 bf
       -0.6108525 -0.064285256 2.246593 -1.7738591
000370 8b 8c 11 3f 69 c6 53 3d c3 6b 91 be 8a c2 cd 3e
       0.56855077 0.05170289 -0.28402528 0.40187484
000380 4b fb 72 3e d9 50 9d 3f 0f d1 77 3f 24 36 a1 bf
       0.23728673 1.2290298 0.96803373 -1.2594647
000390 ec 8e 06 3f 16 33 5c bd 67 b2 f6 3f eb fc 04 c0
       0.5256183 -0.053759657 1.9273194 -2.077937
0003a0 1d a6 41 3f cf e1 9f 3e 21 98 37 bd cc 88 cc be
       0.75644094 0.31226966 -0.044822816 -0.39948118
0003b0 95 45 43 bf ae 1d 18 3f 3d 00 98 bf 7a e7 55 3f
       -0.7627805 0.5942029 -1.1875073 0.8355633
0003c0 ab 75 25 bf de b9 a5 bf 4a 17 02 3f 10 69 66 3f
       -0.6463267 -1.2947347 0.50816786 0.9000406
0003d0 47 3c ae 3f 52 4e fb 3e 2c 38 f1 bf ef e2 39 3f
       1.3612145 0.4908319 -1.8845267 0.726119
0003e0 c2 37 1f 3f 8c 48 b7 3f b5 12 66 bf df 15 35 3f
       0.62194455 1.4319015 -0.89872295 0.707365
0003f0 95 a2 8f 3f 89 57 57 be a9 93 24 3f c3 73 0b 40
       1.1221491 -0.21029486 0.6428781 2.1789405

static_ll.0.weight f4 [128, 64]
000000 59 f0 e1 3d 82 8f b9 bd e6 5a e9 bd 12 dc 03 be
       0.11032171 -0.09060575 -0.113942906 -0.12876919
000010 6d 5e 8e 3d a6 5c 84 bd 01 02 f9 bd 83 22 ef 3c
       0.06951604 -0.06462984 -0.12158585 0.029191261
000020 d0 a8 86 3d 2e 6f 82 bd 84 ef 1e bd 7d cc 8c bd
       0.06575167 -0.06368862 -0.03880264 -0.068749405
000030 c8 b6 21 3e e4 bc 63 bd 92 ed 47 3c 62 84 ad bd
       0.15792382 -0.055600062 0.012202637 -0.08472516
000040 9b 4e 0a be 43 e4 d2 3d cb 58 7b bd 04 e0 ee bd
       -0.13506548 0.10297444 -0.061363976 -0.11663821
000050 54 f3 21 bd fc b6 95 bd 40 89 0f be 59 a7 d8 bd
       -0.039538696 -0.07310292 -0.140172 -0.10578794
000060 b9 89 de 3d fd cd 76 bc ca b3 4f 3d e7 10 d8 bd
       0.10866112 -0.01506376 0.05070857 -0.10550099
000070 36 97 6f 3d 4a c2 91 bd 90 0a 9b 3d 3c 0d f9 3d
       0.058493815 -0.07117136 0.07570374 0.121607274
000080 18 4a cd 3d 30 1c c6 3d 71 f1 f8 bb 4a 66 f8 bd
       0.10023898 0.09673345 -0.0075971414 -0.12128885
000090 74 13 44 3d 9b a8 83 3d 05 d6 2c 3d 10 e1 2c bd
       0.047870114 0.06428643 0.042196292 -0.042206824
0000a0 77 2b 3b 3c cf b7 97 3d 42 22 92 3d e1 ff 11 3d
       0.011423937 0.074081056 0.071354404 0.035644416
0000b0 db d3 94 bd 85 5d 7b 3d 77 f1 36 bd b4 37 8c bd
       -0.07266971 0.061368484 -0.044663873 -0.06846562
0000c0 42 04 4c bd c8 db fe bd fb 07 0a 3e 5f 7b 11 3e
       -0.049808748 -0.12444264 0.13479607 0.14207219
0000d0 dd a4 2c 3d a8 d1 74 bc 60 a8 42 bd 93 de 03 be
       0.042149413 -0.014942564 -0.047523856 -0.12877874
0000e0 9f 2e 8e 3c dd 7d ca 3b bc a4 24 bd 2f b4 0e 3d
       0.017356215 0.006179555 -0.040196165 0.034839805
0000f0 4c d0 08 be 59 e9 de bd 1a 3f 0b bd 6c 7a b9 bc
       -0.13360709 -0.10884351 -0.033995725 -0.022641383
000100 84 14 b9 bb 36 49 e9 3d 87 43 ce bd b3 39 d7 3d
       -0.0056481976 0.11390917 -0.100714736 0.10509052
000110 b1 56 cd bc 90 a3 b0 bd 9f 2a b9 3d fa 55 8b bd
       -0.025065752 -0.08624947 0.090413325 -0.06803508
000120 36 62 ad bd 40 af 50 3d 2c ff 16 bd d7 3b b8 3d
       -0.08465998 0.05094838 -0.036864445 0.089957885
000130 6c 3a 6d bd dc 3e 04 3c 39 96 4d 3d 6e da a6 bd
       -0.057917044 0.0080716275 0.05019209 -0.08147131
000140 62 de d7 bd 2a 67 be bd 2c 59 93 3b 91 40 ce 3d
       -0.10540463 -0.09297021 0.004496714 0.10070909
000150 88 8b c4 3d 8b 96 84 3d fc 22 59 3d 9c 70 7f 3c
       0.09596926 0.06474026 0.05301188 0.015590813
000160 c1 70 b8 3d 6e 42 2f 3d 96 09 c3 3d de 29 05 3e
       0.09005881 0.04278796 0.09523313 0.13004252
000170 e3 ac df 3d c8 d8 03 3e 6b a1 a9 3c 64 bc fd bd
       0.109216474 0.12875664 0.020706853 -0.12389448
000180 cc 40 eb bd b4 a4 e0 bd 34 14 2e 3d 5f 8e 43 bd
       -0.114869684 -0.10968915 0.042499736 -0.047743198
000190 f5 69 32 bd 11 8d f1 3d 99 6a 8b bd 4c e4 f5 3d
       -0.04355808 0.117944844 -0.06807441 0.12006435
0001a0 80 6b 7b bd 39 05 be bd 2d c8 fe 3d aa 25 ed bd
       -0.061381817 -0.0927834 0.12440524 -0.115794495
0001b0 fc 82 a2 bd 84 ec 43 bc 56 49 f3 bc 79 f2 0f bd
       -0.079351395 -0.011958245 -0.029698055 -0.03514335
0001c0 45 24 7c bd 03 c0 f3 3c a3 9a 0e 3e 19 43 5e 3c
       -0.061558027 0.029754644 0.13926177 0.013565802
0001d0 d7 bb 04 be cb 52 b3 bc 32 6c b3 bd aa 59 8c 3c
       -0.1296228 -0.021890065 -0.08760871 0.017132599
0001e0 8c 82 a0 bd e7 b9 03 3e e4 8b 3f bc 22 e8 bf 3d
       -0.078374 0.12863885 -0.011691067 0.09370448
0001f0 0f 8f 5d bc dc 1f 9b 3d 9b cf fd bd 69 fd d4 3d
       -0.013522877 0.07574436 -0.12393113 0.10399897
000200 3a 50 aa 3d 49 90 e6 bb ab 45 23 bc 4c 09 9a 3b
       0.08316083 -0.007036243 -0.009965341 0.0047008153
000210 01 97 bf 3d 8a 91 14 be 5d 4f d7 bd 21 f4 b6 bc
       0.093549736 -0.14508644 -0.10513184 -0.022333207
000220 cf 29 b4 bd 21 23 df bc f3 70 ac bd 62 74 07 be
       -0.08797037 -0.02723843 -0.08419981 -0.1322799
000230 4c 24 0a bc e4 94 ba bd 09 bc cc bd 9b 57 93 bc
       -0.008431505 -0.0911043 -0.09996802 -0.01798611
000240 50 de a1 bd 56 b3 dd 3d 50 4f 27 bd 6b 48 e6 bd
       -0.07903731 0.10825221 -0.040847123 -0.112442814
000250 a4 c6 7e 3d 23 c7 5f bd c4 51 04 bd 0c 38 13 3d
       0.062201157 -0.05463327 -0.03230454 0.035942122
000260 c9 77 78 bd 10 8d d6 bd 43 08 be bd bf 05 73 bd
       -0.06066111 -0.10476124 -0.092789195 -0.05933165
000270 d5 31 98 bd 35 cc 98 3d 51 58 68 3d 2c cc d7 bc
       -0.0743138 0.074608244 0.05672485 -0.026342474
000280 43 24 06 be e6 3e a1 3d 88 f1 b5 3c 85 48 e5 3c
       -0.1309977 0.07873325 0.022209898 0.027988682
000290 d3 6d 4e 3d 2f e6 fb bb b3 95 1b 3d b7 0c 46 bc
       0.050397705 -0.007687352 0.03798456 -0.012087992
0002a0 f4 95 bf bc f2 b6 b5 bd 4e 9c b3 3d 65 8c 84 bd
       -0.023386933 -0.08872785 0.08770047 -0.06472091
0002b0 e9 d4 09 3e 31 eb d5 3d cf 9c ff 3d 35 76 4b bd
       0.13460125 0.1044525 0.12481081 -0.049673278
0002c0 68 ff c8 bd e0 99 af bc 20 80 c1 3d 04 c4 a1 3d
       -0.0981434 -0.021435678 0.09448266 0.07898715
0002d0 6b bf 34 bc 62 d8 eb 3d 35 03 b9 3d 49 62 1e bd
       -0.011031966 0.11515881 0.09033815 -0.03866795
0002e0 3a 54 39 3c 63 6a 02 39 90 7e a4 3c f8 ce a3 bd
       0.011311585 0.00012437398 0.020079881 -0.079984605
0002f0 e2 79 05 3e a7 1f b3 3d c4 4c b5 3c 9b f9 92 bd
       0.13034776 0.087462716 0.022131331 -0.07176515
000300 fe 1c cc bd 37 6c 70 bd de d2 e8 bc 71 5c c4 bc
       -0.09966467 -0.05869695 -0.028420862 -0.02396986
000310 0b 6c f9 3d f8 66 df 3d 1b c7 04 be 62 6d 95 3d
       0.12178811 0.109083116 -0.12966578 0.07296254
000320 98 5d c0 bd df 22 bc 3d 82 6a 82 3d 9f f7 66 ba
       -0.093928516 0.09186339 0.06367971 -0.0008810702
000330 95 9a b5 3d 92 32 68 3d 7c 65 1f 3d a5 e8 3d 3d
       0.08867375 0.056688853 0.038915142 0.046364445
000340 77 c7 af 3d d7 80 4b bc 9b e4 a6 bb cb a3 58 3d
       0.08582967 -0.0124208545 -0.00509317 0.05289058
000350 a3 87 be 3d bb 1f bf 3d c6 43 12 bd f6 c3 3c bd
       0.093032144 0.09332224 -0.035709165 -0.04608532
000360 bb eb bd 3d c1 54 d6 bc b8 32 11 be 8f 42 e1 3c
       0.09273478 -0.02616346 -0.14179504 0.027497558
000370 03 49 bd 3c 1f 7d 9c bc 27 10 6f 3c 31 b4 78 3d
       0.023106104 -0.019102631 0.014591253 0.06071872
000380 cf 8d 66 3c 0a 93 ab bd 53 7a 66 bc c8 75 65 3d
       0.014071896 -0.08377655 -0.01406725 0.056020528
000390 55 2b 04 bd 3b bb 91 bd f4 c9 e1 bd e8 8e 34 3d
       -0.032267887 -0.071157895 -0.110248476 0.0440816
0003a0 68 d0 ef 3d ca ea 11 be 32 04 d8 bd f7 d8 cb 3d
       0.11709672 -0.14249721 -0.10547675 0.09953492
0003b0 56 2a 30 bd db 44 74 bd 53 05 c8 3d 24 3f c4 bd
       -0.043009125 -0.05963598 0.097666405 -0.095823556
0003c0 23 00 7a 3c b9 39 47 3d b0 88 0a be c7 25 df bc
       0.015258822 0.048639033 -0.13528705 -0.027239693
0003d0 45 29 04 3e fd d0 b8 bd 78 9b cb bc 56 df 87 bd
       0.12906368 -0.09024236 -0.024854407 -0.06634395
0003e0 fc 10 a0 3c 43 5a 75 bd 49 5f 95 3b f7 68 9c bd
       0.019539349 -0.059900533 0.004558478 -0.07637208
0003f0 a7 23 9c bd 2d 24 ac bd fc 4c 78 bd 61 8d 9a bc
       -0.07623988 -0.084053375 -0.060620293 -0.018866243

static_ll.0.bias f4 [128]
000000 dc 30 e1 3d 00 79 b2 bd b3 69 48 3c cd 61 87 bd
       0.10995647 -0.08714485 0.012232232 -0.06610451
000010 ef 04 e1 3d cb 23 a6 3d 64 7c aa bd 81 b1 cd 3d
       0.10987269 0.08112296 -0.08324507 0.10043622
000020 29 54 ae 3c 48 bf 07 3e b1 ca 09 3e f8 30 79 bd
       0.021280365 0.13256562 0.13456227 -0.060837716
000030 a9 a8 01 bd a4 65 bd 3d 83 3b 0a 3c d1 28 ea 3d
       -0.031654987 0.09247902 0.00843704 0.11433566
000040 69 eb fe 3d 0d c2 8f bd 36 87 ea 3c 20 ef 8c 3d
       0.12447245 -0.07019434 0.028628927 0.06881547
000050 70 6d b7 3d 65 7d 42 39 25 05 9e 3d 65 80 16 3e
       0.089564204 0.00018547995 0.07715825 0.14697416
000060 40 50 e5 3d e0 51 b2 3d b7 29 4f bd 37 04 b4 bd
       0.11196947 0.08707023 -0.05057689 -0.087898664
000070 d4 d5 8e bd 86 23 ef 3d 56 ed d0 bc d4 5b 85 bd
       -0.06974378 0.116766974 -0.025503796 -0.065116554
000080 c1 c9 90 bb 4d d3 a6 3d 26 6f dd 3d 01 d8 a1 bd
       -0.004418582 0.08145771 0.108122155 -0.079025276
000090 c0 14 d9 3d d3 a3 e5 3d dd 05 45 3c 1b 21 64 3d
       0.10599661 0.112128876 0.012025324 0.055695634
0000a0 12 f5 7d 3c 0d 90 00 bd 43 2a d0 bc 04 2b b0 bd
       0.015500324 -0.031387378 -0.025410777 -0.086019546
0000b0 bb ae 76 3b 8f 55 21 bd 0f c5 4f bd 82 fe 39 bd
       0.0037640769 -0.039388236 -0.05072504 -0.045408733
0000c0 9c 9e 10 bd 70 8b e3 3d 37 e6 db 3d ac 95 d2 3c
       -0.03530751 0.1111058 0.10737269 0.025706135
0000d0 2f 0b 08 3d 6b d9 06 3e ad 03 1e bd a3 52 7d 3d
       0.03321379 0.13168876 -0.038577724 0.061846387
0000e0 db 37 0f 3e e3 4f d2 3d 1c fc d9 bd 29 8d a1 bd
       0.13986151 0.102691434 -0.10643789 -0.07888252
0000f0 72 37 be bc 15 38 e3 3d 52 74 6c bd d6 19 96 bd
       -0.023219798 0.11094681 -0.05772812 -0.073291466
000100 82 60 61 bd 39 45 54 bd 92 b7 1e 3d 2e f9 a1 bd
       -0.055023678 -0.05182383 0.038749285 -0.079088554
000110 80 5e 3f bc 90 12 82 bc 74 42 56 3d 2f 74 a7 3d
       -0.011680245 -0.015877992 0.05230947 0.08176457
000120 08 98 0b bc 5f 83 b5 bc 3d da 7c bd b5 de 93 3b
       -0.008520134 -0.02215737 -0.061731566 0.0045126327
000130 0c e0 19 3c 83 fd 38 3c b8 25 26 bd 96 aa e3 bb
       0.009391796 0.011290911 -0.040563315 -0.0069478257
000140 4a 45 af 3b 2d 01 ba 3d fc 02 b7 bd c7 8d 4d 3c
       0.005348836 0.090822555 -0.08936116 0.012546009
000150 29 6f 93 bd 11 ec 13 bc 1b 47 8f bd 68 3f 30 3d
       -0.071989365 -0.009028451 -0.06995984 0.04302922
000160 8d 1d 14 3e 4e f5 96 bd bc 6e c4 3d a6 16 09 bd
       0.14464398 -0.07371007 0.095914334 -0.033468865
000170 27 91 d4 bd c8 12 b1 3c 31 ca 22 bc 0c 85 16 bc
       -0.10379248 0.0216154 -0.0099359015 -0.009186994
000180 6e de 8b bd 85 40 96 3d 21 67 89 3a cd ea 8f bb
       -0.068295345 0.07336525 0.0010483005 -0.004392004
000190 5c dc f0 3d 59 90 8b bd 03 39 70 3d 6e 36 50 bd
       0.1176078 -0.068146415 0.05864812 -0.05083316
0001a0 25 8a a9 bd ee 13 50 bd bf dd ea 3d d0 fc d0 3d
       -0.08278302 -0.050800256 0.11468076 0.1020447
0001b0 8f dd 67 3d 01 97 2c 3d 09 66 49 3d bc 82 c2 bc
       0.05660778 0.042136196 0.049169574 -0.02374398
0001c0 10 51 fa 3d 63 2b a8 bd 42 e6 8a 3d 33 17 1d bd
       0.12222493 -0.082114 0.067821994 -0.038352203
0001d0 f8 a2 34 3d f4 23 84 3d 6f f9 59 3d 11 51 ca bd
       0.04410073 0.0645217 0.053216394 -0.098787434
0001e0 bd 6c 8c 3d 84 9c 9c bc a5 c5 bf 3d ee 00 74 bd
       0.06856678 -0.019117601 0.093638696 -0.0595712
0001f0 57 0f 7b 3d e0 37 01 be e7 e2 ec 3d bb 43 b9 3c
       0.061293926 -0.12618971 0.11566716 0.022615304

static_ll.2.weight f4 [64, 128]
000000 7b 22 1e 3d 41 f7 79 bd a8 dd 7c 3d a9 2a 62 3d
       0.038607102 -0.061026815 0.061734825 0.055216465
000010 9c 6b a2 3d ff 49 a9 3c 28 48 32 bd ec 3c d6 bc
       0.07930681 0.020665167 -0.043525845 -0.026152097
000020 5c 71 9d bd 44 dc cb 3c 89 02 8f bc 5d 0e a1 3b
       -0.07687637 0.024885304 -0.017457264 0.0049150423
000030 4d c2 99 bc 2a 26 35 3c 6b ac 05 3d 72 75 8e 3d
       -0.018769408 0.011056462 0.032635134 0.06955995
000040 5c ad 3d 3d 19 ae 78 bd 2c 45 00 bd 22 3f 78 bd
       0.046307907 -0.060712907 -0.031315967 -0.060607083
000050 09 60 43 bd 30 a6 98 3d 8a ae 58 3d f0 5d 06 3d
       -0.047699008 0.07453573 0.05290083 0.03280443
000060 d3 02 15 3b d4 55 94 3d 7b 05 2e bd cc a8 34 bc
       0.002273728 0.07242933 -0.042485695 -0.011026572
000070 f4 f3 d3 3b 12 7b d4 bb 0c 9b 8d 3c f9 cb b1 bd
       0.0064682905 -0.0064843977 0.017285846 -0.08681483
000080 27 f7 bd 3d f5 3d 48 bd c8 ee 60 bc 25 d3 92 bd
       0.09275656 -0.04888721 -0.013728805 -0.07169179
000090 93 c3 9d 3d 11 fb 1d 3d 4e dc f1 bb 6f bd d7 3c
       0.077033184 0.038569514 -0.0073809987 0.026335446
0000a0 3c 4a 1c bd 63 09 f1 3c b3 8c 4e 3c fa 7f 81 3d
       -0.038156733 0.029423421 0.0126067875 0.06323238
0000b0 04 6c 12 3d 74 51 7b bd 0c 8a 4c 3d 56 31 66 3d
       0.035747543 -0.061356977 0.04993634 0.056199394
0000c0 9f ac 2f 3d 01 98 f4 bb 1e 3e bb bc 48 c5 96 bd
       0.042889234 -0.0074644093 -0.022856768 -0.07361847
0000d0 e6 73 59 bb c4 92 b8 3d 2c 83 1e bd 7d 7d 9d 3d
       -0.0033180653 0.09012368 -0.038699314 0.076899506
0000e0 dd 87 05 3d eb 14 a2 bd 5c 68 75 bd e5 b7 56 3d
       0.032600272 -0.07914146 -0.059913978 0.05242147
0000f0 d8 e8 b9 3d 08 2a a0 3d d1 96 67 3b 16 4a 21 3b
       0.090776145 0.07820517 0.0035337696 0.002461081
000100 15 12 9e 3b 1e be c9 bc 15 1c b8 3d 6f ea 3a bd
       0.004823933 -0.024626788 0.08989731 -0.04563373
000110 d8 d2 9b bc cd b1 65 3d c3 67 a0 bb be 90 95 bd
       -0.019021437 0.056077767 -0.004895182 -0.07302998
000120 0d 57 f4 3c 38 41 3b 3c 39 5d 21 3c 62 dd d1 bc
       0.029826665 0.011429124 0.009848886 -0.025618259
000130 bc 77 86 bd fb f6 d4 bc 32 24 21 3d d9 3f 86 bc
       -0.06565806 -0.025996676 0.03934116 -0.016387867
000140 ae b4 0e 3d 1d da 9d 3d 12 01 35 3d 3c e7 34 3b
       0.03484028 0.077076174 0.044190474 0.0027603647
000150 14 ec 89 bb 5a a2 0f bc 4c 9a 8b bd b4 81 a5 3b
       -0.004209051 -0.008766735 -0.06816539 0.005050862
000160 4a c1 b6 3b 5a 9e 2b bd 44 a1 84 bd 88 ce 83 bd
       0.005577241 -0.041899063 -0.064760715 -0.06435877
000170 df 23 41 3d 1c 8e 89 3d c2 ec 0a bd 07 88 89 bd
       0.04715335 0.06716558 -0.033917196 -0.06715398
000180 e6 86 05 3b f7 a2 fd 3c 90 02 80 3d 4a 50 9f 3d
       0.0020374595 0.030961497 0.06250489 0.07778986
000190 4b b1 a2 3c 80 1a 62 3d 70 4b 23 3d aa 5c ab 3d
       0.01985993 0.055201054 0.039866865 0.08367284
0001a0 eb cf 34 3d a2 ad 52 bd 25 94 9c 3d 00 34 d8 3c
       0.0441436 -0.05143512 0.07645444 0.026391983
0001b0 c4 e9 c6 3c 58 a3 98 3d 1f 6f 00 bd c0 31 7a bd
       0.02428139 0.0745303 -0.031355973 -0.0610826
0001c0 ed 9c 32 bc 40 01 4c 3d 71 c5 cd bc 25 c5 b2 3d
       -0.010901672 0.04980588 -0.025118561 0.087290086
0001d0 70 92 cd 3d 6e 3f 4f 39 f4 e1 5f bc 66 3a c8 bc
       0.10037696 0.00019764688 -0.013664711 -0.024441909
0001e0 db ea 16 bd 7a 02 3c 3d 7b 30 95 3d 9e 2e 6e bd
       -0.03684507 0.0459008 0.072846375 -0.058149926
0001f0 4a bd ea 3c f0 b3 a2 3c 33 33 a5 3d da 3b 04 3d
       0.028654713 0.019861192 0.08066406 0.03228364
000200 27 33 25 3d f1 76 f6 bc 47 8d fd 3c 61 0f 5a bc
       0.040331986 -0.030086013 0.030951155 -0.013309331
000210 e6 80 38 3d 87 3e 6d bd 71 74 63 3d 3c 6b b0 3d
       0.045044802 -0.05792096 0.05553097 0.08614203
000220 a6 ec 98 3c 9c 9b 1e bc 51 2b 4e 3d 1e 7c ec 3d
       0.01866753 -0.009680655 0.05033428 0.11547111
000230 6a 79 91 3a e9 20 60 3d 02 06 e2 bc 05 4d 9b 3d
       0.0011098806 0.054718886 -0.027590755 0.0758305
000240 39 05 e2 bc c8 7b 9b bc 0d f5 42 3d 28 4e 48 3d
       -0.027590381 -0.018979922 0.04759698 0.04890266
000250 4f fa 72 bd 7a d7 80 3d 55 0c 69 3d 8d 1a 18 bd
       -0.059320744 0.06291099 0.056896526 -0.037134696
000260 45 02 7d 3c 8a 51 4e 3d e1 39 f8 3c 45 7c 83 3d
       0.015442436 0.05037073 0.030301036 0.06420187
000270 96 a9 9c bd 4f 39 a9 3d 26 8f df 3c 7e 1a 70 3d
       -0.076495335 0.08262884 0.027289938 0.058619015
000280 36 d2 17 bc a5 06 aa 3c 3d c2 e8 39 ee 61 37 3d
       -0.009266427 0.020755121 0.00044395207 0.044771127
000290 2e 9d 5b 3d 0f 55 7e 3d 0c c4 5c 3a 03 46 a0 3d
       0.053616695 0.062092837 0.0008421547 0.07825854
0002a0 f3 9f 3f 3d df eb ff bc 72 21 a2 3c ea d7 84 bd
       0.0467834 -0.031240402 0.019791339 -0.06486495
0002b0 f5 0d 70 3d fe bc 4e 3d 3d 22 8f 3d da 8a a5 3d
       0.05860706 0.050473206 0.06988952 0.080831245
0002c0 5c aa cc bd b0 83 dd 3d ab cd 71 3d 9a 9e ec 3c
       -0.09993431 0.10816133 0.05903403 0.02888422
0002d0 e0 af 31 bd 67 c1 9c 3d c2 08 e4 3c b3 4d a3 bd
       -0.043380618 0.07654076 0.027836207 -0.07973804
0002e0 08 dd d8 3c b1 d0 d8 bd 8b 00 ad bd 56 72 fa 3b
       0.026472583 -0.1058668 -0.08447369 0.0076430244
0002f0 20 a2 e9 3d 89 82 f2 bc 31 c5 0c 3d 5e 3c 82 3c
       0.11407876 -0.02960326 0.034367744 0.015897926
000300 8b fc c2 3c a7 d8 78 bc 62 ac b0 3d 5c ee c5 3c
       0.023802062 -0.015188373 0.086266294 0.02416151
000310 26 2a a6 bd b8 c5 4d bd 4f 35 92 3d 62 59 c5 bd
       -0.08113508 -0.050237387 0.07139074 -0.09636189
000320 8d 7c 1a 3c 5a d1 63 bb 0a 25 18 3d 56 a3 83 bb
       0.009429109 -0.0034762234 0.0371447 -0.004017274
000330 e9 80 2f 3c 60 fd c7 bb 40 33 c7 bc 4c 6c cb 3d
       0.010711887 -0.0061032027 -0.02431643 0.09932765
000340 8d cb 05 bd 3c bc 7e 3d 9d 74 a9 bd 43 b1 29 3b
       -0.032664824 0.062191233 -0.08274195 0.002589301
000350 08 c0 8f bd f3 38 32 3d a1 88 ba 3d 40 55 49 bd
       -0.07019049 0.043511342 0.09108091 -0.049153566
000360 85 bc ef 3c 77 79 cf 3d b8 c5 3c bd 1c a9 82 bd
       0.029264698 0.101305895 -0.046086997 -0.06379911
000370 17 e2 85 3d 27 03 92 3d ea 28 43 3b a6 25 bc 3d
       0.06537264 0.071295075 0.0029779025 0.09186868
000380 41 bb b3 3d df a2 a0 3d 73 89 c0 3d e4 0c 99 bc
       0.0877595 0.07843565 0.09401216 -0.018682905
000390 5e 24 0f 3d 1d e5 20 bd 6e fd ae 3a b1 cd 91 3c
       0.03494679 -0.039281 0.0013350674 0.017798277
0003a0 8e 90 30 bd 26 8a 23 3d a0 9d e6 3c 6c 3f 3e 3d
       -0.043106608 0.03992667 0.028151333 0.046447203
0003b0 b7 79 10 bd 46 9b 3a bd fe ad 09 3b 71 f7 0f bc
       -0.035272326 -0.045558237 0.0021008248 -0.008787022
0003c0 cf 1e 27 bd 2f db a5 bd 20 36 2a 3c 1a 34 f4 3c
       -0.040800866 -0.080984466 0.010388881 0.02981
0003d0 e5 a9 91 bd 68 e2 82 3d 23 c7 a4 3d c7 54 d0 bc
       -0.07112483 0.0639084 0.08045795 -0.02543105
0003e0 da 60 88 bd 4c 31 a2 bc fb 6b 6d bd c1 e2 87 bb
       -0.06659098 -0.019798897 -0.057964306 -0.004146904
0003f0 74 8e 98 bc 8b 64 d7 3a a6 21 9a bb 0c 85 5c bd
       -0.018622614 0.0016433162 -0.0047037182 -0.05383782

static_ll.2.bias f4 [64]
000000 50 15 5f 3d ec 2f 26 3d 11 33 81 bc 56 80 66 bd
       0.054463685 0.040573046 -0.01577142 -0.056274734
000010 da ec fb bc 57 0b 12 3d 76 95 05 3d 10 8c 18 bc
       -0.030752588 0.035655346 0.03261324 -0.009310737
000020 e7 cb 19 3d b4 5b 84 bd b8 5f 9f 3d 5b 90 e1 bc
       0.037547972 -0.064628035 0.07781929 -0.027534654
000030 1a 6c 88 bc 78 86 71 3c c4 30 a2 3d 54 e8 cc 3d
       -0.01665311 0.0147415325 0.079194576 0.100052506
000040 fa 60 a0 bd f5 c5 98 3c f8 f4 b2 3d 1b e0 82 bd
       -0.07830997 0.01864908 0.0873813 -0.06390401
000050 d9 f1 10 bd e6 89 2e bc 42 95 6b 3d f6 f4 9c 3d
       -0.035386894 -0.010652995 0.05751539 0.0766391
000060 63 57 12 bd ec 64 af 3d d9 92 1b 3d 88 a0 de bc
       -0.03572787 0.08564171 0.03798184 -0.027176157
000070 a0 9f 8b 3c d9 55 63 3c a4 42 77 3d f2 31 8b 3c
       0.017043889 0.013875448 0.060366288 0.01699159
000080 ec 1f 36 bd 76 f5 90 bd ee df b9 3d d9 9e 46 3b
       -0.044464037 -0.07078068 0.09075914 0.0030307083
000090 f7 e7 2b 3d 2d 53 47 bd 59 4d 93 bc 02 35 9b 3c
       0.041969266 -0.048663307 -0.017981218 0.018946175
0000a0 0f 4d 02 3d fc d3 79 3d 9f 75 8a bc 37 da c5 3c
       0.03181177 0.06099318 -0.01690179 0.024151905
0000b0 08 3c 5e bc ff 86 94 3d 73 97 ce bc 46 75 20 3c
       -0.013564117 0.07252311 -0.025218701 0.009793585
0000c0 58 ca 33 3d 65 2c 24 3c a6 58 a9 3c 1e d4 9a 3c
       0.043894142 0.01002035 0.020672154 0.018899973
0000d0 52 4d 2f bd fd 75 8e 3d ee 5b 9e 3d af 7c 59 3d
       -0.042798348 0.06956098 0.07732378 0.053097423
0000e0 65 c3 e1 bc 63 e2 a3 3d 53 0a 12 bd 9f 2d c7 3d
       -0.027558992 0.08002164 -0.035654377 0.097254984
0000f0 d7 21 99 3d d3 29 af 3c 84 a8 40 bd 5b ce c9 3d
       0.074771576 0.021382248 -0.04703571 0.09853812

glu_encoder.rnn.weight_ih_l0 f4 [48, 2]
000000 15 1a 36 3e 69 90 24 be 30 bc d5 3d 5e e7 4b bd
       0.17783387 -0.16070713 0.104362845 -0.049781196
000010 0b 6b 41 3e f6 0f 48 3e 34 5a a3 bd 0e 53 3c be
       0.1888849 0.19537339 -0.07976189 -0.18391058
000020 83 b0 1b be 88 85 3f 3e 0f 80 8d 3e 24 56 0a 3e
       -0.15204053 0.18703282 0.27636763 0.13509423
000030 14 36 5c be 1b ac 8d 3d 2d 40 97 3e 20 5e 99 be
       -0.21505004 0.06917592 0.2954115 -0.29954624
000040 06 60 be bd d3 7c 6b be 6e 43 75 3e 96 87 25 be
       -0.09295659 -0.22996835 0.23951504 -0.16165003
000050 fb 2d 12 3e f0 c0 62 bc 5d 92 0d 3e 98 67 65 3e
       0.14275353 -0.013839945 0.13825364 0.22402799
000060 11 9a 66 3e 49 e7 b8 bd f5 93 c0 3d 7f e6 fb 3c
       0.22519709 -0.09028489 0.094032206 0.030749558
000070 8b 46 ed 3c 68 b7 3e bd 00 e8 40 be e9 86 50 bd
       0.028964302 -0.04656163 -0.18838501 -0.05090991
000080 ad 87 61 3e c3 7b b8 bd 1c ce 29 3d 66 fe 7f 3e
       0.22024412 -0.09007981 0.041456327 0.24999389
000090 1d 07 66 be d1 6c 4c be a0 0a 85 bc ae 8d 77 3e
       -0.22463651 -0.19963385 -0.016240418 0.2417514
0000a0 4f 26 06 be 85 b4 69 3e f1 8b a4 bd 6f 51 8c bd
       -0.13100551 0.22822769 -0.08034504 -0.0685147
0000b0 ae 50 f2 bd 2c b1 12 3e be 36 5d 3e f1 10 4a 3e
       -0.11831795 0.14325398 0.21602914 0.19733025
0000c0 5f 2d 5b 3d 60 95 2f bd 43 ef 9f be ea 10 72 3e
       0.053510066 -0.042867064 -0.3123723 0.23639265
0000d0 c3 e2 99 be 40 e4 87 bc 2a 0c 41 3d 00 79 38 bd
       -0.30055818 -0.01658833 0.04713074 -0.04503727
0000e0 d4 2d 51 3e 6a 2f 36 bd 3d 92 80 3d 0f 85 8a bc
       0.20427638 -0.04447881 0.06277893 -0.01690915
0000f0 4b f9 5d 3e 4d 64 be bc 07 8a 24 be 7a 43 07 bd
       0.21677129 -0.023241187 -0.16068278 -0.033023335
000100 77 ff 07 3e c8 49 e1 bd 9c dd 1e be 84 8f 46 3e
       0.13281046 -0.11000401 -0.15514225 0.19390684
000110 d7 f6 03 3e 91 bc 0f 3d f2 cd 85 3e 6d ed b9 bd
       0.1288713 0.03509194 0.26133686 -0.090784885
000120 ab b6 ef bd 1c 0d 39 be 2d b1 75 3e a7 b9 6c be
       -0.11704763 -0.18071407 0.23993368 -0.23117696
000130 f5 d2 46 3e ca 9c f4 bc 6a ad d1 3d ee a3 36 bd
       0.19416411 -0.02985992 0.10238154 -0.04458993
000140 62 3e 1d 3e 80 fa 05 be bd 8a 80 3e c7 d2 36 3e
       0.15355828 -0.1308384 0.2510585 0.17853843
000150 77 79 13 3e c8 34 56 3e 10 59 40 bd 20 da 8c bd
       0.14401804 0.20918572 -0.046959937 -0.068775415
000160 36 3b fb bd 21 13 d4 bd 7b c4 7c be cc a5 6d 3e
       -0.12267153 -0.10355211 -0.24684326 0.23207778
000170 a7 4e 73 3e e5 58 78 bd 0a df 4b 3d 55 19 4b 3e
       0.23760472 -0.06063165 0.049773254 0.19833882

glu_encoder.rnn.weight_hh_l0 f4 [48, 16]
000000 02 73 3e be 04 ae 6b be c7 87 bd bd 63 f1 08 3e
       -0.1859856 -0.230156 -0.09254413 0.13373332
000010 93 08 d4 3d 96 df 98 bd 03 f8 85 be 42 cb 40 3e
       0.10353198 -0.07464521 -0.2616578 0.18827537
000020 b3 d5 66 3d d7 ae 49 3e 0a ae 3d be 26 ee 24 be
       0.056356143 0.19695602 -0.18523422 -0.16106471
000030 cf b3 0c bd bf 27 02 be cf e2 fb 3d 93 28 95 bd
       -0.034351166 -0.12710474 0.1229912 -0.072831295
000040 09 1c d5 3d a8 b9 a5 bd 50 b7 05 3e e2 57 84 be
       0.10405738 -0.08092052 0.1305821 -0.258483
000050 e5 b4 ff bd a6 26 4c 3e 02 4e 19 bb 97 8f 41 3d
       -0.12485675 0.19936618 -0.0023392444 0.04725608
000060 3d 83 7b be 66 4e 5e 3e 3e 1c a7 bd d7 e1 dd 3d
       -0.24561782 0.21709594 -0.08159684 0.10834091
000070 36 63 02 3e 4b fd ed bd 10 8a 5f be f7 e0 9d 3d
       0.12733158 -0.116205774 -0.2183001 0.07708924
000080 dc 86 27 3e 48 c2 16 be fa 5c 07 be c8 09 65 be
       0.16360039 -0.1472255 -0.13219061 -0.22367013
000090 2d 3f 13 3d 12 db 28 3d 69 89 3a be 6c 77 2a 3e
       0.03594892 0.041224547 -0.1821648 0.16647118
0000a0 c2 06 06 3e 19 2d be bd 30 7a a4 bd ac 4c 24 3e
       0.13088515 -0.092859454 -0.08031118 0.16044873
0000b0 f2 bb cf bd bb 05 27 3e 2e 74 47 be 2d a8 30 3e
       -0.101432696 0.1631078 -0.19477913 0.17251654
0000c0 24 ec 18 3e 34 16 3e be 7f ce 0a 3e 25 84 62 3e
       0.1493383 -0.18563157 0.13555335 0.22120722
0000d0 30 2f 29 3c 35 9b 20 3e af d0 42 3e 55 32 f5 3d
       0.010326192 0.15684207 0.19024919 0.11972491
0000e0 15 45 42 be 0c 62 98 bd d4 93 18 be d6 09 12 be
       -0.18971665 -0.07440576 -0.14900142 -0.14261565
0000f0 ad 10 10 3e 8d 68 0e 3d 2e b0 1b 3c c0 87 ec bc
       0.14068861 0.034767676 0.009502454 -0.028873324
000100 96 08 a6 bd 06 02 16 3c 70 70 27 3d c1 9b 2c bd
       -0.081071064 0.009155756 0.040878713 -0.042140726
000110 b1 26 1b 3d d6 ca 9f bd a3 85 94 3e 8e 06 01 3e
       0.037878696 -0.0780236 0.29008207 0.12600157
000120 5f c9 71 3c ce 2c 0b 3e dc cc 4b 3d f3 f6 8f be
       0.014757483 0.1359131 0.049755916 -0.28118095
000130 d3 fb 93 be de 05 d6 3d cd dd 04 3d 81 3d 19 be
       -0.28903064 0.10450338 0.03243809 -0.14964868
000140 9c c2 c6 3d 83 a9 35 3e fd 12 73 3c d6 3a 69 3d
       0.097050875 0.17740445 0.01483607 0.056940876
000150 ba 7e a3 bb da 54 7b bc 6d 17 f3 bc 64 b2 55 3e
       -0.004989472 -0.015340054 -0.029674256 0.20868832
000160 06 41 8b 3d 6a 95 7c 3e 2b 95 1f be 80 bb a8 bd
       0.067995116 0.24666372 -0.15584247 -0.08238888
000170 e7 fe 43 be 96 88 83 be 3c e4 30 bd 48 55 02 bd
       -0.19140206 -0.25690144 -0.04318641 -0.03181961
000180 c6 84 b0 bd f1 4c 2e 3e 93 d6 06 3e b7 1d 5b 3e
       -0.086190745 0.17021538 0.13167791 0.21398054
000190 a5 40 8b 3d 64 94 55 3e 61 51 a8 bd f2 be 9e 3c
       0.06799439 0.20857388 -0.08218647 0.01937816
0001a0 6a 83 4a 3e 6a 99 7c b9 69 ce 4e be 98 39 48 3e
       0.19776693 -0.00024089744 -0.20195927 0.1955322
0001b0 a2 c0 35 3e d1 74 24 be ad e8 a4 3d c8 e8 42 be
       0.17749265 -0.16060187 0.08052192 -0.19034111
0001c0 c8 d3 b1 3d d9 c5 2c be 61 11 aa bc ba 1a b1 3d
       0.08682972 -0.16872348 -0.02076024 0.08647676
0001d0 42 5d 67 be e4 e2 22 3e 2c a3 9e bd f3 c9 81 bd
       -0.22594169 0.15906864 -0.07745966 -0.06337347
0001e0 3d 90 1e be 34 ac 1e 3e 1a ab 92 3d 23 72 64 be
       -0.1548471 0.15495378 0.07161541 -0.22309165
0001f0 13 1b 8b be 74 a7 87 be 61 e6 5c 3e 1e db 51 bd
       -0.27169093 -0.26494944 0.21572258 -0.051234357
000200 50 31 a3 3c db 31 76 3e 76 da 63 3e 86 bc 3e be
       0.019920975 0.24042456 0.22251305 -0.18626603
000210 56 86 29 be 60 b2 f0 3d 5d 35 60 bd 3e 78 6d be
       -0.16555151 0.11752772 -0.05473839 -0.231904
000220 ae 84 f7 bc f1 2b b8 3d 3c cf bd bd 23 22 4d 3e
       -0.030214634 0.08992756 -0.092680424 0.20032553
000230 91 5a 5e be c1 ea be bd c6 12 62 3e 07 cb b3 bd
       -0.21714236 -0.093221195 0.22077474 -0.08778959
000240 56 38 87 3e b5 30 93 bd e9 1f 22 3e 56 00 4d be
       0.26410168 -0.071870245 0.15832485 -0.2001966
000250 a6 6c 3a be 2c 3a 46 be af 04 40 3d f6 f7 53 3d
       -0.18205509 -0.19358128 0.046879467 0.051750146
000260 54 c0 1d be f3 ac 11 be d1 ef 31 bc 76 ca 86 bd
       -0.15405399 -0.14226131 -0.010860399 -0.06581585
000270 28 08 4c 3c ac 46 3c 3d 8e 3f 71 3d 3c 92 c5 3d
       0.0124531165 0.045965835 0.0588985 0.096470326
000280 5a 05 79 3e e1 81 d1 bd c7 fb 68 be c8 bd 98 3d
       0.24318448 -0.102298506 -0.22752295 0.07458073
000290 33 3b 48 3e 8b 90 03 3e e4 14 99 3d 0a f4 31 3e
       0.19553833 0.12848108 0.07474688 0.1737825
0002a0 ab 0d 1d 3d 09 7c 3b bd d6 83 b6 bd fb 38 16 3e
       0.038343113 -0.045772586 -0.089118645 0.14670174
0002b0 77 82 6a bd a0 78 79 3c ba 84 1d 3e 8e 2b 12 3a
       -0.057253327 0.015226513 0.15382662 0.0005575948
0002c0 5a 42 02 be ce 32 d4 3d e0 fd 55 3d 96 25 1e 3e
       -0.12720624 0.10361253 0.052244067 0.15444025
0002d0 94 34 80 3d 74 e3 81 bc e0 0b 06 bd 09 9e cb bd
       0.062600285 -0.015855528 -0.03272617 -0.09942252
0002e0 1f 94 80 bd b1 6a 07 be 64 97 94 bd 36 ee 10 3d
       -0.06278252 -0.13224293 -0.07255438 0.035383426
0002f0 86 e0 65 3e 76 e3 32 be c7 8b 17 bd fa 4c 6a 3e
       0.2244893 -0.17469582 -0.036998536 0.22880927
000300 a8 53 2f 3e 03 82 e0 3d da 8d 1a be 9b 91 3a 3e
       0.17121756 0.10962298 -0.15093175 0.18219607
000310 23 a6 85 be ee 8a 8a bd 90 50 fb 3d 6b ed 02 3e
       -0.26103315 -0.0676478 0.122712255 0.1278588
000320 e9 e3 4e 3e c0 91 cc bd fb 45 30 be 49 30 02 be
       0.20204128 -0.09988737 -0.17214195 -0.12713732
000330 02 3a 49 3d 03 20 83 bd f5 8b f0 3c 9c c2 64 3d
       0.049127586 -0.0640259 0.029363612 0.055849656
000340 c1 0f b1 3d aa fc 06 3e c4 4f bd 3d ec d3 3d 3e
       0.08645583 0.13182321 0.0924373 0.18537873
000350 c9 f2 e4 bd ab 37 0d be c1 f1 87 bd d7 2d 2b 3d
       -0.1117912 -0.13790767 -0.06637908 0.041791763
000360 09 79 2e 3e ef e4 55 3d 5a de d3 3d 3c ad d9 bd
       0.17038359 0.05222028 0.103451446 -0.10628745
000370 58 20 11 3c a6 fe 4f 3d 44 d1 00 be ae d9 29 be
       0.008857809 0.05077996 -0.12579829 -0.16586944
000380 b4 89 8f 3e d7 56 22 3e 18 48 40 be 2a f4 09 bd
       0.28034747 0.1585344 -0.18777502 -0.03368012
000390 9f af a0 ba 3e 6e 38 3e 05 e5 cb bd 50 3d ae bd
       -0.001225937 0.18010804 -0.099557914 -0.08507788
0003a0 0a ea eb bd 26 81 29 3e f4 95 04 be ef 6c 92 3c
       -0.11519249 0.16553172 -0.12947828 0.01787421
0003b0 da ba 20 3e ff 70 e7 bb 2a 9e 93 3e f6 6c 0c be
       0.15696278 -0.0070630307 0.28831607 -0.1371344
0003c0 32 7f d7 3c 3f ff fb 3b fb 96 de 3d 71 2a 41 3e
       0.026305769 0.00769034 0.10868641 0.18863846
0003d0 4e ec 5f 3e d1 43 61 be 46 ca 02 3d ff cb 51 3e
       0.21867487 -0.21998526 0.031931184 0.20487975
0003e0 7f 06 c3 3d 30 b4 26 be df 5d b4 bd 7e c1 0e be
       0.095227234 -0.16279674 -0.08806967 -0.13940999
0003f0 21 00 bf bd 41 6c 07 be 17 33 8a 3c 18 7b c1 3d
       -0.093261965 -0.1322489 0.016870065 0.094473064

glu_encoder.rnn.bias_ih_l0 f4 [48]
000000 51 b5 3d 3e 23 aa 5d be cf 3c 23 bd 04 87 da 3c
       0.18526198 -0.21646933 -0.039852913 0.026675709
000010 5a a2 36 be 0d b7 86 bd dc 23 4f 3c 8d 49 c9 bd
       -0.1783537 -0.06577883 0.012642827 -0.09828482
000020 83 fa c0 3d 88 58 bb 3d 6e 3c 47 3c da c9 9c bd
       0.09422781 0.09147745 0.012160404 -0.07655688
000030 7b 6f a2 bd 2c 67 d6 3d 41 5c 90 bd 63 b5 e0 bd
       -0.079314195 0.10468897 -0.07048846 -0.10972097
000040 93 01 6c 3e 59 a2 65 be bf 70 19 3e bd d2 7a be
       0.23047476 -0.22425212 0.14984415 -0.24494453
000050 68 20 2c 3e 9d b9 34 be 4f f2 35 3e 20 92 b6 bd
       0.16809237 -0.17648931 0.17768215 -0.0891459
000060 44 ce 46 3c d7 27 35 3e 9c 14 6f 3d 99 ae 4a 3e
       0.0121341385 0.17690979 0.058369264 0.19793166
000070 0c c0 6b 3c 2d 29 4a bc cf 15 e6 3d 49 b3 b5 bd
       0.014389049 -0.012338919 0.112346284 -0.088720866
000080 64 0c 69 3e ee 28 36 3e 42 4f 10 be 21 f8 37 be
       0.22758633 0.17789051 -0.14092734 -0.17965747
000090 22 bb 2b be 50 36 1f be 1e 0e 30 be 4a 21 27 be
       -0.16770604 -0.15548062 -0.17192885 -0.16321293
0000a0 75 94 56 bd 7b 74 79 3e 2f 5e da 3c c2 c8 06 be
       -0.052387673 0.2436084 0.026656238 -0.1316252
0000b0 29 31 7c 3d 05 8f 74 be 74 06 92 bd 15 b6 cb bd
       0.06157032 -0.23882683 -0.07130137 -0.09946839

glu_encoder.rnn.bias_hh_l0 f4 [48]
000000 70 b0 20 bd 2e 46 69 3e 4b 9e 53 3e 05 17 88 bd
       -0.039230764 0.22780678 0.20665853 -0.066450156
000010 3a 10 0d be 92 e1 dc bb 9f 79 62 be 4d 93 22 be
       -0.13775721 -0.0067407573 -0.22116707 -0.15876503
000020 0f 06 31 bd 21 5e e1 bd b8 c6 29 3d 3b 8e b5 bb
       -0.04321867 -0.11004282 0.04144928 -0.005540637
000030 5b f7 71 3e 1e 68 2a be a3 00 9a 3d 27 e5 f2 3d
       0.23629515 -0.1664128 0.07519653 0.118601136
000040 df 75 76 bd bf 57 2b 3e 98 c0 60 3e 40 31 30 3e
       -0.060171004 0.16732691 0.21948469 0.17206287
000050 88 21 74 be 48 df c6 bd 2b bf e3 3d ae 64 ea 3d
       -0.23840916 -0.09710556 0.11120447 0.114449844
000060 21 bd da 3d 31 3e 84 be 23 dc 19 3e 80 d4 46 3e
       0.10680605 -0.25828698 0.15025382 0.19417
000070 55 7e 36 3e 23 59 6c 3e 2e c1 c5 3d c1 c2 43 3e
       0.1782163 0.23080878 0.09655987 0.19117261
000080 e5 51 ba 3d f7 41 89 bc f9 49 21 3e 3b 61 ec 3d
       0.090976514 -0.016755087 0.15750875 0.11541983
000090 c7 19 7e be 6c 95 f3 bd c5 99 44 be d8 d5 0e 3e
       -0.24814521 -0.11893734 -0.19199283 0.13948762
0000a0 a9 73 33 3e d6 0a 99 bd c9 2d 9f bd 6b b2 37 be
       0.1752459 -0.0747277 -0.07772405 -0.17939155
0000b0 20 a3 8b be b6 f3 60 be 17 9b 3d 3d 36 3f 26 be
       -0.27272892 -0.21967968 0.046290483 -0.1623505

glu_encoder.hid2lat.weight f4 [64, 16]
000000 f8 62 84 be 41 24 26 be 48 e8 b3 bd 78 d2 19 3e
       -0.25856757 -0.16224767 -0.087845385 0.15021694
000010 ca 1c 26 3d 66 ef 1b 3e b0 3a 14 be 9d f2 1d 3d
       0.0405548 0.15228042 -0.14475513 0.038561452
000020 8c 51 7a bd 15 5e 71 be 85 48 0c be 3d 68 38 bd
       -0.061112925 -0.23571046 -0.13699539 -0.045021284
000030 e3 d2 5b 3e d8 01 22 be f1 94 3e be 15 ce 22 be
       0.21467166 -0.15821016 -0.18611504 -0.15898927
000040 d8 80 0b 3e a9 e9 15 3e 5a e8 65 be cf d3 c6 3d
       0.13623369 0.14639916 -0.22451916 0.09708368
000050 87 4b 72 3e e0 b2 f3 bb 7d 2c 4e 3d 81 6e ae bd
       0.23661624 -0.007437095 0.050335396 -0.08517171
000060 0f 46 27 3e a1 70 2b bd 18 23 32 be 0e 22 b4 bd
       0.16335319 -0.04185546 -0.173962 -0.08795558
000070 df d8 0d 3e c2 6a cc 3d 4a 8f 4a be b8 74 84 bd
       0.13852261 0.099813 -0.19781223 -0.06467575
000080 70 01 e7 bd 72 f5 81 bc ce 96 d0 bc e8 2f 83 3e
       -0.11279571 -0.015864108 -0.025462534 0.25622487
000090 0d a4 9c bc b1 9c b7 3d 98 af 78 3e 83 15 5c 3e
       -0.019121194 0.089654334 0.24285734 0.21492581
0000a0 7d e0 10 bd ec 5d 80 3e 86 02 45 be 8b 3a c1 3c
       -0.03537034 0.25071657 -0.19239244 0.023587486
0000b0 c6 7b b4 3d df 39 db bd d4 82 f1 3d 52 22 4e be
       0.088126704 -0.107043974 0.117925316 -0.2013028
0000c0 17 bc 24 3e b5 9f e6 bd 1e b8 71 3e 19 bd 99 3d
       0.16087376 -0.112609304 0.23605391 0.07506771
0000d0 b6 6f e6 bd 93 9b 39 3e e3 4f d6 ba 52 78 81 3e
       -0.11251776 0.18125753 -0.0016350712 0.2528711
0000e0 43 68 33 be 74 05 b1 bd b8 aa 76 be 85 a4 0c 3d
       -0.17520241 -0.08643618 -0.24088562 0.034336586
0000f0 07 e3 a1 3c ff da bc bd c4 93 cb 3c cc 37 d3 bd
       0.019761575 -0.09221458 0.024850734 -0.10313377
000100 72 90 60 3e 4d 72 02 3e ef 46 5a be 1a 6a 9f 3c
       0.21930102 0.12738915 -0.21316122 0.019459773
000110 17 28 47 3e d3 25 54 3e 2e 10 4b 3e db cc 1e bd
       0.19448887 0.20717554 0.19830391 -0.038769584
000120 05 1d e4 3d 42 05 be bd fd 91 44 3e 0b 2b 8e be
       0.111383475 -0.092783466 0.19196315 -0.27767214
000130 ad 9e 5d be 5b 55 f0 bd 2d aa cd bd 54 e7 52 3e
       -0.21642561 -0.1173503 -0.10042224 0.20596057
000140 39 c9 ed bd 2d 17 30 be e8 97 87 3e 36 3b 7d 3e
       -0.11610646 -0.17196341 0.26483083 0.24729618
000150 85 ae 30 3d 20 df 58 3e bf 8f 37 3e 9a 06 5f be
       0.043135185 0.21178865 0.17925929 -0.21779862
000160 c6 78 89 bd 5c 8d 0a 3e b2 b9 f8 bd ad 2f 1c 3e
       -0.06712489 0.13530487 -0.121447936 0.15252562
000170 f0 a6 d2 bc 95 19 c8 bd 55 87 01 be 5e 22 c1 3d
       -0.025714368 -0.097705044 -0.12649281 0.09430383
000180 76 bf 1d 3d be 50 10 be c2 c8 8a 3d bd f9 46 3e
       0.03851267 -0.140933 0.06776573 0.19431205
000190 35 2d 87 3d 03 76 36 be b6 84 0c 3e fd 2e 4f 3e
       0.066004194 -0.17818455 0.137225 0.20232768
0001a0 b1 d8 df bd 1b 2f 0f 3e 7e f9 70 3d ca 4d e0 3d
       -0.109300025 0.13982813 0.058831684 0.10952337
0001b0 2d 92 c1 bd 96 9f c8 bc 5a 5d 16 be f4 20 78 bd
       -0.09451709 -0.024490159 -0.14684048 -0.0605783
0001c0 fd ce f4 bd a9 8f de 3d e0 b6 3b 3e ea 7b bc bd
       -0.119535424 0.10867245 0.1833148 -0.09203322
0001d0 ab 4c 03 bd 59 e6 20 be 18 e3 d2 bd 82 18 1b 3d
       -0.03205554 -0.1571287 -0.10297221 0.03786517
0001e0 a5 73 e5 bd 5a 6d ed bd b0 04 88 be 9f 7c 11 3e
       -0.11203698 -0.11593123 -0.26566076 0.14207695
0001f0 07 bf 4b 3e e0 f5 19 3e 88 c9 fe 3d 17 7f 5b 3e
       0.1989709 0.150352 0.12440783 0.214352
000200 1a ea 3a 3d ad f5 aa bd e8 9b 1e be a6 42 64 3e
       0.045633413 -0.0834764 -0.15489161 0.2229105
000210 1d cc 28 3e ba 88 44 be 6d 90 3c be e7 a6 42 be
       0.16484113 -0.19192782 -0.18414469 -0.1900898
000220 fa ca 59 bd ec c5 1b 3e 71 a4 38 3e 66 b6 55 be
       -0.05317209 0.1521222 0.1803148 -0.2087036
000230 91 36 c6 3c 07 26 5e 3e 88 71 1d be 5b f5 5d 3d
       0.024195941 0.21694194 -0.1537534 0.054189067
000240 1d f7 f3 3c 88 16 64 be c3 6c c6 3d fe e5 22 3d
       0.029780919 -0.2227422 0.096887134 0.03977012
000250 b2 54 48 3d 33 c0 37 3e 44 93 f2 bd a6 3b ad 3d
       0.048908897 0.17944412 -0.11844495 0.08458643
000260 d9 04 27 be 7c b7 eb bd 0b 27 2e bd d6 e9 d3 3d
       -0.16310443 -0.11509606 -0.042517703 0.10347335
000270 c4 53 ab bd a9 cc b4 3d 6a 00 aa 3d 38 f6 1e 3e
       -0.083655864 0.08828098 0.0830086 0.15523612
000280 d4 64 03 3e 18 b9 4a be 90 d6 b3 3d 97 c1 8a 3e
       0.12831432 -0.1979717 0.08781159 0.27100822
000290 87 64 24 3e 88 ca 1e 3e b6 51 a1 3d 06 08 c8 bc
       0.16053973 0.15506947 0.07876913 -0.024417888
0002a0 83 c6 13 3e 0c ec b8 bc b4 53 0f be 68 41 04 be
       0.14431195 -0.022573493 -0.13996774 -0.12915576
0002b0 21 c4 21 be 62 9c 4e bc 0d eb 66 3e 41 b5 9b bd
       -0.15797473 -0.012610527 0.22550602 -0.07602931
0002c0 8c fe 09 be 7a 6d 23 be cb 1b 33 be da 46 89 3b
       -0.13476008 -0.1595973 -0.17491071 0.0041893544
0002d0 64 a0 df 3d 50 fb 4f bd 10 2c 30 3d 02 58 06 be
       0.10919264 -0.05077678 0.04301077 -0.1311951
0002e0 cd ef 66 be 4a ab 57 3e d8 e7 0a 3e 2f 35 f3 3c
       -0.22552414 0.21061435 0.13565004 0.029688446
0002f0 09 bd 76 be 53 f7 1e 3d 8e 13 81 be 25 f4 15 be
       -0.24095549 0.038810086 -0.25210232 -0.14643915
000300 10 8e 5a 3d 9a 3d b6 bd 55 a2 16 3e ff bb 3d 3e
       0.053358138 -0.08898468 0.14710362 0.18528746
000310 be 12 12 be ee 86 45 bd 8e 6f 80 bd 64 c6 25 3e
       -0.14264962 -0.048224382 -0.06271277 0.16188961
000320 03 84 82 3e ee 2b 5b 3e af 86 61 3d da 51 43 3e
       0.25491342 0.21403477 0.055060085 0.19074193
000330 98 14 15 3e a9 93 63 be 58 15 09 3e 60 4c 17 be
       0.14558637 -0.22224297 0.13387048 -0.14775229
000340 9b 47 c2 bd 26 28 6e 3d a1 01 99 bd dc 38 53 be
       -0.09486314 0.058143757 -0.07471014 -0.20627159
000350 a8 3f 5f be 9a 81 2c be f3 7a 80 be 88 b2 14 3e
       -0.21801627 -0.16846314 -0.25093803 0.1452123
000360 75 b8 61 3e 8c 00 25 be 53 b7 22 3e c6 73 22 3e
       0.22043021 -0.1611349 0.15890245 0.15864477
000370 d3 d5 90 bd c4 28 34 3c 98 cc 65 be 0d 04 60 3e
       -0.07072034 0.010996047 -0.22441328 0.21876545
000380 32 b8 31 3e 54 62 9b bd 8e 64 e0 3d ac ba 86 3b
       0.17355421 -0.07587114 0.10956679 0.0041116085
000390 90 0e 1e 3c 81 2a 0a 3e 88 e2 5c 3d 6b e7 8c be
       0.009647027 0.13492776 0.053926975 -0.27520308
0003a0 c9 43 89 be fb 18 f0 bc 80 c6 88 be e5 38 3c 3d
       -0.26809528 -0.029308787 -0.26713943 0.045952696
0003b0 ff 57 90 3c 7f 60 01 3d 4f d9 82 be 44 c1 27 3e
       0.017620085 0.031586166 -0.25556418 0.16382319
0003c0 22 bb 4a be b3 2c ae 3d e4 c3 c4 bb 43 3f 39 be
       -0.19797948 0.085046194 -0.0060047973 -0.18090539
0003d0 82 87 37 3d 68 dc 59 3e c0 3d b7 bc f4 b6 d3 3d
       0.044806965 0.21275485 -0.022368312 0.1033763
0003e0 43 df eb bd 7f db 55 bc 72 8a f4 3d a1 4e 3c be
       -0.11517193 -0.01305282 0.11940469 -0.1838937
0003f0 5d 7e df bc 4e 81 df 3b 9f b0 ca bb f2 10 27 bd
       -0.027281934 0.0068208342 -0.0061856057 -0.040787645

glu_encoder.hid2lat.bias f4 [64]
000000 e3 80 b7 3c 45 5c 94 bd 10 a8 40 be 96 f8 05 3d
       0.022400325 -0.072441615 -0.18814111 0.032707773
000010 29 72 53 3d 62 51 0f 3d 46 fb 44 3e 92 f5 b2 bd
       0.051622543 0.034989722 0.19236478 -0.08738245
000020 77 b4 b0 3c 9b 3b 08 3e 94 5c 75 3e 8c db db 3d
       0.021570427 0.13303988 0.23961097 0.107352346
000030 76 ae 74 3c 9f 28 c8 bb c3 07 2f bc f6 58 48 be
       0.014934173 -0.006108358 -0.010683003 -0.19565186
000040 f3 61 2e bd c7 e0 7e 3d 9c ee 0a 3c f0 7d 63 3e
       -0.04257388 0.062226083 0.0084797405 0.2221601
000050 99 8b 9b bd 76 d2 47 3e 37 cc e9 3d 46 b2 9e 3d
       -0.075949855 0.19513878 0.11415904 0.07748847
000060 b0 a1 20 3e 6c fc b5 3d 88 3b 8d 3d 84 8d c1 3c
       0.15686679 0.08886036 0.0689612 0.02362705
000070 b5 d8 1d be 6f 18 5d 3e 8c c4 1f be 15 14 1e bd
       -0.15414698 0.21591352 -0.1560232 -0.03859337
000080 84 ae 72 be 6a f2 84 be 7d 70 3d 3e ef 6e f4 bd
       -0.23699385 -0.25966197 0.18499942 -0.119352214
000090 56 c0 66 3e 39 71 54 bd 04 09 58 be e5 ce e0 bd
       0.22534308 -0.05186579 -0.21097189 -0.10976962
0000a0 b5 57 22 bd d7 08 cf 3b 82 38 11 3e 7e 92 85 3c
       -0.039634425 0.0063181925 0.14181712 0.016305204
0000b0 f2 ab 88 3e 2c a3 04 3e d2 99 e2 3d 7c 37 50 3e
       0.26693684 0.1295287 0.11064495 0.20333666
0000c0 34 7c 28 be 30 66 7c 3c 47 06 4e 3e b6 24 5e 3e
       -0.1645363 0.015405223 0.20119582 0.21693692
0000d0 22 0f 8f 3c 06 f3 cd bd 1d f8 47 3d 73 7f 77 bd
       0.01746327 -0.10056119 0.048820604 -0.06042428
0000e0 6d 88 84 be 5a 58 48 be ad b8 7f be e4 6c 56 bd
       -0.25885335 -0.19564953 -0.24972792 -0.05234994
0000f0 e4 4a 5b be ad 77 f6 bc 3e 81 27 3d 38 95 39 3e
       -0.21415287 -0.030086363 0.04089474 0.18123329
