code/baseline/saved/GAMNet_learning_rate_0.0001_hidden_size_64_epoch_6000_batch_size_32/Epoch_3200_JA_0.7131_DDI_0.0914.model (torch, 455805 bytes, 29 tensors)

lab_embeddings f4 [32, 64]
00000000: 8530 973e 15ae 203e 0d9c 3cbf 4b3b d3bf
00000010: c231 29bf 481f c1bf 57a4 973f 1c25 ff3e
00000020: 0a5d 403f 13a5 033f 6873 ddbf 78ef aebf
00000030: b6d2 043f 73a3 e9be f2c5 2b3f 2199 f83f
00000040: 2145 313f 5b6d 3f3e f248 c33e 954e e83e
00000050: 4d19 813e f9cc 45bf 435b 8cbf 78cc 78bf
00000060: 4e6e 26bf 56bc 81bf 0b05 363f b414 16c0
00000070: 215f b8be 8115 563f 8392 b63f 94ea c73e
00000080: 9542 0dc0 6f40 dc3f 132e 88be dec8 f3bf
00000090: 96ef dabe 99a3 1cbf 6cd7 90bf e7b3 6cbf
000000a0: 6f7a 013f 35cf e13e 8b12 803f b928 e6be
000000b0: 4fd1 cd3e b70c 683f 994d 1040 2d85 0f3f
000000c0: 644e 9abe 90a4 bfbe 6f7e 8c3e 092b fcbe
000000d0: 7dad 4cbf 617d 3c3e f2fa 22bf 77e9 483f
000000e0: 8665 97be e0b5 42be 1c37 2140 c52f 0fbf
000000f0: 0639 533d 353d aa3e d213 e83f 75e5 043d
00000100: 97fc 31be 4246 1dbf 01f4 e0be 043e 95bd
00000110: 1133 4f3e 9c31 153f 75e5 ee3f c7b7 9c3e
00000120: 96e0 84bf b448 a6bf 7552 a6bf 3bdc 4f3d
00000130: ef51 c0bf 70e7 8dbf c6e9 5d3f 4ab6 69bf
00000140: 8976 03be 525e 103f 47c4 bd3f 3062 993f
00000150: c3f3 c53e 626d fdbe 14eb 4e3e 5d61 1340
00000160: ff9d 0ebd 4405 833f 4220 bc3e 4116 773f
00000170: 2a4a 3d3d dd2e ee3f 6fca 593f 99f3 f43d
00000180: 2e89 4dbf 8f5a b5bf bf32 0abf f647 043f
00000190: cabd a33f aea5 8bbe d0aa 2b3e c86d bd3e
000001a0: 5541 db3e afee 97bf e231 3e3f 363a 323f
000001b0: 72e8 cb3f f79c 83be 4407 fabf 4191 1ebf
000001c0: 7857 2f3f 2bde cebf bb9e 473f 0938 193f
000001d0: cbd1 093f e16b f6be b3cb 9ebf 4835 3ebf
000001e0: 3fd0 fcbf f886 5440 2394 3d3e 95b9 cb3e
000001f0: 5e61 303f c404 753f 8b73 0cc0 ccee b23f
00000200: 83cf 63bf 0c8f 83be 838c d03f c9ad 51be
00000210: b4df 783e c900 83bf 1556 7cbf ebfa 40bf
00000220: fb25 5bbf b794 6b3f 890b 0abd fce8 9b3f
00000230: 7b20 a4be fa96 163f 53ef ecbe b650 0840
00000240: e1cf 4ebf dd4b 593e f764 4f3f 2971 c2be
00000250: 261a 4ebf e48f 0f3f c491 c43f b9c5 583b
00000260: e005 b1bf d6bb 43be b73f 25bf eb7b 4abf
00000270: 9450 b93e ebd1 89be 27a1 29be 2e6c 453f
00000280: e385 4ebf ceb4 b73f da8c b73e 8db9 083f
00000290: 7663 403f 2095 ad3e 77de ac3c 300c b83f
000002a0: af9a 0140 1b0b 6abe 304b de3e 15b1 60be
000002b0: 50d6 a13f 9c34 93be 9b0e ccbe 63a2 28bf
000002c0: 1bfb c2be 0674 9d3e fc72 85bf c173 b63e
000002d0: b984 b1bf 0eec b33e bd3a aa3d 080a ddbf
000002e0: 3057 2fbd d7f8 563f 7661 8a3e d5ba 92bd
000002f0: a7ad c33e 7484 aebf 2e2c 63bf f7d0 03bf
00000300: 6806 2abd bed4 26bf 985a 6c3f aaf2 89bf
00000310: acbc e3bd de37 00c0 9cfa bbbf e7d2 1e3e
00000320: c199 853e 4471 973f e185 dfbe 6d6a 83bf
00000330: 4305 5d3f a182 fd3f 5f26 7c3e e799 d8bd
00000340: eebe 863e cdf2 1d3f 51bb 99be 9377 363d
00000350: fbc8 8a3e d407 afbf 0886 20c0 2004 ccbe
00000360: 945b 1cbf 4d7e b0bd 4869 0f40 7ba1 e1bf
00000370: 99b3 123f 8ba1 303d 9538 9abe 4cb2 d23e
00000380: 8853 653e 0e14 9e3f c27b 773f 2dec a0bf
00000390: 3eec 043f db22 5fbd d54d f83f 02e9 06c0
000003a0: 9259 433f 03b5 9d3e 3773 45bd 8cbf ccbe
000003b0: 640a 44bf 6089 1d3f 1746 98bf cef1 4c3f
000003c0: 8d04 24bf 6097 a4bf 7553 093f 03a4 703f
000003d0: f555 ae3f 2296 f93e b952 f0bf 03c0 393f
000003e0: c826 213f 0f4d b43f 4217 6bbf 3989 3b3f
000003f0: f484 8f3f 1a9f 65be ceb5 293f ae18 0c40
0.29529205 0.15691407 -0.73675615 -1.650247 -0.6609155 -1.5087671 1.1847028 0.49833
0.75141966 0.5142376 -1.7300844 -1.366683 0.5188402 -0.45632514 0.67098916 1.9421731
0.6924611 0.1869406 0.3814159 0.45372453 0.25214615 -0.7726589 -1.0965351 -0.97186995
-0.6501206 -1.01356 0.71101445 -2.3450136 -0.36010078 0.8362656 1.4263462 0.39046156
-2.2071888 1.7207164 -0.26597652 -1.9045675 -0.42760915 -0.6118713 -1.1315742 -0.9246201
0.50577444 0.441034 1.0005659 -0.44952944 0.40198752 0.906444 2.2547362 0.56062585
-0.30137932 -0.3743024 0.2744021 -0.49251583 -0.7995222 0.18407203 -0.6366416 0.7848124
-0.29569644 -0.19014692 2.5189886 -0.55932266 0.051568054 0.33249822 1.8131049 0.03244539
-0.17381512 -0.6143533 -0.4393616 -0.07287219 0.20234324 0.5827882 1.8663775 0.3060896
-1.0381038 -1.2990937 -1.2993914 0.050747138 -1.5025004 -1.1086254 0.86684835 -0.91293776
-0.12838186 0.5639392 1.4825524 1.198309 0.38662538 -0.49497515 0.20206863 2.3028176
-0.034818646 1.0235982 0.3674336 0.9651833 0.046213306 1.8608052 0.85074514 0.11960525
-0.80287445 -1.4168261 -0.5398368 0.51672304 1.2792294 -0.2727484 0.16764379 0.3699782
0.42823282 -1.1869715 0.74294865 0.6962007 1.5930312 -0.25705692 -1.9533467 -0.6194039
0.6849284 -1.616155 0.7797658 0.5985113 0.53835744 -0.4812918 -1.2405914 -0.7430005
-1.9751052 3.3207378 0.18513541 0.39790025 0.6889857 0.95710397 -2.1945522 1.3979125
-0.8898851 -0.25695074 1.6292881 -0.2047645 0.24304086 -1.0234615 -0.9856885 -0.7538287
-0.8560483 0.92023796 -0.033702407 1.2180476 -0.3205603 0.5882412 -0.4627634 2.1299262
-0.8078595 0.21220346 0.81013435 -0.3797696 -0.8050865 0.56078935 1.5356984 0.0033076836
-1.3829918 -0.19114622 -0.64550346 -0.79095334 0.3619429 -0.26917967 -0.16565381 0.77118194
-0.80673045 1.4352052 0.3584965 0.5340813 0.75151765 0.33902836 0.021102173 1.4378719
2.0250661 -0.22855799 0.4341674 -0.21942551 1.2643528 -0.28751075 -0.39854893 -0.6587278
-0.38082203 0.3075258 -1.0425715 0.35635188 -1.3868629 0.35141033 0.08311985 -1.7268686
-0.042807758 0.8397345 0.27027482 -0.07164542 0.38218424 -1.3634171 -0.8873929 -0.5149073
-0.041510016 -0.6516837 0.92325735 -1.077718 -0.11119971 -2.0034099 -1.4685855 0.1551014
0.26093867 1.1831441 -0.4365683 -1.0266854 0.86336154 1.980549 0.24624012 -0.105762295
0.26317543 0.6169861 -0.30025724 0.04454763 0.2710646 -1.3674264 -2.5081806 -0.39846897
-0.6107724 -0.0861784 2.2408009 -1.7627405 0.57305294 0.04312281 -0.30121294 0.41151655
0.22395146 1.234987 0.96673214 -1.2572075 0.51922977 -0.0544766 1.9398752 -2.1079717
0.7630855 0.30802163 -0.04820558 -0.3998989 -0.76578355 0.6153774 -1.189639 0.80056465
-0.64069444 -1.2858696 0.5364297 0.9400026 1.3619982 0.48747355 -1.8775245 0.7255861
0.629498 1.4086016 -0.91832364 0.7325626 1.1212449 -0.22423974 0.66293037 2.1890063

static_ll.0.weight f4 [128, 64]
00000000: 23cc 033e ddf7 c3bd f89e cfbd 54c3 03be
00000010: 5e95 9e3d 38d6 7ebd 71fa 0dbe 0776 a73c
00000020: d82b 8e3d 172b 85bd 1204 f7bc 0b16 93bd
00000030: 7301 333e a5f9 3fbd ebcb 553c 19ce abbd
00000040: 8479 07be cc8f d13d 8d70 87bd 6d6e e1bd
00000050: bddb 40bd 317f 97bd 4203 09be b4c2 d5bd
00000060: deab d43d a798 e3bc 0f9a 843d 9b13 cbbd
00000070: 6b64 913d 1540 87bd 6985 9b3d 2e7f fe3d
00000080: 79a0 d53d 1bf9 c43d 0782 12bc bad4 fcbd
00000090: 6b76 183d 4a8e 823d 9f93 303d 1a32 5fbd
000000a0: e420 743c 8f26 853d 673e 8a3d bc56 353d
000000b0: 2e0a 94bd 0939 833d 3044 4bbd 394f a4bd
000000c0: 676b 6dbd f856 02be fbfe 083e 8f9a 1c3e
000000d0: f929 3a3d b341 8cbc 33f6 5fbd a0c0 00be
000000e0: 0027 813c 0c1c 4e39 9d5a 2cbd d530 373d
000000f0: 2882 08be f341 d7bd 52a8 c2bc 0901 5dbc
00000100: 4659 0cbd 0b2b c63d 20c1 e9bd 4b25 023e
00000110: e406 48bd 630c 97bd a3b8 ce3d 0aeb 92bd
00000120: c04f abbd be8b 5d3d 2a02 01bd 1f29 d43d
00000130: 5012 89bd 69c1 023c 78e4 733d be07 d5bd
00000140: df52 c2bd 1226 bfbd 0bd1 723c ca74 e23d
00000150: 0d3f 9c3d 9879 833d cb4a 5f3d 8647 e73c
00000160: d3e1 a73d 84e7 343d 942d b63d fe1c 153e
00000170: 5a5e bd3d 62a2 073e 6333 b73c 0659 07be
00000180: eab2 c2bd 41f7 febd b15f 013d 83e6 1cbd
00000190: 9bd5 04bd eec9 f93d 946f 33bd f6bc 043e
000001a0: b6ab 38bd e7db b6bd a2cc 043e acde e2bd
000001b0: c6c5 a0bd 0058 67bc d9de 34bd 53fa bbbc
000001c0: 3c04 89bd 54f6 f63c 0c6b 1e3e e08f b73b
000001d0: 0a0d 0bbe 5eca a6bc 8665 abbd 9654 a43b
000001e0: bdce a9bd 03a6 1c3e 171c 9ebc 4506 a83d
000001f0: 6118 39bb abf2 c63d 271a f5bd 2cb7 d13d
00000200: c29c a63d 90f8 f2ba 39bf ddbb 6e65 cc3b
00000210: 4144 b63d 0eb8 1ebe 1134 e7bd d816 f6bc
00000220: 9b11 a5bd 9c67 f2bc 39ae a4bd a0c0 06be
00000230: acae 7e3a 995f a7bd 2cdc c3bd 712c 8abc
00000240: c993 9ebd 7b81 df3d a95c 28bd 8a9d e2bd
00000250: fddf 583d 2444 77bd 55fc f9bc 0453 0b3d
00000260: 3612 7ebd 422d dfbd 8f5a b6bd f32f 65bd
00000270: 9a84 8bbd 28b8 9e3d feaf 783d 9ef4 f2bc
00000280: d75b 05be e1d5 a83d 4bfc 9b3c 8619 f03c
00000290: ff1c 233d 6b90 e9bb b77d 123d ae6d a9bc
000002a0: 8221 b6bc b3c8 afbd 537b b23d 3f1d 83bd
000002b0: 3f81 123e 7ca4 e33d ef3d 013e b5ff 3abd
000002c0: f18b d0bd f037 99bc d851 ac3d 38eb b13d
000002d0: 4f8b 04bc 99dc e53d 2efa c83d db67 0ebd
000002e0: 28bc 043c b20e 8f3a e109 9c3c b107 96bd
000002f0: 615d 053e ccc1 c33d 4df0 113d 0471 8fbd
00000300: 08d7 acbd c9de 65bd 3bd6 cbbc 506b ffbc
00000310: 74ba 0c3e 8a07 d73d f807 11be 9442 983d
00000320: 0f65 c2bd 0d90 ac3d 8bdb 573d bb5c e8bb
00000330: 1bd7 ae3d 17fc 5c3d 0884 043d 1907 523d
00000340: 25fc a53d 5ab0 98bc db16 b3bc ccc4 623d
00000350: 33f3 bb3d 6796 bb3d 66e9 f2bc 2e1b 2ebd
00000360: fdea c73d e0c2 70bc ac1a 15be fc9a ed3c
00000370: 393d c93c 61ab 6bbc 5ac5 423c ea0b 7a3d
00000380: 7464 953c 37f1 b7bd 5c65 fa39 15c3 423d
00000390: 15cd 13bd 77fe 9dbd 48f6 e7bd aec3 523d
000003a0: f675 f53d ecb2 25be cd75 ddbd 0cfb ca3d
000003b0: 29b2 1cbd 525a 87bd b7b4 c43d e4a9 d0bd
000003c0: 6d64 8d3c 888b 263d ccf8 19be 4ec4 c0bc
000003d0: 3dd7 113e 5d85 b8bd 4583 b2bc 39ef 89bd
000003e0: f926 d53c 1627 5dbd b280 9f3a 47c9 95bd
000003f0: 7f8b 93bd 4d4b b5bd f032 95bd 9ca1 8fbc
0.1287084 -0.095687605 -0.10137743 -0.1286748 0.07743333 -0.062216014 -0.13865067 0.020442022
0.06941956 -0.06502359 -0.030153308 -0.07181939 0.17481022 -0.04686894 0.013049106 -0.083889194
-0.13229948 0.10232505 -0.06613264 -0.1100739 -0.04708456 -0.07397307 -0.13380149 -0.10437527
0.103843436 -0.027782751 0.06474697 -0.09915849 0.07099231 -0.066040196 0.07593805 0.12426601
0.10430998 0.096178256 -0.008942134 -0.12345262 0.037222307 0.06374796 0.043109532 -0.05449114
0.01490042 0.06501495 0.067501836 0.04427217 -0.07228504 0.06407363 -0.049625576 -0.08022923
-0.057963755 -0.12728488 0.13378517 0.15293334 0.045450184 -0.017121172 -0.054678153 -0.1257348
0.015765667 0.00019656139 -0.042078603 0.044724304 -0.133309 -0.10510626 -0.023761902 -0.013489016
-0.034264825 0.096761785 -0.11413789 0.12709539 -0.048834696 -0.073754095 0.100938104 -0.071737364
-0.083648205 0.054088347 -0.031496204 0.10359406 -0.06692946 0.007980683 0.059544057 -0.10401867
-0.09488463 -0.09333433 0.014820348 0.11057432 0.076292135 0.064196765 0.054514688 0.028232347
0.081973694 0.044166103 0.08895412 0.14561841 0.09246512 0.13245538 0.02236337 -0.13217553
-0.095067814 -0.12449504 0.0315854 -0.03830577 -0.032430273 0.12196718 -0.04380758 0.12962708
-0.04508563 -0.08928662 0.12968686 -0.110776275 -0.07850222 -0.014120102 -0.044157837 -0.022946512
-0.06690261 0.030146755 0.15470523 0.005601868 -0.13579193 -0.020360168 -0.083689734 0.0050149662
-0.08291385 0.15297703 -0.019300504 0.08204321 -0.002824329 0.09714254 -0.11967879 0.102400154
0.08135368 -0.0018537212 -0.0067671803 0.0062376773 0.08899737 -0.15499899 -0.11289228 -0.03004019
-0.080599986 -0.02959042 -0.08041043 -0.13159418 0.0009715359 -0.08172531 -0.09563479 -0.016866894
-0.077430315 0.10913368 -0.041103993 -0.110652044 0.052947987 -0.06036772 -0.03051583 0.034014717
-0.062029086 -0.10897304 -0.089039914 -0.05595393 -0.06812401 0.07749969 0.060714714 -0.029657658
-0.13023315 0.08243919 0.019041201 0.029309046 0.039822575 -0.0071278117 0.035764422 -0.020682182
-0.022232775 -0.08583202 0.087149285 -0.064020626 0.14307116 0.11115357 0.12621282 -0.045654017
-0.10182942 -0.01870343 0.08414048 0.086874425 -0.008089854 0.11223716 0.09813343 -0.034767013
0.008101501 0.0010914414 0.01904768 -0.07325686 0.13023902 0.09558448 0.03562956 -0.07003978
-0.084394515 -0.056120668 -0.024882426 -0.0311791 0.13743001 0.10499485 -0.14163196 0.07434574
-0.09491932 0.08425913 0.052699607 -0.0070911325 0.08537122 0.05395135 0.032352477 0.0512763
0.081047334 -0.018638778 -0.021861484 0.05536346 0.09177246 0.09159546 -0.029652309 -0.04250639
0.09761617 -0.014694899 -0.14560956 0.029004566 0.024565326 -0.014384122 0.011887873 0.06104652
0.018236376 -0.08981555 0.00047759234 0.047549326 -0.036084253 -0.07714551 -0.11326271 0.051456146
0.1198539 -0.16181535 -0.10813484 0.09911165 -0.038255844 -0.06609024 0.09604781 -0.10188654
0.0172598 0.04066041 -0.15036315 -0.023531105 0.14242263 -0.09009812 -0.02179111 -0.06735081
0.02601956 -0.053992353 0.0012169091 -0.07313781 -0.07204341 -0.08852253 -0.07285106 -0.017533116

static_ll.0.bias f4 [128]
00000000: 6617 e53d 4c08 b9bd 6d52 7d3c ca1f 6abd
00000010: c0ad e13d a11e ac3d ba69 9abd 2d92 e93d
00000020: b5e5 9e3c b566 0e3e aa78 0c3e 14a9 62bd
00000030: 5ce6 e4bc 10f4 c13d d4cf 743c 7956 ed3d
00000040: affc fe3d a162 9fbd 0a17 f03c 848c 993d
00000050: c43e c23d 1c5e bc3b ff10 993d da84 153e
00000060: 08a0 ed3d 0a14 ca3d 169e 52bd a2e7 b0bd
00000070: 78f9 86bd 119c ea3d 17df c6bc 3bf9 8bbd
00000080: b0fd 34ba 53d7 a63d d531 ee3d 74e9 a3bd
00000090: c11d f93d f5c4 de3d 503d 173c 221e 703d
000000a0: 7d1c 1e3c 89fe cfbc 6600 a4bc 4091 a3bd
000000b0: 11a8 543b d048 01bd 3100 67bd f09b 48bd
000000c0: 6f24 efbc 2400 e53d 6711 e43d fd29 d53c
000000d0: 43f8 123d 8219 0c3e 9591 08bd beda 8f3d
000000e0: da75 0f3e 3e32 cb3d 323f dfbd 7ed7 a0bd
000000f0: 9bfb d2bc 814b da3d 4705 66bd 56ae 96bd
00000100: 774a 5cbd 60dd 37bd 1335 353d 6d97 8fbd
00000110: 485d a2bb 5c06 86bc a10b 503d a02d 993d
00000120: 9f8a 1abc aa7f e5bc 7355 6fbd 0dd0 503c
00000130: a9d5 323c bcf5 9a3c b40f 16bd 2823 bd3b
00000140: 2490 f33b ad4f be3d 000e b2bd 4545 2d3c
00000150: a84b 91bd 46f4 cabb 7768 8fbd 9ba5 2c3d
00000160: 6672 203e 7bed 96bd 3199 cd3d 22d2 0ebd
00000170: a1dd cdbd 37eb e43c e417 77bc cc51 e1bb
00000180: b342 8bbd 9629 973d b5d4 d13b 0a20 6bbb
00000190: 847f f03d c9ae 8fbd db33 6c3d 8110 4fbd
000001a0: 68c2 a7bd ef48 38bd 14f3 f23d 5602 d63d
000001b0: d9bc 663d 3a1a 263d b567 383d 614c 9fbc
000001c0: d105 f33d aa8d a5bd 8b05 7d3d f151 14bd
000001d0: dfba 2e3d d091 803d da48 663d 80ee cebd
000001e0: aa89 903d 6bd5 77bc 71aa d53d 3e16 7dbd
000001f0: 78b3 883d cd84 fcbd 04ca f93d c191 ba3c
0.111861035 -0.09034786 0.015461546 -0.057159223 0.11019468 0.084042795 -0.07539697 0.11404834
0.019396642 0.13906367 0.13717905 -0.055337027 -0.027941875 0.09470379 0.014942128 0.11588759
0.12450539 -0.07782484 0.02930786 0.07497504 0.09484628 0.0057485234 0.07473945 0.1460146
0.11602789 0.098671034 -0.051420294 -0.086379305 -0.06590551 0.114555486 -0.0242763 -0.06834646
-0.00069042575 0.081465386 0.116305985 -0.08003512 0.12163878 0.1087741 0.009230927 0.058622487
0.009650347 -0.025389927 -0.020019721 -0.079866886 0.0032448808 -0.03156358 -0.056396667 -0.04897684
-0.029192178 0.111816674 0.11136132 0.026020998 0.035881292 0.13681605 -0.033341963 0.07024144
0.140098 0.09921692 -0.109007254 -0.07853602 -0.02575474 0.106589325 -0.056157377 -0.07357471
-0.053781953 -0.044888854 0.04424007 -0.07011304 -0.0049549676 -0.016360454 0.05079234 0.074794054
-0.009432464 -0.028014977 -0.0584311 0.012744916 0.010915198 0.018916003 -0.03663607 0.005772013
0.0074329544 0.09292541 -0.086940765 0.010575597 -0.070945084 -0.0061936704 -0.07002347 0.04215012
0.1566864 -0.073695146 0.100389846 -0.034868367 -0.10052038 0.02794419 -0.01508138 -0.006876206
-0.06799831 0.07380979 0.0064035305 -0.003587725 0.11743072 -0.070157595 0.05766664 -0.05055285
-0.08191377 -0.04499143 0.1186277 0.10449664 0.056332443 0.040552355 0.045020778 -0.0194456
0.11866344 -0.08083661 0.061772864 -0.036210958 0.042658683 0.062778115 0.05622182 -0.10104084
0.07057507 -0.015126566 0.104329 -0.06178879 0.06674856 -0.12330017 0.121967345 0.022774579

static_ll.2.weight f4 [64, 128]
00000000: 9aed 253d b3d6 94bd 3428 593d 9c14 7f3d
00000010: 7f28 a33d 3522 653c db46 63bd cab1 fcbc
00000020: b812 a7bd 3f5f 593c bc2c a1bc 09f9 5a3b
00000030: 7bbe 93bc 0e34 c43b a1f7 283d bb33 973d
00000040: 3b25 483d 6982 5abd 5877 dbbc 1989 5dbd
00000050: 448a 3fbd 9066 903d f175 4a3d 98d8 da3c
00000060: 0c47 0f39 ce49 863d d652 43bd 01b7 47bc
00000070: fcfc b83b 1ee3 89bb 0e29 093c a501 acbd
00000080: 9ef9 b03d b50c 4fbd 4e9f 84bc 86ac 92bd
00000090: 926b c53d 82ce 073d 03a6 8939 aa9b 913c
000000a0: bd2f 35bd fe5a 0b3d 2c2b 7e3b 7f2f 983d
000000b0: c686 163d 9f95 88bd 16c3 4d3d a6e6 643d
000000c0: 34e1 283d 1052 26bc 41d2 eabc 146e 9cbd
000000d0: 6ea1 87bb 78c1 a93d 646c 1abd 33f1 a23d
000000e0: 59c9 f83c aa0e b7bd dc20 72bd ea74 613d
000000f0: 2c8f c23d 5b92 9b3d 364e 963b 74f9 8cbb
00000100: 7553 693b dd21 c5bc a7ef b23d 450e 2fbd
00000110: 5785 c6bc f358 5d3d 7853 4cbb 74a1 92bd
00000120: 1a95 d73c c31d 8e3c f28e 1a3c eaaf b3bc
00000130: 8bb0 8bbd b81e f9bc ef75 133d 55a5 8dbc
00000140: 7027 fc3c 5367 933d 3abe 1c3d c726 063b
00000150: 6777 82bc b656 4dbc 75c8 96bd 86d5 123b
00000160: 48cc fcb9 d472 3dbd b3b3 8fbd 2d41 87bd
00000170: bc85 513d 0cc8 863d fafe 20bd 533c 91bd
00000180: 6815 0f3a bb60 ee3c 032e 833d 2762 993d
00000190: 2b78 a63c f2f7 573d 3789 273d ae8d ab3d
000001a0: 801e 2f3d 90d7 49bd 5e79 9c3d b5ef 123d
000001b0: 8b30 7f3c 216f 8e3d 7385 02bd 250e 66bd
000001c0: 80eb 2bbc 4660 463d 2124 ebbc e4a2 a53d
000001d0: 54e2 c73d 3802 0e3c 7e4e 2ebc dca7 cabc
000001e0: 527b 0ebd 03e5 353d 6774 a33d 6056 71bd
000001f0: 6696 c83c 50b9 173c 9bab ba3d 79c1 183d
00000200: 7cf0 303d 2501 19bd 23ac bc3c 6d34 29bc
00000210: 7a7c 303d 3c79 89bd f53d 543d 40bd 963d
00000220: e4d8 813c 3ea0 98bc 1fad 553d f789 f93d
00000230: 20b9 093b ffd5 453d 4030 b1bc ff07 a03d
00000240: 09b4 cebc 8e74 78bc e3a8 7e3d ea3a 4c3d
00000250: 77a5 6cbd e44e 8a3d 7a0a 7a3d 2b2d 4ebd
00000260: f670 213c 260a 273d c50d 033d 2eba 633d
00000270: 82d7 9abd 775b b23d 8cfb c03c 5f34 843d
00000280: 435a 8dbc 3436 703c 3106 963c 3873 353d
00000290: c18d 723d 784e 773d 1cb7 6c3c 6adc 983d
000002a0: 0c1a 353d 7f39 07bd 4617 853c db6a 93bd
000002b0: 76d0 5b3d e790 5c3d c40b 923d f67e a23d
000002c0: 049d cbbd 634d eb3d 2eaf 6f3d fd52 fc3c
000002d0: b7db 3bbd b4eb 893d 8d13 063d 7c02 a3bd
000002e0: 8956 ff3c 2826 eebd 39c4 a3bd 7a4f ab3b
000002f0: 1094 f63d ffd4 d7bc a83d 053d 68f5 093c
00000300: 069a a63c 8c31 d6bc fee4 b93d 9b61 ec3c
00000310: 3c9b b1bd 7849 3bbd c061 813d a638 c3bd
00000320: 4ebf 9dba ea95 04bc f1f4 ff3c d644 20bc
00000330: 4c42 7b3c 922a 3cbc c2d6 f1bc 6b9a bc3d
00000340: 7e33 f6bc a4c6 7a3d d7b2 adbd 5a78 c23b
00000350: 1279 a3bd 4823 1e3d c297 b43d 0a85 4ebd
00000360: 8637 df3c 1727 d23d e7da 41bd 8b43 84bd
00000370: 544c 833d 0a30 953d 6bcc f43a b466 c33d
00000380: 7dc8 af3d 951b a73d c214 c23d 7577 83bc
00000390: 4059 1d3d a68c 1bbd d7e6 e839 07df 283c
000003a0: ad63 2dbd 9871 0f3d b390 003d d139 3c3d
000003b0: bf29 2ebd 5fde 3fbd 2638 a33b 0e77 8ebb
000003c0: fedf 27bd be45 a3bd 3d15 2c3c 7130 df3c
000003d0: 5ba3 8abd d771 9c3d c5d1 a13d 3b36 cdbc
000003e0: f118 83bd e304 c4bc b77f 92bd 7c56 c4bb
000003f0: 4871 b4bc 12c4 213a 15d7 16bc 35a2 33bd
0.040509798 -0.07267513 0.053016856 0.062275514 0.079667084 0.013985206 -0.055487495 -0.030846495
-0.08157867 0.013267337 -0.019674651 0.0033412597 -0.018035164 0.0059876507 0.041251782 0.07382914
0.04886363 -0.053347025 -0.026790306 -0.054085825 -0.04676272 0.07050812 0.049428884 0.026714608
0.0001366401 0.06557046 -0.04768642 -0.012189628 0.0056453925 -0.0042079827 0.008371605 -0.08398751
0.08641361 -0.050549228 -0.016189244 -0.071618125 0.09639658 0.033155926 0.00026254365 0.017774422
-0.04423498 0.034022324 0.0038783057 0.07430934 0.036749624 -0.06669163 0.050234877 0.055884026
0.041230395 -0.010151401 -0.02866471 -0.07638183 -0.004139117 0.08288854 -0.037701026 0.07956161
0.030369448 -0.08938344 -0.05911337 0.05504314 0.09499964 0.075962745 0.00458696 -0.004302198
0.0035602723 -0.024063999 0.08737116 -0.042738218 -0.024233503 0.054039907 -0.003117768 -0.07159701
0.026316214 0.017348176 0.009433495 -0.021934468 -0.06820782 -0.030410156 0.036001142 -0.01729075
0.030780524 0.07197442 0.03826735 0.002046989 -0.015926076 -0.0125328805 -0.07362453 0.0022405102
-0.00048217387 -0.046252087 -0.07016697 -0.06604228 0.05115293 0.06581125 -0.039305665 -0.07091584
0.0005458207 0.029098859 0.064052604 0.07489424 0.020320972 0.052726693 0.040902343 0.08376633
0.042753696 -0.049277842 0.076403365 0.035873134 0.015575538 0.0695479 -0.03186555 -0.056165833
-0.010493159 0.048431657 -0.028703751 0.080877095 0.097599655 0.008667521 -0.010638831 -0.024738245
-0.034785576 0.044407856 0.07981186 -0.058920264 0.024485778 0.009260491 0.091147624 0.037293885
0.043198094 -0.037354607 0.0230313 -0.010327441 0.04308746 -0.06712577 0.0518169 0.07360315
0.015850492 -0.018631097 0.052167054 0.12184518 0.0021014884 0.048299786 -0.021629453 0.07814025
-0.025232332 -0.015164508 0.06217278 0.049860872 -0.057774987 0.067533284 0.061045147 -0.050336044
0.009853592 0.040781163 0.031995554 0.055597477 -0.07560636 0.08708852 0.023557447 0.064553015
-0.017254954 0.0146613605 0.0183135 0.044299334 0.05921722 0.060377568 0.014447954 0.07463916
0.044214293 -0.033013817 0.01624645 -0.071981154 0.0536656 0.053849127 0.0713115 0.07934372
-0.09942058 0.1148937 0.058516674 0.03080129 -0.045863833 0.0673441 0.03273349 -0.07959458
0.031169193 -0.116283715 -0.07996411 0.00522798 0.120399594 -0.026346682 0.032529503 0.008420326
0.020337116 -0.026146673 0.0907688 0.028855136 -0.08672187 -0.045724362 0.063174725 -0.09532289
-0.0012035163 -0.008092383 0.031244727 -0.009782037 0.015335631 -0.011484759 -0.02952135 0.092091404
-0.03005385 0.061224595 -0.084813766 0.005934757 -0.07982077 0.038607866 0.08818008 -0.050419845
0.027248155 0.10261362 -0.047327902 -0.06458195 0.06411043 0.07284553 0.0018676644 0.095410734
0.08583162 0.08159558 0.094766155 -0.016048172 0.038415194 -0.03797593 0.00044422477 0.01030708
-0.042331386 0.03502044 0.031387996 0.045953576 -0.04252028 -0.04684293 0.0049810586 -0.0043476885
-0.0409851 -0.07972287 0.0105031105 0.027244778 -0.06769439 0.07638901 0.079013385 -0.025050273
-0.064012416 -0.023928111 -0.07153266 -0.005991755 -0.022026673 0.00061708794 -0.009206553 -0.043855865

static_ll.2.bias f4 [64]
00000000: 1a6b 5e3d 2066 243d 5fe7 9abc 08bb 66bd
00000010: 5487 02bd 2fcb 123d eb37 fc3c d1ee 1ebc
00000020: 0e24 2c3d 40d2 7cbd 665a a33d 0a14 e9bc
00000030: cbf4 5ebc 78cb 8b3c c147 9f3d 673e cd3d
00000040: c404 a6bd e40b a23c 9ab3 b43d 36e7 82bd
00000050: fc47 03bd 5977 54bb 9bba 683d 277b a63d
00000060: 858f 15bd 36e9 b13d eba0 643d cb7f d5bc
00000070: 98ee 943c b9bb 793c a278 803d 2fa7 973c
00000080: 1568 33bd e001 8fbd 47fb bb3d 2d16 603b
00000090: be87 353d aa35 49bd 822a 97bc d289 bc3c
000000a0: 6039 043d ede4 7d3d 6245 67bc eebe ad3c
000000b0: fd68 10bc 5d10 993d be1f b8bc 2352 043c
000000c0: 620c 2a3d fe11 683c f78e e83c 2016 b93c
000000d0: d5ea 29bd 34fa 853d cb0f 9c3d 9582 653d
000000e0: 707c dbbc 581c b63d e865 07bd 7c5b c83d
000000f0: 125c 9d3d e993 e43c c58d 40bd 46ee ca3d
0.05430136 0.040136456 -0.018909154 -0.05633071 -0.03186734 0.035838302 0.030788383 -0.009700493
0.042026572 -0.061723948 0.079762265 -0.028451938 -0.013608168 0.017064795 0.07777358 0.10021668
-0.08106378 0.01978106 0.08823319 -0.06391756 -0.03205107 -0.003241977 0.056818586 0.08128958
-0.036513824 0.086870596 0.055817526 -0.026061913 0.018180177 0.0152425105 0.06273009 0.018512337
-0.043800432 -0.069827795 0.09178787 0.0034192905 0.044318907 -0.049123444 -0.018452886 0.023014937
0.03228128 0.0619859 -0.014115663 0.021209206 -0.008814094 0.07473824 -0.022476073 0.008076224
0.041515715 0.014164446 0.028388483 0.022593558 -0.04148372 0.06541863 0.076202 0.056032736
-0.026792735 0.08892125 -0.03305617 0.09783074 0.07683577 0.02790256 -0.047010202 0.09908728

glu_encoder.rnn.weight_ih_l0 f4 [48, 2]
00000000: 240c 323e 9847 22be 94fe 0c3e 42b3 e1bd
00000010: 5bd9 3a3e 0e70 3e3e 7128 a9bd 413e 32be
00000020: 1745 22be 6782 523e 41c2 863e 7ee9 1c3e
00000030: e5d2 43be 5f4d ce3c 37b3 993e 8497 98be
00000040: d7d1 e7bd 29c3 5abe c38f 663e 958a 19be
00000050: 8248 053e cdd4 6c3c 74ae f93d 4162 5a3e
00000060: c0db 713e 2ebb c6bd c592 a73d bda5 ca3c
00000070: fc07 f53c 2ea9 46bd b7e5 5bbe eda4 5dbd
00000080: b6b1 643e 43da cbbd 2f36 3a3d 0301 6c3e
00000090: a939 43be 2e4c 4fbe 6ea4 75bc 1f9e 6c3e
000000a0: 4785 ebbd f3a4 403e 4937 e9bd 275a 55bd
000000b0: d89f d0bd 8eb8 023e 577f 613e 7399 4c3e
000000c0: c17f 323d 4868 60bd 1034 aebe c8f9 843e
000000d0: 7769 9abe 0941 a0bb de17 113d e09c 5abd
000000e0: bafa 543e 034c 3dbd 1803 933d 1b30 0fbd
000000f0: 7c6c 673e 97f9 9bbc dac3 d7bd 1ab5 91bd
00000100: 56a1 0a3e 6b3d debd 5e06 10be 7792 213e
00000110: f1a2 ea3d 3b48 a13d 672f 833e 4d44 a8bd
00000120: 0b21 e1bd 5c25 4dbe 7641 7d3e 98d0 5dbe
00000130: 94e4 303e b2e8 193c 11b2 e23d fd37 41bd
00000140: a01a 113e d7de cebd b7db 7d3e 3f91 3f3e
00000150: ab86 043e 2934 773e d4dd 5dbd 5b14 b6bd
00000160: 0483 09be 8801 c6bd f595 7dbe 82f0 633e
00000170: 22c1 813e 28e8 84bd 0766 5b3d ef85 673e
0.17387444 -0.15847623 0.13768989 -0.11020519 0.18246977 0.18597433 -0.08259667 -0.1740656
-0.15846668 0.20557557 0.2632008 0.15323445 -0.19123419 0.025183378 0.30019543 -0.29803097
-0.11319321 -0.2136351 0.22515778 -0.14994271 0.13015941 0.014455033 0.121914774 0.21326543
0.23618984 -0.097036704 0.08182291 0.024737233 0.029911034 -0.048501186 -0.21474348 -0.054112364
0.22333416 -0.099537395 0.04546183 0.23047261 -0.19064964 -0.20243904 -0.014992816 0.23107193
-0.1150003 0.18812923 -0.11387498 -0.05208793 -0.10186738 0.12765715 0.22021233 0.19980411
0.043578867 -0.05478695 -0.34024096 0.25971818 -0.30158588 -0.0048905653 0.035423152 -0.053372264
0.2079877 -0.04621507 0.071783245 -0.034957986 0.22599977 -0.019039912 -0.105354026 -0.071146205
0.13538107 -0.10851558 -0.14064929 0.15778528 0.1145686 0.07875105 0.25622103 -0.08216152
-0.109926306 -0.20033783 0.24732003 -0.21661603 0.17274696 0.009393858 0.1106912 -0.047172535
0.14170313 -0.10101097 0.24790846 0.1870775 0.12941997 0.24140991 -0.05416663 -0.08890601
-0.13428885 -0.09668261 -0.24764235 0.22259715 0.2534266 -0.06489593 0.053564098 0.22609685

glu_encoder.rnn.weight_hh_l0 f4 [48, 16]
00000000: 2468 45be 5cc6 60be b90a d3bd 52d9 fe3d
00000010: ef76 e83d 8f4d abbd cc2f 8bbe 8b27 3a3e
00000020: c641 3e3d 5913 413e 6103 47be 3d76 17be
00000030: c302 efbc 4202 f3bd ccb7 f03d 620a bbbd
00000040: c69a 023e 8d3e dfbd 9893 253e 1ba6 6bbe
00000050: 096e 1dbe e824 6b3e 6780 fb3c 9187 8a3d
00000060: b832 62be 4eb9 7f3e c042 48bd 5002 ab3d
00000070: b9af d83d 0772 10be 377d 4abe 6837 db3d
00000080: 7b7a 1f3e 2b19 15be 6e4a 09be 13cc 66be
00000090: 30fe 1c3d b83f 213d ccfd 3cbe d7fb 203e
000000a0: b97c 023e c0b4 c3bd b8d5 aabd 47fc 253e
000000b0: 3e39 c1bd 7123 293e 29b4 4dbe f20e 303e
000000c0: 2075 1a3e 8dab 41be d6c0 0d3e c885 643e
000000d0: c39c 003c 62d8 213e e4d6 443e f39f f83d
000000e0: 4c90 3ebe 137a 97bd a57d 17be ad49 18be
000000f0: 3c8f 0f3e 1336 043d 92de 2d3c 1640 9bbc
00000100: a2f7 aabd 481c d93b d4af 2b3d 3318 36bd
00000110: aad4 213d 921b a8bd b28a 943e e9d7 003e
00000120: 2459 863c e6f3 053e 6258 413d 0592 92be
00000130: 82a2 92be 60a4 d83d 1dfc f33c 1c47 0cbe
00000140: 4fb3 af3d 013d 403e a032 793b a93c 343d
00000150: a5e0 0a3c 4a5e f0bc 066b 28bd a5d2 493e
00000160: 4138 6b3d 79ff 6e3e 785c 2cbe ac75 92bd
00000170: a3b7 37be 4358 7bbe d03c 61bd cb9c 2fbd
00000180: bdf2 7fbd 3b2b 1f3e 9750 183e 1f7c 713e
00000190: 234b 403d b520 6e3e eb0e 82bd b6f1 283d
000001a0: c3a5 5b3e 693d cd3c a0c1 37be e9d9 3a3e
000001b0: ec62 1c3e 5881 39be 0d34 d63d f083 3dbe
000001c0: 5d0e c13d a572 2fbe c41b c3bc d9ac b23d
000001d0: a66b 65be 0ac9 213e c006 9fbd 305a 60bd
000001e0: eaae 1bbe d0da 1b3e f042 903d b5be 65be
000001f0: 18bc 8ebe 9a82 89be 07b0 633e f622 6abd
00000200: f237 5b3b 8228 7b3e 4005 5d3e b7a0 4abe
00000210: a426 1ebe dabe d53d 10f6 7dbd 0bea 7dbe
00000220: 9396 21bd 9642 973d 762e d5bd 1fb0 533e
00000230: ecad 4cbe 9cfd a7bd 70da 513e 76f2 a7bd
00000240: 2920 7e3e e2e8 63bd 4c20 123e 024d 5ebe
00000250: 440e 29be 4255 57be 0723 fd3c da3c 133d
00000260: 1dfa 2ebe 44f5 21be e6bb dbbc de29 43bd
00000270: 5534 d83c 237f 7f3d 4a7a 363d 2f28 a13d
00000280: 3b28 6c3e 16cd bcbd f49c 74be 5dea 7c3d
00000290: 1019 553e 0b81 ea3d 30ef 7f3d 2fdc 253e
000002a0: 77db e83c d393 75bd 93c5 d1bd 8149 1e3e
000002b0: 827c 35bd 0187 da3c 3af9 103e ad17 babb
000002c0: a503 06be be68 e43d ccce 373d 80a2 193e
000002d0: e7f1 8a3d c212 9fbc 9d63 21bd 221e d5bd
000002e0: b31b 8fbd 71e8 0abe 08d1 9ebd 0122 3d3d
000002f0: 183e 683e ee74 2ebe dc0a 21bd b885 583e
00000300: bcfd 3b3e 128d cb3d b715 14be dbb4 443e
00000310: f1e5 89be 0d4b 70bd e668 053e 06f5 0f3e
00000320: c21c 5a3e 4575 bbbd 7d68 28be b565 0fbe
00000330: 637c 1b3d 516a 99bd 2a1f 243d 0727 7f3d
00000340: 095a 903d bf81 143e cfd6 a73d ae39 303e
00000350: 2ab1 c8bd ec3c 1abe 4df4 9ebd 1973 c03c
00000360: 3e02 1f3e 1b61 243d b8ad bb3d 5516 b3bd
00000370: 0bda c23c 07bf 833d 42aa 0fbe 055d 3cbe
00000380: b21e 8d3e babe 2a3e a351 4abe a72c 2cbd
00000390: 452b 113c 917f 2f3e 49a3 ddbd 16cf bbbd
000003a0: 5fa8 fcbd 2e9b 223e dc02 0dbe 17e7 e83c
000003b0: e2fa 263e 0eb5 ffb8 4659 903e d71e 1fbe
000003c0: af2c 27bc 46a6 463d d6d7 923d b423 1b3e
000003d0: 05e2 833e 84ef 82be b1c1 9ebb 5027 293e
000003e0: 8c14 5b3d 3936 4abe 2333 febd 9420 b7bd
000003f0: acfc 6dbd d2f2 c2bd 2347 91bc d5c3 293d
-0.19278008 -0.21950668 -0.103047796 0.12443794 0.1135081 -0.083644025 -0.27184904 0.18179147
0.046449445 0.18855037 -0.19434883 -0.14791198 -0.029176122 -0.11865665 0.117538065 -0.0913284
0.12754354 -0.109006025 0.16169584 -0.23012583 -0.15374006 0.22963297 0.030700875 0.067641385
-0.2208966 0.24973032 -0.048891783 0.083500504 0.105803914 -0.14105998 -0.19774328 0.10703927
0.15574066 -0.14560382 -0.13407299 -0.22538786 0.03832835 0.039367408 -0.18456191 0.1572107
0.1274289 -0.0955596 -0.08341545 0.16209517 -0.09434746 0.16517426 -0.20088257 0.17193201
0.15083742 -0.18913098 0.13843092 0.22316658 0.007849875 0.158052 0.192226 0.12139883
-0.18609732 -0.07396331 -0.14794023 -0.14871855 0.14019483 0.03227813 0.010612147 -0.018951457
-0.083480135 0.006625686 0.04191573 -0.044456672 0.039509453 -0.082083836 0.29012066 0.12582363
0.016399927 0.13081321 0.04720343 -0.2862703 -0.2863961 0.10578227 0.029783303 -0.13699001
0.08579122 0.18773271 0.003802456 0.044003163 0.008476411 -0.029341836 -0.04111769 0.19709261
0.057426695 0.23339643 -0.16832149 -0.071513504 -0.17941146 -0.24545388 -0.054989636 -0.04287414
-0.062487353 0.15543835 0.14874493 0.23582505 0.046946656 0.23254664 -0.063505016 0.04124614
0.21449952 0.025053697 -0.17944956 0.18247189 0.1527211 -0.18115747 0.10459147 -0.18507361
0.09426568 -0.17133577 -0.02381695 0.08724374 -0.22404346 0.15799347 -0.07764959 -0.05477351
-0.15203443 0.15220189 0.07044017 -0.2243603 -0.2787788 -0.26857454 0.22235118 -0.057162248
0.0033450094 0.24527171 0.21584034 -0.1978787 -0.15444428 0.10436793 -0.06200224 -0.24796312
-0.03945024 0.07385747 -0.10409252 0.20672654 -0.19988221 -0.08202669 0.20493484 -0.08200543
0.24816956 -0.055642016 0.14270133 -0.21709064 -0.16509348 -0.21028617 0.030900491 0.035946704
-0.17087598 -0.15816218 -0.026822995 -0.04764735 0.026392141 0.062377106 0.044550218 0.078689925
0.23062222 -0.092188045 -0.23887998 0.061746944 0.20810342 0.11450394 0.062483966 0.16197275
0.028424961 -0.05995543 -0.102427624 0.15457727 -0.044308193 0.026675703 0.14157572 -0.005679092
-0.13087328 0.111527905 0.04487495 0.15003395 0.067844205 -0.019418124 -0.03940164 -0.10406138
-0.06987705 -0.13565232 -0.07754713 0.046175007 0.22679937 -0.17036793 -0.039316997 0.2114476
0.1835851 0.099390164 -0.14461409 0.19209616 -0.26933244 -0.058665324 0.13028297 0.14058313
0.21300033 -0.09153227 -0.16446109 -0.14003642 0.03796042 -0.07490981 0.040068783 0.06229308
0.07048423 0.14502619 0.08195268 0.17209503 -0.09799416 -0.15062302 -0.077614404 0.023492383
0.15528199 0.04013167 0.091639936 -0.08744494 0.023785612 0.0643292 -0.14029792 -0.18394859
0.2756248 0.16674319 -0.19757704 -0.04203477 0.008860414 0.17138506 -0.1082216 -0.09170358
-0.12336802 0.15879509 -0.13770622 0.028430505 0.16306642 -0.000121930716 0.2819311 -0.15539108
-0.0102035245 0.048498414 0.07170074 0.15150338 0.25758377 -0.2557336 -0.004844867 0.16518903
0.053486392 -0.19747247 -0.12412097 -0.08941761 -0.058102295 -0.095189705 -0.017734116 0.041446526

glu_encoder.rnn.bias_ih_l0 f4 [48]
00000000: f1ec 343e 1ca0 3dbe 55af 37bd a8af dd3c
00000010: 3efd 3bbe b2b4 a7bd f37d 1e3d 5f33 c9bd
00000020: 0e63 8f3d 7e6f 993d fe59 dbba 8b86 b2bd
00000030: adf4 8abd 1e82 b83d ddf9 9abd c9de 05be
00000040: 3480 6f3e fcd0 4fbe e482 313e 2b35 72be
00000050: a39c 453e 1dba 54be a516 513e dd35 bcbd
00000060: 41a9 9f3c 5140 183e 7cd0 543d cfa5 513e
00000070: e21b 403c 88f2 133b 69a4 e33d 8ce8 bfbc
00000080: 6525 703e 6f5c 483e 310b 27be 4c33 3abe
00000090: 85bf 23be 5613 1abe 4df3 49be 0374 21be
000000a0: edd4 8abd 224c 703e 5144 1e3c 804c 02be
000000b0: 1f37 443d 723c 79be 3b8a 75bd f418 d8bd
0.17668511 -0.18518108 -0.044844944 0.027061298 -0.18358323 -0.08188762 0.038694333 -0.098242514
0.07001315 0.074919686 -0.0016735194 -0.08717068 -0.067849495 0.09009193 -0.07567189 -0.13073267
0.2338875 -0.20294565 0.17335087 -0.23653094 0.19298033 -0.20774122 0.20418794 -0.09189961
0.019489886 0.14868285 0.05195664 0.20473407 0.011725398 0.002257498 0.11115343 -0.023426317
0.23451765 0.1956651 -0.16312863 -0.1818363 -0.15991028 -0.15046439 -0.19721718 -0.15766911
-0.067788936 0.23466542 0.009659843 -0.12724495 0.04790413 -0.24339464 -0.05994628 -0.105516344

glu_encoder.rnn.bias_hh_l0 f4 [48]
00000000: 5cd2 43bd 1ca8 843e 9b81 4e3e d14c 87bd
00000010: 1e6b 12be 4b2f bbbc 55cc 47be 4688 22be
00000020: 821a 8abd 92a3 01be 9139 e23c 2056 84bc
00000030: ceb4 7d3e ad5a 39be 0963 8f3d f6dc c73d
00000040: 827b 68bd 1c29 413e bdd2 783e d3ce 383e
00000050: 4ca5 5abe 2570 03be e303 0d3e f1c0 e43d
00000060: a8cd e93d f3b1 92be 174b 133e b6cb 4d3e
00000070: 13c4 333e 834b 7b3e c74f c33d ae4f 833e
00000080: b308 c63d d7af 5b3a cfc3 0c3e bf79 ea3d
00000090: 5232 77be f593 e9bd 403e 62be 0d2e 153e
000000a0: ffba 213e 6618 a7bd 65e2 c0bd cf74 37be
000000b0: 72ab 92be 9ae2 64be a091 733d 8db2 34be
-0.047808036 0.25909507 0.20166628 -0.066064484 -0.14298674 -0.0228497 -0.1951154 -0.15872297
-0.06743337 -0.12660053 0.02761534 -0.016154349 0.24776003 -0.18100996 0.07001311 0.09758942
-0.05675841 0.18863338 0.2429914 0.18047647 -0.21352118 -0.12835748 0.13771014 0.11169613
0.11416179 -0.2865139 0.14384113 0.20097241 0.17555265 0.24540524 0.09536701 0.25646728
0.09669628 0.0008380389 0.1374657 0.114490025 -0.2414029 -0.11405174 -0.22094059 0.14568348
0.1579399 -0.081589505 -0.09418181 -0.17915653 -0.28646427 -0.22352067 0.05946505 -0.17646237

glu_encoder.hid2lat.weight f4 [64, 16]
00000000: f394 80be f377 2ebe 522e b0bd 2d05 203e
00000010: b3a2 163d d9d1 1e3e ac10 12be 3811 453d
00000020: 8b63 50bd 3db4 70be fe60 0abe f035 7abd
00000030: 276d 523e b628 2cbe c1fd 34be d4ba 17be
00000040: e422 0a3e 4336 193e 4181 68be 7310 c53d
00000050: 869e 733e 02d0 f1bb 6544 463d 063a b1bd
00000060: 7192 233e 892e 2abd 7059 33be 2fca a5bd
00000070: aec1 0e3e f5a2 d03d 9ee6 4bbe ec5a 99bd
00000080: 375e e3bd 910c 8bbc 157d cbbc 9653 833e
00000090: 5fe4 a1bc 2b46 b73d 5108 793e 777e 5e3e
000000a0: d798 07bd ef24 803e ff10 45be 005e 9c3c
000000b0: 59f2 b03d 7429 ddbd 0e27 f53d 5957 48be
000000c0: 6528 203e e6a4 dfbd 2259 6f3e ac88 903d
000000d0: 3d93 debd 66bf 343e 41f9 b8bb 6f18 803e
000000e0: 7f3c 37be 760e bbbd 6261 7bbe 8609 1d3d
000000f0: a7cb ba3c be4c b4bd 619d b43c caf8 d5bd
00000100: 169e 623e 282d fc3d 6d07 57be 22f6 ad3c
00000110: a6f1 443e 65cc 543e 3e86 4d3e 058f 12bd
00000120: bb75 ee3d 1aee bdbd 8f0e 463e 238d 92be
00000130: 2937 5fbe ec5c f6bd a693 c9bd 332a 5e3e
00000140: e47a efbd a072 31be a8e2 893e 6ee9 7d3e
00000150: a773 263d 891e 5b3e 5afe 3b3e fc5f 62be
00000160: c446 8abd a230 0e3e 3cbf f0bd 75a4 1c3e
00000170: 7657 bebc 1ae4 c5bd 92d4 03be ee84 cd3d
00000180: 51a7 163d 2ed8 14be f856 923d f2a9 483e
00000190: dd30 833d 13ea 35be 0ad7 0e3e 79eb 4d3e
000001a0: afb6 d7bd e832 0f3e 9b87 773d b8f4 d03d
000001b0: b692 bdbd 2497 dabc 4a16 18be 9a3a 51bd
000001c0: cd17 f7bd ae9e da3d 48de 3a3e 73f4 babd
000001d0: 1d67 00bd 2c5a 21be e7a3 d3bd c36a 143d
000001e0: 62ce e3bd 526b f0bd f593 88be 212f 103e
000001f0: e2a5 4d3e 694f 183e d62f fc3d 89e5 593e
00000200: bc89 3b3d 7a38 b2bd bef9 1cbe d1e7 643e
00000210: 1652 283e e654 45be 2610 3bbe c951 43be
00000220: a678 4bbd b165 1a3e be30 393e 09a8 5dbe
00000230: 9078 ce3c 1abf 5b3e fb8b 1dbe 9e8b 833d
00000240: 0c92 0b3d 3a4a 68be 7b8b c83d 0755 2b3d
00000250: fd5c 423d 4af3 373e e2e8 f0bd a55f b93d
00000260: 57db 20be 14c9 edbd 962f 2dbd 3b97 bf3d
00000270: d9d9 b4bd da84 ab3d bc3f b43d 787f 283e
00000280: 54a3 063e b51d 54be 303d c53d 66df 8d3e
00000290: d442 1d3e e64f 243e 30d2 b13d b3be adbc
000002a0: b6bc 1c3e 5791 8dbc e66e 08be f04c 11be
000002b0: 1c03 22be f08b 99bc 6f5d 683e 9153 76bd
000002c0: 447e 04be 9aa3 17be 60ed 3cbe 5d1f 133a
000002d0: c10f e93d 8eb0 55bd 0b77 133d 33d8 ffbd
000002e0: f4ab 6fbe ec77 573e 3962 073e be77 3b3d
000002f0: 4f27 80be 17a5 2f3d 67f7 79be e550 2bbe
00000300: 3c4a 593d 8e21 c8bd 4b66 1c3e 481f 423e
00000310: cd0a 16be 85d5 3bbd b693 6cbd 482b 253e
00000320: 0280 863e a384 5c3e aee0 6d3d 3287 363e
00000330: 7c2e 183e 1312 69be 720d 073e ceb8 0abe
00000340: d1fa afbd 20c6 603d 54f8 9dbd 5702 4ebe
00000350: 6155 61be 0ccd 29be d554 81be 14f5 203e
00000360: c7ad 683e 3242 24be f07c 223e c8f8 193e
00000370: 7c3f a9bd 2367 2b3b 6b3a 5abe 6ab2 5d3e
00000380: 920b 2d3e 7fd4 9dbd 6c28 e03d 7209 823b
00000390: 2202 2d3c eb4a 093e 95a2 5b3d 00ca 8fbe
000003a0: b19b 89be a6b5 fbbc e33e 89be 9f46 3b3d
000003b0: 8ab0 bb3c 65ef 013d f848 85be 886b 273e
000003c0: 9799 4ebe 26eb ad3d e9aa d1bb 5d6d 39be
000003d0: bb48 3a3d 85bf 593e 964a babc d340 cb3d
000003e0: d269 eebd ec9c 5bbc 9090 f23d c97f 39be
000003f0: f113 b7bc c422 023c 81f0 33bc 35cb 3fbd
-0.2511364 -0.17037944 -0.08602585 0.15626974 0.036776256 0.15509738 -0.14264172 0.048112124
-0.05087618 -0.23506255 -0.13513562 -0.061086595 0.20549451 -0.16812405 -0.17674924 -0.14817363
0.13489872 0.14962105 -0.22705556 0.09622278 0.2379094 -0.007379533 0.04840507 -0.08653645
0.15973832 -0.041548286 -0.17514586 -0.08095204 0.1394107 0.101873316 -0.19912192 -0.07488045
-0.111019544 -0.016973766 -0.024839917 0.25649709 -0.019762216 0.0894893 0.24319579 0.2172793
-0.033104744 0.25028178 -0.19244765 0.019087791 0.08639974 -0.10798922 0.1197034 -0.1956457
0.1564041 -0.10920124 0.23373845 0.07057318 -0.10867927 0.17651138 -0.0056449478 0.2501864
-0.17894171 -0.091336176 -0.24548867 0.03833916 0.022802187 -0.088037 0.0220477 -0.104478434
0.22130617 0.123133 -0.20998926 0.02123553 0.19232807 0.20781095 0.2007074 -0.035780925
0.11643549 -0.0927393 0.19341491 -0.28623304 -0.21798386 -0.12029442 -0.09842615 0.21695785
-0.116933614 -0.17328882 0.26930737 0.24796078 0.04063764 0.21398367 0.18358746 -0.22106928
-0.06751779 0.1388574 -0.11755225 0.1529711 -0.023235064 -0.096626475 -0.12874058 0.1003512
0.03678066 -0.14535591 0.07145494 0.19596079 0.06405804 -0.17765073 0.13949218 0.20109357
-0.10532891 0.13984263 0.060432058 0.102029264 -0.092564985 -0.026683398 -0.14852253 -0.051081277
-0.120650865 0.10674797 0.18248856 -0.09128656 -0.031348336 -0.15757054 -0.10333996 0.03623463
-0.11123349 -0.1173922 -0.26675382 0.14080478 0.2008281 0.14874043 0.123138115 0.21278967
0.04578565 -0.08702178 -0.15329644 0.22354056 0.16437563 -0.19270667 -0.18267879 -0.19074167
-0.049675606 0.15077855 0.18085 -0.21646132 0.025203973 0.21459618 -0.1538543 0.06423114
0.034074828 -0.22684565 0.09792229 0.041829135 0.04745196 0.17963901 -0.11763169 0.09051446
-0.15708672 -0.11610618 -0.04228171 0.09355017 -0.08830614 0.08374949 0.08801219 0.16454875
0.13148242 -0.20714457 0.09630811 0.27709502 0.15357524 0.16046104 0.08682668 -0.021209097
0.15306363 -0.017281218 -0.13323554 -0.14189506 -0.15821499 -0.018743485 0.22691892 -0.06013829
-0.12938792 -0.14808503 -0.18449926 0.00056122785 0.11379958 -0.05217033 0.0360022 -0.124924086
-0.23405439 0.2104184 0.13221063 0.045768492 -0.2502999 0.04288205 -0.24410783 -0.16730078
0.05304931 -0.09772025 0.15273397 0.18957245 -0.14652558 -0.045857925 -0.057758056 0.16129792
0.26269537 0.21534972 0.0580756 0.1782501 0.14861482 -0.22760801 0.13188723 -0.1354706
-0.08592761 0.054876447 -0.077133805 -0.2011808 -0.22005226 -0.16582125 -0.25260034 0.1571849
0.22722541 -0.16040877 0.15867972 0.15036309 -0.08264062 0.0026154004 -0.21311347 0.21650091
0.16898945 -0.07706546 0.1094521 0.003968411 0.0105595905 0.13407485 0.053621847 -0.280838
-0.26876596 -0.030726265 -0.2680579 0.045721646 0.022911329 0.031722445 -0.26032233 0.16349614
-0.20175777 0.08492117 -0.006398548 -0.18108125 0.045479517 0.21264465 -0.022740643 0.099244736
-0.116412774 -0.013404112 0.11843979 -0.18115152 -0.022348376 0.007942859 -0.010982634 -0.046824653

glu_encoder.hid2lat.bias f4 [64]
00000000: 8e2c bd3c 231e 93bd d127 41be 9d09 e63c
00000010: 74b1 523d f977 1c3d 66e5 443e ad59 b6bd
00000020: 3442 a13c ae10 073e 5967 7a3e 15d4 dc3d
00000030: d63a 823c e1a7 95bb 6824 48bc 77a5 48be
00000040: a440 2ebd 159e 823d 57d8 e83b cf46 623e
00000050: a307 9ebd d85a 483e fdae e63d 3149 9c3d
00000060: f142 213e 8bb8 ad3d a72c 893d 9b31 c43c
00000070: c551 20be 2f7b 5e3e 0653 1ebe c04a 26bd
00000080: 2b18 71be 0985 86be 6564 3e3e ca91 ecbd
00000090: 75a7 6d3e b0f2 53bd 5a89 5bbe 9962 e7bd
000000a0: 8e9b 22bd 573f e03b 3217 103e 32f6 8b3c
000000b0: b597 8a3e 7388 043e 5806 e03d 92e7 513e
000000c0: d684 29be 5ac5 393c 5650 4c3e fcdb 5c3e
000000d0: aedb 9a3c 389c cfbd f691 523d 20a6 72bd
000000e0: d76d 85be d837 47be bb09 7ebe 26b3 5dbd
000000f0: 7f98 5bbe 1cbd cfbc 3e28 193d 7653 3e3e
0.023092534 -0.071834825 -0.18862845 0.028080756 0.051438764 0.038200352 0.19228134 -0.08903823
0.019684888 0.13189957 0.24453487 0.10782639 0.015897196 -0.004567132 -0.012215711 -0.1959437
-0.042542115 0.06377808 0.007105868 0.22097324 -0.077163 0.19565904 0.11263845 0.07631148
0.15748192 0.084824644 0.0669797 0.023949435 -0.15656193 0.21726678 -0.15461358 -0.04059863
-0.23544376 -0.26273373 0.18592985 -0.115512446 0.23208411 -0.051745117 -0.21439114 -0.11298103
-0.03969913 0.006843488 0.14071348 0.017085169 0.27068868 0.12942676 0.1093871 0.20498493
-0.16554579 0.011338556 0.1995252 0.21568292 0.01890358 -0.10137218 0.05140873 -0.05924046
-0.26060364 -0.19454896 -0.248084 -0.054125927 -0.21444891 -0.025358729 0.037391894 0.18586525

encoders.weight_ih_l0 f4 [192, 64]
00000000: 72cf 99bd f70e 02be bb8c 8bbd 1141 2b3e
00000010: b0cb 153d 07ac 793d 25b2 bb3d e717 c63c
00000020: d23f 7f3d afff 36bd 56e8 133e 469d f3bd
00000030: df53 91bd e765 20bd 183a ccbd 619b 603d
00000040: a5b3 423d 7b74 433d 4a33 9ebd 0a42 de3d
00000050: 1adc 123e f406 43bd 3379 473d d819 f63c
00000060: 47c0 413d 2638 253e efe1 fbbd f59f cebd
00000070: c1b6 15be 4d23 62bd b4c8 bc3d 2b77 a6bd
00000080: dbea 45bd 19ac 313d 3a7c 383c 091b 79bd
00000090: 0c9a 25be d3d6 95bd 3fba eebd 3c53 033e
000000a0: 631b 19bc d325 5fbc f326 453d bdc7 293e
000000b0: 441c 2cbd 4035 a83d 55f6 7dbd d5b4 55bd
000000c0: 6f50 20be 6007 d8bd 61cb c0bd 2497 a4bd
000000d0: 801e b23d 94c2 d33d defb 743d bc57 18be
000000e0: 0123 94bd ffaa 89bc f9ee 19be c27e 30be
000000f0: 5652 94bd 27bd 863d d6e8 fcbc b261 113e
00000100: 1618 2dbd 0155 0a3d 67cb afbd a360 afbd
00000110: 3cf0 aabd 852e a43d 9237 943d 6e6d f23c
00000120: ffb0 11bc db21 c8bd 72de a03c 4808 01bd
00000130: 55bd db3c dd0f 4ebd 1bb7 20bd e969 17bd
00000140: 738d ed3c 96f3 ebbd bb84 edbd 90f9 543d
00000150: a929 bf3d f9b6 d33d ea19 b33d 12b9 b3bd
00000160: d372 c43d 5380 943d 2852 963d 6ceb 35bd
00000170: a4dd 033e c8d6 153d de32 c23c dfdd 0cbe
00000180: b5b3 d7bd a015 8cbd e587 613d b5b9 8a3d
00000190: 4dc4 ad3d f422 ed3d 86a7 8dbc f861 b5bd
000001a0: f0d8 5f3d 5247 14bd 3641 8ebc b948 333b
000001b0: 78a2 f43d be35 aebd cb0a a23d 32c1 2cbd
000001c0: 5e04 f2bd 725b 6a3d b937 ecbc 95e6 e03d
000001d0: 8451 943d 27b4 c4bd 1143 bebd fcaa 07be
000001e0: cb3a 16bd b027 fa3c bfae c1bd aa0c 05bd
000001f0: 1ea7 d83d 7598 13bd 0bae 50bc 8a4c ecbc
00000200: 6d97 7ebd 1e00 65bd 6d1a 30bd 985f 0fbd
00000210: 8964 ecbc c72d 6bba d10a 6ebd 75e2 a6bc
00000220: 8e3a 13be 57ce 18bd 2ee0 4ebd 9a66 3abd
00000230: dfd1 063e 1a3c 99bc efaf e73b e369 7cbd
00000240: f05c 693d 3722 ec3d 960f d73d bbee 3bbd
00000250: 14da 29bb b69f 91bd 480f 123e 1753 79bd
00000260: 3cc0 9f3c 9bb7 d23d a105 c7bc 708d 8ebd
00000270: b32c 603d 9101 333d 916a 5e3d f71d 283b
00000280: 5c69 14be f040 c7bd 5cc7 113e 6c03 4c3d
00000290: 4e51 9cbd 7543 6b3d fd32 fbbd aa7f 9f3d
000002a0: 7cd8 e7bc 06c3 0fbd e125 10bd d7de 86bc
000002b0: 581f f43d 73ee 9c3d 178b b23c 8df5 94bd
000002c0: b87c c6bc a5e1 46bd 90d2 24bd cd4e 603c
000002d0: 7d2a 46bd 03f2 93bd e292 c6bc 7b09 40bc
000002e0: 5b7a 15bc fc3c 2ebd 649b 10be 57cc 0fbe
000002f0: 9cde 57bd f6a1 8bbd 5652 00be 3365 913d
00000300: 735e 883b fa10 953d a026 143e 17ee a03c
00000310: 9283 003e 3a36 c6bd 25c4 0e3e ee13 eebd
00000320: 2d67 9cbd 8b46 a2ba 982c a63d 92d1 e4bd
00000330: 157d 0d3e 9291 ee3c 5793 93bd aba2 553d
00000340: 2eae 983b 2a87 383d 883e 6cbc a6a4 92bd
00000350: 4299 013e 3859 443d 3865 c7bd 696b 92bd
00000360: 8aa0 853d f5a1 473d a9d3 623c b042 15be
00000370: 2fed 113b ccaf 83bd 9430 613d 8180 1cbe
00000380: 8344 33bd 1e87 c83d 6eb8 c0bc 9d3b b6bc
00000390: 43fd 37bd b131 febc 795b ab3d 3d71 51bd
000003a0: 08ab 81bd fb43 8b3d a564 923d 07a6 0d3d
000003b0: cc10 003e d7a1 583d 0343 46bc a3a5 163d
000003c0: 4bac a93d 290d 5a3d a4b3 b3bd b85b 7dbd
000003d0: 8021 d9bb d942 bd3d 7cfe 8ebd 35c2 693c
000003e0: 3c49 4f3d 37cd 52bd b8bb 353d 8ecf 3f3a
000003f0: d595 e1bd 41ca c13d 3068 03be ca83 1c3e
-0.0751027 -0.12701021 -0.068139516 0.1672404 0.036571205 0.060955074 0.09164838 0.02418132
0.062316723 -0.044677433 0.14444098 -0.11895232 -0.07096075 -0.03915968 -0.09972018 0.05483568
0.047534604 0.047718506 -0.07724626 0.1085244 0.14341775 -0.047614053 0.04869957 0.03004162
0.04730251 0.161347 -0.12298953 -0.10089103 -0.14620496 -0.055209447 0.092179686 -0.08128198
-0.04831968 0.043377016 0.011260087 -0.0608168 -0.16172045 -0.07316365 -0.116566174 0.1282472
-0.009344908 -0.013619858 0.048132848 0.165801 -0.042019144 0.08213282 -0.0620025 -0.052174408
-0.15655683 -0.10548282 -0.094137914 -0.0803664 0.08697224 0.10339847 0.05981051 -0.14877218
-0.07233239 -0.01680517 -0.15032567 -0.17235854 -0.07242267 0.06579047 -0.030872744 0.14197424
-0.0422593 0.033772472 -0.08583718 -0.08563354 -0.08346602 0.080166854 0.07237162 0.029593196
-0.008892297 -0.097720824 0.01963732 -0.03150204 0.026823679 -0.050308097 -0.039237123 -0.03696624
0.028998112 -0.1152107 -0.11597582 0.051995814 0.09334118 0.10337634 0.08745177 -0.08775534
0.095922135 0.072510384 0.07339889 -0.04441397 0.12877518 0.036581784 0.023705896 -0.13756512
-0.10532323 -0.06840062 0.05506124 0.06773702 0.08484707 0.115789324 -0.017291795 -0.08856577
0.054650247 -0.03620083 -0.01736508 0.0027356579 0.11945051 -0.08506344 0.07912215 -0.042176433
-0.11817239 0.057216115 -0.028835164 0.1098148 0.0724211 -0.09604674 -0.09290136 -0.13248819
-0.036677163 0.030536503 -0.09457158 -0.03248278 0.1057875 -0.036034066 -0.012736808 -0.02884509
-0.06215613 -0.055908315 -0.04299395 -0.035003275 -0.028856533 -0.000897136 -0.058115784 -0.020371655
-0.14377806 -0.037306156 -0.050506763 -0.045508005 0.13165997 -0.018705416 0.0070705335 -0.06162442
0.056973398 0.115299635 0.1050102 -0.045881968 -0.0025917338 -0.071105406 0.14263642 -0.060870256
0.019500844 0.10288926 -0.024294676 -0.06960571 0.05473013 0.043702666 0.05430085 0.0025652626
-0.14493316 -0.09729183 0.14236206 0.04980795 -0.07632695 0.05743738 -0.122655846 0.07788022
-0.02830147 -0.0350981 -0.035192374 -0.01646368 0.11920041 0.07662668 0.021794839 -0.072733976
-0.024229392 -0.048555035 -0.04023987 0.013690663 -0.048380364 -0.072238944 -0.024239961 -0.01172101
-0.00912341 -0.042538628 -0.14121777 -0.14042793 -0.05270253 -0.06818001 -0.12531409 0.0709938
0.00416165 0.07278629 0.1446786 0.01964478 0.1255019 -0.09678312 0.1394201 -0.11624895
-0.07636867 -0.0012380643 0.08113974 -0.11172785 0.13817246 0.029122148 -0.07205837 0.052157085
0.0046594357 0.045050777 -0.0144192055 -0.071603104 0.1265612 0.047936648 -0.09736103 -0.07149393
0.06524761 0.04873844 0.013844409 -0.1457622 0.0022266617 -0.06430015 0.05497797 -0.15283395
-0.04376651 0.097913966 -0.023525443 -0.022245223 -0.044919264 -0.031029554 0.083670564 -0.051133383
-0.0633145 0.068000756 0.07148103 0.034582164 0.12506407 0.052888718 -0.012100938 0.036779057
0.082848154 0.053235207 -0.08774498 -0.061855048 -0.006626308 0.09241266 -0.06982133 0.014267494
0.05060695 -0.05146524 0.044368476 0.0007317 -0.11014906 0.09462405 -0.12832713 0.15284649
