code/baseline/saved/GAMNet_learning_rate_0.0001_hidden_size_64_epoch_6000_batch_size_32/Epoch_3900_JA_0.7393_DDI_0.0959.model (torch, 455805 bytes, 29 tensors)

lab_embeddings f4 [32, 64]
000000 99 9c 92 3e 40 9d 2d 3e ad f1 3d bf 5e 57 d3 bf
       0.286351 0.16954517 -0.7419689 -1.6511037
000010 ed 58 29 bf ec 03 c3 bf e7 47 98 3f bd d4 ff 3e
       -0.66151315 -1.5235572 1.1896943 0.49966994
000020 f1 e3 43 3f 5d 3f 01 3f 56 c5 dc bf f6 eb ae bf
       0.76519686 0.5048731 -1.7247722 -1.366576
000030 a4 5a 06 3f cf 44 ec be f8 2b 2c 3f b7 2e f8 3f
       0.52482057 -0.46146247 0.6725459 1.9389256
000040 9a d1 33 3f ab a2 46 3e 35 f7 c5 3e 96 cd e1 3e
       0.702417 0.1939799 0.38665166 0.44102162
000050 e3 94 84 3e c4 fe 44 bf f6 4b 8c bf ff 53 7c bf
       0.25894842 -0.7695124 -1.0960681 -0.9856567
000060 82 35 29 bf 4b 47 81 bf 5d 49 36 3f 9c 72 16 c0
       -0.6609727 -1.0099882 0.71205693 -2.3507452
000070 aa 33 b7 be 00 de 56 3f 1c fc b6 3f 16 81 c8 3e
       -0.35781604 0.83932495 1.4295688 0.39160985
000080 7a 1e 0e c0 c7 58 dd 3f 84 91 8a be 17 ff f3 bf
       -2.2206101 1.7292718 -0.27064145 -1.9062222
000090 86 ef d7 be e1 c1 1b bf 5b cf 90 bf 1a a1 6f bf
       -0.4217493 -0.6084271 -1.131328 -0.93605196
0000a0 a8 17 02 3f 84 ae e6 3e a9 f9 81 3f f6 53 eb be
       0.50817347 0.4505502 1.0154315 -0.45962495
0000b0 1f e3 d4 3e 83 90 6a 3f b8 9d 10 40 c2 1d 11 3f
       0.4157953 0.9162676 2.2596264 0.5668603
0000c0 4f c6 93 be 42 99 bb be 0c 43 8c 3e ba 55 f5 be
       -0.28862235 -0.36640364 0.27394903 -0.47916967
0000d0 08 1a 4f bf 48 46 32 3e 1f df 22 bf 03 a2 4a 3f
       -0.80899096 0.17409623 -0.63621706 0.7915346
0000e0 a2 d7 9a be 71 18 32 be 06 de 20 40 81 26 0e bf
       -0.3024264 -0.17392136 2.5135512 -0.555275
0000f0 41 d3 42 3d 73 b3 a9 3e 2e 6c e7 3f 0b a3 e9 3c
       0.04756475 0.3314472 1.8079889 0.028520128
000100 ae c1 3c be f9 ac 1a bf 89 39 e8 be 24 18 8e bd
       -0.18433258 -0.60420185 -0.45356396 -0.06938198
000110 75 80 45 3e 16 5b 14 3f bb 07 ef 3f 09 ad 9d 3e
       0.19287284 0.57951486 1.8674234 0.30796078
000120 f7 a1 84 bf c6 70 a7 bf 65 08 a6 bf 05 25 36 3d
       -1.0361928 -1.3081291 -1.2971312 0.0444689
000130 79 19 c0 bf 91 99 8e bf 07 e1 60 3f a8 5e 68 bf
       -1.5007774 -1.1140615 0.87843364 -0.90769434
000140 fc ee e7 bd 7f d3 0e 3f d5 0a bf 3f bd 03 99 3f
       -0.113248795 0.5579147 1.4925181 1.1954266
000150 77 87 c6 3e f4 3d f9 be 9f a9 57 3e fc 4f 13 40
       0.38775226 -0.4868008 0.21060799 2.3017569
000160 ac eb 28 bd 01 eb 82 3f 08 c8 bd 3e 21 7c 78 3f
       -0.04124038 1.0227968 0.37066674 0.97064406
000170 56 47 3a 3d b9 90 ee 3f 6b 84 57 3f 52 e7 fc 3d
       0.045478188 1.8637916 0.8418643 0.12348808
000180 33 11 51 bf 12 1f b6 bf e4 22 0d bf 30 97 04 3f
       -0.8166687 -1.4228232 -0.55131364 0.51793194
000190 07 de a4 3f bf 83 88 be e9 15 23 3e f7 e7 c3 3e
       1.2880257 -0.26663014 0.15926327 0.38262913
0001a0 67 54 d9 3e ab bd 97 bf 0d ac 42 3f 99 f7 32 3f
       0.42447206 -1.1854757 0.7604378 0.69909054
0001b0 3e 94 cc 3f d3 2d 82 be 56 7a fa bf cb 72 1d bf
       1.598274 -0.25425586 -1.9568584 -0.61503285
0001c0 de 8d 2f 3f 6c 5d ce bf c2 26 4a 3f 58 0f 1a 3f
       0.6857585 -1.612226 0.7896539 0.6017966
0001d0 ff f5 07 3f c7 6a fb be 69 1e 9f bf d1 db 3c bf
       0.53109735 -0.49104902 -1.2431155 -0.73772913
0001e0 7d 55 fe bf 63 4f 55 40 26 08 3e 3e 18 88 c9 3e
       -1.9869839 3.3329704 0.18557796 0.39361644
0001f0 3e 08 2f 3f a4 be 76 3f df f0 0c c0 29 b3 b3 3f
       0.6837195 0.96384645 -2.2022016 1.403905
000200 ae 93 64 bf 53 ea 82 be 57 ff d0 3f a1 81 5c be
       -0.8928784 -0.255694 1.6327924 -0.21533825
000210 92 29 73 3e b0 ad 84 bf d1 e8 7e bf 07 c1 41 bf
       0.23746327 -1.0365505 -0.99574 -0.7568516
000220 b8 ce 5c bf 62 f4 6c 3f 26 18 31 bd 4a 8a 9c 3f
       -0.8625293 0.925604 -0.04323592 1.2229702
000230 aa fb a3 be 80 65 16 3f 15 b1 ec be ec 44 08 40
       -0.32027942 0.58748627 -0.46228853 2.1292067
000240 41 29 4e bf 33 7d 5e 3e 29 88 4f 3f 73 20 c0 be
       -0.805317 0.21727447 0.8106714 -0.37524757
000250 4c 97 4e bf 19 b7 12 3f f7 bb c4 3f 4a 47 2c 3c
       -0.8069961 0.57310635 1.5369862 0.0105150435
000260 29 16 b2 bf 13 bf 34 be fa 8a 28 bf 4f 3e 4d bf
       -1.3913013 -0.17651014 -0.6583706 -0.801732
000270 70 fb b4 3e 24 77 8d be 2c 92 31 be 3a 6f 47 3f
       0.35348082 -0.2762996 -0.17340916 0.77904093
000280 b1 99 4d bf 68 99 b9 3f c9 64 bf 3e ab 0c 0c 3f
       -0.8031264 1.4499941 0.3738158 0.5470683
000290 4f c4 42 3f 75 e5 a9 3e 1a c2 e9 3c 62 35 b8 3f
       0.76080793 0.33182874 0.028534938 1.4391291
0002a0 d3 9b 01 40 5f c1 72 be 9b 4f e3 3e 0f 97 64 be
       2.0251358 -0.23706578 0.44396672 -0.2232325
0002b0 07 72 a1 3f 06 2d 91 be 8a 42 c4 be 9e 17 26 bf
       1.2612923 -0.28354663 -0.38332015 -0.64879787
0002c0 c7 3c c2 be 18 8a 9c 3e 16 c3 85 bf 53 da b8 3e
       -0.37936994 0.30574107 -1.045016 0.36104068
0002d0 56 02 b0 bf ea 1a b0 3e 11 e1 b5 3d f5 29 de bf
       -1.3750713 0.34395534 0.08880819 -1.7356554
0002e0 e9 9d 3e bd 3f 92 58 3f cd 30 8a 3e 00 2d a2 bd
       -0.046537314 0.84598154 0.26990357 -0.07918739
0002f0 63 cf be 3e 5c c9 ae bf fb d3 65 bf 07 61 03 bf
       0.37267599 -1.36552 -0.8977658 -0.51319927
000300 d6 57 23 bd f1 4f 28 bf 0b 59 6d 3f 7c 9d 89 bf
       -0.03987869 -0.6574698 0.92713994 -1.0751185
000310 8b ac dd bd 12 2e 00 c0 b0 81 bc bf fc a2 1d 3e
       -0.108239256 -2.002812 -1.4727077 0.15394205
000320 04 b2 88 3e 4c db 96 3f 90 fc db be 20 20 84 bf
       0.26698315 1.1785674 -0.42966127 -1.0322304
000330 c1 c2 5e 3f 24 74 fe 3f 1d 00 84 3e d9 55 e4 bd
       0.8701592 1.9879193 0.25781336 -0.11149187
000340 19 e6 86 3e 07 17 22 3f 4b 16 9d be 6c bb 2f 3d
       0.26347426 0.63316387 -0.3068107 0.04290335
000350 ce d7 8d 3e fe 3a b0 bf 59 bc 20 c0 7c a5 cf be
       0.27703708 -1.3768003 -2.5114958 -0.40555942
000360 67 aa 1a bf 36 64 bc bd 7f 38 0f 40 70 54 e1 bf
       -0.60416263 -0.09198801 2.2378232 -1.7603893
000370 51 a1 12 3f b1 a8 13 3d b4 9e 9c be f4 8e d3 3e
       0.572774 0.03604955 -0.3058983 0.41320002
000380 c0 c0 58 3e b6 7c 9e 3f 80 9f 76 3f a0 6b a1 bf
       0.21167278 1.2381809 0.9633713 -1.261097
000390 29 d6 03 3f f8 20 48 bd 82 fe f8 3f 5f 98 07 c0
       0.5149866 -0.048859566 1.945267 -2.118675
0003a0 78 93 44 3f f5 e8 9d 3e f8 54 5b bd 1c d4 cc be
       0.7678752 0.30841795 -0.05354783 -0.40005577
0003b0 95 62 44 bf 1a bd 20 3f 86 9b 98 bf 95 a9 48 3f
       -0.76712924 0.62788546 -1.1922462 0.7838376
0003c0 0b 0b 23 bf 65 da a3 bf 29 d5 0c 3f c2 19 75 3f
       -0.63688725 -1.2801024 0.55012757 0.9574243
0003d0 25 be ad 3f d6 77 f8 3e 49 c4 ef bf f3 0c 3a 3f
       1.3573653 0.48528928 -1.8731776 0.7267601
0003e0 e5 eb 21 3f e5 b3 b3 3f 9f 14 6e bf 92 55 3f 3f
       0.6325057 1.4039274 -0.93000215 0.74739945
0003f0 ec f2 8f 3f a7 64 6d be 7c e8 2c 3f e5 4d 0c 40
       1.1246009 -0.23182927 0.67542243 2.1922543

static_ll.0.weight f4 [128, 64]
000000 35 b2 0d 3e bd 3a c5 bd e3 76 cd bd bc ea 02 be
       0.13837512 -0.09630344 -0.100324415 -0.12784857
000010 5e a3 a2 3d f3 47 88 bd ee ae 14 be e3 a8 9d 3c
       0.07941316 -0.06654348 -0.14519855 0.01924557
000020 b8 2b 91 3d 07 b5 83 bd be 0a e1 bc b5 74 9e bd
       0.07088417 -0.064310126 -0.027470943 -0.07737104
000030 24 8b 37 3e c2 0c 23 bd cd 77 91 3c 12 ca a1 bd
       0.17924172 -0.03980709 0.01775732 -0.0789987
000040 52 e7 09 be f8 e0 cc 3d 4b cf 80 bd 13 41 d5 bd
       -0.13467148 0.10003847 -0.06289538 -0.104128025
000050 2a 10 3c bd 65 3d 95 bd 55 62 08 be 6b 1f d6 bd
       -0.045913853 -0.07287101 -0.1331876 -0.10455211
000060 f9 b5 d7 3d da fc fd bc 69 9b 91 3d c2 2f c8 bd
       0.105327554 -0.031004358 0.0710972 -0.09774734
000070 8b 96 a0 3d 0f f1 76 bd 34 5b a2 3d 18 56 02 3e
       0.07841214 -0.060288485 0.07927552 0.12728155
000080 c4 b0 da 3d c0 53 c5 3d dc dc 09 bc df 6d fe bd
       0.106782466 0.09635115 -0.008414473 -0.124233
000090 7e 8c 17 3d f8 80 8c 3d 46 87 3c 3d 37 3f 6b bd
       0.03699922 0.06860536 0.046027444 -0.057433333
0000a0 5f f1 65 3c d9 05 85 3d e2 a3 79 3d 43 56 43 3d
       0.014034598 0.06495256 0.060947306 0.047689687
0000b0 2f f3 93 bd 82 bf 80 3d 2d ed 4d bd c1 81 af bd
       -0.07224118 0.06286527 -0.050275017 -0.085696705
0000c0 3f 5d 7e bd 71 ac 02 be 9a 24 0c 3e 4e c9 21 3e
       -0.062100645 -0.12761094 0.13685837 0.15799448
0000d0 32 f1 37 3d bd fc 91 bc 45 5b 64 bd 01 61 00 be
       0.044907756 -0.01782071 -0.055751104 -0.12537004
0000e0 6e ab 57 3c c7 9a 77 ba f1 be 29 bd 23 90 37 3d
       0.013163431 -0.0009445366 -0.04144186 0.044815194
0000f0 c6 9d 09 be 58 39 d2 bd 6c b4 ad bc ac 4b 56 bc
       -0.13439092 -0.10264844 -0.021204196 -0.013079565
000100 00 cd 1d bd a4 8e b3 3d 0d c7 f2 bd 38 6d 0a 3e
       -0.03852558 0.08767441 -0.11854372 0.13518226
000110 0b b7 7b bd 02 6a 8a bd b7 f8 c8 3d 9d f4 a6 bd
       -0.06145386 -0.06758501 0.098130636 -0.08152125
000120 6b 50 ae bd fd 4f 63 3d 92 91 d8 bc 86 f0 db 3d
       -0.08511432 0.055496205 -0.0264366 0.107392356
000130 43 c6 90 bd 65 50 6c 3c 97 cc 82 3d fc e7 ec bd
       -0.070690654 0.014423464 0.06386679 -0.11567685
000140 d7 e3 b9 bd 9f 17 c0 bd d5 9d 53 3c ed 3d fa 3d
       -0.0907666 -0.09379505 0.012916048 0.12218843
000150 3e 55 93 3d 6d a8 82 3d 4e a2 71 3d 92 e3 0c 3d
       0.07193993 0.06379781 0.058992676 0.034396715
000160 b3 14 a6 3d e6 2c 26 3d 9e 83 aa 3d f2 a8 1b 3e
       0.08109417 0.040570162 0.08325885 0.15201166
000170 f8 5e b2 3d 3f cf 02 3e 49 8a bb 3c 11 bb 09 be
       0.0870952 0.1277437 0.022893088 -0.13450266
000180 1e f3 ac bd 88 21 0b be 95 a6 fa 3c ea d3 0e bd
       -0.084448084 -0.1358701 0.03059701 -0.034870066
000190 26 bd e8 bc 03 94 f9 3d b1 ee 11 bd 26 ac 09 3e
       -0.028410506 0.12186434 -0.035628024 0.13444576
0001a0 91 fc 31 bd a8 0e c5 bd 99 c8 01 3e 05 5d d5 bd
       -0.043453757 -0.09621936 0.12674178 -0.10418133
0001b0 c2 e0 a7 bd 19 90 7e bc 8f 1d 46 bd d0 ba a8 bc
       -0.08197166 -0.015537285 -0.048368033 -0.020596892
0001c0 88 16 8e bd 36 56 07 3d 43 89 23 3e 1f db 00 3a
       -0.06937891 0.0330412 0.1597033 0.0004915464
0001d0 3f a9 10 be 0b 3b b2 bc b2 d5 9f bd fb c6 da 3b
       -0.14127062 -0.02175667 -0.07804431 0.0066765524
0001e0 89 d9 a5 bd df cd 22 3e 6c dd d9 bc 81 50 a3 3d
       -0.08098132 0.15898846 -0.02659484 0.07974339
0001f0 e6 8c fa 3a d0 5a d3 3d d2 d4 e9 bd 0d ee d3 3d
       0.0019115477 0.103200555 -0.114175454 0.10348139
000200 07 39 a9 3d 92 39 22 bb 78 9c f9 bb a0 af 0a 3c
       0.0826283 -0.0024753553 -0.0076175295 0.008464724
000210 fc f1 b5 3d 5d 75 23 be b1 04 e9 bd ec fe 04 bd
       0.088840455 -0.1596274 -0.11377848 -0.032469675
000220 ae bb 9b bd bf bb f5 bc 98 fa a2 bd 51 0b 06 be
       -0.076041564 -0.02999675 -0.07957953 -0.13090254
000230 00 1e 01 3c 94 37 97 bd f6 35 bb bd 42 a0 8e bc
       0.007880688 -0.073836476 -0.091411516 -0.017410401
000240 9d fe a1 bd d3 66 eb 3d 14 89 2d bd 51 de da bd
       -0.07909892 0.114942215 -0.042367056 -0.10686935
000250 a3 79 47 3d 3f 9e 81 bd 73 ad f3 bc 58 6a 0e 3d
       0.048699986 -0.06329011 -0.029745793 0.034769386
000260 a5 53 81 bd 80 13 e5 bd 83 25 b1 bd 27 67 5e bd
       -0.06314782 -0.1118536 -0.08649733 -0.054297592
000270 a7 40 88 bd 33 0d 9c 3d c1 bc 82 3d 84 4c fe bc
       -0.066529565 0.07619705 0.06383658 -0.031042345
000280 13 de 02 be ed 83 ac 3d 97 53 89 3c 15 8b df 3c
       -0.12780027 0.084236 0.016763492 0.027288
000290 ce da 0c 3d 23 62 c7 bb 61 9a 0f 3d b8 72 ca bc
       0.034388356 -0.006084697 0.035059337 -0.024712905
0002a0 f6 39 ab bc e9 f4 b3 bd 85 58 aa 3d 31 07 80 bd
       -0.020901661 -0.08786947 0.08317665 -0.06251372
0002b0 85 7b 15 3e 1c fc e4 3d 56 8d 01 3e d7 5a 2c bd
       0.145979 0.111808985 0.12651572 -0.04207882
0002c0 72 2e d9 bd e3 46 8c bc f3 4a a3 3d 1d 07 bc 3d
       -0.10604562 -0.017123645 0.0797328 0.09181044
0002d0 42 f2 b5 bb 4b 02 e5 3d c7 0f d0 3d 3b 9d 09 bd
       -0.005552561 0.11182078 0.10159259 -0.033597212
0002e0 d6 da 15 3c c2 6a a4 ba 7d 1f a6 3c fe c5 8f bd
       0.009146413 -0.0012544023 0.020278687 -0.07020186
0002f0 2a da 01 3e 03 08 cc 3d 67 ce 32 3d fa 39 8d bd
       0.12680879 0.099624656 0.043653872 -0.06895824
000300 99 4b aa bd 2f ce 68 bd 3c 24 a6 bc a3 f8 04 bd
       -0.083152 -0.056837257 -0.02028095 -0.03246368
000310 2c a3 12 3e 2b 05 dd 3d a5 61 0f be 43 ca 9d 3d
       0.14320058 0.10792001 -0.14002092 0.07704594
000320 48 d8 be bd 1c b2 9e 3d 99 63 4d 3d 38 09 0c bc
       -0.09318596 0.077488154 0.05014381 -0.00854712
000330 d9 7e a9 3d e5 e3 4b 3d e1 e3 e1 3c 93 26 5d 3d
       0.082761474 0.049777884 0.027574481 0.053991865
000340 d5 a3 a6 3d 00 63 9b bc 4c 41 da bc b6 33 6d 3d
       0.08136717 -0.018968105 -0.026642464 0.057910644
000350 de 0d ba 3d 53 22 c1 3d 5e 27 df bc 77 f5 21 bd
       0.09084676 0.09430375 -0.027240451 -0.039540734
000360 64 09 c0 3d 64 60 30 bc 36 11 17 be 45 09 eb 3c
       0.09376791 -0.010765169 -0.14752659 0.028690943
000370 05 85 af 3c 56 dd 2e bc 2a 82 48 3c 9c 84 70 3d
       0.021425733 -0.010672888 0.012238065 0.058720216
000380 7b 38 86 3c 68 a4 b5 bd 85 01 d2 3b 52 80 3c 3d
       0.016384354 -0.08869249 0.0064088725 0.046020813
000390 f7 ab 17 bd 07 17 9c bd 84 a9 f0 bd 88 2a 66 3d
       -0.037029233 -0.076215796 -0.117510825 0.056192905
0003a0 af 04 fb 3d 62 78 28 be 50 bf d4 bd 48 fa c9 3d
       0.12256753 -0.16452172 -0.103880525 0.098621905
0003b0 03 07 11 bd a4 4c 88 bd d0 22 c3 3d 9b cd ce bd
       -0.035407078 -0.06655243 0.09528124 -0.1009781
0003c0 51 93 ad 3c 49 66 19 3d f8 ea 1c be 9f 6d cf bc
       0.02118841 0.037451062 -0.15324008 -0.025320826
0003d0 35 cc 16 3e 38 41 b6 bd 0d 14 85 bc 84 ea 8f bd
       0.14726336 -0.08899158 -0.016244913 -0.07027152
0003e0 1f 7e dc 3c e0 cc 4d bd de dd aa 39 5c d3 98 bd
       0.026915608 -0.050244212 0.0003259023 -0.074621886
0003f0 2f 9b 8f bd bf e4 b2 bd 76 5d 9e bd aa ad 94 bc
       -0.07012021 -0.08735036 -0.0773267 -0.018149216

static_ll.0.bias f4 [128]
000000 ca 6d eb 3d 24 bf b8 bd 25 c4 8c 3c dc b6 5f bd
       0.1149555 -0.09020832 0.017183373 -0.054617748
000010 58 7f e3 3d 08 f4 a9 3d 03 3a 93 bd 3c 45 f7 3d
       0.11108273 0.082984984 -0.07188799 0.12073752
000020 d3 1d 8c 3c 0c f3 0d 3e 6f 1b 0b 3e 11 0e 58 bd
       0.017104065 0.13862246 0.13584684 -0.05274779
000030 f1 c1 ca bc 81 17 c6 3d e7 f4 87 3c 9f e6 f1 3d
       -0.024750682 0.09672452 0.01659627 0.118115656
000040 6e 50 fe 3d 5a 26 a4 bd a6 f0 fb 3c bf 5f 99 3d
       0.124176845 -0.080151275 0.030754399 0.07488965
000050 ec 14 c8 3d 2b a7 d6 3b e9 77 96 3d bd f3 15 3e
       0.097696155 0.0065506897 0.0734709 0.1464376
000060 22 c9 ef 3d 02 ad dc 3d d3 1c 4c bd fb ab aa bd
       0.11708285 0.10775186 -0.049832176 -0.08333584
000070 51 74 8a bd ac ce e9 3d 56 5a c0 bc 6a 46 8d bd
       -0.06760467 0.11416373 -0.023480576 -0.06898196
000080 0a 5b f4 ba af 6a a8 3d d3 1d eb 3d f3 eb a7 bd
       -0.0018642854 0.08223473 0.11480298 -0.081993006
000090 f8 85 02 3e c9 27 d9 3d 7b 1a e2 3b 15 65 8b 3d
       0.12746418 0.106032915 0.0069001294 0.06806389
0000a0 c1 61 fc 3b 46 64 97 bc bf b9 93 bc 44 98 9b bd
       0.007702083 -0.018480431 -0.018032907 -0.07597402
0000b0 c2 67 04 3b 94 e5 ed bc 50 7c 79 bd c5 9c 51 bd
       0.0020203446 -0.029040135 -0.06090957 -0.051174898
0000c0 63 13 d9 bc ac f9 e2 3d c4 d8 ea 3d 76 1c d2 3c
       -0.026498502 0.110827774 0.11467126 0.025648337
0000d0 3c df 0d 3d 91 9d 0c 3e 98 21 01 bd 47 17 93 3d
       0.03463672 0.13731982 -0.031526178 0.07182174
0000e0 0c 86 0e 3e 44 f1 c7 3d cc ee e3 bd 05 77 9f bd
       0.13918322 0.09762815 -0.11129531 -0.07786373
0000f0 8e 3e f4 bc 07 b4 d0 3d a1 1e 6c bd a5 2f 97 bd
       -0.029814985 0.101905875 -0.057646398 -0.07382134
000100 c7 66 58 bd 21 1e 23 bd 87 ee 3e 3d b0 22 89 bd
       -0.05283239 -0.039823655 0.046614196 -0.06696069
000110 06 e5 09 bb 35 db 81 bc 9a 83 54 3d b3 04 92 3d
       -0.002104105 -0.015851596 0.051883318 0.071298026
000120 c2 69 26 bc 3a f4 ef bc 50 7c 6f bd ae 74 c3 3c
       -0.010157051 -0.029291261 -0.058468163 0.023859348
000130 61 26 3b 3c 52 e1 b3 3c ef fc 02 bd 20 13 49 3c
       0.011422724 0.021958027 -0.031979498 0.012272626
000140 0b 35 02 3c f2 a9 bd 3d 48 7f a7 bd c9 52 1b 3c
       0.007947217 0.0926093 -0.08178574 0.009480187
000150 5a 5f 93 bd c7 52 74 bb 80 db 92 bd a2 13 1c 3d
       -0.07195921 -0.0037280784 -0.071707726 0.03810466
000160 c6 55 27 3e 9e 6e 96 bd 09 f8 cf 3d f2 6c 14 bd
       0.16341314 -0.07345317 0.10154731 -0.03623671
000170 db 85 c7 bd 1e 52 03 3d 47 95 7a bc f6 cd 90 bb
       -0.09742328 0.032060735 -0.01529438 -0.0044190837
000180 0b d5 82 bd 0f 2d 9c 3d 60 df 26 3c 65 d4 84 bb
       -0.06388291 0.07625782 0.010185093 -0.0040536397
000190 9b af ef 3d a8 7e 8d bd 29 51 6f 3d 6e 59 57 bd
       0.11703416 -0.069089234 0.05842701 -0.05257552
0001a0 af 50 a7 bd 20 95 2a bd b9 1c f4 3d de ad d9 3d
       -0.08169686 -0.041646123 0.11919541 0.10628866
0001b0 15 a3 5c 3d e7 d5 21 3d 68 ea 36 3d 06 d6 87 bc
       0.053866465 0.039510634 0.04465714 -0.016581547
0001c0 57 53 f0 3d 20 93 a1 bd 77 8a 6f 3d d0 b2 15 bd
       0.11734646 -0.0788939 0.05848166 -0.036547482
0001d0 5a 28 3b 3d cb e2 7c 3d 31 ec 73 3d 54 a9 d1 bd
       0.04569278 0.061739724 0.05955142 -0.10237375
0001e0 66 31 93 3d dc 0b 56 bc 8d 71 e1 3d 26 21 81 bd
       0.071871564 -0.013064351 0.11007986 -0.06305151
0001f0 6b 6e 91 3d d8 07 fa bd 3f e5 00 3e 07 9c 9c 3c
       0.07101139 -0.12208527 0.1258745 0.019117368

static_ll.2.weight f4 [64, 128]
000000 72 a9 25 3d cd d1 97 bd b6 b4 4c 3d 01 3b 83 3d
       0.0404448 -0.07413063 0.049977027 0.064077385
000010 f8 5e a7 3d 67 4e 6b 3c 85 e0 67 bd 59 cc 0e bd
       0.08172411 0.014361954 -0.056610603 -0.03486285
000020 9f 5a a7 bd 4c 8f dd 3b 4c 96 c5 bc 32 ad 21 3b
       -0.081715815 0.006761467 -0.024119519 0.0024669883
000030 7f 73 98 bc e4 77 17 3c 2d ce 3b 3d 0b a9 a0 3d
       -0.01860976 0.009244893 0.04585092 0.078447424
000040 cb c9 54 3d 76 52 45 bd f4 35 cc bc fa a4 56 bd
       0.051950257 -0.048174344 -0.02492807 -0.052403428
000050 96 e9 2a bd f5 47 93 3d 30 fc 59 3d d1 81 de 3c
       -0.04172667 0.07191459 0.05321902 0.02716151
000060 37 3e 76 bb d3 1b 74 3d 69 74 4f bd 68 3d 2e bc
       -0.0037573704 0.059596848 -0.050648127 -0.010634758
000070 c0 f7 d6 3b 01 14 b2 bb cb 58 3d 3b fd 21 a8 bd
       0.006560296 -0.0054345136 0.0028892036 -0.08209608
000080 df 38 b3 3d 44 65 3d bd 84 17 89 bc 3a d7 8c bd
       0.08751082 -0.046239153 -0.016734846 -0.06876989
000090 ab 98 e8 3d 66 18 07 3d 36 58 b6 3b 8f c8 17 3c
       0.11357244 0.032982253 0.005564715 0.0092641255
0000a0 f4 db 25 bd b3 be 1b 3d be 2f 65 3b 02 34 a4 3d
       -0.040492967 0.03802366 0.0034971084 0.08017732
0000b0 7a 91 25 3d fa 6d 87 bd 41 53 5b 3d 7b f0 66 3d
       0.04042194 -0.06612773 0.053546194 0.056381684
0000c0 a9 4b 2a 3d a4 7f 14 bc 63 d3 eb bc b6 15 96 bd
       0.04157606 -0.009063635 -0.02878732 -0.0732836
0000d0 72 4a 9d b9 ad df a5 3d d0 b1 13 bd 72 c9 a4 3d
       -0.0003000084 0.080993034 -0.036058247 0.08046235
0000e0 e7 28 f5 3c da 51 bc bd 44 92 5f bd 9b 78 62 3d
       0.02992673 -0.091952994 -0.05458285 0.0552908
0000f0 74 f7 c3 3d e6 e5 9c 3d f5 e9 0a 3c 51 29 a0 bb
       0.09568682 0.07661037 0.008478631 -0.004887738
000100 22 e1 8e 3b 07 a1 9e bc 1f 65 b1 3d 05 1b 25 bd
       0.004360334 -0.019363893 0.086618654 -0.04030897
000110 40 d7 c5 bc 4c 77 68 3d e0 1c 68 3a 14 84 87 bd
       -0.02415049 0.056754395 0.00088544004 -0.06616989
000120 8c 34 fb 3c 12 0a aa 3c 57 a8 11 3c 04 92 a6 bc
       0.030664705 0.020756755 0.008890233 -0.020333298
000130 fe cb 8c bd 8e 1b de bc 69 50 1f 3d 17 5b a3 bc
       -0.06874846 -0.027112748 0.038895044 -0.019940896
000140 ee ba fb 3c 53 d9 89 3d 5c 13 0c 3d b7 ca a4 3b
       0.030728783 0.067309044 0.03419815 0.0050290483
000150 d0 60 8d bc a2 26 65 bc c5 f3 96 bd 3a 05 a9 3b
       -0.017258078 -0.013986262 -0.07370714 0.0051580938
000160 90 8c 9a 3a 84 4f 47 bd b4 b9 8f bd 52 5c 88 bd
       0.0011791158 -0.048659816 -0.07017842 -0.06658234
000170 b8 b0 59 3d 90 9b 8b 3d e0 f0 35 bd 7b aa 92 bd
       0.053147048 0.068167806 -0.04441917 -0.07161423
000180 63 d2 f2 3a b8 40 e3 3c 69 27 83 3d 7b e8 9c 3d
       0.0018525835 0.027740821 0.06404001 0.0766153
000190 51 ce a9 3c 86 3b 66 3d ec 24 35 3d c3 a9 ae 3d
       0.020728262 0.05620911 0.044224665 0.08528473
0001a0 77 78 3e 3d 8b cb 32 bd d9 96 a3 3d 5e aa 30 3d
       0.046501603 -0.043651145 0.07987756 0.043131225
0001b0 30 6f 98 3c b6 95 92 3d cb a7 e8 bc 5e 54 62 bd
       0.018607706 0.07157461 -0.028400322 -0.05525624
0001c0 79 65 eb bb 25 02 4c 3d 24 37 e4 bc 68 e9 a3 3d
       -0.0071837273 0.049806733 -0.027858324 0.08003503
0001d0 0f 11 cb 3d 5a 39 71 3c 09 84 f1 bb ae 41 c4 bc
       0.09915363 0.014723146 -0.007370476 -0.0239571
0001e0 6a 80 0f bd 90 74 40 3d b7 9c aa 3d 24 8b 74 bd
       -0.035034575 0.046986163 0.08330672 -0.059703007
0001f0 6f 81 ca 3c a4 1f dc 3b af 93 c7 3d 2b d3 22 3d
       0.024719922 0.006717639 0.09744965 0.039752167
000200 68 64 2c 3d 9f e8 25 bd 74 7b a5 3c db 56 45 bc
       0.042087942 -0.040505048 0.020200469 -0.012044634
000210 2d 94 31 3d 8f 76 8a bd db 5f 4e 3d 5c ac 8d 3d
       0.043354202 -0.067608945 0.050384384 0.069176406
000220 2c 1f 90 3c 65 05 aa bc 24 ef 59 3d d2 a7 00 3e
       0.017592989 -0.020754525 0.053206578 0.12564018
000230 ec 2c c0 3b 7c a9 23 3d 44 50 91 bc 78 a5 98 3d
       0.00586473 0.039956555 -0.017738469 0.07453436
000240 ad 73 ab bc fb 42 43 bc 2b 70 8f 3d 98 b1 49 3d
       -0.020929182 -0.011917825 0.07003816 0.049241632
000250 6a 4f 72 bd 92 9e 96 3d 8e e3 79 3d 6e e1 68 bd
       -0.059157766 0.07354464 0.06100803 -0.05685561
000260 29 69 a0 3b 40 13 18 3d 87 b2 fe 3c 96 df 45 3d
       0.0048953486 0.037127733 0.031090988 0.04830893
000270 1f 30 98 bd b6 e8 b4 3d fe 4f 98 3c 21 14 8d 3d
       -0.07431053 0.088334486 0.01859283 0.06888605
000280 cd e6 73 bc 80 e4 3c 3c 8a 1c c1 3c c7 ed 3c 3d
       -0.01488657 0.011529088 0.023573179 0.0461252
000290 b3 f5 81 3d 7d de 74 3d 44 ed 98 3c f2 f1 90 3d
       0.063456915 0.059782494 0.018667825 0.070773974
0002a0 da 73 38 3d 0e 4f 23 bd c6 e1 67 3c 7d 27 99 bd
       0.04503236 -0.039870314 0.01415295 -0.07478235
0002b0 1a 8d 5a 3d 2f 7b 5e 3d da 0d 8c 3d b8 23 9e 3d
       0.05335722 0.054316696 0.068385795 0.077216566
0002c0 18 ba c7 bd 5c f7 f0 3d 9c 73 6a 3d ce 98 fe 3c
       -0.097522914 0.1176593 0.05723916 0.031078722
0002d0 19 06 42 bd d6 ce 83 3d 6b 1a 0b 3d 40 0d a1 bd
       -0.047369096 0.06435935 0.03396074 -0.07863855
0002e0 d2 41 0c 3d f9 24 fd bd 50 98 a1 bd 93 0d b6 3b
       0.03424246 -0.123605676 -0.078903794 0.0055558174
0002f0 8b de f4 3d 4f 4f ca bc 2c a6 fc 3c 4a aa d2 3b
       0.11956509 -0.02469602 0.030840956 0.0064289914
000300 b3 43 9a 3c a3 f2 e9 bc 68 7e c1 3d 2e 1c 06 3d
       0.01883111 -0.028558081 0.09447938 0.032741718
000310 f4 4e b6 bd 64 d5 33 bd 32 af 75 3d 90 b5 be bd
       -0.08901778 -0.043904677 0.059981532 -0.09311974
000320 33 c1 15 bb 69 15 01 bc 4b c6 ee 3c f5 13 8a bc
       -0.0022850751 -0.00787864 0.029147288 -0.01685522
000330 0d 63 7f 3c bb f4 27 bc f0 e4 fb bc a8 57 ae 3d
       0.01558758 -0.010251219 -0.030748814 0.08512813
000340 e0 ca da bc b1 55 7a 3d 18 95 be bd ca f0 c0 3b
       -0.026708066 0.061116878 -0.09305781 0.0058880793
000350 1a d8 a8 bd 16 36 1f 3d 34 54 af 3d b7 0c 52 bd
       -0.08244343 0.03886994 0.08560982 -0.051281657
000360 76 ff de 3c e3 a2 d1 3d a2 e8 48 bd 7a 6b 82 bd
       0.027221423 0.10236146 -0.04904998 -0.06368156
000370 b5 5b 83 3d 6a 21 99 3d 6c dd da 39 d6 ee c7 3d
       0.06413976 0.07477076 0.00041745172 0.09762351
000380 2f 5e b2 3d 83 06 af 3d 6b 8b c3 3d eb 03 69 bc
       0.0870937 0.08546164 0.09548076 -0.0142221255
000390 6f a7 27 3d 2c ce 17 bd 8d ca ed 3a 8c 48 0b 3c
       0.04093116 -0.037061855 0.001814203 0.008501183
0003a0 05 8e 2c bd 70 16 12 3d 44 e6 0c 3d 21 fc 3c 3d
       -0.042127628 0.03566593 0.034399286 0.046138886
0003b0 88 63 39 bd 89 e8 40 bd ff e1 7e 3b 84 95 48 bb
       -0.045260936 -0.047096763 0.0038892028 -0.0030606696
0003c0 76 cf 28 bd 38 c1 a3 bd fc 31 38 3c fe e6 ed 3c
       -0.041213475 -0.07995838 0.011242386 0.02904081
0003d0 f3 84 87 bd 0e 53 aa 3d e0 cd 99 3d f4 04 b3 bc
       -0.06617155 0.08316623 0.07509971 -0.021852948
0003e0 3d 43 81 bd 69 93 c9 bc e7 dc 9d bd 48 a2 34 bc
       -0.06311653 -0.024606423 -0.077081494 -0.011025019
0003f0 06 b8 c2 bc f6 68 1b 3b ea 19 13 bc ce 80 2a bd
       -0.02376939 0.0023713685 -0.008978346 -0.041626744

static_ll.2.bias f4 [64]
000000 b2 c5 65 3d 5f d8 22 3d 66 73 b6 bc 25 b1 64 bd
       0.05609674 0.03975713 -0.022271823 -0.055833
000010 20 79 0c bd 39 fd 15 3d 9f ae ec 3c 9a 8e 28 bc
       -0.0342952 0.036618445 0.02889186 -0.010287905
000020 53 c6 34 3d a1 61 7b bd 10 ce a7 3d 31 17 dc bc
       0.04413445 -0.061372403 0.081936 -0.026866527
000030 cf 95 43 bc f8 54 8d 3c 06 e6 9b 3d de 05 cd 3d
       -0.011937573 0.01725243 0.07612233 0.10010885
000040 fb 67 a9 bd 84 1a 96 3c 1a d1 b0 3d 57 36 85 bd
       -0.08271786 0.01832319 0.08633633 -0.06504505
000050 e6 50 f8 bc aa b7 76 ba 90 a5 6c 3d a6 9d ab 3d
       -0.030312013 -0.00094115234 0.05777508 0.083796784
000060 a7 a4 0d bd 0d 27 b5 3d e2 d3 71 3d 56 0b cf bc
       -0.034580853 0.08845339 0.059039958 -0.02527396
000070 77 af 95 3c af 17 89 3c 1e 19 7f 3d 44 8c a6 3c
       0.018272145 0.016734926 0.062279813 0.020330556
000080 f5 84 2e bd c2 71 92 bd 01 f3 be 3d 5b a3 32 3b
       -0.042607266 -0.07150604 0.09323693 0.0027258012
000090 93 88 39 3d 59 fc 45 bd 76 0d 91 bc f8 7e bd 3c
       0.045296263 -0.04833636 -0.017706614 0.023131832
0000a0 6a 59 f3 3c 52 e9 7b 3d 1d 74 54 bc bb fe ac 3c
       0.029705722 0.06150181 -0.012967137 0.021117559
0000b0 65 72 0c bc 60 4a 98 3d d1 79 b4 bc e7 31 f9 3b
       -0.008572196 0.07436061 -0.022030743 0.007604826
0000c0 36 67 43 3d be 8c 5e 3c 6e e6 03 3d 97 f6 c1 3c
       0.04770585 0.01358336 0.032202177 0.023677154
0000d0 6f 80 22 bd 73 11 82 3d 1c b1 9a 3d 2b ab 69 3d
       -0.039673265 0.063509844 0.07553312 0.057048004
0000e0 3c b3 dd bc f6 a2 b6 3d e5 0e 0e bd fb 0c c8 3d
       -0.027063005 0.08917801 -0.034682173 0.09768101
0000f0 7b 22 a1 3d 25 6d f8 3c 05 52 40 bd 01 3c cb 3d
       0.07867905 0.030325482 -0.04695322 0.09923554

glu_encoder.rnn.weight_ih_l0 f4 [48, 2]
000000 19 c6 2f 3e 43 fc 1f be 0b f5 17 3e 23 50 07 be
       0.17165412 -0.15623574 0.1483957 -0.13214163
000010 05 b9 3e 3e 73 21 22 3e 19 60 ab bd 74 9f 2d be
       0.18625267 0.15833072 -0.083679385 -0.16955358
000020 ac 9d 25 be 68 d0 5b 3e 53 59 81 3e fb 72 2b 3e
       -0.16173428 0.2146622 0.2526346 0.1674308
000030 54 55 3d be 77 7e 2e 3c da 12 9c 3e 58 d0 98 be
       -0.18489581 0.010650269 0.30483133 -0.29846454
000040 01 c8 f6 bd 96 6b 5f be ea 98 65 3e 2c f5 18 be
       -0.120498665 -0.21818385 0.22421613 -0.14937276
000050 5c 2d 01 3e 98 8d e3 3c d4 45 e6 3d b8 02 61 3e
       0.1261496 0.027777478 0.112437874 0.21973693
000060 c1 49 76 3e 57 04 ca bd b4 f1 90 3d d7 d8 b3 3c
       0.24051572 -0.09864109 0.07077351 0.021953983
000070 fd 21 ea 3c ce 2c 42 bd 46 37 61 be b6 2b 79 bd
       0.02858066 -0.04740601 -0.21993741 -0.0608327
000080 c5 a8 66 3e 46 57 d7 bd 13 dd 3e 3d 62 a7 62 3e
       0.22525318 -0.10514693 0.04659755 0.22134164
000090 c1 95 2b be 86 4f 57 be 79 c3 53 bc 59 23 66 3e
       -0.16756345 -0.2102643 -0.012925022 0.22474422
0000a0 59 f6 be bd fa 25 1f 3e f7 dd 05 be 7e f3 2d bd
       -0.09324331 0.1554183 -0.13072954 -0.04246854
0000b0 9f 55 bd bd 49 a4 ec 3d ea 71 67 3e 3c 6a 49 3e
       -0.092448466 0.115547724 0.22602049 0.19669431
0000c0 b0 98 23 3d 5a 98 74 bd 1d 25 b6 be 9d 3b 8b 3e
       0.039940536 -0.059715606 -0.3557519 0.2719392
0000d0 fb 33 9a be ae 69 58 ba 05 9d 04 3d c2 db 72 bd
       -0.30117783 -0.00082554936 0.032376308 -0.05929161
0000e0 3a af 59 3e d1 eb 4c bd 52 54 99 3d 23 d8 37 bd
       0.2125825 -0.05002958 0.07486786 -0.04488386
0000f0 80 2d 6e 3e c1 55 9e bc e0 b6 a5 bd fb 7d d6 bd
       0.23259544 -0.019328 -0.08091521 -0.104732476
000100 a2 dc 0b 3e 50 ae dc bd bd e8 0b be 92 da 13 3e
       0.13658383 -0.10775435 -0.13663001 0.14438847
000110 59 94 e6 3d 8f de bd 3d 74 a4 81 3e 73 a6 9f bd
       0.11258764 0.09270965 0.2532078 -0.077954195
000120 00 d3 d6 bd cc ec 58 be fe 36 7f 3e c6 1c 51 be
       -0.10489464 -0.21184081 0.24923322 -0.20421132
000130 79 32 2a 3e f5 bd bb 3c c1 31 eb 3d 3e 36 46 bd
       0.16620816 0.022917727 0.11484099 -0.048391573
000140 2a 0a 0e 3e 31 73 ba bd 27 4e 78 3e f1 35 45 3e
       0.13871065 -0.09104002 0.24248563 0.19258858
000150 ee 95 00 3e 4b ec 82 3e 2b ee 69 bd 63 34 c6 bd
       0.12557194 0.25570902 -0.0571119 -0.09677961
000160 eb 99 0d be e6 84 c2 bd b2 9e 7e be 09 5e 5f 3e
       -0.13828246 -0.094980046 -0.24865225 0.21813215
000170 82 f2 84 3e f7 44 85 bd b4 bf 65 3d 63 36 71 3e
       0.2596627 -0.065072946 0.056091025 0.23555903

glu_encoder.rnn.weight_hh_l0 f4 [48, 16]
000000 d5 f7 49 be b2 db 5a be 57 5b df bd cc 1d f4 3d
       -0.19723447 -0.2137287 -0.109060936 0.11919746
000010 b4 eb f3 3d bb ac b5 bd a3 2d 8e be c4 a0 35 3e
       0.11910191 -0.08870836 -0.27769193 0.17737108
000020 3c 59 27 3d 4d 49 3c 3e f8 71 4c be 83 42 10 be
       0.040856585 0.18387337 -0.1996535 -0.14087872
000030 88 01 ce bc 37 2f e9 bd 2e bb e8 3d e0 f7 cd bd
       -0.025147215 -0.11385959 0.11363827 -0.10057044
000040 a9 12 08 3e 35 22 ed bd 39 55 2e 3e e9 c8 63 be
       0.13288368 -0.1157879 0.17024697 -0.2224461
000050 87 77 24 be 7c 6f 74 3e b4 07 22 3d 8f 40 93 3d
       -0.16061221 0.23870653 0.039558128 0.07190048
000060 5e e5 5b be c2 0a 85 3e fb 85 20 bd 7e cf 9f 3d
       -0.21474215 0.2598477 -0.039190274 0.07803248
000070 53 c0 ce 3d 7f d5 16 be 94 d5 45 be 21 35 e2 3d
       0.10095277 -0.1472988 -0.19319755 0.1104529
000080 84 4b 20 3e 94 ec 18 be 53 ed 02 be 4e 36 61 be
       0.15653807 -0.14933997 -0.12785845 -0.21993372
000090 40 97 09 3d 59 34 3c 3d c8 5a 37 be d5 c2 20 3e
       0.03359151 0.04594836 -0.17905724 0.15699323
0000a0 04 68 05 3e 4c 03 b6 bd b5 8f 9e bd 5a 23 23 3e
       0.1302796 -0.088873476 -0.07742254 0.15931454
0000b0 76 73 c3 bd 00 60 25 3e dc 6e 4c be e2 c3 31 3e
       -0.09543507 0.16149902 -0.19964164 0.1735988
0000c0 54 49 1d 3e ab a5 44 be a8 ad 10 3e f3 f2 66 3e
       0.15360004 -0.19203822 0.14128745 0.22553615
0000d0 64 25 9f 3b da b4 23 3e 72 3a 47 3e 80 97 fe 3d
       0.004856752 0.15986958 0.19455889 0.1243124
0000e0 35 63 3b be d5 cd 94 bd 3a b9 15 be 0a 95 1c be
       -0.18299563 -0.07265822 -0.1462144 -0.15291229
0000f0 f1 e5 0c 3e 9b fe f1 3c c5 ad 5a 3c 15 20 47 bc
       0.1375959 0.02954035 0.013347094 -0.012153645
000100 24 22 aa bd e5 6d 81 3b 07 7c 31 3d a2 36 37 bd
       -0.08307293 0.003949868 0.043331172 -0.044729836
000110 94 84 1f 3d eb 75 ab bd 12 35 95 3e 37 e3 01 3e
       0.038944796 -0.083721004 0.29142052 0.12684332
000120 68 48 95 3c 5c 7e 03 3e 79 89 3e 3d 07 48 94 be
       0.018223003 0.12841171 0.046517823 -0.28961203
000130 08 a5 92 be 53 71 d7 3d ff 25 f5 3c 57 8b 04 be
       -0.28641534 0.10519662 0.029925345 -0.12943779
000140 9c 4a 9e 3d fa 88 49 3e 2b 33 d9 bb d3 37 07 3d
       0.07729074 0.19681159 -0.006628414 0.033012222
000150 c3 d4 9f 3c 99 26 28 bd 23 47 51 bd 0e bb 41 3e
       0.019510632 -0.041052435 -0.051093232 0.18919012
000160 1f 29 44 3d 58 6c 63 3e d1 37 37 be 46 db 7a bd
       0.04789078 0.22209299 -0.17892386 -0.06124427
000170 60 07 2f be c6 76 71 be bf e2 81 bd 7d 7f 5a bd
       -0.17092657 -0.23580465 -0.063420765 -0.05334424
000180 4d 9e 69 bd 28 d3 1d 3e 12 ce 1a 3e fd 85 76 3e
       -0.057035733 0.15412581 0.15117672 0.2407455
000190 18 e2 30 3d a1 58 74 3e 8e b6 78 bd b8 29 3d 3d
       0.04318437 0.23861934 -0.060720973 0.046182364
0001a0 a9 79 5e 3e bf ba 01 3d e0 7e 32 be c0 52 39 3e
       0.21726097 0.031672236 -0.17431211 0.18097973
0001b0 b0 fa 15 3e ba 1f 3e be 6e 7b e2 3d c9 dd 40 be
       0.14646411 -0.1856679 0.110586986 -0.18834604
0001c0 9c e1 cd 3d c9 98 31 be dc 78 cd bc a9 8e b7 3d
       0.10052797 -0.17343439 -0.025082044 0.08962757
0001d0 5e fb 65 be 00 fa 22 3e b1 72 9e bd 53 82 46 bd
       -0.2245917 0.1591568 -0.077367194 -0.04846413
0001e0 13 7b 18 be f6 79 1c 3e 05 9a 91 3d d9 93 68 be
       -0.14890699 0.152809 0.07109455 -0.2271265
0001f0 75 a7 91 be eb b5 8b be 9b 5f 69 3e 34 8f 75 bd
       -0.28448072 -0.2728723 0.22790377 -0.059951022
000200 a9 79 cd 3a d0 fe 77 3e 3c 8e 5f 3e ba d1 49 be
       0.0015676516 0.24218297 0.21831602 -0.1970891
000210 02 e3 1e be dc cd d5 3d 49 2f 72 bd 70 17 80 be
       -0.15516284 0.10439655 -0.059127126 -0.2501788
000220 a6 12 1d bd 22 98 93 3d 49 66 d3 bd 69 9d 51 3e
       -0.038347863 0.072067514 -0.10322244 0.20470203
000230 d9 69 4a be 02 ae a8 bd f9 03 50 3e f8 da 9b bd
       -0.1976694 -0.08236314 0.20314015 -0.07610124
000240 92 fd 7b 3e f2 92 5d bd ea 92 10 3e 7f 11 60 be
       0.24608448 -0.054095216 0.14118543 -0.21881674
000250 b3 30 27 be ba f8 58 be 8a 7c f1 3c dd 65 0a 3d
       -0.16327171 -0.21188632 0.02947833 0.03378855
000260 ea df 30 be a8 72 23 be 3e 74 e7 bc 1d 40 3a bd
       -0.17272916 -0.15961707 -0.02825367 -0.0454713
000270 d1 ec e8 3c 2a 9b 83 3d fe 3e 2e 3d d0 81 9c 3d
       0.028433235 0.064260796 0.042540543 0.07641947
000280 b4 4e 68 3e 56 f0 b7 bd 17 df 77 be af cc 6b 3d
       0.22686273 -0.08981387 -0.24206196 0.05756825
000290 2f a1 58 3e 57 99 e0 3d df 23 72 3d 24 6b 22 3e
       0.21155237 0.10966747 0.05911624 0.15861183
0002a0 10 71 d2 3c b5 e7 84 bd a0 ba da bd fc 41 20 3e
       0.025688678 -0.06489507 -0.10680127 0.15650171
0002b0 47 eb 24 bd 9a e4 f7 3c 2d 06 0d 3e 96 16 aa bb
       -0.04026344 0.030260373 0.13771887 -0.0051906807
0002c0 90 13 0c be 3b 6b e9 3d 06 4b 2b 3d 26 61 15 3e
       -0.13679338 0.11397406 0.041819595 0.1458784
0002d0 11 bc 92 3d 42 ac c7 bc 8b a7 2e bd 56 85 e1 bd
       0.07164777 -0.024374131 -0.04264025 -0.1101176
0002e0 fb 24 96 bd 90 8f 10 be aa a8 a7 bd aa 61 49 3d
       -0.07331272 -0.14117265 -0.08186467 0.049165405
0002f0 f9 6c 6e 3e 01 85 2a be bb 06 38 bd 32 c2 56 3e
       0.23283757 -0.166523 -0.044928294 0.20972517
000300 c5 f7 42 3e c1 e8 c1 3d cd d0 11 be c0 8a 49 3e
       0.19039829 0.094682224 -0.14239807 0.19681835
000310 78 a0 8b be 54 a2 60 bd e2 71 08 3e 51 5f 17 3e
       -0.27270865 -0.05484231 0.13324693 0.14782454
000320 0c 9f 5f 3e 77 d4 b4 bd 0d 52 25 be 01 b2 15 be
       0.21838015 -0.08829587 -0.16144581 -0.14618684
000330 fd 28 00 3d 71 31 a5 bd 29 bc 3d 3d 33 09 84 3d
       0.03128909 -0.08066071 0.04632202 0.06447067
000340 b9 89 74 3d e5 fc 19 3e ba 9b 9f 3d ff 00 28 3e
       0.059701655 0.15037878 0.07793374 0.1640663
000350 14 7f b8 bd 74 5e 22 be 82 6f a8 bd 38 8a 48 3c
       -0.09008613 -0.15856344 -0.082243934 0.012239985
000360 e9 b6 16 3e a5 07 04 3d 55 bc ae 3d 3b a7 a0 bd
       0.14718212 0.032233853 0.08532015 -0.07844397
000370 0a 66 0c 3d 3f 57 95 3d a0 f8 19 be 6b c8 41 be
       0.034277 0.072920315 -0.15036249 -0.1892411
000380 29 2c 8b 3e 21 62 30 3e 20 1f 51 be 0a 82 42 bd
       0.2718213 0.17224933 -0.2042203 -0.047487296
000390 e0 4e 7c 3c 2b de 29 3e 76 ee e9 bd 93 4a c4 bd
       0.015399665 0.16588657 -0.11422436 -0.095845364
0003a0 79 01 04 be 70 e7 1d 3e 83 7e 12 be 3f 79 0f 3d
       -0.12891187 0.15420318 -0.14306073 0.03502774
0003b0 c5 c4 2a 3e 59 24 92 3b f0 61 8e 3e 77 d7 29 be
       0.16676624 0.0044598994 0.27809095 -0.165861
0003c0 69 9b b1 bc 4c 24 7b 3d 7b 38 75 3d 45 d5 0f 3e
       -0.02168055 0.061313912 0.059868317 0.140462
0003d0 1f 05 8a 3e 0b 05 88 be 6c 80 83 bc 66 15 1d 3e
       0.26957032 -0.26566347 -0.016052447 0.15340194
0003e0 db 10 26 3d 82 af 53 be 0d 32 09 be 89 a1 98 bd
       0.04054342 -0.2067242 -0.13397999 -0.074526854
0003f0 00 32 41 bd 96 f7 aa bd 4e 21 eb bc c2 38 c0 3c
       -0.047166824 -0.083480045 -0.028702404 0.023464564

glu_encoder.rnn.bias_ih_l0 f4 [48]
000000 87 97 2f 3e 6a ae 33 be ff 73 23 bd 9d 02 e8 3c
       0.17147647 -0.17547002 -0.039905544 0.028321559
000010 a5 fe 3e be be 35 c2 bd 11 30 3b 3d 1a 51 c3 bd
       -0.18651827 -0.09482907 0.045700137 -0.09536953
000020 ca 34 76 3d d3 ce 94 3d 74 84 d1 bb 0d de cb bd
       0.060108937 0.07266011 -0.0063939635 -0.09954462
000030 e7 e7 81 bd 00 d2 a0 3d c2 c0 a2 bd d3 47 09 be
       -0.0634306 0.07852554 -0.07946922 -0.13406305
000040 a1 30 72 3e c0 ea 46 be 95 cb 45 3e 3b 17 6c be
       0.23651363 -0.19425488 0.19315942 -0.23055737
000050 74 d7 64 3e 55 49 66 be cd 0b 64 3e 3d c9 b8 bd
       0.22347814 -0.22488911 0.22270127 -0.09022758
000060 bf a1 ba 3c 42 8e 08 3e fa 9d 4c 3d 0a 57 56 3e
       0.022782205 0.13335517 0.049955346 0.2093164
000070 de 4a 58 3c b6 10 1d 3c 2a ee e7 3d 36 59 90 3c
       0.0132014435 0.009586504 0.11324723 0.017620664
000080 29 2b 74 3e ed a3 4d 3e 62 e4 2b be 0d 37 3b be
       0.2384459 0.20082064 -0.1678634 -0.18282719
000090 66 4a 1d be 76 43 1a be 02 44 52 be 53 f7 1c be
       -0.15360412 -0.15064797 -0.20533755 -0.15328722
0000a0 f0 58 93 bd 1e a0 66 3e 7b 85 87 3b 5f 87 01 be
       -0.07194698 0.22522017 0.004135785 -0.12649296
0000b0 bd 15 30 3d 4f 49 7d be 03 d2 63 bd 60 5e da bd
       0.04298948 -0.24734996 -0.055620205 -0.10662532

glu_encoder.rnn.bias_hh_l0 f4 [48]
000000 fd 27 59 bd 02 a1 89 3e 6c 90 53 3e 1a b8 84 bd
       -0.05301665 0.26880652 0.20660561 -0.06480427
000010 85 6c 15 be ad 99 12 bd d1 9f 40 be 27 97 1f be
       -0.14592178 -0.035791088 -0.18810965 -0.15585004
000020 2e 63 9e bd e1 f3 03 be 12 8e bb 3c 97 b4 e9 bc
       -0.07733761 -0.12886001 0.022894893 -0.028528495
000030 95 1d 81 3e be 32 45 be 24 9c 87 3d ee 0a c1 3d
       0.25217882 -0.19257638 0.06621578 0.09425913
000040 dc b9 5d bd 58 0f 4a 3e ba 8d 86 3e c3 ec 3e 3e
       -0.054132327 0.19732416 0.26280004 0.18645005
000050 7c 6a 3b be 5e ff 14 be 0b f9 1f 3e 91 2d e8 3d
       -0.1830234 -0.1455054 0.15622346 0.11336816
000060 c7 8b f0 3d 06 8b 9a be 8d 3e 11 3e f1 7c 52 3e
       0.117454104 -0.3018419 0.14184017 0.20555474
000070 08 47 35 3e 60 66 81 3e 88 99 c7 3d cd 53 98 3e
       0.17702878 0.25273418 0.09746081 0.29751435
000080 41 63 cc 3d d8 97 bf 3b 41 8d 08 3e b8 9a ea 3d
       0.09979869 0.0058469586 0.13335134 0.114552915
000090 85 a9 71 be 1a b5 e9 bd de d4 6b be 51 b5 19 3e
       -0.23599823 -0.114114955 -0.23030421 0.15010573
0000a0 df 96 1c 3e 29 e7 b6 bd b7 89 cb bd e7 fe 37 be
       0.15291928 -0.08930809 -0.099383764 -0.17968331
0000b0 6d 32 95 be f9 27 68 be 01 3c 84 3d fc 44 3a be
       -0.29140034 -0.22671498 0.06456757 -0.18190378

glu_encoder.hid2lat.weight f4 [64, 16]
000000 8a 25 7a be 93 59 34 be b4 5a aa bd b4 d9 24 3e
       -0.24428383 -0.17612295 -0.083180815 0.16098672
000010 11 16 05 3d a7 d6 21 3e ed e1 0e be 59 d4 60 3d
       0.032491747 0.1580454 -0.13953371 0.05489001
000020 db 99 34 bd 83 53 6e be 6f 5b 07 be cd 17 8f bd
       -0.04409204 -0.23274045 -0.13218473 -0.069869615
000030 8d 81 4b 3e ca 25 33 be f9 e8 2d be 9c 1c 10 be
       0.19873638 -0.17494884 -0.16983403 -0.14073414
000040 43 64 08 3e 68 3d 1b 3e 68 26 6a be 46 7f c3 3d
       0.13319497 0.15160143 -0.22866213 0.0954576
000050 d2 e1 74 3e 46 44 fb bb ac 86 40 3d 52 9a b4 bd
       0.23914269 -0.007668051 0.047003433 -0.08818497
000060 1d 7d 21 3e 36 04 2b bd 98 65 34 be 7b 58 9f bd
       0.15770383 -0.041752063 -0.1761688 -0.07780548
000070 77 6b 10 3e 24 b0 d3 3d d2 a1 4d be dc bc a3 bd
       0.14103495 0.103363305 -0.20081261 -0.079950064
000080 57 42 e1 bd 54 20 8c bc 9f b8 ce bc 5f 4c 83 3e
       -0.109989814 -0.017105259 -0.025234519 0.25644204
000090 fd 83 a3 bc ed b3 b6 3d bd b0 78 3e 80 8e 5f 3e
       -0.019960398 0.08921037 0.2428617 0.21831703
0000a0 dd fd 04 bd 47 da 7f 3e 47 9e 45 be 4a 4f 92 3c
       -0.032468665 0.2498561 -0.1929866 0.017860074
0000b0 e2 f6 ae 3d 1d 02 de bd 58 1a f7 3d a1 91 46 be
       0.08543183 -0.10840247 0.120655715 -0.1939149
0000c0 fe 96 1d 3e 08 6d d5 bd a0 84 6a 3e c9 82 85 3d
       0.1538963 -0.10421187 0.22902155 0.06519086
0000d0 eb 96 d4 bd 53 d3 2e 3e 62 19 32 bc a2 77 7e 3e
       -0.10380348 0.17072801 -0.01087031 0.24850324
0000e0 ab 2f 3c be 25 d9 c6 bd f5 57 80 be 0c 34 30 3d
       -0.18377559 -0.09709386 -0.25067106 0.043018386
0000f0 45 56 c6 3c bf 28 ab bd 38 2b a9 3c 52 99 db bd
       0.024211058 -0.08357381 0.020650491 -0.10722603
000100 e2 96 64 3e 3e 47 f7 3d 37 3a 55 be 6c 26 b7 3c
       0.22323182 0.12074135 -0.20822988 0.022357188
000110 d6 44 43 3e 54 51 55 3e 6e 17 4f 3e 1b 66 0a bd
       0.19069228 0.20831805 0.20223781 -0.03378878
000120 db 9f f3 3d b1 47 bd bd e0 13 47 3e be 71 94 be
       0.118957244 -0.0924219 0.19441175 -0.28993028
000130 93 e3 60 be 92 1e fa bd 0e 0f c6 bd cf bd 63 3e
       -0.21961813 -0.12212862 -0.0967084 0.22240375
000140 0b 30 f4 bd 74 ff 32 be 2e de 8b 3e 58 ea 7d 3e
       -0.11923226 -0.1748026 0.27317947 0.24796426
000150 a8 8c 21 3d 6b 6c 5c 3e 87 5b 3f 3e 44 45 65 be
       0.03944078 0.21525733 0.18687259 -0.22389704
000160 7e 44 8a bd 16 24 10 3e 06 b4 eb bd a3 80 1c 3e
       -0.06751345 0.14076266 -0.11508946 0.15283446
000170 aa 0f a6 bc e1 e4 c2 bd 73 d6 06 be 3d 53 d6 3d
       -0.020271141 -0.095163114 -0.13167743 0.10465095
000180 6d 54 1f 3d fe ce 18 be d3 33 99 3d b2 b6 4b 3e
       0.038898874 -0.14922711 0.07480588 0.19893911
000190 c2 81 79 3d b1 71 33 be bb da 11 3e fd d7 4f 3e
       0.060914762 -0.17523839 0.14243595 0.20297237
0001a0 14 f5 cf bd 2d 7f 11 3e 16 8f 81 3d b0 e2 c6 3d
       -0.10154167 0.1420867 0.063261196 0.09711206
0001b0 3d a5 c1 bd a0 96 f5 bc 4d 14 16 be 99 ac 3c bd
       -0.09455345 -0.02997905 -0.14656182 -0.04606304
0001c0 e9 fb f5 bd b3 5d d8 3d ba 7b 3a 3e 1f c6 b8 bd
       -0.12010939 0.10564747 0.1821126 -0.090221636
0001d0 86 dc 00 bd f2 05 21 be 8c 8a d3 bd 30 29 15 3d
       -0.031460308 -0.15724924 -0.1032916 0.036416233
0001e0 26 fb e1 bd 4d 8a f0 bd 0b 9b 88 be ac 5a 0f 3e
       -0.11034231 -0.11745129 -0.26680788 0.13999432
0001f0 63 63 4d 3e 2d c6 16 3e 41 1a fd 3d 26 d7 57 3e
       0.20057444 0.14724036 0.12358523 0.21078166
000200 93 18 41 3d e5 40 b6 bd de e8 1b be b9 ac 65 3e
       0.047142576 -0.088990964 -0.1522555 0.2242917
000210 fc 69 27 3e 5a 38 45 be ac ff 39 be c0 45 42 be
       0.16349024 -0.19259778 -0.18163937 -0.1897192
000220 83 2b 43 bd e1 54 1a 3e d3 f2 39 3e 20 01 61 be
       -0.047648918 0.15071441 0.18159036 -0.21973085
000230 32 80 c5 3c a9 15 5a 3e e1 3a 1c be 09 56 8c 3d
       0.02410898 0.21297325 -0.15256836 0.068523474
000240 91 cb 18 3d 45 2f 6b be f7 8b cb 3d a2 e6 32 3d
       0.03730351 -0.2296725 0.099388056 0.04367698
000250 08 1c 3a 3d 19 e5 38 3e b7 cf ed bd 98 11 c0 3d
       0.04543689 0.18056144 -0.11611884 0.09378356
000260 38 6f 1d be 11 9c ec bd a2 8e 28 bd ca 19 b6 3d
       -0.15374458 -0.11553205 -0.04115165 0.088916376
000270 13 df ba bd c1 6e a5 3d 35 8b ba 3d 71 e3 2d 3e
       -0.09124579 0.08077765 0.09108583 0.16981293
000280 1a 67 08 3e 51 72 58 be 72 80 cd 3d d0 3b 8f 3e
       0.1332058 -0.21137358 0.100342646 0.2797532
000290 84 05 1a 3e 32 ac 26 3e 5e 96 b9 3d 28 39 a2 bc
       0.15041167 0.16276625 0.090618834 -0.019802645
0002a0 d6 90 20 3e 05 c1 76 bc 38 5a 05 be 1b fd 15 be
       0.1568025 -0.015060668 -0.13022697 -0.14647333
0002b0 3e c6 22 be 58 8a b0 bc 35 69 69 3e 4a 23 5d bd
       -0.15895936 -0.021550342 0.2279404 -0.053988732
0002c0 82 dd 06 be 59 9e 11 be 79 a3 41 be 10 01 28 bb
       -0.13170436 -0.14220561 -0.18910016 -0.00256354
0002d0 12 90 f0 3d f7 b7 5d bd 72 b9 02 3d 50 d3 01 be
       0.11746229 -0.05413052 0.031915136 -0.12678266
0002e0 a9 10 75 be 2b d3 55 3e ce 77 04 3e cb ff 58 3d
       -0.23932137 0.20881335 0.12936327 0.05297832
0002f0 16 18 7f be 9e e3 3f 3d 7c 74 7b be ae b8 34 be
       -0.24911532 0.046847932 -0.24556154 -0.17648575
000300 74 5b 62 3d de 1e d2 bd e6 89 1f 3e d8 76 45 3e
       0.055262998 -0.10259794 0.15579948 0.19283617
000310 7b 35 19 be 9e c6 32 bd 30 d8 5f bd 8a c2 26 3e
       -0.14961807 -0.043646447 -0.05464953 0.16285148
000320 91 e0 88 3e 9e 66 5e 3e 0d 65 77 3d 68 7e 30 3e
       0.2673383 0.21718833 0.060399104 0.1723572
000330 e9 33 17 3e 5d 20 6d be ad 4d 08 3e a0 be 05 be
       0.14765896 -0.23156877 0.13310881 -0.13060999
000340 a1 e2 9d bd 6a 61 4b 3d 74 a8 99 bd d7 00 48 be
       -0.07709242 0.04965345 -0.07502833 -0.1953157
000350 a1 3f 66 be b9 a6 25 be a4 f9 7f be 76 32 2a 3e
       -0.2248521 -0.16176881 -0.24997574 0.16620812
000360 a3 ee 6f 3e 59 e3 20 be a8 b3 25 3e 87 95 11 3e
       0.23430876 -0.15711726 0.16181815 0.14217196
000370 97 c7 bb bd d7 41 b4 bb b7 f1 50 be 2e ff 61 3e
       -0.09168928 -0.005501013 -0.20404707 0.2207
000380 82 c2 2c 3e 31 96 a0 bd f5 25 e2 3d d5 68 a6 3b
       0.16871074 -0.07841147 0.11042396 0.005078415
000390 36 27 22 3c fc 14 0a 3e af 63 5f 3d fa 11 90 be
       0.009897044 0.13484567 0.054538425 -0.28138715
0003a0 4b 28 89 be fe e3 f6 bc f5 d6 88 be f4 48 37 3d
       -0.26788554 -0.030138012 -0.267265 0.044747308
0003b0 37 84 bf 3c 4f 5e fb 3c 4d 72 85 be 3b 64 27 3e
       0.023378475 0.030684618 -0.26063767 0.16346829
0003c0 95 d4 50 be 91 af b0 3d 2f 06 01 bc bd 3a 3a be
       -0.20393594 0.08627237 -0.007875009 -0.1818647
0003d0 91 6b 3f 3d 57 15 59 3e 5e 0e c5 bc 4a 96 c6 3d
       0.046733443 0.21199547 -0.024054702 0.09696634
0003e0 8f e4 f1 bd 0f f1 66 bc d0 d7 ef 3d d7 c7 36 be
       -0.11811172 -0.014095559 0.11711085 -0.1784967
0003f0 6b 80 a3 bc ca 54 18 3c d8 ec 5a bc 82 2f 54 bd
       -0.019958695 0.009297559 -0.013362132 -0.05180312

glu_encoder.hid2lat.bias f4 [64]
000000 37 64 d1 3c 5a 3e 93 bd 8e 83 41 be 6a 48 b8 3c
       0.025560481 -0.07189627 -0.1889784 0.022495467
000010 27 c0 53 3d bd 4b 22 3d 2a 3c 47 3e 55 84 b6 bd
       0.051696923 0.03962301 0.19456545 -0.08911959
000020 c3 15 9f 3c c6 a5 07 3e 0f 6f 7c 3e 7c da d9 3d
       0.019419556 0.13246831 0.2465174 0.10637376
000030 da 18 91 3c 1e 30 54 ba 80 28 3f bc 5b 37 49 be
       0.017712045 -0.0008094328 -0.011667371 -0.19650023
000040 ef 9d 2e bd 52 a5 7f 3d 81 72 9c 3b 1f bc 63 3e
       -0.042631086 0.06241352 0.004774392 0.22239731
000050 ee 48 9e bd 21 e0 46 3e 16 5b e6 3d 99 11 99 3d
       -0.07728754 0.19421436 0.11247842 0.074740596
000060 be 06 20 3e 2d 49 a5 3d 4e 0e 86 3d b5 88 bf 3c
       0.15627572 0.08070598 0.06545697 0.023380617
000070 9b b1 20 be 45 80 5f 3e 8d da 1e be 34 fc 22 bd
       -0.15692751 0.21826275 -0.15513058 -0.0397913
000080 09 e2 70 be 59 0d 87 be 47 15 3d 3e 35 a0 e8 bd
       -0.23523726 -0.2637737 0.18465148 -0.11358682
000090 4f 52 71 3e 01 6e 4f bd d8 06 5a be 95 c1 e8 bd
       0.23566554 -0.050642017 -0.21291673 -0.11365048
0000a0 cb da 20 bd 79 70 d4 3b 90 a3 0f 3e 29 0a 94 3c
       -0.039271157 0.0064831343 0.14027238 0.018071251
0000b0 af b9 8a 3e a4 22 06 3e ac 11 de 3d 36 37 50 3e
       0.2709479 0.13099152 0.108432144 0.20333561
0000c0 8f 8e 2a be 0c 39 08 3c 8e 22 4d 3e cd f7 5c 3e
       -0.16655944 0.008314382 0.20032713 0.21578903
0000d0 84 30 88 3c ec 0c c9 bd df 32 4f 3d bd 67 6b bd
       0.016624697 -0.09816918 0.050585624 -0.05747198
0000e0 ef e6 84 be e9 4f 45 be 29 22 7e be 3e f2 5a bd
       -0.25957438 -0.19268765 -0.24817719 -0.053453676
0000f0 6d 1f 5c be b3 5b e5 bc 66 12 1b 3d 11 d3 40 3e
       -0.21496363 -0.027997827 0.037859343 0.18830515
