code/baseline/saved/GAMNet_learning_rate_0.0001_hidden_size_64_epoch_6000_batch_size_32/Epoch_5950_JA_0.7969_DDI_0.0998.model (torch, 455805 bytes, 29 tensors)

lab_embeddings f4 [32, 64]
000000 b2 23 8b 3e 2e 69 50 3e b8 b4 3e bf af ec d2 bf
       0.2717567 0.20352623 -0.74494505 -1.647848
000010 72 15 2a bf 4f ae c7 bf b4 f4 99 3f 33 ee 02 3f
       -0.6643897 -1.560007 1.2027802 0.51144713
000020 3a 27 4d 3f ab d9 f2 3e fc f9 da bf 62 d0 ad bf
       0.8013798 0.47431692 -1.7107539 -1.3579218
000030 60 6e 09 3f 9c 7a f3 be 0f 02 2c 3f 35 09 f7 3f
       0.53684044 -0.4755448 0.6719064 1.9299685
000040 e1 30 3b 3f 3e 21 5a 3e 84 ab cb 3e 47 f7 d0 3e
       0.7312146 0.21301743 0.39779294 0.40813658
000050 c8 a4 8e 3e 90 a3 3f bf cb cd 8b bf 64 20 82 bf
       0.27860093 -0.7485895 -1.0922178 -1.0166135
000060 f4 2d 31 bf 86 f8 80 bf cd 0a 36 3f ba ca 16 c0
       -0.69210744 -1.0075843 0.7111023 -2.3561234
000070 92 2f b2 be 79 34 57 3f ed ae b6 3f eb 3a ce 3e
       -0.34801918 0.8406444 1.4272133 0.40279326
000080 14 88 10 c0 1a 54 e0 3f cf 05 91 be 5d 41 f5 bf
       -2.2583055 1.7525666 -0.28324744 -1.9160572
000090 a9 a1 d1 be 50 43 17 bf 9e 3d 91 bf 85 0e 73 bf
       -0.4094365 -0.59087086 -1.1346929 -0.9494403
0000a0 83 07 03 3f 36 33 f1 3e 1f 5b 86 3f a8 00 f3 be
       0.51183337 0.47109383 1.0496558 -0.47461438
0000b0 03 94 e2 3e 24 f9 73 3f 0a d5 10 40 a7 5b 12 3f
       0.4425355 0.95302033 2.2630029 0.571711
0000c0 01 f1 78 be 40 b4 ad be ae 29 89 3e b5 4d e5 be
       -0.24310686 -0.33926582 0.26789612 -0.44785848
0000d0 e9 c0 52 bf e4 63 15 3e 51 38 25 bf 46 1a 53 3f
       -0.8232561 0.14588886 -0.64539057 0.82461965
0000e0 ab 5e a3 be 9c 5d 1b be e2 48 20 40 0f 8c 0b bf
       -0.31908163 -0.15172428 2.5044484 -0.5451059
0000f0 ca c1 19 3d 9b b1 a6 3e 2e 1f e6 3f 56 6a fa 3c
       0.037538327 0.32557377 1.7978265 0.030568283
000100 3f 19 4c be f3 18 19 bf 49 0f f2 be d2 12 39 bd
       -0.19931506 -0.59803694 -0.47277287 -0.045183964
000110 29 ac 29 3e 8f 49 16 3f 5a 59 ee 3f 57 7c 9e 3e
       0.1656958 0.5870599 1.8621018 0.3095424
000120 89 66 85 bf df 6f aa bf 99 90 a4 bf 25 c5 4c 3d
       -1.0421916 -1.331539 -1.2856628 0.0499927
000130 aa 0f c1 bf 3f cc 90 bf 7f dc 65 3f 75 9c 67 bf
       -1.5082905 -1.1312331 0.89789575 -0.9047311
000140 9b 06 93 bd 5f fb 0e 3f d8 a8 bf 3f b2 9f 9a 3f
       -0.07178994 0.5585231 1.4973402 1.2079985
000150 81 0e c1 3e b6 63 f1 be 9a 69 74 3e d2 b0 13 40
       0.37706378 -0.47146386 0.23868409 2.3076673
000160 0d 70 6f bd fe 63 81 3f 76 d8 c0 3e 5a 01 7e 3f
       -0.05845647 1.010864 0.37665147 0.9922081
000170 97 66 2c 3d 76 13 ee 3f 2b 61 52 3f 45 a6 01 3e
       0.042090025 1.8599689 0.82179517 0.12661083
000180 59 ca 56 bf df 97 b7 bf b7 08 13 bf d4 14 05 3f
       -0.8390251 -1.4343222 -0.5743517 0.51984906
000190 6a e4 a7 3f b3 a2 82 be 77 f6 1f 3e 32 ac d1 3e
       1.3116581 -0.25514755 0.15621363 0.40951687
0001a0 d7 db d7 3e a6 e0 97 bf c9 2b 4b 3f b8 4f 35 3f
       0.42159912 -1.1865432 0.79363686 0.70824766
0001b0 72 12 ce 3f 0f 2d 80 be 54 07 fd bf e0 bc 1b bf
       1.6099379 -0.25034377 -1.9767861 -0.60835075
0001c0 88 f5 33 3f 1d 0c cd bf 0b 57 4c 3f 5b 54 1a 3f
       0.70296526 -1.6019322 0.7982032 0.60284966
0001d0 06 d1 06 3f c2 95 06 bf e4 26 a0 bf 8a 49 38 bf
       0.52662694 -0.5257226 -1.2511868 -0.7198721
0001e0 83 7a 00 c0 ca 94 56 40 c8 ad 2c 3e c4 32 c8 3e
       -2.0074775 3.3528314 0.16863167 0.3910123
0001f0 34 da 2c 3f b9 cb 7c 3f f2 58 0d c0 94 dd b6 3f
       0.6752045 0.98748356 -2.2085538 1.428637
000200 0a 91 64 bf 44 84 78 be 46 88 d4 3f 87 df 7b be
       -0.8928381 -0.24269205 1.6604087 -0.24596988
000210 c9 8a 80 3e 45 da 86 bf 40 38 82 bf 5a df 3f bf
       0.25105885 -1.053536 -1.0173416 -0.7495018
000220 31 62 5c bf f3 75 6f 3f d8 44 85 bd a9 8b 9c 3f
       -0.8608733 0.9353935 -0.065072715 1.2230121
000230 80 47 a3 be 32 61 14 3f 98 0e f8 be ef 66 09 40
       -0.31890488 0.5796081 -0.48448634 2.1469076
000240 a9 e5 4d bf b6 eb 68 3e e8 9a 4d 3f e7 10 c1 be
       -0.8042856 0.22746167 0.80314493 -0.37708208
000250 f4 55 4c bf fe 1c 17 3f 10 e3 c5 3f f7 51 5d 3c
       -0.79818654 0.59028614 1.5459919 0.0135083115
000260 e7 57 b7 bf 8f 1c 28 be 0b 16 2d bf c9 21 52 bf
       -1.4323701 -0.16417144 -0.6761176 -0.820828
000270 8a 56 b3 3e 30 a5 90 be 10 0d 42 be c5 57 4d 3f
       0.35026962 -0.28251028 -0.18950295 0.8021205
000280 b9 2e 4c bf 50 c3 bc 3f 52 3e d4 3e e3 35 0e 3f
       -0.79758793 1.4747105 0.41453797 0.55550975
000290 eb 87 46 3f be 68 9f 3e f2 ca 3a 3d 9d d9 b8 3f
       0.77551144 0.311346 0.0456037 1.444141
0002a0 af 68 01 40 db 76 84 be 05 dc f3 3e 48 55 6d be
       2.0220144 -0.2587193 0.476288 -0.23177063
0002b0 58 a9 a0 3f 61 ce 8c be 30 ca b4 be 9a 86 22 bf
       1.255168 -0.27501205 -0.35310507 -0.63486636
0002c0 f7 71 c2 be 55 c2 96 3e 17 b8 86 bf 07 0b b9 3e
       -0.37977573 0.2944514 -1.052493 0.36141226
0002d0 6f f2 ac bf 3e 88 a4 3e ca 9a c1 3d 6d 83 e0 bf
       -1.3511485 0.32135195 0.09453352 -1.7540108
0002e0 87 f6 44 bd a8 d4 5b 3f 9e 55 8b 3e b8 e5 be bd
       -0.04808667 0.8587136 0.27213758 -0.09321159
0002f0 01 a1 ba 3e ef f7 b2 bf 40 31 6c bf 02 8b f8 be
       0.3645096 -1.3981913 -0.9226265 -0.48543555
000300 d1 f8 13 bd 8d 53 2d bf 53 87 71 3f 83 b1 88 bf
       -0.03612596 -0.67705613 0.94347113 -1.0679172
000310 bd 79 d7 bd 86 c2 ff bf b4 a0 bd bf 59 8c 17 3e
       -0.105212666 -1.9981239 -1.4814668 0.14799632
000320 4c 76 8c 3e 2e f7 94 3f 4e a4 cb be 3c 94 85 bf
       0.27434003 1.1637933 -0.39773792 -1.0435863
000330 0a ba 5e 3f b0 65 00 40 b4 a6 90 3e bd 24 fd bd
       0.87002623 2.0062065 0.28252184 -0.12360523
000340 d3 71 8f 3e 05 de 2b 3f a7 71 a7 be ee 60 08 3d
       0.28016528 0.6713565 -0.32703897 0.033295564
000350 92 8f 9b 3e 6f e3 b2 bf 46 ea 20 c0 b6 e0 d9 be
       0.30382973 -1.3975657 -2.514299 -0.42554253
000360 1a e5 19 bf 43 da c3 bd 48 b7 0e 40 e7 70 e0 bf
       -0.60115206 -0.095631145 2.2299366 -1.7534455
000370 1d 3f 0f 3f e5 44 cd 3c 1c 13 a9 be 3e e6 db 3e
       0.5595568 0.025057266 -0.33022392 0.42949098
000380 a0 e5 47 3e 49 79 9f 3f 02 b5 74 3f 39 69 a3 bf
       0.19521189 1.2458888 0.95588696 -1.2766486
000390 d6 35 fd 3e d4 06 02 bd 49 ec fb 3f d5 c5 08 c0
       0.49455136 -0.031744793 1.9681484 -2.1370747
0003a0 3a c3 46 3f 80 0c 9d 3e 20 7f 84 bd 4e 15 c4 be
       0.7764164 0.306736 -0.0646956 -0.38297504
0003b0 0f 59 44 bf 0a 2c 29 3f b7 87 98 bf a5 f9 3f 3f
       -0.7669839 0.66082823 -1.1916417 0.749903
0003c0 20 8a 1e bf 7e 4e a1 bf 11 88 13 3f c7 c9 7c 3f
       -0.6192951 -1.2602079 0.57629496 0.9874539
0003d0 79 47 ad 3f 01 9a f2 3e 66 6f ee bf dd 43 3b 3f
       1.3537437 0.4738312 -1.8627746 0.73150426
0003e0 21 42 26 3f 7d 6e b1 3f c0 7a 75 bf a8 24 4b 3f
       0.64944655 1.3861843 -0.95890427 0.7935281
0003f0 db 71 90 3f d8 5b 71 be 8b bb 33 3f 63 5e 0c 40
       1.1284746 -0.23570192 0.7020804 2.193261

static_ll.0.weight f4 [128, 64]
000000 6e c2 21 3e f6 cc a7 bd 38 8e c8 bd b6 b8 f5 bd
       0.15796825 -0.0819339 -0.09792751 -0.119981214
000010 58 5e c0 3d 74 71 9c bd 45 a3 1e be 2a 6e a4 3c
       0.09392995 -0.07638827 -0.1549197 0.020072062
000020 eb 1d 99 3d 8d e1 86 bd a8 41 a8 bc a3 87 a1 bd
       0.074764095 -0.06585989 -0.02053912 -0.07887199
000030 37 d5 43 3e d0 eb 2a bd 5f 41 59 3c f6 27 a1 bd
       0.19124304 -0.041728795 0.013260215 -0.0786895
000040 f5 c3 07 be 34 0e cb 3d d1 26 7a bd 07 01 d8 bd
       -0.13258345 0.099148184 -0.061072174 -0.10547071
000050 6e 3c 72 bd 67 b2 8e bd 7e 09 01 be ed c3 f0 bd
       -0.05913966 -0.06967621 -0.12601277 -0.1175612
000060 d9 47 d0 3d 22 60 07 bd ec 12 a5 3d e0 fa c1 bd
       0.10169954 -0.033050664 0.0806025 -0.09471679
000070 85 af c3 3d e3 10 46 bd 37 79 ac 3d 96 7d fd 3d
       0.09554962 -0.04835595 0.084215574 0.12377469
000080 36 f9 e2 3d 44 b5 d0 3d db 0b 23 bb 36 50 03 be
       0.110826895 0.10190824 -0.0024878893 -0.12823567
000090 43 8a 18 3d b7 f7 8f 3d 90 00 42 3d 7b 37 81 bd
       0.03724123 0.0702967 0.047363818 -0.0630941
0000a0 68 64 8d 3c e1 a7 91 3d af 59 60 3d 87 db 43 3d
       0.017259791 0.071120985 0.05477303 0.04781678
0000b0 01 8f 82 bd 85 96 7f 3d 74 e1 6b bd 7f a3 ac bd
       -0.06374932 0.062399406 -0.057588056 -0.08429622
0000c0 bd a2 82 bd 23 1a 04 be 30 af 03 3e c1 c3 2a 3e
       -0.06378696 -0.12900595 0.12859797 0.16676237
0000d0 56 33 27 3d 08 94 bb bc d2 05 51 bd c5 fa ee bd
       0.040820442 -0.022897735 -0.05103094 -0.11668924
0000e0 1d 56 2b 3c 17 20 09 3c 50 2c 41 bd 7f c3 22 3d
       0.010457543 0.008369467 -0.0471614 0.03973722
0000f0 6f 3f 0c be f0 6d d3 bd 4d d4 a0 bc e4 67 65 38
       -0.13696073 -0.10323703 -0.019632483 5.469461e-05
000100 c4 74 36 bd d6 e6 bf 3d 47 97 00 be 39 07 20 3e
       -0.04454495 0.093702 -0.12557708 0.15627755
000110 57 f7 99 bd 5b 67 8e bd 80 df c0 3d e2 a6 b5 bd
       -0.075178795 -0.06953307 0.09417629 -0.08869721
000120 fe 3a a9 bd dc 56 59 3d 4d a8 89 bc 60 c8 f8 3d
       -0.08263205 0.05306135 -0.016803885 0.121475935
000130 3f 55 9e bd 14 b4 60 bb ec 9d 63 3d 9c 7a 0f be
       -0.07731103 -0.0034287022 0.055570528 -0.14011616
000140 38 47 92 bd 13 79 ae bd 5e 48 a7 3b 8d 40 0b 3e
       -0.0714249 -0.08519187 0.0051050624 0.13598843
000150 b1 45 87 3d 01 1c 84 3d 12 6b 98 3d f2 88 e7 3c
       0.066050895 0.06450654 0.07442297 0.028263543
000160 23 09 8b 3d 48 fe 19 3d 1a 2d a4 3d f1 8c 24 3e
       0.06788852 0.037596017 0.08016415 0.1606939
000170 b5 0d a6 3d 3a bf dc 3d 34 10 c0 3c 88 66 13 be
       0.08108083 0.10778661 0.023445226 -0.14394581
000180 41 64 8e bd 29 02 1b be 60 b9 cd 3c 29 5e 10 bd
       -0.06952716 -0.15137543 0.025112808 -0.035246048
000190 c8 f3 d2 bc 61 33 01 3e eb d1 d7 bc 13 a6 05 3e
       -0.02575101 0.12617256 -0.026345214 0.13051634
0001a0 d4 1f 0b bd fc c7 e7 bd eb fc 02 3e e8 df c0 bd
       -0.0339659 -0.11317441 0.12791793 -0.09417707
0001b0 08 8c bb bd a4 e7 e0 bb 89 7c 46 bd 6d f6 77 bc
       -0.09157568 -0.006863551 -0.04845861 -0.015134436
0001c0 05 41 8a bd dd f5 bc 3c b3 a7 2c 3e 92 23 38 bc
       -0.06750683 0.023066455 0.16860847 -0.011238949
0001d0 98 b7 05 be c7 6e f4 bc 78 0c a6 bd 8b 1f a7 3b
       -0.13058317 -0.029837979 -0.08107847 0.0051001958
0001e0 bc 20 a8 bd b8 04 34 3e 0a ec 3d bd 1c d2 a1 3d
       -0.082093686 0.17579925 -0.046367683 0.07901403
0001f0 8d 33 f4 3b 17 25 d2 3d c5 cb f6 bd 67 73 e4 3d
       0.0074524344 0.102609806 -0.12050585 0.11154824
000200 cb db b5 3d e5 46 8a bb 07 f8 43 bc 28 41 2f 3c
       0.08879813 -0.004219877 -0.01196099 0.010696687
000210 a7 54 a9 3d ec f0 25 be 11 0d fa bd 54 96 31 bd
       0.08268099 -0.16205186 -0.122095235 -0.043356255
000220 68 d8 97 bd 98 c4 cf bc 8c d9 9c bd 70 2f 04 be
       -0.07414323 -0.025362298 -0.07658681 -0.12908721
000230 54 0f d3 3c 5c 06 76 bd 71 d3 a9 bd 1a a0 39 bc
       0.025764145 -0.06006466 -0.082922824 -0.011329675
000240 12 3d a1 bd aa dc e2 3d e0 7e 41 bd a4 ac d6 bd
       -0.07872976 0.110772446 -0.047240138 -0.10482147
000250 1e 5b fb 3c 35 b6 98 bd b6 d8 b7 bc cc 2c 26 3d
       0.030683096 -0.07456628 -0.022442203 0.040570065
000260 0b 5d 69 bd 0d be e8 bd 66 9f a4 bd b6 96 57 bd
       -0.0569735 -0.11364374 -0.08038215 -0.052633964
000270 52 4d 95 bd ef 5a 85 3d b8 a9 8a 3d 77 c9 1b bd
       -0.07290138 0.06511485 0.067706525 -0.03803393
000280 9d 6f fc bd e4 fc a9 3d bb f4 3c 3c 4e df e2 3c
       -0.12325976 0.08300188 0.011532958 0.02769437
000290 a4 9b 81 3c 4d 45 67 bc ac f6 03 3d 67 31 be bc
       0.015821286 -0.014115644 0.032217667 -0.023216916
0002a0 97 a0 df bc ce d0 cd bd 12 7d a2 3d 1d 6f 5a bd
       -0.027298255 -0.10049592 0.079340115 -0.053328622
0002b0 9e 05 16 3e 11 70 e7 3d 8a 1f f5 3d fa 4c f4 bc
       0.1465058 0.11300672 0.11968906 -0.029821862
0002c0 92 7b ef bd 31 a1 c3 bb ec 07 8f 3d b6 1c c2 3d
       -0.11693491 -0.0059701432 0.06983933 0.094781324
0002d0 5d 33 ba 3b d8 d6 e5 3d 0c 1d e2 3d 59 72 0e bd
       0.0056823925 0.11222619 0.110406965 -0.03477702
0002e0 4e 48 23 3c 57 7e 60 bc ed dd c9 3c e4 c8 7b bd
       0.009965969 -0.013701997 0.024641955 -0.06147088
0002f0 6b 6a ec 3d 5d c8 e3 3d 59 b1 78 3d 12 cd 92 bd
       0.11543735 0.11122201 0.060716007 -0.0716802
000300 f5 bc 9d bd d6 37 64 bd 42 b7 a2 bc 5c 8f 07 bd
       -0.07702056 -0.05571731 -0.019862775 -0.033095703
000310 ff 2a 23 3e f3 4b dd 3d 7b 41 19 be 73 ef a1 3d
       0.1593437 0.10805502 -0.14966385 0.079069994
000320 31 1f bf bd 14 1a 8a 3d ab b1 2e 3d b7 24 58 bc
       -0.09332121 0.06743255 0.042649906 -0.013192347
000330 24 07 a2 3d 5c 97 57 3d 47 29 86 3c 3a 36 7a 3d
       0.07911518 0.052634582 0.016377104 0.06108687
000340 35 03 9c 3d b2 7d ae bc 3d 65 0c bd 90 1f 49 3d
       0.07617799 -0.02130017 -0.034276236 0.049102366
000350 ef 90 ba 3d 37 e9 c3 3d 38 59 b5 bc 6d f0 0d bd
       0.09109675 0.095659666 -0.02213727 -0.034653116
000360 77 62 ba 3d c1 2b f6 bb e9 d1 10 be 7a 9c e1 3c
       0.09100812 -0.00751254 -0.14142574 0.027540434
000370 ea 5e df 3c 1a cd 1f bc c7 6c d1 3b ce 1e 85 3d
       0.027266938 -0.00975349 0.006391141 0.06500016
000380 d7 4d a5 3c aa 2c b5 bd 4d 39 60 3c ff 4c 1d 3d
       0.020178718 -0.088464096 0.013685537 0.038403507
000390 be 8b 2f bd 5a 42 88 bd 81 98 f8 bd 91 da 80 3d
       -0.042857878 -0.066532806 -0.12138463 0.06291688
0003a0 aa 15 f4 3d c1 78 32 be 80 84 d2 bd a8 fd cc 3d
       0.119181946 -0.17428876 -0.102791786 0.100093186
0003b0 35 9a f2 bc 59 78 94 bd 3f 8b bd 3d f0 2b e7 bd
       -0.029614547 -0.07249517 0.09255075 -0.11287677
0003c0 ed 53 b0 3c 8f be 15 3d 41 ee 27 be 7d 3b 92 bc
       0.021524394 0.036558684 -0.1639948 -0.017850632
0003d0 fa 9f 15 3e 81 09 b3 bd 43 56 80 bc 10 92 91 bd
       0.14611807 -0.08742047 -0.015666133 -0.07107937
0003e0 37 e4 d2 3c 74 3d 35 bd 1e a9 13 3b 2a d3 90 bd
       0.025743587 -0.04424806 0.0022531222 -0.07071526
0003f0 f6 54 96 bd 27 e4 ab bd 19 48 a4 bd 74 55 83 bc
       -0.07340424 -0.08393126 -0.08021564 -0.016031958

static_ll.0.bias f4 [128]
000000 a6 ac e7 3d 2d aa cc bd f7 64 ba 3c 82 86 4b bd
       0.11312227 -0.09993396 0.022753222 -0.049688824
000010 83 9c ec 3d 46 00 b3 3d 80 5e 81 bd 01 31 00 3e
       0.1155329 0.087402865 -0.063168526 0.12518694
000020 75 b2 40 3c 7f c4 0e 3e f3 d3 05 3e 3d 3c 4a bd
       0.0117612975 0.13942145 0.13069133 -0.049373854
000030 94 17 f2 bc 57 b6 cb 3d 35 50 b0 3c 8e b8 f9 3d
       -0.029552259 0.09946888 0.02152262 0.12193404
000040 6f f6 f9 3d 71 02 b2 bd a1 09 10 3d e7 4f a1 3d
       0.122052066 -0.08691872 0.035165433 0.07876568
000050 76 5f c1 3d 81 7b 82 3c 68 bd 95 3d 83 30 1a 3e
       0.09442036 0.015928032 0.07311517 0.15057568
000060 21 69 eb 3d 9a 30 e0 3d 0c 6b 48 bd 52 6e 90 bd
       0.11494661 0.1094677 -0.048930213 -0.07052292
000070 fc 05 83 bd 40 90 e9 3d 94 97 f4 bc c7 1b 92 bd
       -0.06397626 0.11404467 -0.029857434 -0.07134204
000080 fb 1d 8a bb e0 88 9a 3d d0 0d f0 3d f6 1f a9 bd
       -0.0042149997 0.07545638 0.117213845 -0.08258049
000090 00 82 07 3e 5a 31 ca 3d 68 5f d4 b6 38 ea 9d 3d
       0.13233185 0.09872694 -6.329199e-06 0.07710689
0000a0 6b ec 30 3b cf 8f 1c bc 07 87 50 bc b2 02 95 bd
       0.0026996385 -0.009555771 -0.0127275055 -0.07275905
0000b0 f1 48 6c bb 62 ac d5 bc 0a 48 98 bd 93 6c 4c bd
       -0.0036054219 -0.026083175 -0.07435615 -0.049908232
0000c0 ed 6c a6 bc 2d 61 dd 3d 76 85 fd 3d f8 d5 04 3d
       -0.020315612 0.108095504 0.12378971 0.03243062
0000d0 f0 72 18 3d 57 43 12 3e 37 7e eb bc 34 60 a2 3d
       0.037218988 0.142835 -0.028746707 0.079285055
0000e0 11 f4 09 3e 63 df c8 3d b8 5f e5 bd 91 64 ab bd
       0.1347201 0.09808233 -0.111998975 -0.08368791
0000f0 cb 6d 11 bd 8e 0c c5 3d c9 4d 69 bd 5c 78 94 bd
       -0.035505097 0.09621535 -0.056958947 -0.07249519
000100 77 57 3f bd 34 8e 13 bd f1 c1 47 3d 04 7e 82 bd
       -0.046714272 -0.036024287 0.04876894 -0.06371692
000110 49 c6 da ba 77 0a 5a bc bf 09 46 3d cc 81 7d 3d
       -0.0016691174 -0.013308159 0.04834914 0.061891362
000120 85 ed d2 bb 5b 67 26 bd a2 60 54 bd 3b b7 3f 3d
       -0.006437006 -0.04062591 -0.05184997 0.0468056
000130 00 94 60 3c dc 97 97 3c 94 a0 e5 bc 82 c7 34 3c
       0.013707161 0.01850503 -0.028030671 0.0110338945
000140 cb b8 38 3c ff e5 be 3d 27 29 92 bd f5 1f da 3b
       0.011274527 0.09321212 -0.071367554 0.0066566416
000150 87 3c 9e bd 3b 8a 92 3b d4 a5 90 bd 5b e9 1a 3d
       -0.077263884 0.0044720448 -0.07062879 0.0378202
000160 a5 bd 2a 3e b8 f3 91 bd a4 0a e1 3d ec 43 2f bd
       0.16673906 -0.07126564 0.10988358 -0.042789385
000170 22 67 c3 bd b1 0a 2d 3d e6 3e a0 bc 39 f5 75 3a
       -0.095411554 0.042246524 -0.019561242 0.00093825493
000180 30 b7 8c bd 91 0f 9d 3d b9 40 a1 3c fd 3c 3e bb
       -0.06870878 0.07668985 0.019684182 -0.002902805
000190 03 fa e9 3d c6 f3 93 bd 06 30 5b 3d 38 78 83 bd
       0.11424639 -0.072242305 0.053512596 -0.06419414
0001a0 85 36 ab bd 47 41 24 bd f5 74 f7 3d 44 ed da 3d
       -0.08360008 -0.040101316 0.12082855 0.10689786
0001b0 f7 0e 53 3d bb 48 15 3d 20 72 29 3d a6 cb 79 bc
       0.051527943 0.036446314 0.041368604 -0.0152463075
0001c0 ab cf e1 3d 25 90 95 bd 24 a8 54 3d fe f0 10 bd
       0.11025938 -0.07302884 0.051918164 -0.035386078
0001d0 38 c5 41 3d 8b 06 68 3d 24 f8 84 3d 12 96 db bd
       0.047307223 0.056646865 0.064926416 -0.10721983
0001e0 a4 01 9c 3d 3b f4 76 bc e9 20 eb 3d 34 0d 8c bd
       0.076175004 -0.0150728775 0.114808865 -0.06838456
0001f0 34 a4 a5 3d ff 50 f5 bd a0 08 fc 3d 2f 8b 47 3c
       0.0808796 -0.119783394 0.123063326 0.01217918

static_ll.2.weight f4 [64, 128]
000000 c9 2e 20 3d 96 e5 8d bd 45 12 27 3d 78 c2 8d 3d
       0.039107118 -0.06928556 0.040788908 0.069218576
000010 bf ec be 3d 1c 16 32 3c 7d ba 79 bd 67 46 05 bd
       0.093224995 0.010869529 -0.060968865 -0.032537844
000020 b8 2a a4 bd d0 ee 78 bb f3 61 c1 bc 16 d3 08 3b
       -0.080159605 -0.003798414 -0.023606276 0.002087777
000030 71 60 97 bc 9a 6d a2 3b 57 1f 41 3d 1c 68 b6 3d
       -0.018478604 0.004956913 0.04714903 0.08906576
000040 17 7b 5b 3d d7 82 2e bd 33 13 d3 bc 67 5d 2f bd
       0.053584184 -0.042605247 -0.02576599 -0.042813685
000050 7f b6 0c bd d0 7e 8e 3d 76 d7 6a 3d 65 1a dd 3c
       -0.03435373 0.06957781 0.057334386 0.026990125
000060 53 39 98 bb e5 4d 46 3d 24 a6 71 bd ea 1d bb bb
       -0.0046455055 0.04841413 -0.058996335 -0.005710353
000070 2d ea 34 3c d7 be 9b bb 69 14 03 ba b2 2c 93 bd
       0.01104216 -0.0047529745 -0.0005000295 -0.07186259
000080 88 33 af 3d 0d eb 18 bd 1a fc 38 bc 6c 5a 7d bd
       0.08554751 -0.037333537 -0.011290574 -0.06185381
000090 f0 06 0d 3e ce 20 0a 3d 5a ba 77 3c 47 44 35 bb
       0.13772178 0.03372269 0.015120113 -0.0027659105
0000a0 c5 3c 2a bd 4d 9b 39 3d e4 45 89 3b f3 48 b7 3d
       -0.04156186 0.045314122 0.00418924 0.08949461
0000b0 d9 9e 3b 3d 05 ef 87 bd ad 26 7b 3d 65 f6 6d 3d
       0.045805786 -0.06637386 0.06131618 0.05809631
0000c0 d0 81 2d 3d 85 19 1f bc 7e a9 fa bc 94 1d 8b bd
       0.042360127 -0.009710674 -0.030598398 -0.06792751
0000d0 f2 0f 18 3b c1 98 9c 3d 8f 10 0a bd 21 28 a5 3d
       0.0023202864 0.07646323 -0.033707198 0.080642946
0000e0 64 8e 0c 3d 2b 70 c7 bd f3 ea 4a bd a8 b5 83 3d
       0.03431548 -0.09738191 -0.04954047 0.064311326
0000f0 27 82 c6 3d f7 9d a9 3d b6 cc 8d 3c a0 90 7f bb
       0.09692793 0.082820825 0.017309528 -0.0038996115
000100 f5 68 c2 3b 77 d1 34 bc f3 d2 b3 3d cb 9d 1b bd
       0.005932922 -0.011036268 0.0878047 -0.03799228
000110 ca 46 cc bc 30 65 84 3d 0f 8c 8b 3b d3 a2 7f bd
       -0.024936099 0.064646125 0.0042586396 -0.06241114
000120 10 52 1e 3d 88 b0 d2 3c e3 ea 15 3c 8a b9 89 bc
       0.03865248 0.025718942 0.00915024 -0.016812105
000130 ff e1 91 bd e5 2d ea bc 1e 01 3b 3d a0 b0 dd bc
       -0.071231835 -0.028586337 0.045655362 -0.02706176
000140 76 83 07 3d 1f 09 7b 3d e8 36 ca 3c b5 0b aa 3b
       0.033084355 0.061287995 0.024684384 0.005189384
000150 dc 15 91 bc fa d3 18 bc 15 84 96 bd 7e 0e a3 3b
       -0.017710619 -0.009327883 -0.073494114 0.004976093
000160 d3 52 81 3b 70 c6 47 bd 29 bb 81 bd fc 85 8a bd
       0.003946641 -0.04877323 -0.06334526 -0.06763837
000170 a7 68 72 3d 44 3a 93 3d 9e c6 38 bd 4f c6 94 bd
       0.059181836 0.07188848 -0.04511129 -0.07264387
000180 5a c2 74 bb 02 3b e2 3c c3 75 5b 3d 2d 0a 96 3d
       -0.0037347288 0.027616028 0.053579103 0.073261596
000190 ac 4d 9f 3c 3a 59 5f 3d 28 56 4c 3d f2 d0 ab 3d
       0.019446217 0.054528452 0.049886853 0.083894625
0001a0 3f ed 49 3d f1 ba f4 bc fe 06 a8 3d a6 30 67 3d
       0.04929852 -0.029874297 0.08204459 0.05644288
0001b0 1b fb ba 3c a9 27 9c 3d a3 90 b3 bc 03 4a 65 bd
       0.022824815 0.07624752 -0.021919554 -0.055978786
0001c0 7f 14 a1 bb 2c 2d 5b 3d a6 6a ca bc b3 e4 a3 3d
       -0.0049157734 0.053509876 -0.024709057 0.08002605
0001d0 6f e0 bd 3d 8a f3 e8 3c 0e 02 07 3a 61 be cc bc
       0.09271323 0.028436441 0.00051501475 -0.024993123
0001e0 03 c8 fc bc df 4a 35 3d 28 04 b2 3d 4b 11 8b bd
       -0.030857092 0.044260856 0.08692199 -0.06790408
0001f0 a6 8d c1 3c 54 2e a0 3a 03 af d0 3d a2 63 18 3d
       0.023627114 0.0012220838 0.10189631 0.037204392
000200 1a 11 28 3d 56 2e 2b bd 2d 1e 74 3c aa 56 81 bc
       0.041031934 -0.041792236 0.014899773 -0.015788395
000210 3a 9b 41 3d 0c a4 9a bd 27 e0 05 3d f1 d1 52 3d
       0.047267176 -0.07550821 0.03268447 0.051469747
000220 54 6a c1 3c 40 15 be bc b1 5b 4a 3d 99 ef 04 3e
       0.023610272 -0.023203492 0.04940385 0.12982024
000230 a8 12 e9 3c 4e 7a f9 3c 55 7e ac bb ea b7 82 3d
       0.028451279 0.030453827 -0.0052640834 0.06382735
000240 ea 74 98 bc 9f 2d 6a bc e5 df af 3d 61 05 4a 3d
       -0.018610436 -0.0142931035 0.08587626 0.049321536
000250 77 ce 89 bd 61 bf cc 3d b5 7f 79 3d 1b 93 87 bd
       -0.06728833 0.0999744 0.060912807 -0.06619855
000260 ee 2e da bb 3a b5 0d 3d 5e d0 03 3d b0 9c 08 3d
       -0.0066584265 0.03459666 0.032181136 0.033352554
000270 ed 9c 98 bd 3c bf c0 3d b7 df 83 3c b9 7c 97 3d
       -0.07451806 0.09411475 0.016097886 0.07396836
000280 74 1b e2 bc 7e 0d e8 3b 54 91 12 3d 70 3c 53 3d
       -0.027600981 0.0070816865 0.035783127 0.05157131
000290 ae ab 9a 3d 34 46 5a 3d 29 2c b7 3c 13 77 82 3d
       0.075522766 0.053289607 0.022359924 0.06370368
0002a0 1a 99 2e 3d 86 49 61 bd 89 6c 90 3b 95 70 b6 bd
       0.042626478 -0.055001758 0.0044074696 -0.08908192
0002b0 c3 85 59 3d a0 e5 59 3d 7b bf 86 3d 4a b3 97 3d
       0.05310608 0.053197503 0.06579491 0.074072435
0002c0 f6 2f c7 bd 42 e9 ea 3d b9 02 59 3d 83 e5 0a 3d
       -0.09725945 0.11470272 0.052981112 0.033910286
0002d0 c5 8c 55 bd ed 94 66 3d a9 2a d3 3c 93 82 ab bd
       -0.0521362 0.05629437 0.025777178 -0.083745144
0002e0 e7 e0 24 3d a6 00 0e be f5 d6 a4 bd 96 a6 05 3c
       0.040253546 -0.13867435 -0.08048812 0.008157393
0002f0 31 65 f5 3d d7 76 85 bc 56 bf cd 3c eb 98 4d bb
       0.11982191 -0.016292019 0.02511565 -0.0031371664
000300 fc be 68 3c 8d a9 01 bd 00 c3 c9 3d 1b e7 19 3d
       0.0142056905 -0.031655837 0.098516464 0.037573915
000310 0c 25 cd bd 02 8d 24 bd eb 2d 3e 3d 8f 8c b4 bd
       -0.10016832 -0.040173538 0.04643051 -0.08815872
000320 a8 b7 6d bc 3e 2e 27 bc 42 a4 c0 3c ee 2c ea bc
       -0.014509119 -0.010203896 0.023515824 -0.028585877
000330 22 97 a4 3c a2 2c 9d bb 3a 84 0d bd d0 d0 99 3d
       0.020091597 -0.0047965804 -0.03454993 0.07510531
000340 b1 0c 8e bc 81 39 6f 3d c7 3a d5 bd 06 36 43 3c
       -0.017340036 0.05840445 -0.104116015 0.011914736
000350 eb 8b b3 bd 34 02 12 3d 48 8d a5 3d f6 d6 55 bd
       -0.087669216 0.035646632 0.08083588 -0.052206956
000360 ff 42 ba 3c 34 54 d2 3d 4a ea 5b bd a0 b0 8f bd
       0.022737024 0.10269967 -0.053690232 -0.070161104
000370 db 38 7c 3d f0 5f 9d 3d 29 0b cf bb 32 18 c5 3d
       0.06157766 0.07684314 -0.006318469 0.096237555
000380 51 f7 ae 3d 1d df b5 3d 89 78 c9 3d bb 74 da bb
       0.085432656 0.08880446 0.098374434 -0.0066667474
000390 74 93 33 3d fd 9f 1d bd d3 0c b1 3b 4f 51 a0 3b
       0.043841794 -0.038482655 0.00540314 0.0048925052
0003a0 66 da 37 bd b5 e2 fd 3c 38 18 1f 3d 9d d0 44 3d
       -0.044886015 0.030991891 0.038841456 0.04805051
0003b0 0d cb 66 bd 90 5b 39 bd 2a 4c e3 3a ca e9 48 bb
       -0.056345988 -0.045253336 0.0017341424 -0.0030656927
0003c0 b5 1e 1d bd d7 28 a6 bd 22 c3 4e 3c db a4 e3 3c
       -0.038359363 -0.08113258 0.0126197655 0.02778857
0003d0 44 b0 8f bd bc f2 bc 3d d2 31 9b 3d 96 d8 af bc
       -0.07016042 0.092259854 0.07577862 -0.02146558
0003e0 1e f7 76 bd 45 75 f8 bc 3c b3 ad bd b5 9f 62 bc
       -0.060294263 -0.030329356 -0.08481452 -0.013832022
0003f0 9e ea cd bc 5d 7f 61 bb 41 4d 02 bc 5d c0 19 bd
       -0.025136288 -0.003440819 -0.007952989 -0.037536968

static_ll.2.bias f4 [64]
000000 60 c9 77 3d 8e aa 17 3d 19 3c ea bc 92 3c 7d bd
       0.06049478 0.037027888 -0.02859311 -0.061825342
000010 a6 2e 19 bd 43 8e 16 3d 6a c3 b6 3c c5 24 36 bc
       -0.037398003 0.036756765 0.022309978 -0.011117165
000020 01 dd 34 3d 00 b5 84 bd 83 38 aa 3d fc a6 e1 bc
       0.04415608 -0.064798355 0.0831156 -0.027545445
000030 0b 3d ec bb 42 a8 9f 3c 40 db 98 3d d0 bc cb 3d
       -0.0072094253 0.019489411 0.074636936 0.099481225
000040 15 2d ab bd ce 91 a4 3c 9a 12 ab 3d 69 5d 81 bd
       -0.08358208 0.020089056 0.08353157 -0.06316645
000050 98 3c ea bc e8 37 a2 3b 82 1c 6d 3d 1a ca b7 3d
       -0.028593346 0.004950512 0.057888515 0.08974095
000060 44 4d 62 bc cc f7 ba 3d 5d 52 79 3d 16 3f af bc
       -0.013812367 0.09129295 0.060869563 -0.021392386
000070 a5 bd 86 3c 74 21 9a 3c a1 e0 82 3d 35 f1 ca 3c
       0.016447851 0.01881478 0.06390501 0.02477322
000080 56 26 30 bd 15 48 97 bd a9 77 bb 3d 10 0f 11 3b
       -0.04300531 -0.073867954 0.09153683 0.0022134222
000090 3b 6e 40 3d 22 dd 44 bd 08 9a 97 bc 67 bf df 3c
       0.046980124 -0.04806245 -0.018506065 0.027312947
0000a0 7f 88 df 3c ed 38 73 3d 10 9d 0a bc f0 ea 9e 3c
       0.027286766 0.05938046 -0.008460298 0.019399136
0000b0 a1 3f a3 bb 0a c7 a1 3d 12 d7 99 bc cb 12 d6 3b
       -0.0049819504 0.07899292 -0.018779311 0.006533002
0000c0 17 2d 4d 3d c4 3a 66 3c a7 59 1d 3d 84 a9 db 3c
       0.05009183 0.014052097 0.038415577 0.02681423
0000d0 51 a2 1c bd a0 fe 76 3d 4e 56 99 3d ee f5 73 3d
       -0.038240734 0.060301423 0.074871644 0.05956071
0000e0 c3 c1 f4 bc 0c 9f bd 3d 1b ad 0a bd 68 08 c6 3d
       -0.029877549 0.092588514 -0.033856492 0.09669572
0000f0 f6 e4 a0 3d 82 85 e0 3c 60 dc 38 bd 54 4e cd 3d
       0.07856171 0.027407411 -0.04513204 0.100247055

glu_encoder.rnn.weight_ih_l0 f4 [48, 2]
000000 4b ce 3f 3e 98 08 23 be 80 21 34 3e 8d a0 37 be
       0.18731038 -0.15921247 0.17590904 -0.17932339
000010 66 98 48 3e 90 98 cb 3d 6b a1 a9 bd cd 3e 27 be
       0.19589385 0.09941208 -0.08282741 -0.1633255
000020 7e 33 29 be d4 b9 6d 3e 3b 63 7a 3e 79 77 41 3e
       -0.16523549 0.23215419 0.24451916 0.18893231
000030 ca ef 2e be 2a bc 9c bc db ed a8 3e 57 54 9d be
       -0.1708366 -0.019132692 0.3299397 -0.3072841
000040 93 91 0f be 82 a5 7e be 5d fc 8a 3e c8 57 39 be
       -0.14020376 -0.24867824 0.27145663 -0.18099892
000050 46 ba e5 3d d4 3a 82 3d 24 63 cc 3d ce 44 83 3e
       0.112171695 0.06358877 0.09979847 0.2563843
000060 89 9a 85 3e 70 5e e5 bd f5 62 8c 3d 79 df 2a 3b
       0.26094463 -0.11199653 0.06854812 0.0026073141
000070 01 c0 25 3d 7c 46 6e bd 35 f4 5f be 6e cc 9d bd
       0.040466312 -0.058172688 -0.21870501 -0.077050075
000080 13 f8 6b 3e 14 4c f7 bd c4 3d 41 3d 4a 9e 4a 3e
       0.23043852 -0.120750576 0.047178045 0.19786945
000090 0d 3a bb bd 54 f0 8e be 7f 25 a5 ba e9 08 4d 3e
       -0.09141932 -0.2791773 -0.0012599676 0.2002293
0000a0 51 e1 7f bd d6 49 ce 3d cd d3 36 be 32 40 84 bc
       -0.062470738 0.10072677 -0.17854233 -0.016143892
0000b0 11 81 9a bd 53 c3 9e 3d 8b cf 6e 3e ed 55 43 3e
       -0.07544149 0.07752099 0.23321359 0.19075747
0000c0 6e 86 18 3d 13 4b a2 bd d0 55 d4 be 1d 87 9b 3e
       0.037237577 -0.079244755 -0.4147172 0.3037652
0000d0 2d 89 94 be cf 66 50 bb d9 87 f0 3c dd 4d a4 bd
       -0.29010907 -0.003179956 0.029361652 -0.08022664
0000e0 10 3b 61 3e 9c 42 5c bd b9 04 a9 3d 9a 76 92 bd
       0.21995187 -0.05377446 0.08252854 -0.07151528
0000f0 5e 4d 79 3e a0 48 90 bc 47 29 83 bd 71 c8 2e be
       0.2434592 -0.017612755 -0.064043574 -0.1706865
000100 eb 0d 12 3e ad 90 e6 bd 37 3d 01 be 15 3b e9 3d
       0.14263122 -0.112580635 -0.12621008 0.11388222
000110 6d b1 d8 3d 7a 0e fa 3d 41 da 7b 3e 4a 58 91 bd
       0.10580716 0.122097924 0.24594976 -0.07096918
000120 a8 47 c0 bd 43 1f 73 be 32 a6 8b 3e 8e fa 3f be
       -0.09388667 -0.23742394 0.27275234 -0.18747923
000130 11 4e 19 3e 8c 15 56 3d 5a 06 0b 3e 2a a8 72 bd
       0.14971186 0.052266642 0.13576642 -0.059242405
000140 87 d0 05 3e ed b7 8b bd c6 be 6e 3e 45 81 49 3e
       0.13067828 -0.068221904 0.23314962 0.19678219
000150 6b 9f f2 3d 85 c0 92 3e e6 9f 7a bd 41 24 ee bd
       0.11846813 0.28662506 -0.061187647 -0.11628009
000160 23 6f 1f be 80 c0 a6 bd f2 bb 84 be 14 75 60 3e
       -0.15569739 -0.08142185 -0.2592464 0.21919662
000170 0d 23 91 3e 13 de 9e bd f2 97 79 3d 19 57 83 3e
       0.28347054 -0.07757201 0.060935922 0.25652388

glu_encoder.rnn.weight_hh_l0 f4 [48, 16]
000000 09 11 28 be 4d fe 6f be 1a 1b b6 bd 15 87 14 3e
       -0.16412748 -0.23436852 -0.08891888 0.14504655
000010 03 3d c2 3d 6f 76 86 bd a8 72 84 be 6d 7c 57 3e
       0.09484293 -0.06565558 -0.25868726 0.21043558
000020 38 df 89 3d 8f ea 4f 3e 00 fc 39 be 07 c5 2f be
       0.06732029 0.20304321 -0.18162537 -0.17165004
000030 7a 96 64 bd aa 88 11 be d4 90 12 3e 24 87 95 bd
       -0.055807568 -0.1421229 0.1431306 -0.07301167
000040 ff 7f 14 3e 50 79 05 be 9c e5 3c 3e 66 f6 50 be
       0.14501952 -0.13034558 0.18446964 -0.20406494
000050 c7 f4 32 be a5 f7 85 3e 4a 05 66 3d 4b 00 aa 3d
       -0.17476188 0.261655 0.056157388 0.08300837
000060 09 53 4c be f8 11 92 3e 40 b0 84 bc 9d 63 84 3d
       -0.1995355 0.28529334 -0.016197324 0.06464312
000070 33 ce b6 3d 96 30 26 be 42 9c 3a be 3e a8 e6 3d
       0.08926048 -0.16229472 -0.1822367 0.112625584
000080 07 b7 1f 3e 5d 03 1f be f3 1a f1 bd fe 8d 56 be
       0.15597163 -0.15528627 -0.11772718 -0.20952603
000090 46 33 dc 3c b4 06 78 3d 9e ae 2d be de f6 1e 3e
       0.026879918 0.060553268 -0.16961142 0.1552386
0000a0 47 fc 0a 3e 78 2b 95 bd 13 4f 80 bd 03 4c 1e 3e
       0.13572799 -0.07283682 -0.06265082 0.15458684
0000b0 07 77 c3 bd 0a c1 1f 3e 9b 72 4c be ea 42 2e 3e
       -0.09544187 0.15600982 -0.19965594 0.17017713
0000c0 f5 2a 32 3e c2 58 57 be 88 dc 25 3e d9 07 78 3e
       0.173992 -0.21029952 0.16197407 0.24221744
0000d0 42 68 76 bc 14 9d 31 3e 8b ca 59 3e a2 71 14 3e
       -0.015039505 0.17345077 0.2126867 0.14496472
0000e0 c6 1b 28 be de 49 7d bd 4b d9 07 be e0 7d 33 be
       -0.16416845 -0.061838023 -0.13266484 -0.17528486
0000f0 c8 2d f1 3d 63 23 35 3c 40 6f 08 3d a3 73 aa 3c
       0.1177631 0.0110558 0.03330922 0.020807093
000100 97 aa 91 bd de 7c 4a bc 9c d7 70 3d e6 fd 15 bd
       -0.071126156 -0.012358872 0.05879937 -0.03661909
000110 dd ec da 3c 15 4b a5 bd ee 62 9c 3e 4e e7 0d 3e
       0.026724273 -0.080709614 0.30544227 0.13857767
000120 77 01 01 3d 05 f5 03 3e 27 64 56 3d 60 14 9d be
       0.031495538 0.12886436 0.052341606 -0.30679607
000130 53 b8 97 be 41 6a c1 3d b0 86 25 3d d0 93 cb bd
       -0.29632816 0.094440944 0.04041165 -0.09940302
000140 9a db 9c 3d 27 c8 51 3e 8b 4c 9b bc e4 a3 bf 3c
       0.07659073 0.20486508 -0.018957397 0.023393579
000150 87 38 f3 3c 5e dd 55 bd 85 89 79 bd 3c 85 42 3e
       0.02969004 -0.052213065 -0.060922164 0.18996137
000160 3a c6 26 3d 04 31 58 3e 24 ba 41 be 46 bc 59 bd
       0.040716387 0.21112448 -0.18918663 -0.053158067
000170 bb 13 2e be a5 7a 6b be 53 cf 84 bd 6a 79 82 bd
       -0.16999714 -0.22996004 -0.064848565 -0.06370814
000180 94 b4 4c bd 77 af 21 3e 91 d1 17 3e c0 29 7e 3e
       -0.0499769 0.15789591 0.14826037 0.24820614
000190 03 44 26 3d f8 27 80 3e d7 19 7f bd 3e 8e 5a 3d
       0.040592205 0.25030494 -0.062280502 0.05335831
0001a0 98 84 60 3e 38 09 38 3d 04 00 2a be a5 3e 3a 3e
       0.2192558 0.044930667 -0.16601568 0.1818796
0001b0 fb cf 0c 3e 16 6e 44 be 27 2a f4 3d bd 46 51 be
       0.13751213 -0.1918262 0.119221024 -0.20437141
0001c0 3c ac 04 3e ce dc 41 be f0 fa 78 bc b8 b6 e2 3d
       0.12956327 -0.18931887 -0.015196547 0.11070007
0001d0 4f 42 76 be a9 98 35 3e fe e6 86 bd 3a 1b a2 bc
       -0.24048732 0.17734016 -0.06587027 -0.019788373
0001e0 b3 c4 02 be ef 3c 2d 3e 70 45 b1 3d 79 66 7e be
       -0.12770347 0.16917776 0.08655822 -0.24843778
0001f0 77 31 9f be 0f 80 98 be 33 22 82 3e fb a2 5b bd
       -0.31092426 -0.297852 0.25416717 -0.053622227
000200 2c 04 80 3c d7 f6 4c 3e b8 82 84 3e f7 d4 2f be
       0.01562699 0.20016037 0.2588098 -0.17171083
000210 fe d8 3a be cb bf fe 3d ac b3 9a bc 1d 9b 75 be
       -0.18246838 0.12438925 -0.018884502 -0.23984952
000220 bf af f3 bb 2d 4a b1 3d 18 4c 9c bd f6 3b 2d 3e
       -0.007436722 0.08656726 -0.07631701 0.16917405
000230 f7 1b 53 be e4 d7 d5 bd 81 5f 59 3e 73 8b d3 bc
       -0.20616136 -0.104415685 0.21227838 -0.02582333
000240 73 af 9d 3e a3 5e e8 bd 8a bc 4f 3e f2 ce 1f be
       0.3079792 -0.113461755 0.20286766 -0.15606287
000250 9d 42 68 be 18 34 1c be 00 fa b3 3d c6 08 bd 3d
       -0.22681661 -0.15254247 0.08787918 0.09230189
000260 f5 65 e0 bd d5 b1 d5 bd e0 28 de 3c 48 09 e7 bd
       -0.10956947 -0.104343094 0.0271191 -0.11281067
000270 03 00 d8 bc 1d 39 cb 3a 12 50 c9 3d 05 54 13 3e
       -0.026367193 0.0015504692 0.09829725 0.1438752
000280 22 d6 5e 3e 1b 07 ad bd 75 7c 7e be 59 c1 3b 3d
       0.21761373 -0.08448621 -0.24852164 0.045838688
000290 de 12 61 3e ee 25 c4 3d 27 20 56 3d fb 57 19 3e
       0.21979854 0.09577547 0.052276757 0.14974968
0002a0 12 e0 8f 3c 15 bc a1 bd eb ad f3 bd 63 3e 27 3e
       0.0175629 -0.07897202 -0.118984066 0.16332392
0002b0 a8 c9 f9 bc 05 5c 24 3d e5 56 03 3e 07 84 47 bb
       -0.030491665 0.04012682 0.12826116 -0.0030443685
0002c0 b1 b4 1b be d9 9e d8 3d 19 5a 4c 3d c7 21 0e 3e
       -0.15205647 0.10577173 0.04989061 0.13880073
0002d0 65 5d 93 3d 99 ac 15 bd 04 7a 19 bd 2f 43 02 be
       0.07195548 -0.036541555 -0.03746988 -0.12720941
0002e0 82 60 96 bd 83 85 1e be 66 b5 b4 bd 77 7a 34 3d
       -0.07342626 -0.15480618 -0.088236615 0.044062104
0002f0 6a ff 80 3e 3f 42 23 be 26 65 81 bd d2 3b 6f 3e
       0.25194865 -0.1594324 -0.06318121 0.23362663
000300 5b 6f 5f 3e c6 bd 96 3d 53 69 02 be 2a 0c 61 3e
       0.21819822 0.07360415 -0.1273549 0.21977296
000310 eb 03 95 be 2c 9c 0b bd 75 d4 19 3e 44 78 35 3e
       -0.29104552 -0.034084484 0.15022452 0.17721659
000320 fe 25 78 3e fe 5d 8e bd 91 a8 12 be c2 1e 30 be
       0.24233243 -0.06951521 -0.14322115 -0.17199233
000330 70 f2 83 3b 1f 78 d8 bd a4 65 93 3d 41 5d a2 3d
       0.0040267035 -0.10569786 0.07197121 0.07927943
000340 75 d7 a8 3d 28 0e dc 3d dc 3e ff 3d f7 a3 48 3e
       0.0824422 0.107448876 0.12463161 0.19593798
000350 dc 7b 01 be ed c9 05 be 10 2a 21 bd bc a2 01 3d
       -0.12644905 -0.1306531 -0.039346755 0.031649336
000360 10 3a 3b 3e ae 9b 66 3d 9e f3 ef 3d b0 68 f6 bd
       0.18283868 0.05630081 0.11716388 -0.12031686
000370 2b 35 88 3c a6 a1 31 3d 77 fa 06 be a1 bf 03 be
       0.016626915 0.04336705 -0.13181482 -0.1286607
000380 61 75 8f 3e 87 a2 2d 3e 57 af 51 be 7f 72 2b bd
       0.2801924 0.1695653 -0.20477043 -0.04185724
000390 da e3 5d 3c 7a b0 30 3e 8e 37 e6 bd 6e e5 b1 bd
       0.013543094 0.1725482 -0.11241065 -0.08686338
0003a0 a9 71 fe bd 01 e7 25 3e c4 69 0c be 56 79 00 3d
       -0.12424023 0.16201402 -0.13712221 0.031365715
0003b0 95 8c 21 3e d7 18 13 bb b4 93 92 3e 6e 44 30 be
       0.15776284 -0.0022445226 0.28628314 -0.17213604
0003c0 9b 32 4b bd ae c3 b9 3d 69 6e ee 3c 6d f1 ed 3d
       -0.049608808 0.09070526 0.029105382 0.11618314
0003d0 d3 ca 98 3e 5d 0c 92 be 17 f0 31 bd 90 af 00 3e
       0.29842243 -0.28525057 -0.04344186 0.12566972
0003e0 d1 c9 45 3c b2 46 64 be 5f 0b 1d be d6 e7 2b bd
       0.012072043 -0.22292593 -0.15336369 -0.041969143
0003f0 ec 0b ad bc da e1 68 bd f0 5a 61 bd 55 5f b4 bc
       -0.021123849 -0.056856014 -0.055018365 -0.022018114

glu_encoder.rnn.bias_ih_l0 f4 [48]
000000 47 58 42 3e d9 0d 1b be dc a3 f9 bc 72 33 23 3d
       0.18978988 -0.15142001 -0.030473642 0.039843984
000010 39 a7 40 be 8c f5 e2 bd 07 32 75 3d ce d4 95 bd
       -0.1881379 -0.110819906 0.059862163 -0.0731598
000020 6e 93 fc 3c c9 3e 01 3e 7f 7a a4 bc ef 99 fa bd
       0.030832019 0.12621607 -0.020077942 -0.12236392
000030 b1 a8 30 bd 6a b5 b8 3d 4f 85 90 bd b5 de 04 be
       -0.043129627 0.09018977 -0.070566766 -0.12975581
000040 80 ef 78 3e 58 0e 31 be 00 f0 95 3e 5c 06 56 be
       0.24310112 -0.17290628 0.29284668 -0.20900863
000050 76 fb 8c 3e 85 3c 8e be c4 29 8c 3e 8b 86 c4 bd
       0.275356 -0.27780548 0.27375615 -0.095959745
000060 4e e9 19 3d b3 bf 91 3d 3a 7c 62 3d a1 20 68 3e
       0.037576012 0.07116642 0.055294253 0.22668697
000070 fb a8 2a 3c 57 50 df 3c 22 77 e6 3d 65 40 a0 3d
       0.010416265 0.027259989 0.112531915 0.07824782
000080 87 65 82 3e c2 fa 59 3e 59 b1 39 be ac af 39 be
       0.25468084 0.21287063 -0.18134059 -0.1813342
000090 bb 0d 0e be 04 f2 07 be 66 83 66 be 1b cf 04 be
       -0.13872425 -0.13275915 -0.22511062 -0.1296963
0000a0 e1 1c a5 bd fa 74 51 3e 3c 05 b3 bb 17 12 fe bd
       -0.08062149 0.2045478 -0.0054632705 -0.12405794
0000b0 a6 57 be 3c 97 11 8a be cd 44 0c bd df ee e4 bd
       0.023235153 -0.26966545 -0.0342453 -0.111783735

glu_encoder.rnn.bias_hh_l0 f4 [48]
000000 fa 24 0e bd 50 f1 95 3e e5 38 5d 3e 27 3e 5a bd
       -0.034703232 0.2928567 0.21603735 -0.05328193
000010 18 15 17 be 59 19 54 bd 44 1f 32 be 0e d9 08 be
       -0.1475414 -0.051781986 -0.1739474 -0.1336405
000020 b0 58 da bd ff 38 9a bd 44 e9 16 3c 23 52 52 bd
       -0.10661447 -0.075304024 0.009210888 -0.051347863
000030 85 82 8b 3e 1f 41 39 be 97 d7 99 3d 19 dd c9 3d
       0.27248016 -0.18091248 0.075118236 0.09856624
000040 6c be 42 bd c0 eb 5f 3e fd 97 b9 3e a2 fd 54 3e
       -0.04754488 0.21867275 0.3624877 0.20799878
000050 14 4b 06 be 0b 2f 4b be c7 40 54 3e 43 70 dc 3d
       -0.13114578 -0.19842164 0.20727836 0.107636
000060 f9 6b 07 3e 42 62 ba be 16 b6 16 3e 88 46 64 3e
       0.13224782 -0.3640309 0.14717898 0.2229253
000070 c4 6c 32 3e dc 72 8a 3e 7f 22 c6 3d 48 5e b7 3e
       0.17424303 0.27040756 0.09674548 0.35814118
000080 22 f9 e7 3d b6 3d 90 3c d9 2a f7 3d 15 91 f8 3d
       0.11326815 0.017607551 0.120687194 0.12137047
000090 88 d8 65 be 98 87 c3 bd e4 c0 80 be 7b f3 31 3e
       -0.22445881 -0.09547347 -0.25147164 0.17378037
0000a0 5c c3 13 3e 99 95 dc bd cc 77 df bd d4 a5 37 be
       0.14429992 -0.10770721 -0.10911521 -0.17934352
0000b0 8f 76 9f be c2 52 7d be 24 42 b3 3d f6 60 4e be
       -0.3114514 -0.24738601 0.0875285 -0.20154175

glu_encoder.hid2lat.weight f4 [64, 16]
000000 d9 53 6e be 47 50 3f be ab 98 9b bd d7 a9 2b 3e
       -0.23274173 -0.18682967 -0.075974785 0.16764008
000010 9f 6b c2 3c a5 d4 23 3e 4c ef 08 be b8 cd 83 3d
       0.023732958 0.15999086 -0.13372535 0.06435722
000020 33 e4 07 bd 6e c2 6d be 5e bf 04 be 2c 69 ac bd
       -0.033176612 -0.232187 -0.12963626 -0.084184974
000030 c1 35 42 3e f1 a0 3e be cb ad 23 be eb e8 fb bd
       0.18965818 -0.18616082 -0.15984266 -0.12300285
000040 38 ec 05 3e 30 8c 1c 3e d6 9e 6b be 96 14 c7 3d
       0.13078392 0.15287852 -0.2300981 0.09720723
000050 33 d5 75 3e 55 8a 8b bb 35 c3 3f 3d db 71 b9 bd
       0.2400711 -0.004258434 0.046817023 -0.09054919
000060 41 a6 20 3e bc 31 1b bd 77 89 32 be b0 52 99 bd
       0.15688421 -0.037889227 -0.17435251 -0.074864745
000070 25 39 13 3e f3 34 d5 3d 2b bf 50 be 15 1a b9 bd
       0.14377268 0.1041049 -0.20385425 -0.09038178
000080 7f ea dc bd 10 a3 39 bc 22 9e fe bc 1a 56 81 3e
       -0.10786914 -0.011330381 -0.031081263 0.25261003
000090 ca 0a 8c bc 3a 5a ad 3d a2 2b 72 3e 67 00 62 3e
       -0.017094988 0.08464475 0.23649457 0.22070466
0000a0 b6 41 13 bd 22 36 7a 3e 4a 81 4c be 32 6a ad 3c
       -0.03595134 0.24434713 -0.19971195 0.021168802
0000b0 31 59 a9 3d 60 ab da bd 1f d9 fc 3d d2 fc 47 be
       0.08268965 -0.106772184 0.123461 -0.19530037
0000c0 27 42 24 3e d7 4e c9 bd 6d 89 63 3e 74 fa 74 3d
       0.1604086 -0.09829491 0.22220393 0.059809163
0000d0 9a e5 cb bd 6e 4c 27 3e e9 5c 94 bc cd e9 82 3e
       -0.099559024 0.1633775 -0.01811071 0.25569
0000e0 c6 39 40 be 63 6d d6 bd c3 a5 83 be ba 49 3e 3d
       -0.18772039 -0.104700826 -0.25712404 0.04645703
0000f0 a1 93 87 3c 90 e7 a9 bd ab 18 ed 3c b6 02 df bd
       0.016549887 -0.0829612 0.028942427 -0.10889189
000100 75 68 68 3e fb 0f f2 3d 3c a8 52 be 81 fc b1 3c
       0.22696097 0.11819454 -0.20571989 0.021726849
000110 58 de 40 3e aa 5b 52 3e 61 d4 4f 3e 9e 36 fa bc
       0.18834817 0.2054278 0.2029586 -0.030543622
000120 88 42 f8 3d 83 de c4 bd 2f e7 44 3e e9 af 96 be
       0.12122065 -0.09612753 0.19228815 -0.29431084
000130 0c ed 63 be a5 5f fe bd 63 2e bf bd 7a bd 6f 3e
       -0.22258395 -0.124205865 -0.093350194 0.23412123
000140 7d d0 07 be 86 c9 35 be 75 77 90 3e 2c 17 7b 3e
       -0.13263126 -0.17752656 0.28216138 0.24520558
000150 9e b9 1f 3d 2d e3 5e 3e 2a 10 47 3e 89 c0 72 be
       0.038995378 0.21766348 0.1943976 -0.23706259
000160 d4 2c 90 bd b7 41 14 3e 7d 8d e3 bd 1b 5f 1f 3e
       -0.070398 0.14478193 -0.11110971 0.15563624
000170 3f f2 f7 bb c2 e6 b0 bd e2 6a 14 be d1 61 e6 3d
       -0.00756672 -0.086377636 -0.14493898 0.11249126
000180 32 35 1e 3d 01 b0 1f be f8 26 a5 3d a3 53 4d 3e
       0.03862495 -0.15594484 0.08064073 0.20051436
000190 44 87 6a 3d f8 63 33 be 6f de 16 3e 68 13 4e 3e
       0.057257906 -0.17518604 0.14733289 0.2012459
0001a0 0d 91 c7 bd de c5 11 3e 95 57 87 3d dd 08 bb 3d
       -0.09744463 0.14235637 0.06608502 0.0913255
0001b0 3d ab be bd 7d aa 03 bd cf 9e 17 be 93 56 15 bd
       -0.09310005 -0.032145012 -0.14806674 -0.036459517
0001c0 c5 d8 f1 bd 1a 36 ce 3d 5f d0 3b 3e 5d c4 b1 bd
       -0.11808924 0.10068913 0.18341206 -0.086800314
0001d0 82 90 04 bd a8 04 20 be 8d cf ce bd e4 6a 18 3d
       -0.032364376 -0.15626776 -0.10098181 0.037211314
0001e0 ed f3 d9 bd eb f5 ee bd ba 69 87 be c0 57 0b 3e
       -0.10642228 -0.11667999 -0.2644785 0.13607693
0001f0 e3 a5 4c 3e 24 60 12 3e 1e 41 ff 3d 39 a3 54 3e
       0.19985156 0.14294487 0.12463592 0.2076539
000200 8a 63 45 3d 36 95 bb bd 81 3d 1a be ae 5f 65 3e
       0.04819063 -0.09159319 -0.15062524 0.2239978
000210 b9 e2 25 3e 30 45 47 be 8b 4b 39 be b9 28 42 be
       0.16199769 -0.19459987 -0.18095224 -0.18960847
000220 f8 bd 3a bd b3 ae 17 3e 65 bf 38 3e db 68 65 be
       -0.045591325 0.14812736 0.18041761 -0.2240328
000230 ae 12 c0 3c 8a 6b 58 3e 9a 1f 1b be 62 df 9f 3d
       0.023446407 0.21134773 -0.15148774 0.07806279
000240 b9 5e 32 3d 58 b6 6f be 02 d7 d2 3d 9b 59 37 3d
       0.043547366 -0.23409402 0.10294916 0.04476319
000250 ac c7 29 3d c7 d9 36 3e 5d 0f ea bd 5e 3e cb 3d
       0.041450188 0.17856513 -0.114287116 0.09924005
000260 ca e2 18 be 8a f0 f2 bd 89 4a 2e bd 80 d2 a7 3d
       -0.14930263 -0.118622854 -0.04255155 0.081944466
000270 b8 d6 c4 bd 64 59 9c 3d 5a bc c5 3d ab 18 3c 3e
       -0.09611267 0.076342374 0.09655066 0.18368785
000280 85 ad 0c 3e a4 21 61 be b7 e9 df 3d 23 36 91 3e
       0.13738067 -0.21985489 0.109332494 0.28361616
000290 2e 4d 13 3e 56 d9 28 3e ad 33 c8 3d c9 ad 86 bc
       0.1438491 0.16489157 0.097754814 -0.01644029
0002a0 1b 61 27 3e 31 b3 5a bc 65 5b 01 be 07 c4 1e be
       0.16345637 -0.013348387 -0.1263252 -0.15504466
0002b0 fb 92 25 be b2 fb da bc 42 91 6c 3e 80 f0 1d bd
       -0.1616935 -0.026731346 0.23102286 -0.038559437
0002c0 51 49 0a be d4 b1 08 be 65 f4 48 be 14 2f 93 bb
       -0.1350453 -0.13349086 -0.19624479 -0.004491696
0002d0 f4 46 fb 3d 27 27 56 bd 67 d2 dc 3c 18 1e 03 be
       0.122693926 -0.052283432 0.026955796 -0.12804449
0002e0 ce bb 7b be c8 bb 58 3e 3b 68 04 3e 48 62 80 3d
       -0.2458336 0.21165383 0.12930386 0.06268746
0002f0 f1 76 7e be a4 eb 53 3d 63 d6 7c be 5c ae 46 be
       -0.2485006 0.051738396 -0.24691157 -0.1940245
000300 21 8d 6c 3d 62 fe e1 bd 64 5f 24 3e b4 3d 48 3e
       0.05775178 -0.11034848 0.16052014 0.19554788
000310 17 3e 1d be be f0 35 bd 67 02 50 bd da 97 26 3e
       -0.15355717 -0.044419043 -0.05078354 0.16268864
000320 28 ff 8b 3e cc d1 5c 3e 69 f0 77 3d b0 73 28 3e
       0.27343106 0.21564406 0.060532007 0.16450381
000330 4e 3b 18 3e 3e 33 72 be 74 dd 07 3e 61 f0 f8 bd
       0.14866373 -0.2365236 0.13268071 -0.12155224
000340 9c 60 7b bd 01 74 37 3d 89 a5 99 bd c0 5a 43 be
       -0.06137143 0.044788364 -0.075022765 -0.19077587
000350 28 fa 6a be 47 c2 26 be 0e 41 80 be 18 a4 39 3e
       -0.2294699 -0.16285048 -0.25049633 0.18129003
000360 1d dc 77 3e 05 bc 23 be a8 51 24 3e 15 90 07 3e
       0.2420506 -0.15989693 0.16046774 0.13238557
000370 68 e5 d9 bd f6 76 89 bc 9c 25 41 be a8 64 69 3e
       -0.10639459 -0.016780358 -0.18862003 0.22792304
000380 5e 7e 28 3e bd ac a9 bd 06 4d e9 3d 58 76 d7 3b
       0.16454455 -0.082849 0.11391644 0.006575387
000390 64 96 1a 3c 36 08 0b 3e 32 33 6f 3d cf ba 92 be
       0.00943527 0.13577351 0.058398433 -0.2865815
0003a0 ce 35 88 be f0 a4 ec bc 47 5e 87 be 59 9e 2f 3d
       -0.2660355 -0.028887242 -0.26439115 0.04287562
0003b0 71 56 ed 3c 58 96 fa 3c a7 24 88 be d6 dc 26 3e
       0.028971883 0.030589268 -0.26590464 0.1629518
0003c0 74 50 53 be 3a 97 b4 3d c1 82 35 bc 54 72 3a be
       -0.20636159 0.08817907 -0.011078537 -0.18207675
0003d0 a8 86 4a 3d d0 62 59 3e a4 2e d3 bc ff 2f c1 3d
       0.049444824 0.212291 -0.025779076 0.09432983
0003e0 28 d8 f5 bd 21 b5 5c bc 91 88 ee 3d 91 70 32 be
       -0.12004119 -0.013470919 0.11647142 -0.17425753
0003f0 da ff 89 bc 49 fc 30 3c 57 65 88 bc 98 57 83 bd
       -0.016845632 0.010802337 -0.016649885 -0.064131916

glu_encoder.hid2lat.bias f4 [64]
000000 00 06 db 3c 72 8e 8b bd 64 24 46 be e1 f8 7e 3c
       0.02673626 -0.06814279 -0.1934982 0.015562267
000010 2a 5f 46 3d c4 f7 2d 3d 3b da 46 3e 14 24 b7 bd
       0.0484306 0.042472616 0.19419186 -0.08942428
000020 1e be 89 3c ad f9 04 3e a8 e1 7d 3e bb ae df 3d
       0.016814288 0.12985869 0.24793112 0.10921999
000030 d5 c0 82 3c a5 d5 1d bb 1c ec 3c bc 34 00 49 be
       0.01596109 -0.002408364 -0.011530902 -0.19628984
000040 ab 44 3a bd b8 b8 7d 3d c4 07 cc 39 74 90 60 3e
       -0.045475643 0.06194374 0.00038915698 0.21930104
000050 e7 9d a4 bd 7d 24 44 3e 5f 6e e4 3d 32 f6 9b 3d
       -0.0803793 0.19154544 0.11153864 0.076153174
000060 c9 58 22 3e fd 04 9f 3d b5 bf 88 3d 08 3a d4 3c
       0.15854181 0.07764623 0.0667719 0.025906578
000070 a1 03 21 be cc 24 64 3e e7 60 1c be c3 db 29 bd
       -0.1572404 0.22279662 -0.1527134 -0.041469347
000080 4e b8 75 be 42 11 87 be 84 be 3e 3e 34 95 e9 bd
       -0.23996088 -0.26380354 0.18627363 -0.11405411
000090 f6 34 74 3e b2 c7 48 bd d5 f3 5f be 04 d1 f1 bd
       0.23848328 -0.04901857 -0.21870358 -0.11807445
0000a0 95 62 1d bd 1e 6b 07 3c 22 2a 11 3e d8 f4 8f 3c
       -0.038424093 0.008265285 0.14176229 0.017572805
0000b0 08 53 8b 3e 74 8d 05 3e d5 30 e0 3d 0a 3e 54 3e
       0.27211785 0.13042241 0.10946814 0.20726791
0000c0 73 e2 28 be 22 5a be 3b 0c e0 4d 3e 85 53 5f 3e
       -0.16492634 0.0058090845 0.20104998 0.21809204
0000d0 21 20 8d 3c fc f9 cd bd d6 4a 3f 3d 06 56 5a bd
       0.017227234 -0.10057446 0.04670223 -0.053304695
0000e0 c6 20 86 be a0 36 42 be 08 66 7a be 9e 44 65 bd
       -0.2619688 -0.1896615 -0.24452984 -0.05597364
0000f0 91 27 59 be 0c 8c ed bc 35 b3 04 3d 22 e4 47 3e
       -0.212065 -0.028997444 0.032397468 0.1952062
