code/baseline/saved/GAMNet_learning_rate_0.0001_hidden_size_64_epoch_6000_batch_size_32/Epoch_1300_JA_0.6378_DDI_0.0877.model (torch, 455805 bytes, 29 tensors)

lab_embeddings f4 [32, 64]
000000 7a 51 a0 3e f4 f1 e0 3d 74 91 37 bf cd 38 d2 bf
       0.31312162 0.10983649 -0.7170632 -1.6423584
000010 e0 d9 2d bf 6f 42 bc bf 24 5b 94 3f b0 8c f6 3e
       -0.67910576 -1.4707774 1.1590314 0.4815421
000020 f6 c4 33 3f c3 ae 0f 3f 76 8e de bf ac c0 ad bf
       0.70222414 0.5612604 -1.7387226 -1.3574424
000030 97 ac fc 3e 3c 2d db be 01 49 28 3f 20 43 f9 3f
       0.49350426 -0.4280795 0.65736395 1.947361
000040 96 5d 29 3f ff cf 3a 3e 9d 1c b4 3e 36 38 fe 3e
       0.66158426 0.18243407 0.3517808 0.4965226
000050 4b a1 6d 3e fb bf 47 bf 33 3e 8c bf 76 c8 6d bf
       0.2320606 -0.78027314 -1.0956482 -0.92884004
000060 53 94 24 bf 39 a2 83 bf bf a5 32 3f a3 c9 14 c0
       -0.64288825 -1.0283881 0.6978416 -2.324807
000070 1a c7 bc be 41 53 50 3f 31 dd b5 3f 04 09 c2 3e
       -0.36870652 0.81377035 1.4208127 0.37897503
000080 99 12 0a c0 62 be d8 3f 20 27 7c be 73 e0 f1 bf
       -2.157385 1.69331 -0.246243 -1.8896621
000090 e4 77 e6 be 7a f0 21 bf b4 ae 90 bf e9 3d 69 bf
       -0.45013344 -0.63257563 -1.1303315 -0.9111009
0000a0 d2 49 fb 3e 64 2b d0 3e a6 c7 72 3f 1f d3 df be
       0.49079758 0.40658104 0.9483589 -0.4371576
0000b0 dd 09 b6 3e f4 c2 63 3f 8f 1f 0f 40 1b 7e 09 3f
       0.355544 0.8896935 2.2363012 0.53708047
0000c0 a4 dc 9e be c5 1f d3 be 02 88 85 3e 47 f2 05 bf
       -0.3102771 -0.41235176 0.26080328 -0.5232281
0000d0 a5 fd 3e bf e5 4f 4e 3e c5 92 1f bf be b6 3d 3f
       -0.7460578 0.20147665 -0.6233333 0.7410697
0000e0 6b 9e 86 be 98 6e 68 be f0 28 21 40 db 31 13 bf
       -0.26292738 -0.22698438 2.5181236 -0.5749795
0000f0 fd ae 8a 3d aa c8 b4 3e c4 27 eb 3f 19 74 20 3d
       0.067716576 0.35309345 1.837151 0.03917322
000100 61 ee 1a be c7 fb 25 bf f3 73 cf be 40 df bd bd
       -0.15129997 -0.64837307 -0.4051815 -0.09271097
000110 84 9e 57 3e 91 2a 12 3f ac 18 ed 3f 75 20 94 3e
       0.21056563 0.570962 1.8523154 0.28931013
000120 0a 68 86 bf c6 b2 9f bf 71 26 a6 bf e9 f1 89 3d
       -1.05005 -1.2476432 -1.2980481 0.06735594
000130 90 8f c1 bf 95 f5 89 bf 5b 85 59 3f 90 fc 6d bf
       -1.5121937 -1.0778071 0.8496911 -0.92963505
000140 9b 5d 35 be 4a 51 15 3f 26 f9 ba 3f 67 16 9a 3f
       -0.17711489 0.5832716 1.4607284 1.2038087
000150 f4 f8 c2 3e 12 13 07 bf 51 15 39 3e 06 e3 13 40
       0.3808056 -0.52763474 0.18074538 2.3107314
000160 4a 96 e7 bc ec f8 82 3f cc 1b af 3e 6b 7d 75 3f
       -0.028269906 1.0232215 0.34200895 0.958945
000170 e8 27 05 3d c3 f8 ec 3f d6 20 5f 3f b9 b6 e3 3d
       0.03250876 1.8513416 0.8715948 0.11118836
000180 5b 3f 43 bf 4d bd b4 bf d8 64 fb be 3b a9 06 3f
       -0.7626855 -1.412027 -0.49100375 0.52601975
000190 30 24 a2 3f e3 bc a3 be f1 2d 51 3e 49 b6 ab 3e
       1.2667294 -0.31980047 0.20427682 0.3353751
0001a0 19 b1 dc 3e 35 b4 98 bf f6 a2 34 3f 63 c9 28 3f
       0.43103865 -1.1929995 0.7056116 0.6593229
0001b0 f0 f3 cb 3f 6b 2e 86 be 0e 92 f8 bf 6d 77 21 bf
       1.5933819 -0.2620729 -1.9419572 -0.63072854
0001c0 87 60 30 3f 44 3d d2 bf 84 dc 3f 3f d0 63 16 3f
       0.6889729 -1.6424947 0.74945855 0.5874605
0001d0 2b 06 13 3f fe 35 e9 be e1 07 9c bf 61 fd 48 bf
       0.57431287 -0.45549005 -1.2189904 -0.78511626
0001e0 4e 86 f7 bf 23 42 52 40 27 06 3c 3e fb 36 c2 3e
       -1.9337862 3.2852867 0.18361722 0.37932572
0001f0 f3 c3 35 3f 87 65 74 3f f8 53 0b c0 17 b5 af 3f
       0.7100212 0.9546742 -2.177 1.3727139
000200 e2 ca 5d bf 49 85 85 be c2 43 cf 3f d4 34 32 be
       -0.866377 -0.2607825 1.6192553 -0.17402965
000210 79 bf 7e 3e 4b d3 7c bf ed fa 78 bf d7 0d 3e bf
       0.24877729 -0.9875991 -0.9725788 -0.7423987
000220 6b 0e 55 bf e1 3a 62 3f 73 e9 15 bc f7 bc 9b 3f
       -0.83225125 0.8837109 -0.009149897 1.2167042
000230 ff cd a3 be 5d 93 17 3f 91 a9 f4 be f1 e0 08 40
       -0.319931 0.59209234 -0.4778562 2.1387293
000240 be d5 4f bf df 13 52 3e ef 9a 4c 3f eb 0a c4 be
       -0.8118552 0.20515393 0.7992391 -0.3828958
000250 79 9d 4a bf 68 6e 09 3f 8f 45 c5 3f 31 10 44 bc
       -0.79146534 0.5368409 1.5411853 -0.011966751
000260 c1 e3 ad bf 9a 5c 73 be c7 6f 19 bf cc d1 44 bf
       -1.358513 -0.23765793 -0.59936184 -0.76882625
000270 8b 4e c0 3e 39 1c 87 be 29 c2 19 be 24 d8 40 3f
       0.37559924 -0.2638872 -0.15015472 0.75329804
000280 b5 cd 4e bf 9c f4 b0 3f f0 cf 9f 3e a2 85 02 3f
       -0.80782634 1.3824649 0.3121333 0.5098516
000290 a4 ff 3a 3f 16 f0 be 3e 5c 83 05 bc 6b 1e b8 3f
       0.73046327 0.37292546 -0.008148994 1.4384283
0002a0 a1 38 00 40 ac 79 51 be 48 41 cf 3e d2 4d 33 be
       2.0034564 -0.2045657 0.40479493 -0.17510155
0002b0 0c 8f 9f 3f 26 c2 9b be 13 d1 e2 be 37 53 34 bf
       1.246553 -0.3042156 -0.44300136 -0.70439476
0002c0 dc 70 bd be f8 ac 96 3e c1 ac 82 bf 29 5d b5 3e
       -0.37000167 0.2942884 -1.020897 0.35422638
0002d0 cf fa b4 bf ab ad b7 3e a9 40 8b 3d a0 be da bf
       -1.4139041 0.35874686 0.06799442 -1.7089424
0002e0 01 54 90 bc 24 61 50 3f e2 c0 80 3e 7c 55 fb bc
       -0.017618181 0.81398225 0.25147158 -0.03068041
0002f0 3b ec cb 3e 7c ff b0 bf fd 5f 5f bf a2 71 01 bf
       0.39828667 -1.3827968 -0.8725584 -0.50564015
000300 58 b4 74 bd db 90 1d bf e3 4e 67 3f 62 0d 8a bf
       -0.0597423 -0.61549157 0.90354747 -1.0785334
000310 6a 04 f5 bd f4 da 00 c0 69 12 b8 bf b1 7a 28 3e
       -0.119637325 -2.0133638 -1.4380618 0.16453053
000320 3c 8b 88 3e 83 7e 99 3f 78 30 ed be d8 95 84 bf
       0.26668727 1.1991733 -0.4632604 -1.0358229
000330 e3 b5 58 3f 20 fa fa 3f a3 59 60 3e 84 05 a5 bd
       0.8465254 1.9607582 0.21909194 -0.08057693
000340 82 30 82 3e 03 a2 11 3f 46 67 88 be c7 03 6b 3d
       0.25427634 0.56887835 -0.2664129 0.05737665
000350 9c 12 7b 3e 6a 9e ab bf 08 4a 20 c0 0a 9b c2 be
       0.24518818 -1.3407719 -2.5045185 -0.3800891
000360 94 ea 1b bf 95 35 6b bd d6 2e 10 40 ec 07 e4 bf
       -0.6090481 -0.057424147 2.2528586 -1.7814918
000370 b4 8d 11 3f 64 e2 68 3d 2d ff 8e be e9 55 cc 3e
       0.56856847 0.056856528 -0.2792906 0.39909294
000380 f7 f7 73 3e 81 36 9d 3f 2c 27 78 3f b5 44 a2 bf
       0.2382506 1.2282258 0.9693477 -1.2677218
000390 3f 78 08 3f db a6 3a bd f5 3b f6 3f d6 83 04 c0
       0.5330848 -0.045569282 1.9237047 -2.0705466
0003a0 de 19 42 3f ba dc a2 3e e7 0c 2b bd b0 c2 cb be
       0.7582072 0.31809026 -0.04176035 -0.39796972
0003b0 0b 85 42 bf 09 56 15 3f da 98 97 bf 83 29 5b 3f
       -0.7598426 0.58334404 -1.1843522 0.85610217
0003c0 21 63 27 bf ae 4f a6 bf a2 a9 ff 3e 33 e9 61 3f
       -0.65385634 -1.2993066 0.49934107 0.8824646
0003d0 0d a7 ad 3f ad bb fd 3e d3 10 f2 bf fe d3 3a 3f
       1.3566605 0.49557248 -1.8911384 0.72979724
0003e0 2e 51 1e 3f 48 3a b8 3f b1 2b 64 bf 48 0f 34 3f
       0.6184262 1.4392786 -0.8912917 0.7033582
0003f0 fb fc 8e 3f ac ae 52 be 8c 5f 22 3f c9 20 0b 40
       1.1170954 -0.20574445 0.6342704 2.173876

static_ll.0.weight f4 [128, 64]
000000 f5 02 c1 3d 70 b0 ac bd 42 7a ea bd b7 19 04 be
       0.09424392 -0.0843209 -0.114491 -0.12900434
000010 1f 41 7e 3d cb 5d 99 bd f0 34 de bd 00 13 fa 3c
       0.062073823 -0.07488593 -0.10849941 0.030526638
000020 40 96 7d 3d f7 60 81 bd 70 aa 32 bd 1b 42 87 bd
       0.061910868 -0.06317323 -0.043619573 -0.066044055
000030 6d aa 19 3e 08 56 87 bd 25 44 ea 3b 80 50 b2 bd
       0.15006419 -0.06608206 0.0071492367 -0.087067604
000040 68 a4 06 be 01 50 ce 3d c3 8b 81 bd 86 28 f7 bd
       -0.13148654 0.10073853 -0.063254856 -0.12068276
000050 b5 a1 26 bd ea 3e 91 bd 19 d5 14 be 80 34 e4 bd
       -0.04068156 -0.07092078 -0.14534415 -0.11142826
000060 46 e8 df 3d 1b f7 ee bb 8c 13 23 3d c0 f8 e4 bd
       0.109329745 -0.007292641 0.039813563 -0.11180258
000070 22 d5 63 3d 15 a3 a0 bd 2a 39 97 3d 74 b3 f8 3d
       0.05562318 -0.078436054 0.0738395 0.12143603
000080 ca 0e c5 3d 10 8a ca 3d 44 92 ab bb 05 ef f9 bd
       0.096219614 0.098896146 -0.005235942 -0.122037925
000090 4e 87 58 3d 9f 56 87 3d da ac 35 3d 75 43 1b bd
       0.05286341 0.066083185 0.044354297 -0.03790613
0000a0 88 3d 0c 3c ad 0d ab 3d 1b ea a1 3d e8 5b f7 3c
       0.008559592 0.08352218 0.0790598 0.030195192
0000b0 fe c7 96 bd b1 77 77 3d 33 b8 34 bd 3f 4f 80 bd
       -0.07362364 0.06041688 -0.04412098 -0.06265115
0000c0 b6 6a 32 bd 6a 00 00 be 3c a4 05 3e 68 d8 0a 3e
       -0.0435588 -0.12500158 0.13050932 0.13559115
0000d0 5b a9 27 3d c8 17 78 bc 16 18 37 bd b9 b6 fd bd
       0.040932994 -0.015142389 -0.044700705 -0.12388367
0000e0 17 9a a4 3c 3f 73 42 3c 37 40 2b bd 9e 7b dd 3c
       0.020093007 0.011868297 -0.041809287 0.027036484
0000f0 a8 14 04 be ae 2a dc bd 33 b3 2c bd 36 48 c3 bc
       -0.12898505 -0.10750328 -0.042163085 -0.023838144
000100 0d 92 cc 3b be b0 fa 3d 41 49 b4 bd 61 be cb 3d
       0.0062429965 0.12240742 -0.088030346 0.09948421
000110 a0 03 4a bc b6 c5 c6 bd 15 53 a7 3d d8 43 97 bd
       -0.012329966 -0.09705679 0.081701435 -0.07385987
000120 49 f4 ad bd 33 03 40 3d a9 c9 11 bd 3d b9 b9 3d
       -0.08493859 0.04687805 -0.03559271 0.090685345
000130 bc 1b 3e bd 82 36 08 3c 80 ee 2d 3d 11 4d 9c bd
       -0.04641317 0.008313777 0.04246378 -0.07631887
000140 d9 ee da bd 14 76 b1 bd be 7c 02 bc 7c 69 be 3d
       -0.10690088 -0.086651 -0.007964311 0.09297463
000150 a8 fc df 3d 8d 4b 8b 3d e8 c7 69 3d 3a 56 f1 3b
       0.10936862 0.068015195 0.05707541 0.0073650153
000160 e3 3b ba 3d ba a2 17 3d d7 40 c7 3d 9a d8 00 3e
       0.09093454 0.037020423 0.09729164 0.12582627
000170 d2 99 ec 3d 96 b8 f4 3d 4f a2 65 3c 24 1b e9 bd
       0.115527764 0.119492695 0.014015748 -0.1138213
000180 6e 94 ff bd 81 a9 c4 bd f7 4f 4c 3d 40 f9 4b bd
       -0.124794826 -0.09602643 0.049880948 -0.04979825
000190 00 e6 3b bd f4 b6 e8 3d a2 8b 95 bd 2a 97 d9 3d
       -0.045873642 0.113630205 -0.073020235 0.106245354
0001a0 56 02 91 bd 33 e4 cb bd 62 b4 01 3e 70 6f ee bd
       -0.07080524 -0.09955635 0.12666467 -0.11642349
0001b0 1a 98 ab bd a4 65 0c bc 0c d8 98 bc 9d 11 38 bd
       -0.083786204 -0.008569155 -0.018657707 -0.044938672
0001c0 4a c3 6a bd eb 5c f2 3c 3b 93 04 3e 62 61 b4 3c
       -0.05731515 0.029585322 0.12946789 0.022019092
0001d0 2f 03 f5 bd 0e 3c 03 bd 4a 76 b9 bd 65 2e 9d 3c
       -0.11963498 -0.032039694 -0.09055765 0.019187162
0001e0 a7 cf 95 bd c8 33 f7 3d 92 88 29 bc 46 02 c8 3d
       -0.07314997 0.12070423 -0.010347502 0.097660586
0001f0 f7 c6 9a bc 27 07 88 3d ad 31 f9 bd 20 44 d4 3d
       -0.018893702 0.06641989 -0.12167678 0.10364556
000200 a4 dc a4 3d ff 00 10 bc f9 a0 02 bc a5 4b 07 3c
       0.08049896 -0.0087893 -0.007972949 0.008257781
000210 c3 0c cc 3d d8 95 13 be 7e 2b d3 bd 93 27 ac bc
       0.099633716 -0.1441263 -0.1031103 -0.021014964
000220 4b d8 c2 bd 09 01 d3 bc 29 3f af bd 67 a8 08 be
       -0.09513911 -0.02575733 -0.08556969 -0.1334549
000230 71 a2 19 bc 76 c2 c1 bd 92 24 d9 bd af d1 88 bc
       -0.009377108 -0.094609186 -0.10602678 -0.016701547
000240 7d 45 9d bd b2 3f d9 3d be 0c 2e bd 07 45 ed bd
       -0.076792695 0.10607852 -0.04249262 -0.115854315
000250 72 e6 8c 3d 70 0f 57 bd 4f 87 0d bd 54 ee 13 3d
       0.068798915 -0.052504957 -0.03455287 0.03611596
000260 2b 47 7f bd 67 de d0 bd 57 75 ba bd b7 dd 83 bd
       -0.06232373 -0.1019867 -0.09104412 -0.06438773
000270 b3 fe 9a bd b5 f5 92 3d 4d b5 57 3d fb bc a9 bc
       -0.07568111 0.07175771 0.052663136 -0.020719996
000280 d9 6f 04 be 21 77 9e 3d 38 ab bd 3c 86 e6 f5 3c
       -0.12933291 0.07737566 0.023152933 0.030017149
000290 d2 77 67 3d 5a e8 ae bb 04 7a 1d 3d 12 cf 46 bc
       0.056510754 -0.005337757 0.03844644 -0.01213433
0002a0 b2 ab eb bc 13 75 b5 bd 3c 40 b9 3d d8 f8 84 bd
       -0.028768394 -0.08860221 0.09045455 -0.06492776
0002b0 1f d7 01 3e 3b 59 ce 3d 38 d1 fb 3d d2 95 6a bd
       0.12679718 0.10075613 0.12295765 -0.057271786
0002c0 31 24 c7 bd c2 50 c7 bc 2c 51 ca 3d a5 3b 96 3d
       -0.097237 -0.0243305 0.098787636 0.07335595
0002d0 05 3b 12 bc de 0e ee 3d cf ae a8 3d b1 cc 2d bd
       -0.008925204 0.116239294 0.08236467 -0.042431537
0002e0 3d 09 2c 3c e4 77 ea b9 42 b5 bc 3c 74 7e a9 bd
       0.010500249 -0.00044721283 0.02303565 -0.08276072
0002f0 75 b9 03 3e 6d 81 ac 3d 99 bb 92 3c 11 5b 8b bd
       0.12863715 0.084231235 0.01791172 -0.06804479
000300 56 d3 dd bd 76 5b 5e bd 16 ab 11 bd 7c e1 9f bc
       -0.10831325 -0.054286443 -0.03556355 -0.019516699
000310 3f 43 e9 3d 15 26 e9 3d 27 54 f4 bd a2 30 9e 3d
       0.11389779 0.11384217 -0.11930113 0.0772412
000320 67 4b b7 bd 1f f0 bd 3d da 3e 90 3d 1a a1 ab 3a
       -0.08949929 0.09274315 0.07043238 0.0013094277
000330 be e2 ac 3d 9c b8 60 3d 02 ea 3d 3d d8 e8 2c 3d
       0.08441685 0.054863557 0.046365745 0.042214245
000340 b9 a9 b7 3d 44 1f 2e bc aa 70 27 3c 06 a6 57 3d
       0.08967919 -0.0106275715 0.010219732 0.052648567
000350 34 5d c4 3d eb ff c1 3d d1 ad 19 bd ac 1e 49 bd
       0.095880896 0.094726406 -0.03751928 -0.049101517
000360 3e dc c2 3d 31 84 cc bc 43 a2 0b be aa 8d d2 3c
       0.09514664 -0.024965378 -0.13636117 0.025702316
000370 ac d2 cb 3c 1a 6d 99 bc 61 b1 aa 3c 14 b9 6d 3d
       0.02488073 -0.018728781 0.020836534 0.058037832
000380 9a 27 3d 3c 61 a2 b0 bd 3a d5 db bc 9c 72 6d 3d
       0.011545086 -0.08624721 -0.026835073 0.05797063
000390 3e 69 1b bd dc c1 7e bd 75 e7 f5 bd 57 df 2a 3d
       -0.037942164 -0.062196597 -0.120070376 0.0417169
0003a0 6c ee e9 3d 9f 3f 03 be 18 04 da bd da 81 c2 3d
       0.114224285 -0.12817238 -0.10645312 0.094974235
0003b0 c8 d9 2b bd d9 7d 61 bd 42 76 c9 3d ee eb bf bd
       -0.04195574 -0.05505166 0.09837009 -0.09371172
0003c0 b5 12 71 3c d8 6d 68 3d f7 79 04 be 08 d8 e9 bc
       0.014713933 0.05674538 -0.12937151 -0.028545395
0003d0 a6 19 f6 3d 9c 87 b4 bd 3e 95 f2 bc ac dd 84 bd
       0.12016611 -0.08814928 -0.02961218 -0.06487593
0003e0 05 84 72 3c 74 52 7f bd c0 fd f4 3b 5f 74 99 bd
       0.014801984 -0.062334493 0.0074765384 -0.07492899
0003f0 c1 7b a6 bd f7 b3 a9 bd e2 b0 5c bd 7a 4f 9b bc
       -0.08129073 -0.08286279 -0.053879626 -0.018958796

static_ll.0.bias f4 [128]
000000 30 fd d7 3d b5 97 ba bd 6f 92 22 3c c0 f5 8d bd
       0.105463386 -0.09110967 0.009922608 -0.06931639
000010 55 62 e2 3d 56 60 9e 3d 7d 80 b3 bd 4a 64 b4 3d
       0.110539116 0.07733218 -0.087647416 0.08808191
000020 2e 1d bf 3c 30 78 0a 3e 5b 24 0a 3e 19 db 8a bd
       0.023329344 0.1352241 0.13490431 -0.06780071
000030 4d 8a 1a bd 6d 37 bd 3d 5b 06 72 3b 0e 32 e4 3d
       -0.03772955 0.09239087 0.0036930058 0.1114236
000040 d3 40 fe 3d e1 06 95 bd 18 02 d2 3c b4 84 8c 3d
       0.12414708 -0.07276703 0.025635764 0.068612486
000050 96 84 b3 3d a0 b8 6b 3a 6c e2 99 3d 34 55 14 3e
       0.08765523 0.000899205 0.0751389 0.14485627
000060 5c 88 d4 3d 1f c6 9a 3d 9f e1 4a bd 32 9e bb bd
       0.10377571 0.0755732 -0.049531575 -0.09161033
000070 ea 22 92 bd b9 ef e8 3d 6d 4b cd bc 4b 24 87 bd
       -0.071355656 0.113738485 -0.02506038 -0.06598719
000080 14 4b dc bb 90 e8 a4 3d d1 80 c8 3d e8 1b a3 bd
       -0.006722817 0.0805217 0.09790195 -0.07964307
000090 e8 2f cd 3d 4f 7e ea 3d 3f 3a 25 3c eb e6 44 3d
       0.10018903 0.11449873 0.010084688 0.048071783
0000a0 e5 4d 66 3c b7 11 17 bd c0 1f d9 bc 7f a2 b6 bd
       0.014056657 -0.03688213 -0.026504397 -0.089177124
0000b0 5c 0d 25 3a fe 92 2f bd 8b 03 45 bd 8a c2 37 bd
       0.0006296241 -0.042864792 -0.048099082 -0.04486326
0000c0 b0 a4 22 bd 70 cc dd 3d ef 3b d9 3d e9 01 d3 3c
       -0.03970784 0.10830009 0.106071346 0.025757747
0000d0 86 5d 05 3d 02 6b 03 3e 0c b3 2e bd 5b 4f 6a 3d
       0.032559894 0.12833789 -0.04265122 0.057204586
0000e0 77 d8 0e 3e b0 be d0 3d 8b 93 d4 bd a1 3b a6 bd
       0.13949762 0.10192621 -0.10379704 -0.08116842
0000f0 b9 a2 c7 bc 02 c3 e5 3d 89 e2 74 bd 0f 0a 99 bd
       -0.024369584 0.112188354 -0.059786353 -0.07472622
000100 ec bd 61 bd 48 2f 70 bd 24 7e eb 3c c6 49 a5 bd
       -0.055112764 -0.05863884 0.028746672 -0.08070712
000110 2f 0c 6a bc fb cd 4d bc 9b e5 53 3d a9 1f a4 3d
       -0.014285131 -0.012561317 0.05173264 0.08013851
000120 35 2c 03 bc fb 0f aa bc dc f0 88 bd 7f 97 35 bb
       -0.008006145 -0.020759573 -0.06686565 -0.0027708707
000130 99 ad 40 3c 3e b8 e7 3b 51 26 29 bd e1 57 48 bc
       0.011760139 0.007071524 -0.041296307 -0.012227983
000140 cb d0 ac 3b fd 35 b0 3d 12 af bf bd ae b3 3e 3c
       0.0052739135 0.086040474 -0.09359564 0.011639519
000150 64 db a0 bd d5 d6 32 bc 5a 7e 90 bd 02 df 34 3d
       -0.078543454 -0.010915478 -0.0705535 0.04415799
000160 c6 e5 06 3e ee d1 96 bd 59 48 c4 3d 89 33 10 bd
       0.13173589 -0.0736426 0.09584112 -0.035205398
000170 f5 fc da bd a9 28 85 3c 45 f3 a4 bb 01 cb 5a bc
       -0.10692779 0.01625474 -0.005033883 -0.013354064
000180 11 98 8a bd 3d 9c 92 3d 21 fd f6 3a f0 f9 13 bc
       -0.067672856 0.07158706 0.0018843749 -0.009031758
000190 ff c3 f1 3d 13 cc 8d bd 3e aa 71 3d 95 3f 5e bd
       0.118049614 -0.0692369 0.059000246 -0.054259855
0001a0 b1 9e ae bd 2d a1 5d bd 60 74 e4 3d 5b 8c cb 3d
       -0.08526362 -0.054108787 0.11155009 0.0993888
0001b0 9f 8b 60 3d 0c ba 2f 3d b9 49 3c 3d 69 c9 d6 bc
       0.054820653 0.042902038 0.045968745 -0.026219087
0001c0 5b 23 fc 3d 11 92 a9 bd 01 99 91 3d 8e 47 20 bd
       0.12311431 -0.08279813 0.07109261 -0.03913074
0001d0 ab 5b 35 3d a2 b6 84 3d 55 0b 52 3d da 63 ca bd
       0.044276875 0.06480147 0.05128034 -0.098823264
0001e0 d1 11 86 3d 6e 7a b3 bc 18 f3 ba 3d 9b 71 79 bd
       0.06546367 -0.021908965 0.09128398 -0.06089936
0001f0 cb 41 6c 3d 30 b1 02 be e8 3e eb 3d 61 c4 e5 3c
       0.057679933 -0.12762904 0.11486608 0.028047742

static_ll.2.weight f4 [64, 128]
000000 2d 1d 17 3d 33 15 5c bd 3c c5 7f 3d 7e 5c 55 3d
       0.03689306 -0.053731155 0.062443957 0.05209016
000010 5c 97 9c 3d 3d aa a2 3c 07 9a 32 bd ac 0a f1 bc
       0.07646057 0.019856567 -0.043603923 -0.029424034
000020 a0 0b 96 bd f4 92 f2 3c 76 3d 8b bc 47 9e 7b 3b
       -0.07326436 0.029611088 -0.01699708 0.0038393901
000030 6d c6 8a bc ea 61 46 3c a2 68 cb 3c 3a 15 8c 3d
       -0.01694032 0.0121083055 0.024830166 0.06839986
000040 57 c1 3d 3d e6 b5 86 bd 83 14 02 bd d7 7c 7d bd
       0.04632696 -0.06577663 -0.031757843 -0.061886635
000050 a5 a0 4c bd a5 e3 97 3d 15 ab 63 3d b8 72 1a 3d
       -0.04995789 0.074164666 0.05558308 0.03770706
000060 ff fb bb 3a db 57 a1 3d 62 95 27 bd 60 a3 5e bc
       0.0014342068 0.07878085 -0.040913947 -0.013588756
000070 56 2f 08 3c eb 2f 01 bc 37 ad 93 3c 4e 23 b3 bd
       0.008312067 -0.00788496 0.018026931 -0.08746968
000080 a6 d7 c4 3d 55 e1 36 bd 9a 76 48 bc 9d d7 8f bd
       0.09611444 -0.044648487 -0.012235308 -0.07023547
000090 57 2b 8b 3d 52 05 28 3d ab 55 2f bc 7e e6 d2 3c
       0.06795376 0.0410207 -0.010701577 0.025744673
0000a0 85 ce 09 bd dc f4 e9 3c e8 1d 83 3c 41 3c 7a 3d
       -0.033644218 0.02855914 0.016005471 0.06109262
0000b0 65 15 10 3d d9 63 6f bd e3 9a 4e 3d 68 f8 6a 3d
       0.035176653 -0.05844483 0.05044068 0.057365805
0000c0 7f 15 36 3d 9a 5c 03 bc 93 b3 9d bc 9f 29 91 bd
       0.044454094 -0.008017683 -0.019250667 -0.07088017
0000d0 7e c9 d0 ba 74 13 c1 3d e3 0e 2c bd 67 d2 9d 3d
       -0.001592919 0.094275385 -0.042006385 0.07706147
0000e0 ea d8 04 3d 27 b4 9d bd 69 c1 75 bd 60 d1 54 3d
       0.032433428 -0.07700377 -0.059998903 0.051957488
0000f0 ea 20 b2 3d 74 98 a3 3d bd 44 96 3b 09 78 c5 3b
       0.08697684 0.079880625 0.004585831 0.006026272
000100 6b 19 c8 3b 7c 86 a0 bc 71 df b7 3d 9d 2b 46 bd
       0.0061065457 -0.019595377 0.08978165 -0.048381437
000110 c2 48 b6 bc a6 0f 68 3d 2a ed c2 bb 76 90 94 bd
       -0.02225149 0.05665555 -0.0059486823 -0.07254116
000120 ff c5 08 3d f6 51 24 3c a6 1d 1b 3c 23 31 e2 bc
       0.03339195 0.010029307 0.009467518 -0.02761132
000130 ee 67 89 bd e9 d5 b5 bc c6 90 26 3d 80 cd 91 bc
       -0.06709276 -0.022196727 0.04066541 -0.017798185
000140 f8 71 10 3d e1 3c 9b 3d 2e 2a 4b 3d 2c 4c 13 3b
       0.03526494 0.07579971 0.049600773 0.0022475822
000150 6b 65 40 3b 66 e7 21 bc 48 44 87 bd a6 b3 b9 3b
       0.0029357325 -0.00988183 -0.066048205 0.0056671677
000160 60 dc d5 3b 50 ef 25 bd 0e 11 7d bd c1 70 85 bd
       0.006526515 -0.04051143 -0.061783843 -0.06515647
000170 f3 1b 34 3d c6 75 88 3d c2 01 11 bd 21 92 8d bd
       0.043971967 0.066630885 -0.035402067 -0.069126375
000180 98 93 81 3b 3e 44 00 3d dc 2d 84 3d cb 7a 9f 3d
       0.003954362 0.03131508 0.064540595 0.07787093
000190 ff 04 ac 3c 9e 8c 66 3d 89 e8 26 3d d5 11 aa 3d
       0.020998476 0.056286447 0.040749107 0.083041824
0001a0 54 94 38 3d fc 53 54 bd 30 d7 9d 3d c5 b6 b7 3c
       0.04506333 -0.051837906 0.077070594 0.022426018
0001b0 ad bb ca 3c a1 54 a0 3d 50 92 04 bd 0f e5 83 bd
       0.024747694 0.07828642 -0.032366097 -0.06440174
0001c0 0a f6 4d bc 80 4e 49 3d df 72 c2 bc c4 04 b8 3d
       -0.012570867 0.04914713 -0.023736415 0.08985284
0001d0 41 f0 cd 3d ee a6 c9 ba 89 d9 80 bc 5b 28 b7 bc
       0.100555904 -0.0015384832 -0.015728729 -0.02235811
0001e0 54 e2 21 bd 96 f3 37 3d d0 5c 8f 3d d7 e8 6a bd
       -0.039522484 0.044910036 0.070001245 -0.05735096
0001f0 78 0f 03 3d d0 36 b9 3c 6e 60 9e 3d ec 70 e8 3c
       0.031997174 0.022609144 0.07733236 0.028374158
000200 8d 27 1a 3d 79 c6 ba bc 79 76 01 3d 3d b1 63 bc
       0.037635375 -0.022799717 0.031607125 -0.013897237
000210 68 26 30 3d 55 c3 5a bd 7f ed 5e 3d fb a8 b4 3d
       0.043005377 -0.05340894 0.054425713 0.08821293
000220 7a 51 ac 3c 31 6a f9 bb bf cc 4a 3d 71 d5 e3 3d
       0.021034945 -0.007611536 0.049511667 0.11124695
000230 4e 14 8e ba af 44 5a 3d a0 e5 0b bd dd 5c a1 3d
       -0.0010839792 0.053288158 -0.034154534 0.078790404
000240 ab 14 d2 bc 18 49 c4 bc a5 a3 18 3d 8d 0f 47 3d
       -0.02564462 -0.023960635 0.03726544 0.048598815
000250 59 04 7d bd 0c c3 7b 3d 10 97 5b 3d a5 57 09 bd
       -0.061771724 0.061465308 0.05361086 -0.03353085
000260 de 44 76 3c cf 93 6c 3d 8b 9d fb 3c 84 ee 90 3d
       0.015031068 0.05775815 0.03071477 0.07076743
000270 d8 b6 95 bd e5 67 a0 3d 88 63 ef 3c 6e 8a 5f 3d
       -0.07310265 0.07832316 0.029222265 0.054575376
000280 55 a3 ca bb df 75 dd 3c ed e2 ee bb 3b 24 34 3d
       -0.0061840215 0.027033744 -0.0072902353 0.043979865
000290 2d a7 49 3d a9 cf 7d 3d ed d4 20 bc b6 02 a1 3d
       0.049231697 0.06196562 -0.00981639 0.07861845
0002a0 27 b7 52 3d e2 6f 00 bd 31 f0 a3 3c 57 e5 8a bd
       0.0514442 -0.0313567 0.020011993 -0.06782024
0002b0 75 15 84 3d ff 73 53 3d 57 68 91 3d 91 fc a4 3d
       0.06449405 0.051624294 0.07099979 0.08055986
0002c0 9b c4 ca bd 48 25 d5 3d 13 12 70 3d 55 ae da 3c
       -0.09900781 0.104075015 0.058610987 0.026694456
0002d0 5c 1a 2a bd 7d 05 99 3d f9 0a c6 3c 7d 72 a4 bd
       -0.041529045 0.0747175 0.024175154 -0.080296494
0002e0 10 c6 ca 3c 6f 91 c7 bd 80 4c b0 bd 18 8f eb 3b
       0.024752647 -0.09744536 -0.08608341 0.007188689
0002f0 03 03 dc 3d fa 94 01 bd 5e ec 19 3d b5 bc 90 3c
       0.10742762 -0.031636216 0.037578933 0.017668108
000300 9c 95 db 3c 07 66 50 bc 84 20 ae 3d b6 51 b5 3c
       0.026804738 -0.012719638 0.085022956 0.02213369
000310 2a 09 a7 bd cd 3c 58 bd 7b 61 8d 3d 3a 6d c2 bd
       -0.08156045 -0.05279236 0.069033585 -0.094934896
000320 ac 88 63 3c b0 bd 64 bb f2 4c 1e 3d e0 27 86 bb
       0.013887566 -0.0034903102 0.0386476 -0.004094109
000330 c3 f3 a2 3b de 64 1d bb 01 ea c2 bc 04 64 c9 3d
       0.0049729063 -0.002401642 -0.023793222 0.098335296
000340 12 5e 14 bd 80 9c 7c 3d 86 67 99 bd a9 fd 6d ba
       -0.036222525 0.061672688 -0.07490449 -0.0009078631
000350 84 c7 83 bd 0e cf 31 3d 21 cb b8 3d 8e 5d 4d bd
       -0.06434539 0.043410353 0.09023119 -0.05013805
000360 57 b4 f9 3c 92 ab ca 3d aa 1c 36 bd 6d 81 87 bd
       0.0304815 0.09896006 -0.04446093 -0.06616483
000370 ae 81 84 3d 25 83 85 3d 8f 20 59 3b b4 5d af 3d
       0.06470047 0.065191545 0.0033130979 0.08562794
000380 ee ae b4 3d fd 12 97 3d d0 dc b8 3d 58 00 84 bc
       0.08822428 0.073766686 0.09026492 -0.016113445
000390 a3 b4 ed 3c 2b e5 18 bd fc 93 23 3b b5 31 b2 3c
       0.029016798 -0.037327927 0.0024960032 0.021752218
0003a0 44 22 31 bd 46 6f 2d 3d de 5c d7 3c d4 4b 45 3d
       -0.04324557 0.042342447 0.0262894 0.04816802
0003b0 c6 4e e0 bc 05 0b 33 bd 16 04 18 3b 8e 0c 6c bc
       -0.027381312 -0.04371168 0.0023195795 -0.01440729
0003c0 c5 f1 2b bd 77 b8 a7 bd fc 39 2d 3c 83 a8 e7 3c
       -0.041978616 -0.08189481 0.010572907 0.028278595
0003d0 a7 7c 94 bd e6 3b 6f 3d 29 c6 a6 3d 71 c6 d0 bc
       -0.07250338 0.058406733 0.08143265 -0.02548525
0003e0 92 f6 8d bd 89 fd 91 bc 1b f5 6a bd 2f 8e 79 bb
       -0.06931795 -0.01782109 -0.057362657 -0.0038079133
0003f0 a6 18 99 bc 22 9e 04 ba 6f 6f 93 bb ee 16 79 bd
       -0.018688511 -0.0005058964 -0.004499368 -0.060812883

static_ll.2.bias f4 [64]
000000 e5 76 5a 3d 8a 98 22 3d 6b 0c 68 bc 67 84 68 bd
       0.053336043 0.039696254 -0.014163117 -0.056766894
000010 29 ed f7 bc d1 e5 0c 3d e1 23 02 3d 4d d4 17 bc
       -0.030264454 0.034398858 0.031772498 -0.009266925
000020 52 b1 1c 3d 3f 3d 94 bd 93 7e 9a 3d f5 d4 e4 bc
       0.038255043 -0.07238244 0.07543673 -0.027933577
000030 e9 15 9a bc 19 ae 55 3c 25 70 a3 3d b2 51 c8 3d
       -0.018809276 0.013041996 0.07980374 0.09781207
000040 3d c2 9f bd 65 9b 9e 3c cd d7 b3 3d 4d e9 85 bd
       -0.0780072 0.019361207 0.08781395 -0.06538639
000050 ce 47 15 bd 42 cd 95 bc 7c 8f 6e 3d 8a 4f 98 3d
       -0.03644543 -0.018286351 0.058242306 0.07437046
000060 63 57 12 bd 21 2e a7 3d 2e c7 0f 3d e9 c7 fb bc
       -0.03572787 0.08163095 0.035102062 -0.030734973
000070 39 a0 8b 3c ce 55 3f 3c 76 87 74 3d 0b 73 7f 3c
       0.017044174 0.011678172 0.059699498 0.015591393
000080 8f 8c 3a bd 87 75 93 bd ab eb ba 3d 79 43 2e 3b
       -0.045544203 -0.07200151 0.09126981 0.002659051
000090 ad 88 22 3d d8 56 48 bd 94 06 9b bc c3 41 31 3c
       0.039681125 -0.048910946 -0.018924035 0.0108189015
0000a0 fc 21 08 3d c3 35 79 3d af 06 a7 bc 51 48 c9 3c
       0.033235535 0.060842287 -0.02038893 0.024570616
0000b0 07 e8 69 bc 15 f6 90 3d 8c be d4 bc b2 35 23 3c
       -0.014276511 0.070781864 -0.025969766 0.009961532
0000c0 81 62 38 3d 13 af 13 3c 0e 8f 4f 3c 6e 7f 8d 3c
       0.045015816 0.009013909 0.012668384 0.017272677
0000d0 1a 08 40 bd 3b dd 8c 3d b7 f6 9c 3d f9 d6 53 3d
       -0.046882726 0.06878134 0.076642446 0.051718686
0000e0 01 c1 ea bc eb 38 a5 3d 44 52 2b bd a3 24 c3 3d
       -0.028656485 0.08067497 -0.0418265 0.09528472
0000f0 be 38 95 3d 0d ce 7c 3c ec 89 43 bd eb 19 c9 3d
       0.07286213 0.015429986 -0.047738954 0.098193966

glu_encoder.rnn.weight_ih_l0 f4 [48, 2]
000000 28 2e 39 3e f9 b0 28 be 07 cf cb 3d ab 7a 40 bd
       0.18084013 -0.1647376 0.09951597 -0.046991985
000010 8a 83 49 3e 4f 95 3d 3e 50 7a aa bd 58 2a 39 be
       0.19679084 0.18513988 -0.083241105 -0.18082559
000020 61 91 1d be 8c 63 3e 3e 5f f8 8d 3e 76 e3 09 3e
       -0.15387489 0.18592662 0.27728555 0.13465676
000030 60 2e 66 be 4c 38 aa 3d 68 7a 94 3e 1e af 97 be
       -0.22478628 0.08311519 0.2899964 -0.2962579
000040 75 5b b6 bd 0c 90 72 be aa e3 78 3e 60 1b 27 be
       -0.08904163 -0.23687762 0.24305597 -0.16319036
000050 38 cc 14 3e 7c fc 99 bc 25 b7 0e 3e d9 1f 6f 3e
       0.14531028 -0.018797152 0.13937052 0.23351993
000060 5a 3c 60 3e af 3e ac bd 20 9e c6 3d 51 5b f4 3c
       0.21898022 -0.084103934 0.09698129 0.0298287
000070 cf 9a cc 3c 94 44 28 bd 4f 8c 35 be 55 87 6f bd
       0.024976162 -0.041081026 -0.17729305 -0.058478672
000080 00 40 5f 3e ad c7 b5 bd dc e0 35 3d ac 3d 81 3e
       0.21801758 -0.08875976 0.044403896 0.25242364
000090 d5 44 68 be 36 88 4f be f7 be 53 bc 12 09 74 3e
       -0.22682507 -0.20266804 -0.012923948 0.23831585
0000a0 fd 86 02 be 42 2b 67 3e fc c5 8e bd 43 8c 9d bd
       -0.12746806 0.22575095 -0.06971356 -0.076927684
0000b0 c3 3b ed bd fa e5 0f 3e f3 5f 5b 3e 47 48 4a 3e
       -0.11583664 0.14052573 0.2142332 0.19754134
0000c0 61 bf 73 3d 43 33 29 bd dc fb 99 be ec b1 65 3e
       0.059508685 -0.041308653 -0.30074966 0.22431153
0000d0 7e 8e 96 be 72 df c5 bc 00 c0 5d 3d 3e f0 34 bd
       -0.29405588 -0.024154399 0.054138184 -0.044174425
0000e0 a0 57 4f 3e 40 e6 3b bd b8 92 6b 3d e1 5c 55 bc
       0.2024827 -0.04587388 0.05751297 -0.013022632
0000f0 69 e7 58 3e 3d f4 d0 bc 33 46 2c be f1 b9 f5 bc
       0.21182026 -0.025507087 -0.16823654 -0.02999589
000100 f8 2f 04 3e 20 63 d7 bd 8c f8 23 be 3b 0e 52 3e
       0.12908924 -0.105169535 -0.16012782 0.20513241
000110 cf af 0c 3e 5e 9c 98 3c a4 0e 84 3e c0 05 b3 bd
       0.1373894 0.01862925 0.2579242 -0.08741331
000120 9c 02 ed bd 28 2a 38 be d5 ba 70 3e 4c 6f 6b be
       -0.11572763 -0.17984831 0.23508771 -0.22991675
000130 71 f6 4e 3e af af 2d bd 5f b7 c8 3d 1f 79 2d bd
       0.20211197 -0.042403873 0.098006 -0.04235184
000140 4d 67 1f 3e ea b2 0d be ed 10 7e 3e 5a 7c 38 3e
       0.1556675 -0.13837782 0.24811144 0.18016186
000150 bf 29 15 3e e2 c9 50 3e 45 28 34 bd 97 85 79 bd
       0.14566706 0.20389512 -0.043983717 -0.060918417
000160 d9 1b ef bd 5d fd df bd 70 5e 79 be a6 0b 6c 3e
       -0.116752334 -0.10936997 -0.24352431 0.23051319
000170 f2 d4 6a 3e 52 a2 61 bd ac e1 36 3d f6 07 40 3e
       0.22932795 -0.05508644 0.04464881 0.18753037

glu_encoder.rnn.weight_hh_l0 f4 [48, 16]
000000 c4 33 3c be 21 48 6f be 3f 7e b6 bd d6 66 0c 3e
       -0.18379122 -0.23367359 -0.08910798 0.13711104
000010 a8 d9 cc 3d 5f ed 91 bd 8d 2c 84 be c8 77 42 3e
       0.10002452 -0.07125353 -0.2581524 0.18991005
000020 7c f2 73 3d 9e 69 4d 3e d9 38 3a be b6 05 29 be
       0.059557423 0.20059821 -0.18185748 -0.16506085
000030 70 29 10 bd 40 45 05 be 25 a5 fe 3d 80 20 8c bd
       -0.035195768 -0.13014698 0.124338426 -0.068421364
000040 b3 1a ca 3d 9d 52 99 bd 04 90 00 3e 46 1a 87 be
       0.09868374 -0.0748646 0.12554938 -0.26387233
000050 50 8f f4 bd e8 da 46 3e 55 ca fc bb a7 3b 26 3d
       -0.11941397 0.19419444 -0.0077145495 0.040584233
000060 75 cc 80 be 84 49 59 3e bb b2 b1 bd a2 0b ed 3d
       -0.25155988 0.2121945 -0.08676668 0.115744844
000070 21 43 08 3e 19 45 e3 bd 10 e4 64 be 8d 36 8c 3d
       0.13306858 -0.11097164 -0.22352624 0.06846342
000080 8d ef 30 3e 71 9a 1d be 0d 10 00 be 9c 30 5d be
       0.17278881 -0.15390946 -0.12506123 -0.21600574
000090 a1 25 e7 3c 8f 9d 49 3d 29 ed 32 be 59 51 34 3e
       0.028216185 0.049222525 -0.17473282 0.17609157
0000a0 c6 47 0d 3e cf 31 ad bd 4a 05 94 bd 30 46 1e 3e
       0.1379691 -0.08456766 -0.07227571 0.15456462
0000b0 fb 9c e3 bd 93 9e 1f 3e 77 56 3e be 6c a3 35 3e
       -0.11113926 0.15587835 -0.18587671 0.17738122
0000c0 73 5b 17 3e 6f a8 3b be 05 6a 08 3e 78 42 60 3e
       0.14780979 -0.18325971 0.13321693 0.21900356
0000d0 58 f4 4e 3c 53 5e 1e 3e b8 55 40 3e c2 45 f3 3d
       0.012631498 0.1546567 0.18782699 0.118785396
0000e0 bf 95 44 be 19 8c 9d bd df fd 1a be 6e f8 0e be
       -0.19197749 -0.07692737 -0.15135907 -0.13961956
0000f0 77 26 10 3e 4e b7 16 3d 05 87 11 3c 05 93 02 bd
       0.14077173 0.036795907 0.008882289 -0.03187849
000100 a1 e2 ad bd 4a 6a 52 3c a3 85 1a 3d af 79 38 bd
       -0.08490492 0.012842724 0.037725102 -0.04503792
000110 49 5c 27 3d 1f 01 a5 bd 08 ec 92 3e 4a ec f7 3d
       0.040859494 -0.080568545 0.28695703 0.121056154
000120 90 34 2f 3c 7d 7b 08 3e a7 0c 40 3d 10 3b 8d be
       0.010693684 0.13328357 0.046887066 -0.27584124
000130 6d 13 92 be 30 4a dc 3d 36 7c ed 3c b2 03 20 be
       -0.28530446 0.10756338 0.028989892 -0.1562641
000140 9e 03 ca 3d ac 3e 34 3e 67 3b 84 3c b9 47 70 3d
       0.09863971 0.17602032 0.016141606 0.05866215
000150 58 13 df bb 09 ae 5c bc d7 f7 e8 bc 47 35 58 3e
       -0.006807726 -0.013469228 -0.028438492 0.21114074
000160 27 1e 8e 3d 56 fa 7d 3e 64 2e 1e be 08 f8 aa bd
       0.06939345 0.24802527 -0.15447384 -0.083480895
000170 6d d7 46 be 3e 5f 84 be 3b a5 26 bd 16 5a fa bc
       -0.19418116 -0.25853914 -0.04068492 -0.030560534
000180 54 cf c7 bd 13 a0 37 3e 06 b6 fa 3d 93 8b 50 3e
       -0.097563416 0.17932157 0.122417495 0.20365743
000190 ce 68 a0 3d cf a2 4a 3e 7f 17 bc bd d3 77 04 3c
       0.0783249 0.19788669 -0.09184169 0.008085209
0001a0 fc 11 41 3e 0d 45 35 bc c6 7c 59 be 6b 71 50 3e
       0.18854517 -0.011063826 -0.21239004 0.20355766
0001b0 f0 b3 41 3e 23 2d 1a be f2 e7 8d 3d 8f 9b 49 be
       0.18916297 -0.15056281 0.06929006 -0.19688247
0001c0 05 1d a3 3d a0 86 26 be fd c8 cb bc 8f ea a6 3d
       0.079645194 -0.16262293 -0.024876112 0.08150207
0001d0 a7 02 63 be 1a 7b 1e 3e 07 a6 a8 bd 20 25 91 bd
       -0.2216898 0.15476647 -0.08234792 -0.07087159
0001e0 8d c3 24 be 1b c0 1a 3e e8 9f 89 3d 91 39 5e be
       -0.16090222 0.15112345 0.06719953 -0.21701647
0001f0 d6 c4 87 be 40 b6 84 be e2 84 56 3e 18 11 63 bd
       -0.2651736 -0.25920296 0.20949128 -0.055436224
000200 fc 80 cb 3c 9e b2 75 3e 4e 6f 65 3e e1 17 3c be
       0.024841778 0.23993918 0.2240574 -0.18368484
000210 c2 1b 2c be 53 d0 f6 3d 9b 5f 59 bd 7c 36 69 be
       -0.16807464 0.120514534 -0.053069692 -0.2277469
000220 44 da ea bc ea 92 c0 3d 4c da b7 bd 86 5e 4d 3e
       -0.02866853 0.09403022 -0.08977184 0.20055589
000230 7a 39 64 be d5 0b c4 bd 47 0d 67 3e 63 83 bc bd
       -0.2228755 -0.09572569 0.22563659 -0.092047475
000240 8b 0e 8a 3e ed 14 a0 bd d0 05 28 3e fe de 46 be
       0.2696422 -0.07816491 0.16408467 -0.19421002
000250 94 8f 40 be 75 3f 40 be 50 c3 57 3d 3c ce 6c 3d
       -0.1880477 -0.18774207 0.0526765 0.057813868
000260 4e 74 17 be 3c 47 0c be ae 95 ac bb 9b b8 93 bd
       -0.1479046 -0.13699049 -0.0052668666 -0.07212945
000270 77 e2 e2 3b 7f ed 23 3d 45 fb 83 3d 62 4c d3 3d
       0.0069239694 0.040021416 0.0644441 0.10317303
000280 47 35 7c 3e 3c 6e d9 bd 0a eb 64 be 86 72 a0 3d
       0.24629699 -0.10616729 -0.22355285 0.078343436
000290 22 3a 44 3e cf 86 07 3e 31 52 a1 3d 19 61 35 3e
       0.19162801 0.13235019 0.07877005 0.17712821
0002a0 32 7a 2a 3d ad 6a 2c bd 28 87 ae bd 00 31 13 3e
       0.04162044 -0.04209392 -0.08521873 0.14374161
0002b0 a1 48 79 bd eb e7 41 3c d0 c1 20 3e f1 f1 9c 3b
       -0.06086028 0.011835079 0.15698934 0.004789584
0002c0 2c 7b 06 be 8d 72 d6 3d a0 60 4f 3d 39 54 1b 3e
       -0.13132924 0.104710676 0.05062926 0.15168847
0002d0 76 6c 85 3d 4f 0a 9c bc 27 b5 0d bd e6 cb d2 bd
       0.06514828 -0.019047884 -0.03459659 -0.10292797
0002e0 9d 9c 83 bd 33 f2 0a be d2 20 9a bd 89 64 0f 3d
       -0.06426356 -0.13568954 -0.07525791 0.035007987
0002f0 61 3f 6b 3e 0b 0c 30 be c1 c0 2a bd ab a7 6d 3e
       0.22973396 -0.17192094 -0.04168773 0.23208492
000300 93 b9 29 3e aa 18 ec 3d dc 2a 1f be c7 40 35 3e
       0.16574697 0.11528142 -0.15543693 0.17700492
000310 cf 14 83 be dd cd 94 bd a6 23 f1 3d fb 85 fa 3d
       -0.25601813 -0.07265828 0.117743775 0.12232586
000320 0d 62 49 3e 38 26 d7 bd 7d 47 35 be b6 59 f7 bd
       0.1966631 -0.105053365 -0.17703052 -0.12077658
000330 0e b3 5a 3d 95 38 71 bd f1 8b cc 3c 4d b0 51 3d
       0.053393416 -0.05889185 0.024969073 0.051193524
000340 7a b2 b8 3d 74 9a 02 3e 36 f9 c3 3d c4 4a 41 3e
       0.09018417 0.12754232 0.095690176 0.18876177
000350 a0 20 ec bd 04 f3 09 be 63 9f 80 bd 6e 42 3d 3d
       -0.1152966 -0.1347161 -0.062804006 0.04620593
000360 33 90 32 3e 1f 4c 62 3d 9c af da 3d 22 64 e4 bd
       0.1743782 0.055248376 0.10678026 -0.11151911
000370 33 fa c8 3b e5 0b 42 3d 3f 92 fb bd 07 3d 24 be
       0.0061333417 0.047374625 -0.122837536 -0.16038905
000380 29 46 8e 3e f7 0c 23 3e df 98 40 be b5 3e 0d bd
       0.27787903 0.15922914 -0.18808316 -0.03448363
000390 53 51 6e ba 9d ce 37 3e 4b 52 cd bd 21 a7 b1 bd
       -0.0009091098 0.1794991 -0.10025462 -0.086744554
0003a0 b6 ec ed bd 7b f0 27 3e e2 87 05 be 42 29 97 3c
       -0.11617415 0.1640033 -0.13040116 0.01845229
0003b0 af 07 22 3e 2e 2c c5 bb ab 0c 93 3e 06 89 09 be
       0.15823244 -0.0060172295 0.28720602 -0.13431177
0003c0 72 1f 2a 3d 81 b1 f3 bb da 90 f8 3d b0 0e 4f 3e
       0.041533895 -0.0074369316 0.12137003 0.20220447
0003d0 32 29 51 3e 52 9b 53 be c0 c4 39 3d eb 1f 65 3e
       0.20425871 -0.20664719 0.04535365 0.22375457
0003e0 c8 2e e2 3d 36 4d 19 be ed 3d 98 bd 9f 1e 22 be
       0.11044079 -0.1497086 -0.074336864 -0.15831994
0003f0 2f 52 dd bd 02 06 15 be 3f c2 fb 3c 04 fc e5 3d
       -0.10806691 -0.14553073 0.030732272 0.11229709

glu_encoder.rnn.bias_ih_l0 f4 [48]
000000 5b 59 41 3e 80 54 62 be 3e a3 00 bd 42 09 c4 3c
       0.18881743 -0.22102547 -0.03140568 0.023930196
000010 ae bf 39 be 6a 2f 82 bd 21 c3 e8 3a 3c 07 d3 bd
       -0.18139526 -0.063567 0.0017758348 -0.10304114
000020 18 56 cc 3d 07 6f c6 3d 90 db 80 3c 5d 53 a2 bd
       0.099773586 0.096891455 0.015729696 -0.079260565
000030 66 ae af bd 1a fe db 3d d3 cd 94 bd 28 32 cc bd
       -0.08578186 0.107418254 -0.0726582 -0.09970504
000040 e4 49 6c 3e 56 f4 67 be 5c 38 1a 3e af 9e 76 be
       0.23075062 -0.226518 0.15060562 -0.2408397
000050 02 35 31 3e ee 80 29 be c9 06 37 3e 8b 9e b2 bd
       0.17305377 -0.16553089 0.17873682 -0.08721646
000060 06 a2 52 3c ef 01 42 3e 74 58 87 3d 77 dc 4a 3e
       0.012856012 0.1894605 0.06608668 0.19810663
000070 16 c8 89 3c 76 19 7c bc 51 b9 e8 3d 1a be c6 bd
       0.016819041 -0.01538693 0.11363471 -0.09704228
000080 8c b0 63 3e 6a 04 30 3e 9e bd 04 be 48 29 3b be
       0.22235316 0.17189184 -0.12962958 -0.18277466
000090 37 6b 29 be a1 8b 23 be e8 49 26 be c3 c3 2b be
       -0.16544805 -0.15971233 -0.1623913 -0.16773896
0000a0 bd d0 47 bd 04 cb 78 3e 11 92 ef 3c cc 5e 09 be
       -0.048783053 0.24296194 0.029244455 -0.13415068
0000b0 03 fb 8c 3d 86 ae 70 be fe 0a a1 bd ca 07 cc bd
       0.06883814 -0.23504075 -0.07863425 -0.09962423

glu_encoder.rnn.bias_hh_l0 f4 [48]
000000 66 20 12 bd d2 9b 64 3e af 44 5c 3e 77 b6 8d bd
       -0.03567543 0.22325066 0.21510576 -0.06919568
000010 8e 2d 10 be a2 67 94 bb 47 9a 6d be 1f 72 27 be
       -0.14079878 -0.0045289556 -0.23203383 -0.16352127
000020 fe 4e 1a bd a3 47 d6 bd 5d 65 38 3d 4e 13 07 bc
       -0.03767299 -0.10462882 0.045018543 -0.008244349
000030 e5 57 6b 3e a3 9c 27 be 11 8f 95 3d 33 b4 03 3e
       0.22982748 -0.16368346 0.073026784 0.1286171
000040 7a 54 75 bd c2 05 29 3e 35 88 61 3e 4e 65 34 3e
       -0.059895016 0.16506103 0.22024615 0.1761677
000050 ee 0c 6f be f7 6d b0 bd 33 e8 e5 3d 43 58 ee 3d
       -0.23344776 -0.08614724 0.11225929 0.11637928
000060 90 37 dc 3d 37 a2 7b be 30 c3 21 3e 5f 02 47 3e
       0.10752785 -0.24573599 0.15797114 0.19434498
000070 58 fb 38 3e 19 3a 69 3e b0 64 c8 3d 5c 3d 3b 3e
       0.1806463 0.22776069 0.097848296 0.18285125
000080 89 4d b0 3d 16 32 b9 bc c7 0b 2c 3e 12 f6 e5 3d
       0.08608539 -0.02260689 0.16801368 0.11228575
000090 0c 31 7a be ca 6c fc bd 90 b2 39 be e1 fb 09 3e
       -0.24432772 -0.12325437 -0.18134522 0.1347499
0000a0 22 05 38 3e fa d2 9b bd f5 4e 9a bd eb 2b 38 be
       0.17970708 -0.076086 -0.07534591 -0.17985503
0000b0 11 e1 87 be 7c 58 5d be a1 3c 1a 3d 0d 28 22 be
       -0.265389 -0.21615785 0.037655476 -0.1583559

glu_encoder.hid2lat.weight f4 [64, 16]
000000 f5 10 86 be 00 f8 1f be 51 aa bb bd a9 cb 14 3e
       -0.26184812 -0.15621948 -0.09163345 0.14530815
000010 b9 66 38 3d 29 c8 17 3e 7b 2e 18 be bc 70 09 3d
       0.04501984 0.14822449 -0.14861481 0.033554778
000020 ab 5a 89 bd 85 6a 74 be 1c fa 0f be cf db 10 bd
       -0.06706747 -0.23868759 -0.14060253 -0.035365876
000030 42 9d 60 3e 5f 50 1c be 86 1d 43 be 1d 80 2c be
       0.21934989 -0.15265034 -0.19054231 -0.16845746
000040 0e c6 0c 3e ca f4 13 3e f1 d2 63 be 03 49 ca 3d
       0.13747427 0.14448848 -0.22248437 0.09877207
000050 21 4d 70 3e b5 ef bf bb 7a 23 56 3d df e4 ab bd
       0.23466922 -0.0058574327 0.052279927 -0.08393263
000060 36 84 29 3e d5 a1 24 bd 83 1f 30 be a9 8f bb bd
       0.1655434 -0.040193398 -0.17199521 -0.091582604
000070 64 eb 0c 3e c9 f3 c8 3d 37 59 49 be 69 39 75 bd
       0.1376167 0.09812123 -0.19662939 -0.059869204
000080 77 c3 e8 bd 73 80 78 bc 58 1f d4 bc 5e fd 82 3e
       -0.11365407 -0.015167343 -0.025893852 0.2558393
000090 d7 a5 98 bc 34 34 b7 3d 35 51 78 3e ac c4 5a 3e
       -0.018633766 0.08945504 0.24249728 0.21364087
0000a0 b8 3f 16 bd 06 57 80 3e 10 40 45 be 13 a0 d6 3c
       -0.03668186 0.25066394 -0.19262719 0.026199376
0000b0 78 16 b6 3d 61 e6 d9 bd a4 95 ef 3d fb 5b 51 be
       0.08891004 -0.106396444 0.116984636 -0.20445244
0000c0 7a 1b 22 3e 6d 00 e7 bd 71 11 72 3e 8f 7a 99 3d
       0.15830794 -0.11279378 0.23639466 0.07494079
0000d0 b4 b3 e6 bd a4 8a 39 3e fa f5 8c ba 43 5d 7f 3e
       -0.112647444 0.18119293 -0.0010754459 0.2493792
0000e0 78 6f 34 be 2a e1 b0 bd 9f 42 76 be d7 6a 0c 3d
       -0.17620647 -0.08636697 -0.24048851 0.034281578
0000f0 c1 7c bc 3c a2 54 bb bd 27 c1 b2 3c a9 d1 cd bd
       0.023008706 -0.09147002 0.021820618 -0.10049755
000100 bb 56 5e 3e 59 d9 05 3e cc 4e 5d be cf b8 88 3c
       0.21712773 0.13071193 -0.2161209 0.016689686
000110 91 20 4a 3e 5e ac 51 3e d0 32 48 3e 53 e0 2a bd
       0.19738986 0.20475909 0.19550633 -0.04171784
000120 59 e9 db 3d 9d 63 c2 bd 37 ed 41 3e 02 30 8b be
       0.10737867 -0.09491656 0.18938147 -0.27185065
000130 3a b5 5b be 09 3b ea bd 3f 67 d2 bd 9f 4f 4c 3e
       -0.21455851 -0.11437041 -0.10273599 0.19952248
000140 69 58 ef bd c9 88 30 be 34 4e 87 3e 20 f3 7c 3e
       -0.11686785 -0.1723968 0.26426852 0.2470212
000150 67 fb 32 3d c0 17 58 3e 13 c3 36 3e a8 c1 5e be
       0.043696787 0.2110281 0.17847852 -0.21753561
000160 dd df 87 bd 5a 2f 09 3e 19 d7 fa bd c0 1c 1a 3e
       -0.066344954 0.1339697 -0.12248058 0.1505003
000170 fc a9 d0 bc 63 98 c8 bd e0 c7 01 be d9 b4 c3 3d
       -0.02547168 -0.097946905 -0.12673903 0.09555978
000180 6f d4 22 3d 35 56 0c be 81 9b 83 3d 1f 97 44 3e
       0.039753374 -0.1370476 0.064261444 0.19198273
000190 fb 1c 8d 3d 1c 67 38 be 67 88 09 3e 57 1e 50 3e
       0.06890293 -0.18008083 0.1343094 0.20324074
0001a0 2b 66 e6 bd a8 98 0d 3e 96 e1 66 3d 72 c2 ec 3d
       -0.11249956 0.13827765 0.05636748 0.11560525
0001b0 f2 4d c5 bd 36 ff b6 bc fc f0 14 be 70 b8 8e bd
       -0.096340075 -0.022338491 -0.14545053 -0.069687724
0001c0 a8 78 f1 bd c8 6f e0 3d 81 bb 3b 3e 1e 3d bc bd
       -0.117905915 0.109588206 0.18333246 -0.09191345
0001d0 27 b3 04 bd 24 65 20 be 30 ba d2 bd 1e cf 23 3d
       -0.032397415 -0.15663582 -0.10289419 0.039992444
0001e0 96 db e5 bd e2 7b eb bd bb bb 87 be c4 c6 12 3e
       -0.11223523 -0.11498238 -0.26510414 0.14333636
0001f0 74 63 49 3e 07 23 1a 3e 99 40 01 3e ad 7f 59 3e
       0.19666845 0.15052424 0.12622298 0.2124011
000200 ad 60 3d 3d 22 6e a5 bd a6 2e 21 be f7 11 62 3e
       0.046234775 -0.08077647 -0.15740451 0.22077166
000210 7c 39 2b 3e af 85 46 be 79 3a 3f be c8 5f 41 be
       0.16721147 -0.19386934 -0.1867465 -0.18884194
000220 d7 1a 62 bd 49 db 19 3e cb 1a 36 3e a2 13 51 be
       -0.055201378 0.15025057 0.17783658 -0.20417646
000230 2d 97 b8 3c 95 2d 60 3e ee 8c 1c be 09 18 43 3d
       0.022533024 0.21892388 -0.15288135 0.047630344
000240 0e 88 e0 3c 3e 73 5f be b1 56 c0 3d 13 45 15 3d
       0.027408626 -0.21821305 0.09391535 0.036442827
000250 38 80 55 3d aa 27 35 3e 66 5e f8 bd de 5d a5 3d
       0.052124232 0.17690912 -0.1212738 0.08074544
000260 24 82 2c be 9f 40 ef bd 66 2f 38 bd 68 d9 e5 3d
       -0.1684652 -0.11682247 -0.044967078 0.112231076
000270 02 6c a6 bd bd f8 bc 3d a2 67 a4 3d 94 90 15 3e
       -0.081260696 0.092271306 0.08027579 0.14605933
000280 73 78 01 3e 10 f0 46 be 2e 27 ad 3d 68 36 89 3e
       0.12643604 -0.19427514 0.084547386 0.2679932
000290 d8 cd 27 3e 5b d4 1b 3e 6c 82 9a 3d 81 c8 db bc
       0.16387117 0.15217726 0.07544407 -0.026829006
0002a0 3a 19 10 3e 76 20 d1 bc d3 90 12 be 78 ec fc bd
       0.14072123 -0.025528174 -0.14313059 -0.1234979
0002b0 74 14 21 be 3e 26 21 bc 1e d4 65 3e 9d 34 a8 bd
       -0.15730458 -0.009835778 0.22444198 -0.0821316
0002c0 f3 ab 09 be 45 9a 2b be c7 62 2c be df bb 0e 3c
       -0.134445 -0.16758068 -0.16834556 0.008711784
0002d0 a5 69 d4 3d ae 60 40 bd 73 96 47 3d 2b 94 06 be
       0.103717126 -0.0469672 0.048727464 -0.13142459
0002e0 06 73 60 be 04 dc 5a 3e df 76 0f 3e 8b 27 9c 3c
       -0.21918878 0.21372992 0.1401019 0.019061824
0002f0 c3 16 75 be 57 b0 0c 3d 2b a9 81 be ba 23 0a be
       -0.23934464 0.03434786 -0.25324377 -0.13490191
000300 04 93 56 3d e4 c9 a8 bd 31 75 11 3e 50 5a 39 3e
       0.0523863 -0.082416326 0.14204861 0.18100858
000310 cf 7c 0d be da cb 53 bd bc 0c 8a bd 11 87 24 3e
       -0.13817142 -0.05170808 -0.0674071 0.16067149
000320 b9 ee 7e 3e ad 51 58 3e 7b e6 51 3d 9f 1a 4d 3e
       0.24895753 0.21124907 0.051245194 0.20029686
000330 99 74 14 3e b4 e6 5e be 2d f4 08 3e 7f e3 22 be
       0.14497603 -0.21767694 0.13374396 -0.15907095
000340 ac cf cc bd 6d 9b 80 3d 21 c1 9e bd 35 fb 57 be
       -0.10000548 0.06279645 -0.0775168 -0.21091922
000350 23 22 5b be 3a a3 30 be 11 f7 81 be eb 27 0d 3e
       -0.21399741 -0.17249766 -0.2538381 0.13784759
000360 dd 25 5c 3e b9 46 28 be f4 79 1f 3e 34 97 29 3e
       0.21498819 -0.16433229 0.15573865 0.16561586
000370 3c f2 81 bd 7c 4a 85 3c 31 5b 6c be 7b 04 5c 3e
       -0.06345031 0.016270868 -0.23081662 0.21486084
000380 07 39 35 3e 7a d5 96 bd 8e 1f dd 3d 04 72 61 3b
       0.17697535 -0.07364936 0.10797034 0.0034400234
000390 0c 37 2c 3c 12 e1 09 3e 22 b9 57 3d f1 c5 8a be
       0.010511171 0.13464764 0.05266679 -0.27104142
0003a0 b9 9a 89 be 52 59 ef bc 79 1b 89 be b3 26 48 3d
       -0.26875857 -0.029217396 -0.26778772 0.04886503
0003b0 5f 0b 5c 3c 64 46 03 3d 9e e7 80 be f2 c7 21 3e
       0.013430445 0.03204955 -0.2517671 0.1579893
0003c0 ac dc 48 be fc 1f b0 3d 6f 38 c7 bb ab ba 38 be
       -0.1961543 0.085998505 -0.0060797255 -0.18039958
0003d0 30 28 35 3d 09 d6 5a 3e 4e 15 b5 bc bb 44 d7 3d
       0.04422778 0.2137071 -0.022104885 0.10511156
0003e0 72 bb ec bd 44 57 3e bc f2 7b f6 3d 6c 11 3b be
       -0.1155919 -0.011617485 0.120353594 -0.18268365
0003f0 f8 4c f3 bc 38 2a d8 3b 8a 84 7c bb 89 25 2b bd
       -0.029699787 0.0065968297 -0.0038531148 -0.041783843

glu_encoder.hid2lat.bias f4 [64]
000000 38 fa 9f 3c f1 1e 91 bd b8 a6 40 be 10 ab 05 3d
       0.019528493 -0.0708598 -0.18813598 0.03263384
000010 54 33 4b 3d 00 cd 09 3d c8 86 43 3e 33 c6 b0 bd
       0.049609497 0.03364277 0.19094384 -0.086315535
000020 bd 75 a3 3c bd 9e 06 3e 51 62 72 3e 76 a7 e1 3d
       0.019953603 0.13146491 0.23670317 0.11018269
000030 dd bd 4a 3c 23 30 1b bc c0 29 2b bc 28 c8 46 be
       0.0123743685 -0.009471926 -0.010446966 -0.19412291
000040 09 c8 3b bd 1f 0c 7e 3d c3 cf 00 3c 61 62 64 3e
       -0.045845065 0.06202328 0.007862034 0.22303154
000050 c1 ad a1 bd 6c 9c 45 3e f1 b8 ec 3d 11 99 9c 3d
       -0.07894469 0.19297951 0.11558712 0.076463826
000060 32 01 24 3e b8 01 ba 3d 9e d5 96 3d c2 70 c7 3c
       0.16016081 0.09082359 0.07364963 0.02434576
000070 db 00 1c be 84 35 5c 3e 80 d5 20 be c5 56 27 bd
       -0.15234701 0.2150479 -0.15706444 -0.040854234
000080 b5 e5 72 be 30 3a 83 be c3 f2 40 3e d0 fa f8 bd
       -0.23720439 -0.2563033 0.18842606 -0.12157214
000090 81 85 62 3e 5c d3 50 bd 9b 05 58 be 52 87 de bd
       0.2212124 -0.050982818 -0.21095888 -0.10865654
0000a0 cb 7d 1d bd b6 1f f2 3b a9 23 12 3e b5 fd 67 3c
       -0.038450044 0.007389034 0.14271416 0.01415961
0000b0 fc e0 87 3e 08 24 04 3e 01 24 e9 3d 1a 5c 50 3e
       0.26538837 0.1290437 0.1138382 0.20347634
0000c0 82 7b 27 be af 1f 8b 3c b9 5b 4d 3e 1b 43 5f 3e
       -0.16355708 0.016982881 0.2005452 0.21802942
0000d0 97 62 8e 3c 7e 2c cb bd 32 b2 3f 3d ef f4 76 bd
       0.017380996 -0.099205956 0.0468008 -0.06029218
0000e0 f2 de 84 be 42 b1 48 be f7 57 7f be 6f 79 5c bd
       -0.25951344 -0.19598868 -0.249359 -0.053826746
0000f0 0d ec 57 be 32 70 00 bd 65 51 2f 3d b7 85 38 3e
       -0.2108614 -0.031356998 0.042802233 0.18019758
