code/baseline/saved/GAMNet_learning_rate_0.0001_hidden_size_64_epoch_6000_batch_size_32/Epoch_2100_JA_0.6896_DDI_0.0875.model (torch, 455805 bytes, 29 tensors)

lab_embeddings f4 [32, 64]
00000000: 5ada 9c3e 22f8 043e 9cb1 3abf 65e5 d2bf
00000010: 91c5 2abf 559f bebf 5854 963f cf99 fb3e
00000020: 40ec 393f 02be 093f 7b98 debf 16b2 aebf
00000030: e673 013f 9244 e3be fa84 293f 9625 f93f
00000040: 62e2 2b3f b2b6 3a3e 60e7 ba3e 4352 f33e
00000050: 82c8 753e 5a46 48bf 3682 8cbf 74ae 72bf
00000060: 9992 24bf 77ab 82bf 6956 353f a499 15c0
00000070: 6093 babe 46b3 523f f682 b63f 42e8 c53e
00000080: 76bf 0bc0 7688 da3f fced 81be 1113 f3bf
00000090: 9672 e0be a3a0 1ebf 8fc7 90bf 1374 69bf
000000a0: dc23 003f 5987 d63e 3b49 783f 8123 e2be
000000b0: 631c c13e e697 643f f0ad 0f40 d928 0c3f
000000c0: d08c 9fbe 599f cabe 3978 8a3e b5b3 03bf
000000d0: 0ffe 45bf 77f0 453e fce6 21bf 0ea3 423f
000000e0: d852 8cbe 7321 59be 0c33 2140 eaad 11bf
000000f0: be6f 7e3d cca4 ac3e 5579 e93f eb7a 1c3d
00000100: c9fb 22be 194d 21bf 7aa6 d7be 7f75 aebd
00000110: 2045 583e 47ce 133f d989 ee3f 3e9e 983e
00000120: 0f73 85bf 287d a3bf e57c a6bf a0ee 633d
00000130: 29ad c0bf 4215 8cbf a42f 5a3f a4a3 6bbf
00000140: 93da 20be 6e48 123f 180d bc3f 6125 993f
00000150: 9b4c c53e be7b 03bf 1dc1 433e b28d 1340
00000160: ecbd e2bc 98f4 823f ab77 b73e 09b5 753f
00000170: 9b32 323d 9202 ed3f 1c87 5c3f 7cfa f03d
00000180: 85b1 48bf cdc4 b4bf a43e 04bf c9e6 043f
00000190: 7866 a23f b80d 95be d62a 3f3e 4f7c b23e
000001a0: ea28 dd3e 6f7b 98bf 2de6 383f abfe 2d3f
000001b0: 19d2 cb3f 7994 84be 5b1f f9bf 5e1d 20bf
000001c0: 2208 2f3f 6651 d0bf 6aac 433f 6e89 173f
000001d0: dcd8 0c3f 5d4a f0be f560 9dbf b1fb 42bf
000001e0: 3acd f9bf 6146 5340 98fa 3c3e fa37 ca3e
000001f0: 9b6f 333f 371d 733f 6bda 0bc0 b13b b13f
00000200: d57f 61bf b30a 87be 4a23 d03f ded7 3bbe
00000210: 58c6 7f3e 08a4 80bf 6910 7abf 2a0d 40bf
00000220: 3804 58bf 8473 683f 53cf 94bc 0ff5 9b3f
00000230: 6713 a7be ae8f 173f a097 f0be 084e 0840
00000240: 60cc 50bf 7761 5c3e 84d1 4c3f 36a9 c1be
00000250: aba7 4cbf f1b6 0c3f a19e c43f 4327 03bb
00000260: 2999 aebf ad64 5ebe cd6a 1fbf b2d4 46bf
00000270: 9ecc ba3e c078 89be aa9d 1ebe 8352 423f
00000280: aed8 4ebf 7cf8 b33f aae4 aa3e c9c6 053f
00000290: 3c48 3d3f 7506 b63e ef27 0b3c e48e b83f
000002a0: b1e4 0040 554f 5ebe cbbd d43e 3683 4bbe
000002b0: 028f a03f e62f 97be c777 d9be de2a 2fbf
000002c0: b4cf bfbe 1d26 9a3e 0a88 84bf 152c b63e
000002d0: 180f b3bf 2a98 b63e 8286 963d 9751 dcbf
000002e0: 537e b3bc 6731 533f 5d39 873e 5f6f 5bbd
000002f0: c52a c73e 6362 afbf 5650 5fbf 4ad5 04bf
00000300: a8f7 45bd d018 23bf cfe1 683f 5be2 89bf
00000310: 294f e9bd d060 00c0 0904 babf 76e8 253e
00000320: 0c9b 853e 0159 993f 67d2 e6be 5775 83bf
00000330: a696 5a3f 7875 fc3f 2db4 6c3e 1ecf c4bd
00000340: b2d3 823e ac2c 173f dafd 8fbe 0a72 573d
00000350: b50c 843e de3e adbf 8e4a 20c0 188b c6be
00000360: 1641 1cbf 13f6 8fbd 19e3 0f40 71a0 e2bf
00000370: c40b 123f 2a20 4b3d f9b3 93be 5c09 cf3e
00000380: edee 703e 6136 9d3f 8f49 773f 0827 a1bf
00000390: 1421 063f 6e93 57bd 5004 f73f 8630 05c0
000003a0: 895a 423f 5ed9 9f3e 47dc 38bd 39fa cbbe
000003b0: 1436 43bf f304 193f 231a 98bf a126 543f
000003c0: 489c 25bf b2c1 a5bf 025f 033f efe5 673f
000003d0: 6c25 ae3f f27c fa3e c8f6 f0bf e92d 3a3f
000003e0: 0da4 1f3f 4d97 b63f 8d44 67bf 282d 363f
000003f0: 59aa 8f3f 355d 5abe 2132 253f a59b 0b40
0.3063534 0.1298528 -0.7292726 -1.6476256 -0.6670771 -1.4892374 1.174449 0.49140784
0.72626114 0.53805554 -1.7390283 -1.3648098 0.5056747 -0.44388252 0.6621853 1.9464595
0.6714231 0.18233755 0.3650465 0.47523698 0.24002269 -0.7823235 -1.0977237 -0.94797444
-0.6428619 -1.0208577 0.70834976 -2.3375025 -0.36440563 0.823048 1.4258716 0.3865376
-2.1835608 1.7072895 -0.2537688 -1.8990194 -0.43837422 -0.6196386 -1.13109 -0.9119274
0.5005472 0.41900137 0.9698674 -0.44167712 0.3771697 0.8929428 2.2449913 0.5474983
-0.3116212 -0.39574698 0.27044848 -0.51446086 -0.7734079 0.19330011 -0.6324308 0.7603005
-0.27406955 -0.21204166 2.5187407 -0.56905997 0.062118284 0.3371948 1.8240153 0.03820316
-0.15916361 -0.63008267 -0.421192 -0.08518504 0.21120119 0.5773663 1.8635818 0.2980823
-1.0425738 -1.277257 -1.3006865 0.055647492 -1.5052844 -1.0943987 0.85228944 -0.9204657
-0.1570838 0.5714177 1.4691496 1.1964532 0.38535008 -0.5136069 0.19116636 2.3055234
-0.027678452 1.0230894 0.35833487 0.9597936 0.043505292 1.8516409 0.8614366 0.11766526
-0.78395873 -1.4122559 -0.5165808 0.5191465 1.2687521 -0.2911203 0.18668684 0.34860465
0.43195277 -1.1912669 0.7222622 0.6796672 1.5923492 -0.25894526 -1.9462694 -0.6254481
0.68371785 -1.6274841 0.7643496 0.59194076 0.550184 -0.46931735 -1.2295214 -0.761653
-1.9515755 3.3011706 0.18454969 0.39495832 0.7009217 0.94966453 -2.1852062 1.3846341
-0.8808568 -0.2637535 1.6260769 -0.18344066 0.24978006 -1.0050058 -0.9768129 -0.75020087
-0.8438144 0.9080126 -0.018165266 1.2184161 -0.3263199 0.5920361 -0.4699068 2.1297626
-0.8156185 0.21521555 0.80007195 -0.3782441 -0.7994334 0.54966646 1.536091 -0.0020012415
-1.3640491 -0.21718092 -0.6227234 -0.776683 0.36484236 -0.26849937 -0.15489832 0.7590715
-0.80799377 1.4060206 0.33377582 0.5225645 0.73938346 0.355518 0.008493408 1.4418607
2.0139582 -0.2170995 0.4155105 -0.19874272 1.2543643 -0.2952873 -0.42474195 -0.68424785
-0.37463152 0.30107203 -1.0354016 0.35580507 -1.3988981 0.35662967 0.07349874 -1.7212399
-0.021910822 0.82497257 0.26410952 -0.05357301 0.38899818 -1.37019 -0.8723196 -0.51887953
-0.048331887 -0.63709736 0.90969557 -1.0772203 -0.11392052 -2.005909 -1.4532481 0.16201958
0.26094854 1.1980287 -0.450824 -1.0270184 0.8538612 1.9723349 0.23115607 -0.09609817
0.25552136 0.5905254 -0.2812336 0.05259899 0.25790945 -1.353481 -2.5045505 -0.38777995
-0.61036813 -0.07029357 2.248236 -1.7705213 0.570492 0.04959122 -0.28848246 0.40436828
0.23528643 1.228222 0.96596617 -1.2590036 0.52394223 -0.052630834 1.9298191 -2.0810866
0.75919396 0.31220526 -0.045131948 -0.39839342 -0.7625439 0.59773177 -1.1882976 0.82871443
-0.6469159 -1.2949736 0.51316845 0.90585226 1.360517 0.4892345 -1.8825312 0.72726303
0.62359697 1.4264923 -0.90338975 0.7116265 1.1223861 -0.21324618 0.64529616 2.1813748

static_ll.0.weight f4 [128, 64]
00000000: b05d ec3d 97da bebd fd24 e7bd 14ba 04be
00000010: ce01 8e3d e1d5 83bd a228 00be 9117 f73c
00000020: 13cc 873d c950 83bd 6716 22bd 6419 90bd
00000030: 50ef 263e ace5 56bd c7d4 723c e426 acbd
00000040: 9427 0abe b2ce d03d d4ed 78bd ed95 edbd
00000050: 435b 27bd 4b2c 97bd f5ae 0fbe e82c d6bd
00000060: 7aaa dd3d 4622 9abc e1e1 563d 0a04 d6bd
00000070: 9a9a 733d 7f0b 90bd 7617 9a3d eb71 f83d
00000080: 772d cd3d e09a c73d 262f 10bc 60e3 fabd
00000090: b237 3d3d 9b73 833d f1b8 283d 7c22 30bd
000000a0: 8fbe 653c 9869 993d b703 923d a305 133d
000000b0: 25cd 95bd 2646 723d da27 39bd b24c 8dbd
000000c0: e7e8 54bd 26a2 ffbd c088 093e 6a51 133e
000000d0: c9ef 303d 4b4d 6cbc ad81 4cbd 0f74 04be
000000e0: c541 903c 9194 b13b b547 1ebd 5645 0f3d
000000f0: f2c3 08be 4766 dfbd 8d09 07bd 1d59 b1bc
00000100: a68b 14bc fa3f e53d 77e1 d3bd 5843 dd3d
00000110: e753 e2bc b21b acbd f8a9 c53d 71b0 8cbd
00000120: f707 a8bd 21c3 513d 4c6e 11bd 1e37 bb3d
00000130: 1a52 72bd 2376 083c a951 533d 2bd1 acbd
00000140: a7c2 d0bd b003 bfbd fdb1 8b3b b85f d33d
00000150: e501 bd3d 903f 843d 514c 633d 589b 8e3c
00000160: 723a b53d 259d 313d d444 c63d e23e 063e
00000170: dfa1 d83d 8af9 053e c629 a93c 584b ffbd
00000180: 76c1 e6bd c589 e6bd 9100 243d e6c2 44bd
00000190: b12d 29bd 487e f43d c7b1 7ebd 556c f73d
000001a0: ddf3 68bd 87b8 b9bd 05bf 003e 5bcb e7bd
000001b0: 07da a6bd 3ff8 32bc bace f9bc 9cdc 02bd
000001c0: 6995 7dbd eb8c ed3c 128f 163e 6b43 283c
000001d0: 5508 08be 1a96 b9bc ff76 b3bd 8b5c 673c
000001e0: 3bcb a5bd 3741 083e e05f 3ebc 598f bc3d
000001f0: 35a0 19bc 5346 a83d d206 f9bd b6a5 d23d
00000200: 30c3 ad3d 0db8 ffbb 7a77 33bc eaef 7c3b
00000210: 09ad b93d 797b 15be b42b dabd 30fd aabc
00000220: b339 b5bd 7bd8 e8bc b794 adbd c680 06be
00000230: 082c c8bb f910 b5bd 2fc4 c6bd 05bf 95bc
00000240: 3b91 a0bd f689 dd3d cab2 2ebd 6976 e6bd
00000250: f324 753d 39cb 5bbd d00f fdbc 60b3 123d
00000260: ec44 7ebd 1240 dbbd 06b9 bebd 98ec 73bd
00000270: 14b5 94bd d450 993d 1cef 663d bdad d5bc
00000280: 6716 07be 6937 9e3d 3d60 b23c 16b8 e33c
00000290: a32f 473d 580c febb dec3 203d ac8d 4ebc
000002a0: f058 c2bc e1ce b3bd dfc8 b33d a0f0 85bd
000002b0: 42ed 093e 57b5 d73d f82b ff3d 2095 46bd
000002c0: 2422 c9bd ba4e 9bbc 45fd c23d 76b0 a13d
000002d0: 224e 2fbc e8ef ea3d 0372 c23d 1067 1fbd
000002e0: af4e 3f3c a808 8239 6481 983c 1f24 a2bd
000002f0: 3428 063e 4400 b63d 6c58 bf3c 59cd 91bd
00000300: e2d4 c5bd 025f 76bd 60a3 f8bc 2362 d5bc
00000310: b5f2 fe3d 8077 de3d cf6e 07be 7da5 903d
00000320: dfe8 c4bd ea00 c13d ea25 753d 910f aebb
00000330: 610f b03d d295 783d 991b 203d 3c2c 4d3d
00000340: 50af a63d f9a2 8abc f2a0 b4bb 614f 5e3d
00000350: 5883 bd3d 4bf9 b83d b43b 15bd 8da6 30bd
00000360: ec39 c43d 0ee4 b6bc 3a0b 13be 84f9 c83c
00000370: 4523 b83c 4094 95bc 5ab2 843c 7761 773d
00000380: 30fc 943c 45e0 b2bd 1176 19bc 28d1 603d
00000390: 10da febc 4e2d 91bd 5cab ebbd 838a 383d
000003a0: 27b3 ea3d d213 1abe 1634 debd 8664 c83d
000003b0: 0a7b 2cbd 86ad 79bd 09af cb3d 860a c8bd
000003c0: 479f 3c3c 6590 473d 398c 0ebe 6b42 efbc
000003d0: fc9d 033e ed08 b4bd d7a2 b8bc a6a7 8fbd
000003e0: 4a7e b43c 58b7 76bd 3657 f73b dd7f a0bd
000003f0: eca8 a5bd 4234 acbd 6a09 7abd efc6 a2bc
0.11541307 -0.093190365 -0.11286352 -0.12961608 0.06933938 -0.064372785 -0.125155 0.030162605
0.06630721 -0.06411893 -0.039572146 -0.07036093 0.16302228 -0.052465126 0.014821238 -0.08405855
-0.1349166 0.10195674 -0.060773686 -0.11600862 -0.04085852 -0.07381495 -0.14031585 -0.10457784
0.108235314 -0.018815171 0.05246151 -0.10449989 0.05947361 -0.07033443 0.07524006 0.12131103
0.10018437 0.09746337 -0.008800304 -0.122503996 0.046195693 0.06418534 0.041192 -0.043001637
0.0140224835 0.074908435 0.07129615 0.035894047 -0.07314519 0.05914893 -0.04520402 -0.06899394
-0.051979925 -0.12482099 0.13431072 0.14386526 0.043197427 -0.014422725 -0.049928356 -0.12934898
0.017609486 0.005419322 -0.038642604 0.034978233 -0.13355997 -0.1090818 -0.032968093 -0.021648938
-0.009066498 0.11193843 -0.103457384 0.108038604 -0.027627898 -0.0840372 0.096515596 -0.06869591
-0.08204644 0.05121148 -0.035505578 0.09141372 -0.05916033 0.008328947 0.05159155 -0.08438333
-0.10193377 -0.09326875 0.004263161 0.10320991 0.09228877 0.06457436 0.055492703 0.017408058
0.08849038 0.043362755 0.09681097 0.13109925 0.105777495 0.13083473 0.020649802 -0.124655426
-0.112673685 -0.11256746 0.040039603 -0.048037432 -0.04130334 0.11938149 -0.06218126 0.120812096
-0.05687319 -0.09068399 0.12572868 -0.11318084 -0.08147054 -0.010923444 -0.030494083 -0.03194867
-0.061910067 0.028997859 0.14703014 0.01026998 -0.13284428 -0.022654582 -0.08762931 0.014121185
-0.08095404 0.13306127 -0.011619538 0.09207029 -0.009376575 0.08216538 -0.12159504 0.10285513
0.08484495 -0.007803923 -0.010953778 0.0038595148 0.09066207 -0.14597882 -0.10652867 -0.020872682
-0.08848896 -0.028423538 -0.08475631 -0.1313506 -0.0061087646 -0.08841128 -0.09705388 -0.018279562
-0.078402005 0.108173296 -0.042650975 -0.11253054 0.05984969 -0.053660605 -0.030891329 0.035815597
-0.062077448 -0.1070558 -0.09312634 -0.059551805 -0.072611004 0.0748612 0.056380376 -0.026083821
-0.1319214 0.077254124 0.021774406 0.02779774 0.048629414 -0.0077529363 0.039249294 -0.012607019
-0.02372405 -0.087796934 0.087785475 -0.06540036 0.13469413 0.10532635 0.12459558 -0.04848206
-0.09820965 -0.018958438 0.095209636 0.078949854 -0.010699781 0.1147154 0.09494402 -0.038916647
0.0116764745 0.00024801982 0.018616386 -0.07917046 0.13101274 0.088867694 0.023357593 -0.07119245
-0.09659745 -0.0601492 -0.03035134 -0.026047772 0.124486364 0.108626366 -0.13225864 0.070628144
-0.09614729 0.094240025 0.05985061 -0.0053119143 0.08596683 0.060689755 0.03908882 0.050091013
0.08138907 -0.016923415 -0.0055123502 0.05427492 0.092535675 0.09031924 -0.03643389 -0.043127585
0.0958136 -0.022325542 -0.14359751 0.02453304 0.022477755 -0.018259168 0.016198326 0.060395684
0.018186659 -0.08734182 -0.009366528 0.054886967 -0.03110984 -0.07088719 -0.115072936 0.04505397
0.11459952 -0.15046623 -0.10849778 0.09784798 -0.042109527 -0.0609565 0.09945495 -0.09767632
0.011512584 0.04872169 -0.13920678 -0.029206475 0.12853235 -0.08790765 -0.022538586 -0.07014398
0.022032876 -0.060233444 0.007548238 -0.07836888 -0.0808886 -0.08408405 -0.061044134 -0.01987025

static_ll.0.bias f4 [128]
00000000: d53a e33d 3db4 b3bd da8b 4a3c f589 7abd
00000010: 6eba e23d 352c a93d d01b a7bd 2cb3 d23d
00000020: ae40 ab3c 1b77 083e ea25 093e fb1f 6fbd
00000030: 7a59 f5bc a2d3 bf3d ce6f 173c a001 eb3d
00000040: 10a9 fd3d 9039 92bd b6d3 ef3c 92af 943d
00000050: 1b58 ba3d b0cc 283b ca20 9d3d 4b15 163e
00000060: 1b4e e83d ade4 b43d 237b 4cbd d144 b6bd
00000070: 258c 8dbd 0347 ef3d 5e53 c0bc 37b9 86bd
00000080: 82f7 3cbb a967 a63d f64f e13d 2ca2 a2bd
00000090: 585c dd3d 8608 e63d 5adc 333c 29e5 603d
000000a0: 29d8 6c3c 3850 f5bc ae55 c1bc e32c aebd
000000b0: 01f3 8a3b d6b8 17bd 1a50 52bd 7a20 3abd
000000c0: 3d11 06bd a5e6 e53d 0f2d df3d fe5a d93c
000000d0: e93c 093d 425f 073e 95b9 19bd 70fd 833d
000000e0: 3bd0 0f3e 24de cf3d e0fe d8bd 7e64 a3bd
000000f0: 6740 b7bc 6b8a e23d fe47 6bbd c92d 95bd
00000100: c8b9 5dbd bc74 54bd 0e65 1f3d 29d3 9ebd
00000110: c5e6 33bc 965e 74bc 9b5c 543d c390 a53d
00000120: 8d8b 08bc 3a6d c1bc e630 7fbd 39fb a83b
00000130: baac 303c 9016 473c a78d 24bd 74dc 9bbb
00000140: c71d b63b a7c0 bd3d 61f8 b7bd 450c 443c
00000150: 42c4 94bd 413c 22bc 430a 8cbd 2810 323d
00000160: e868 153e 2be0 94bd 01da c63d a438 06bd
00000170: 8741 d3bd 3ddd b23c 3068 3dbc b63e 00bc
00000180: 98d2 8dbd 450a 953d 2662 d43a c5a1 86bb
00000190: 38ea f23d 8fc0 89bd 159e 6f3d 4508 4bbd
000001a0: 574e a7bd c83c 46bd dfd0 ed3d 2e7f d33d
000001b0: d6fd 6c3d f30e 2b3d 10d1 453d 32e2 bdbc
000001c0: ba0d f93d f29c a7bd 9d99 8b3d 0474 19bd
000001d0: 0a12 373d 89b3 813d f37f 5b3d 8bef c8bd
000001e0: b906 903d faeb 9cbc da67 c23d 7012 74bd
000001f0: d0cf 7f3d e7aa 02be f4db ef3d 8917 bd3c
0.11095206 -0.08774612 0.012362445 -0.061166722 0.11070715 0.08260385 -0.08159602 0.102880806
0.020904865 0.13326685 0.1339337 -0.05838011 -0.029949892 0.09366538 0.009242965 0.11474919
0.12385762 -0.071398854 0.029275756 0.0726005 0.09098836 0.002575677 0.0767227 0.1465656
0.113430224 0.08832679 -0.04992212 -0.088998444 -0.06911496 0.11683466 -0.023477253 -0.06578296
-0.002883405 0.0812524 0.110015795 -0.07941088 0.10808629 0.112320945 0.010977829 0.054906044
0.0144558335 -0.029945478 -0.023600426 -0.08504655 0.004240394 -0.037041508 -0.051345922 -0.04544113
-0.032731283 0.112256326 0.10897266 0.026532646 0.033505354 0.13219932 -0.0375305 0.06444824
0.14044277 0.10149792 -0.105954885 -0.07978152 -0.022369577 0.110615574 -0.057441704 -0.072841235
-0.054132253 -0.05186914 0.038914733 -0.07755119 -0.010980313 -0.014915129 0.051846128 0.08084252
-0.008334053 -0.023611654 -0.062302493 0.005156901 0.010783369 0.012151375 -0.040174153 -0.0047565047
0.005557749 0.09265261 -0.089829214 0.011965816 -0.07263996 -0.009902061 -0.06837895 0.04347244
0.145908 -0.07269319 0.0970955 -0.03276886 -0.10315233 0.02183401 -0.011560485 -0.007827451
-0.06924933 0.072773494 0.0016203567 -0.00410864 0.1186108 -0.06726181 0.05850037 -0.049568433
-0.08169239 -0.04839781 0.116121046 0.10326992 0.057859264 0.041762304 0.04829508 -0.023179147
0.12160821 -0.08184232 0.06816409 -0.037464157 0.044694938 0.06333072 0.05358882 -0.09811314
0.07032532 -0.019155491 0.09492464 -0.059587896 0.062454045 -0.12760507 0.117118746 0.023082511

static_ll.2.weight f4 [64, 128]
00000000: 638e 1d3d 544c 81bd 957d 753d 2fef 693d
00000010: 4779 a03d 9f65 a43c 7865 38bd 4ff6 e2bc
00000020: ceff a1bd 0541 bb3c 30f7 8bbc cfbc 3b3b
00000030: 71cd a7bc 1ef8 1a3c 5657 053d 9d76 8b3d
00000040: d481 3f3d c25f 6fbd 3d5b f6bc 1a64 70bd
00000050: 5633 45bd 7c45 993d 9fd0 513d 4589 013d
00000060: e29a 143b 92e3 933d 3a2d 30bd ebfe 43bc
00000070: 36d4 e13b fbc0 d0bb 74ec 823c c801 b2bd
00000080: d2eb bc3d 11af 4dbd b1b8 5dbc 4082 94bd
00000090: 8cf7 9f3d eb1e 173d c68c e0bb 8a60 c83c
000000a0: 39cf 24bd eb26 ee3c 2edb 403c e763 823d
000000b0: 1b43 153d e488 7ebd d4b5 4d3d 3560 633d
000000c0: c6d3 313d da8f 12bc ece1 c0bc 09ec 98bd
000000d0: 6197 84bb 325f b23d f915 24bd 6ee9 9e3d
000000e0: 6762 013d 22e5 a5bd e97b 79bd c4cb 523d
000000f0: 586d ba3d 0013 9e3d fd61 2e3b 0a3b d439
00000100: 8d98 8f3b 4a0a d9bc 7293 b63d f474 36bd
00000110: 2b2f a5bc f9ff 623d 7058 bdbb c4b7 93bd
00000120: a8f2 ec3c d9a0 373c 08e6 1f3c 4252 d2bc
00000130: 734a 8cbd 01db dbbc 2fb5 1b3d 4fc1 99bc
00000140: bb64 093d bdcd 9b3d 2c3c 303d e76d 073b
00000150: 7d2f fdbb 93f1 0cbc 6867 8ebd 0ee5 873b
00000160: 061e 973b 49a3 2dbd cd82 86bd 96e6 85bd
00000170: c350 413d 08ca 873d 615d 10bd d853 8bbd
00000180: 137a 713a 737d f33c ea8b 7c3d 9ec3 9a3d
00000190: c733 9e3c 92a3 623d 0d75 223d 3229 ab3d
000001a0: 3606 333d b042 53bd 4686 9b3d f9be d93c
000001b0: 9dba b23c f06e 953d 6a26 06bd 4711 7cbd
000001c0: 9d4a 34bc f4bf 4c3d a7d6 d3bc 9e71 b13d
000001d0: 5fc4 cd3d 608a 943a ab2d 60bc 8657 cdbc
000001e0: 3b58 12bd 25fc 363d 91d7 953d 6e60 72bd
000001f0: 11e9 e33c da57 8c3c 8360 a73d 1f82 053d
00000200: 8cce 253d b6dd 03bd adae ec3c 72c6 4cbc
00000210: 1fcb 393d d964 79bd c4b3 583d b877 b03d
00000220: c4a4 893c 1e3f 31bc aea9 523d 675a ee3d
00000230: 973a bd3a 6186 543d c837 d7bc fbd0 9c3d
00000240: 4120 dbbc d55b a4bc 600c 4c3d b3dd 473d
00000250: da78 70bd 06da 843d 2927 693d f8f4 1ebd
00000260: 33c7 7a3c 7113 4a3d e487 fc3c 9337 813d
00000270: 7206 9cbd 9c0b ac3d 4176 da3c 64c7 713d
00000280: 31e0 19bc 9b19 a13c 5c88 933b 4e95 303d
00000290: 50a6 5a3d c8c8 7a3d d610 833b 103c 9e3d
000002a0: 9491 383d 7978 febc c144 993c 5310 88bd
000002b0: fe77 663d f9a5 543d 5798 8e3d 9a47 a63d
000002c0: be2e cebd d380 e13d 5253 733d 5c2a e53c
000002d0: 9537 30bd 30da 993d e2c5 e83c 2f28 a0bd
000002e0: c2ad db3c 4cab ddbd 1124 acbd 421a 143c
000002f0: be33 ee3d ac76 f2bc 12eb 0d3d a60b 7b3c
00000300: 9f37 be3c 8391 81bc 70b9 b33d 7fa2 c83c
00000310: dd3e a9bd 93e0 4abd c001 8e3d b9b1 c7bd
00000320: 1ad3 e03b afa9 9cbb bc06 0f3d 3e78 79bb
00000330: f5c6 483c 6c35 12bc 8b72 cbbc c165 ca3d
00000340: 2201 08bd faac 763d 1eb3 a8bd 2028 433b
00000350: 2785 94bd 1eea 2d3d 9542 ba3d a03e 4cbd
00000360: 7c0e e33c 42d4 cc3d 398a 37bd 39d0 83bd
00000370: 8be1 833d 6050 903d 7bcc 723b aa4b be3d
00000380: 9e3d b33d 2f01 a23d a976 c03d 44f0 94bc
00000390: 867a 103d 2b6f 25bd 4981 ef39 0a74 813c
000003a0: d545 2ebd 9c88 1b3d 1756 e83c c2f4 3a3d
000003b0: 412d 1dbd 6e53 3abd cb37 043b f9bd 05bc
000003c0: 6a22 27bd e0d7 a8bd f0c7 1b3c 9cd2 e93c
000003d0: 7738 8ebd 7b19 863d 9e6b a43d 5afd d3bc
000003e0: e7ef 88bd b4b9 a3bc 04e8 79bd 1da3 a9bb
000003f0: 2679 9abc dd23 6639 e2c0 e4bb abd0 54bd
0.03846587 -0.063133866 0.059934217 0.05711287 0.07835632 0.020067988 -0.045018643 -0.02770534
-0.07910119 0.022858152 -0.017085642 0.0028646474 -0.020483704 0.00945857 0.032553993 0.06809733
0.046754673 -0.05844093 -0.030072803 -0.058689214 -0.04814466 0.07483956 0.051224347 0.03162505
0.0022675325 0.0722114 -0.04301188 -0.011962633 0.0068917526 -0.0063706613 0.01598189 -0.08691746
0.09224667 -0.050215784 -0.013532803 -0.07251406 0.07810888 0.03689472 -0.006852719 0.024460096
-0.040236685 0.029071292 0.0117710065 0.06366711 0.03644095 -0.062142268 0.050222233 0.055511672
0.043414854 -0.00894543 -0.023545228 -0.07466895 -0.004046366 0.08709563 -0.040060017 0.07759367
0.031587984 -0.08100344 -0.060909186 0.051463857 0.09102887 0.07718468 0.0026608699 0.0004047978
0.004382199 -0.026494164 0.08914842 -0.04454513 -0.020164093 0.055419896 -0.005778365 -0.07212785
0.028924301 0.011207783 0.009759434 -0.02567399 -0.068501376 -0.026837828 0.038014587 -0.018768935
0.03354333 0.07607601 0.043026134 0.0020664872 -0.0077266083 -0.008602518 -0.06953317 0.0041471785
0.0046117334 -0.04239205 -0.06567917 -0.065381214 0.04719616 0.06630331 -0.035245303 -0.06803101
0.0009211611 0.029722905 0.06165687 0.07556842 0.019311799 0.055331774 0.03966241 0.08357467
0.043707095 -0.05157727 0.0759397 0.02658032 0.0218175 0.0729655 -0.03275148 -0.061539914
-0.011004117 0.04998775 -0.02585919 0.08664249 0.100472204 0.0011332743 -0.013682763 -0.025066148
-0.035728674 0.044674058 0.07316507 -0.059173994 0.027821096 0.017131735 0.08172705 0.032594796
0.04048018 -0.032193862 0.028891886 -0.012498485 0.045359727 -0.06088719 0.052905813 0.086165845
0.0168022 -0.010818271 0.05143135 0.11638337 0.0014437017 0.051885966 -0.026271716 0.07657047
-0.026748778 -0.02006332 0.04981649 0.048795413 -0.058709003 0.06486897 0.05692211 -0.03880784
0.015306282 0.049334947 0.030826516 0.06309428 -0.07618417 0.08400652 0.026667716 0.059028044
-0.00939183 0.01966553 0.0045023393 0.043111138 0.053381264 0.061226636 0.0039998097 0.077263
0.04506071 -0.031063305 0.018709542 -0.066437386 0.056266777 0.051916096 0.0696265 0.08119126
-0.10067509 0.110108994 0.059405632 0.0279743 -0.043021757 0.07512319 0.02841467 -0.078201644
0.026816253 -0.10823688 -0.084053166 0.0090394635 0.11630963 -0.029597603 0.03464801 0.015322601
0.023219882 -0.015816456 0.08775604 0.024491547 -0.08263943 -0.049530577 0.069339275 -0.09750695
0.006861103 -0.00478097 0.03491853 -0.0038066055 0.012254466 -0.00892387 -0.024834892 0.09882689
-0.033204205 0.060223557 -0.08237289 0.0029778555 -0.07251959 0.0424596 0.09094731 -0.04986441
0.027716868 0.100014225 -0.044809554 -0.064362 0.06439503 0.0704658 0.003704815 0.092917755
0.08751987 0.07910382 0.09397633 -0.018180974 0.035273097 -0.04038922 0.00045681957 0.015802402
-0.042547066 0.037972078 0.028361363 0.045643575 -0.038373236 -0.04548972 0.0020174857 -0.008162969
-0.040804304 -0.082443 0.009508118 0.02854281 -0.069443636 0.06547829 0.08028339 -0.025877643
-0.06686383 -0.019986011 -0.061012283 -0.0051769153 -0.018856596 0.0002194787 -0.0069810012 -0.051956814

static_ll.2.bias f4 [64]
00000000: 3748 5d3d 7c51 263d 57ee 84bc c715 68bd
00000010: b824 f8bc 6817 123d 2e4b 053d 297d 0dbc
00000020: 47c5 1a3d c2ab 82bd 8a25 9f3d 474b e5bc
00000030: d1da 81bc 6ee6 7a3c ad35 a33d 18be cc3d
00000040: 716a a1bd 0b8e a43c 2554 b43d cecb 81bd
00000050: 3032 0dbd 739b 16bc 9561 6e3d 31c3 9e3d
00000060: 6357 12bd 3eb8 b03d 2972 383d 054d dcbc
00000070: da3c 963c a0a9 653c e51a 763d d0e1 8e3c
00000080: aa23 35bd b4e1 8fbd 3be7 b83d 391a 353b
00000090: 625e 2e3d 2eb5 45bd be8a 92bc 2f74 933c
000000a0: f059 023d 0950 793d c49a 88bc 89e8 c23c
000000b0: cb1f 38bc 6f56 953d 1cbc c8bc 5a29 1a3c
000000c0: 1587 323d 1008 423c 7a71 c93c 2b0b a23c
000000d0: 0ca1 2abd e15a 8c3d 0c79 9d3d 68b9 5b3d
000000e0: 5ee1 dcbc 66d3 a43d 32b2 0abd 2209 c83d
000000f0: 9d1c 993d 9e09 9f3c cf74 40bd 61e6 c93d
0.054023948 0.040605053 -0.01622693 -0.056661393 -0.030290946 0.035666853 0.0325424 -0.008635798
0.037785795 -0.063804165 0.07770832 -0.027989997 -0.01585141 0.015313728 0.07969222 0.09997195
-0.0788163 0.020087263 0.08805112 -0.06337701 -0.03447169 -0.009192335 0.05819853 0.077520736
-0.03572787 0.086288914 0.045030747 -0.026892195 0.018339563 0.0140174925 0.060084242 0.01744166
-0.044223465 -0.07025471 0.09028479 0.0027634038 0.04257048 -0.04826849 -0.017888423 0.017999737
0.031824052 0.060867343 -0.01667536 0.023792522 -0.011238049 0.072918765 -0.02450376 0.009409273
0.043585856 0.011842743 0.024590243 0.019780716 -0.041657493 0.06853271 0.076891035 0.053643614
-0.026962932 0.080481336 -0.033861347 0.09767367 0.07476161 0.019413766 -0.046986397 0.098583944

glu_encoder.rnn.weight_ih_l0 f4 [48, 2]
00000000: 725f 353e e73a 24be a0d1 e33d 88c7 6ebd
00000010: 74a7 3e3e 6def 4b3e 4576 a4bd 5a31 3bbe
00000020: 1b19 1cbe 127b 413e 325a 8c3e 0569 0c3e
00000030: 91ff 54be a28d 753d 1595 983e f917 9abe
00000040: 7835 c5bd 0301 67be 214a 713e 6021 23be
00000050: 29ba 0e3e fdd5 15bc 081a 0c3e 30b5 613e
00000060: 3db4 683e d84c bcbd de8d be3d 55c2 f83c
00000070: 209c f33c 1f66 43bd 7b66 47be 9c23 44bd
00000080: c86e 613e 61e9 b9bd 557b 293d b674 7d3e
00000090: bbdc 63be 9864 4bbe e502 88bc da7f 763e
000000a0: d78b 06be 1a1e 683e 9eb8 acbd 9814 89bd
000000b0: d214 f1bd a620 123e 1e0a 5e3e 0f01 4b3e
000000c0: a89d 503d 81ef 34bd 77eb a1be dfd6 753e
000000d0: 4634 9abe 01ef 6abc a256 343d f399 39bd
000000e0: ac32 513e 568a 34bd 5364 833d ca59 9abc
000000f0: b62b 5f3e 7a2d b6bc 1ade 1ebe 97a8 11bd
00000100: 09db 083e 87e5 e1bd 498d 1bbe fce8 3f3e
00000110: 37a9 ff3d 1040 323d 557b 853e 1926 b8bd
00000120: 144c efbd 3ba5 3abe cf5b 763e a13c 6bbe
00000130: b239 413e f808 b4bc 7632 d63d 88b4 3cbd
00000140: d2cf 1a3e f29f 00be 0587 7f3e 2f91 383e
00000150: ab15 103e 5e86 5b3e a7e1 45bd b114 94bd
00000160: cf83 ffbd 05d4 d0bd 831d 7dbe e7ec 6c3e
00000170: 4606 763e c4ee 7dbd 643f 503d 6aa9 4f3e
0.17712191 -0.16038094 0.11123967 -0.058295757 0.18618566 0.19915552 -0.080303706 -0.18280545
-0.15243952 0.18894604 0.27412564 0.13711937 -0.20800616 0.059949525 0.2980124 -0.30096415
-0.09629339 -0.2255898 0.23563434 -0.159307 0.13938202 -0.009145257 0.13681805 0.22041774
0.22725005 -0.09194344 0.09304403 0.030366102 0.029737532 -0.047704812 -0.19472687 -0.047885522
0.22014916 -0.090777166 0.041377384 0.24751553 -0.2225217 -0.19862592 -0.016602943 0.24072209
-0.13139282 0.22667733 -0.084336504 -0.06693381 -0.11771549 0.14270267 0.21683547 0.19824623
0.050931603 -0.04417372 -0.31624958 0.24007748 -0.30118006 -0.0143392095 0.044027932 -0.045312833
0.20429486 -0.04407724 0.0641562 -0.018841643 0.21794018 -0.022238482 -0.15514413 -0.03556117
0.13364805 -0.11030107 -0.15190615 0.1874122 0.12483447 0.043518126 0.26070657 -0.089916416
-0.116844326 -0.18227093 0.2405846 -0.22972347 0.18869665 -0.021976933 0.104588434 -0.046070606
0.1511834 -0.12561014 0.2495385 0.18024133 0.14070766 0.21437976 -0.048310902 -0.07230509
-0.12476312 -0.101966895 -0.24718289 0.23137246 0.2402583 -0.061995283 0.050841704 0.2027947

glu_encoder.rnn.weight_hh_l0 f4 [48, 16]
00000000: 1313 3fbe 8861 6abe 2ae7 bfbd 1ed1 073e
00000010: 245f d63d a710 9bbd 0591 86be 654a 403e
00000020: ab3c 623d dc9d 483e d0c2 3ebe 4467 23be
00000030: 1adb 0bbd cf25 01be 562d fb3d fc13 99bd
00000040: c38c e23d 1260 b3bd ff29 0c3e 1bee 80be
00000050: 58cd 06be f90e 533e 249c 943b d4ad 5c3d
00000060: b0e9 74be 1260 653e fff9 98bd 7cb4 cf3d
00000070: 6bd3 f73d 14b9 fabd 4363 59be 0840 ad3d
00000080: 1163 243e eee6 14be a586 09be 0473 67be
00000090: 9823 1d3d c85e 1e3d 0fda 3cbe 8e57 273e
000000a0: aeee 033e 20da c3bd ddb6 a9bd a4d8 253e
000000b0: ad6c c9bd a138 293e a358 4abe 5f96 2f3e
000000c0: 9525 183e d6eb 3dbe 4e87 0a3e 6414 623e
000000d0: 7e2d 303c c01a 203e 107b 423e fd6c f33d
000000e0: 8e8a 42be 5673 99bd b10c 19be 770d 12be
000000f0: 1924 113e 8f00 103d ce71 0d3c 337f eabc
00000100: 9566 a6bd feb0 113c 1c24 283d 2d16 2dbd
00000110: 9468 1b3d 8c51 a0bd cb87 943e 8935 013e
00000120: cc7b 763c e1d6 0a3e 5f2a 4b3d 6258 90be
00000130: 84f7 93be c41b d63d cb58 043d 81ad 17be
00000140: e013 c23d b6c6 373e aec5 513c 81d1 5f3d
00000150: f11b 26bb f464 91bc c938 02bd 2cfd 523e
00000160: a202 873d 9145 7a3e 24de 21be 043f a4bd
00000170: d46c 41be a475 82be c3a4 3abd 6ea8 0cbd
00000180: 0b34 a0bd e726 283e 443f 0d3e fd6d 623e
00000190: 7d3f 793d a32c 5d3e 9cd5 9abd f736 de3c
000001a0: 6020 513e d362 f13b d66c 47be 1641 423e
000001b0: 78a6 2d3e 2091 2bbe c2bc b43d 8906 3ebe
000001c0: 15be b83d a108 2fbe f84d 9ebc 39da b53d
000001d0: aa63 69be ca0b 253e d300 9bbd 0ba1 74bd
000001e0: 12f0 1bbe 1c8e 203e e97d 963d 38f7 66be
000001f0: 8edb 8cbe 8905 89be c245 603e cf55 4ebd
00000200: 523f 883c aaa7 773e 020e 623e 823c 41be
00000210: 180d 27be 5840 eb3d 8e1d 68bd 8991 70be
00000220: 07c5 03bd 63b5 b13d baf4 c2bd 8082 4e3e
00000230: 4fe5 5abe be30 babd 16e2 5e3e d295 b2bd
00000240: a304 853e 5722 8bbd 9633 1e3e af5e 51be
00000250: 8006 36be 9098 4abe 6a0c 303d 6626 423d
00000260: 880c 22be 91e7 15be afaa 74bc 4701 7cbd
00000270: fb9c 863c 9f70 4d3d 0acc 603d 7189 bd3d
00000280: 85e2 743e 1105 cbbd 4b58 6cbe f323 913d
00000290: 5e0f 4c3e 9037 ff3d a70a 923d c9c6 2d3e
000002a0: b673 0f3d b964 4bbd af0a bebd 4346 193e
000002b0: b781 59bd 1974 993c 047f 193e f1d5 0cbb
000002c0: 5902 01be 6858 d43d 8031 563d abe4 1e3e
000002d0: 38f9 7d3d afbb 74bc ce1b 05bd b58f c9bd
000002e0: d22a 80bd c165 06be fe57 93bd 9c24 133d
000002f0: 1e4d 643e 86a0 33be 93cf 11bd 953d 683e
00000300: 9e96 313e 519b dc3d 452b 19be c681 3c3e
00000310: d087 86be c7da 86bd c283 fe3d d543 053e
00000320: 52f0 503e b6f9 c8bd 079d 2ebe 1386 04be
00000330: 857a 413d 092a 87bd 7003 003d f075 693d
00000340: 5b35 ae3d 9667 083e 0102 bb3d 6e7f 3c3e
00000350: 1822 e2bd 8a81 0ebe 7253 8abd b21f 243d
00000360: d4fa 2c3e 820d 513d fb68 d13d d9c0 d5bd
00000370: 5a20 263c 363b 553d 9022 02be 26c4 2bbe
00000380: 7978 8f3e affd 223e 5a26 41be 8b7f 0cbd
00000390: 1096 bdb9 2cb9 373e a441 cdbd 254a afbd
000003a0: 6a19 edbd e91a 293e 8337 05be b4d2 993c
000003b0: bc61 213e d3f1 d7bb 9051 933e 9ec6 0ebe
000003c0: 80ab 9c3c 6305 7e3c f9a7 d03d c1cd 393e
000003d0: 39c0 673e d388 68be 8852 cb3c 104d 493e
000003e0: eded b23d a9d7 2dbe d929 c3bd 06a9 04be
000003f0: 309e b0bd cf5c 00be 344c 273c 6e5a ad3d
-0.1865962 -0.22888768 -0.09370263 0.13263366 0.104673654 -0.075715356 -0.26282516 0.1877838
0.05523364 0.19591469 -0.18629003 -0.15957361 -0.0341445 -0.12612079 0.122645065 -0.07474515
0.110620044 -0.08758558 0.13687895 -0.2518166 -0.1316427 0.2061118 0.004535215 0.053876713
-0.2391727 0.22399929 -0.07469558 0.101418465 0.12100872 -0.12242332 -0.21229272 0.084594786
0.16053416 -0.14541218 -0.13430269 -0.22602469 0.038364023 0.03866461 -0.18442558 0.16341993
0.12884018 -0.095630884 -0.082868315 0.16195923 -0.098351814 0.16525508 -0.19760375 0.17147206
0.14858086 -0.18546996 0.13528177 0.22078091 0.010753034 0.15635204 0.18992257 0.11886022
-0.18998167 -0.07492702 -0.14946248 -0.14262949 0.14173926 0.035156783 0.00863309 -0.028625106
-0.08125035 0.008892296 0.04105006 -0.042257477 0.03794153 -0.07828054 0.29009852 0.12618078
0.015044164 0.13558532 0.049600955 -0.2819243 -0.28899777 0.104545146 0.032311242 -0.1481228
0.09476447 0.17946896 0.012803478 0.054643158 -0.0025346244 -0.017748334 -0.031792436 0.2060439
0.06592299 0.244406 -0.15807396 -0.08019832 -0.18889171 -0.25480378 -0.045567285 -0.034340315
-0.078224264 0.1642109 0.13793665 0.2211227 0.060851563 0.21599059 -0.07560274 0.027125819
0.20422506 0.007366517 -0.19475111 0.18970141 0.16958034 -0.1675458 0.08825065 -0.1855718
0.0902063 -0.17093135 -0.019324288 0.08879513 -0.22791925 0.16117778 -0.075685166 -0.059723895
-0.15228298 0.1567921 0.07348234 -0.22555244 -0.27511257 -0.26762035 0.2190161 -0.050374802
0.016631756 0.24185053 0.22075656 -0.18870738 -0.16313589 0.11486882 -0.05666881 -0.23493017
-0.03217032 0.08677175 -0.09519334 0.2016697 -0.21376537 -0.09091328 0.21765932 -0.08719982
0.259801 -0.06793659 0.15449366 -0.20446275 -0.17775917 -0.1978476 0.04298059 0.0473999
-0.15825093 -0.14639117 -0.014933272 -0.061524656 0.016432276 0.050156232 0.054882087 0.092547305
0.23914535 -0.09913076 -0.23080556 0.07086935 0.19927737 0.124617696 0.07130938 0.16970362
0.03502246 -0.049656603 -0.092793815 0.14968209 -0.05310222 0.018732117 0.14989859 -0.0021489824
-0.12598552 0.10368425 0.0522933 0.15516917 0.06200525 -0.014937325 -0.03249722 -0.09841863
-0.06258167 -0.13124754 -0.071945176 0.035923585 0.22295043 -0.17541704 -0.03559835 0.22679742
0.17342612 0.10771812 -0.14957912 0.1840888 -0.26275492 -0.06584697 0.124274746 0.13014157
0.20404175 -0.098132536 -0.17052089 -0.1294177 0.047235984 -0.065998144 0.03125328 0.05699724
0.085062705 0.13320765 0.091312416 0.18407986 -0.11041659 -0.13916603 -0.06754197 0.04006929
0.16892558 0.051038273 0.102251016 -0.104371734 0.010139549 0.05205842 -0.12708497 -0.16774043
0.280216 0.15917085 -0.18862286 -0.034301322 -0.00036160694 0.17941731 -0.100222856 -0.08559064
-0.11577113 0.16514172 -0.13009457 0.018777229 0.15759939 -0.006590107 0.28773165 -0.13942954
0.019124746 0.015504214 0.10188288 0.18144895 0.22631921 -0.22708444 0.024819627 0.19658303
0.08736787 -0.16976799 -0.09529466 -0.12955102 -0.08623922 -0.12535404 0.010211039 0.08464514

glu_encoder.rnn.bias_ih_l0 f4 [48]
00000000: 6da7 3c3e 7ce2 56be bf07 2fbd fc2c d63c
00000010: ffdd 36be 0f2c 8cbd 839e a63c bd4b c4bd
00000020: 5597 b83d d5a6 b23d 064a 073c ede6 9bbd
00000030: eced 9dbd e8d0 d33d b6b8 90bd b961 ebbd
00000040: d6cf 6b3e e8f3 62be c9a8 193e 9161 7abe
00000050: 89d7 2b3e 9465 38be b53a 373e 5918 b8bd
00000060: 94fd 4c3c d6b1 303e db28 683d 9ba8 4a3e
00000070: dbc8 5a3c 6d7b 31bc 76cd e43d 1600 aabd
00000080: c34e 6a3e bc55 3a3e 4163 16be 3f90 38be
00000090: 6299 2bbe bdc4 1ebe 43a9 36be 1cac 24be
000000a0: be9d 63bd 2dea 763e aec7 b83c 9b96 05be
000000b0: 3e16 723d 1f55 75be e8ed 8dbd 65bf cdbd
0.18423243 -0.20984834 -0.042731997 0.026144497 -0.17858122 -0.06844341 0.020339256 -0.095847584
0.09013239 0.08723227 0.008257395 -0.07612405 -0.077113956 0.1034258 -0.07066481 -0.114932485
0.23028502 -0.22163355 0.15005793 -0.24451281 0.16781439 -0.18007499 0.17893489 -0.08989019
0.01251163 0.17255339 0.056679588 0.1979088 0.013353552 -0.01083265 0.11172001 -0.08300798
0.22881608 0.18196768 -0.146863 -0.18023776 -0.1675773 -0.15504737 -0.17838006 -0.1608128
-0.055570357 0.24112768 0.022556152 -0.13045733 0.059103243 -0.23958252 -0.06930143 -0.10046271

glu_encoder.rnn.bias_hh_l0 f4 [48]
00000000: e8e7 24bd d40d 703e 90ab 503e 852d 89bd
00000010: df4b 0dbe f718 1abc 0998 5abe 6414 20be
00000020: 76cc 41bd d40f eabd 1bca 193d 3d5f a7bb
00000030: 2538 743e 3db3 2bbe 2ea4 993d d138 e83d
00000040: cf3c 77bd 3006 2e3e a2f8 603e 6da2 303e
00000050: 676a 74be 3a37 cebd ec4f e63d 75de e83d
00000060: 0a83 db3d 3479 86be 3021 183e 82ce 463e
00000070: df6e 353e 04e4 6d3e d578 c43d 5c9c 493e
00000080: 479e bc3d 0613 51bc 95cd 1b3e a938 eb3d
00000090: f517 7ebe dbcd f2bd a134 4cbe 325b 113e
000000a0: bad1 2f3e ce7d 9dbd 9c50 a7bd b572 37be
000000b0: 11ea 8cbe 84a0 61be 6833 473d 10f5 28be
-0.040260226 0.23442775 0.20377946 -0.06698135 -0.13798474 -0.009405366 -0.2134706 -0.15632778
-0.04731413 -0.114288 0.03754626 -0.005107789 0.23849542 -0.16767593 0.07502018 0.11338962
-0.060360726 0.16994548 0.21969846 0.1724946 -0.23868714 -0.100691274 0.11245713 0.11370555
0.10718353 -0.26264346 0.1485641 0.19414714 0.17718075 0.23231512 0.095933594 0.19688553
0.092098765 -0.012760883 0.15215142 0.114854164 -0.24813826 -0.1185567 -0.19941951 0.14194945
0.17169848 -0.07690011 -0.08169672 -0.17914851 -0.27522328 -0.22033888 0.04863301 -0.16499734

glu_encoder.hid2lat.weight f4 [64, 16]
00000000: 20ca 83be 5b71 27be 1810 b3bd 021a 1b3e
00000010: 2381 223d d0de 1c3e e4c5 13be c1a1 243d
00000020: 5bbe 73bd a9d4 70be 26b8 0bbe ee9a 42bd
00000030: 35fb 593e fcb4 23be f2d7 3cbe 2e5e 21be
00000040: 0508 0b3e c2eb 163e 3cdd 66be 3f9c c53d
00000050: 98fd 723e b567 01bc 26b7 4a3d 875e afbd
00000060: 7f40 263e 953a 2dbd 2dd6 32be eaaa b0bd
00000070: 8425 0e3e f7df cd3d 14f7 4abe d44f 89bd
00000080: 782f e7bd 72b0 82bc a8e2 cfbc 4c24 833e
00000090: 687e 9cbc 624c b73d 48b0 783e ad16 5c3e
000000a0: 58fa 0fbd 8a45 803e 9b17 45be 7f78 bb3c
000000b0: 1ec2 b43d 7031 dbbd ce61 f13d 3501 4dbe
000000c0: 2edd 253e 4bf8 e5bd 7a6d 713e 0237 9a3d
000000d0: 27ab e6bd e0e8 393e 5367 03bb 1c39 823e
000000e0: 8e33 33be f289 b0bd b4b5 76be d553 0e3d
000000f0: c34e 943c f4a4 bdbd 1e50 d73c 792f d6bd
00000100: 8707 613e 758f 013e d682 59be 68a1 a33c
00000110: 3593 463e cd83 543e 60b2 4b3e e01a 1cbd
00000120: dd36 e63d b97b bdbd b610 453e b006 8fbe
00000130: 410f 5ebe a9b4 f1bd 41a3 ccbd 530d 553e
00000140: fc69 edbd cce8 30be 2b24 883e 13c3 7d3e
00000150: 4190 2d3d 5f7f 593e 3bb8 383e 7847 5fbe
00000160: 80a0 88bd 255e 0b3e 47ce f6bd ce8e 1b3e
00000170: d065 cfbc 10b4 c8bd 76bf 01be 30b4 c43d
00000180: d0b6 1b3d 9994 10be 0634 8b3d d4f6 463e
00000190: b015 873d b495 36be 6d7c 0c3e c4d4 4e3e
000001a0: 7c46 dfbd 6dfa 0e3e caca 703d 17b1 de3d
000001b0: a6e2 c0bd 0b01 c9bc a3c2 16be 1777 73bd
000001c0: e2de f5bd c0d8 de3d 4743 3b3e 02ea bcbd
000001d0: 25b0 01bd 9e38 21be 34cd d3bd d37f 183d
000001e0: 3ff2 e5bd 3a62 eebd f742 88be 7fb4 113e
000001f0: 7754 4c3e 5f0f 1a3e 1ad3 fd3d 56df 5a3e
00000200: 3030 3a3d b32c adbd 5eb7 1dbe 83b5 643e
00000210: 3e4e 283e c351 44be 8cba 3bbe 0c09 43be
00000220: 8a40 56bd 14e7 1b3e 392c 393e f4a1 57be
00000230: e4b0 cb3c c689 5d3e b9d0 1dbe da37 693d
00000240: e66d f83c 14b5 64be e3bb c63d 4772 243d
00000250: 4c4c 473d eae1 373e 8b64 f2bd f016 af3d
00000260: 5301 26be 36e9 ebbd a3f8 2dbd 4e5e d03d
00000270: ebce acbd d951 b33d c993 ab3d 8e79 203e
00000280: abd1 033e a596 4cbe c52d b73d 5664 8b3e
00000290: 3cf3 223e 72f0 1f3e c798 a43d 10d0 c4bc
000002a0: 547e 153e e3a9 afbc 84ee 0dbe 8215 07be
000002b0: 5e5f 21be 82c6 61bc 62da 663e 79da 94bd
000002c0: 9672 08be fd01 22be 546b 34be 0801 713b
000002d0: a918 e13d fd54 51bd 431b 2d3d d18c 04be
000002e0: 14e7 67be c087 573e 6873 0a3e fa92 023d
000002f0: 00ce 78be 7189 203d 7a24 80be 6a81 18be
00000300: 242f 583d de12 b8bd 0932 173e 821e 3e3e
00000310: c56d 12be 06db 44bd ad65 7fbd 7d2b 253e
00000320: 2cec 823e 592a 5b3e 4546 623d dca3 413e
00000330: defa 153e 0511 64be b65d 083e e186 15be
00000340: 953a bfbd 656b 6c3d 8297 99bd 5232 52be
00000350: cacf 5fbe 2ca8 2bbe ed93 80be 40d9 163e
00000360: bac2 623e 4576 24be 96eb 223e 256a 213e
00000370: 19d2 95bd a5ad 1e3c d6a8 63be 46fb 5e3e
00000380: 97bb 303e ef8e 9bbd 4226 e03d 1d4f 833b
00000390: d82f 213c e7f9 093e 072a 5c3d 2382 8dbe
000003a0: 9c60 89be c665 f2bc e8e5 88be 073a 3c3d
000003b0: 7018 993c 44ea 013d bf5b 83be 21c0 273e
000003c0: e38e 4bbe 0e80 af3d 800a ddbb 4aca 39be
000003d0: 971a 3a3d 375b 593e c9b1 bdbc a406 d23d
000003e0: 4942 edbd 57d3 5ebc 2118 f33d f53b 3bbe
000003f0: ee1e d9bc 7694 f23b d91c e6bb 0870 2ebd
-0.25740147 -0.16351835 -0.08743304 0.1514664 0.039673936 0.15319371 -0.14430958 0.040193323
-0.05950771 -0.23518623 -0.13644466 -0.047511034 0.21287234 -0.15987009 -0.18441752 -0.15758583
0.13577278 0.14738372 -0.22545332 0.09648942 0.23729551 -0.007898261 0.04949107 -0.085629515
0.16235541 -0.042292196 -0.17464514 -0.08626349 0.13881499 0.100524835 -0.19820815 -0.06704679
-0.11288351 -0.015953276 -0.025376633 0.2561363 -0.019103244 0.08950116 0.24285996 0.21493025
-0.035150856 0.25053054 -0.19247286 0.022884605 0.088260874 -0.10702789 0.11786233 -0.20019992
0.16197655 -0.11228999 0.23576918 0.07530023 -0.112631135 0.18155241 -0.00200506 0.25434196
-0.17500135 -0.08620061 -0.24092752 0.034747917 0.018103963 -0.09259978 0.02628332 -0.104582734
0.21975528 0.12652381 -0.21241316 0.019974425 0.19392093 0.20753403 0.19892263 -0.038111567
0.11240933 -0.09252114 0.19244656 -0.2793479 -0.21685506 -0.11802036 -0.09992076 0.20805864
-0.115924805 -0.17276305 0.26590094 0.24781446 0.0423739 0.21239994 0.18039028 -0.21804607
-0.06671238 0.13610132 -0.12051063 0.15191194 -0.025317103 -0.09799969 -0.12670693 0.096046805
0.03801614 -0.14119186 0.06797032 0.19430095 0.065959334 -0.17830545 0.1371934 0.20198351
-0.10902116 0.13962717 0.058787145 0.10873621 -0.0941823 -0.02453663 -0.14722686 -0.059439745
-0.12005402 0.108811855 0.18287383 -0.09224321 -0.031662125 -0.15744254 -0.10341874 0.037231278
-0.112278454 -0.11639829 -0.2661359 0.1422901 0.19954096 0.15044926 0.1239378 0.21374258
0.04545611 -0.08455791 -0.1540198 0.22334866 0.16436097 -0.19171815 -0.1833288 -0.1904642
-0.052307643 0.15224868 0.18083276 -0.21057874 0.024864621 0.21634588 -0.15411653 0.05693803
0.030325841 -0.22334701 0.09703805 0.040148046 0.048656747 0.17957273 -0.11835583 0.08549297
-0.16211443 -0.11519091 -0.042473447 0.10174237 -0.08437904 0.087558456 0.08377797 0.1567137
0.1287295 -0.19979341 0.08944277 0.27224988 0.15913099 0.15619066 0.080369525 -0.024024993
0.14598972 -0.021443313 -0.13860518 -0.13191798 -0.15759036 -0.013780238 0.22544244 -0.07268233
-0.13324961 -0.15821071 -0.17619067 0.0036774296 0.10991032 -0.05110644 0.042262327 -0.12944342
-0.22646743 0.21047878 0.13520586 0.03187845 -0.24297333 0.039193574 -0.2502783 -0.14893118
0.05277933 -0.08987974 0.1476518 0.18566325 -0.14299686 -0.04806044 -0.062352825 0.1612987
0.2557081 0.21402873 0.055242795 0.18910164 0.1464648 -0.22272117 0.13316998 -0.14602233
-0.093373455 0.057719607 -0.07499601 -0.20527008 -0.21856609 -0.16763371 -0.25112858 0.14731312
0.22144595 -0.16060741 0.15910181 0.15763147 -0.073154636 0.009684955 -0.22232375 0.2177554
0.1725906 -0.07595622 0.10944797 0.004007234 0.009838067 0.13474236 0.053751018 -0.2763835
-0.2683152 -0.029589545 -0.26737905 0.045953777 0.01868841 0.031717554 -0.25655934 0.16381885
-0.19878726 0.08569346 -0.0067456365 -0.18143573 0.045435514 0.21226202 -0.023156064 0.10255173
-0.115849085 -0.013600192 0.118698366 -0.1828459 -0.026504006 0.007402952 -0.007022482 -0.04258731

glu_encoder.hid2lat.bias f4 [64]
00000000: 2314 bc3c 6c22 95bd 95de 40be 8e6a 073d
00000010: 785a 543d fe43 123d 74ca 443e cceb b3bd
00000020: 33b5 b03c 3521 083e be75 763e 1aa5 db3d
00000030: e334 743c e398 b1bb 029a 33bc 3cdb 48be
00000040: 5dde 2cbd f4be 7f3d 4262 093c 674d 623e
00000050: dbc9 9abd c450 483e 2359 e93d 6e82 9f3d
00000060: 3f2f 203e 132f b33d 9110 8c3d 6c5c c43c
00000070: 3f6a 1ebe 1d83 5d3e 38d1 1fbe a332 1fbd
00000080: 7b70 72be 4013 85be f735 3d3e ca2a f3bd
00000090: bb42 683e 8595 55bd 4c39 58be 0a11 e1bd
000000a0: 53a2 23bd 2f9e d03b 238f 103e 0b97 893c
000000b0: fbc0 883e 0f58 043e 5eb1 e13d 1998 503e
000000c0: 17c9 28be c132 6d3c 8102 4f3e 39bc 5d3e
000000d0: d1e8 933c 94f9 cfbd 8cb9 4c3d 5d92 78bd
000000e0: 85b5 84be 4085 48be e114 7fbe 4d63 56bd
000000f0: 0650 5bbe 553f f2bc 0028 243d 0a7f 3a3e
0.02295882 -0.07281956 -0.18834908 0.033060603 0.05184409 0.035709374 0.19217855 -0.08785209
0.021570778 0.13293917 0.24068353 0.1072485 0.014905187 -0.005419837 -0.010962011 -0.19614881
-0.04220425 0.062437966 0.008385243 0.22099839 -0.07558032 0.1956206 0.113939546 0.07788549
0.15643023 0.08749213 0.06839097 0.023969851 -0.15470217 0.21632047 -0.15607154 -0.03886665
-0.2367572 -0.2599125 0.18477617 -0.11873396 0.22681706 -0.052144546 -0.21115607 -0.10989578
-0.039949726 0.006366513 0.14117102 0.016795656 0.26709732 0.12924217 0.11020158 0.2037052
-0.1648296 0.014477433 0.20215799 0.21653832 0.018055351 -0.10155025 0.04998164 -0.060686458
-0.25919738 -0.19582081 -0.24910308 -0.052340794 -0.21417245 -0.029571215 0.04007721 0.18212524

encoders.weight_ih_l0 f4 [192, 64]
00000000: 5ad8 90bd 4907 00be b516 8ebd 201b 293e
00000010: 9c4a 0b3d 1e0f 7e3d 5216 ba3d 7ee4 ce3c
00000020: 7d86 853d 2837 49bd 61ea 113e e792 debd
00000030: c3f3 93bd 0894 1ebd c61f c1bd 4ef9 643d
00000040: 9a0d 3a3d 6fc4 363d 31b5 9fbd c8e1 e03d
00000050: 5d98 0f3e 8799 4fbd ecbe 4b3d 26d5 e03c
00000060: bddb 3d3d 74bd 243e f2d0 f8bd 5990 cbbd
00000070: 6462 17be c512 5fbd 5bf9 ba3d 4028 8ebd
00000080: 4fe8 4ebd ad93 293d a4c2 4e3b 7a11 80bd
00000090: 3db9 24be 8f01 95bd 81d2 ebbd f812 f43d
000000a0: 8508 f2bb 66a4 4cbc 992a 513d 7d5b 283e
000000b0: 4b8f 36bd 497f b63d 7671 7dbd 6cfc 5dbd
000000c0: 03f9 1dbe 67fc d2bd efb0 c0bd cb6d a4bd
000000d0: 9c2d a23d 56bb d43d f0f2 593d 9472 0ebe
000000e0: 9548 82bd fa85 78bc 7934 19be 51f0 2cbe
000000f0: a2c9 95bd 880b 813d 7ea9 cdbc 84d1 093e
00000100: 1eb5 35bd 46dc e83c bad9 a8bd b9e2 a8bd
00000110: 5e2a 9dbd 4541 b63d 672e 9e3d 524c cd3c
00000120: 2a7a 2bbc 94b5 bfbd b907 ca3c fe96 4bbd
00000130: 4cd8 023d 7c32 59bd c747 20bd 18f7 2cbd
00000140: a6d2 123d f1b4 e1bd 66ed d9bd 9b99 813d
00000150: d28f c73d 6b37 dd3d f83f c73d 167b b4bd
00000160: ea11 c93d 1e3a a23d 41fb 8b3d ff03 61bd
00000170: bd78 f43d 472e ca3c ce8a 6b3c 9e2f d9bd
00000180: 13d5 d7bd 1f0f a4bd b580 1d3d 3d76 9a3d
00000190: 4b8d a53d f271 e03d eb8b bebc 475d a7bd
000001a0: b8a0 3f3d 7de8 37bd a501 b5bc 62bc 163c
000001b0: 0580 f63d 4c8a 7cbd d5fb 933d f95d 2abd
000001c0: b017 f8bd c220 613d af2f 11bd 68f0 d03d
000001d0: b4cf 913d 5f34 b0bd b411 bbbd 5793 01be
000001e0: 4b69 65bc 0670 d23c 940f d1bd c6e8 cdbc
000001f0: 7a55 c33d a73b 07bd 01b3 00bc 4a6d 14bd
00000200: f38f 64bd efbf 50bd 54bd 40bd 91e4 1dbd
00000210: 4817 09bd e248 68bb 4745 81bd daab 84bc
00000220: 69d2 10be 7da6 33bd aba3 60bd 2245 54bd
00000230: b2ef 023e f15b 71bc bea0 613c a91d 6abd
00000240: 3dee 583d 3035 e43d 1294 d23d 5fb1 42bd
00000250: c919 f4bb 36a8 a0bd 0d8b 0f3e bff6 8fbd
00000260: 6fc5 653c b035 cd3d 6c95 a1bc dd7b 8bbd
00000270: 3b90 743d 0d1b 333d 8b34 623d 2ea2 753c
00000280: 37a8 0bbe 58ed bfbd e506 093e 4921 3e3d
00000290: ec5c 97bd 3645 7b3d df63 f2bd a7d6 a83d
000002a0: ce7e c4bc bbf6 f8bc 654e 01bd ca80 a1bc
000002b0: 16e9 e23d f7fe 983d 5958 ce3c 71d0 a4bd
000002c0: 6a80 9abc 50fb 32bd 13e5 17bd bfe1 733c
000002d0: d22f 67bd a590 97bd e59b f8bc 3e3a 78bb
000002e0: 1ad5 3d3b 05b0 1bbd 6d6c 0bbe deb1 0abe
000002f0: 0f52 4ebd bd32 96bd 4429 f0bd 888e 713d
00000300: 698b f23b c579 993d a928 123e 8543 903c
00000310: 55cc fc3d ce7c c7bd 8b89 0c3e 53bd eabd
00000320: 25c9 98bd 3f64 9abb 811b a23d 4c7a e0bd
00000330: abb5 0b3e 2983 fa3c 8d41 8cbd f596 5d3d
00000340: a37a 2a3b de5d 303d ca27 7bbc c4a9 93bd
00000350: 8c0e fe3d 152b 393d ad07 c9bd 908b 99bd
00000360: 2201 823d 8cba 433d 5f17 813c aa27 14be
00000370: 3913 713b eaf5 82bd be1e 633d 52c2 14be
00000380: fb50 29bd 8532 ca3d cb39 e5bc abaa c4bc
00000390: d848 32bd d106 f2bc 6490 ae3d 0a27 55bd
000003a0: 480f 7abd 8186 8f3d 2d88 963d 7b00 083d
000003b0: 6d1b f83d 85f1 5d3d 4638 31bc b583 093d
000003c0: 39cf ae3d 5c9f 623d 794c b1bd f1c8 79bd
000003d0: d54b 39bc baed bb3d 0c02 96bd 671b 993c
000003e0: b019 673d 6646 4bbd 4a05 3d3d e7ac 4e3b
000003f0: 7c10 e0bd 30df bc3d 13c4 febd 15e2 163e
-0.07072516 -0.12502779 -0.06937925 0.16514254 0.0340067 0.062026136 0.090862885 0.025255438
0.06519792 -0.049124867 0.14249565 -0.10867863 -0.07224228 -0.038715392 -0.094298884 0.055901818
0.045423128 0.044620927 -0.077982314 0.10980564 0.14022966 -0.050683524 0.049742624 0.027445387
0.046352137 0.16087896 -0.12149228 -0.099396415 -0.14783627 -0.05446126 0.09129592 -0.06941271
-0.050514515 0.0414006 0.003154912 -0.062533334 -0.16086288 -0.07275688 -0.1151476 0.119176805
-0.0073862695 -0.0124903675 0.051066015 0.1644115 -0.04457025 0.089109965 -0.061875783 -0.054195806
-0.15427022 -0.10302048 -0.094087474 -0.08028754 0.079188555 0.10387294 0.0532102 -0.13910896
-0.063615 -0.015168661 -0.14961423 -0.16888548 -0.07313849 0.063010275 -0.025105234 0.1345883
-0.04436218 0.028425347 -0.08244653 -0.08246369 -0.076740965 0.08899168 0.07723694 0.025060806
-0.010466138 -0.09360805 0.024661886 -0.049704544 0.031944558 -0.05302666 -0.039130952 -0.042227834
0.03584542 -0.1102084 -0.10640983 0.06328126 0.097442284 0.10801586 0.09728998 -0.08812539
0.0981787 0.07921241 0.06835032 -0.05493545 0.119370915 0.02468027 0.014376355 -0.106047854
-0.105386876 -0.080106966 0.038452823 0.075420834 0.0808359 0.10959233 -0.023260077 -0.08172088
0.046784133 -0.044899452 -0.02209551 0.009200187 0.120361365 -0.061655328 0.072257675 -0.041593526
-0.12113893 0.05496288 -0.035445865 0.10202104 0.07119694 -0.08603739 -0.09134236 -0.12653862
-0.014002155 0.025688183 -0.102080494 -0.02513541 0.09537788 -0.033015873 -0.007855178 -0.03623704
-0.055801343 -0.050964292 -0.047055557 -0.038548056 -0.03346947 -0.0035443832 -0.06312042 -0.016195226
-0.14142765 -0.043859947 -0.054843586 -0.051823743 0.12786749 -0.014731393 0.013771234 -0.057157192
0.052961577 0.11142957 0.102821484 -0.047532436 -0.007449363 -0.07844584 0.14017887 -0.07029485
0.014024123 0.10020006 -0.01972457 -0.068107344 0.05970786 0.04372697 0.05522589 0.01499228
-0.13638388 -0.093714416 0.13381536 0.046418462 -0.0739077 0.0613453 -0.11835455 0.08244067
-0.023986246 -0.030391088 -0.031568903 -0.019714732 0.11079614 0.07470506 0.025188612 -0.080475695
-0.01886006 -0.0436967 -0.037083697 0.014885365 -0.05644209 -0.07400636 -0.030347774 -0.0037876512
0.002896613 -0.038009662 -0.1361558 -0.13544413 -0.050371226 -0.07333896 -0.11726621 0.05897382
0.007401873 0.07493929 0.14273323 0.01761032 0.12343661 -0.097406015 0.13724343 -0.11461892
-0.0746024 -0.0047116573 0.07915402 -0.10960826 0.1364352 0.03058012 -0.0684844 0.054099042
0.0026013039 0.04305827 -0.015329311 -0.072101146 0.12405118 0.0452071 -0.09815917 -0.074973226
0.06347872 0.047785327 0.015758215 -0.14468256 0.003678514 -0.06394561 0.05544924 -0.14527252
-0.041336995 0.09872917 -0.02798166 -0.024007162 -0.0435265 -0.029544266 0.08523634 -0.052039184
-0.06104973 0.070080765 0.07350192 0.033203583 0.12114606 0.05418541 -0.010816639 0.03357287
0.08535618 0.05532776 -0.08657164 -0.06098265 -0.011309584 0.09176202 -0.07324609 0.018689824
0.056420982 -0.049627684 0.046147622 0.0031536163 -0.10940644 0.09222257 -0.12439742 0.14734681
