code/baseline/saved/GAMNet_learning_rate_0.0001_hidden_size_64_epoch_6000_batch_size_32/Epoch_4750_JA_0.7613_DDI_0.0903.model (torch, 455805 bytes, 29 tensors)

lab_embeddings f4 [32, 64]
0.27973694 0.18821509 -0.7450799 -1.6510527 -0.66170096 -1.540263 1.1957572 0.5060312
0.7826447 0.4919726 -1.7187003 -1.3622226 0.5286183 -0.46810412 0.6713413 1.9352767
0.7137835 0.20194617 0.39268336 0.42362764 0.2665122 -0.762637 -1.0933774 -1.0017295
-0.67343974 -1.0075382 0.7138459 -2.3544502 -0.35264778 0.84080493 1.4293362 0.39654604
-2.2397652 1.7383287 -0.2760678 -1.9105008 -0.41593674 -0.60108 -1.1357067 -0.9430584
0.50842595 0.45889974 1.0306575 -0.4644734 0.42774427 0.9297047 2.2633808 0.5709008
-0.2711731 -0.35234982 0.27155668 -0.46481574 -0.8191442 0.16432284 -0.6406736 0.807351
-0.31154886 -0.16405475 2.5101063 -0.5514552 0.04299833 0.32841617 1.8024253 0.026864586
-0.19231997 -0.59906757 -0.46290594 -0.060104404 0.18143775 0.58054763 1.8641548 0.30789346
-1.0407603 -1.3198347 -1.2928317 0.048627023 -1.5060278 -1.1229193 0.8852252 -0.9061273
-0.096048884 0.556096 1.4957169 1.1988102 0.382548 -0.47790456 0.2239266 2.2997394
-0.047976505 1.0195692 0.3758106 0.9786331 0.04633773 1.8623079 0.83254105 0.1248098
-0.8260919 -1.4342378 -0.5595488 0.5175221 1.2960159 -0.2635753 0.15421128 0.3964435
0.41838467 -1.18966 0.77796865 0.70018667 1.6039486 -0.25099623 -1.9644248 -0.6135
0.6928608 -1.6077138 0.793957 0.6025809 0.524729 -0.5054702 -1.2450293 -0.7289754
-1.9957261 3.3411148 0.1805199 0.39344928 0.6813252 0.97250026 -2.2056074 1.4164916
-0.8967886 -0.24729091 1.6439952 -0.22865856 0.24226673 -1.0441058 -1.0052273 -0.75367403
-0.8649786 0.93311286 -0.0555777 1.2245542 -0.31947654 0.58263487 -0.46819305 2.1343548
-0.8096695 0.22197 0.80705696 -0.37535024 -0.8039866 0.58264035 1.5404007 0.011486282
-1.4085226 -0.16986167 -0.6661031 -0.8097861 0.35082337 -0.27913523 -0.17737895 0.78921294
-0.7989085 1.4631399 0.39180556 0.54803234 0.76455927 0.32044697 0.037664335 1.4423213
2.0244553 -0.24681443 0.45555443 -0.22783354 1.2621933 -0.27981117 -0.36661598 -0.6417657
-0.3780294 0.30483937 -1.0508281 0.36411953 -1.3596114 0.33635882 0.09351824 -1.747404
-0.05092175 0.85074496 0.27104688 -0.08472226 0.3668653 -1.3775643 -0.91118526 -0.50443554
-0.036376473 -0.66453433 0.9319378 -1.0729309 -0.10781688 -2.0019026 -1.4797664 0.15051743
0.26883462 1.1728394 -0.41671818 -1.0341611 0.8709124 1.9939106 0.27163696 -0.11874169
0.2704289 0.64909905 -0.31521454 0.038932387 0.2885125 -1.3865824 -2.5128255 -0.4116747
-0.6046406 -0.09487581 2.2339926 -1.7557553 0.56855094 0.030318452 -0.31439692 0.41729572
0.20343542 1.2394216 0.9580033 -1.2671334 0.5077455 -0.039733637 1.9542708 -2.1253052
0.77114266 0.30596766 -0.057223443 -0.3916274 -0.77001464 0.64081496 -1.1903353 0.7691866
-0.62997615 -1.2701141 0.562596 0.9709204 1.3533131 0.4790809 -1.8678378 0.72865456
0.6408419 1.3955923 -0.94127685 0.76806086 1.1263838 -0.23392525 0.68650514 2.1927702
00000000: ae39 8f3e 75bb 403e 8ebd 3ebf b255 d3bf
00000010: 3c65 29bf 5727 c5bf 920e 993f 438b 013f
00000020: 675b 483f d5e3 fb3e 5ffe dbbf 4f5d aebf
00000030: 8753 073f 58ab efbe 06dd 2b3f 26b7 f73f
00000040: 84ba 363f faca 4e3e cb0d c93e b9e5 d83e
00000050: 4974 883e 2e3c 43bf caf3 8bbf ac38 80bf
00000060: 8c66 2cbf 03f7 80bf 9bbe 363f 50af 16c0
00000070: 408e b4be fe3e 573f 7df4 b63f 1508 cb3e
00000080: 5058 0fc0 8e81 de3f c258 8dbe 4a8b f4bf
00000090: a9f5 d4be 61e0 19bf d65e 91bf 466c 71bf
000000a0: 3428 023f e8f4 ea3e 96ec 833f 75cf edbe
000000b0: 4c01 db3e 2101 6e3f 3bdb 1040 8e26 123f
000000c0: 33d7 8abe 3267 b4be 7a09 8b3e 54fc edbe
000000d0: 6fb3 51bf 3f44 283e 2f03 24bf 8eae 4e3f
000000e0: 5583 9fbe f8fd 27be 95a5 2040 2b2c 0dbf
000000f0: 041f 303d 2a26 a83e dfb5 e63f 1f13 dc3c
00000100: 87ef 44be 7e5c 19bf 0202 edbe 0930 76bd
00000110: d1ca 393e c59e 143f a09c ee3f 36a4 9d3e
00000120: a237 85bf 58f0 a8bf 827b a5bf 212d 473d
00000130: 85c5 c0bf d2bb 8fbf 1e9e 623f f5f7 67bf
00000140: 47b5 c4bd 4f5c 0e3f a773 bf3f 9d72 993f
00000150: 55dd c33e e8af f4be 044d 653e ee2e 1340
00000160: 0383 44bd 3e81 823f 3f6a c03e b387 7a3f
00000170: a2cc 3d3d 1b60 ee3f 6921 553f 489c ff3d
00000180: c27a 53bf 1b95 b7bf 973e 0fbf 547c 043f
00000190: d9e3 a53f 57f3 86be 90e9 1d3e a4fa ca3e
000001a0: 8436 d63e c746 98bf f428 473f 6f3f 333f
000001b0: 304e cd3f 9482 80be 4672 fbbf 560e 1dbf
000001c0: 535f 313f 91c9 cdbf c440 4b3f be42 1a3f
000001d0: a454 063f 7f66 01bf 1f5d 9fbf 229e 3abf
000001e0: f473 ffbf d3d4 5540 35da 383e 2f72 c93e
000001f0: 546b 2e3f c7f5 783f ac28 0dc0 994f b53f
00000200: f093 65bf d439 7dbe 6f6e d23f 7825 6abe
00000210: c514 783e 42a5 85bf 4aab 80bf c8f0 40bf
00000220: 3d6f 5dbf 7ce0 6e3f 71a5 63bd 31be 9c3f
00000230: 6e92 a3be 8f27 153f 00b7 efbe 4599 0840
00000240: 8046 4fbf 1b4c 633e 499b 4e3f e82d c0be
00000250: 11d2 4dbf eb27 153f da2b c53f f530 3c3c
00000260: 784a b4bf 38f0 2dbe bc85 2abf 244e 4fbf
00000270: 1f9f b33e d0ea 8ebe d4a2 35be dc09 4a3f
00000280: 4485 4cbf 2b48 bb3f bd9a c83e d94b 0c3f
00000290: 28ba 433f a011 a43e eb45 1a3d fc9d b83f
000002a0: ad90 0140 ecbc 7cbe 6e3e e93e 324d 69be
000002b0: 8d8f a13f 6943 8fbe 17b5 bbbe c24a 24bf
000002c0: 128d c1be e813 9c3e 8981 86bf e06d ba3e
000002d0: bf07 aebf 3937 ac3e 7e86 bf3d efaa dfbf
000002e0: 5393 50bd 6cca 593f a8c6 8a3e dd82 adbd
000002f0: c5d5 bb3e 0754 b0bf 7043 69bf b022 01bf
00000300: 7fff 14bd ec1e 2abf 7a93 6e3f cd55 89bf
00000310: 19cf dcbd 2c1f 00c0 fc68 bdbf 3e21 1a3e
00000320: b1a4 893e 9a1f 963f 165c d5be 645f 84bf
00000330: 1df4 5e3f 7638 ff3f 0014 8b3e d82e f3bd
00000340: a875 8a3e 5b2b 263f cd63 a1be 9177 1f3d
00000350: e9b7 933e 887b b1bf 22d2 20c0 07c7 d2be
00000360: bac9 1abf 404e c2bd bcf9 0e40 97bc e0bf
00000370: 8e8c 113f 675e f83c a2f8 a0be c9a7 d53e
00000380: 6051 503e 5ea5 9e3f b43f 753f 6d31 a2bf
00000390: 9cfb 013f bdbf 22bd 8c25 fa3f 0005 08c0
000003a0: 9b69 453f cba7 9c3e 2163 6abd 6383 c8be
000003b0: ae1f 45bf 730c 243f e85c 98bf 6ae9 443f
000003c0: 1e46 21bf 1993 a2bf 4b06 103f 3d8e 783f
000003d0: 5d39 ad3f 174a f53e 4f15 efbf 1b89 3a3f
000003e0: 370e 243f c5a2 b23f 85f7 70bf a39f 443f
000003f0: 582d 903f 1a8a 6fbe cdbe 2f3f 5956 0c40

static_ll.0.weight f4 [128, 64]
0.14813809 -0.091211244 -0.10114023 -0.12377697 0.08645778 -0.07059268 -0.15129563 0.02167171
0.07173712 -0.068009384 -0.02401691 -0.076565966 0.18380295 -0.040662363 0.017467793 -0.078839086
-0.13312878 0.10138822 -0.06094378 -0.10507056 -0.05166101 -0.071513765 -0.12872982 -0.110871874
0.104926825 -0.032901783 0.07365617 -0.09569382 0.08465585 -0.05448951 0.08104141 0.12754685
0.108005054 0.09918099 -0.00892683 -0.12435628 0.036867496 0.0731582 0.04528331 -0.057213128
0.015195298 0.066250265 0.05945328 0.048921186 -0.069282584 0.062350623 -0.054757282 -0.087703355
-0.066623755 -0.12889896 0.13283913 0.16056505 0.0424831 -0.020098625 -0.052698985 -0.120971546
0.011829239 0.00029225694 -0.044394977 0.04234455 -0.13306715 -0.10221498 -0.021885702 -0.008551122
-0.042842798 0.08713353 -0.12135817 0.14538014 -0.071691394 -0.067693494 0.09762295 -0.08678112
-0.08250682 0.057610918 -0.020615391 0.1132786 -0.072359405 0.013158141 0.061655216 -0.12626924
-0.082952954 -0.0910456 0.012043026 0.1318852 0.06618508 0.062191267 0.066520125 0.03528572
0.07685865 0.038228393 0.08151335 0.15542595 0.08234055 0.11880851 0.024896186 -0.14088754
-0.075798266 -0.1444142 0.028216023 -0.0312543 -0.024546048 0.12400867 -0.027905982 0.13304155
-0.038601603 -0.10420372 0.12619479 -0.100544326 -0.08667955 -0.014313419 -0.04906372 -0.014030744
-0.07171934 0.029310009 0.16395296 -0.008106869 -0.14044262 -0.024156682 -0.076834254 0.005016461
-0.081898265 0.16687432 -0.037666496 0.07763763 0.003826368 0.10415276 -0.11563776 0.103572674
0.087098524 -0.0049540247 -0.0071848403 0.006578634 0.08452083 -0.16295987 -0.114528015 -0.03708619
-0.073950894 -0.028714977 -0.08005099 -0.13000207 0.015192671 -0.06853436 -0.087145574 -0.016377438
-0.0788403 0.113995455 -0.04056399 -0.10416078 0.043217357 -0.06703995 -0.027403804 0.035158906
-0.060514327 -0.11118553 -0.084403604 -0.054035865 -0.06793079 0.07227452 0.06493701 -0.033315044
-0.12613204 0.08624031 0.013266296 0.025967471 0.029724753 -0.00887854 0.03434955 -0.024577297
-0.022971911 -0.092609815 0.080664255 -0.05862541 0.14547983 0.112279095 0.12444921 -0.038491316
-0.10954781 -0.014207025 0.07733721 0.0920441 -0.0020080206 0.11132404 0.10416177 -0.034320734
0.0066738357 -0.0073858174 0.02190608 -0.06606601 0.12023555 0.10750525 0.049673267 -0.072203584
-0.080773935 -0.057368975 -0.01968769 -0.03274276 0.15181364 0.106421545 -0.14715984 0.07943621
-0.095708005 0.07297943 0.04614866 -0.008657658 0.07723216 0.048083257 0.02168532 0.055948228
0.07916382 -0.020657819 -0.03191713 0.05243595 0.09407185 0.09469982 -0.024654418 -0.038885754
0.09218577 -0.008932737 -0.14556652 0.029160585 0.026096301 -0.009827895 0.009571491 0.061115623
0.01837951 -0.08778145 0.009111361 0.042154595 -0.040553894 -0.074691705 -0.11794038 0.0606557
0.120960034 -0.16918415 -0.102844045 0.09899967 -0.035309996 -0.069304906 0.09413656 -0.10434695
0.023820406 0.037844542 -0.15698484 -0.019881865 0.149386 -0.08889849 -0.01456198 -0.07050057
0.024978228 -0.043589868 -0.00031086986 -0.072020024 -0.06850117 -0.08385176 -0.07936632 -0.016204922
00000000: 83b1 173e f6cc babd 9c22 cfbd c87e fdbd
00000010: c710 b13d e592 90bd 3eed 1abe df88 b13c
00000020: e9ea 923d 8148 8bbd 1cbf c4bc 9ece 9cbd
00000030: d736 3c3e 948d 26bd 9e18 8f3c 6376 a1bd
00000040: e952 08be a1a4 cf3d 2fa0 79bd 3c2f d7bd
00000050: 7f9a 53bd cf75 92bd c0d1 03be cb10 e3bd
00000060: e0e3 d63d 05c4 06bd 0cd9 963d 1ffb c3bd
00000070: 0c60 ad3d 6430 5fbd 0af9 a53d a49b 023e
00000080: c131 dd3d 671f cb3d d741 12bc 81ae febd
00000090: 5f02 173d f7d3 953d fe7a 393d 5058 6abd
000000a0: b3f5 783c 38ae 873d 4885 733d 9561 483d
000000b0: 07e4 8dbd 5e63 7f3d 2c49 60bd d19d b3bd
000000c0: 0972 88bd 17fe 03be fb06 083e 2a6b 243e
000000d0: c202 2e3d dfa5 a4bc e4da 57bd eebf f7bd
000000e0: 6dcf 413c 103a 9939 82d7 35bd 7b71 2d3d
000000f0: c142 08be 1656 d1bd a549 b3bc 011a 0cbc
00000100: ee7b 2fbd 1073 b23d a28a f8bd 88de 143e
00000110: f0d2 92bd e3a2 8abd 8bee c73d 4dba b1bd
00000120: 56f9 a8bd 6df9 6b3d 9ce1 a8bc 9cfe e73d
00000130: 2b31 94bd 3e95 573c 2e8a 7c3d b94c 01be
00000140: 3de3 a9bd 1e76 babd 1d50 453c ea0c 073e
00000150: 0b8c 873d 45bc 7e3d b43b 883d c287 103d
00000160: 1168 9d3d 6095 1c3d 79f0 a63d fb27 1f3e
00000170: 2aa2 a83d e051 f33d 16f3 cb3c d344 10be
00000180: 1f3c 9bbd 51e1 13be 4a25 e73c 8204 00bd
00000190: cb14 c9bc 42f8 fd3d 169b e4bc 0b3c 083e
000001a0: b71c 1ebd c368 d5bd 3539 013e 2fea cdbd
000001b0: 0c85 b1bd d582 6abc 0af7 48bd 35e1 65bc
000001c0: 97e1 92bd 8b1b f03c 49e3 273e acd2 04bc
000001d0: 31d0 0fbe 3ce4 c5bc 475b 9dbd 2061 a43b
000001e0: 47ba a7bd 1ae1 2a3e 2f48 1abd 7a00 9f3d
000001f0: cdc3 7a3b 0b4e d53d 7dd3 ecbd e91d d43d
00000200: b660 b23d 5f55 a2bb cf6e ebbb 9591 d73b
00000210: 4219 ad3d f4de 26be aa8d eabd b0e7 17bd
00000220: 9173 97bd ac3b ebbc c6f1 a3bd 431f 05be
00000230: aeea 783c be5b 8cbd 6179 b2bd fa29 86bc
00000240: 0677 a1bd 7376 e93d 6d26 26bd 3f52 d5bd
00000250: af04 313d 3e4c 89bd f17d e0bc c902 103d
00000260: dfdd 77bd 3db5 e3bd ccdb acbd b654 5dbd
00000270: 4c1f 8bbd aa04 943d b2fd 843d 5b75 08bd
00000280: c228 01be c29e b03d e15a 593c bcb9 d43c
00000290: 5381 f33c 4c77 11bc 1db2 0c3d 5456 c9bc
000002a0: 972f bcbc 37aa bdbd 4d33 a53d 3321 70bd
000002b0: aaf8 143e 95f2 e53d 3adf fe3d 12a9 1dbd
000002c0: 9a5a e0bd 95c4 68bc f962 9e3d 9e81 bc3d
000002d0: ff98 03bb dcfd e33d c452 d53d e693 0cbd
000002e0: 31b0 da3b ba04 f2bb 6174 b33c 9e4d 87bd
000002f0: 0e3e f63d b62b dc3d 3276 4b3d 79df 93bd
00000300: ce6c a5bd bbfb 6abd 1448 a1bc 461d 06bd
00000310: 0975 1b3e 8af3 d93d 12b1 16be 74af a23d
00000320: 8f02 c4bd 3d76 953d 6106 3d3d d9d8 0dbc
00000330: e52b 9e3d f3f2 443d 6aa5 b13c f829 653d
00000340: a420 a23d 963a a9bc 89bb 02bd 14c7 563d
00000350: bea8 c03d fbf1 c13d 10f8 c9bc ab46 1fbd
00000360: e5cb bc3d 9d5a 12bc 640f 15be 2ee2 ee3c
00000370: e9c7 d53c 2e05 21bc bed1 1c3c 6054 7a3d
00000380: a090 963c c3c6 b3bd d147 153c 4caa 2c3d
00000390: d71b 26bd f7f7 98bd ba8a f1bd 1c72 783d
000003a0: e5b9 f73d 9c3e 2dbe e69f d2bd 57c0 ca3d
000003b0: 37a1 10bd bbef 8dbd abca c03d dbb3 d5bd
000003c0: 0323 c33c e102 1b3d a2c0 20be 4bdf a2bc
000003d0: a5f8 183e 6910 b6bd 5f95 6ebc 9a62 90bd
000003e0: 249f cc3c 4a8b 32bd 3ffc a2b9 3c7f 93bd
000003f0: 574a 8cbd 79ba abbd cf8a a2bd 2fc0 84bc

static_ll.0.bias f4 [128]
0.11417789 -0.09299352 0.019378163 -0.053449497 0.112952225 0.08572885 -0.070962794 0.1190577
0.014765328 0.13819303 0.13663943 -0.05008291 -0.028066332 0.09948445 0.016232032 0.11872781
0.123819016 -0.08488393 0.03432452 0.07672289 0.09676574 0.006461964 0.07287755 0.1463348
0.11771807 0.11125299 -0.04987847 -0.07614065 -0.06728306 0.113154404 -0.025493402 -0.070685625
-0.0030712925 0.07960957 0.11586456 -0.0818593 0.1321978 0.10320851 0.0032083325 0.07310344
0.005556969 -0.012573959 -0.01589932 -0.07274462 -6.226016e-05 -0.027759084 -0.06738755 -0.051336654
-0.023654547 0.11026397 0.11881818 0.027074805 0.035995524 0.13955982 -0.032947738 0.07561824
0.13791879 0.099136196 -0.10938974 -0.08003568 -0.032197967 0.098486125 -0.05701359 -0.073031604
-0.049739767 -0.039027717 0.047621857 -0.06447921 -0.0016417195 -0.014371601 0.05047655 0.06559819
-0.0077872495 -0.035204843 -0.056848995 0.034127995 0.01163608 0.02061724 -0.030666599 0.014156829
0.010098769 0.09333358 -0.07714321 0.007957031 -0.07364848 3.306614e-05 -0.07032283 0.03894841
0.1640822 -0.07231477 0.104761645 -0.03848439 -0.096616805 0.037169382 -0.01792242 -0.0021197097
-0.065799445 0.077103846 0.015566465 -0.0010153682 0.116556965 -0.06967696 0.05665072 -0.057530373
-0.080270015 -0.040555883 0.12016238 0.10818683 0.053095315 0.0376885 0.04333419 -0.016860371
0.114616506 -0.076298416 0.055622987 -0.03490005 0.047329023 0.059464693 0.064392544 -0.10399349
0.074755855 -0.01283486 0.11178772 -0.068062775 0.07676903 -0.120046705 0.12516157 0.01585788
00000000: 19d6 e93d 6373 bebd f4be 9e3c dced 5abd
00000010: 7f53 e73d 9b92 af3d f154 91bd 86d4 f33d
00000020: 46ea 713c 7982 0d3e 35eb 0b3e bd23 4dbd
00000030: 5deb e5bc 81be cb3d 0af9 843c 9127 f33d
00000040: d394 fd3d a0d7 adbd de97 0c3d e420 9d3d
00000050: 1e2d c63d e2be d33b d340 953d cad8 153e
00000060: 2c16 f13d 9cd8 e33d 5e4d 4cbd a1ef 9bbd
00000070: b3cb 89bd 7fbd e73d 8ad7 d0bc a0c3 90bd
00000080: bd47 49bb 580a a33d 664a ed3d d9a5 a7bd
00000090: dc5e 073e fc5e d33d e342 523b 42b7 953d
000000a0: 3c17 b63b 0203 4ebc 4a3f 82bc 22fb 94bd
000000b0: ab91 82b8 0567 e3bc 7c02 8abd 6246 52bd
000000c0: 2ec7 c1bc 14d2 e13d f256 f33d fbcb dd3c
000000d0: 0b70 133d c5e8 0e3e 35f4 06bd bcdd 9a3d
000000e0: 953a 0d3e eb07 cb3d ba07 e0bd bfe9 a3bd
000000f0: 04e2 03bd 18b3 c93d 1587 69bd 9891 95bd
00000100: edbb 4bbd 87db 1fbd 230f 433d ad0d 84bd
00000110: f72e d7ba dd76 6bbc 80c0 4e3d 5858 863d
00000120: 2f2c ffbb f432 10bd 7eda 68bd ccc9 0b3d
00000130: 42a5 3e3c 7ce5 a83c 8538 fbbc 0bf2 673c
00000140: 4f75 253c ad25 bf3d 42fd 9dbd 355e 023c
00000150: 04d5 96bd 7fb0 0a38 6a05 90bd 5e88 1f3d
00000160: 2a05 283e c419 94bd 468d d63d cfa1 1dbd
00000170: 08df c5bd ec3e 183d 0ad2 92bc d4ea 0abb
00000180: dcc1 86bd 9fe8 9d3d 7d0a 7f3c 1a16 85ba
00000190: 6bb5 ee3d cbb2 8ebd 960a 683d f8a4 6bbd
000001a0: 9b64 a4bd ed1d 26bd b217 f63d 0f91 dd3d
000001b0: 797a 593d 425f 1a3d 317f 313d c31e 8abc
000001c0: 0fbc ea3d 5842 9cbd eed4 633d 5bf3 0ebd
000001d0: 14dc 413d 4091 733d 3de0 833d 8afa d4bd
000001e0: 9919 993d 4e49 52bc f6f0 e43d 7f64 8bbd
000001f0: 1539 9d3d 0cdb f5bd 5b2a 003e 62e8 813c

static_ll.2.weight f4 [64, 128]
0.040369667 -0.07284678 0.04639722 0.068034865 0.08811263 0.014655833 -0.060449596 -0.03327248
-0.081575915 0.0026530745 -0.021420784 0.001434499 -0.017816097 0.0060736043 0.04599536 0.081916
0.05160078 -0.046260074 -0.023634093 -0.04896366 -0.038418785 0.0711728 0.054895718 0.026862971
-0.0038178484 0.051972672 -0.052633807 -0.006306171 0.010972555 -0.0066042654 0.0019946564 -0.07667459
0.087137036 -0.04261741 -0.014340925 -0.0666682 0.12607367 0.033816077 0.010161292 0.0051111137
-0.040006854 0.039373137 0.004204113 0.08314517 0.042656943 -0.06551258 0.057984475 0.056529295
0.04040506 -0.007437633 -0.030294547 -0.07189006 0.0011719634 0.07858945 -0.036598124 0.08008144
0.032310847 -0.09576838 -0.051709548 0.062028553 0.09619387 0.07854972 0.014884348 -0.0058750063
0.0050136345 -0.014297014 0.08774471 -0.04006858 -0.024240652 0.06224608 0.0020184258 -0.063771084
0.03592148 0.024441263 0.011025376 -0.020650037 -0.06899906 -0.026761485 0.042460535 -0.023582045
0.032286037 0.06287502 0.028774627 0.0026726122 -0.018160487 -0.010768637 -0.07302583 0.0047114394
0.0023441426 -0.049930904 -0.066435486 -0.06622073 0.056276537 0.069835454 -0.046387743 -0.07230269
0.0008864712 0.028502172 0.0610748 0.072497584 0.021255912 0.05579499 0.047587566 0.0849683
0.046834145 -0.03524508 0.079566814 0.051378477 0.02045128 0.073536344 -0.025012746 -0.056650184
-0.005571105 0.052779898 -0.026665092 0.07975884 0.09493922 0.02161793 -0.0010615928 -0.023946619
-0.031751696 0.046583094 0.08828482 -0.06322369 0.024965778 0.003136241 0.0998434 0.03835646
0.04017771 -0.041233305 0.017923199 -0.013152893 0.045378227 -0.06938946 0.04259409 0.06254414
0.020633992 -0.023734124 0.052006397 0.12600319 0.014977682 0.03627618 -0.013408332 0.07031939
-0.018916888 -0.012027802 0.079262525 0.04868816 -0.06607494 0.082327925 0.06065476 -0.058491938
0.00028371267 0.03422037 0.03258723 0.04294394 -0.07370315 0.08986025 0.015181613 0.07081845
-0.02011904 0.0087697925 0.02916881 0.048859112 0.06909624 0.056883585 0.01788016 0.06768446
0.044132687 -0.04654777 0.0112769855 -0.08062105 0.053973902 0.055896733 0.06895474 0.07608386
-0.096072204 0.1172181 0.057163518 0.032264393 -0.051186617 0.059660442 0.032567285 -0.07925828
0.03963925 -0.13367395 -0.07911771 0.0069931154 0.120199755 -0.0214006 0.02687201 0.0022144343
0.017370299 -0.02921117 0.094513856 0.037211318 -0.09145005 -0.0427714 0.053224895 -0.091572106
-0.0072804578 -0.009365296 0.025575727 -0.019090632 0.018401125 -0.008027461 -0.03327345 0.081507616
-0.023319116 0.0567261 -0.09923814 0.007351868 -0.084586024 0.038784783 0.08270075 -0.05144483
0.025914926 0.10470479 -0.050435223 -0.067744985 0.062141187 0.07521874 -0.002983784 0.0972337
0.08604297 0.08667561 0.09935483 -0.011356038 0.042324986 -0.03720377 0.0018051398 0.008181065
-0.04390679 0.034849606 0.036510635 0.04688257 -0.053509835 -0.04620271 0.0011588609 -0.0034401289
-0.039750993 -0.07910223 0.011609491 0.028012041 -0.06727284 0.086003006 0.07612092 -0.021925481
-0.06257054 -0.027762212 -0.07998286 -0.013218094 -0.024661 -0.0026645698 -0.008452952 -0.038445834
00000000: aa5a 253d b130 95bd 030b 3e3d dd55 8b3d
00000010: 6574 b43d 051f 703c ff99 77bd b948 08bd
00000020: 4611 a7bd 34df 2d3b a47a afbc cd05 bc3a
00000030: 10f3 91bc 1605 c73b a165 3c3d 93c3 a73d
00000040: 575b 533d 347b 3dbd 499c c1bc 1e8e 48bd
00000050: 045d 1dbd 0cc3 913d 55da 603d bc0f dc3c
00000060: de34 7abb 4ce1 543d 8c96 57bd ffa3 cebb
00000070: 3bc6 333c 9868 d8bb c8b8 023b 9107 9dbd
00000080: e774 b23d 988f 2ebd 33f6 6abc 5689 88bd
00000090: 7519 013e ba82 0a3d 8c7b 263c 217b a73b
000000a0: 3ade 23bd ba45 213d a8c2 893b 0448 aa3d
000000b0: 0cb9 2e3d 762b 86bd 2181 6d3d 438b 673d
000000c0: c77f 253d 63b7 f3bb 452c f8bc 193b 93bd
000000d0: 919c 993a 81f3 a03d eae7 15bd bd01 a43d
000000e0: 6158 043d 3622 c4bd 64cd 53bd a711 7e3d
000000f0: 4b01 c53d adde a03d 7bdd 733c 2083 c0bb
00000100: 6a49 a43b 063e 6abc 80b3 b33d f41e 24bd
00000110: 5594 c6bc bff5 7e3d 9147 043b 6a9a 82bd
00000120: 6722 133d 0b39 c83c c7a3 343c 442a a9bc
00000130: 614f 8dbd e73a dbbc 19eb 2d3d 222f c1bc
00000140: 5d3e 043d 9ec4 803d c4b8 eb3c fe26 2f3b
00000150: 4dc5 94bc f06e 30bc 918e 95bd 6b62 9a3b
00000160: 30a0 193b 5984 4cbd 540f 88bd bc9e 87bd
00000170: 3a82 663d e405 8f3d 1301 3ebd 6f13 94bd
00000180: 1362 683a 637d e93c 9229 7a3d 9d79 943d
00000190: e120 ae3c 4a89 643d 2eeb 423d dc03 ae3d
000001a0: 29d5 3f3d 255d 10bd edf3 a23d 3d72 523d
000001b0: 7189 a73c 399a 963d 88e7 ccbc 060a 68bd
000001c0: d18d b6bb bc2f 583d c070 dabc 9a58 a33d
000001d0: 7e6f c23d 1618 b13c 2525 8bba b32b c4bc
000001e0: 110e 02bd eacd 3e3d acce b43d 6c7b 81bd
000001f0: 0885 cc3c 6589 4d3b b27a cc3d aa1b 1d3d
00000200: 6291 243d 41e4 28bd acd3 923c 3b7f 57bc
00000210: 85de 393d 101c 8ebd 2477 2e3d 2417 803d
00000220: 9e08 a93c 116e c2bc a904 553d fb06 013e
00000230: f464 753c 5596 143d 9fae 5bbc 9d03 903d
00000240: 97f7 9abc 4210 45bc 6454 a23d 3c6d 473d
00000250: 4c52 87bd 8b9b a83d 2071 783d 3e95 6fbd
00000260: 45bf 9439 a92a 0c3d 307a 053d fce5 2f3d
00000270: adf1 96bd a708 b83d 4dbc 783c 4309 913d
00000280: afd0 a4bc 2daf 0f3c 6ef3 ee3c 7e20 483d
00000290: 5482 8d3d c3fe 683d 6a79 923c 269e 8a3d
000002a0: 7ac4 343d e0a8 3ebd 1bc3 383c a61c a5bd
000002b0: bd13 5d3d f9f3 643d 2538 8d3d dbd1 9b3d
000002c0: 81c1 c4bd 0b10 f03d 4b24 6a3d ab27 043d
000002d0: 0fa9 51bd 825e 743d 4665 053d 2a52 a2bd
000002e0: c45c 223d d3e1 08be 7708 a2bd 8126 e53b
000002f0: 4a2b f63d 5050 afbc b122 dc3c 0b20 113b
00000300: 284c 8e3c 434c efbc 7b90 c13d e56a 183d
00000310: 2a4a bbbd 1031 2fbd 5902 5a3d 288a bbbd
00000320: e890 eebb e670 19bc 3084 d13c f563 9cbc
00000330: f5bd 963c 9d85 03bc be49 08bd 77ed a63d
00000340: bb07 bfbc a159 683d 5e3d cbbd f0e7 f03b
00000350: 703b adbd cbdc 1e3d 035f a93d d0b7 52bd
00000360: 8a4b d43c 776f d63d 2a95 4ebd e2bd 8abd
00000370: c287 7e3d 480c 9a3d 978b 43bb 7622 c73d
00000380: 4c37 b03d fb82 b13d 8c7a cb3d ad0e 3abc
00000390: f75c 2d3d fb62 18bd 719a ec3a e009 063c
000003a0: 9bd7 33bd 76be 0e3d 2d8c 153d f007 403d
000003b0: 212d 5bbd 0e3f 3dbd ebe4 973a c973 61bb
000003c0: f0d1 22bd 5a00 a2bd bc35 3e3c 8279 e53c
000003d0: 58c6 89bd 5822 b03d 49e5 9b3d 119d b3bc
000003e0: fc24 80bd 946d e3bc 0ece a3bd b490 58bc
000003f0: de05 cabc 10a0 2ebb 407e 0abc 6179 1dbd

static_ll.2.bias f4 [64]
0.0583342 0.038569324 -0.02469979 -0.059141234 -0.037231397 0.036415007 0.02573747 -0.010293732
0.044819225 -0.06312071 0.08312876 -0.026970988 -0.009780687 0.018374993 0.07506877 0.100100085
-0.082380325 0.019325305 0.08506478 -0.06241003 -0.029563248 -0.00031212295 0.0597223 0.08682312
-0.01864245 0.09000897 0.06000484 -0.024131019 0.017113267 0.017887337 0.06326232 0.022289928
-0.0418847 -0.07295346 0.09321409 0.004213638 0.04543028 -0.047962416 -0.017625868 0.02353859
0.028528905 0.05999474 -0.011274349 0.020675702 -0.006895566 0.076696396 -0.020402322 0.007146179
0.0479769 0.013560283 0.03546412 0.025900198 -0.038189024 0.06189752 0.07439016 0.057782747
-0.02777358 0.09245262 -0.03304915 0.096295215 0.07794269 0.027796963 -0.045697305 0.09958929
00000000: d8ef 6e3d defa 1d3d 3757 cabc 143e 72bd
00000010: f37f 18bd e727 153d 63d7 d23c 0ba7 28bc
00000020: 5d94 373d 6e45 81bd 693f aa3d 43f2 dcbc
00000030: 2d3f 20bc 2787 963c a8bd 993d 4601 cd3d
00000040: 04b7 a8bd 1a50 9e3c 7236 ae3d a9a1 7fbd
00000050: a02e f2bc 6fa4 a3b9 5f9f 743d 52d0 b13d
00000060: 0db8 98bc 9f56 b83d a3c7 753d 6aae c5bc
00000070: 1f31 8c3c 7788 923c ad8f 813d 5e99 b63c
00000080: 4b8f 2bbd a068 95bd 07e7 be3d 8f12 8a3b
00000090: 1a15 3a3d 3d74 44bd 2064 90bc 00d4 c03c
000000a0: 73b5 e93c 0bbd 753d 0cb8 38bc 1760 a93c
000000b0: 33f4 e1bb 0013 9d3d c522 a7bc 7f2a ea3b
000000c0: 6d83 443d f32b 5e3c d342 113d a72c d43c
000000d0: 186c 1cbd 4188 7d3d de59 983d 9aad 6c3d
000000e0: 6b85 e3bc cd57 bd3d 8c5e 07bd 6d36 c53d
000000f0: 6ba0 9f3d 75b6 e33c 192d 3bbd 78f5 cb3d

glu_encoder.rnn.weight_ih_l0 f4 [48, 2]
0.17123383 -0.15297076 0.16181527 -0.15582442 0.1917721 0.12786636 -0.084613025 -0.16504289
-0.1646255 0.22400439 0.24427445 0.18117903 -0.17726807 -0.0052939337 0.31531507 -0.30201778
-0.12959385 -0.23499393 0.24521711 -0.1643653 0.1199863 0.04441526 0.10445251 0.23884179
0.24903113 -0.10427173 0.061412606 0.017180966 0.031627283 -0.050878067 -0.2209915 -0.06872356
0.22660875 -0.11125099 0.046243478 0.21153726 -0.12769671 -0.23326753 -0.009231353 0.21500424
-0.07507948 0.12587139 -0.15098295 -0.032280564 -0.08283082 0.09864585 0.22982046 0.1948454
0.03739757 -0.06744123 -0.38013196 0.28718293 -0.30048767 0.0030258375 0.029403104 -0.06728564
0.21548471 -0.05163172 0.07761577 -0.05632643 0.2380443 -0.018521463 -0.06804987 -0.14003445
0.1389676 -0.10881542 -0.13155709 0.12923184 0.10932802 0.10802239 0.24924336 -0.07332965
-0.09926063 -0.22454482 0.25519738 -0.19191758 0.15784371 0.038196016 0.12383849 -0.05305001
0.13442653 -0.07917361 0.23765074 0.1976207 0.12145361 0.27173448 -0.059769843 -0.10600989
-0.1457507 -0.08940214 -0.25164524 0.21581982 0.26918107 -0.069452286 0.05873334 0.24545814
00000000: ec57 2f3e 5ea4 1cbe e7b2 253e 7090 1fbe
00000010: e85f 443e 66ef 023e 9849 adbd 0101 29be
00000020: 9693 28be 6861 653e 1523 7a3e ff86 393e
00000030: c385 35be bc78 adbb fa70 a13e 13a2 9abe
00000040: 40b4 04be 40a2 70be 321a 7b3e 614f 28be
00000050: 61bb f53d c7ec 353d 33eb d53d f192 743e
00000060: 0402 7f3e 6b8c d5bd c98b 7b3d 19bf 8c3c
00000070: 9c8b 013d 8565 50bd 994b 62be f0be 8cbd
00000080: 200c 683e 8fd7 e3bd cd69 3d3d 399d 583e
00000090: edc2 02be afdd 6ebe 1a3f 17bc 122a 5c3e
000000a0: 45c3 99bd 6ee4 003e 469b 1abe a038 04bd
000000b0: 34a3 a9bd d606 ca3d 0e56 6b3e 8d85 473e
000000c0: 322e 193d a11e 8abd a8a0 c2be a409 933e
000000d0: 85d9 99be 214d 463b c7de f03c 0ecd 89bd
000000e0: 06a8 5c3e c87b 53bd 04f5 9e3d 8bb6 66bd
000000f0: e3c1 733e 53ba 97bc bb5d 8bbd 3165 0fbe
00000100: 864d 0e3e 9eda debd e7b6 06be 5a55 043e
00000110: 5ee7 df3d d83a dd3d a739 7f3e db2d 96bd
00000120: 2849 cbbd 14ef 65be 3ba9 823e 0b86 44be
00000130: c8a1 213e 6d73 1c3d 099f fd3d f84a 59bd
00000140: 1ca7 093e c625 a2bd b75a 733e 155d 4a3e
00000150: acbc f83d c820 8b3e 39d1 74bd b71b d9bd
00000160: ac3f 15be 7818 b7bd a5d7 80be dfff 5c3e
00000170: 1ad2 893e 003d 8ebd 5f92 703d 6159 7b3e

glu_encoder.rnn.weight_hh_l0 f4 [48, 16]
-0.19723143 -0.21106541 -0.11242211 0.1174223 0.121246144 -0.09084485 -0.28093714 0.1774309
0.038980942 0.18164001 -0.20270139 -0.13847044 -0.025252981 -0.11299818 0.11378974 -0.10494646
0.13981073 -0.12398652 0.179509 -0.21266481 -0.16858415 0.25038964 0.04925019 0.07805166
-0.20651542 0.27259052 -0.02727935 0.07055507 0.09445751 -0.1554564 -0.18701851 0.11309717
0.15776257 -0.1536779 -0.120258644 -0.21351129 0.028734079 0.054059774 -0.17267728 0.15739357
0.13415454 -0.080372944 -0.06943001 0.15565263 -0.09678769 0.1573354 -0.19819365 0.17385718
0.15930198 -0.19736339 0.14696044 0.23013619 -0.0009406383 0.16341643 0.199478 0.13016185
-0.17746933 -0.06999801 -0.14278965 -0.15985943 0.13202722 0.024307378 0.018957436 -0.0010005098
-0.08030777 -0.001272143 0.047411963 -0.0432347 0.03578834 -0.08423346 0.2953434 0.12980968
0.022118587 0.12686989 0.047216915 -0.29524735 -0.28848186 0.10261683 0.032177586 -0.11799112
0.071938515 0.20391768 -0.015934758 0.024140947 0.028403684 -0.050668843 -0.059188895 0.18449369
0.040492374 0.21274137 -0.18767682 -0.05324911 -0.16546436 -0.22852187 -0.069020204 -0.061891027
-0.051868573 0.15380923 0.15264621 0.24597345 0.040051796 0.24560642 -0.05902517 0.05111813
0.21991077 0.03934744 -0.16871412 0.17966266 0.14050774 -0.19026805 0.116380624 -0.19389804
0.112464055 -0.17966904 -0.022259928 0.09764947 -0.23013152 0.16580442 -0.07321997 -0.036772072
-0.14058146 0.1587513 0.07658718 -0.23542646 -0.29531977 -0.28287727 0.23857406 -0.059037093
0.0052780127 0.23160565 0.22823383 -0.18961827 -0.1617672 0.11113531 -0.04853633 -0.24750097
-0.03039814 0.07647098 -0.09525898 0.19571352 -0.20004965 -0.088563785 0.20582926 -0.06469468
0.2713439 -0.07682832 0.16459684 -0.19281465 -0.18882084 -0.18666755 0.05209781 0.057057165
-0.14726068 -0.13575058 -0.0054388023 -0.07361148 0.0071248435 0.03885739 0.06405609 0.10313601
0.2217785 -0.0866526 -0.24624878 0.051633585 0.21601285 0.102805376 0.054981664 0.15380234
0.021458736 -0.0718504 -0.11296677 0.16011523 -0.03489201 0.035398163 0.13252637 -0.0048340503
-0.1466493 0.112431325 0.042210504 0.14041299 0.07431327 -0.03220202 -0.04302784 -0.12055747
-0.075408064 -0.14976476 -0.08701336 0.04867876 0.24433047 -0.16120954 -0.05582258 0.21864821
0.2018949 0.08573812 -0.13622886 0.206248 -0.2801215 -0.046338778 0.14028037 0.15990889
0.22841145 -0.08055716 -0.15408055 -0.1571563 0.020061739 -0.091012135 0.056798063 0.07023681
0.053595982 0.14362411 0.086282454 0.16439395 -0.09197017 -0.15867168 -0.07512161 0.005183914
0.148798 0.031556338 0.08794735 -0.08196185 0.041284088 0.07460712 -0.15683559 -0.1762225
0.27271363 0.1733358 -0.20671904 -0.047938965 0.017475579 0.16569346 -0.115831226 -0.09493957
-0.12959655 0.15470034 -0.14344996 0.03638645 0.16569337 0.004269821 0.2788465 -0.17203714
-0.03351802 0.07436242 0.04731736 0.12974873 0.28213245 -0.27460647 -0.027742496 0.1415311
0.027820311 -0.21453151 -0.14287595 -0.059836812 -0.036066078 -0.07186019 -0.039850254 0.003235374
00000000: 09f7 49be 8821 58be 903d e6bd 1a7b f03d
00000010: e64f f83d dd0c babd fed6 8fbe 72b0 353e
00000020: 7baa 1f3d d7ff 393e f490 4fbe 32cb 0dbe
00000030: 57df cebc 976b e7bd 980a e93d 2bee d6bd
00000040: 8b2a 0f3e a5ec fdbd 35d1 373e cec4 59be
00000050: 53a1 2cbe 1233 803e 91ba 493d 8cd9 9f3d
00000060: c778 53be fc90 8b3e f278 dfbc 2d7f 903d
00000070: f072 c13d f62f 1fbe c881 3fbe 7d9f e73d
00000080: 838c 213e bd5d 1dbe 2a4a f6bd b4a2 5abe
00000090: bb63 eb3c c86d 5d3d 50d2 30be c82b 213e
000000a0: cf5f 093e 929a a4bd 5231 8ebd 6763 1f3e
000000b0: a038 c6bd 881c 213e 47f3 4abe 9e07 323e
000000c0: 0f20 233e a119 4abe cc7c 163e d2a8 6b3e
000000d0: 2b95 76ba a356 273e f643 4c3e 2649 053e
000000e0: 85ba 35be 1e5b 8fbd 7337 12be 31b2 23be
000000f0: 2532 073e 4420 c73c a04c 9b3c 8a23 83ba
00000100: 6678 a4bd 09be a6ba 0c33 423d de16 31bd
00000110: cb96 123d 9882 acbd 4037 973e d4ec 043e
00000120: 0a32 b53c 2eea 013e 8666 413d a92a 97be
00000130: e5b3 93be c628 d23d a5cc 033d 54a5 f1bd
00000140: 8054 933d cccf 503e 9c89 82bc 3cc3 c53c
00000150: d8ae e83c 228a 4fbd 0e70 72bd eaeb 3c3e
00000160: 55db 253d e0d8 593e 5a2e 40be bd1b 5abd
00000170: 7d6f 29be a301 6abe 775a 8dbd 7281 7dbd
00000180: 2474 54bd 2b80 1d3e 4a4f 1c3e 77e0 7b3e
00000190: 5a0d 243d 4080 7b3e 60c4 71bd 3f61 513d
000001a0: 4a30 613e c82a 213d 65c3 2cbe 7df9 373e
000001b0: 43e1 0f3e a1d5 42be f758 ee3d 358d 46be
000001c0: 8e53 e63d 29fb 37be 745a b6bc 72fc c73d
000001d0: 99a7 6bbe a2c8 293e 5af4 95bd 509e 16bd
000001e0: 96f4 0fbe b38f 223e bdd9 9c3d a213 71be
000001f0: 2734 97be 4ad5 90be c24c 743e e1d0 71bd
00000200: 2ef3 ac3b 082a 6d3e 21b6 693e 4b2b 42be
00000210: 4da6 25be e99a e33d 08ce 46bd e570 7dbe
00000220: 8505 f9bc d19c 9c3d 2417 c3bd 2069 483e
00000230: d1d9 4cbe ee60 b5bd e8c4 523e a57e 84bd
00000240: 96ed 8a3e 2b58 9dbd 138c 283e 3471 45be
00000250: 405a 41be c725 3fbe 8364 553d c6b4 693d
00000260: 81cb 16be 3302 0bbe fb37 b2bb 9ec1 96bd
00000270: 8577 e93b ed28 1f3d d72f 833d f938 d33d
00000280: e719 633e eb76 b1bd a428 7cbe bd7d 533d
00000290: 7932 5d3e a08b d23d 7434 613d 5c7e 1d3e
000002a0: 3bca af3c 4d26 93bd 1f5b e7bd 3ff5 233e
000002b0: edea 0ebd aafd 103d feb4 073e f466 9ebb
000002c0: 3c2b 16be 6542 e63d ece4 2c3d 6cc8 0f3e
000002d0: 8e31 983d 44e6 03bd f63d 30bd d6e6 f6bd
000002e0: 8b6f 9abd ef5b 19be 0f34 b2bd 6163 473d
000002f0: c431 7a3e 1d14 25be 38a6 64bd 51e5 5f3e
00000300: 89bd 4e3e 7897 af3d 947f 0bbe ad32 533e
00000310: 166c 8fbe bbcd 3dbd a8a5 0f3e 28bf 233e
00000320: b1e4 693e 27fb a4bd 4bc7 1dbe 95ed 20be
00000330: 8458 a43c 9264 babd 16a5 683d 51d8 8f3d
00000340: 7687 5b3d 3312 133e dbb4 b03d e356 283e
00000350: db5a bcbd d47a 22be 5cd9 99bd d3dd a93b
00000360: 815e 183e 3841 013d be1d b43d 9ddb a7bd
00000370: 8119 293d 9ecb 983d 8299 20be ac73 34be
00000380: 1fa1 8b3e f17e 313e 28ae 53be a65b 44bd
00000390: f228 8f3c 8cab 293e ec38 edbd ad6f c2bd
000003a0: f5b4 04be c469 1e3e 8ce4 12be f509 153d
000003b0: 86ab 293e dbe9 8b3b f8c4 8e3e 812a 30be
000003c0: 314a 09bd 534b 983d d9cf 413d dadc 043e
000003d0: aa73 903e 3899 8cbe 3b44 e3bc 87ed 103e
000003e0: 6ce7 e33c 26ae 5bbe 134e 12be 7217 75bd
000003f0: 06ba 13bd 6f2b 93bd 053a 23bd 9208 543b

glu_encoder.rnn.bias_ih_l0 f4 [48]
0.16840836 -0.16323209 -0.033677533 0.031041458 -0.18901035 -0.106568545 0.05387101 -0.08663061
0.046296075 0.09525997 -0.013185072 -0.11358995 -0.05480158 0.07216429 -0.07841425 -0.13315001
0.23883185 -0.18526752 0.232788 -0.22193715 0.25207916 -0.24652998 0.24672939 -0.092316985
0.028495109 0.10860784 0.047859006 0.2157343 0.011948433 0.017269185 0.11353697 0.05301594
0.24465796 0.20722358 -0.17442283 -0.18371479 -0.14594086 -0.14737172 -0.21556173 -0.14342676
-0.07714585 0.2147636 -0.0022004633 -0.12525652 0.03440713 -0.25475064 -0.047706466 -0.108859375
00000000: 3e73 2c3e 5026 27be 74f1 09bd a84a fe3c
00000010: ee8b 41be 9c40 dabd d9a7 5c3d 646b b1bd
00000020: f4a0 3d3d a917 c33d 3306 58bc d9a1 e8bd
00000030: 9f77 60bd dfca 933d a697 a0bd 7a58 08be
00000040: 5690 743e c5b6 3dbe fa5f 6e3e 7e43 63be
00000050: 8510 813e 5b72 7cbe a1a6 7c3e b010 bdbd
00000060: 936e e93c ca6d de3d ce07 443d 74e9 5c3e
00000070: 5cc3 433c 1b78 8d3c 1286 e83d 3e27 593d
00000080: 9e87 7a3e 6b32 543e e69b 32be bb1f 3cbe
00000090: 8571 15be 9de8 16be 37bc 5cbe 77de 12be
000000a0: a5fe 9dbd fdea 5b3e a635 10bb 3f43 00be
000000b0: 7eee 0c3d ad6e 82be db67 43bd aaf1 debd

glu_encoder.rnn.bias_hh_l0 f4 [48]
-0.05608485 0.28104466 0.21283352 -0.06208446 -0.14841385 -0.04753057 -0.17993869 -0.14711119
-0.09115044 -0.106260076 0.016103754 -0.04257385 0.26080757 -0.19893773 0.067270756 0.095172055
-0.051814035 0.20631151 0.3024289 0.19507027 -0.1544224 -0.16714627 0.18025158 0.11127876
0.12316696 -0.32658944 0.13974372 0.21197264 0.17577566 0.26041698 0.097750545 0.33290973
0.10477994 0.012058386 0.12732588 0.11545014 -0.22940439 -0.11053947 -0.24168509 0.160016
0.14714491 -0.09810854 -0.10539762 -0.17973243 -0.30007324 -0.23290473 0.073197566 -0.19073601
00000000: 3ab9 65bd 16e5 8f3e 08f1 593e 464c 7ebd
00000010: cdf9 17be 6aaf 42bd d941 38be 51a4 16be
00000020: 15ad babd e29e d9bd 05ec 833c eb61 2ebd
00000030: 9288 853e 55b6 4bbe 40c5 893d 91e9 c23d
00000040: f43a 54bd 5343 533e f6d7 9a3e 80c0 473e
00000050: e820 1ebe 6428 2bbe df93 383e 1ee6 e33d
00000060: f63e fc3d bb36 a7be fa18 0f3e 5b0f 593e
00000070: 89fe 333e 6055 853e 7031 c83d 2573 aa3e
00000080: dd96 d63d 8990 453c b761 023e 1f71 ec3d
00000090: fce8 6abe 8562 e2bd 4c7c 77be 3cdb 233e
000000a0: 28ad 163e 21ed c8bd b5da d7bd c70b 38be
000000b0: 33a3 99be 947e 6ebe 9be8 953d 4d50 43be

glu_encoder.hid2lat.weight f4 [64, 16]
-0.23917747 -0.18086621 -0.0812607 0.16395226 0.028995616 0.1589028 -0.1374012 0.059348684
-0.038978674 -0.2324805 -0.13108483 -0.07676021 0.19436276 -0.1801152 -0.16511558 -0.13304824
0.13222721 0.15297315 -0.22968744 0.09577894 0.23990098 -0.0067151245 0.04623849 -0.089033835
0.1566524 -0.040723827 -0.17619051 -0.07567953 0.14199215 0.103977695 -0.20187214 -0.08538664
-0.10906157 -0.015766123 -0.027193032 0.25526422 -0.01930078 0.08767929 0.24104577 0.21928874
-0.033148225 0.24808072 -0.19507352 0.018254368 0.08436961 -0.108042546 0.1216879 -0.19309796
0.15645719 -0.10192795 0.22602217 0.06312544 -0.102065064 0.16789564 -0.013766615 0.25151843
-0.1851864 -0.10002111 -0.25325957 0.044264097 0.020915914 -0.08333721 0.024107125 -0.10802029
0.2249107 0.118720755 -0.20695539 0.022655766 0.18923007 0.20771435 0.20325921 -0.032271814
0.120790616 -0.0932575 0.19439793 -0.2928916 -0.22093216 -0.12347284 -0.095276445 0.22853284
-0.12316984 -0.17753513 0.2791284 0.24811235 0.037785478 0.21738616 0.19183733 -0.22810465
-0.067191176 0.14375538 -0.111368075 0.15232506 -0.015973786 -0.092959985 -0.13610706 0.11015851
0.03881403 -0.15244862 0.07742496 0.20026025 0.05885301 -0.17461872 0.14463535 0.20234485
-0.09915553 0.14260563 0.064733885 0.09367023 -0.09406926 -0.031490833 -0.14707331 -0.04119521
-0.11956202 0.10467047 0.18137123 -0.08940499 -0.03103598 -0.15751058 -0.1035371 0.03654417
-0.109521136 -0.11806063 -0.267129 0.13925098 0.20041016 0.14584903 0.12393621 0.20793913
0.047770105 -0.09093595 -0.15122467 0.22457424 0.16252844 -0.19306199 -0.18068887 -0.18958475
-0.04604244 0.15011485 0.18190034 -0.2225459 0.023780603 0.21183519 -0.15204565 0.073625155
0.039788503 -0.2321805 0.10054066 0.044443093 0.04363496 0.18003888 -0.11503766 0.09599216
-0.1512369 -0.11642324 -0.041196145 0.08508958 -0.093133196 0.07863058 0.09319771 0.17639138
0.13499637 -0.21616669 0.10481621 0.28205982 0.14696215 0.16435196 0.09466478 -0.018430833
0.16063264 -0.013577198 -0.12754332 -0.15137267 -0.15987283 -0.024298787 0.22902976 -0.045870747
-0.13302681 -0.13747874 -0.1921605 -0.0039239186 0.12007882 -0.053872027 0.029200377 -0.1272655
-0.24304211 0.20945838 0.12859964 0.05840673 -0.24907042 0.049444277 -0.24591604 -0.18520224
0.055429664 -0.10615202 0.15720266 0.19394356 -0.15110356 -0.044057652 -0.05314682 0.16197062
0.27011812 0.21639457 0.06034993 0.1684969 0.14899091 -0.23355904 0.13204935 -0.12645458
-0.070269726 0.04760433 -0.076251745 -0.19310595 -0.22669022 -0.1619239 -0.25066698 0.17302102
0.23795679 -0.15807882 0.16106977 0.13759233 -0.09841363 -0.010627707 -0.19712582 0.22317566
0.1671661 -0.07912306 0.11102062 0.005442415 0.010155652 0.13495754 0.055039197 -0.2832178
-0.2677816 -0.030154256 -0.26697293 0.044763394 0.025278106 0.03072148 -0.26233765 0.16186255
-0.20540442 0.08777992 -0.009798787 -0.18245317 0.048302345 0.21147418 -0.025577214 0.0954498
-0.1195855 -0.014681186 0.115763046 -0.17598422 -0.018279793 0.010338304 -0.015080261 -0.057847124
00000000: f0ea 74be fe34 39be 036c a6bd 1ae3 273e
00000010: 3788 ed3c 6ab7 223e e6b2 0cbe 9b17 733d
00000020: 1aa8 1fbd 5e0f 6ebe 1a3b 06be 7534 9dbd
00000030: 0807 473e 1e70 38be 0f14 29be cc3d 08be
00000040: 9266 073e fea4 1c3e 2f33 6bbe c027 c43d
00000050: 9aa8 753e 8c0a dcbb 9264 3d3d 5f57 b6bd
00000060: 7d69 203e 07ce 26bd 496b 34be dffd 9abd
00000070: 6466 113e 42f2 d43d 92b7 4ebe 31df aebd
00000080: ac5b dfbd f527 81bc ecc3 debc feb1 823e
00000090: ab1c 9ebc 3391 b33d b4d4 763e 3a8d 603e
000000a0: 6fc6 07bd df08 7e3e 5ac1 47be 2f8a 953c
000000b0: f9c9 ac3d 6945 ddbd 8137 f93d 79bb 45be
000000c0: 5036 203e 9abf d0bd 5b72 673e e947 813d
000000d0: 7d07 d1bd d6ec 2b3e 5e8d 61bc 06c7 803e
000000e0: 81a1 3dbe ded7 ccbd 3dab 81be 454e 353d
000000f0: da57 ab3c b3ac aabd 4e7c c53c be39 ddbd
00000100: fe4e 663e de23 f33d 1dec 53be 9698 b93c
00000110: 87c5 413e 12b3 543e 2f23 503e 732f 04bd
00000120: 1261 f73d cafd bebd 4010 473e e3f5 95be
00000130: 0a3c 62be 54df fcbd 4c20 c3bd 8304 6a3e
00000140: 7840 fcbd c5cb 35be ebe9 8e3e 2a11 7e3e
00000150: f2c4 1a3d 7a9a 5e3e 0171 443e 4494 69be
00000160: 879b 89bd 9c34 133e f214 e4bd 1afb 1b3e
00000170: 75db 82bc ce61 bebd a65f 0bbe c99a e13d
00000180: 76fb 1e3d 7e1b 1cbe fa90 9e3d 0611 4d3e
00000190: db0f 713d 40cf 32be 4a1b 143e 7d33 4f3e
000001a0: 0e12 cbbd 3607 123e 3393 843d 2dd6 bf3d
000001b0: 62a7 c0bd 88fc 00bd 639a 16be 4fbc 28bd
000001c0: efdc f4bd 795d d63d 61b9 393e f719 b7bd
000001d0: 2b3f febc 744a 21be 420b d4bd 57af 153d
000001e0: 9e4c e0bd c6c9 f1bd 22c5 88be cf97 0e3e
000001f0: 5238 4d3e 7359 153e 45d2 fd3d ffed 543e
00000200: 96aa 433d a13c babd a4da 1abe caf6 653e
00000210: db6d 263e 0bb2 45be 8106 39be 8122 42be
00000220: ff96 3cbd b5b7 193e 1544 3a3e 13e3 63be
00000230: 8acf c23c 53eb 583e dbb1 1bbe c9c8 963d
00000240: 45f9 223d bac0 6dbe 43e8 cd3d f609 363d
00000250: 92ba 323d 1d5c 383e dd98 ebbd 8a97 c43d
00000260: d9dd 1abe 4f6f eebd 4abd 28bd 7243 ae3d
00000270: 9ebc bebd 1209 a13d 71de be3d f19f 343e
00000280: 7d3c 0a3e cd5a 5dbe e2a9 d63d 256a 903e
00000290: 3f7d 163e e14b 283e 9cdf c13d 42fc 96bc
000002a0: e27c 243e e572 5ebc b79a 02be 7001 1bbe
000002b0: b4b5 23be 400e c7bc c786 6a3e f7e2 3bbd
000002c0: 2e38 08be 3ac7 0cbe b9c5 44be 3794 80bb
000002d0: e2eb f53d eaa8 5cbd a135 ef3c e351 02be
000002e0: 08e0 78be 427c 563e a0af 033e e53b 6f3d
000002f0: 510c 7fbe 1586 4a3d 6ad1 7bbe a8a5 3dbe
00000300: 370a 633d 3b66 d9bd bcf9 203e 2499 463e
00000310: e4ba 1abe cc75 34bd 7bb0 59bd a0db 253e
00000320: ec4c 8a3e 8a96 5d3e 7d31 773d 748a 2c3e
00000330: 1391 183e 1a2a 6fbe f237 073e 4f7d 01be
00000340: 93e9 8fbd c2fc 423d e029 9cbd 91bd 45be
00000350: 7b21 68be 61cf 25be 6c57 80be 6c2c 313e
00000360: f2aa 733e 6adf 21be 79ef 243e 01e5 0c3e
00000370: 168d c9bd d51f 2ebc 5adb 49be 2988 643e
00000380: 972d 2b3e 450b a2bd c75e e33d 4956 b23b
00000390: e463 263c 4f32 0a3e c870 613d ec01 91be
000003a0: ab1a 89be 0f06 f7bc adb0 88be d259 373d
000003b0: 0814 cf3c 9dab fb3c 1f51 86be 4cbf 253e
000003c0: 8955 52be f5c5 b33d 178b 20bc 01d5 3abe
000003d0: aed8 453d b08c 583e 4e87 d1bc 2f7b c33d
000003e0: 3ee9 f4bd 5b89 70bc 2d15 ed3d 3535 34be
000003f0: 81bf 95bc fd61 293c 3313 77bc 1bf1 6cbd

glu_encoder.hid2lat.bias f4 [64]
0.026012285 -0.070722096 -0.19055699 0.019869113 0.05086052 0.04180965 0.19504328 -0.08988656
0.018602982 0.1315809 0.2476881 0.10716277 0.01683144 -0.0011863895 -0.011824906 -0.19698508
-0.04332836 0.062641345 0.0033476646 0.22074243 -0.07828312 0.19364724 0.11253212 0.07501175
0.15686989 0.08028185 0.06561987 0.024121216 -0.15791832 0.21982503 -0.1548542 -0.04042223
-0.2368073 -0.26454273 0.1849815 -0.113192014 0.23827615 -0.050568268 -0.21485856 -0.115415946
-0.039401907 0.007155879 0.1402054 0.018407594 0.27148765 0.13126247 0.1082713 0.20512158
-0.166136 0.0070549464 0.20062909 0.21576187 0.017193548 -0.09787816 0.04927294 -0.056074247
-0.26016 -0.19215073 -0.24656641 -0.054140527 -0.21435393 -0.027682915 0.035799153 0.1914861
00000000: b717 d53c bfd6 90bd 5f21 43be 8dc4 a23c
00000010: 1f53 503d 9840 2b3d 6db9 473e 7216 b8bd
00000020: 4865 983c 25bd 063e f3a1 7d3e 2878 db3d
00000030: 17e2 893c a080 9bba 40bd 41bc 75b6 49be
00000040: 1479 31bd 1b4a 803d 7e64 5b3b 4e0a 623e
00000050: e752 a0bd 764b 463e 3d77 e63d c39f 993d
00000060: 80a2 203e d06a a43d b663 863d db99 c53c
00000070: 57b5 21be d019 613e 1992 1ebe c891 25bd
00000080: 9d7d 72be 2572 87be ca6b 3d3e 37d1 e7bd
00000090: aafe 733e ac20 4fbd e203 5cbe 325f ecbd
000000a0: e563 21bd dd7b ea3b 0192 0f3e 86cb 963c
000000b0: 6e00 8b3e ab69 063e 58bd dd3d 640b 523e
000000c0: 8e1f 2abe 2e2d e73b b671 4d3e aef0 5c3e
000000d0: 7cd9 8c3c 5874 c8bd 6cd2 493d 1cae 65bd
000000e0: b133 85be 29c3 44be e87b 7cbe 75c2 5dbd
000000f0: 997f 5bbe 48c7 e2bc 22a2 123d ef14 443e

encoders.weight_ih_l0 f4 [192, 64]
-0.08081927 -0.1303717 -0.065745905 0.17101698 0.041275032 0.06035243 0.0934825 0.021758333
0.05781641 -0.03871276 0.14794458 -0.13164862 -0.068292275 -0.039462518 -0.10722159 0.051724426
0.051342577 0.05306345 -0.074737094 0.10814562 0.14833842 -0.042613585 0.048319098 0.033243906
0.046957254 0.16304411 -0.126002 -0.10496246 -0.14574708 -0.05824627 0.09206556 -0.09318628
-0.043920156 0.04444308 0.0205587 -0.05774497 -0.1622476 -0.07442839 -0.119047806 0.14278571
-0.012989251 -0.015848206 0.04286388 0.16881387 -0.038998418 0.07505678 -0.06366184 -0.050545115
-0.15970004 -0.109569356 -0.09521758 -0.08199137 0.097692624 0.103883065 0.068752475 -0.162105
-0.08054962 -0.01982966 -0.15225452 -0.17745954 -0.07296336 0.07040018 -0.038251206 0.15015323
-0.03601437 0.045270637 -0.094578706 -0.09295498 -0.09510139 0.06450489 0.061195984 0.039375976
-0.0030597865 -0.10773615 0.009064493 -0.009388153 0.01593196 -0.04302504 -0.03534512 -0.025297381
0.016677342 -0.12500669 -0.13219479 0.033372447 0.083905794 0.0941616 0.07026656 -0.091331266
0.0903483 0.06003797 0.085080914 -0.026764011 0.14436984 0.05495588 0.03993614 -0.17689323
-0.09981558 -0.049564727 0.076711655 0.053056095 0.09200973 0.12825789 -0.006059664 -0.09835523
0.06845377 -0.020330656 -0.0071479613 -0.009689049 0.112919 -0.116823874 0.09192028 -0.046383902
-0.109735034 0.064286545 -0.016313309 0.12487375 0.07112418 -0.112806104 -0.09799342 -0.13724135
-0.072096646 0.040473852 -0.0812089 -0.041072354 0.12273725 -0.04379246 -0.014582349 -0.02554785
-0.06967794 -0.0640589 -0.036021385 -0.03035391 -0.020574259 0.006827429 -0.049096562 -0.028319519
-0.14632586 -0.027568087 -0.042581752 -0.04176406 0.13893035 -0.02588089 -0.00040886685 -0.06907
0.0645841 0.12178617 0.11032104 -0.039318673 0.0046422225 -0.060792297 0.15030065 -0.04910075
0.030075518 0.108953364 -0.03231135 -0.07362282 0.04368179 0.040193528 0.049345266 0.0005352272
-0.1588319 -0.10678881 0.14868551 0.056650076 -0.080087684 0.049432356 -0.13074118 0.072565146
-0.03671783 -0.044027667 -0.04073978 -0.00987849 0.13045292 0.08799366 0.014324766 -0.060265295
-0.03294785 -0.056172352 -0.047878638 0.010381392 -0.041628767 -0.0657458 -0.018198313 -0.014440171
-0.016911816 -0.050668284 -0.15087493 -0.14400183 -0.059910003 -0.06061184 -0.13352259 0.08453346
-0.00022239832 0.07151218 0.1455334 0.021789888 0.12582627 -0.09753669 0.1407984 -0.11701836
-0.07915509 0.0014762811 0.0820647 -0.10909199 0.13899378 0.028212387 -0.07490408 0.051092625
0.0055167503 0.046491224 -0.01533636 -0.07332124 0.1279381 0.049806613 -0.09828715 -0.06683749
0.06797857 0.048511382 0.013568643 -0.14400668 0.0021224774 -0.061602697 0.05604923 -0.16518627
-0.047290456 0.09901526 -0.014162552 -0.023067098 -0.04553926 -0.031782147 0.083082266 -0.05214687
-0.06369706 0.067014895 0.070889436 0.034552727 0.12871552 0.049486484 -0.011795679 0.042201046
0.0805122 0.051404387 -0.08742608 -0.060039528 -0.00073561654 0.0909762 -0.06664452 0.009697702
0.039027087 -0.052733935 0.043726563 -0.0034278042 -0.10897051 0.09646808 -0.13340127 0.16066192
00000000: 9384 a5bd 2980 05be caa5 86bd 131f 2f3e
00000010: 0210 293d 1c34 773d c173 bf3d 883e b23c
00000020: e6d0 6c3d 4591 1ebd c97e 173e e5ce 06be
00000030: d2dc 8bbd 73a3 21bd fe96 dbbd fedc 533d
00000040: 984c 523d 0f59 593d c30f 99bd 737b dd3d
00000050: 07e6 173e 958b 2ebd 3fea 453d c32a 083d
00000060: 4056 403d 09f5 263e ab06 01be 8ff6 d6bd
00000070: b93e 15be a493 6ebd de8c bc3d 73d8 bebd
00000080: 9fe5 33bd f209 363d b86a a83c fd85 6cbd
00000090: 3c24 26be e96d 98bd 56cf f3bd 6b36 123e
000000a0: ded0 54bc 19d4 81bc 0992 2f3d 8bdd 2c3e
000000b0: cebc 1fbd 5eb7 993d 2461 82bd 6508 4fbd
000000c0: 6888 23be e665 e0bd 6f01 c3bd 17eb a7bd
000000d0: 1213 c83d a5c0 d43d 19ce 8c3d dafe 25be
000000e0: 33f7 a4bd d071 a2bc 9ce8 1bbe f4b7 35be
000000f0: d06d 95bd f82d 903d 4cad 1cbd c5c1 193e
00000100: ce83 13bd b46d 393d 7bb2 c1bd 2e5f bebd
00000110: 84c4 c2bd 241b 843d a4a8 7a3d b448 213d
00000120: b386 48bb c5a4 dcbd 3d83 143c c5d0 19bc
00000130: be83 823c 063b 30bd 0bc6 10bd 743c cfbc
00000140: ec9e 883c c101 00be 125e 07be 8cb1 083d
00000150: cdd6 ab3d ccd7 c03d eae7 8f3d e30b bbbd
00000160: 8808 b93d 60ea 753d e73e ae3d 3340 dbbc
00000170: b0d5 133e 6b19 613d 1494 233d 8023 35be
00000180: 1c6c ccbd 6204 4bbd 001b 9d3d 5951 593d
00000190: 996f bc3d 0956 033e 2590 c6bb 786e c9bd
000001a0: 7d31 8c3d 7a8c a6bc 7239 eabb d1be 1ebc
000001b0: 1442 e73d 5b41 efbd b340 bc3d 0cfd 3dbd
000001c0: c3bc e0bd aaa8 833d 7da3 85bc cfbd ff3d
000001d0: 8ea9 913d e306 e7bd c6b0 c8bd ff88 0cbe
000001e0: 68a7 93bd e9c7 253d da50 a6bd 7c3b 28bd
000001f0: ab5d fb3d b95f 33bd ceea 6ebc ba49 d1bc
00000200: 4fb3 8ebd 5031 83bd 298b 13bd c3a8 f8bc
00000210: 598b a8bc a0b8 df3b 7a19 49bd 56fe e7bc
00000220: 72d6 15be 78d6 e1bc 346a 2ebd ca10 2bbd
00000230: c243 0e3e 2904 d4bc 2e5d d6b9 9274 8dbd
00000240: ab44 843d 076b f93d ffef e13d 9e0c 21bd
00000250: c91d 983b 5801 79bd 6ae8 193e de1d 49bd
00000260: ef60 f63c f122 df3d e858 04bd 90c7 96bd
00000270: adeb 323d f8a1 243d 431e 4a3d 7d4e 0c3a
00000280: d4a4 22be 17b4 dabd 0441 183e e909 683d
00000290: 0305 a4bd 9579 4a3d 04e1 05be 099d 943d
000002a0: 6f65 16bd 5b56 34bd c1de 26bd 64d9 21bc
000002b0: 7395 053e 0536 b43d 6cb2 6a3c bed8 76bd
000002c0: 53f4 06bd fb14 66bd 641c 44bd b716 2a3c
000002d0: ed82 2abd bca5 86bd a114 95bc 7896 6cbc
000002e0: a68a 8abc 8c89 4fbd f57e 1abe 3775 13be
000002f0: 3164 75bd 1f44 78bd 25ba 08be e11f ad3d
00000300: 9833 69b9 fa74 923d b506 153e b580 b23c
00000310: 9ad8 003e 51c1 c7bd 752d 103e 52a7 efbd
00000320: 101c a2bd c67f c13a 8a11 a83d 9f6b dfbd
00000330: 6354 0e3e aa1d e73c 4f67 99bd 8046 513d
00000340: dbc5 b43b 956d 3e3d 5b45 7bbc 7229 96bd
00000350: 3502 033e 0502 4c3d c64a c9bd 18e2 88bd
00000360: 5938 8b3d dfb3 463d 034f 5e3c 7d76 13be
00000370: 4319 0b3b 1c53 7cbd e193 653d 9726 29be
00000380: a3b3 41bd 83c8 ca3d 0c0a 68bc 36f7 bcbc
00000390: 6087 3abd ff2d 02bd 0927 aa3d f597 55bd
000003a0: 9b73 82bd 1b3f 893d 7b2e 913d 2987 0d3d
000003b0: 00ce 033e 57b2 4a3d aa42 41bc 01db 2c3d
000003c0: 95e3 a43d 688d 523d 720c b3bd 02ec 75bd
000003d0: 64d6 40ba bb51 ba3d ec7c 88bd 1ce3 1e3c
000003e0: deda 1f3d 8aff 57bd a01a 333d 03a5 60bb
000003f0: ee2b dfbd 0f91 c53d 589a 08be 8f84 243e
