code/baseline/saved/GAMNet_learning_rate_0.0001_hidden_size_64_epoch_6000_batch_size_32/Epoch_5350_JA_0.7805_DDI_0.0929.model (torch, 455805 bytes, 29 tensors)

lab_embeddings f4 [32, 64]
0.2759031 0.19796205 -0.74466604 -1.6493082 -0.66640955 -1.5514787 1.1984874 0.5071611
0.7945216 0.4844063 -1.7140564 -1.3591636 0.53265154 -0.4697661 0.670089 1.9323869
0.7238857 0.20715562 0.3939727 0.41677508 0.27213317 -0.75518984 -1.0907106 -1.0089298
-0.6811601 -1.00668 0.71319246 -2.3558135 -0.35016608 0.84115905 1.4300027 0.39875975
-2.2511282 1.745374 -0.2792829 -1.9131908 -0.41206938 -0.59678215 -1.136227 -0.94662374
0.5086764 0.46545964 1.0409274 -0.46942163 0.43667266 0.9421573 2.2658515 0.5730693
-0.2587777 -0.34573337 0.2696017 -0.45689142 -0.82062197 0.15619811 -0.6435831 0.8168218
-0.31765816 -0.15629198 2.5079165 -0.5489917 0.038935386 0.3260047 1.7989144 0.030298624
-0.19622672 -0.5965052 -0.4684612 -0.053948473 0.17404681 0.58356166 1.862746 0.3081544
-1.0422854 -1.326839 -1.290175 0.04948996 -1.5082201 -1.1268506 0.8899134 -0.90484715
-0.08163946 0.55727917 1.4987332 1.2022345 0.37887764 -0.4744076 0.23342934 2.3054922
-0.05240428 1.0154412 0.37535116 0.9850081 0.044422574 1.8628254 0.82735324 0.12768967
-0.8323787 -1.4362096 -0.56605244 0.5175286 1.305649 -0.25990942 0.15286213 0.40562475
0.41958532 -1.1882832 0.7873727 0.703885 1.6079291 -0.25157258 -1.9706964 -0.6108552
0.69776344 -1.603186 0.7968273 0.60211384 0.52556735 -0.5148719 -1.2490613 -0.72556823
-2.004663 3.3484132 0.17467238 0.39206147 0.67897075 0.97970706 -2.2076895 1.4243535
-0.89493304 -0.24447107 1.6499805 -0.23701291 0.2468794 -1.0505052 -1.012204 -0.75179344
-0.8619687 0.933889 -0.061362356 1.2236116 -0.3188576 0.58210623 -0.47632048 2.1399932
-0.80738175 0.22399619 0.80422056 -0.37656242 -0.7993703 0.58540857 1.5433348 0.013073846
-1.4209565 -0.16503987 -0.6714269 -0.81487495 0.35255417 -0.27864394 -0.18366589 0.79675215
-0.7985206 1.4702857 0.40286505 0.5496291 0.7710518 0.31336653 0.04456171 1.4416497
2.0262442 -0.25285348 0.4658287 -0.23231259 1.261095 -0.27640694 -0.35822776 -0.6381851
-0.37756568 0.3026452 -1.0528904 0.36435902 -1.353734 0.32945216 0.09461886 -1.7477806
-0.049736198 0.8567988 0.2721569 -0.08677169 0.36640584 -1.3874813 -0.9184921 -0.49761853
-0.033683762 -0.67053455 0.9385605 -1.0692409 -0.10746494 -2.0013142 -1.481965 0.14875078
0.27182838 1.1670028 -0.40708432 -1.0384543 0.8700436 1.9989612 0.2770084 -0.12300444
0.27467385 0.66054344 -0.32136372 0.03585373 0.29369104 -1.3939646 -2.5129902 -0.41971442
-0.60317254 -0.09604504 2.2325258 -1.7550265 0.5647505 0.029151319 -0.3206573 0.42543536
0.19872415 1.2423483 0.9596272 -1.2726456 0.49838814 -0.036124032 1.9604219 -2.133259
0.7736444 0.30490196 -0.06285224 -0.3858239 -0.76638144 0.6508753 -1.1932914 0.7586584
-0.6272868 -1.263062 0.57067627 0.9793449 1.353774 0.47765207 -1.8656616 0.7285147
0.6462681 1.3911101 -0.9513798 0.7811617 1.1299003 -0.23674914 0.69377357 2.1945336
00000000: 2c43 8d3e 90b6 4a3e 6fa2 3ebf 881c d3bf
00000010: d199 2abf db96 c6bf 0968 993f 4fd5 013f
00000020: c465 4b3f 1a04 f83e 3366 dbbf 13f9 adbf
00000030: da5b 083f 2f85 f0be f48a 2b3f 7458 f73f
00000040: 9350 393f 9a20 543e cab6 c93e 8b63 d53e
00000050: 0a55 8b3e 1f54 41bf 689c 8bbf 9d24 81bf
00000060: 8260 2ebf e4da 80bf c893 363f a6c5 16c0
00000070: f848 b3be 3356 573f 540a b73f 3d2a cc3e
00000080: 7c12 10c0 6a68 df3f 2bfe 8ebe 70e3 f4bf
00000090: c2fa d2be b7c6 18bf e36f 91bf ef55 72bf
000000a0: 9e38 023f ba50 ee3e 1c3d 853f 0858 f0be
000000b0: 8f93 df3e 3931 713f b603 1140 abb4 123f
000000c0: 837e 84be f703 b1be 3c09 8a3e aced e9be
000000d0: 4814 52bf 66f2 1f3e ddc1 24bf 3c1b 513f
000000e0: 17a4 a2be 010b 20be b481 2040 b88a 0cbf
000000f0: b67a 1f3d 17ea a63e d442 e63f d234 f83c
00000100: a8ef 48be 91b4 18bf 25da efbe 13f9 5cbd
00000110: 5439 323e 4c64 153f 766e ee3f 6ac6 9d3e
00000120: 9c69 85bf dcd5 a9bf 7424 a5bf fcb5 4a3d
00000130: 5b0d c1bf a43c 90bf 5dd1 633f 10a4 67bf
00000140: 9732 a7bd d9a9 0e3f 7dd6 bf3f d2e2 993f
00000150: 40fc c13e 8ee5 f2be 1a08 6f3e 2f8d 1340
00000160: dfa5 56bd faf9 813f 072e c03e 7e29 7c3f
00000170: 72f4 353d 1071 ee3f 6ccd 533f 15c1 023e
00000180: c516 55bf b7d5 b7bf d0e8 10bf c17c 043f
00000190: 821f a73f d912 85be e487 1c3e 0cae cf3e
000001a0: e3d3 d63e aa19 98bf 4291 493f cf31 343f
000001b0: 9fd0 cd3f 1fce 80be c83f fcbf 0261 1cbf
000001c0: a0a0 323f 3335 cdbf e0fc 4b3f 2224 1a3f
000001d0: 958b 063f a5ce 03bf 3ee1 9fbf d7be 39bf
000001e0: 664c 00c0 674c 5640 51dd 323e 48bc c83e
000001f0: 07d1 2d3f 15ce 7a3f c94a 0dc0 3751 b63f
00000200: 551a 65bf a056 7abe 9032 d33f 83b3 72be
00000210: f4cd 7c3e f476 86bf e78f 81bf 8975 40bf
00000220: fba9 5cbf 5913 6f3f 1857 7bbd 4e9f 9c3f
00000230: 4e41 a3be ea04 153f 47e0 f3be a6f5 0840
00000240: 92b0 4ebf 425f 653e 66e1 4d3f cacc c0be
00000250: 88a3 4cbf 56dd 153f ff8b c53f af33 563c
00000260: e7e1 b5bf 3600 29be a2e2 2bbf a59b 50bf
00000270: fb81 b43e 6baa 8ebe e912 3cbe f3f7 4b3f
00000280: d96b 4cbf 5232 bc3f 5444 ce3e 7eb4 0c3f
00000290: a763 453f 9471 a03e 5786 363d fa87 b83f
000002a0: fcad 0140 0376 81be 1981 ee3e 5ae3 6dbe
000002b0: 906b a13f 3685 8dbe a169 b7be 1960 23bf
000002c0: 4a50 c1be 50f4 9a3e 1dc5 86bf 448d ba3e
000002d0: 2847 adbf f4ad a83e 88c7 c13d 46b7 dfbf
000002e0: 2fb8 4bbd 2b57 5b3f 2658 8b3e 5bb5 b1bd
000002f0: 8c99 bb3e fd98 b1bf 4c22 6bbf dbc7 febe
00000300: fcf7 09bd 27a8 2bbf 8045 703f e3dc 88bf
00000310: 9416 dcbd 8815 00c0 07b1 bdbf 2052 183e
00000320: 172d 8b3e 5960 953f 5b6d d0be 12ec 84bf
00000330: 2dbb 5e3f f6dd ff3f 0cd4 8d3e c0e9 fbbd
00000340: 0da2 8c3e 6019 293f c989 a4be 5cdb 123d
00000350: ac5e 963e 6f6d b2bf d5d4 20c0 cfe4 d6be
00000360: 8469 1abf 43b3 c4bd b4e1 0e40 b5a4 e0bf
00000370: 7d93 103f bfce ee3c 322d a4be aad2 d93e
00000380: 587e 4b3e 4505 9f3f 21aa 753f 0de6 a2bf
00000390: bb2c ff3e cbf6 13bd 1bef fa3f 5187 08c0
000003a0: 8f0d 463f 1c1c 9c3e adb8 80bd b68a c5be
000003b0: 9331 44bf c39f 263f c6bd 98bf 7037 423f
000003c0: de95 20bf 04ac a1bf d717 123f 59b6 7a3f
000003d0: 7748 ad3f d08e f43e 00ce eebf f07f 3a3f
000003e0: d471 253f e50f b23f a08d 73bf 37fa 473f
000003f0: 93a0 903f 5e6e 72be 259b 313f 3d73 0c40

static_ll.0.weight f4 [128, 64]
0.15303521 -0.087030225 -0.09891725 -0.12094186 0.09467149 -0.0752577 -0.15418138 0.018979903
0.07379918 -0.06725624 -0.022540068 -0.075908326 0.1875546 -0.041476026 0.013976859 -0.078836754
-0.13432492 0.0992109 -0.062217455 -0.106543586 -0.05501888 -0.07216917 -0.12673083 -0.114397
0.10162437 -0.032956697 0.07566396 -0.09280938 0.09110685 -0.05164879 0.08366451 0.12439376
0.109320894 0.10110719 -0.0064728064 -0.12573066 0.037942357 0.07115645 0.045389704 -0.059722785
0.017007098 0.06948938 0.056888442 0.050363626 -0.06443841 0.061694037 -0.05595457 -0.08836757
-0.06598897 -0.12801655 0.12910512 0.16592039 0.042362362 -0.022184733 -0.052802436 -0.119043484
0.013060333 0.0040599983 -0.045610096 0.042085722 -0.13491796 -0.10114263 -0.02066486 -0.006054891
-0.043718845 0.08964938 -0.12406543 0.15078613 -0.07611261 -0.06983357 0.09543599 -0.08858855
-0.08249379 0.05537509 -0.020069873 0.115607776 -0.075185694 0.005611763 0.060270317 -0.13340485
-0.076905794 -0.0881338 0.00830713 0.13632701 0.0659201 0.06250532 0.070548914 0.030574337
0.0725785 0.037063424 0.08002795 0.15714285 0.08044558 0.11540634 0.025713064 -0.14212462
-0.07201811 -0.14988482 0.028893502 -0.03236168 -0.023857951 0.122906886 -0.02314085 0.13297535
-0.035516247 -0.11044693 0.12761538 -0.09619347 -0.08889871 -0.009570355 -0.05000441 -0.014808953
-0.07004451 0.024935437 0.1667579 -0.0119988965 -0.1342713 -0.027115567 -0.0801881 0.005207634
-0.082590945 0.17352605 -0.043162595 0.07778262 0.0063252263 0.103219084 -0.117984764 0.10629133
0.086699195 -0.0024644325 -0.00664573 0.0066753393 0.08080875 -0.16377926 -0.11790851 -0.041549843
-0.07458044 -0.027696326 -0.07737044 -0.12928407 0.021082826 -0.06450709 -0.08568499 -0.012953996
-0.07866328 0.11365656 -0.047316387 -0.102170326 0.03867179 -0.07087686 -0.024342995 0.03805566
-0.057772845 -0.11259553 -0.08089893 -0.052943133 -0.070571415 0.06707624 0.06615394 -0.03599297
-0.12596208 0.0870642 0.012514879 0.027948307 0.022101616 -0.012695906 0.03210456 -0.027011015
-0.025440209 -0.09573338 0.0800068 -0.057492882 0.14748338 0.113898985 0.11949251 -0.03476555
-0.112049386 -0.009704112 0.07399419 0.09265187 0.0013073205 0.11345746 0.10515998 -0.033725098
0.008045075 -0.009956487 0.023228912 -0.064259045 0.11825347 0.10960925 0.055704813 -0.072262816
-0.07948279 -0.0571033 -0.018208014 -0.032574978 0.15733914 0.10851879 -0.14782558 0.07900769
-0.09377233 0.06913901 0.045717705 -0.01214482 0.076605015 0.051170044 0.019435944 0.057812538
0.07882567 -0.02113642 -0.03338981 0.05054198 0.09078537 0.097516716 -0.022667803 -0.034629848
0.09107472 -0.009674592 -0.14211807 0.027677814 0.025225863 -0.010171779 0.0065254956 0.061962824
0.01933023 -0.08820829 0.01136405 0.039525576 -0.043780733 -0.068441816 -0.120054685 0.06197208
0.12045907 -0.17245483 -0.10291313 0.099655144 -0.03299229 -0.0707721 0.09294818 -0.108701214
0.023694621 0.03630299 -0.15977052 -0.017847558 0.14477018 -0.08847806 -0.013225873 -0.06954884
0.027545555 -0.04399629 0.00021200231 -0.069299534 -0.07060186 -0.08307706 -0.07814303 -0.014620746
00000000: 43b5 1c3e e73c b2bd 2195 cabd 5eb0 f7bd
00000010: 20e3 c13d b620 9abd b9e1 1dbe be7b 9b3c
00000020: 0624 973d a4bd 89bd f3a5 b8bc d375 9bbd
00000030: 500e 403e c4e2 29bd 32ff 643c 2a75 a1bd
00000040: 798c 09be 162f cb3d bbd7 7ebd 8633 dabd
00000050: 7a5b 61bd 6ecd 93bd bac5 01be f948 eabd
00000060: 7020 d03d 9afd 06bd b5f5 9a3d d812 bebd
00000070: 3a96 ba3d ae8d 53bd 4c58 ab3d 28c2 fe3d
00000080: a2e3 df3d 4911 cf3d d619 d4bb 8abf 00be
00000090: 7269 1b3d 79ba 913d 8eea 393d e19f 74bd
000000a0: 7852 8b3c 7350 8e3d db03 693d 174a 4e3d
000000b0: 49f8 83bd e3b2 7c3d 9f30 65bd 0efa b4bd
000000c0: 3a25 87bd c516 03be 2234 043e 09e7 293e
000000d0: 2884 2d3d c2bc b5bc 5e47 58bd 12cd f3bd
000000e0: 02fb 553c bc09 853b a7d1 3abd 1462 2c3d
000000f0: ef27 0abe de23 cfbd 5a49 a9bc 1b68 c6bb
00000100: 8812 33bd 189a b73d 0416 febd ae67 1a3e
00000110: eee0 9bbd e704 8fbd f273 c33d ea6d b5bd
00000120: 81f2 a8bd fed0 623d 9369 a4bc c5c3 ec3d
00000130: f5fa 99bd e1e2 b73b 02de 763d 489b 08be
00000140: c980 9dbd 7e7f b4bd a11a 083c 4f99 0b3e
00000150: 1e01 873d ca02 803d f37b 903d 0877 fa3c
00000160: 09a4 943d d1cf 173d b2e5 a33d 0eea 203e
00000170: a7c0 a43d 295a ec3d 34a4 d23c 1e89 11be
00000180: 3b7e 93bd 687b 19be 11b2 ec3c ae8d 04bd
00000190: c071 c3bc 9bb6 fb3d e191 bdbc b12a 083e
000001a0: 7c79 11bd 0032 e2bd 9bad 023e 1501 c5bd
000001b0: 8710 b6bd facc 1cbc 6dd1 4cbd 40a1 72bc
000001c0: 7f73 8fbd 6745 cc3c 95c2 2a3e 0597 44bc
000001d0: 6a7e 09be 7721 debc a939 a4bd cda4 aa3b
000001e0: 7125 a9bd d0b0 313e 43cb 30bd 7f4c 9f3d
000001f0: d843 cf3b 8764 d33d ffa1 f1bd 45af d93d
00000200: 598f b13d 5182 21bb 6dc4 d9bb cebc da3b
00000210: 0f7f a53d c0b5 27be 047a f1bd 2b30 2abd
00000220: a1bd 98bd 68e3 e2bc 6574 9ebd 0b63 04be
00000230: e4b5 ac3c 4b1c 84bd 9d7b afbd ff3c 54bc
00000240: 371a a1bd c5c4 e83d d4ce 41bd ad3e d1bd
00000250: 5066 1e3d e327 91bd f66a c7bc 40e0 1b3d
00000260: 38a3 6cbd 7c98 e6bd 57ae a5bd e6da 58bd
00000270: bf87 90bd 455f 893d b87b 873d 5d6d 13bd
00000280: 34fc 00be b74e b23d 350b 4d3c d9f3 e43c
00000290: 730e b53c 7d02 50bc 1280 033d 3446 ddbc
000002a0: fc67 d0bc dd0f c4bd 9bda a33d a87d 6bbd
000002b0: e205 173e df43 e93d 7db8 f43d 5266 0ebd
000002c0: 267a e5bd fffd 1ebc 448a 973d 43c0 bd3d
000002d0: 665a ab3a 635c e83d 1e5e d73d 5423 0abd
000002e0: 7ecf 033c 8920 23bc 8f4a be3c 3f9a 83bd
000002f0: e02e f23d d17a e03d bb2a 643d 87fe 93bd
00000300: dfc7 a2bd 26e5 69bd f928 95bc 576d 05bd
00000310: 831d 213e 193f de3d 975f 17be c9ce a13d
00000320: b50b c0bd c198 8d3d 7d42 3b3d 11fb 46bc
00000330: 17e3 9c3d ae97 513d 2138 9f3c d7cc 6c3d
00000340: 5a6f a13d 4926 adbc c1c3 08bd 1b05 4f3d
00000350: aeed b93d d8b6 c73d d4b1 b9bc 07d8 0dbd
00000360: 6285 ba3d 2e82 1ebc 6687 11be 95bc e23c
00000370: 78a6 ce3c 89a7 26bc d3d3 d53b bbcc 7d3d
00000380: 6e5a 9e3c 8ca6 b4bd 4830 3a3c 92e5 213d
00000390: 6d53 33bd 392b 8cbd 3bdf f5bd 70d6 7d3d
000003a0: 3fb3 f63d 0098 30be 1ec4 d2bd ff17 cc3d
000003b0: ec22 07bd f6f0 90bd 9e5b be3d be9e debd
000003c0: 391b c23c 72b2 143d e29a 23be 0b35 92bc
000003d0: a23e 143e fc33 b5bd 55b1 58bc 9f6f 8ebd
000003e0: 37a7 e13c 7435 34bd f04c 5e39 eaec 8dbd
000003f0: b597 90bd 4e24 aabd 7409 a0bd da8b 6fbc

static_ll.0.bias f4 [128]
0.11383329 -0.09618763 0.020980516 -0.0517465 0.11332923 0.08687845 -0.069739245 0.121973716
0.012773399 0.139632 0.13315831 -0.04905486 -0.02785354 0.100565806 0.017935148 0.12144008
0.12338403 -0.08581306 0.03531589 0.07805338 0.09658946 0.011205972 0.07322007 0.14942889
0.1166185 0.1106998 -0.049225967 -0.07419351 -0.06563448 0.11307568 -0.027542438 -0.071453616
-0.0024217376 0.077622436 0.118382595 -0.08182516 0.13258408 0.10129156 0.0015423262 0.0764148
0.0036577913 -0.010466514 -0.0147294225 -0.07145276 -0.001563014 -0.026963605 -0.071043156 -0.051184494
-0.021501362 0.10905615 0.12148668 0.029703407 0.036422443 0.14146338 -0.030077742 0.07846994
0.13527308 0.09805894 -0.11133462 -0.08225907 -0.0353705 0.097976804 -0.0577618 -0.07405712
-0.047453888 -0.037504546 0.0489942 -0.06531586 -0.00069245516 -0.012964392 0.049481887 0.061109476
-0.007902949 -0.038238965 -0.053671017 0.040810645 0.011959162 0.01903919 -0.028569438 0.013684221
0.009883427 0.0929402 -0.07575262 0.005835481 -0.07575689 0.001485902 -0.07064303 0.03766078
0.16580491 -0.072627105 0.10726365 -0.041420445 -0.09687875 0.04043444 -0.017935079 -0.00053267647
-0.067179054 0.07618297 0.019440185 -0.0030298852 0.11457534 -0.0698126 0.055891518 -0.05937025
-0.08353809 -0.041665528 0.121763855 0.10776972 0.052206896 0.036791485 0.04255924 -0.014501415
0.11223335 -0.0738085 0.051931795 -0.03493308 0.046850868 0.057877183 0.064907424 -0.10534087
0.07612558 -0.013763855 0.11505298 -0.06567165 0.07865462 -0.120780535 0.12483211 0.015067045
00000000: 6e21 e93d 05fe c4bd 55df ab3c 23f4 53bd
00000010: 2819 e83d 54ed b13d 73d3 8ebd 5bcd f93d
00000020: 8547 513c b1fb 0e3e a75a 083e c0ed 48bd
00000030: 1b2d e4bc 72f5 cd3d bbec 923c 94b5 f83d
00000040: c4b0 fc3d c2be afbd 65a7 103d 73da 9f3d
00000050: b2d0 c53d 4199 373c 67f4 953d e303 193e
00000060: aed5 ee3d 94b6 e23d 2ba1 49bd c4f2 97bd
00000070: 5f6b 86bd 3994 e73d aea0 e1bc 4656 92bd
00000080: 04b6 1ebb 83f8 9e3d 9372 f23d f393 a7bd
00000090: 1fc4 073e f371 cf3d e127 ca3a 5d7f 9c3d
000000a0: 8eb7 6f3b be7b 2bbc ad53 71bc d355 92bd
000000b0: 0cde ccba c7e2 dcbc 137f 91bd d5a6 51bd
000000c0: a023 b0bc d558 df3d 02ce f83d 8f54 f33c
000000d0: b32f 153d c7db 103e 9965 f6bc d9b4 a03d
000000e0: 0785 0a3e 20d3 c83d 6803 e4bd 7177 a8bd
000000f0: a8e0 10bd 10a8 c83d a397 6cbd 42ab 97bd
00000100: 025f 42bd 5e9e 19bd 24ae 483d 52c4 85bd
00000110: e185 35ba 9a68 54bc 85ad 4a3d ee4d 7a3d
00000120: 5f7b 01bc 76a0 1cbd 24d6 5bbd 1029 273d
00000130: 5cf0 433c 13f8 9b3c 740a eabc c833 603c
00000140: 19ee 213c 6e57 be3d 3124 9bbd 9037 bf3b
00000150: 6e26 9bbd 99c2 c23a 4bad 90bd 3142 1a3d
00000160: c3c8 293e 85bd 94bd 0bad db3d 7ca8 29bd
00000170: 5e68 c6bd 959e 253d 96ec 92bc 50a3 0bba
00000180: 2c95 89bd d105 9c3d 0641 9f3c 0a91 46bb
00000190: 7aa6 ea3d e9f9 8ebd 81ee 643d 382e 73bd
000001a0: 0516 abbd 79a9 2abd 545f f93d 5fb6 dc3d
000001b0: e6d6 553d abb2 163d 9952 2e3d 5897 6dbc
000001c0: 99da e53d e928 97bd 6fb6 543d fd15 0fbd
000001d0: b2e6 3f3d a010 6d3d 2fee 843d f4bc d7bd
000001e0: bae7 9b3d cb81 61bc e6a0 eb3d dc7e 86bd
000001f0: ac15 a13d c95b f7bd faa7 ff3d c4db 763c

static_ll.2.weight f4 [64, 128]
0.03970224 -0.0712479 0.043931566 0.06818934 0.09080408 0.01331106 -0.0591301 -0.032238003
-0.08079349 -0.0013069961 -0.021666069 0.0036235368 -0.019926177 0.0047228592 0.046865277 0.087186076
0.05185623 -0.04314259 -0.024230903 -0.046038955 -0.03566353 0.07028354 0.057270125 0.027161255
-0.0042974493 0.049285002 -0.05635034 -0.0063182935 0.011778519 -0.0053501017 0.0011901786 -0.07328033
0.087592386 -0.039623693 -0.012221501 -0.06352224 0.13347733 0.0328222 0.012801586 0.001297882
-0.039979745 0.04324354 0.0043468676 0.088166036 0.043579202 -0.065248676 0.059631612 0.057283208
0.04185772 -0.009682371 -0.029286874 -0.07003903 0.0012384385 0.077563785 -0.033044886 0.08269436
0.033211432 -0.09790976 -0.04923646 0.06446908 0.09769202 0.08231552 0.015586118 -0.0053690164
0.006447213 -0.012996087 0.086850196 -0.038920462 -0.024697283 0.06350518 0.00433102 -0.0634408
0.037841126 0.024915373 0.008396 -0.016013192 -0.07060966 -0.027818536 0.04383887 -0.023503944
0.03412754 0.06094414 0.026706617 0.0045347726 -0.018045118 -0.0112931095 -0.07241627 0.0045305896
0.0035019387 -0.049318265 -0.06392165 -0.065745145 0.056806907 0.071718775 -0.046638537 -0.07187911
-0.0022042273 0.029665332 0.058731146 0.07188679 0.020542651 0.055001583 0.048995 0.08500919
0.049229648 -0.031864543 0.08176608 0.051776007 0.022286814 0.07449544 -0.023169233 -0.05557573
-0.0056973845 0.053855956 -0.025268525 0.08029398 0.09385305 0.026283205 -0.0009885544 -0.024422582
-0.032364864 0.045866325 0.087707385 -0.064752705 0.024288846 0.0018979807 0.10058493 0.036698382
0.04104615 -0.041825596 0.017037861 -0.014354797 0.04570438 -0.0740112 0.03981063 0.056282405
0.020785524 -0.024006454 0.049279336 0.1276226 0.020498443 0.03353091 -0.007723771 0.067317784
-0.020423569 -0.012704303 0.083918355 0.04850623 -0.067133226 0.090677716 0.060213692 -0.061650284
-0.0029649432 0.03529075 0.032077238 0.038377896 -0.07382444 0.092201315 0.0133554945 0.07146866
-0.024790026 0.008376427 0.030908952 0.049865574 0.072072856 0.0546562 0.020051463 0.066158816
0.044869527 -0.05119751 0.009461156 -0.0861679 0.05342525 0.054918867 0.067092404 0.07550347
-0.09603568 0.115881905 0.05604827 0.032645058 -0.051063906 0.057245526 0.028933425 -0.080859885
0.03826032 -0.13599908 -0.079850726 0.008751944 0.12047539 -0.01843961 0.025248805 -0.0009909258
0.015998041 -0.030230854 0.096035995 0.039112203 -0.09592445 -0.04283068 0.049244907 -0.08804297
-0.009985346 -0.009795392 0.025177183 -0.02236849 0.018119166 -0.005672494 -0.035518 0.075840235
-0.019246504 0.05584553 -0.099776976 0.010402193 -0.08726847 0.036154933 0.08182991 -0.0513868
0.02411594 0.10299869 -0.052056577 -0.070055485 0.059699684 0.07611933 -0.005389284 0.09699534
0.08440881 0.087381385 0.09834606 -0.009981372 0.04219195 -0.036756102 0.0031363503 0.0057020183
-0.045557063 0.032411348 0.039665714 0.045824267 -0.054837693 -0.0450855 0.0010396555 -0.0038614292
-0.039507963 -0.080729336 0.011396514 0.029309593 -0.06815344 0.08843805 0.07556671 -0.022067863
-0.062052324 -0.029021448 -0.0825787 -0.012490345 -0.024820587 -0.0021793076 -0.009628766 -0.03869055
00000000: d19e 223d 6bea 91bd 96f1 333d daa6 8b3d
00000010: 7df7 b93d a216 5a3c 6732 72bd ff0b 04bd
00000020: 0f77 a5bd 834f abba 0a7d b1bc dc78 6d3b
00000030: 393c a3bc 37c2 9a3b cef5 3f3d 9d8e b23d
00000040: 3367 543d 49b6 30bd e37f c6bc 5893 3cbd
00000050: ec13 12bd d1f0 8f3d 1494 6a3d 4881 de3c
00000060: 9ed1 8cbb 12df 493d 9dcf 66bd b009 cfbb
00000070: b0fa 403c e84f afbb c4ff 9b3a ff13 96bd
00000080: a363 b33d 744c 22bd b13c 48bc f317 82bd
00000090: 48ae 083e 9270 063d bebd 513c b11d aa3a
000000a0: cdc1 23bd 2320 313d 2b70 8e3b 6590 b43d
000000b0: 1b80 323d 19a1 85bd 4740 743d cca1 6a3d
000000c0: 0073 2b3d cfa2 1ebc 07eb efbc 9f70 8fbd
000000d0: 1a53 a23a c3d9 9e3d 135a 07bd a95b a93d
000000e0: b608 083d ea84 c8bd 2cac 49bd 5d08 843d
000000f0: c112 c83d 0a95 a83d eb5c 7f3c 93ee afbb
00000100: 2443 d33b 8aed 54bc 84de b13d 106b 1fbd
00000110: f551 cabc 010f 823d 3beb 8d3b 40ed 81bd
00000120: 4cff 1a3d 531b cc3c 608f 093c 192e 83bc
00000130: cc9b 90bd b3e3 e3bc 6390 333d 588b c0bc
00000140: 52c9 0b3d 90a0 793d d6c7 da3c 6e98 943b
00000150: 5bd3 93bc bc06 39bc fb4e 94bd 5775 943b
00000160: c880 653b f301 4abd 5be9 82bd 64a5 86bd
00000170: 5cae 683d 4be1 923d 0d08 3fbd 5b35 93bd
00000180: cc74 10bb b604 f33c 1290 703d 6239 933d
00000190: 1049 a83c 5749 613d fbae 483d 4c19 ae3d
000001a0: 07a5 493d 6584 02bd f974 a73d 1413 543d
000001b0: d692 b63c 1191 983d 67cd bdbc 60a3 63bd
000001c0: 20b1 babb 1098 5c3d f0ff cebc 2c71 a43d
000001d0: 0736 c03d e04f d73c 6292 81ba de11 c8bc
000001e0: 0591 04bd 54de 3b3d ee9f b33d 119d 84bd
000001f0: 67f9 c63c aac5 f83a 79ff cd3d 0b51 163d
00000200: 0220 283d 5151 2bbd fc92 8b3c 6230 6bbc
00000210: 8434 3b3d 2f93 97bd 7910 233d 6188 663d
00000220: 6746 aa3c 2fa9 c4bc 21d9 493d 80af 023e
00000230: 5aec a73c b557 093d b017 fdbb e8dd 893d
00000240: 544f a7bc b525 50bc 63dd ab3d 78ae 463d
00000250: 257d 89bd 3db5 b93d a2a2 763d 0285 7cbd
00000260: 7e4f 42bb 098d 103d 6c63 033d 2432 1d3d
00000270: 4531 97bd 0bd4 bc3d 01d1 5a3c 295e 923d
00000280: 7414 cbbc 483d 093c c534 fd3c d83f 4c3d
00000290: ef9a 933d 2edf 5f3d f742 a43c 467e 873d
000002a0: 1cc9 373d 7bb4 51bd f702 1b3c cc78 b0bd
000002b0: 6fd4 5a3d 9bf2 603d be67 893d 90a1 9a3d
000002c0: 5bae c4bd 7e53 ed3d df92 653d d3b6 053d
000002d0: 6328 51bd 497a 6a3d ca05 ed3c de99 a5bd
000002e0: dab6 1c3d 5843 0bbe c788 a3bd 5064 0f3c
000002f0: cdbb f63d aa0e 97bc 95d6 ce3c f4e1 81ba
00000300: 530e 833c b2a6 f7bc 85ae c43d 1e34 203d
00000310: 0a74 c4bd 396f 2fbd 07b5 493d df4f b4bd
00000320: 9499 23bc da7c 20bc 6140 ce3c 203e b7bc
00000330: a56e 943c 54e0 b9bb 537b 11bd 2052 9b3d
00000340: d8aa 9dbc 48be 643d df57 ccbd f66d 2a3c
00000350: d0b9 b2bd 3217 143d 7196 a73d f77a 52bd
00000360: cb8e c53c faf0 d23d 4739 55bd 4079 8fbd
00000370: a887 743d 74e4 9b3d 9798 b0bb 7ea5 c63d
00000380: 87de ac3d 03f5 b23d a969 c93d e988 23bc
00000390: 77d1 2c3d 918d 16bd 3a8b 4d3b ffd7 ba3b
000003a0: 0b9a 3abd c3c1 043d 8478 223d 3ab2 3b3d
000003b0: 7d9d 60bd 93ab 38bd 0d45 883a 0810 7dbb
000003c0: 1ad3 21bd 6c55 a5bd 72b8 3a3c ac1a f03c
000003d0: 0894 8bbd 021f b53d b8c2 9a3d aac7 b4bc
000003e0: 942a 7ebd 63be edbc 051f a9bd 4ea4 4cbc
000003f0: 8b54 cbbc b7d2 0ebb f9c1 1dbc fb79 1ebd

static_ll.2.bias f4 [64]
0.05979968 0.037925646 -0.02714786 -0.06091419 -0.037919976 0.035532832 0.02355139 -0.010198771
0.04462809 -0.064160205 0.08309942 -0.027162721 -0.007849936 0.01794528 0.07490428 0.09979632
-0.0841377 0.01955838 0.084798545 -0.06237134 -0.028158527 0.001786133 0.059278045 0.08875139
-0.013966325 0.090371504 0.060285788 -0.023391055 0.016315982 0.018482832 0.063830204 0.02409241
-0.04285396 -0.07336875 0.09254746 0.003523022 0.046365872 -0.048007745 -0.017806374 0.025961839
0.027792482 0.05949407 -0.009178885 0.019404434 -0.0065345876 0.076963305 -0.020243913 0.007060998
0.04779194 0.013510312 0.037947394 0.026490588 -0.03796294 0.060340766 0.07526644 0.05826601
-0.028393645 0.09204781 -0.033784546 0.09643908 0.07853398 0.026422538 -0.0454463 0.100085534
00000000: 82f0 743d ec57 1b3d 3065 debc 2881 79bd
00000010: fa51 1bbd e08a 113d d8ee c03c bf18 27bc
00000020: f2cb 363d 6d66 83bd 0730 aa3d 5b84 debc
00000030: 059d 00bc fb01 933c 6a67 993d 0362 cc3d
00000040: 6350 acbd e538 a03c dcaa ad3d 1779 7fbd
00000050: b6ac e6bc ae1c ea3a 89cd 723d 4ac3 b53d
00000060: 03d3 64bc b214 b93d 3bee 763d 999e bfbc
00000070: 18a9 853c 4f69 973c 69b9 823d 725d c53c
00000080: a287 2fbd 5b42 96bd 8689 bd3d 80e2 663b
00000090: 24ea 3d3d c5a3 44bd acde 91bc ecad d43c
000000a0: 0fad e33c 0eb0 733d 0963 16bc 0cf6 9e3c
000000b0: 1820 d6bb f09e 9d3d 90d6 a5bc f25f e73b
000000c0: 7bc1 433d 5b5a 5d3c ba6e 1b3d ca02 d93c
000000d0: 077f 1bbd e127 773d 4b25 9a3d 57a8 6e3d
000000e0: ca99 e8bc 9083 bc3d aa61 0abd da81 c53d
000000f0: 6cd6 a03d 1474 d83c e625 3abd a5f9 cc3d

glu_encoder.rnn.weight_ih_l0 f4 [48, 2]
0.17756863 -0.15361257 0.16917855 -0.16891927 0.19323835 0.11259694 -0.083785065 -0.16339615
-0.16504456 0.22877212 0.24387744 0.18567604 -0.17418374 -0.01295104 0.32268634 -0.30442885
-0.13713573 -0.24382839 0.25887188 -0.17280094 0.11649219 0.05460865 0.1010111 0.24978547
0.2554679 -0.10856128 0.06297925 0.010920498 0.03576105 -0.05459614 -0.22029683 -0.07328412
0.22812638 -0.115946315 0.04740427 0.2037032 -0.101384014 -0.2608276 -0.004593888 0.2068207
-0.06765546 0.111912616 -0.16498101 -0.024084961 -0.07735667 0.08639566 0.23104547 0.19350801
0.03737569 -0.07382113 -0.3983751 0.29543284 -0.2966811 0.0013412959 0.0299158 -0.07487253
0.21717882 -0.05222085 0.08027645 -0.06458426 0.24041507 -0.01727944 -0.06437606 -0.15825339
0.14123513 -0.11048291 -0.12875903 0.12060883 0.10734981 0.11616887 0.24734372 -0.07135944
-0.096438035 -0.2316632 0.26380414 -0.18881315 0.15362945 0.046037827 0.13024493 -0.056152306
0.13237995 -0.072802685 0.2359237 0.19697477 0.11993143 0.28033105 -0.060495377 -0.11202287
-0.15131079 -0.08496427 -0.25535423 0.21639974 0.27686688 -0.07376168 0.059868783 0.25170636
00000000: 8dd4 353e 9d4c 1dbe 243d 2d3e 2cf9 2cbe
00000010: 46e0 453e 3999 e63d 8197 abbd 5251 27be
00000020: 7101 29be 3d43 6a3e 02bb 793e dc21 3e3e
00000030: 395d 32be 9930 54bc 2537 a53e 19de 9bbe
00000040: 4f6d 0cbe 26ae 79be db8a 843e bbf2 30be
00000050: 7593 ee3d 52ad 5f3d e8de ce3d c3c7 7f3e
00000060: b0cc 823e 6055 debd 44fb 803d e3eb 323c
00000070: 2e7a 123d 34a0 5fbd 7e95 61be fc15 96bd
00000080: f699 693e 4375 edbd fb2a 423d 9297 503e
00000090: 6ca2 cfbd 328b 85be 5388 96bb cec8 533e
000000a0: f28e 8abd 7132 e53d c8f0 28be d34d c5bc
000000b0: 2c6d 9ebd 35f0 b03d 2f97 6c3e f726 463e
000000c0: 4017 193d 882f 97bd d2f7 cbbe f942 973e
000000d0: 96e6 97be 6cce af3a fb11 f53c c556 99bd
000000e0: 2064 5e3e 88e5 55bd fb67 a43d c144 84bd
000000f0: 5e2f 763e 9d8d 8dbc 99d7 83bd 2d0d 22be
00000100: f19f 103e dd44 e2bd 68d9 03be c301 f73d
00000110: 38da db3d f2e9 ed3d ac47 7d3e e624 92bd
00000120: 4e81 c5bd 1e39 6dbe 5611 873e 3c58 41be
00000130: 0a51 1d3e 2992 3c3d ed5e 053e f6ff 65bd
00000140: 9c8e 073e 9319 95bd fb95 713e c1b3 493e
00000150: 9c9e f53d 8d87 8f3e 00ca 77bd 3f6c e5bd
00000160: 37f1 1abe bf01 aebd cabd 82be e597 5d3e
00000170: 7fc1 8d3e 5d10 97bd f838 753d a8df 803e

glu_encoder.rnn.weight_hh_l0 f4 [48, 16]
-0.18405207 -0.21898183 -0.10489697 0.12736376 0.11206865 -0.082118616 -0.27377382 0.19054605
0.04929149 0.18891406 -0.19595401 -0.15103345 -0.037232816 -0.123931 0.12513204 -0.093889445
0.14230472 -0.12733613 0.18253744 -0.20811343 -0.1718465 0.25639072 0.05308652 0.08031722
-0.20292653 0.27932405 -0.021366062 0.06754741 0.092009686 -0.158943 -0.18477932 0.112652056
0.15610921 -0.15387177 -0.11915772 -0.21201691 0.028389245 0.05682281 -0.17159684 0.15547132
0.13427155 -0.07716571 -0.06661769 0.15582179 -0.09536721 0.15726823 -0.19963768 0.17101799
0.16661964 -0.20389417 0.15428628 0.2360606 -0.007902291 0.16825236 0.20598638 0.13750608
-0.1708015 -0.06603345 -0.13787448 -0.16770385 0.124940656 0.01772765 0.026063886 0.010263074
-0.07571185 -0.006779544 0.05277341 -0.040078875 0.03141036 -0.082664385 0.3002306 0.13427427
0.026777431 0.12768209 0.049629334 -0.30106556 -0.29244485 0.09859838 0.036307923 -0.10845422
0.07380891 0.20442297 -0.01746916 0.023386616 0.029258119 -0.051857352 -0.060080964 0.18673883
0.040389944 0.21155448 -0.18870744 -0.053068664 -0.16726138 -0.2288536 -0.0674319 -0.062551275
-0.051400784 0.15625007 0.15027551 0.24683136 0.040657464 0.24778995 -0.06089298 0.051709972
0.21916085 0.04201052 -0.16755056 0.18130408 0.1394485 -0.19066063 0.117358334 -0.20004117
0.12032892 -0.18383345 -0.019578526 0.10347681 -0.23448823 0.17089571 -0.0702594 -0.028971309
-0.13488388 0.16339813 0.080841765 -0.24109736 -0.30245572 -0.28967932 0.24569534 -0.05756569
0.007688949 0.2188985 0.24077243 -0.18322732 -0.16903491 0.11613836 -0.036302134 -0.246121
-0.022195518 0.08003997 -0.08778403 0.18600376 -0.20102502 -0.09357695 0.20698512 -0.04852452
0.2901306 -0.095436916 0.18362543 -0.17396116 -0.20809902 -0.16902678 0.07021103 0.075152695
-0.12798423 -0.11927826 0.011530664 -0.093656346 -0.009980562 0.019768331 0.081515886 0.123642914
0.22032505 -0.086094335 -0.24698198 0.04915949 0.21737053 0.09962798 0.054045405 0.1524211
0.020084804 -0.075098716 -0.115604006 0.16102405 -0.033253733 0.03723678 0.13095134 -0.0028592173
-0.15019655 0.10963231 0.045175154 0.1387121 0.07389654 -0.035461012 -0.041028697 -0.12473259
-0.07504767 -0.15341403 -0.08856916 0.04681072 0.24910715 -0.1595838 -0.060402293 0.22621974
0.21023521 0.07917558 -0.13138863 0.2132881 -0.2858478 -0.039937586 0.14568943 0.1687192
0.23574957 -0.07471292 -0.14833328 -0.16504702 0.011877032 -0.09861921 0.06450312 0.07516379
0.06363343 0.1264711 0.10427332 0.17791972 -0.107101485 -0.14670156 -0.058284026 0.013620642
0.16383852 0.042160902 0.101018265 -0.09962014 0.033702105 0.061948907 -0.1490839 -0.15280469
0.27549082 0.17194852 -0.20624681 -0.04565171 0.016292728 0.16839996 -0.1146249 -0.09197524
-0.12764493 0.15776569 -0.14092281 0.034667786 0.16271397 0.0018084176 0.28158578 -0.1731021
-0.042510122 0.08340564 0.037724167 0.12218936 0.29107925 -0.28067085 -0.036276426 0.13260946
0.019023981 -0.21955913 -0.14890453 -0.049870912 -0.027653268 -0.06350095 -0.048336215 -0.010620604
00000000: 2578 3cbe c63c 60be 39d4 d6bd a56b 023e
00000010: 4084 e53d ce2d a8bd 152c 8cbe 811e 433e
00000020: e0e5 493d b072 413e 2ba8 48be 83a8 1abe
00000030: 7081 18bd 89cf fdbd 9d22 003e 1c49 c0bd
00000040: 54b8 113e 6764 02be 18eb 3a3e b01b 55be
00000050: 87f8 2fbe a545 833e 4071 593d 5b7d a43d
00000060: f9cb 4fbe 9003 8f3e e107 afbc 4c56 8a3d
00000070: 936f bc3d f4c1 22be ca36 3dbe 1fb6 e63d
00000080: 18db 1f3e 9090 1dbe f608 f4bd f61a 59be
00000090: 9090 e83c 09bf 683d 15b7 2fbe e033 1f3e
000000a0: 7b7e 093e 0e09 9ebd db6e 88bd bf8f 1f3e
000000b0: e24f c3bd ec0a 213e d26d 4cbe 571f 2f3e
000000c0: 579e 2a3e a2c9 50be 39fd 1d3e dfb9 713e
000000d0: 9c78 01bc 594a 2c3e 18ee 523e 65ce 0c3e
000000e0: 97e6 2ebe 8c3c 87bd f82e 0dbe 8fba 2bbe
000000f0: e3e0 ff3d 9439 913c ee83 d53c 7426 283c
00000100: d00e 9bbd f026 debb ee28 583d bf29 24bd
00000110: 26a8 003d f24b a9bd d3b7 993e 327f 093e
00000120: 585c db3c 18bf 023e 2148 4b3d 4425 9abe
00000130: 55bb 95be f3ed c93d 9eb7 143d 3f1d debd
00000140: 2029 973d 4154 513e 7c1b 8fbc 4a95 bf3c
00000150: b9ae ef3c 6068 54bd 7517 76bd 7738 3f3e
00000160: ed6f 253d bda1 583e 863c 41be 875e 59bd
00000170: 9146 2bbe 9958 6abe bc19 8abd e21a 80bd
00000180: a189 52bd 0500 203e d3e1 193e 5cc1 7c3e
00000190: 7188 263d a6bc 7d3e eb6a 79bd d6cd 533d
000001a0: b46b 603e 3913 2c3d 6092 2bbe c7a7 393e
000001b0: 96cb 0e3e 8a3c 43be 9159 f03d 98d7 4cbe
000001c0: 026f f63d d63e 3cbe 2563 a0bc a6eb d33d
000001d0: af1d 70be 49ff 2e3e 29e4 8fbd 3d55 edbc
000001e0: 001f 0abe d751 273e 5e90 a53d 3ae2 76be
000001f0: 7adb 9abe d950 94be 8f97 7b3e 00ca 6bbd
00000200: 94f3 fb3b ee26 603e 0c8d 763e f19f 3bbe
00000210: 7d17 2dbe f3d9 ed3d 8cb1 14bd 2507 7cbe
00000220: 60d3 b5bc ffeb a33d 1dc8 b3bd c577 3e3e
00000230: 81d9 4dbe 46a5 bfbd e8f3 533e a6c1 46bd
00000240: ff8b 943e 6e74 c3bd 4e08 3c3e e022 32be
00000250: e917 55be 5b15 2dbe cdca 8f3d a8e9 993d
00000260: 4c0e 03be 2948 f4bd 1ceb 3c3c e6ce bfbd
00000270: 8385 23bc 32f1 a13c cdf1 a63d 7f38 fd3d
00000280: e49c 613e 3a52 b0bd d8e8 7cbe 765b 493d
00000290: 6196 5e3e c109 cc3d b75e 5d3d 4714 1c3e
000002a0: e388 a43c 5bcd 99bd cbc1 ecbd 7de3 243e
000002b0: 1135 08bd 9885 183d 1c18 063e b561 3bbb
000002c0: 20cd 19be e886 e03d 9509 393d 8b0a 0e3e
000002d0: 1257 973d 913f 11bd b50d 28bd cd73 ffbd
000002e0: 98b2 99bd 9118 1dbe bf63 b5bd 99bc 3f3d
000002f0: f215 7f3e f069 23be 6568 77bd 26a6 673e
00000300: e647 573e ce26 a23d be8a 06be 3268 5a3e
00000310: a55a 92be 9895 23bd 9c2f 153e bac4 2c3e
00000320: 5668 713e 1603 99bd aee4 17be 1602 29be
00000330: e297 423c def8 c9bd 361a 843d 79ef 993d
00000340: 3e52 823d a481 013e 408d d53d 9630 363e
00000350: 0658 dbbd ef38 16be 3bbb 6ebd 1d29 5f3c
00000360: 49c5 273e e9b0 2c3d aae2 ce3d a505 ccbd
00000370: 380b 0a3d 23be 7d3d 73a9 18be d578 1cbe
00000380: 220d 8d3e 4613 303e 5d32 53be 4afd 3abd
00000390: 5478 853c 0a71 2c3e 76c0 eabd 845d bcbd
000003a0: 5ab5 02be 548d 213e 124e 10be cfff 0d3d
000003b0: 7e9e 263e 6d08 ed3a 032c 903e ad41 31be
000003c0: 181f 2ebd 94d0 aa3d a884 1a3d 6a3e fa3d
000003d0: 5708 953e 17b4 8fbe 9796 14bd c6ca 073e
000003e0: 2ed8 9b3c 1cd4 60be 6e7a 18be 7145 4cbd
000003f0: 1b89 e2bc c90c 82bd 32fc 45bd 0b02 2ebc

glu_encoder.rnn.bias_ih_l0 f4 [48]
0.17586342 -0.15689252 -0.032432985 0.035210382 -0.18885614 -0.109170295 0.05679358 -0.08020039
0.03577963 0.110992365 -0.016329968 -0.119490236 -0.04843296 0.07878106 -0.07504311 -0.13178836
0.24063122 -0.17813838 0.27013287 -0.21456079 0.26533335 -0.262238 0.2624592 -0.094620064
0.03342452 0.08910805 0.050274722 0.22211464 0.010578645 0.022720389 0.1125235 0.068546265
0.25001186 0.21025495 -0.17803332 -0.18283072 -0.14202535 -0.14028558 -0.22051293 -0.13636844
-0.079178765 0.21014726 -0.0039287484 -0.12448545 0.028152 -0.26201785 -0.040578313 -0.110455945
00000000: 8a15 343e 6fa8 20be 73d8 04bd c338 103d
00000010: 8163 41be ad94 dfbd 63a0 683d 1a40 a4bd
00000020: a98d 123d f74f e33d 6dc6 85bc 4cb7 f4bd
00000030: a461 46bd f757 a13d 34b0 99bd 87f3 06be
00000040: 0868 763e e869 36be db4e 8a3e d3b5 5bbe
00000050: c6d9 873e 0f44 86be 0d61 863e 2ac8 c1bd
00000060: 26e8 083d 487e b63d deec 4d3d 0572 633e
00000070: 0e52 2d3c 1c20 ba3c b972 e63d fc61 8c3d
00000080: 8e01 803e 134d 573e 5e4e 36be fa37 3bbe
00000090: 186f 11be 06a7 0fbe 24ce 61be 2ba4 0bbe
000000a0: 7a28 a2bd d830 573e bbbc 80bb 3af2 febd
000000b0: 069f e63c 3427 86be 7235 26bd ba36 e2bd

glu_encoder.rnn.bias_hh_l0 f4 [48]
-0.048629627 0.28738397 0.21407804 -0.05791553 -0.14825964 -0.05013235 -0.17701605 -0.14068107
-0.10166683 -0.09052768 0.012958858 -0.0484742 0.26717636 -0.19232118 0.07064188 0.096533544
-0.05001459 0.21344066 0.3397739 0.20244662 -0.14116816 -0.18285407 0.19598141 0.10897568
0.1280963 -0.34608924 0.14215931 0.21835297 0.17440565 0.26586798 0.09673707 0.34843972
0.10925441 0.015021359 0.12384271 0.1180716 -0.22653563 -0.10327169 -0.24675831 0.16710617
0.14523654 -0.10230631 -0.10730433 -0.1794096 -0.30641398 -0.2396499 0.08078482 -0.19646953
00000000: dc2f 47bd fe23 933e 4637 5b3e d638 6dbd
00000010: 60d1 17be 9457 4dbd b243 35be b30e 10be
00000020: b336 d0bd 9466 b9bd 6451 543c e28c 46bd
00000030: 57cb 883e d8ef 44be b1ac 903d 61b3 c53d
00000040: 19dc 4cbd 3090 5a3e d8f6 ad3e 2b4e 4f3e
00000050: 638e 10be 193e 3bbe 5aaf 483e a42e df3d
00000060: ad2b 033e 9c32 b1be 3692 113e ec97 5f3e
00000070: 6597 323e d91f 883e 161e c63d b166 b23e
00000080: c7c0 df3d 251c 763c 3fa1 fd3d 86cf f13d
00000090: f5f8 67be 1c80 d3bd 36ae 7cbe e11d 2b3e
000000a0: e3b8 143e f885 d1bd 5fc2 dbbd 26b7 37be
000000b0: 4be2 9cbe c966 75be 8372 a53d 4f2f 49be

glu_encoder.hid2lat.weight f4 [64, 16]
-0.23582917 -0.18400115 -0.07894092 0.16588037 0.026292818 0.15947095 -0.13557032 0.062030245
-0.035861485 -0.2322988 -0.1302833 -0.08080732 0.19179475 -0.18331625 -0.16230145 -0.12767352
0.13093762 0.15338622 -0.2300865 0.09612857 0.24037288 -0.0058271037 0.046166833 -0.09032748
0.1562701 -0.03967701 -0.17564982 -0.07474556 0.1433894 0.104489625 -0.20336196 -0.088500485
-0.10779461 -0.014349677 -0.028572634 0.25447434 -0.018835744 0.086626306 0.23947978 0.22063133
-0.033841304 0.2467409 -0.19679318 0.018901784 0.082904175 -0.10801284 0.12318282 -0.19305228
0.15848534 -0.10045146 0.22431351 0.061724745 -0.101087816 0.16590817 -0.015620102 0.25370407
-0.18615873 -0.10209303 -0.25493565 0.045044463 0.018579079 -0.083319694 0.026608335 -0.10810395
0.22629821 0.11816012 -0.20639043 0.022400811 0.18855654 0.206759 0.20330688 -0.031021148
0.1213377 -0.09446789 0.19358814 -0.29397944 -0.22212777 -0.1241131 -0.09396488 0.23182969
-0.12685688 -0.17738509 0.28062418 0.24688606 0.038200777 0.21766737 0.19290547 -0.23165323
-0.06856981 0.14443436 -0.11112642 0.15386048 -0.012564949 -0.09023934 -0.1396301 0.111322746
0.038748957 -0.15468258 0.0793952 0.20074059 0.05765605 -0.17462124 0.14639921 0.20181607
-0.09786023 0.14268711 0.06573103 0.091902144 -0.09360707 -0.032120842 -0.14758213 -0.038058065
-0.1196536 0.103251114 0.18194292 -0.08863201 -0.031122096 -0.15738007 -0.10277512 0.03609317
-0.10859829 -0.117947094 -0.2664042 0.13827951 0.20085163 0.14502327 0.12355932 0.20707506
0.048413567 -0.091420904 -0.15104388 0.22440307 0.16212213 -0.19378518 -0.1807959 -0.18920702
-0.04557412 0.14918834 0.1812512 -0.22358519 0.02324827 0.21131216 -0.15137418 0.07620592
0.042026836 -0.23337014 0.10152034 0.04476753 0.04240406 0.17943065 -0.114564285 0.097992174
-0.14997248 -0.11735182 -0.041691255 0.08317349 -0.09498232 0.07722228 0.095219165 0.18040088
0.13651755 -0.21823299 0.10703307 0.28301668 0.14523537 0.16478735 0.09636327 -0.017096898
0.16230975 -0.013280973 -0.12674561 -0.15348707 -0.16108698 -0.025746955 0.23033512 -0.04187812
-0.13410434 -0.13526383 -0.19401233 -0.004260688 0.12147462 -0.053078696 0.02801364 -0.12772122
-0.244655 0.21054251 0.12888086 0.060861688 -0.24874452 0.050708726 -0.24644144 -0.19008417
0.05620795 -0.10848401 0.15879261 0.19475985 -0.15236369 -0.04426216 -0.051836204 0.16192394
0.27189767 0.21598658 0.060489845 0.16625416 0.1492263 -0.23499143 0.13194217 -0.123642236
-0.0658591 0.045705087 -0.07558461 -0.19164753 -0.22833739 -0.16210459 -0.25018296 0.17717211
0.2404069 -0.15869346 0.16112328 0.13449542 -0.10247397 -0.013911442 -0.19289607 0.22599828
0.16549653 -0.08046188 0.11211176 0.00573659 0.010168274 0.1351184 0.056224152 -0.28520432
-0.26731542 -0.029874044 -0.2661171 0.04426231 0.027429104 0.030950278 -0.2644126 0.16166265
-0.20649892 0.08808492 -0.010299062 -0.1824439 0.049033705 0.21171243 -0.025693277 0.09428847
-0.12007632 -0.01430529 0.11594322 -0.17488548 -0.017006105 0.010902004 -0.016433321 -0.06114783
00000000: 347d 71be cc6a 3cbe c7ab a1bd 8bdc 293e
00000010: 0964 d73c 5a4c 233e f2d2 0abe 6d13 7e3d
00000020: 7ee3 12bd bddf 6dbe fc68 05be 4f7e a5bd
00000030: d865 443e 41b7 3bbe 5a32 26be d9bc 02be
00000040: 8314 063e 4711 1d3e cc9b 6bbe 0edf c43d
00000050: 4f24 763e 4af1 bebb 6f19 3d3d 9dfd b8bd
00000060: 4505 203e 5c84 22bd 8cdd 33be 3314 99bd
00000070: acd4 123e a8fe d53d 1e3e 50be be3f b5bd
00000080: 6cc3 dcbd e81a 6bbc 2811 eabc 764a 823e
00000090: 6b4d 9abc 2269 b13d 303a 753e 2eed 613e
000000a0: 2e9d 0abd a6a9 7c3e 2784 49be ead7 9a3c
000000b0: aac9 a93d d635 ddbd 4647 fc3d 7faf 45be
000000c0: fb49 223e 7fb9 cdbd 71b2 653e 16d3 7c3d
000000d0: 2107 cfbd d5e3 293e 75eb 7fbc 80e5 813e
000000e0: 65a0 3ebe 2716 d1bd ed86 82be 8b80 383d
000000f0: 2733 983c 84a3 aabd b9f9 d93c 9b65 ddbd
00000100: b8ba 673e effd f13d 0358 53be e881 b73c
00000110: f714 413e a2b8 533e ae2f 503e 1020 febc
00000120: e67f f83d 6278 c1bd f83b 463e 7984 96be
00000130: 7675 63be 022f febd a970 c0bd c364 6d3e
00000140: c5e6 01be 70a4 35be f9ad 8f3e b3cf 7c3e
00000150: 6b78 1c3d 32e4 5e3e 0389 453e 8136 6dbe
00000160: 546e 8cbd 9ae6 133e 4096 e3bd 9a8d 1d3e
00000170: 37dd 4dbc 67cf b8bd 31fb 0ebe 2efd e33d
00000180: 3ab7 1e3d 1c65 1ebe f399 a23d f18e 4d3e
00000190: c028 6c3d e9cf 32be ade9 153e dfa8 4e3e
000001a0: f26a c8bd 921c 123e fe9d 863d 3137 bc3d
000001b0: 10b5 bfbd 2591 03bd c51f 17be c6e2 1bbd
000001c0: f20c f5bd 5275 d33d 3f4f 3a3e b384 b5bd
000001d0: c4f3 febc 3e28 21be c37b d2bd 6fd6 133d
000001e0: c868 debd 3f8e f1bd 2266 88be 2599 0d3e
000001f0: 0dac 4d3e fb80 143e ab0c fd3d 7c0b 543e
00000200: 4e4d 463d e23a bbbd 3fab 1abe ebc9 653e
00000210: 5803 263e 9f6f 46be 8f22 39be 7cbf 41be
00000220: eeab 3abd d4c4 183e ea99 393e 84f3 64be
00000230: 2873 be3c 3762 583e d501 1bbe d911 9c3d
00000240: 5524 2c3d 95f8 6ebe e5e9 cf3d 285e 373d
00000250: e1af 2d3d abbc 373e aea0 eabd 1fb0 c83d
00000260: 6392 19be 2756 f0bd 73c4 2abd dd56 aa3d
00000270: 1786 c2bd b726 9e3d 4402 c33d 02bb 383e
00000280: 42cb 0b3e 7878 5fbe 2734 db3d 90e7 903e
00000290: 95b8 143e 04be 283e 1b5a c53d cb0e 8cbc
000002a0: 8734 263e 7098 59bc 9ac9 01be b72b 1dbe
000002b0: fcf3 24be 47eb d2bc f8dc 6b3e 6488 2bbd
000002c0: a652 09be 9a82 0abe 2bab 46be 3e9d 8bbb
000002d0: b0c7 f83d 0c69 59bd dc7c e53c 5ac9 02be
000002e0: d786 7abe 7598 573e 58f9 033e 1b4a 793d
000002f0: e2b6 7ebe f4b3 4f3d 255b 7cbe 6da5 42be
00000300: 4f3a 663d dd2c debd 889a 223e 206f 473e
00000310: 3a05 1cbe 3d4c 35bd 3352 54bd 64cf 253e
00000320: 2c36 8b3e 962b 5d3e 33c4 773d 883e 2a3e
00000330: c7ce 183e 98a1 70be d91b 073e 2438 fdbd
00000340: 23e1 86bd 4235 3b3d 1bcc 9abd 403f 44be
00000350: 47d1 69be bffe 25be fb17 80be 9b6c 353e
00000360: 3a2d 763e 8a80 22be 80fd 243e 2bb9 093e
00000370: dfdd d1bd d1ec 63bc 8c86 45be 186c 673e
00000380: ec77 293e 33c9 a4bd da9a e53d 01fa bb3b
00000390: d598 263c 7a5c 0a3e 4c4b 663d 4d06 92be
000003a0: 91dd 88be 69ba f4bc 8040 88be 654c 353d
000003b0: 00b3 e03c 708b fd3c 1761 87be e58a 253e
000003c0: 7474 53be de65 b43d 66bd 28bc 93d2 3abe
000003d0: 91d7 483d 25cb 583e b57a d2bc 501a c13d
000003e0: 93ea f5bd bc60 6abc a473 ed3d 2e15 33be
000003f0: 6350 8bbc 529e 323c 2c9f 86bc 2676 7abd

glu_encoder.hid2lat.bias f4 [64]
0.026363272 -0.06974848 -0.19158114 0.017992662 0.049804978 0.04232911 0.19486132 -0.090149306
0.017742258 0.1308124 0.24794285 0.10823605 0.01632363 -0.0015733949 -0.011918737 -0.19682063
-0.04447173 0.06270869 0.001590714 0.21995252 -0.07928317 0.19248973 0.112096846 0.07494607
0.15785955 0.0786698 0.066047385 0.02498736 -0.15713799 0.2212743 -0.15388629 -0.04118799
-0.23859687 -0.26392725 0.18590902 -0.11378998 0.23934455 -0.04983957 -0.21627025 -0.116746664
-0.03912031 0.007421591 0.14077432 0.017919978 0.272326 0.13084827 0.108712904 0.20649865
-0.16561867 0.0055816313 0.20102832 0.21649495 0.017544782 -0.099177934 0.048428994 -0.05488445
-0.2612502 -0.19123097 -0.24566586 -0.055139963 -0.21324795 -0.027618673 0.03395834 0.19393308
00000000: caf7 d73c 4bd8 8ebd d92d 44be 5965 933c
00000010: 4e00 4c3d 4a61 2d3d ba89 473e 33a0 b8bd
00000020: 3658 913c b0f3 053e bbe4 7d3e ddaa dd3d
00000030: 22b9 853c 5f3a ceba ce46 43bc 598b 49be
00000040: fd27 36bd 6a6d 803d 817f d03a 3c3b 613e
00000050: 375f a2bd 071c 453e 0893 e53d 537d 993d
00000060: efa5 213e a21d a13d da43 873d 4bb2 cc3c
00000070: c8e8 20be bb95 623e 5e94 1dbe bdb4 28bd
00000080: bd52 74be 7921 87be ef5e 3e3e b90a e9bd
00000090: bd16 753e 9424 4cbd f375 5dbe e018 efbd
000000a0: 9e3c 20bd d130 f33b 2527 103e ebcc 923c
000000b0: 506e 8b3e 17fd 053e dfa4 de3d 6274 533e
000000c0: f197 29be 1ee6 b63b 5eda 4d3e dab0 5d3e
000000d0: 13ba 8f3c cd1d cbbd 7b5d 463d 84ce 60bd
000000e0: 96c2 85be 0dd2 43be d58f 7bbe 71da 61bd
000000f0: ac5d 5abe 8e40 e2bc e617 0b3d 6596 463e

encoders.weight_ih_l0 f4 [192, 64]
-0.082487054 -0.13158797 -0.065061964 0.17243817 0.042683788 0.060486693 0.09414997 0.02104411
0.056249604 -0.0369409 0.14906551 -0.13578387 -0.06739037 -0.03926272 -0.10917081 0.05054254
0.05265154 0.054871596 -0.073438436 0.10857678 0.14979315 -0.041334335 0.048723683 0.03372228
0.045960713 0.16375744 -0.12713726 -0.1069683 -0.14586496 -0.059813354 0.091550045 -0.09482681
-0.041595586 0.044203475 0.022074817 -0.056405444 -0.16201884 -0.07498646 -0.11984443 0.14704697
-0.014267115 -0.01698717 0.041179564 0.1699955 -0.03850558 0.07398397 -0.064351045 -0.050830718
-0.16049522 -0.11064744 -0.09558478 -0.08311758 0.10061553 0.104463965 0.07120299 -0.16554995
-0.081027314 -0.020796886 -0.152972 -0.17820962 -0.07358166 0.07168907 -0.039690554 0.15142421
-0.03537513 0.047435064 -0.0958016 -0.09405982 -0.096808836 0.061080787 0.05918517 0.040783793
-0.0021753386 -0.10932112 0.00734549 -0.0047198697 0.014071392 -0.041882016 -0.035775207 -0.023131391
0.014485917 -0.12649356 -0.13580494 0.029178094 0.08250123 0.09315874 0.066475615 -0.091174036
0.090321995 0.05768346 0.0873232 -0.022745417 0.14727238 0.059022866 0.043227628 -0.18842681
-0.099379815 -0.045353122 0.08438818 0.04997365 0.09328683 0.13066995 -0.004135167 -0.09934009
0.070905186 -0.016832333 -0.005566188 -0.012029281 0.11229302 -0.124533795 0.094247855 -0.04617849
-0.10856764 0.064925976 -0.014184078 0.12840879 0.0719863 -0.1164407 -0.097863086 -0.14038485
-0.084753565 0.041978985 -0.07886092 -0.04498119 0.12634489 -0.044659488 -0.016235188 -0.023532717
-0.072299615 -0.06730857 -0.033244044 -0.028992796 -0.017027313 0.010249016 -0.045283407 -0.03183593
-0.14680375 -0.023763057 -0.03921873 -0.040325798 0.14200464 -0.02891215 -0.0033957725 -0.07203348
0.06771587 0.12437476 0.11242974 -0.036365774 0.0075306417 -0.056627322 0.15375888 -0.044720158
0.03510116 0.11170088 -0.035493206 -0.07505773 0.03888508 0.038658395 0.046719424 0.0015720922
-0.16479503 -0.11079118 0.1501518 0.059500612 -0.08094518 0.04599746 -0.13424373 0.070678085
-0.04047394 -0.047533438 -0.04300871 -0.0070981523 0.13489914 0.093044825 0.011093383 -0.05481373
-0.0365511 -0.059342507 -0.051395714 0.009279459 -0.03984897 -0.06281482 -0.016137218 -0.014347398
-0.01894706 -0.05413355 -0.15498182 -0.1443234 -0.063086614 -0.05763043 -0.13644993 0.08987164
-0.0021151921 0.07070548 0.14640674 0.023192286 0.12655705 -0.09747622 0.14170496 -0.11779657
-0.080885425 0.0029464904 0.08293546 -0.10898482 0.13974626 0.02744349 -0.0764448 0.050248425
0.006288438 0.047542363 -0.015319403 -0.073606 0.12891845 0.051052533 -0.098331645 -0.0647302
0.06928352 0.048859317 0.013019328 -0.1438103 0.001626398 -0.06105191 0.05612984 -0.17031121
-0.04883567 0.099051766 -0.009457169 -0.023003126 -0.04588716 -0.032416318 0.08251835 -0.051126733
-0.06429768 0.06634139 0.07014502 0.034988463 0.13045418 0.048337888 -0.012175724 0.044653125
0.07920411 0.05020611 -0.08777405 -0.059571415 0.0019117626 0.090792194 -0.064734675 0.0072591845
0.033535782 -0.053643573 0.04305855 -0.006072408 -0.10895649 0.0976101 -0.13596919 0.16382016
00000000: f9ee a8bd ffbe 06be 353f 85bd a293 303e
00000010: 32d5 2e3d e5c0 773d b3d1 c03d b364 ac3c
00000020: fc65 663d 574f 17bd a1a4 183e ed0a 0bbe
00000030: f603 8abd f2d1 20bd f294 dfbd b205 4f3d
00000040: 24a9 573d 0ac1 603d e466 96bd 815d de3d
00000050: 6063 193e 314e 29bd 7c92 473d 6020 0a3d
00000060: 4d41 3c3d 08b0 273e 4530 02be 3212 dbbd
00000070: a05d 15be d9fe 74bd 977e bb3d 8f34 c2bd
00000080: 2260 2abd b40e 353d 3fd6 b43c 6509 67bd
00000090: 44e8 25be 8092 99bd ff70 f5bd 7b93 163e
000000a0: 9ec0 69bc ad28 8bbc e7ab 283d 4d13 2e3e
000000b0: 07b8 1dbd e884 973d 7bca 83bd df33 50bd
000000c0: dc58 24be 209b e2bd f4c1 c3bd 8d39 aabd
000000d0: 840f ce3d 34f1 d53d e0d2 913d ed85 29be
000000e0: a6f1 a5bd 3b5e aabc b1a4 1cbe 957c 36be
000000f0: fbb1 96bd b8d1 923d 9092 22bd f30e 1b3e
00000100: 83e5 10bd 454b 423d a133 c4bd 6fa2 c0bd
00000110: b643 c6bd d92f 7a3d 266c 723d e80c 273d
00000120: 2090 0ebb c0e3 dfbd 70b2 f03b 23a9 9abb
00000130: b28b 663c 7a8c 2bbd 0689 12bd 0b7e bdbc
00000140: 5756 6d3c 8787 01be 7310 0bbe e606 ef3c
00000150: 68f6 a83d 02ca be3d 5e24 883d 74b9 babd
00000160: bdfa b83d 7e45 6c3d 82d6 b23d 9954 babc
00000170: 92ce 163e f6c1 713d 740f 313d f5f2 40be
00000180: a587 cbbd 32c4 39bd b6d3 ac3d 2cb1 4c3d
00000190: 2a0d bf3d 58ce 053e 4c80 87bb d172 cbbd
000001a0: bd36 913d f6e3 89bc 9264 b6bb 7616 45bc
000001b0: e2f9 e53d 930b ffbd 0505 c13d a825 3dbd
000001c0: b658 debd e9f7 843d 5664 68bc 987d 033e
000001d0: 8e6d 933d 7678 eebd 716c c8bd 0cc1 0fbe
000001e0: 4793 adbd 28f2 2b3d d681 a1bd 323e 38bd
000001f0: 8e60 013e deec 36bd a8ff 84bc afc7 c0bc
00000200: d211 94bd 13d9 89bd e82a 08bd 4d82 edbc
00000210: dd7c 8bbc 7deb 273c 187b 39bd 6466 02bd
00000220: b953 16be beaa c2bc d2a3 20bd aa2c 25bd
00000230: aa69 113e 2cd9 ecbc 9c8b 5ebb 4a86 93bd
00000240: 9eae 8a3d 32b8 fe3d 9041 e63d 47f4 14bd
00000250: 9ac3 f63b 0df2 67bd f872 1d3e 7c2c 37bd
00000260: 3cc6 0f3d 6ec3 e43d 5361 11bd deb7 99bd
00000270: f645 1f3d 4458 1e3d de5c 3f3d a90e ce3a
00000280: 07c0 28be 7ce6 e2bd 65c1 193e eab6 733d
00000290: 96c6 a5bd d567 3c3d 3077 09be acbf 903d
000002a0: 01c8 25bd 6cb2 42bd e729 30bd 9e97 e8bb
000002b0: 0023 0a3e 498e be3d 05c1 353c 5d84 60bd
000002c0: 9bb6 15bd 2111 73bd 5084 52bd df08 183c
000002d0: ac38 23bd 0ea5 80bd 3332 84bc 5911 6bbc
000002e0: dd36 9bbc 24bb 5dbd 8eb3 1ebe 83c9 13be
000002f0: 8e33 81bd e30d 6cbd 88b9 0bbe 9f0e b83d
00000300: 099f 0abb 09ce 903d a6eb 153e c0fd bd3c
00000310: 2c98 013e 9da1 c7bd 1b1b 113e 543f f1bd
00000320: 42a7 a5bd e819 413b 11da a93d 6f33 dfbd
00000330: a519 0f3e 2cd1 e03c 178f 9cbd 4bd1 4d3d
00000340: 3e0f ce3b c8bb 423d 3cfe 7abc bebe 96bd
00000350: 3303 043e 761c 513d 1a62 c9bd 4491 84bd
00000360: 85e4 8d3d b520 483d 054f 553c 0243 13be
00000370: dc2c d53a 9111 7abd 67e8 653d 1066 2ebe
00000380: e907 48bd a7db ca3d 3ef2 1abc 0d71 bcbc
00000390: 2df4 3bbd f9c6 04bd 61ff a83d 446a 51bd
000003a0: 81ae 83bd ffdd 873d 31a8 8f3d 1050 0f3d
000003b0: c895 053e f3fd 453d b07c 47bc 32e6 363d
000003c0: c435 a23d eca4 4d3d e2c2 b3bd 2801 74bd
000003d0: 1c94 fa3a 42f1 b93d 9d93 84bd 74de ed3b
000003e0: d15c 093d 5db9 5bbd 2a5e 303d 0dfb c6bb
000003f0: 9524 dfbd cee7 c73d 823b 0bbe 79c0 273e
