code/baseline/saved/GAMNet_learning_rate_0.0001_hidden_size_64_epoch_6000_batch_size_32/Epoch_1850_JA_0.6719_DDI_0.0942.model (torch, 455805 bytes, 29 tensors)

lab_embeddings f4 [32, 64]
00000000: 79db 9e3e 069b fc3d 14a9 39bf 56b8 d2bf
00000010: d58d 2bbf 1efe bdbf 838d 953f 62bc fa3e
00000020: 7235 383f 2f97 0b3f 7e87 debf 1656 aebf
00000030: 8ac4 003f 84ee e0be 60e4 283f fd20 f93f
00000040: 580a 2b3f 7269 383e b4d4 b83e 5a5c f63e
00000050: e7d2 703e 0d00 48bf 6684 8cbf e466 71bf
00000060: a759 24bf 58ed 82bf 2a6d 343f 1851 15c0
00000070: cfe4 bbbe 9451 523f 0b33 b63f 4aad c33e
00000080: d752 0bc0 1b1a da3f baa8 80be 4a9d f2bf
00000090: 6d90 e2be 6073 20bf c5e1 90bf 748c 69bf
000000a0: 2ff7 fe3e fd02 d53e f6cf 763f 32cd e1be
000000b0: 63d0 bd3e ea08 643f d956 0f40 8f60 0b3f
000000c0: 86d8 9fbe e2b5 cdbe ab1a 893e f3d2 04bf
000000d0: 2eb8 43bf d1c7 483e 6837 21bf 2217 413f
000000e0: 37d8 8abe 4c46 5dbe a232 2140 78de 12bf
000000f0: fed4 843d 9d2f ae3e daf2 e93f 2ed9 1e3d
00000100: 00fe 1fbe f3ec 22bf f850 d5be ebed b1bd
00000110: 3729 573e 482f 133f 6812 ee3f 9c34 983e
00000120: 9eb2 85bf 8789 a2bf 9d41 a6bf 83a9 6f3d
00000130: 53d5 c0bf 5571 8bbf 6fab 593f 974d 6cbf
00000140: e2bb 27be b40c 133f 71d2 bb3f 7245 993f
00000150: 0f41 c53e 2c84 04bf 0b68 403e 1f86 1340
00000160: a483 dcbc 27d1 823f ec04 b53e 4897 753f
00000170: 8764 233d 8108 ed3f e2e3 5c3f 8b88 ee3d
00000180: 7057 47bf e6af b4bf 6632 02bf 2319 053f
00000190: d055 a23f f16f 99be ddb8 443e f3ee af3e
000001a0: da32 dd3e 6fb6 98bf fa9e 373f cf1f 2c3f
000001b0: 7eaa cb3f 949e 84be e318 f9bf e699 20bf
000001c0: ad96 2f3f 3ad3 d0bf 15de 423f 4c19 173f
000001d0: 29fd 0d3f 4271 eebe 77f2 9cbf 47b4 44bf
000001e0: b231 f9bf 58fc 5240 b8eb 3c3e bb5a c83e
000001f0: 011f 343f 268f 733f 7db7 0bc0 e8b7 b03f
00000200: b245 60bf 9c3b 87be 5cea cf3f 7838 38be
00000210: d0a8 7e3e beeb 7fbf deba 79bf fd80 3fbf
00000220: d120 57bf 30e8 663f d55e 67bc 8ff6 9b3f
00000230: dcca a5be b888 173f 02a9 f1be 4065 0840
00000240: 2464 50bf ba00 5a3e 3a25 4d3f 8121 c3be
00000250: 05e2 4bbf fd5c 0b3f 1e9b c43f e8a5 adbb
00000260: 0657 aebf 5b82 66be 03a9 1dbf 795a 46bf
00000270: ffbc bb3e 974c 88be 9a6e 1cbe 0e7e 413f
00000280: f5d9 4ebf 0e04 b33f a041 a73e 84c3 043f
00000290: 8672 3c3f a9ba b83e ce93 953b e363 b83f
000002a0: c0c4 0040 0ffd 59be 2091 d23e e43a 44be
000002b0: b13c a03f 04f1 98be e96b ddbe 287a 31bf
000002c0: 3373 bebe b2e3 993e ddcb 83bf a3d4 b53e
000002d0: 957e b3bf 996a b73e 248a 903d 1022 dcbf
000002e0: ac6d a6bc 24f9 513f 7112 853e 9de6 3dbd
000002f0: 645f c83e 47b1 afbf de2c 5fbf 7467 04bf
00000300: 240e 51bd b19e 21bf b02f 683f 61f3 89bf
00000310: 2fe7 efbd a993 00c0 985a b9bf 60be 273e
00000320: 3558 863e 78c9 993f a687 e8be e2ae 83bf
00000330: 58a8 593f 4eeb fb3f ebce 683e a34a bbbd
00000340: c1af 823e 729e 153f 7170 8ebe 4ed3 5e3d
00000350: c48f 813e b7c0 acbf ae59 20c0 e3fc c4be
00000360: 836c 1cbf c1ea 84bd dacc 0f40 3610 e3bf
00000370: 148f 113f b720 583d 5aec 90be f783 cd3e
00000380: 28ee 723e 0e3e 9d3f 17e3 773f ad4a a1bf
00000390: 82a7 063f 46d6 5bbd 449f f63f 78e8 04c0
000003a0: f3e3 413f 0354 a03e 7f6e 37bd 2697 ccbe
000003b0: 0d30 43bf 07ad 173f 9b18 98bf b46a 563f
000003c0: 6a97 25bf d2dd a5bf 0546 023f e01c 663f
000003d0: 0502 ae3f 9497 fb3e d26e f1bf 8bfe 393f
000003e0: 7a21 1f3f 5140 b73f 64e9 65bf 3eec 343f
000003f0: bf93 8f3f 3ff4 56be dd7f 243f c272 0b40
0.3102682 0.12334256 -0.7252362 -1.6462505 -0.67013294 -1.4843175 1.1683811 0.4897185
0.7195655 0.5452756 -1.7385099 -1.3620021 0.50299895 -0.43931973 0.6597347 1.9463192
0.6681266 0.18008974 0.3609978 0.48117334 0.23517953 -0.7812508 -1.0977905 -0.94297624
-0.641993 -1.0228682 0.7047907 -2.3330746 -0.36698005 0.8215573 1.4234327 0.38218147
-2.1769311 1.7039217 -0.25128728 -1.8954251 -0.44250813 -0.6267605 -1.1318899 -0.9122994
0.4979796 0.41603842 0.96411073 -0.44101864 0.3707305 0.890761 2.2396758 0.5444421
-0.31219882 -0.40177828 0.2677816 -0.5188438 -0.7645291 0.19607474 -0.6297517 0.7542592
-0.27118084 -0.21608847 2.5187154 -0.5737071 0.064859375 0.340207 1.8277237 0.038781337
-0.15624237 -0.63642806 -0.41663337 -0.086879574 0.21011816 0.5749402 1.8599367 0.29727638
-1.0445135 -1.269822 -1.2988774 0.05851127 -1.5065101 -1.0893961 0.8502721 -0.9230589
-0.16380265 0.5744126 1.4673597 1.1974318 0.38526198 -0.5176418 0.18789689 2.305061
-0.02691824 1.0220078 0.35355318 0.9593396 0.039890792 1.851822 0.8628522 0.11647137
-0.77867794 -1.411618 -0.5085815 0.5199148 1.2682438 -0.29968217 0.19211145 0.3436199
0.4320286 -1.1930674 0.71726954 0.67236036 1.5911405 -0.25902236 -1.946072 -0.6273483
0.6858929 -1.6314461 0.7612012 0.59022975 0.55464417 -0.46570784 -1.2261494 -0.7683758
-1.9468291 3.2966518 0.18449295 0.39131722 0.7035981 0.951403 -2.1830742 1.3806124
-0.87606347 -0.26412666 1.6243396 -0.17990291 0.24869084 -0.9996909 -0.9755076 -0.74806195
-0.8403445 0.9019804 -0.014121731 1.2184619 -0.32381332 0.5919299 -0.47199255 2.1311798
-0.814028 0.2128934 0.8013493 -0.381115 -0.79641753 0.54438764 1.5359838 -0.0052993186
-1.3620307 -0.22510664 -0.61586016 -0.774818 0.3666763 -0.26620933 -0.15276566 0.7558297
-0.80801326 1.3985612 0.32667255 0.51860833 0.7361225 0.3607991 0.004564739 1.4405483
2.0120087 -0.2128794 0.41126347 -0.1916309 1.2518522 -0.2987138 -0.4324639 -0.6932702
-0.37197265 0.3005653 -1.0296589 0.3551379 -1.4023005 0.35823515 0.07057598 -1.7197895
-0.020315968 0.82020783 0.25990632 -0.046362508 0.39135277 -1.3725976 -0.87177837 -0.51720357
-0.051038876 -0.6313277 0.90697765 -1.0777398 -0.11714017 -2.0090125 -1.4480772 0.16381216
0.26239172 1.2014608 -0.45415992 -1.0287745 0.850225 1.9681184 0.22735183 -0.09145095
0.25524715 0.58444893 -0.2782016 0.054400735 0.25304997 -1.3496312 -2.5054736 -0.38474187
-0.61103076 -0.06490088 2.2468781 -1.7739322 0.56858945 0.052765574 -0.28305322 0.40139744
0.23723662 1.2284563 0.96830887 -1.2600914 0.52599347 -0.053671144 1.9267354 -2.0766888
0.7573845 0.31314096 -0.04478311 -0.39959067 -0.76245195 0.59248394 -1.1882509 0.83756566
-0.64684165 -1.2958319 0.5088809 0.8988781 1.3594366 0.49139082 -1.8861945 0.72654027
0.62160456 1.4316503 -0.8980925 0.70672977 1.1216964 -0.2099161 0.64257604 2.1788793

static_ll.0.weight f4 [128, 64]
00000000: 62df e03d 5c9e b9bd 7444 e8bd f4b2 04be
00000010: e599 8c3d a592 86bd 5eb6 f7bd 8149 f33c
00000020: d734 853d 7035 81bd 493f 24bd 7de9 8dbd
00000030: f2c1 213e 4605 69bd 1fbd 463c 3020 abbd
00000040: ee40 0abe 4cd2 d13d 3fa2 79bd d1a4 efbd
00000050: f2dd 22bd 85b7 92bd fa70 11be 087f dabd
00000060: 4002 e03d 0988 6dbc 3fb1 4c3d 28d7 d8bd
00000070: e42e 6e3d 009c 90bd 052d 9a3d e2b8 f83d
00000080: b32a cd3d 329f c63d 0e2b 07bc 36b3 f9bd
00000090: d744 473d 966f 843d c476 313d ab2f 2bbd
000000a0: af4d 3e3c 892e 9a3d ff97 913d b7f0 103d
000000b0: 30af 97bd 19fe 793d 6ff9 34bd c498 8bbd
000000c0: c994 4cbd e83f febd 4427 093e ac43 103e
000000d0: e688 313d 07e4 70bc b6d7 3fbd 2bef 02be
000000e0: 142a 8c3c 50c0 c23b 1fa8 23bd e4fd 0c3d
000000f0: f368 07be 3c65 dfbd 7589 0dbd 25ad b9bc
00000100: e180 98bb 7580 ea3d 2de9 cbbd 563d d33d
00000110: 7198 c7bc 9aee b1bd 92ef b73d 3a7d 89bd
00000120: 8dbf acbd fd66 4d3d 6c48 19bd d586 b63d
00000130: b0cf 66bd 79fb 023c a6d6 4c3d a14f a6bd
00000140: 2ea4 d7bd 4fa9 bebd 7a92 8b3b 2238 cb3d
00000150: 601a c53d 69c5 863d e7da 543d ed6d 793c
00000160: ec2e b93d 5afa 2d3d fb5e c43d 9dbf 053e
00000170: b2e7 df3d 7bf7 033e 461a a43c ee31 fbbd
00000180: a90e efbd 7503 e0bd 8ade 2c3d 953b 48bd
00000190: 70dd 30bd 6deb ef3d 6ff5 8cbd ffae f03d
000001a0: 3573 7ebd a15d bbbd 78c5 fd3d e2d1 eebd
000001b0: 4cfd a4bd f93d 42bc 11a3 e6bc 0436 16bd
000001c0: 29e9 7fbd bddb f93c 6722 0f3e 33d6 5a3c
000001d0: bd56 04be 33c6 bebc 2bbc b3bd 42a8 913c
000001e0: e4bc 9ebd 9cab 023e e4ec 32bc ae16 bf3d
000001f0: 85c1 5fbc e1bb 993d 25c0 f9bd 998b d43d
00000200: a4eb aa3d 0a25 efbb aca3 23bc a611 a43b
00000210: 0f08 bf3d 18dd 12be 3221 d9bd 6e27 b5bc
00000220: 0f63 b5bd a243 e4bc 0a15 adbd 135d 07be
00000230: 7310 01bc b2e2 babd 60d8 cdbd 8774 93bc
00000240: 927d a0bd 2b8e dd3d 8541 27bd c339 e7bd
00000250: f27f 7e3d f961 5cbd 99b7 04bd 7a5d 113d
00000260: 26a4 79bd 0235 d6bd 58c2 bfbd d341 71bd
00000270: b1e3 98bd e84b 993d 27a4 663d 4773 d6bc
00000280: 8ffe 06be d8f4 a03d 897a b13c d161 ea3c
00000290: 47cc 503d d25d 06bc 3845 1d3d 41af 49bc
000002a0: f518 bdbc 2cfc b4bd a286 b33d 93bd 83bd
000002b0: f975 083e 230c d53d 12ab fe3d 132d 4fbd
000002c0: 5c5f c8bd 7225 b0bc e936 c53d 6959 a03d
000002d0: 6f94 21bc bd83 eb3d efb0 ba3d ae48 1dbd
000002e0: b74e 363c 6c2b 2cba a9f1 a13c 4348 a3bd
000002f0: d8cc 053e 9348 b23d 8262 b23c ceb9 91bd
00000300: cd9d cdbd 41ca 72bd fe25 efbc fab6 c1bc
00000310: 24b5 f93d a17e df3d ddf5 03be 8588 943d
00000320: aa2f c0bd 76f1 bd3d 8bd6 833d c630 42ba
00000330: d6ea b43d 1bae 663d a7e3 203d c25b 3d3d
00000340: d536 af3d c622 44bc eda7 84bb 88db 593d
00000350: c858 bf3d c2c7 bc3d cd0e 14bd ad36 3cbd
00000360: 715f bf3d 32f2 d3bc bbe5 10be a5b8 e03c
00000370: 1749 c03c 329a a3bc d19a 7b3c 1f43 793d
00000380: b0dd 643c f125 abbd b4b7 69bc 1f73 6c3d
00000390: 0a21 06bd 7a38 92bd 54bb e2bd 7570 363d
000003a0: 9aeb ee3d b395 11be 5704 d8bd f496 cb3d
000003b0: 572b 2ebd a7d5 76bd 8c40 c83d 791e c0bd
000003c0: 8279 7a3c 8a7a 4a3d a3c2 09be d70e debc
000003d0: f796 023e 202a b6bd 9ccf c4bc 54c1 88bd
000003e0: d058 9b3c 9d2f 78bd 2511 ab3b 33d1 9bbd
000003f0: 3bcb 9dbd f633 acbd cf40 76bd 9e4f 9dbc
0.10980107 -0.09063408 -0.113411814 -0.1295889 0.068652906 -0.06570939 -0.12095331 0.029698135
0.06504219 -0.063090205 -0.040099416 -0.069293 0.1579664 -0.056889795 0.012130051 -0.08355749
-0.13501331 0.10245189 -0.060945746 -0.11701358 -0.039762445 -0.0716391 -0.14203253 -0.106687605
0.10937929 -0.014497765 0.049973723 -0.10587913 0.058150187 -0.07061005 0.07528118 0.121446386
0.1001791 0.09698333 -0.008250011 -0.12192385 0.048649635 0.06466596 0.043326154 -0.041793507
0.011615201 0.07528407 0.07109069 0.035385814 -0.07406461 0.061033342 -0.04418319 -0.06816247
-0.04994658 -0.12414533 0.13393885 0.14088315 0.043343447 -0.014702803 -0.046836577 -0.12786548
0.017109908 0.0059433356 -0.039955255 0.034421816 -0.13223629 -0.10907981 -0.034554917 -0.02266557
-0.0046540354 0.114502825 -0.09956584 0.10314433 -0.024364682 -0.08688088 0.08981241 -0.06713338
-0.08434973 0.050147045 -0.037422583 0.08912436 -0.05635041 0.007994526 0.050009392 -0.08120657
-0.10529362 -0.09309637 0.0042594047 0.09922816 0.09624171 0.06580622 0.051966574 0.015223962
0.09042153 0.042475082 0.095884286 0.13061376 0.10932864 0.12887375 0.02003206 -0.12265383
-0.11672718 -0.109381594 0.042204417 -0.048884947 -0.04317993 0.11714826 -0.0688275 0.11752128
-0.06212159 -0.09148718 0.1239118 -0.11661126 -0.08056125 -0.011855596 -0.028153928 -0.036672607
-0.06247822 0.030500287 0.13977967 0.013356733 -0.12923713 -0.023287868 -0.087761246 0.017780427
-0.07750872 0.12760776 -0.010920737 0.09330498 -0.0136569785 0.07506538 -0.12194852 0.10378189
0.08345726 -0.0072981166 -0.009987753 0.0050069867 0.09327709 -0.14342153 -0.10602035 -0.022113528
-0.088567846 -0.027864281 -0.084512785 -0.13219099 -0.007877457 -0.0912527 -0.10051036 -0.0179999
-0.07836451 0.10818132 -0.04083397 -0.11290314 0.062133737 -0.05380437 -0.032401655 0.035489537
-0.06094756 -0.10459329 -0.0936324 -0.058900665 -0.07465304 0.07485181 0.05630889 -0.026178015
-0.13183044 0.078592 0.021664875 0.028611096 0.050976064 -0.008201079 0.03839609 -0.01230985
-0.02308319 -0.088371605 0.087659135 -0.06432643 0.13326253 0.104027055 0.12434973 -0.050580095
-0.09783813 -0.02150223 0.09629614 0.07829554 -0.0098620495 0.114997365 0.09115779 -0.03839939
0.0111271655 -0.00065677497 0.019768553 -0.07972767 0.13066423 0.08705249 0.021775488 -0.071155176
-0.10039864 -0.059274916 -0.02919292 -0.02364682 0.12192753 0.109128244 -0.12886758 0.072526015
-0.09384091 0.09274571 0.06437405 -0.00074077805 0.08833854 0.056318384 0.039279606 0.046230085
0.0855538 -0.011971181 -0.0040483386 0.053187877 0.093431056 0.09217788 -0.036146928 -0.04595058
0.09344376 -0.025872324 -0.14150135 0.027431795 0.023472352 -0.019970987 0.015356735 0.060855027
0.01396887 -0.08356846 -0.01426499 0.057726976 -0.032746352 -0.07139678 -0.11070886 0.04454084
0.11666031 -0.14217262 -0.10547703 0.099409014 -0.0425218 -0.06026235 0.09777936 -0.09380812
0.015287759 0.04943327 -0.13453154 -0.027106686 0.12752901 -0.088947535 -0.024024777 -0.066774994
0.018963248 -0.060592283 0.0052205496 -0.07608261 -0.07704779 -0.08408348 -0.0601204 -0.019203003

static_ll.0.bias f4 [128]
00000000: 2c22 e13d d7f7 b2bd 13dd 3f3c bc36 87bd
00000010: ad32 e03d 30b4 a83d 2661 abbd bb6e cb3d
00000020: ad37 b43c f6cf 083e 2ed9 083e 87d4 7bbd
00000030: 23c2 03bd a1b3 bb3d 79dc f23b cb3c eb3d
00000040: 01c7 ff3d 19b5 8fbd 76a8 e23c 8d26 8e3d
00000050: 9bff b63d 9a1b 0839 e8d3 9d3d 8fb2 163e
00000060: d224 e43d d3d5 af3d f7cf 4fbd efe6 b3bd
00000070: 2d66 8ebd 3dcd ed3d 2c1c cdbc 1f3a 85bd
00000080: 7cb1 94bb d2f6 a53d 62fd dc3d e892 a1bd
00000090: 2137 d63d d8b2 e53d 67b2 383c 2a45 663d
000000a0: 8944 833c 0344 03bd 62f9 cfbc 8978 b0bd
000000b0: 3b9d 503b f371 20bd 7c7b 4fbd 701b 3cbd
000000c0: 139f 12bd d929 e43d ad0b dd3d cf45 d43c
000000d0: a5be 0b3d 7711 063e 64b7 22bd fb94 7b3d
000000e0: 8a65 0f3e 13c4 d23d 3f05 d9bd eeca a2bd
000000f0: d741 bbbc 9571 e33d cbeb 6bbd 9394 95bd
00000100: e954 62bd 6b90 55bd 158a 163d 3774 a2bd
00000110: cdfe 45bc 6b33 77bc 730f 563d e6a4 a63d
00000120: 6f65 05bc ec55 b2bc 2e21 7cbd 278b 8d3b
00000130: cf0f 153c 5ccc 2e3c da94 27bd b479 eebb
00000140: 57ab ad3b c8c5 b83d 3fd2 b5bd f854 483c
00000150: 5200 94bd 71af fbbb 105f 8fbd 0d37 303d
00000160: 4a83 123e 3916 97bd 9a11 c53d 90b9 0abd
00000170: 246a d5bd fc70 ab3c 5341 14bc 0e3a 18bc
00000180: 0f23 8cbd aceb 933d 23b3 d03a 8d3e 9ebb
00000190: 8acb f03d 3bc8 8bbd f2a3 703d 82af 50bd
000001a0: e29d a9bd fe92 52bd 2a30 ea3d 30de d03d
000001b0: 701b 6b3d 795b 2c3d 5669 473d 4f4e c3bc
000001c0: 06c9 f93d a241 a8bd 7006 8c3d 19e1 1dbd
000001d0: 7c32 363d 672f 853d 15c7 593d 4a81 cabd
000001e0: 60f0 8a3d 8011 9bbc 3243 be3d 97c0 74bd
000001f0: f8fb 793d 3cca 01be 3398 ec3d d78a bb3c
0.10992846 -0.08738678 0.011710423 -0.06602237 0.10947166 0.08237493 -0.08368139 0.099332295
0.021999205 0.13360581 0.13364097 -0.06148198 -0.032167565 0.09165121 0.0074115363 0.11486205
0.12489129 -0.070169635 0.027668219 0.06940947 0.089354716 0.00012980253 0.077064335 0.14716552
0.111398354 0.085857056 -0.05073544 -0.087842815 -0.06953082 0.11611412 -0.025037847 -0.06505226
-0.0045377593 0.08103718 0.107905164 -0.07889348 0.10459734 0.11215752 0.011273003 0.056218304
0.016023891 -0.032047283 -0.02538747 -0.0861674 0.0031831998 -0.03917117 -0.050654873 -0.045924604
-0.035796236 0.11140794 0.107932426 0.025912194 0.03411736 0.130926 -0.039725676 0.061421376
0.14003578 0.102913044 -0.10596704 -0.07948862 -0.022858543 0.111056484 -0.057597917 -0.07303729
-0.055256758 -0.05213968 0.03675278 -0.079323225 -0.012084675 -0.015087943 0.052260827 0.08136921
-0.008141859 -0.021769486 -0.06155508 0.004319567 0.009098007 0.01066884 -0.04091344 -0.0072776917
0.0052999663 0.09022099 -0.08877992 0.012227289 -0.072266236 -0.0076808264 -0.070005536 0.04302125
0.14307895 -0.073772855 0.09622498 -0.033868372 -0.10420635 0.020927899 -0.009048778 -0.009291185
-0.068426244 0.07222685 0.0015922528 -0.004829234 0.11757572 -0.068253 0.0587501 -0.050948627
-0.08282067 -0.051409714 0.11434968 0.10198629 0.057399213 0.042079423 0.04868444 -0.023841051
0.12196545 -0.082156435 0.06837165 -0.038544748 0.04448174 0.06503182 0.053168375 -0.09887941
0.06784129 -0.018929243 0.0929016 -0.05975398 0.06103131 -0.12674803 0.11552467 0.022893352

static_ll.2.weight f4 [64, 128]
00000000: 2b67 193d ed0b 77bd 41aa 7a3d 3599 5f3d
00000010: ec5e a13d 7dab a93c f087 33bd 1898 d8bc
00000020: cf43 9ebd 641b d23c ab7f 8fbc a031 b53b
00000030: c73b 9fbc 71e0 2a3c a823 fe3c 463e 8e3d
00000040: 8d31 3f3d 4d65 7bbd ddf9 04bd c39f 77bd
00000050: 55e7 47bd f0fa 9a3d 7f2c 573d e10a 083d
00000060: 2d19 063b c6a3 973d 074b 2ebd ea1f 2ebc
00000070: 7310 ce3b 1f32 efbb 5b88 873c 4d11 b3bd
00000080: b35b bd3d 79bf 49bd 8c2c 56bc 6f4b 94bd
00000090: c21f 9b3d 420e 1e3d e371 ffbb 5a4b d53c
000000a0: 4994 1dbd c3b3 f13c 4c9c 4e3c cbb6 803d
000000b0: 6fef 0f3d 17e5 7cbd 7318 493d 4f51 663d
000000c0: 9239 2d3d 1a6e 00bc bbb9 bebc 069c 98bd
000000d0: 58a6 5ebb 11d1 b83d 955f 24bd 5afd 9b3d
000000e0: a3ca 033d 03d8 a1bd 414c 79bd cf52 553d
000000f0: 2c1f ba3d 1108 a03d 470f 5b3b 3505 2a3b
00000100: 67a6 833b ba68 c7bc ae05 b73d 8113 3cbd
00000110: 47ef a6bc cbc5 643d 9be4 c5bb 6700 97bd
00000120: f18b f83c 7c56 2e3c c275 193c dc64 d8bc
00000130: b87b 86bd e760 d7bc abe3 1f3d 4c18 88bc
00000140: 1280 093d 6544 9c3d 6151 343d f831 1a3b
00000150: 9df3 7fbb 4f5f 1fbc 4353 8dbd 2485 933b
00000160: dab1 983b 6056 2abd ea2e 85bd 678d 84bd
00000170: 05e7 3e3d 8c5b 893d 390f 10bd 7f82 8abd
00000180: c421 cf3a e4d2 fa3c 763c 803d 7bd6 9f3d
00000190: d148 9d3c 156e 603d cba2 203d 7b75 aa3d
000001a0: 5e95 343d c3b1 55bd 3c2e 9b3d 6da1 cd3c
000001b0: bf37 c03c 1f3a 983d 2487 06bd e62d 7dbd
000001c0: 3f98 44bc 4460 493d 2e25 cfbc d6c5 b23d
000001d0: 25fe cb3d f529 bcb8 3ee6 64bc 8c52 cdbc
000001e0: f938 1abd 1683 363d 6063 933d 5376 6fbd
000001f0: 0cb6 e93c 44f5 9a3c b17c a33d 93ed 043d
00000200: cb4d 233d c1f4 edbc a292 f83c a1ca 5cbc
00000210: 7d33 363d 434e 70bd f324 5e3d 20c5 b03d
00000220: e92e 8e3c 5482 22bc 2ad7 493d dfe8 ea3d
00000230: 70f9 cd38 92c8 5d3d 11de edbc 8aa0 9a3d
00000240: 9231 e0bc 3765 9cbc ff93 443d 0b6e 493d
00000250: 8249 73bd 26f9 773d 974d 693d f89b 14bd
00000260: 8b90 7a3c c245 513d a695 f33c 86ed 853d
00000270: 6f0c 9cbd c059 a93d 677b db3c 01d9 6a3d
00000280: 739f 22bc adfa a83c a5b5 fab9 3b1e 353d
00000290: bfb2 523d 9e96 7f3d 47fd 8639 e7c6 9e3d
000002a0: 6053 3e3d f77f fcbc 7a10 a43c 58c1 84bd
000002b0: c6b6 723d 22aa 4c3d 07f4 8e3d 40fe a53d
000002c0: 19a6 cebd ceaa db3d 8559 723d c0ed e53c
000002d0: 7b1c 30bd 3464 9b3d e683 dd3c 6c88 a3bd
000002e0: 8a6a cf3c 6c17 d9bd d329 aebd 8de2 023c
000002f0: 9358 e83d 3f7c f7bc 230e 0d3d e187 833c
00000300: ec79 bc3c de97 81bc a4f6 af3d b0d7 bf3c
00000310: 5215 aabd 4a17 51bd c5ce 913d 0481 c5bd
00000320: 0024 1d3c 2bbb 65bb a99e 183d 2d72 68bb
00000330: 6276 193c 9935 dfbb 5321 c5bc 9def ca3d
00000340: 6547 07bd 6405 7a3d 9ad1 a9bd 02e7 163b
00000350: f17f 90bd d5e4 2a3d 0b56 ba3d 19ea 4abd
00000360: 8e53 ec3c 7f3a cf3d d769 3dbd 016e 83bd
00000370: 8a81 853d fe8d 8f3d 2134 1b3b 2780 bc3d
00000380: 4b53 b23d 9c39 a03d 6754 be3d 740d 96bc
00000390: cf44 0f3d 10d8 1fbd 1233 a33a f959 933c
000003a0: d2a6 2fbd bbb5 203d d139 e63c e8a2 3d3d
000003b0: bb1f 11bd 556e 3abd 6095 133b aa17 20bc
000003c0: cf3b 29bd 5954 a7bd 6960 283c fd9f f83c
000003d0: 2635 93bd ffc0 813d 234b a63d 888f ccbc
000003e0: 0bf1 89bd 4d16 a8bc 9601 69bd 12cc 82bb
000003f0: 4241 9cbc 9cdc 773a 1e6b bfbb a37e 62bd
0.037451904 -0.060314108 0.061197523 0.05458947 0.07879433 0.020711655 -0.043830812 -0.026439711
-0.07727777 0.025647826 -0.017516932 0.0055295974 -0.019437684 0.010429488 0.031022862 0.069454715
0.046678115 -0.061375905 -0.03246485 -0.060455095 -0.0488046 0.07567394 0.05253267 0.0332135
0.0020461783 0.07404284 -0.04255202 -0.010627726 0.006288582 -0.007299676 0.016544512 -0.08743534
0.09246006 -0.04925487 -0.013072144 -0.0724095 0.07574417 0.038587816 -0.007795559 0.026036907
-0.038471494 0.029504662 0.012610506 0.06284865 0.03514045 -0.061741915 0.049095582 0.056229886
0.04229123 -0.00783875 -0.023281923 -0.07451634 -0.003397366 0.09024251 -0.040130217 0.07616682
0.03217567 -0.07902529 -0.060863737 0.052080926 0.09087977 0.078140385 0.0033425854 0.0025943045
0.0040176394 -0.02434193 0.0893663 -0.045917038 -0.020377768 0.055852693 -0.006039215 -0.073731236
0.030340167 0.010640737 0.009366455 -0.026415281 -0.06566566 -0.026291324 0.03903548 -0.016613148
0.033569403 0.07630233 0.04402292 0.002352832 -0.0039055117 -0.009727313 -0.069006465 0.0045019556
0.0046598734 -0.04158628 -0.06503089 -0.06472283 0.046607036 0.06706914 -0.035170767 -0.067631714
0.001580291 0.030618139 0.06261532 0.07804581 0.01919976 0.054792482 0.03921775 0.08323189
0.04408776 -0.05217148 0.07577178 0.025101388 0.023464082 0.07432961 -0.032843724 -0.06181135
-0.011999189 0.04916407 -0.025286283 0.087291405 0.099605836 -8.972354e-05 -0.01397091 -0.025063775
-0.03765199 0.044558607 0.07196689 -0.058462452 0.02852919 0.01891578 0.079827674 0.03245313
0.03986911 -0.029047372 0.030343357 -0.013476045 0.044482697 -0.058668386 0.054234456 0.086313486
0.017356353 -0.009918768 0.049277462 0.11470198 9.821623e-05 0.054146357 -0.029036554 0.07550152
-0.027367387 -0.019091232 0.047992703 0.04917721 -0.059396274 0.06054034 0.05695876 -0.036281556
0.015293251 0.051091917 0.029734444 0.065394446 -0.07619559 0.082690716 0.026792241 0.057335857
-0.009925711 0.020627344 -0.00047819052 0.044218283 0.051439997 0.0623995 0.00025747178 0.07752781
0.04646623 -0.030822737 0.020027388 -0.0648219 0.059256338 0.04996694 0.06980138 0.08105135
-0.10090274 0.10725938 0.059167404 0.02806747 -0.04299591 0.075874716 0.027040433 -0.07985005
0.025319356 -0.106001705 -0.08504071 0.007988584 0.11345019 -0.030210612 0.03443731 0.016056003
0.023007356 -0.015819486 0.08591965 0.023418278 -0.08304848 -0.0510476 0.07119516 -0.096437484
0.009591103 -0.0035054188 0.037260685 -0.0035468445 0.009366604 -0.0068118093 -0.024063742 0.09908984
-0.03302707 0.061040297 -0.082919315 0.0023025875 -0.07055653 0.041722137 0.09098443 -0.04953966
0.028848436 0.10118579 -0.046243515 -0.06417466 0.06518848 0.07009505 0.0023682194 0.092041306
0.08707293 0.07823488 0.09293442 -0.018316962 0.03497773 -0.039024413 0.0012451133 0.017987238
-0.0428837 0.03923581 0.02810374 0.046297938 -0.03543065 -0.045515377 0.0022519454 -0.009771267
-0.041316804 -0.08170385 0.010276892 0.030349726 -0.07187872 0.06335639 0.081198 -0.024970785
-0.067354284 -0.020518446 -0.056886278 -0.0039916122 -0.019074086 0.00094551756 -0.005841627 -0.05529655

static_ll.2.bias f4 [64]
00000000: 12b5 5c3d 3819 243d 9c29 7abc 14e9 66bd
00000010: 9c27 f2bc ab14 103d 13ed 053d 7662 1abc
00000020: fa94 1b3d fd5a 85bd 5567 9e3d caa2 e2bc
00000030: 34cb 8bbc 1012 803c e50d a33d ad44 cd3d
00000040: eea7 9fbd c4b2 9a3c 3c64 b33d 8da4 81bd
00000050: 65cd 11bd 3dc7 36bc ee2c 6d3d 16d3 9d3d
00000060: 6357 12bd 34e3 af3d b0c6 233d a9eb e0bc
00000070: 325a 8d3c 2e1e 5e3c b813 773d adb8 863c
00000080: e25e 37bd 8d96 92bd de8d ba3d 1e07 463b
00000090: e483 293d bcbb 47bd e01a 96bc f0f9 9b3c
000000a0: ebac 043d e1b4 7a3d 1bc0 8ebc c05f c63c
000000b0: 3a9b 5abc a7da 933d a2ff d1bc dae4 1e3c
000000c0: 257a 333d b2d5 283c 8faa 9f3c eb41 963c
000000d0: 0e35 30bd f9e0 8e3d 7350 9e3d 5122 583d
000000e0: 4aa1 e4bc 8eac a43d 8f1e 10bd 1cf9 c73d
000000f0: 49a8 973d 9adb a83c 3422 40bd 7c38 c93d
0.05388362 0.040063113 -0.0152687095 -0.056374624 -0.029559903 0.03517596 0.032696795 -0.009422889
0.037983872 -0.06511495 0.07734553 -0.027665514 -0.017064668 0.015633613 0.079616345 0.100228645
-0.07795702 0.01888407 0.087593526 -0.06330214 -0.03559627 -0.011155901 0.057904176 0.07706277
-0.03572787 0.085882574 0.039984405 -0.027456122 0.017254923 0.013557 0.06032154 0.016445482
-0.04476822 -0.071576215 0.0910909 0.0030216645 0.041385546 -0.04876302 -0.018323362 0.019040078
0.03239147 0.061207656 -0.017425587 0.024215579 -0.013342673 0.07219439 -0.02563459 0.009698117
0.043817658 0.010304855 0.019490508 0.018341979 -0.043019347 0.06976504 0.07730188 0.0527671
-0.02790894 0.08040725 -0.035185393 0.09764311 0.07405145 0.020612527 -0.04690762 0.09825227

glu_encoder.rnn.weight_ih_l0 f4 [48, 2]
00000000: 2d95 363e 2ef7 24be 7fe6 d43d c3fe 45bd
00000010: c865 423e bfe5 463e d380 a4bd 2019 3cbe
00000020: 6e31 1cbe c826 3f3e 2460 8d3e d53b 0a3e
00000030: bd35 5cbe 1d02 903d 4df3 963e cf13 99be
00000040: 18f3 bdbd 1522 6cbe 2888 753e 1be6 25be
00000050: ecec 113e f694 69bc 0f23 0e3e fb2e 663e
00000060: b1de 653e 5afa b7bd 4cef c13d 0246 fb3c
00000070: 0925 ea3c 0419 3dbd 4199 3ebe 0b13 55bd
00000080: 5c93 613e b99e b8bd 2b1b 283d 6c9b 803e
00000090: add7 66be c34d 4cbe a966 83bc c53e 773e
000000a0: 8526 06be 3626 6a3e 72f1 a1bd 968e 8ebd
000000b0: 27d9 f2bd 8aff 123e a667 5d3e 8b04 4a3e
000000c0: 1128 5d3d b097 2dbd d6a3 9fbe 648c 703e
000000d0: 3499 99be f2b1 8dbc a1d5 413d c9c6 35bd
000000e0: c16b 513e 477c 38bd 083d 803d d65a 88bc
000000f0: 0ac9 5d3e d192 c4bc f0cf 25be 1461 03bd
00000100: 3f5b 073e ce55 e0bd fff1 1ebe 1fb6 473e
00000110: 1e86 043e a91d 073d 4296 853e 2363 b9bd
00000120: b324 efbd 05b1 38be fc28 753e 2c95 6cbe
00000130: c6ef 463e 37ba fcbc 22bc d03d dfbe 35bd
00000140: 9cf5 1c3e a0b9 06be 396d 803e 52f3 363e
00000150: da64 133e e195 553e 95fb 3dbd 3296 8bbd
00000160: 4579 f9bd 6f39 d5bd b931 7cbe 3893 6d3e
00000170: 4648 723e d45e 76bd e13c 4b3d 7d07 493e
0.17830344 -0.16109917 0.10395526 -0.048338663 0.18984139 0.19423579 -0.08032384 -0.1836896
-0.15253231 0.18667138 0.27612412 0.13499387 -0.21504875 0.07031653 0.294825 -0.29897925
-0.09274882 -0.23059876 0.2397772 -0.1620106 0.14250535 -0.014256706 0.13880561 0.22478859
0.22448231 -0.08983298 0.094694704 0.03067303 0.028582113 -0.046166435 -0.18613149 -0.052020114
0.2202887 -0.09014649 0.041041534 0.25118577 -0.22543211 -0.19951539 -0.016040163 0.24145038
-0.13100632 0.22866139 -0.0790738 -0.0696079 -0.11857825 0.14355293 0.2162157 0.19728296
0.05399329 -0.04238099 -0.31179684 0.23491055 -0.29999697 -0.017296765 0.047322873 -0.04437903
0.20451261 -0.045040395 0.06261641 -0.016644876 0.21658722 -0.023995789 -0.16192603 -0.032075003
0.13218401 -0.10953866 -0.15522002 0.19503067 0.12941787 0.03298727 0.260912 -0.09052112
-0.11676922 -0.18036278 0.23941416 -0.2310378 0.19427404 -0.030850513 0.101921335 -0.044371482
0.15328068 -0.13156748 0.2508333 0.17866257 0.1439394 0.20857956 -0.046382505 -0.06815757
-0.121813335 -0.10411345 -0.24628343 0.23200691 0.23660383 -0.06014903 0.049618606 0.19631763

glu_encoder.rnn.weight_hh_l0 f4 [48, 16]
00000000: c7d1 3dbe 0847 6cbe d487 bcbd a984 093e
00000010: 93ea d23d fec8 97bd 8eb3 85be 456e 413e
00000020: fe59 693d b532 4a3e 5f29 3dbe d4aa 25be
00000030: e3df 0ebd 8abf 02be 8afa fc3d 00a1 93bd
00000040: 0bef d43d 3aa8 a4bd 5a2e 053e 2281 84be
00000050: 7bf3 febd ead1 4b3e bed1 3dbb 093e 423d
00000060: 95ca 7bbe 31e8 5d3e e405 a8bd 81b5 de3d
00000070: d044 023e dd76 edbd c46e 5fbe d0e5 9b3d
00000080: 0656 283e 9679 17be e994 06be 2741 64be
00000090: b4ff 0f3d 931f 2c3d 53b6 39be bc4e 2b3e
000000a0: d2bc 063e 217a bcbd 7db9 a2bd 81ac 233e
000000b0: 135a d1bd 4250 263e 85ae 46be 8b68 313e
000000c0: a558 183e 1199 3dbe 985b 0a3e ef04 623e
000000d0: 5337 313c d51f 203e 0758 423e 4d08 f43d
000000e0: efd2 42be 4359 99bd 620f 19be fd61 11be
000000f0: 6a88 103e 6266 103d 0732 143c cb00 f2bc
00000100: 36cb a7bd 41df 253c cbff 233d 26d3 2fbd
00000110: 3e7a 1e3d f941 a1bd 8614 943e dccc ff3d
00000120: 0873 613c 3b7e 0a3e 9398 483d 8254 8fbe
00000130: d08e 93be 1ba6 d73d c096 013d eff0 1abe
00000140: c395 c63d 85c2 353e 2704 713c 2e0c 693d
00000150: 9c14 a1bb 80e4 7bbc f825 f4bc 829c 553e
00000160: e210 8b3d 4d81 7c3e 8bb2 1fbe 9a5a a8bd
00000170: bcf7 43be e085 83be bbd9 30bd f523 04bd
00000180: a417 b0bd 263a 2e3e bbda 063e d322 5b3e
00000190: f52e 8b3d 8f8d 553e 3f58 a8bd 8193 a13c
000001a0: e7bd 4a3e 3842 a1b9 16d6 4ebe 34d4 473e
000001b0: 378e 353e 0484 24be c233 a53d 8d76 42be
000001c0: c16d b03d 25a5 2bbe 16d5 b1bc d670 af3d
000001d0: eb88 66be 611d 223e 0bc3 a0bd 303a 83bd
000001e0: 237c 1fbe 4df8 1d3e 58e2 903d 116e 63be
000001f0: 6ad9 8abe bc41 87be 0461 5c3e 52cc 57bd
00000200: 7d4d a33c c97b 763e 94c8 633e 55bd 3ebe
00000210: 498b 29be f5db f03d 4f8f 60bd a59b 6dbe
00000220: fb2f f9bc 7fad b83d 5fa9 bdbd 4387 4d3e
00000230: 546b 5ebe a9c2 bebd 061b 623e 7056 b5bd
00000240: 1a70 873e a0d0 94bd 65cf 223e ee58 4cbe
00000250: 0e11 3bbe 099e 45be 66e9 423d 14be 553d
00000260: 5c0b 1dbe 9c20 11be 1bd4 27bc c858 88bd
00000270: b173 473c d3ac 393d 04bf 723d 8d4e c73d
00000280: 85b1 783e bc8a d1bd d4f0 68be f498 983d
00000290: 0f49 483e 977f 033e e128 993d fa97 313e
000002a0: ba77 1c3d a8cf 3bbd 0f89 b6bd 8764 163e
000002b0: e03a 69bd 4e3f 7b3c 1f3d 1d3e 61a7 333a
000002c0: 9ecc 01be 5527 d33d aa6d 573d b07f 1e3e
000002d0: 980c 7f3d 105f 7fbc c98d 04bd 237a cabd
000002e0: 26d9 7ebd 8b31 07be 0e00 94bd 65d5 0d3d
000002f0: 9883 653e 0b49 33be c331 16bd 7228 6b3e
00000300: 59c8 2e3e 30a7 e13d 92fc 1abe 0c14 3a3e
00000310: bd6a 85be e273 8bbd 1a56 fa3d 1355 023e
00000320: 2e57 4e3e bd71 cdbd 56ba 30be 2285 01be
00000330: 0218 4b3d e021 82bd f4fb ec3c e6f0 613d
00000340: 9bef b23d da19 063e a19f be3d 6194 3e3e
00000350: 067b e6bd 7082 0cbe f172 86bd 75d8 2f3d
00000360: c55c 2f3e 4d88 583d 4a4e d53d 3ddf dbbd
00000370: bc8e 033c f8f2 4c3d ce01 00be 04b2 28be
00000380: 6e86 8f3e 6229 223e 6627 40be ab73 09bd
00000390: 0c40 b3ba 268e 383e eaae cbbd 92fd adbd
000003a0: 409d ebbd 217f 293e 0885 04be 4ee4 903c
000003b0: 3cad 203e dd2e ebbb c4ab 933e c416 0cbe
000003c0: 7f71 f13c 4c8a 9c3b 318c e33d 4400 443e
000003d0: a3f6 5c3e 777a 5ebe a572 0d3d ccc0 553e
000003e0: e154 c93d e501 24be 6ad0 aebd e092 12be
000003f0: d5a2 c5bd 2934 0abe f1d1 a23c 2f64 c83d
-0.18537055 -0.23073971 -0.09205595 0.13429512 0.10298648 -0.07411383 -0.26113552 0.1888972
0.05697059 0.19745906 -0.18472813 -0.16178447 -0.034881484 -0.12768379 0.12352474 -0.07208443
0.10397156 -0.08039899 0.13005963 -0.2587977 -0.12448784 0.19904295 -0.0028964127 0.047422443
-0.24588998 0.21670605 -0.082042485 0.10874463 0.12721562 -0.11594937 -0.21819597 0.07612193
0.16439065 -0.14792475 -0.13142742 -0.22290479 0.035155967 0.0420223 -0.18135957 0.16729254
0.13157967 -0.09202982 -0.07945535 0.15983774 -0.102222584 0.16241553 -0.19402511 0.17325036
0.14877565 -0.18515421 0.13511503 0.22072195 0.010816413 0.15637143 0.18978892 0.11915646
-0.19025777 -0.074877284 -0.14947274 -0.14197536 0.14114538 0.03525389 0.009045131 -0.029541394
-0.08193056 0.010124029 0.040038865 -0.042925976 0.038690798 -0.078739114 0.28921908 0.12490246
0.013760336 0.13524716 0.04897363 -0.27994162 -0.28819895 0.10529729 0.031637907 -0.15130971
0.096965335 0.17749985 0.014710463 0.05689638 -0.004915787 -0.015374303 -0.029803261 0.20860484
0.067903295 0.246587 -0.15595452 -0.08220406 -0.19137472 -0.25688076 -0.043176394 -0.032260854
-0.08598259 0.1701437 0.13169377 0.21400003 0.06796066 0.20854782 -0.082199566 0.019723656
0.19799004 -0.0003075765 -0.20198855 0.19514543 0.17730032 -0.16065985 0.08066513 -0.18990536
0.08614684 -0.16762216 -0.021708053 0.085664436 -0.22513168 0.1583152 -0.078497015 -0.06407583
-0.15574698 0.1542675 0.07074422 -0.22209956 -0.27119 -0.2641734 0.21521384 -0.05268509
0.01993441 0.24070658 0.22244483 -0.18626912 -0.1655704 0.117607035 -0.05482417 -0.23203905
-0.030418387 0.09017467 -0.092608206 0.2007113 -0.2172063 -0.09314472 0.22080621 -0.08854377
0.26452714 -0.072663546 0.15899427 -0.19955799 -0.18268225 -0.19298567 0.047585867 0.052183226
-0.15336365 -0.14172596 -0.010243441 -0.06657559 0.012173579 0.045330834 0.059264198 0.09731779
0.24286468 -0.102315396 -0.22748119 0.074510485 0.1955912 0.1284164 0.074785 0.1734313
0.038200118 -0.045852333 -0.089128606 0.14686786 -0.056940913 0.015334917 0.15355347 0.00068532495
-0.12675712 0.10310236 0.05259482 0.15478396 0.06226787 -0.0155866295 -0.03236178 -0.09886577
-0.062218808 -0.13202493 -0.07226573 0.034627337 0.2241348 -0.17508332 -0.03666855 0.22964647
0.17068614 0.110182166 -0.1513541 0.1817171 -0.26057997 -0.06809212 0.12223454 0.12727766
0.20150444 -0.100314595 -0.17258582 -0.12648442 0.049583443 -0.063541174 0.028928734 0.05516138
0.08737107 0.13095799 0.093077905 0.1861129 -0.112539336 -0.13721633 -0.06564892 0.04293104
0.17125233 0.05286436 0.10415323 -0.10735939 0.008029636 0.0500364 -0.12500688 -0.16474158
0.2803225 0.15836099 -0.1876503 -0.033557575 -0.0013675704 0.18022975 -0.099454716 -0.0849563
-0.115046024 0.16552402 -0.12941372 0.01768699 0.15691084 -0.0071772174 0.28841984 -0.1368056
0.029473064 0.0047772285 0.11110724 0.19140726 0.2157846 -0.21726404 0.03453316 0.20874327
0.098306425 -0.16016348 -0.085358456 -0.14313841 -0.09650198 -0.1349646 0.019875498 0.097847335

glu_encoder.rnn.bias_ih_l0 f4 [48]
00000000: 312f 3e3e e2fc 5dbe 628d 1fbd abab d63c
00000010: 0b4f 37be 81d0 86bd 942e 4d3c 8f45 cabd
00000020: 18d0 c13d f055 bc3d 7721 453c bb25 9cbd
00000030: b8bc a3bd 6ab1 d73d 168e 90bd db4b dcbd
00000040: 2b44 6c3e 6294 66be e0de 183e d19b 7abe
00000050: 2c12 2c3e 438a 33be b558 353e 469e b5bd
00000060: f1bd 453c fac9 353e a992 713d 9462 4a3e
00000070: 4c11 763c 59cf 4cbc 6306 e73d a1ff b8bd
00000080: 5d50 683e 1110 363e 06a0 0fbe 815a 38be
00000090: 055a 2bbe 1a95 1fbe 6ed2 2fbe 8e8b 27be
000000a0: 3afa 56bd 7f93 793e cd03 da3c ad89 06be
000000b0: d3f1 7f3d 5dfb 73be 54c8 93bd b575 cbbd
0.1857269 -0.21678498 -0.038953193 0.026204905 -0.17901246 -0.06582738 0.012523312 -0.098765485
0.09463519 0.09196079 0.012031904 -0.07624384 -0.079949796 0.10531886 -0.07058351 -0.10756656
0.23072879 -0.22517541 0.1492877 -0.24473502 0.16803807 -0.17533211 0.1770962 -0.08868079
0.012069211 0.17752829 0.058977757 0.19764167 0.015018772 -0.012500607 0.11280515 -0.09033132
0.22686906 0.17779566 -0.14025888 -0.18003275 -0.16733558 -0.15584221 -0.17170116 -0.1636183
-0.05248473 0.24372672 0.02661314 -0.13138457 0.06248648 -0.23826356 -0.07215944 -0.0993456

glu_encoder.rnn.bias_hh_l0 f4 [48]
00000000: f0c8 1ebd 6ff3 683e 288a 543e dd0d 89bd
00000010: ebbc 0dbe d878 debb f698 62be 4b11 23be
00000020: e85a 2fbd b960 e0bd f83f 293d 2f4c abbb
00000030: bd50 713e fdc2 29be cece 993d af4e f73d
00000040: 786b 75bd b665 2a3e b92e 603e 2c68 303e
00000050: c42f 74be 9380 c4bd ee8b e23d 8858 eb3d
00000060: 169b da3d 1ded 83be a57b 1a3e 7b88 463e
00000070: 6c23 373e c02e 6c3e c2b1 c63d 991c 423e
00000080: c7e0 b83d 172e 8abc d9f0 213e 3294 eb3d
00000090: 8e7a 7dbe 2469 f4bd e343 44be cd5c 0e3e
000000a0: 6a77 333e 9dfd 98bd 5658 9fbd 2853 37be
000000b0: a227 8bbe 2a65 60be d989 393d b512 26be
-0.038765848 0.22749113 0.20755827 -0.06692097 -0.13841598 -0.006789308 -0.22128662 -0.15924565
-0.042811304 -0.109559484 0.04132077 -0.0052275877 0.23565955 -0.16578288 0.07510148 0.120755546
-0.059916943 0.16640362 0.21892823 0.17227238 -0.23846346 -0.09594836 0.11061846 0.11491495
0.106741115 -0.2576684 0.15086229 0.19388 0.17884606 0.23064709 0.09701873 0.18956222
0.09027248 -0.01686768 0.15814532 0.115028754 -0.24753782 -0.119341165 -0.19166522 0.13902588
0.17526022 -0.07470248 -0.077805206 -0.17902815 -0.27178675 -0.21913591 0.045297477 -0.16218074

glu_encoder.hid2lat.weight f4 [64, 16]
00000000: 5e21 84be 0e52 26be 2c31 b3bd 1a18 1a3e
00000010: 18bd 243d f151 1c3e fcd2 13be 6b6a 1f3d
00000020: abf2 79bd 3be9 70be c4df 0bbe 7531 37bd
00000030: 837b 5b3e 8e27 22be 3b46 3ebe 4ef6 22be
00000040: 47e7 0b3e 8fb4 153e 33c0 65be 3847 c73d
00000050: 4e14 723e ef4e edbb 2bdf 4e3d 1086 adbd
00000060: c39f 273e 4fb3 2abd eded 31be 5c02 b5bd
00000070: 5d73 0d3e 1ddc cb3d 712d 4abe 4ca8 83bd
00000080: 4155 e8bd b24c 7dbc 6854 d3bc 21fe 823e
00000090: 9181 99bc 27e3 b63d fb51 783e 994d 5b3e
000000a0: 1e15 13bd 6233 803e 735f 45be d359 c63c
000000b0: 31da b53d 3557 dabd f23b f03d b2c9 4ebe
000000c0: 591f 253e a2fc e6bd efe5 713e 8515 9a3d
000000d0: 1dc7 e6bd 65ce 393e 8a62 b5ba b095 813e
000000e0: 5548 33be 7d98 b0bd 8c66 76be 018f 0c3d
000000f0: 7e4e a03c 6b23 bdbd b8ab cc3c 56f4 d2bd
00000100: 7c0c 603e d9e2 023e 11a3 5abe 1cdc 9b3c
00000110: 5297 473e 13bf 533e 24b4 4a3e f971 21bd
00000120: 53e2 e23d dfbc bebd 8b31 443e b9c7 8dbe
00000130: 3016 5dbe 6359 efbd 80c1 cebd 0139 523e
00000140: 2e0c efbd 5fba 2fbe c364 873e 34d3 7c3e
00000150: df6e 323d 2769 583e 7316 373e 168e 5fbe
00000160: 921f 8abd 8d0f 0a3e 41b5 f9bd f357 1c3e
00000170: c1b1 cebc c763 c7bd 15f9 01be eea1 c03d
00000180: 8eac 1f3d 3246 10be 49cb 8a3d d310 473e
00000190: b20c 873d 3b4e 36be 689d 0c3e 0994 4f3e
000001a0: a0ef dfbd 8361 0f3e 5279 713d 381a e13d
000001b0: 7e83 c2bd 0642 c9bc c7f5 15be d555 7abd
000001c0: e790 f3bd dff6 dd3d e20c 3c3e 72ac bbbd
000001d0: d413 05bd ce73 20be 8d1f d2bd 9cfc 1d3d
000001e0: aab2 e4bd 657b ecbd becc 87be 5633 113e
000001f0: 4016 4b3e 8b9b 193e 5df4 ff3d 98b7 5b3e
00000200: 540e 393d 147a aabd febd 1ebe 0e07 643e
00000210: 11fd 283e 90ba 44be 23c0 3cbe e11a 43be
00000220: 6048 5bbd 9a9c 1b3e 186b 383e fc3f 55be
00000230: c651 c93c 337a 5e3e 46d1 1dbe f45d 5c3d
00000240: 1faf f23c e8fb 63be 4781 c63d a2b5 223d
00000250: e563 483d 8bc9 373e 8077 f2bd 4e80 ac3d
00000260: 3653 27be fc84 ebbd 0ff5 2dbd 2a06 d53d
00000270: 33de aabd aa1c b53d b088 a93d 4984 1e3e
00000280: 06f6 023e bc7a 4abe 8d49 b33d 4aa0 8a3e
00000290: 1eb1 243e 6e84 1e3e e8bd a03d a166 ccbc
000002a0: 5575 133e 174c bbbc 5ca3 0fbe cce9 03be
000002b0: b759 21be 968e 4abc e789 663e 77a7 9cbd
000002c0: 95df 09be 458b 24be 1a24 32be 6e77 9f3b
000002d0: 5bff dd3d 29b1 4dbd ad80 333d 261a 06be
000002e0: 82f2 65be 3a28 583e 5192 0b3e 39fb e53c
000002f0: cdbf 76be e435 1c3d b608 81be 5d21 14be
00000300: cf03 5b3d 559a b5bd ad72 163e 5ea0 3d3e
00000310: 1df6 11be 8299 45bd d9b2 80bd 61ce 253e
00000320: e358 823e 6434 5b3e de45 613d 9d02 443e
00000330: 52e5 143e 7167 63be eb36 093e f60f 18be
00000340: 8db4 c1bd 0fe8 6d3d d3ad 98bd 142a 53be
00000350: e15b 5fbe 9e5e 2cbe 715e 80be 05c9 143e
00000360: 53b8 613e efd3 24be b1ea 223e b6b1 223e
00000370: ece9 90bd 7a10 343c 51c5 65be 75f8 5f3e
00000380: 8578 323e 7293 9bbd 159b e03d 5cfd 8e3b
00000390: 823b 1a3c c876 0a3e 109a 5d3d 327c 8cbe
000003a0: b321 89be 8d99 edbc 8ca7 88be 9626 3c3d
000003b0: def0 893c 7842 003d ea7b 82be df80 273e
000003c0: 7b2a 4abe 2bd5 ad3d d7e9 bebb b0eb 38be
000003d0: 5148 363d f338 5a3e 3e36 b5bc e2d1 d43d
000003e0: d04b ebbd dce9 4fbc 3836 f53d 467a 3cbe
000003f0: 26f9 e3bc 5234 d53b e9f2 b9bb 3bcb 26bd
-0.25806707 -0.16242239 -0.08749613 0.15048257 0.040219396 0.15265633 -0.14435953 0.038919847
-0.06102244 -0.2352647 -0.13659579 -0.0447249 0.21433835 -0.15835401 -0.18581478 -0.1591427
0.13662444 0.14619659 -0.224366 0.09730381 0.23640558 -0.0072420756 0.0505058 -0.08472836
0.16369538 -0.04167491 -0.17375918 -0.08838341 0.13813539 0.09954093 -0.19743897 -0.064285845
-0.11344386 -0.01546018 -0.025797084 0.2558451 -0.01873854 0.089300446 0.24250023 0.2141632
-0.03590881 0.25039202 -0.19274692 0.024212753 0.08879507 -0.10661165 0.11730184 -0.20194128
0.1612524 -0.11278655 0.23622869 0.07523636 -0.112684466 0.1814514 -0.0013838571 0.25309515
-0.17508061 -0.08622835 -0.24062556 0.034316067 0.019568678 -0.09235271 0.024984226 -0.1030051
0.21879762 0.12781848 -0.21351267 0.019025855 0.19491318 0.20678358 0.1979528 -0.039415333
0.11078324 -0.09313368 0.19159524 -0.2769144 -0.21590495 -0.11686971 -0.10095501 0.20529558
-0.11672245 -0.17160939 0.26444063 0.24689943 0.043562766 0.21133862 0.17879657 -0.21831545
-0.06744303 0.13482495 -0.121927746 0.15267925 -0.025231244 -0.09735828 -0.12692674 0.09405886
0.03898292 -0.14089277 0.06777055 0.19440012 0.06594218 -0.1780328 0.1373192 0.20271315
-0.10934377 0.14002042 0.05895359 0.10991329 -0.094977364 -0.024567615 -0.14644538 -0.061117012
-0.11892872 0.108381025 0.1836429 -0.09163751 -0.032489613 -0.15669176 -0.10259924 0.038570985
-0.1116689 -0.11546973 -0.26523393 0.1417974 0.19832706 0.15000741 0.124977805 0.21456754
0.04517968 -0.08324066 -0.15502164 0.22268316 0.16502787 -0.19211793 -0.1843267 -0.19053222
-0.05353582 0.15196458 0.18009603 -0.2082519 0.024575125 0.21726303 -0.15411863 0.05380054
0.02962452 -0.22264063 0.096926264 0.039724 0.04892339 0.17947976 -0.11839199 0.0842291
-0.16340336 -0.11499974 -0.042470034 0.10401566 -0.083431624 0.08843358 0.08278024 0.1548015
0.12789163 -0.19773382 0.08754263 0.27075416 0.1608319 0.15480205 0.07848722 -0.024951281
0.14400227 -0.02286343 -0.1402716 -0.12882155 -0.1575688 -0.012363097 0.22513543 -0.07649129
-0.13464196 -0.16068752 -0.17396584 0.004866532 0.10839721 -0.05021778 0.043823887 -0.13095912
-0.2245579 0.21109095 0.13630034 0.028073894 -0.24096604 0.03813733 -0.25201958 -0.14465852
0.05347043 -0.08867327 0.14692183 0.18518206 -0.14254041 -0.0482421 -0.062841125 0.16192009
0.2545844 0.21406704 0.05499827 0.19141622 0.14540604 -0.22207429 0.13399856 -0.14849839
-0.094582655 0.058082636 -0.07455029 -0.2062152 -0.21812393 -0.16832969 -0.25072053 0.14529808
0.2204297 -0.16096471 0.1590984 0.15888104 -0.07075867 0.010990256 -0.22438551 0.21872123
0.17428787 -0.07596482 0.109670796 0.004363699 0.009413602 0.13521874 0.054102004 -0.27438504
-0.26783523 -0.029003883 -0.26690328 0.045935236 0.016838487 0.03131339 -0.25485164 0.16357754
-0.19742768 0.08487924 -0.0058262157 -0.18058658 0.04450256 0.21310787 -0.022120591 0.103915945
-0.114890695 -0.012690034 0.11973232 -0.18406019 -0.027828764 0.006506481 -0.005674709 -0.04072116

glu_encoder.hid2lat.bias f4 [64]
00000000: 51f6 ba3c cc00 94bd 71f8 40be 8ba5 063d
00000010: 7203 523d 3978 0d3d 5d2b 453e 5902 b2bd
00000020: c2b0 af3c c954 083e 9812 753e 65c7 dc3d
00000030: ce5d 753c 5a91 c4bb 0706 2abc 34fb 47be
00000040: 52a6 2fbd 62f1 7d3d 2640 033c 8f96 633e
00000050: 4829 9cbd ce65 473e 07d7 e93d 1dff 9d3d
00000060: a99b 203e 7fa4 b63d 61b2 8d3d c2f8 c03c
00000070: 4d90 1dbe 5132 5d3e ca58 1fbe 72f4 1bbd
00000080: 9164 72be 6dcc 84be ef6f 3d3e 54a8 f4bd
00000090: 8be3 663e 7c97 53bd 189e 57be 45f6 e0bd
000000a0: 1192 20bd 1569 cf3b fbf7 113e 700d 823c
000000b0: bad0 883e e190 043e c2b1 e33d b1ed 4f3e
000000c0: 64f3 27be d0be 803c 6874 4e3e 387f 5e3e
000000d0: c065 8c3c 2413 cfbd c655 463d 996e 76bd
000000e0: 387a 84be 7d01 48be 17c1 7fbe 9c67 55bd
000000f0: caae 5abe e61b f7bc 1d0f 283d 8453 393e
0.022822531 -0.072267145 -0.18844773 0.032872718 0.051272817 0.03453848 0.19254823 -0.08691854
0.02144659 0.13313593 0.23932874 0.10780219 0.014975978 -0.0059987726 -0.010377414 -0.1952942
-0.042883225 0.06199778 0.0080109 0.22225402 -0.07625061 0.19472429 0.11417966 0.077146746
0.1568438 0.08918094 0.06918789 0.023556117 -0.15387078 0.21601225 -0.15561214 -0.038074918
-0.23671176 -0.25937214 0.1849973 -0.119461685 0.22547738 -0.05165814 -0.21056402 -0.10984472
-0.0392018 0.0063296654 0.14254753 0.015875548 0.26721746 0.12945892 0.11117889 0.20305516
-0.1640144 0.015715986 0.20161593 0.21728218 0.017138362 -0.10111073 0.048421644 -0.060164068
-0.25874496 -0.19531818 -0.24976002 -0.052100763 -0.21355739 -0.03016467 0.04103004 0.18098265

encoders.weight_ih_l0 f4 [192, 64]
00000000: be32 8fbd 702e ffbd 06d1 8ebd 79a2 283e
00000010: 8221 093d cc7e 7e3d 7795 b93d 3440 d13c
00000020: 25a6 863d dce3 4cbd 2970 113e 3004 dabd
00000030: 52a1 94bd 999f 1dbd d2d6 bebd 1b25 663d
00000040: aa2c 383d 4051 343d de0b a0bd 5712 e13d
00000050: ede0 0e3e ad16 52bd 2030 4c3d baab dc3c
00000060: 8b64 3c3d ba94 243e 4b22 f8bd d202 cbbd
00000070: dc94 17be 5529 5ebd a8f1 ba3d de85 89bd
00000080: dedd 4fbd 715f 283d 8cba d53a 2505 81bd
00000090: eb66 24be afb8 94bd e420 ebbd f8f1 f03d
000000a0: 7377 e3bb ea29 49bc b0b6 533d ca04 283e
000000b0: 8a27 39bd 6a22 b93d ddf5 7cbd 8aaf 5fbd
000000c0: 576e 1dbe 2ef1 d1bd 2c70 c0bd c837 a4bd
000000d0: db42 9f3d 25b9 d43d 96b2 543d a699 0cbe
000000e0: 9b15 7dbd 093e 72bc f6fd 18be 3a32 2cbe
000000f0: a4e3 95bd 4cc0 7f3d ea44 c4bc f360 083e
00000100: 2434 33bd 1d7e e73c b38a a9bd ee6e a9bd
00000110: 7de2 9bbd 0897 b83d 5418 9e3d 184c cd3c
00000120: 8b46 22bc 6a41 c0bd b783 ca3c d605 61bd
00000130: c24c 033d 3368 57bd bd16 1bbd 5ea9 2dbd
00000140: 025e 153d 3b51 e1bd f7fb d6bd 7217 853d
00000150: 393f c73d 8a89 dd3d ffee c93d 5ae5 b6bd
00000160: aa2b c83d e37a a33d 252e 8c3d f3a8 67bd
00000170: d0d9 f13d 7e9f b93c fcb7 593c 05aa c8bd
00000180: 565a d5bd c3ea a7bd 561f 0b3d 2eca 9b3d
00000190: 3248 a53d 578b df3d a19e c1bc 5d94 a4bd
000001a0: 0f2a 3c3d 6540 3cbd 3874 b5bc 3311 1f3c
000001b0: 04fc f33d b45d 68bd a6ba 923d 3365 2ebd
000001c0: 961f f7bd 967b 633d fe7d 13bd 9157 cf3d
000001d0: 5bbd 8e3d a042 adbd 536e bcbd fa8f fdbd
000001e0: 7b1a 04bc 068c d13c 2fc0 d2bd 3743 babc
000001f0: aa10 c03d 46fe 08bd 93e2 afbb 33d6 21bd
00000200: a1d1 60bd da9f 4ebd 9449 42bd a663 1fbd
00000210: 3661 0abd 3018 6ebb 3066 82bd c6c9 81bc
00000220: b186 10be 6801 37bd 082e 62bd c940 5dbd
00000230: b19c 023e 2531 6abc 5b13 703c 9361 68bd
00000240: 55ba 573d c38c e33d 86a6 d23d 0c65 42bd
00000250: 6bb2 01bc fc16 a2bd cc73 0f3e 1d7d 92bd
00000260: a5c5 5b3c d0e6 cc3d 6c7d 9dbc 88c9 8bbd
00000270: bad5 753d c541 313d d8f8 613d 3455 8f3c
00000280: 8687 0abe 319d bfbd 0797 073e c53b 3d3d
00000290: d215 97bd 7ca2 7c3d bf95 f1bd 0ce6 ab3d
000002a0: c384 c1bc ec7b f5bc 1a33 00bd f12f a3bc
000002b0: 9c6c e03d d86a 993d cfd1 cf3c 4ce3 a6bd
000002c0: 15cc 95bc d7de 30bd 6153 17bd 7245 733c
000002d0: 8341 6cbd 5b67 97bd 2fbc fdbc c9be 1fbb
000002e0: 1c1f a53b 0901 1abd b3ff 0abe 891e 0abe
000002f0: 5072 4ebd fd53 97bd 9fde edbd 0840 6a3d
00000300: 44e7 073c 22e5 9a3d 0f67 113e 2cad 8a3c
00000310: 1102 fb3d 9f09 c8bd 16d7 0b3e 2d87 e9bd
00000320: 8fa5 97bd 4f71 bdbb b29d a03d a5b0 dcbd
00000330: 8d14 0b3e 6e23 ff3c 19a8 89bd a941 603d
00000340: bab6 f33a b972 2d3d e259 81bc 1c5f 94bd
00000350: c72e fc3d ef93 353d 9cb8 c9bd f226 9bbd
00000360: 8ff8 803d 11fa 413d 2a80 863c d586 13be
00000370: 03d3 843b 9cd4 81bd ef61 643d 2d86 12be
00000380: 059f 27bd 6bbd ca3d e0a1 eebc 47fe cabc
00000390: 61d4 2fbd 3a3d eebc c4b9 af3d a6dd 59bd
000003a0: 1f4a 76bd cd98 903d c53d 983d 7db9 053d
000003b0: 9fbe f53d e58d 603d 653f 28bc 00a4 063d
000003c0: 3058 b03d 337c 653d 2e3d b0bd 3597 77bd
000003d0: 2f99 50bc 0b1a bb3d 455c 98bd 4f54 a63c
000003e0: 32cf 6d3d f7ba 48bd 2e60 3f3d 537f 823b
000003f0: c949 dfbd bd3a bb3d d44d fcbd 947b 153e
-0.069921 -0.12460029 -0.06973462 0.16468228 0.03347922 0.06213264 0.09061711 0.02554331
0.06574658 -0.05002199 0.14202942 -0.1064533 -0.07257332 -0.038482282 -0.093183175 0.05618773
0.04496447 0.0440228 -0.078147635 0.10989826 0.1395299 -0.051291157 0.049850583 0.026937354
0.045994323 0.1607236 -0.12115916 -0.09912647 -0.14802879 -0.054238636 0.091281235 -0.06714986
-0.0507487 0.041106645 0.0016306206 -0.06299809 -0.16054885 -0.07261788 -0.11480883 0.11764902
-0.0069417297 -0.0122780595 0.051687896 0.16408077 -0.045203723 0.09039767 -0.06175791 -0.054610766
-0.15374123 -0.102510795 -0.09396395 -0.08018452 0.077764235 0.10386876 0.051928125 -0.13730487
-0.061788183 -0.014785298 -0.14940628 -0.16816035 -0.0731881 0.062439248 -0.023958642 0.13318233
-0.043750897 0.028258378 -0.08278408 -0.08273111 -0.076115586 0.09013182 0.07719484 0.025060698
-0.009904514 -0.09387477 0.02472101 -0.054937206 0.032055624 -0.052589606 -0.03786348 -0.04239785
0.036466606 -0.110018216 -0.10497277 0.064986125 0.09728856 0.10817249 0.09860038 -0.08930464
0.09773953 0.07982423 0.06844739 -0.056557607 0.118091226 0.02265906 0.013288494 -0.09798054
-0.10417621 -0.08199074 0.03396543 0.07606922 0.08070411 0.10915249 -0.02363521 -0.080361106
0.045938548 -0.04595985 -0.022150144 0.00970869 0.119133025 -0.056729987 0.071645066 -0.04257698
-0.120665714 0.055537783 -0.036008827 0.10124124 0.069697104 -0.08459973 -0.0920073 -0.12380977
-0.008062954 0.025579464 -0.10290562 -0.022737129 0.093781784 -0.03344562 -0.005367586 -0.039510917
-0.054887418 -0.050445415 -0.04743345 -0.03891339 -0.033784114 -0.0036330335 -0.06367147 -0.015843283
-0.1411388 -0.044679075 -0.05521968 -0.054016862 0.12755086 -0.0142939435 0.014653052 -0.05673368
0.052667934 0.111108325 0.10285668 -0.047459647 -0.007916073 -0.0791454 0.14009017 -0.0715277
0.013413821 0.100049615 -0.019224845 -0.068255484 0.06001828 0.043275613 0.055168957 0.017496683
-0.1352826 -0.09356154 0.13241206 0.04619958 -0.07377209 0.061678395 -0.1179614 0.08393487
-0.023622876 -0.029966317 -0.031298734 -0.019920321 0.109582156 0.07491082 0.0253686 -0.08148822
-0.01828579 -0.043181267 -0.03694475 0.0148481 -0.057679664 -0.0739276 -0.030973522 -0.0024375191
0.005039109 -0.037598643 -0.13574104 -0.1348821 -0.050401986 -0.07389066 -0.11614727 0.05718997
0.008294884 0.07563235 0.1419947 0.016928278 0.122562535 -0.0976746 0.13656268 -0.11402736
-0.07404625 -0.0057813297 0.07842578 -0.1077588 0.13582058 0.031144824 -0.06721515 0.05475012
0.0018593885 0.042345736 -0.01578993 -0.07244703 0.123136096 0.044330534 -0.098496646 -0.075757876
0.06297409 0.047357623 0.016418535 -0.14406903 0.004053475 -0.0633938 0.05575746 -0.14308996
-0.040923137 0.0989941 -0.029129922 -0.024779452 -0.04292715 -0.02908193 0.08580354 -0.053189896
-0.06012928 0.070603944 0.074336566 0.0326476 0.11999249 0.05482282 -0.010269021 0.032871246
0.086105704 0.05602665 -0.08605419 -0.060446937 -0.012731834 0.09135827 -0.07439474 0.020303873
0.058058925 -0.04900643 0.046722583 0.0039824634 -0.10902745 0.09142063 -0.12319532 0.14597923
