code/baseline/saved/GAMNet_learning_rate_0.0001_hidden_size_64_epoch_6000_batch_size_32/Epoch_1950_JA_0.6807_DDI_0.0973.model (torch, 455805 bytes, 29 tensors)

lab_embeddings f4 [32, 64]
0.3087232 0.12584203 -0.7263883 -1.6468912 -0.66954887 -1.4865483 1.169995 0.48928973
0.72177666 0.5435476 -1.7377803 -1.3617026 0.50409824 -0.43996295 0.66116315 1.9447597
0.6694964 0.18195292 0.36177942 0.4792424 0.23662242 -0.7836879 -1.0970296 -0.94477254
-0.64268374 -1.02206 0.7044489 -2.3347528 -0.36668733 0.8207712 1.4248191 0.38336554
-2.1783905 1.7059155 -0.2515909 -1.8955815 -0.4411375 -0.6244179 -1.1314329 -0.91398335
0.49877456 0.41651493 0.96626186 -0.4414303 0.37222767 0.89220697 2.2421799 0.54582477
-0.31159475 -0.39878464 0.26816192 -0.5149421 -0.7672239 0.19454351 -0.62943035 0.7567126
-0.27195066 -0.2151985 2.518063 -0.5726455 0.06586862 0.3400735 1.8272682 0.03830442
-0.15712754 -0.6339198 -0.41925567 -0.08807597 0.21100084 0.5753994 1.860397 0.29755855
-1.0461538 -1.2713332 -1.2998259 0.057738025 -1.5059628 -1.0903379 0.8516576 -0.9230334
-0.16171815 0.5743145 1.4676714 1.1973106 0.38649255 -0.51663417 0.18869165 2.3048165
-0.028468458 1.0233842 0.35425884 0.959156 0.042104427 1.8513628 0.86211985 0.11688551
-0.7797318 -1.4112127 -0.5102163 0.519484 1.2686492 -0.29772374 0.19133033 0.3441485
0.4320388 -1.1921682 0.7184935 0.67422605 1.5913922 -0.25911567 -1.9451786 -0.6275805
0.68551147 -1.62985 0.76177 0.5922379 0.55293906 -0.46687692 -1.2267997 -0.7654314
-1.9476051 3.297547 0.1840482 0.39128807 0.70289147 0.9506319 -2.1836941 1.3826541
-0.87641907 -0.2641675 1.6231264 -0.18191105 0.25032324 -1.0016336 -0.97598255 -0.74742836
-0.84067804 0.903687 -0.015644604 1.2186171 -0.3231707 0.5905365 -0.4720044 2.1317642
-0.81377107 0.21280068 0.80231416 -0.38077828 -0.79821765 0.54681164 1.5349308 -0.0058557154
-1.3627281 -0.22267208 -0.6159626 -0.7752191 0.368154 -0.26596007 -0.15255173 0.7565929
-0.80968183 1.4016085 0.3293321 0.51864094 0.7375542 0.35929435 0.0071397563 1.4393308
2.013939 -0.21279845 0.41333532 -0.19413939 1.2544575 -0.2986517 -0.42989573 -0.69008964
-0.37255853 0.30139604 -1.0320921 0.35624442 -1.4023801 0.3573889 0.070638925 -1.7188861
-0.021163838 0.8238154 0.26108003 -0.048451483 0.3916213 -1.3720393 -0.8722129 -0.51918656
-0.050435018 -0.6340619 0.9082617 -1.0770596 -0.11673454 -2.0082924 -1.4507946 0.16290127
0.26126623 1.2008814 -0.45224857 -1.0269119 0.8509058 1.9702858 0.23004287 -0.09463396
0.25568542 0.58717114 -0.28093988 0.055161767 0.2546514 -1.3514667 -2.5048203 -0.38534975
-0.6114301 -0.0658328 2.2461073 -1.7729167 0.5685044 0.050177764 -0.28541005 0.403136
0.23744261 1.2278228 0.9678467 -1.2590208 0.5248279 -0.053305525 1.9277544 -2.0788283
0.75578934 0.31095022 -0.045361016 -0.39908063 -0.7637973 0.5959303 -1.1871272 0.83321565
-0.6466369 -1.294428 0.5111041 0.90244615 1.3601508 0.4905522 -1.8824034 0.726782
0.6233611 1.4301131 -0.9001107 0.7078594 1.1217012 -0.21021377 0.644463 2.1798155
00000000: f810 9e3e bcdc 003e 95f4 39bf 55cd d2bf
00000010: 8e67 2bbf 3747 bebf 65c2 953f 2f84 fa3e
00000020: 5bc6 383f ef25 0b3f 966f debf 454c aebf
00000030: 950c 013f d342 e1be fd41 293f e3ed f83f
00000040: 1e64 2b3f de51 3a3e 273b b93e 435f f53e
00000050: 264d 723e c59f 48bf 776b 8cbf 9ddc 71bf
00000060: ec86 24bf ddd2 82bf c356 343f 976c 15c0
00000070: 71be bbbe 101e 523f 7960 b63f 7d48 c43e
00000080: c06a 0bc0 705b da3f 86d0 80be 6aa2 f2bf
00000090: c6dc e1be dad9 1fbf cbd2 90bf d0fa 69bf
000000a0: 615f ff3e 7241 d53e f05c 773f 2703 e2be
000000b0: a094 be3e ad67 643f e07f 0f40 2cbb 0b3f
000000c0: 5989 9fbe 802d ccbe 854c 893e 3fd3 03bf
000000d0: c968 44bf 6a36 473e 5922 21bf ebb7 413f
000000e0: 1e3d 8bbe ff5c 5cbe f227 2140 e598 12bf
000000f0: 21e6 863d 1d1e ae3e ede3 e93f 18e5 1c3d
00000100: 0be6 20be 9148 22bf aea8 d6be 2d61 b4bd
00000110: 9b10 583e 604d 133f 7d21 ee3f 9859 983e
00000120: 5ee8 85bf 0cbb a2bf b260 a6bf b57e 6c3d
00000130: 64c3 c0bf 3190 8bbf 3c06 5a3f eb4b 6cbf
00000140: 7199 25be 4606 133f a8dc bb3f 7941 993f
00000150: 5ae2 c53e 2342 04bf 6238 413e 1d82 1340
00000160: af36 e9bc 41fe 823f 6a61 b53e 3f8b 753f
00000170: b175 2c3d 75f9 ec3f e3b3 5c3f ac61 ef3d
00000180: 819c 47bf 9ea2 b4bf 899d 02bf e7fc 043f
00000190: 1963 a23f 3f6f 98be 19ec 433e 3b34 b03e
000001a0: 3134 dd3e f898 98bf 31ef 373f 149a 2c3f
000001b0: bdb2 cb3f cfaa 84be 9dfb f8bf 1ea9 20bf
000001c0: ae7d 2f3f ed9e d0bf 5c03 433f e79c 173f
000001d0: 6a8d 0d3f 7e0a efbe c607 9dbf 50f3 43bf
000001e0: 204b f9bf 030b 5340 2277 3c3e e956 c83e
000001f0: b2f0 333f 9d5c 733f a5c1 0bc0 cffa b03f
00000200: 005d 60bf f640 87be 9bc2 cf3f e446 3abe
00000210: 5e2a 803e 8835 80bf fed9 79bf 7757 3fbf
00000220: ad36 57bf 0858 673f 1d29 80bc a5fb 9b3f
00000230: a176 a5be 662d 173f 90aa f1be d36e 0840
00000240: 4d53 50bf 6ce8 593e 7664 4d3f 5ff5 c2be
00000250: fe57 4cbf d9fb 0b3f 9d78 c43f 4de1 bfbb
00000260: e06d aebf 2604 64be baaf 1dbf c274 46bf
00000270: ae7e bc3e eb2b 88be 8536 1cbe 13b0 413f
00000280: 4f47 4fbf e867 b33f 389e a83e a7c5 043f
00000290: 5ad0 3c3f 6ef5 b73e 9ef4 e93b fe3b b83f
000002a0: 60e4 0040 d6e7 59be b0a0 d33e 7acc 46be
000002b0: 1092 a03f e0e8 98be 4b1b dcbe b7a9 30bf
000002c0: febf bebe 9550 9a3e 981b 84bf ab65 b63e
000002d0: 3181 b3bf aefb b63e 24ab 903d 7604 dcbf
000002e0: c95f adbc 91e5 523f 48ac 853e 1075 46bd
000002f0: 9682 c83e fc9e afbf 5849 5fbf 69e9 04bf
00000300: f394 4ebd e151 22bf d783 683f 17dd 89bf
00000310: 8512 efbd dd87 00c0 a3b3 b9bf 97cf 263e
00000320: b0c4 853e 7bb6 993f 208d e7be d971 83bf
00000330: f6d4 593f 5332 fc3f 5c90 6b3e 73cf c1bd
00000340: 33e9 823e d950 163f 5ad7 8fbe 4ef1 613d
00000350: ab61 823e dcfc acbf fa4e 20c0 904c c5be
00000360: af86 1cbf 59d3 86bd 39c0 0f40 efee e2bf
00000370: 8189 113f 3387 4d3d 4421 92be d767 ce3e
00000380: 2824 733e 4c29 9d3f cdc4 773f 9827 a1bf
00000390: 1f5b 063f e556 5abd a8c0 f63f 860b 05c0
000003a0: 697b 413f de34 9f3e 79cc 39bd 4c54 ccbe
000003b0: 3888 43bf e38e 183f c9f3 97bf 9f4d 553f
000003c0: ff89 25bf d1af a5bf b8d7 023f b606 673f
000003d0: 6c19 ae3f a829 fb3e 98f2 f0bf 630e 3a3f
000003e0: 9894 1f3f f20d b73f a86d 66bf 4636 353f
000003f0: e893 8f3f 4742 57be 87fb 243f 1982 0b40

static_ll.0.weight f4 [128, 64]
0.11038323 -0.090288125 -0.112371914 -0.12844637 0.06958028 -0.06555115 -0.12216627 0.028953712
0.06706862 -0.064740464 -0.03842156 -0.06797683 0.15890257 -0.05529811 0.01065397 -0.08537993
-0.13467294 0.10311589 -0.06315086 -0.11709083 -0.041090067 -0.07314639 -0.13940088 -0.10623889
0.10667909 -0.015656874 0.05183634 -0.1044607 0.059508212 -0.071868725 0.0748757 0.12179739
0.100354254 0.09818586 -0.007005896 -0.12061687 0.04748349 0.063059635 0.0419112 -0.042708132
0.011448884 0.07465154 0.07237845 0.035381578 -0.07158705 0.062405072 -0.04649982 -0.06880238
-0.049107015 -0.12690325 0.13425153 0.14295343 0.04371621 -0.016813392 -0.049053676 -0.12771279
0.017509189 0.0065461947 -0.03969539 0.035137508 -0.13368228 -0.10809227 -0.034867283 -0.02075713
-0.0051605804 0.11471965 -0.10253863 0.10605711 -0.026149424 -0.08752973 0.09127046 -0.0689637
-0.084566 0.050814647 -0.037304837 0.0905311 -0.057897896 0.008528624 0.050041094 -0.0833132
-0.1038671 -0.092414215 0.0031255817 0.10147048 0.09528815 0.06554131 0.054412942 0.015384161
0.089854784 0.043001425 0.09483498 0.13064581 0.10738013 0.1278998 0.020234695 -0.12401664
-0.11456768 -0.11014426 0.04104228 -0.04702238 -0.04283903 0.1169237 -0.067449994 0.120870955
-0.060414135 -0.09374323 0.12566516 -0.11582038 -0.080341086 -0.011297575 -0.029578151 -0.034614883
-0.060116094 0.03026497 0.14084104 0.012744583 -0.12832755 -0.02170786 -0.08712807 0.015890822
-0.079416245 0.12916146 -0.010989757 0.093514666 -0.012518323 0.07728281 -0.124948874 0.104067184
0.083619446 -0.0067829858 -0.009759112 0.0051199575 0.09272377 -0.14594547 -0.105621666 -0.021735337
-0.08743062 -0.027860438 -0.08356948 -0.13088945 -0.00779759 -0.090542704 -0.09954616 -0.01852288
-0.07803089 0.109071665 -0.042003926 -0.11258438 0.061731756 -0.054766964 -0.031328093 0.03541534
-0.061654244 -0.105614826 -0.09156646 -0.058663674 -0.07397902 0.074003235 0.056156266 -0.025736962
-0.1317572 0.078978166 0.021462742 0.027893301 0.049727116 -0.008060674 0.037973784 -0.012910109
-0.023878839 -0.088973835 0.08796199 -0.06411861 0.1352437 0.10577342 0.12431944 -0.04986376
-0.09796367 -0.021432549 0.09510087 0.079640605 -0.010894241 0.11431594 0.0904129 -0.038173646
0.011120144 0.00013314128 0.019937491 -0.079567395 0.13073838 0.088116124 0.022751683 -0.07091246
-0.09891101 -0.058339935 -0.028059624 -0.025094222 0.123005696 0.1089811 -0.12935518 0.07364309
-0.09378615 0.09133313 0.06268229 -0.0015412676 0.08856102 0.056409054 0.038641512 0.04663333
0.0851394 -0.012829522 -0.00536183 0.05326879 0.09437309 0.09264295 -0.036259748 -0.045692742
0.09332616 -0.024895122 -0.14124356 0.026531106 0.02316701 -0.018021641 0.014166731 0.060317047
0.014400813 -0.08497262 -0.013710749 0.055568166 -0.032200687 -0.07097211 -0.11134641 0.0436218
0.11607995 -0.14349568 -0.10495701 0.09940836 -0.04185568 -0.059252672 0.09795603 -0.09776832
0.014770506 0.048007235 -0.1355463 -0.027729305 0.12975813 -0.09050965 -0.025510339 -0.06715904
0.01949336 -0.05914532 0.004491046 -0.07697796 -0.07681567 -0.08523329 -0.06099512 -0.018318806
00000000: 9a10 e23d fbe8 b8bd 3f23 e6bd 7287 03be
00000010: 1b80 8e3d ae3f 86bd 4f32 fabd 5630 ed3c
00000020: 465b 893d a696 84bd ed5f 1dbd 7037 8bbd
00000030: 5bb7 223e 4580 62bd fd8d 2e3c acdb aebd
00000040: b4e7 09be 6c2e d33d 3d55 81bd 51cd efbd
00000050: 0f4e 28bd c6cd 95bd 1bbf 0ebe c693 d9bd
00000060: 917a da3d d842 80bc 5852 543d 7eef d5bd
00000070: e2be 733d e92f 93bd 6e58 993d e970 f93d
00000080: 8886 cd3d ab15 c93d b791 e5bb fa05 f7bd
00000090: 0c7e 423d 6925 813d 14ab 2b3d b9ee 2ebd
000000a0: 1a94 3b3c e8e2 983d 273b 943d 46ec 103d
000000b0: 3b9c 92bd 769c 7f3d 9876 3ebd 43e8 8cbd
000000c0: 7024 49bd edf2 01be 3c79 093e 6262 123e
000000d0: c50f 333d 3dbc 89bc 82ec 48bd 24c7 02be
000000e0: 6e6f 8f3c 7681 d63b a297 22bd 59ec 0f3d
000000f0: 02e4 08be 7b5f ddbd ffd0 0ebd db0a aabc
00000100: 161a a9bb 23f2 ea3d c6ff d1bd 7834 d93d
00000110: 5137 d6bc c942 b3bd 02ec ba3d d73c 8dbd
00000120: f030 adbd 0523 503d f5cc 18bd 5f68 b93d
00000130: 5826 6dbd a4bb 0b3c e4f7 4c3d 1ca0 aabd
00000140: 46b8 d4bd aa43 bdbd 8fd6 4c3b c1cf cf3d
00000150: 6f26 c33d 863a 863d 1be0 5e3d d90d 7c3c
00000160: c905 b83d 4322 303d d838 c23d 04c8 053e
00000170: 1dea db3d 2af8 023e 3bc3 a53c 70fc fdbd
00000180: 76a2 eabd 5093 e1bd f31b 283d 8a9a 40bd
00000190: fb77 2fbd b175 ef3d 3923 8abd 318b f73d
000001a0: d074 77bd 73fc bfbd 5eae 003e 3c33 edbd
000001b0: de89 a4bd 7719 39bc e14d f2bc 56c8 0dbd
000001c0: 4b3c 76bd 3eee f73c a238 103e a8ce 503c
000001d0: 4c68 03be afd4 b1bc 3470 b2bd 782d 823c
000001e0: fca4 a2bd e742 043e 620e 34bc 9e84 bf3d
000001f0: a719 4dbc 7346 9e3d 32e5 ffbd 2d21 d53d
00000200: ac40 ab3d cf43 debb afe4 1fbc 51c5 a73b
00000210: f6e5 bd3d bb72 15be 2c50 d8bd 4e0e b2bc
00000220: d30e b3bd 933b e4bc 7a26 abbd e207 06be
00000230: ed82 ffbb 746e b9bd dbde cbbd 4bbd 97bc
00000240: a9ce 9fbd f760 df3d 4f0c 2cbd a492 e6bd
00000250: 70da 7c3d 5353 60bd e351 00bd ad0f 113d
00000260: 2989 7cbd 964c d8bd 3287 bbbd 5249 70bd
00000270: 5082 97bd 028f 973d 1d04 663d 52d6 d2bc
00000280: 5ceb 06be 4ebf a13d a2d2 af3c 7e80 e43c
00000290: a9ae 4b3d eb10 04bc 668a 1b3d ec84 53bc
000002a0: 8e9d c3bc ea37 b6bd 6a25 b43d 9e50 83bd
000002b0: 537d 0a3e bc9f d83d 319b fe3d f13d 4cbd
000002c0: 2da1 c8bd 5093 afbc 3fc4 c23d 9d1a a33d
000002d0: c27d 32bc 7a1e ea3d 662a b93d f85b 1cbd
000002e0: 4431 363c d79b 0b39 f353 a33c 3bf4 a2bd
000002f0: 48e0 053e 3a76 b43d bd61 ba3c 8d3a 91bd
00000300: db91 cabd dbf5 6ebd 4cdd e5bc 6692 cdbc
00000310: 69ea fb3d 7c31 df3d af75 04be 30d2 963d
00000320: f412 c0bd dd0c bb3d 935f 803d 5c04 caba
00000330: 7b5f b53d 2e0d 673d 9046 1e3d 9702 3f3d
00000340: 915d ae3d ea32 52bc 4ab2 afbb 6030 5a3d
00000350: ae46 c13d 96bb bd3d 1a85 14bd 5028 3bbd
00000360: c921 bf3d dbf0 cbbc 27a2 10be c357 d93c
00000370: bec8 bd3c 1fa2 93bc 941b 683c 020f 773d
00000380: 63f1 6b3c 2006 aebd 0da3 60bc 729b 633d
00000390: dee4 03bd d359 91bd 9609 e4bd c6ac 323d
000003a0: 53bb ed3d 88f0 12be b3f3 d6bd 9c96 cb3d
000003b0: dd70 2bbd eeb2 72bd 2c9d c83d c23a c8bd
000003c0: feff 713c 3ca3 443d a6cc 0abe 9128 e3bc
000003d0: 51df 043e 205d b9bd 0ffb d0bc ae8a 89bd
000003e0: 8ab0 9f3c 5d42 72bd a029 933b 9fa6 9dbd
000003f0: 8951 9dbd cb8e aebd 05d6 79bd 5211 96bc

static_ll.0.bias f4 [128]
0.10905993 -0.08786502 0.011648191 -0.06575869 0.10947475 0.08081121 -0.08325152 0.10125578
0.02074769 0.1319429 0.13369466 -0.060803615 -0.031647544 0.09249918 0.0076901065 0.11405784
0.123661086 -0.0706735 0.028669214 0.06931234 0.089417584 0.00013108799 0.07601946 0.14628492
0.11162243 0.086734645 -0.04982537 -0.089203455 -0.07002314 0.116321765 -0.025503628 -0.06573731
-0.00466263 0.08097878 0.107858784 -0.07935451 0.106538676 0.1123291 0.010996169 0.05527189
0.015262051 -0.031388763 -0.024974806 -0.0865582 0.003490228 -0.038534384 -0.05118225 -0.04516202
-0.034510285 0.11169144 0.10770652 0.025587821 0.03328194 0.13217747 -0.037643764 0.062741905
0.1397645 0.10136632 -0.10670009 -0.07926865 -0.023559162 0.11133546 -0.058344796 -0.07293284
-0.054876562 -0.052573405 0.038417093 -0.080060154 -0.012029515 -0.015911277 0.05215175 0.08105674
-0.009179674 -0.022639329 -0.06276085 0.004363418 0.010761039 0.01088274 -0.040306576 -0.0060885213
0.00491265 0.09101398 -0.089209 0.012257763 -0.07175288 -0.009486526 -0.069464736 0.04288395
0.1447772 -0.07412938 0.096012704 -0.03320742 -0.10402919 0.021655567 -0.010391135 -0.010043668
-0.06870248 0.07296733 0.0015995048 -0.0056099514 0.11713471 -0.06843474 0.05869548 -0.050894566
-0.08288002 -0.051549032 0.11388559 0.10134158 0.056312293 0.04178769 0.048562616 -0.023774145
0.12200921 -0.082520515 0.06798113 -0.03884985 0.04362656 0.063764505 0.052697666 -0.09849683
0.06896358 -0.019942952 0.09422538 -0.05966879 0.0614149 -0.12684427 0.115314946 0.022176478
00000000: d05a df3d 93f2 b3bd 0ed8 3e3c 7eac 86bd
00000010: 4c34 e03d 5980 a53d c67f aabd 315f cf3d
00000020: 0ff7 a93c 0a1c 073e 41e7 083e 360d 79bd
00000030: dba0 01bd 3670 bd3d 4afd fb3b 2897 e93d
00000040: 0642 fd3d 45bd 90bd b3db ea3c a1f3 8d3d
00000050: 9120 b73d aa74 0939 17b0 9b3d b7cb 153e
00000060: 4d9a e43d efa1 b13d b015 4cbd 4db0 b6bd
00000070: 4b68 8fbd 1b3a ee3d fcec d0bc 48a1 86bd
00000080: fac8 98bb 34d8 a53d 11e5 dc3d 9e84 a2bd
00000090: f330 da3d cd0c e63d 4729 343c c764 623d
000000a0: ae0d 7a3c 8191 00bd f797 ccbc 6d45 b1bd
000000b0: 4fbc 643b 3bd6 1dbd 7ba4 51bd cffb 38bd
000000c0: a85a 0dbd 7bbe e43d 3c95 dc3d 8d9d d13c
000000d0: a552 083d 8859 073e 5930 1abd d47e 803d
000000e0: 6d1e 0f3e 2599 cf3d 9485 dabd 9a57 a2bd
000000f0: 25ff c0bc d803 e43d f4fa 6ebd d05d 95bd
00000100: 3fc6 60bd 3657 57bd 3e5b 1d3d 94f6 a3bd
00000110: 7117 45bc 5e58 82bc 139d 553d 1301 a63d
00000120: 5866 16bc 1d76 b9bc c388 80bd 01fb 8e3b
00000130: 124f 303c 854d 323c 8218 25bd 3882 c7bb
00000140: 4cfa a03b 8a65 ba3d 35b3 b6bd c9d4 483c
00000150: 2df3 92bd 606d 1bbc 8743 8ebd 15a7 2f3d
00000160: 7940 143e 25d1 97bd 4fa2 c43d 8104 08bd
00000170: 420d d5bd 0467 b13c 943f 2abc 328e 24bc
00000180: e3b3 8cbd e56f 953d 7aa6 d13a afd3 b7bb
00000190: 53e4 ef3d 8327 8cbd ac6a 703d d276 50bd
000001a0: 00bd a9bd 1425 53bd d93c e93d 2d8c cf3d
000001b0: b8a7 663d 9229 2b3d 98e9 463d ffc1 c2bc
000001c0: f7df f93d 8400 a9bd b139 8b3d 0521 1fbd
000001d0: c4b1 323d f796 823d 82d9 573d b5b8 c9bd
000001e0: c73c 8d3d 675f a3bc 3cf9 c03d 4367 74bd
000001f0: 318e 7b3d 77e3 01be 3e2a ec3d 72ab b53c

static_ll.2.weight f4 [64, 128]
0.038825657 -0.06138795 0.060882874 0.05539444 0.079227254 0.0202122 -0.044709325 -0.026913831
-0.07674736 0.023878573 -0.017265534 0.0041185417 -0.01918837 0.010630962 0.0312408 0.06895977
0.045970812 -0.061172135 -0.03206398 -0.06063323 -0.048005193 0.07463835 0.05248128 0.032024782
0.0017651528 0.07237338 -0.043618686 -0.012603301 0.0063985116 -0.0064510773 0.017298682 -0.08694328
0.09276015 -0.050032552 -0.013998016 -0.07183812 0.07726859 0.03758662 -0.007732778 0.025266133
-0.038989607 0.029786717 0.011470214 0.063161865 0.035165813 -0.061858434 0.049634084 0.055681724
0.043060593 -0.008613499 -0.023157585 -0.07345697 -0.004210519 0.08904393 -0.0383488 0.07721508
0.032004822 -0.080179214 -0.060136143 0.05187124 0.09032638 0.07803894 0.0028563775 0.0017344553
0.0049904985 -0.024940813 0.089441575 -0.045928027 -0.019976491 0.05560693 -0.0051706103 -0.07308902
0.028968321 0.010711167 0.00923418 -0.025156207 -0.06661532 -0.02665929 0.03880771 -0.017105967
0.034694698 0.07693644 0.04287292 0.00292136 -0.0056698346 -0.008850682 -0.06902439 0.0040581888
0.005187715 -0.042428665 -0.06598401 -0.06523029 0.046667133 0.06633406 -0.03428958 -0.06833069
0.0011996868 0.030420888 0.062051553 0.07644813 0.019435562 0.054674897 0.039843906 0.08365342
0.04339313 -0.05264385 0.07587332 0.025934579 0.023487855 0.07368837 -0.031362414 -0.061133012
-0.011123286 0.04959302 -0.025811262 0.08647729 0.09994853 0.00012612832 -0.014191499 -0.02492607
-0.036787447 0.04525101 0.07337711 -0.057984497 0.028150078 0.01964782 0.08071497 0.03190038
0.04093496 -0.03143201 0.031234458 -0.012867425 0.045069907 -0.057613067 0.05451265 0.08552651
0.018801374 -0.010597853 0.0515271 0.114687085 0.0014073703 0.054280773 -0.027762922 0.07626886
-0.027481172 -0.019379558 0.047445398 0.04861362 -0.058966454 0.0634513 0.056787 -0.03766964
0.016620964 0.050068412 0.030735824 0.064311676 -0.07672721 0.08301157 0.026928736 0.05886248
-0.008615759 0.019983474 0.000763993 0.044105515 0.051587146 0.062035892 0.0013624255 0.07862519
0.046328377 -0.030482223 0.019090239 -0.06641052 0.058300216 0.051177993 0.0697777 0.08115012
-0.09939902 0.10956193 0.05951128 0.028932298 -0.042810004 0.076516 0.02743518 -0.079650305
0.026725942 -0.105627425 -0.08527256 0.007439026 0.11418603 -0.030302962 0.03489996 0.016324367
0.024365604 -0.014918914 0.08618472 0.023510939 -0.08062953 -0.049219545 0.07071811 -0.09623632
0.008176739 -0.004200669 0.037216354 -0.004336945 0.012148665 -0.0062501794 -0.024220891 0.099482305
-0.03351413 0.0630317 -0.08317103 0.0024179663 -0.0699237 0.0435236 0.09134045 -0.04945802
0.02861595 0.10080628 -0.04560282 -0.064021945 0.065734945 0.07119592 0.0033030228 0.091357775
0.08825778 0.0786984 0.0943163 -0.01832843 0.03460575 -0.039228167 0.0015752852 0.017570503
-0.04315999 0.039646804 0.027394166 0.045699846 -0.036068723 -0.045536656 0.00090178044 -0.008666158
-0.040258147 -0.08116601 0.010487333 0.02974179 -0.07047368 0.06399698 0.08092398 -0.025998227
-0.06680297 -0.020260427 -0.059460014 -0.0037410806 -0.018131755 0.0016507783 -0.0043383124 -0.053566944
00000000: a707 1f3d ee71 7bbd 5260 793d 48e5 623d
00000010: e641 a23d 0e94 a53c 2021 37bd 657a dcbc
00000020: b82d 9dbd ff9c c33c 7370 8dbc d5f4 863b
00000030: ee30 9dbc 7d2d 2e3c b5ec ff3c c83a 8d3d
00000040: e44b 3c3d a28f 7abd 8555 03bd 8d5a 78bd
00000050: 18a1 44bd fedb 983d 9cf6 563d 6b2c 033d
00000060: b35c e73a 7f38 943d 82a9 32bd 137e 4ebc
00000070: 9baa d13b 8f63 d3bb f7b5 8d3c 520f b2bd
00000080: 09f9 bd3d efee 4cbd ef57 65bc dd1f 93bd
00000090: ff3e 9e3d 6df4 193d 3e63 fdbb ecfa ce3c
000000a0: 91b3 1fbd 4603 f43c 91ed 3b3c 025b 813d
000000b0: 070a 103d 455f 7dbd 1c4d 4b3d 8512 643d
000000c0: 4e60 303d a21f 0dbc fab4 bdbc 9c70 96bd
000000d0: 65f8 89bb aa5c b63d a213 1dbd f122 9e3d
000000e0: 7d17 033d 0035 a4bd 5151 76bd f076 543d
000000f0: 0afd b83d e1d2 9f3d 1032 3b3b aa56 e33a
00000100: 5687 a33b ad50 ccbc 252d b73d 071f 3cbd
00000110: bda5 a3bc 18c4 633d 396e a9bb b2af 95bd
00000120: f94e ed3c e47d 2f3c f54a 173c 6414 cebc
00000130: 9d6d 88bd 9564 dabc d5f4 1e3d d021 8cbc
00000140: 071c 0e3d da90 9d3d 849b 2f3d 4a74 3f3b
00000150: 05ca b9bb 7302 11bc a95c 8dbd 8efa 843b
00000160: b5fd a93b aec9 2dbd a022 87bd 7597 85bd
00000170: 0926 3f3d 27da 873d 3b73 0cbd f6f0 8bbd
00000180: cf3e 9d3a 3a35 f93c c529 7e3d d690 9c3d
00000190: 5437 9f3c c9f2 5f3d 5d33 233d 7c52 ab3d
000001a0: ffbc 313d 14a1 57bd 7963 9b3d c174 d43c
000001b0: 9a69 c03c eee9 963d e075 00bd 9c66 7abd
000001c0: 713e 36bc 0d22 4b3d 2472 d3bc 011b b13d
000001d0: d1b1 cc3d 5041 0439 7683 68bc c231 ccbc
000001e0: 6fae 16bd 2059 393d bd46 963d 2781 6dbd
000001f0: fe9a e63c 77f4 a03c e44d a53d f9a9 023d
00000200: 6bab 273d dabe 00bd 68df ff3c e4d1 52bc
00000210: 399b 383d aefb 6bbd a848 5f3d 8628 af3d
00000220: 5705 9a3c 9ea2 2dbc 150e 533d 10e1 ea3d
00000230: 8377 b83a 8455 5e3d 116f e3bc d932 9c3d
00000240: 3220 e1bc e1c1 9ebc 1b56 423d 131f 473d
00000250: cf86 71bd c1f2 813d 7c99 683d 7b4b 1abd
00000260: b028 883c 8914 4d3d b2c9 fb3c d7b5 833d
00000270: 2823 9dbd f801 aa3d a799 dc3c c919 713d
00000280: 1d29 0dbc 62b4 a33c b446 483a fca7 343d
00000290: 0b4d 533d 5919 7e3d 6a93 b23a 3e06 a13d
000002a0: d3c2 3d3d dbb5 f9bc 2263 9c3c 3d02 88bd
000002b0: 35cc 6e3d 04a0 513d 9ce7 8e3d 0932 a63d
000002c0: b791 cbbd 0162 e03d 1ac2 733d 6d03 ed3c
000002d0: 8b59 2fbd 6cb4 9c3d bebf e03c b31f a3bd
000002e0: 5df0 da3c 3153 d8bd 61a3 aebd 13c3 f33b
000002f0: 5eda e93d eb3d f8bc 43f3 0e3d aeba 853c
00000300: 609a c73c 766e 74bc 9d81 b03d 039a c03c
00000310: 1821 a5bd 6f9a 49bd a8d4 903d 8c17 c5bd
00000320: bbf7 053c c4a5 89bb 2d70 183d ee1c 8ebb
00000330: 320b 473c 4ece ccbb e46a c6bc 61bd cb3d
00000340: 1d46 09bd c416 813d 9355 aabd be76 1e3b
00000350: 2834 8fbd cd45 323d b410 bb3d 7e94 4abd
00000360: ff6b ea3c 8673 ce3d 06ca 3abd f01d 83bd
00000370: 0ba0 863d 2bcf 913d 8777 583b c919 bb3d
00000380: 7fc0 b43d a02c a13d e728 c13d 8125 96bc
00000390: c2be 0d3d b7ad 20bd cd79 ce3a 04f0 8f3c
000003a0: 88c8 30bd b064 223d bb69 e03c c32f 3b3d
000003b0: ccbc 13bd a584 3abd 7665 6c3a 80fc 0dbc
000003c0: bae5 24bd 5d3a a6bd 10d3 2b3c 0ea5 f33c
000003d0: 8154 90bd d910 833d 79bb a53d 3cfa d4bc
000003e0: ffcf 88bd 32f9 a5bc 588c 73bd eb2c 75bb
000003f0: 0c89 94bc ee5e d83a 6728 8ebb 0369 5bbd

static_ll.2.bias f4 [64]
0.05396081 0.040693734 -0.016177205 -0.05699577 -0.030542457 0.03586244 0.032294393 -0.009179369
0.03768598 -0.0648161 0.07744425 -0.028018557 -0.016234161 0.014738464 0.078862 0.09991008
-0.07860969 0.018576974 0.08747751 -0.06355717 -0.035244066 -0.009851353 0.057594515 0.07637154
-0.03572787 0.08557091 0.038009625 -0.027175296 0.01748688 0.0136026405 0.05981874 0.016641568
-0.044577785 -0.07071545 0.090585716 0.0026539925 0.04198562 -0.04843805 -0.01848192 0.017788833
0.031331625 0.060594246 -0.01648929 0.02375871 -0.013058919 0.07202772 -0.025461331 0.009276405
0.043221995 0.010222742 0.022613097 0.019067846 -0.04291077 0.06891275 0.07689869 0.052902937
-0.027623206 0.079125956 -0.034427457 0.0972616 0.07428151 0.020288136 -0.046982653 0.098308876
00000000: 0306 5d3d 79ae 263d 0f86 84bc 6674 69bd
00000010: 2d34 fabc 7ee4 123d 2047 043d 1065 16bc
00000020: 9d5c 1a3d 4ebe 84bd 179b 9e3d 2c87 e5bc
00000030: 81fd 84bc 9979 713c 6682 a13d a89d cc3d
00000040: 1efe a0bd bd2e 983c 6927 b33d 432a 82bd
00000050: 155c 10bd 9267 21bc 3ae8 6b3d af68 9c3d
00000060: 6357 12bd cd3f af3d fbaf 1b3d ba9e debc
00000070: a540 8f3c 9cdd 5e3c 7f04 753d e653 883c
00000080: 3297 36bd 43d3 90bd 0185 b93d 9bee 2d3b
00000090: 1df9 2b3d fa66 46bd 6567 97bc e3b9 913c
000000a0: 9755 003d ac31 783d 8c14 87bc a0a1 c23c
000000b0: 14f5 55bc 4583 933d 4894 d0bc 10fc 173c
000000c0: 8c09 313d 4a7d 273c 1a3f b93c 2c34 9c3c
000000d0: 34c3 2fbd 2122 8d3d 0f7d 9d3d c0b0 583d
000000e0: 104a e2bc ca0c a23d ce03 0dbd 1731 c73d
000000f0: e820 983d 4e33 a63c e270 40bd 2a56 c93d

glu_encoder.rnn.weight_ih_l0 f4 [48, 2]
0.17777194 -0.16044302 0.1062893 -0.051548988 0.18856314 0.19554438 -0.079863206 -0.18426631
-0.1520937 0.18768042 0.2760525 0.13473347 -0.21392876 0.06844591 0.296982 -0.3005487
-0.09351635 -0.2292728 0.23860212 -0.16270223 0.1423556 -0.0140268 0.13764417 0.22341818
0.2256678 -0.09083117 0.09355287 0.030871017 0.028691482 -0.04663563 -0.19010848 -0.05010461
0.22063385 -0.09038761 0.041242268 0.2491783 -0.2231626 -0.20129637 -0.016295286 0.24138932
-0.13120392 0.22808856 -0.08133715 -0.06836209 -0.11757397 0.14145577 0.21706064 0.19659951
0.05283727 -0.04317646 -0.31329736 0.23571083 -0.30003035 -0.01743288 0.045858983 -0.044921946
0.20487808 -0.044662226 0.063663505 -0.017811917 0.21763001 -0.023412703 -0.1594762 -0.033984125
0.13294148 -0.11036865 -0.15462853 0.1930027 0.12817237 0.036292076 0.26126087 -0.09104613
-0.11702179 -0.18121094 0.24036999 -0.2313426 0.19314551 -0.028897213 0.10319022 -0.045056403
0.15312223 -0.12993191 0.2510965 0.17732105 0.14342648 0.2093026 -0.047644913 -0.06917584
-0.123115666 -0.10305555 -0.24720852 0.23223136 0.23807642 -0.060813144 0.0503308 0.19910178
00000000: d909 363e 2d4b 24be 34ae d93d 0825 53bd
00000010: b216 413e c93c 483e 528f a3bd 4fb0 3cbe
00000020: 73be 1bbe 4c2f 403e c156 8d3e 92f7 093e
00000030: 2410 5bbe 5f2d 8c3d 060e 983e 85e1 99be
00000040: 8085 bfbd 7dc6 6abe 1d54 743e 6a9b 26be
00000050: abc5 113e aad0 65bc 98f2 0c3e bcc7 643e
00000060: 7615 673e b105 babd a698 bf3d 37e5 fc3c
00000070: 660a eb3c 0105 3fbd ccab 42be 7e3a 4dbd
00000080: d7ed 613e 241d b9bd a7ed 283d 9928 7f3e
00000090: bd84 64be a320 4ebe b17d 85bc c32e 773e
000000a0: 525a 06be 0c90 693e 1794 a6bd 6c01 8cbd
000000b0: 9fca f0bd c8d9 103e 2545 5e3e 6251 493e
000000c0: e56b 583d cdd9 30bd 8368 a0be 2e5e 713e
000000d0: 949d 99be 66cf 8ebc a1d6 3b3d 1300 38bd
000000e0: 8fcb 513e bdef 36bd 0362 823d 4cea 91bc
000000f0: 67da 5e3e ffcb bfbc bb4d 23be f032 0bbd
00000100: d021 083e f508 e2bd f156 1ebe 80a2 453e
00000110: 9e3f 033e 00a7 143d fcc3 853e 6576 babd
00000120: 1fa9 efbd 5c8f 39be 8d23 763e 13e5 6cbe
00000130: f0c7 453e d9b9 ecbc 6555 d33d 108d 38bd
00000140: 13cc 1c3e df0c 05be b88f 803e a693 353e
00000150: 64de 123e 6c53 563e 5027 43bd 10ac 8dbd
00000160: 1124 fcbd ca0e d3bd 3b24 7dbe 0fce 6d3e
00000170: 4eca 733e 3417 79bd ab27 4e3d 56e1 4b3e

glu_encoder.rnn.weight_hh_l0 f4 [48, 16]
-0.18577673 -0.22994189 -0.092657566 0.1337163 0.10354734 -0.074628 -0.26179978 0.18859848
0.056278173 0.19697182 -0.18525961 -0.16087563 -0.034875747 -0.12711857 0.123414434 -0.07316321
0.1063086 -0.082897544 0.1325037 -0.25628525 -0.12710813 0.20160998 -0.00035428623 0.049809866
-0.24354891 0.21929598 -0.07947235 0.106136665 0.12461457 -0.118272305 -0.21583101 0.07937487
0.16337074 -0.14747316 -0.13206354 -0.22362092 0.035908952 0.04120602 -0.182057 0.16620569
0.13103832 -0.0929466 -0.08031068 0.16006802 -0.10108418 0.16303042 -0.19504645 0.17306001
0.1487345 -0.18570933 0.13551448 0.22094029 0.010591222 0.15652527 0.19025218 0.118928626
-0.18987818 -0.07470711 -0.14918715 -0.14262398 0.14170887 0.035056654 0.00863355 -0.028553301
-0.08064415 0.00901037 0.04093417 -0.04198506 0.03775289 -0.07790945 0.29012585 0.12662484
0.015046243 0.13599077 0.049811654 -0.28153166 -0.2896336 0.10428005 0.03292768 -0.14941594
0.096416935 0.17747071 0.014685509 0.05656016 -0.004593911 -0.015772097 -0.029764548 0.20770265
0.06771188 0.2462912 -0.15607786 -0.08228844 -0.19027779 -0.25653422 -0.044141106 -0.031555958
-0.08441034 0.1697618 0.1323423 0.21514733 0.06684923 0.20987181 -0.081524216 0.021398867
0.19864202 0.0010912581 -0.20091763 0.19508229 0.1750362 -0.16176501 0.08274271 -0.19062135
0.089272894 -0.17014126 -0.019437963 0.088384524 -0.22777264 0.16098544 -0.07605688 -0.060784183
-0.15300988 0.15682663 0.07331075 -0.22487049 -0.27435797 -0.26693913 0.21826613 -0.050282437
0.019314768 0.24040662 0.22237764 -0.18661244 -0.16521677 0.11710234 -0.054893844 -0.23250285
-0.03038846 0.08937632 -0.093042985 0.20027544 -0.21632832 -0.092898406 0.22005507 -0.08713334
0.2623459 -0.07139703 0.157793 -0.20135269 -0.18094203 -0.19479817 0.046444908 0.0496775
-0.15511206 -0.14338498 -0.011670979 -0.06504132 0.014680988 0.04718743 0.056822576 0.096677385
0.24260174 -0.1024397 -0.22750463 0.07435636 0.19575916 0.12818101 0.07482077 0.17297363
0.038263656 -0.04605947 -0.08922815 0.14651841 -0.05612721 0.015459546 0.15289216 0.0010557743
-0.12688719 0.10390167 0.052020773 0.1545139 0.06258986 -0.015717829 -0.032927744 -0.0990798
-0.0628931 -0.1320855 -0.07256748 0.035766974 0.22381556 -0.17480974 -0.036413606 0.2277976
0.17142725 0.10933337 -0.1507509 0.18243147 -0.26123512 -0.06743588 0.122946106 0.12791836
0.20229745 -0.09962667 -0.17192538 -0.12745689 0.049182776 -0.0642646 0.029373966 0.055936314
0.08585973 0.1324151 0.09200585 0.18485343 -0.11125639 -0.13841055 -0.06687337 0.041100107
0.16978267 0.051742744 0.102958255 -0.10553025 0.00930858 0.051302414 -0.1262644 -0.16652177
0.27911475 0.15925743 -0.18844923 -0.034590665 -0.0003104693 0.17919512 -0.100227915 -0.086643666
-0.1161261 0.16476354 -0.13025078 0.018868584 0.15861526 -0.0060980087 0.28680882 -0.13806747
0.02379314 0.0099542625 0.10679535 0.1864678 0.22093168 -0.22212048 0.029907938 0.20184392
0.09283461 -0.16486308 -0.09016865 -0.13655749 -0.09065294 -0.13011186 0.014458923 0.09195297
00000000: 413c 3ebe e375 6bbe 40c3 bdbd edec 083e
00000010: a110 d43d 91d6 98bd 9f0a 86be f61f 413e
00000020: f183 663d fbb2 493e b2b4 3dbe 95bc 24be
00000030: dfd9 0ebd 5f2b 02be b5c0 fc3d 98d6 95bd
00000040: 53b8 d93d 30c6 a9bd 0daf 073e d237 83be
00000050: a228 02be d972 4e3e 7ebf b9b9 6e05 4c3d
00000060: e364 79be 208f 603e 66c2 a2bd 2e5e d93d
00000070: ec35 ff3d c038 f2bd ce02 5dbe 4b8f a23d
00000080: a94a 273e 3403 17be aa3b 07be e2fc 64be
00000090: 4415 133d a5c7 283d 266d 3abe d331 2a3e
000000a0: e92e 063e c95a bebd ed79 a4bd dfe8 233e
000000b0: 3905 cfbd 72f1 263e 42ba 47be a536 313e
000000c0: db4d 183e 962a 3ebe 4fc4 0a3e 2c3e 623e
000000d0: ce86 2d3c 2948 203e 78d1 423e da90 f33d
000000e0: 6d6f 42be 0b00 99bd 84c4 18be 050c 12be
000000f0: 211c 113e 9197 0f3d bc73 0d3c 9de8 e9bc
00000100: c328 a5bd 3ba0 133c 97aa 273d 87f8 2bbd
00000110: c6a2 1a3d fd8e 9fbd 608b 943e f1a9 013e
00000120: 8484 763c 2a41 0b3e 4e07 4c3d eb24 90be
00000130: db4a 94be c790 d53d 2ddf 063d 7e00 19be
00000140: 3e76 c53d e2ba 353e 7d9b 703c a0ab 673d
00000150: 8588 96bb 7c34 81bc c8d4 f3bc 01b0 543e
00000160: 87ac 8a3d c333 7c3e e0d2 1fbe d786 a8bd
00000170: 2ed8 42be 7458 83be 4ecd 34bd d240 01bd
00000180: 54df acbd 0ad6 2d3e bd84 073e 954f 5c3e
00000190: 40e8 883d a3e8 563e 2bf6 a6bd ad4c af3c
000001a0: d068 4b3e 8c08 8f3a 5abd 4dbe a7c3 473e
000001b0: b13c 333e baa5 25be 0375 a93d 3e32 43be
000001c0: b5d4 b63d 8339 2ebe 5d3c 9fbc f202 b53d
000001d0: 3b3d 69be 5ed9 243e b6c3 9bbd d6f8 78bd
000001e0: 9fae 1cbe 2997 203e f223 963d 7344 66be
000001f0: a678 8cbe 3fac 88be 2881 5f3e f5f4 4dbd
00000200: 013a 9e3c 272d 763e f7b6 633e 5517 3fbe
00000210: 962e 29be 5ad3 ef3d 5ed8 60bd 3a15 6ebe
00000220: 38f1 f8bc ef0a b73d 528d bebd 0115 4d3e
00000230: 2c85 5dbe 8541 bebd 1e56 613e f772 b2bd
00000240: 3452 863e 9b38 92bd 7d94 213e 662f 4ebe
00000250: de48 39be 2c79 47be 043d 3e3d a27a 4b3d
00000260: b2d5 1ebe 83d3 12be a237 3fbc 6234 85bd
00000270: 8788 703c 9b47 413d cabe 683d cbfe c53d
00000280: 976c 783e e8cb d1bd f9f6 68be 2648 983d
00000290: 1775 483e e241 033e a23b 993d 0020 313e
000002a0: 5aba 1c3d dba8 3cbd 40bd b6bd ec08 163e
000002b0: a5e5 65bd 094a 7d3c c38f 1c3e e861 8a3a
000002c0: b7ee 01be 66ca d43d bc13 553d e438 1e3e
000002d0: 1d2f 803d adc2 80bc 3edf 06bd 5aea cabd
000002e0: 19ce 80bd 6c41 07be 429e 94bd 6480 123d
000002f0: e82f 653e 5301 33be 6f26 15bd c643 693e
00000300: a08a 2f3e 2dea df3d 725e 1abe 51cf 3a3e
00000310: 9cc0 85be d31b 8abd 2bcb fb3d 08fd 023e
00000320: 1027 4f3e 1109 ccbd 350d 30be 0f84 02be
00000330: e173 493d 299d 83bd aca1 f03c 7a1d 653d
00000340: 3ad7 af3d d397 073e 906d bc3d 384a 3d3e
00000350: 64da e3bd 7fbb 0dbe e8f4 88bd 9658 283d
00000360: 82db 2d3e 33f0 533d c7db d23d 3e20 d8bd
00000370: 0483 183c 7b22 523d 744b 01be af84 2abe
00000380: 21e8 8e3e 6114 233e d6f8 40be f1ae 0dbd
00000390: 7cc6 a2b9 ed7e 373e 4b44 cdbd 3c72 b1bd
000003a0: 85d3 edbd c6b7 283e 7660 05be 4a92 9a3c
000003b0: 0a6c 223e ced1 c7bb 9bd8 923e 8f61 0dbe
000003c0: d5e9 c23c 3417 233c 85b7 da3d 6af1 3e3e
000003d0: ea3b 623e 8d73 63be 7e01 f53c 2cb0 4e3e
000003e0: 1220 be3d ded1 28be 57aa b8bd bad5 0bbe
000003f0: 40a8 b9bd 0b3c 05be 1ee5 6c3c d751 bc3d

glu_encoder.rnn.bias_ih_l0 f4 [48]
0.18532677 -0.21430036 -0.039973803 0.02634615 -0.178216 -0.066346474 0.0140777 -0.09632704
0.093504086 0.090169124 0.0117834285 -0.076493144 -0.07885501 0.104243584 -0.071208775 -0.11139344
0.23065998 -0.2236121 0.15107599 -0.244888 0.16775948 -0.17749113 0.1788318 -0.08875753
0.012197732 0.17583635 0.058801834 0.1976587 0.014514966 -0.011643025 0.11256519 -0.08704753
0.22772446 0.17854956 -0.14195196 -0.17989324 -0.16784431 -0.15516472 -0.17322229 -0.16192779
-0.05308357 0.24326 0.026099242 -0.13161741 0.060954954 -0.23929311 -0.07110687 -0.099315956
00000000: 4dc6 3d3e 8e71 5bbe 92bb 23bd e2d3 d73c
00000010: 417e 36be a9e0 87bd 27a6 663c 1c47 c5bd
00000020: 127f bf3d 97aa b83d 480f 413c 70a8 9cbd
00000030: bc7e a1bd a97d d53d e8d5 91bd 3e22 e4bd
00000040: 2132 6c3e 92fa 64be aab3 1a3e ebc3 7abe
00000050: 24c9 2b3e 3cc0 35be af1f 373e 82c6 b5bd
00000060: ffd8 473c 720e 343e 31da 703d 0b67 4a3e
00000070: 2ed0 6d3c 63c2 3ebc 9488 e63d fa45 b2bd
00000080: 9a30 693e b2d5 363e db5b 11be ef35 38be
00000090: 61df 2bbe 80e3 1ebe 2f61 31be 66d0 25be
000000a0: 286e 59bd 2619 793e 14ce d53c b7c6 06be
000000b0: e7ab 793d 4109 75be 7ba0 91bd 2a66 cbbd

glu_encoder.rnn.bias_hh_l0 f4 [48]
-0.03916595 0.22997575 0.20653765 -0.06677971 -0.13761951 -0.0073084286 -0.21973218 -0.15680724
-0.04394241 -0.11135115 0.04107231 -0.005476908 0.23675437 -0.16685821 0.07447621 0.11692867
-0.059985794 0.16796693 0.22071652 0.17211941 -0.23874205 -0.098107435 0.11235414 0.11483821
0.106869645 -0.2593603 0.15068632 0.19389704 0.17834224 0.23150466 0.09677877 0.192846
0.09111272 -0.01613552 0.15655002 0.1151641 -0.2485032 -0.118623 -0.19363405 0.14077346
0.17439029 -0.074919835 -0.07834442 -0.17964306 -0.27333266 -0.22010759 0.046514813 -0.16246183
00000000: 7a6c 20bd c37e 6b3e 9b7e 533e cdc3 88bd
00000010: 21ec 0cbe 8b7b efbb 7901 61be 1492 20be
00000020: f5fc 33bd 120c e4bd 703b 283d a277 b3bb
00000030: bd6f 723e e1dc 2abe fc86 983d 4c78 ef3d
00000040: aab3 75bd 86ff 2b3e 8303 623e 1240 303e
00000050: cc78 74be 8dec c8bd ed19 e63d 4c30 eb3d
00000060: 79de da3d e0ca 84be 844d 1a3e f28c 463e
00000070: 599f 363e 8f0f 6d3e f333 c63d 6c79 453e
00000080: 4e99 ba3d a32e 84bc a64e 203e 28db eb3d
00000090: 9f77 7ebe 9ef0 f2bd 0148 46be eb26 103e
000000a0: 5e93 323e 926f 99bd 0a73 a0bd 5af4 37be
000000b0: 42f2 8bbe e263 61be 5186 3e3d 655c 26be

glu_encoder.hid2lat.weight f4 [64, 16]
-0.25773257 -0.16298485 -0.087311566 0.15099226 0.039849173 0.15298267 -0.14419432 0.039693084
-0.06026225 -0.23510394 -0.13635089 -0.046101842 0.21335992 -0.15905106 -0.1850055 -0.15812929
0.13604157 0.14665149 -0.22474596 0.09687137 0.23683946 -0.0076236576 0.05012181 -0.0853651
0.16307084 -0.042030863 -0.1741607 -0.08750842 0.13864216 0.100038856 -0.19796546 -0.065217495
-0.11292065 -0.015617729 -0.025717884 0.25598592 -0.018878395 0.08940317 0.24259074 0.21481973
-0.035538558 0.25045726 -0.19266275 0.023694925 0.08828664 -0.10684396 0.11780173 -0.20145617
0.16193143 -0.11247431 0.23594965 0.07532366 -0.11269902 0.18156192 -0.0017028832 0.2542734
-0.17499499 -0.08613144 -0.24070552 0.03450855 0.0180663 -0.092543565 0.026234234 -0.10385264
0.21967897 0.12713812 -0.21295772 0.019711073 0.19424245 0.20739473 0.19849707 -0.038283966
0.11174782 -0.09259481 0.19217952 -0.2781475 -0.21691315 -0.11764786 -0.099977605 0.20643395
-0.11658999 -0.1718101 0.2647392 0.24704978 0.043349456 0.21156085 0.17916481 -0.21856308
-0.067417815 0.13512367 -0.12164694 0.15277766 -0.024798848 -0.097413465 -0.12719499 0.094250984
0.03915156 -0.14172466 0.068529 0.19503622 0.06523636 -0.17749795 0.13793467 0.20311885
-0.10847715 0.1404848 0.059582673 0.10850106 -0.095404595 -0.025211943 -0.14609969 -0.059284225
-0.11931347 0.10829731 0.18359068 -0.091724545 -0.032351673 -0.15684718 -0.10268511 0.038134865
-0.1117139 -0.115693465 -0.26538458 0.14167109 0.19868313 0.15003115 0.12466637 0.21473245
0.04560235 -0.08391227 -0.15453902 0.22316468 0.16457923 -0.19173396 -0.18379898 -0.19022688
-0.052828357 0.15227881 0.18054374 -0.20935018 0.024576338 0.21667568 -0.15396045 0.055020906
0.03006897 -0.22285593 0.096906506 0.039902534 0.048806194 0.17952782 -0.11843873 0.085036166
-0.16284126 -0.115066 -0.042471826 0.10307178 -0.084141195 0.088073865 0.08342927 0.15555848
0.12829512 -0.19830382 0.08813131 0.27123588 0.16026436 0.15528028 0.07905601 -0.024515903
0.14460985 -0.022342803 -0.13973077 -0.12972146 -0.15762937 -0.012808954 0.2253192 -0.07530773
-0.13547362 -0.15862346 -0.17581901 0.0033398939 0.11010953 -0.051593486 0.042152863 -0.13198876
-0.22649704 0.20984522 0.13476402 0.030873567 -0.24008138 0.03964772 -0.25283659 -0.14751405
0.05386819 -0.08973279 0.14775617 0.18589425 -0.14326796 -0.047676615 -0.062091712 0.16247214
0.25566468 0.21453911 0.055651676 0.18977769 0.14503431 -0.22288302 0.13438113 -0.1466845
-0.09414413 0.058046114 -0.07473364 -0.20591538 -0.21827199 -0.16812216 -0.25091192 0.14628814
0.22075412 -0.16084343 0.15913047 0.15845689 -0.07211107 0.01058428 -0.22332978 0.21843033
0.17353565 -0.07625102 0.10988868 0.0043887324 0.009367455 0.13517149 0.05422793 -0.2752251
-0.2678164 -0.02909596 -0.26686317 0.045525465 0.017576672 0.03132769 -0.25555122 0.16440359
-0.19785492 0.08491828 -0.0058834306 -0.18078485 0.04469184 0.212878 -0.02225361 0.10354034
-0.11505307 -0.0129411565 0.11954176 -0.18392703 -0.027547872 0.006699726 -0.0060035298 -0.04086117
00000000: 86f5 83be 80e5 26be 68d0 b2bd b79d 1a3e
00000010: e338 233d 7da7 1c3e ada7 13be 3795 223d
00000020: 8dd5 76bd 16bf 70be 919f 0bbe 49d5 3cbd
00000030: 067b 5a3e 48de 22be 1572 3dbe a5ec 21be
00000040: 7b4e 0b3e cf2b 163e ce23 66be 7f64 c63d
00000050: 0b86 723e e0cf f9bb 874c 4d3d e6d3 aebd
00000060: 0bfc 263e 8e28 2cbd 2f57 32be 9d37 b3bd
00000070: 36f8 0d3e 2ce1 cc3d 75b7 4abe c090 85bd
00000080: f142 e7bd 81e1 7fbc 50ae d2bc 9610 833e
00000090: dda6 9abc 0219 b73d b569 783e b4f9 5b3e
000000a0: e190 11bd ef3b 803e 6249 45be dc1b c23c
000000b0: a0cf b43d 02d1 dabd 0942 f13d 874a 4ebe
000000c0: 5ad1 253e ee58 e6bd c99c 713e 4b43 9a3d
000000d0: bece e6bd 5eeb 393e 4733 dfba 2030 823e
000000e0: e331 33be ae65 b0bd 827b 76be d658 0d3d
000000f0: c7ff 933c 7b87 bdbd 2de9 d63c b1b0 d4bd
00000100: 86f3 603e 7f30 023e 9711 5abe 1e79 a13c
00000110: 7ee7 463e 495f 543e d142 4b3e a6cf 1cbd
00000120: 0bdc e43d 59a2 bdbd b5ca 443e 5969 8ebe
00000130: 7b1e 5ebe 5cf1 f0bd 0fc1 ccbd 6c63 533e
00000140: bcc6 eebd fdee 2fbe e58b 873e 9efa 7c3e
00000150: 338f 313d 68a3 583e fb76 373e 00cf 5fbe
00000160: 5a12 8abd dc5d 0a3e 0822 f9bd bf71 1c3e
00000170: f426 cbbc b680 c7bd 673f 02be a906 c13d
00000180: 635d 203d 4520 11be ef58 8c3d 93b7 473e
00000190: a49a 853d 06c2 35be bf3e 0d3e 63fe 4f3e
000001a0: 4529 debd 3fdb 0f3e f60c 743d ce35 de3d
000001b0: 7c63 c3bd 4789 cebc 289b 15be 04d4 72bd
000001c0: 9f5a f4bd fbca dd3d 32ff 3b3e 14da bbbd
000001d0: 3083 04bd 8c9c 20be 924c d2bd 4e33 1c3d
000001e0: 42ca e4bd b2f0 ecbd 7de0 87be 3a12 113e
000001f0: 9773 4b3e c4a1 193e 1551 ff3d d3e2 5b3e
00000200: 88c9 3a3d 32da abbd 7a3f 1ebe 4885 643e
00000210: 7587 283e e855 44be cd35 3cbe d6ca 42be
00000220: 8c62 58bd faee 1b3e 75e0 383e e55f 56be
00000230: 5154 c93c 3be0 5d3e cfa7 1dbe 9a5d 613d
00000240: 3353 f63c 5834 64be eb76 c63d d770 233d
00000250: 01e9 473d 24d6 373e 0190 f2bd 7127 ae3d
00000260: dcbf 26be b9a7 ebbd f0f6 2dbd 4c17 d33d
00000270: 3852 acbd 1260 b43d f7dc aa3d b94a 1f3e
00000280: cc5f 033e 2810 4bbe 307e b43d 6edf 8a3e
00000290: 571c 243e cb01 1f3e 1ee8 a13d 93d5 c8bc
000002a0: 9b14 143e 4108 b7bc 9515 0fbe b4d5 04be
000002b0: 9869 21be a6dc 51bc 14ba 663e f03a 9abd
000002c0: 99b9 0abe 306e 22be e609 34be 1fe2 5a3b
000002d0: 1b81 e13d b153 53bd 7ba8 2c3d 1028 07be
000002e0: d7ee 67be aae1 563e 94ff 093e 90ea fc3c
000002f0: e5d7 75be a665 223d cc73 81be ec0d 17be
00000300: e4a4 5c3d d3c5 b7bd 654d 173e 105b 3e3e
00000310: d6b4 12be 8e48 43bd e153 7ebd 195f 263e
00000320: 7be6 823e 24b0 5b3e 03f3 633d 1555 423e
00000330: e083 143e 723b 64be 359b 093e 7634 16be
00000340: a3ce c0bd c3c1 6d3d f30d 99bd 7bdb 52be
00000350: b182 5fbe 3728 2cbe 8777 80be 8fcc 153e
00000360: 5e0d 623e 24b4 24be 19f3 223e 8642 223e
00000370: f8ae 93bd b069 2d3c 90b0 64be 33ac 5f3e
00000380: 54b3 313e 7f29 9cbd 510d e13d 5bcf 8f3b
00000390: f479 193c 656a 0a3e 1b1e 5e3d 4eea 8cbe
000003a0: 3b1f 89be a75a eebc 4aa2 88be e978 3a3d
000003b0: f4fc 8f3c 7751 003d 9cd7 82be 6a59 283e
000003c0: 7b9a 4abe a3e9 ad3d cbc9 c0bb aa1f 39be
000003d0: ca0e 373d b1fc 593e 344d b6bc f50c d43d
000003e0: f2a0 ebbd 2507 54bc 4fd2 f43d 5e57 3cbe
000003f0: 13ac e1bc 6089 db3b 42b9 c4bb 0b5e 27bd

glu_encoder.hid2lat.bias f4 [64]
0.023006866 -0.07261838 -0.18839328 0.033052094 0.0518112 0.034810077 0.19301432 -0.08716251
0.021703247 0.13307996 0.23985606 0.106619544 0.015419297 -0.005779775 -0.010483944 -0.19555756
-0.042354114 0.062014166 0.008218251 0.22238363 -0.075604536 0.1951596 0.11413044 0.07731896
0.15653458 0.08912552 0.06862829 0.023152996 -0.15411702 0.21565393 -0.1559874 -0.037891664
-0.23737419 -0.26004016 0.18447216 -0.11905227 0.22565061 -0.051717658 -0.21063553 -0.109864265
-0.03958004 0.005834004 0.14156948 0.016245632 0.26738843 0.12985042 0.11068576 0.20302208
-0.1647312 0.015541509 0.20142235 0.21703114 0.017134264 -0.10074683 0.048750184 -0.060276743
-0.25849488 -0.19543271 -0.2499664 -0.051828023 -0.2142774 -0.03008594 0.041140705 0.180982
00000000: e578 bc3c f2b8 94bd 2bea 40be a261 073d
00000010: fb37 543d 0395 0e3d 8ca5 453e 4282 b2bd
00000020: 02cb b13c 1d46 083e d49c 753e 595b da3d
00000030: 38a1 7c3c 4464 bdbb d9c4 2bbc 3e40 48be
00000040: 827b 2dbd 9102 7e3d d8a5 063c 89b8 633e
00000050: 8dd6 9abd ebd7 473e 38bd e93d 6759 9e3d
00000060: 9a4a 203e 7187 b63d fd8c 8c3d 5aab bd3c
00000070: dad0 1dbe 62d4 5c3e 29bb 1fbe 4a34 1bbd
00000080: 3812 73be fc23 85be 45e6 3c3e add1 f3bd
00000090: f410 673e e5d5 53bd d7b0 57be 8400 e1bd
000000a0: ae1e 22bd 2c2b bf3b 97f7 103e 8f15 853c
000000b0: 23e7 883e 82f7 043e 37af e23d 05e5 4f3e
000000c0: 4caf 28be d0a1 7e3c a941 4e3e 693d 5e3e
000000d0: 285d 8c3c 5b54 cebd 46ae 473d bfe4 76bd
000000e0: 7159 84be 831f 48be 31f7 7fbe 9f49 54bd
000000f0: 896b 5bbe ca76 f6bc 2883 283d 5853 393e

encoders.weight_ih_l0 f4 [192, 64]
-0.070255384 -0.12486361 -0.06949519 0.1649227 0.03379342 0.06220953 0.09081511 0.02532496
0.065508574 -0.049567778 0.14231259 -0.1071529 -0.07234535 -0.038655423 -0.09369459 0.055973984
0.045232028 0.04433327 -0.0779803 0.10998612 0.13991053 -0.050874002 0.04989822 0.02727414
0.04625402 0.16088074 -0.121372916 -0.09931544 -0.14810154 -0.05442412 0.091220364 -0.06796874
-0.050819684 0.04106393 0.002218975 -0.06271176 -0.16076478 -0.07277016 -0.11504384 0.118197106
-0.0071891034 -0.012467575 0.05135895 0.16431081 -0.0448517 0.09005453 -0.061917108 -0.05438686
-0.15404157 -0.10280531 -0.09412994 -0.08029247 0.07833822 0.103973836 0.052536853 -0.13803357
-0.062564 -0.015040873 -0.14962642 -0.16856168 -0.07329569 0.06274721 -0.024480708 0.13379647
-0.043586735 0.028733691 -0.08304616 -0.08303022 -0.07681191 0.08931787 0.07679983 0.025461674
-0.009774848 -0.09421668 0.024289342 -0.052048344 0.03160547 -0.052419692 -0.037929803 -0.041937802
0.035796344 -0.110493325 -0.10593679 0.06393597 0.096909866 0.107629165 0.097723365 -0.08928723
0.09754497 0.07920433 0.068809986 -0.055494983 0.11901179 0.023853758 0.014028111 -0.1007184
-0.10422336 -0.080832124 0.035315655 0.07539244 0.08113096 0.1097159 -0.023097608 -0.08134387
0.046711277 -0.045076597 -0.021707447 0.009114316 0.11917135 -0.058952823 0.0722873 -0.042608973
-0.12043175 0.05572106 -0.035385963 0.101915576 0.06984836 -0.08554648 -0.09221635 -0.1244655
-0.00997965 0.026024442 -0.10215149 -0.023285506 0.094813876 -0.033697125 -0.005918594 -0.038693275
-0.055089664 -0.050544973 -0.047392715 -0.038878564 -0.03381408 -0.0036176804 -0.06354116 -0.015895823
-0.14116016 -0.04450359 -0.055184867 -0.052637435 0.12758832 -0.014394648 0.014553898 -0.056815386
0.05266227 0.11110767 0.102767624 -0.047530763 -0.007880718 -0.07898536 0.1400841 -0.07111415
0.013594415 0.10005023 -0.019326774 -0.06807921 0.059908953 0.04357762 0.055243105 0.016919067
-0.13573495 -0.09362229 0.13276707 0.04614519 -0.073728964 0.061604593 -0.118032485 0.0830014
-0.0235913 -0.030065162 -0.031248303 -0.019926487 0.10992035 0.074986205 0.025374858 -0.081176706
-0.018404456 -0.04327463 -0.036922704 0.0149583435 -0.05746272 -0.0740222 -0.03093928 -0.002642431
0.0044829315 -0.037667423 -0.13583529 -0.13498524 -0.05034273 -0.07379941 -0.11639579 0.05768304
0.008032628 0.07554766 0.14209819 0.017049594 0.12262907 -0.097775616 0.13664228 -0.114091076
-0.07418515 -0.0055722888 0.07852754 -0.1078987 0.13589013 0.031062331 -0.0676019 0.05467507
0.0019298377 0.042456318 -0.015877534 -0.07256196 0.123306625 0.04443738 -0.09859572 -0.07555249
0.0630993 0.047345214 0.016357841 -0.14396948 0.00417429 -0.06326198 0.055791542 -0.14420627
-0.04097925 0.09922041 -0.028592493 -0.024721522 -0.042999752 -0.029086772 0.085748754 -0.053053774
-0.060192917 0.07063801 0.074207075 0.032677423 0.12029303 0.054238543 -0.010257376 0.03306355
0.085951164 0.055893186 -0.08604063 -0.060427476 -0.012243042 0.09126147 -0.07408251 0.019685842
0.057276573 -0.049087178 0.04673709 0.0036962528 -0.10890098 0.09158152 -0.1236144 0.14652695
00000000: 0ee2 8fbd 7eb8 ffbd 7f53 8ebd 7fe1 283e
00000010: f86a 0a3d 6ccf 7e3d 46fd b93d 4a76 cf3c
00000020: 5c29 863d 9507 4bbd 64ba 113e fb72 dbbd
00000030: cd29 94bd 2655 1ebd f3e2 bfbd fa44 653d
00000040: 3845 393d ce96 353d 23b4 9fbd 6740 e13d
00000050: b544 0f3e 4261 50bd 1362 4c3d 046e df3c
00000060: db74 3d3d ecbd 243e 5d92 f8bd e565 cbbd
00000070: eea7 17be d3eb 5ebd bed1 ba3d 3233 8bbd
00000080: 4d28 50bd a732 283d 396c 113b 066f 80bd
00000090: 869f 24be 8608 95bd 1b9c ebbd 5311 f23d
000000a0: 9292 ebbb cd44 4cbc c35d 523d 1841 283e
000000b0: 6bb6 37bd 826e b83d cb9c 7dbd c2c4 5ebd
000000c0: 13bd 1dbe 978b d2bd 33c7 c0bd 6170 a4bd
000000d0: ca6f a03d 3cf0 d43d e230 573d ac58 0dbe
000000e0: 8e21 80bd fe6d 76bc ab37 19be 6f9b 2cbe
000000f0: 0d1c 96bd 9c81 803d c48b c8bc f101 093e
00000100: 0188 32bd eb62 eb3c 1b14 aabd bf0b aabd
00000110: 904f 9dbd 4aec b63d 3b49 9d3d 0095 d03c
00000120: af26 20bc adf4 c0bd 71fa c63c a530 55bd
00000130: bd74 013d 08b6 56bd 485c 1bbd f9c6 2bbd
00000140: 309f 123d 534a e2bd 63f5 d8bd ddf0 823d
00000150: ae78 c63d ae6c dc3d 3023 c83d 39dc b6bd
00000160: a8c5 c73d e135 a23d 40ec 8c3d b54e 63bd
00000170: 74bc f33d f568 c33c 29d6 653c 7345 cebd
00000180: 0f73 d5bd 508b a5bd 26a7 103d 5a67 9a3d
00000190: fd27 a63d bbb2 e03d 3237 bdbc 9d97 a6bd
000001a0: 5354 3f3d 3da2 38bd d1d3 b1bc 3654 153c
000001b0: 1c10 f43d 8478 71bd 5d0b 943d bf86 2ebd
000001c0: eca4 f6bd c43b 643d dff0 10bd 1db9 d03d
000001d0: a80c 8f3d fe32 afbd eddb bcbd c5e7 febd
000001e0: b081 23bc 3631 d53c cd34 d1bd 3fc1 bebc
000001f0: c72d c23d ff05 0abd c4f0 c1bb d77c 1ebd
00000200: b3a5 61bd 3f08 4fbd dd1e 42bd 213f 1fbd
00000210: a280 0abd 9b16 6dbb de21 82bd f537 82bc
00000220: 4a8c 10be 6549 36bd 8709 62bd 5a9a 57bd
00000230: 83a6 023e 88d7 6bbc 7973 6e3c 40b7 68bd
00000240: 64b4 573d 6b8c e33d d577 d23d 9eaf 42bd
00000250: 211e 01bc 14c3 a1bd 3572 0f3e 4ca4 91bd
00000260: 1cbb 5e3c 23e7 cc3d 2f53 9ebc 1d6d 8bbd
00000270: 1763 753d 727e 323d 9846 623d db99 8a3c
00000280: 1afe 0abe 0bbd bfbd 17f4 073e bd02 3d3d
00000290: 36ff 96bd 1955 7c3d 04bb f1bd a3fc a93d
000002a0: 8b42 c1bc 374b f6bc 71fc ffbc df3c a3bc
000002b0: ec1d e13d 5e92 993d efde cf3c f93f a6bd
000002c0: f1c4 96bc bd40 31bd 433c 17bd d713 753c
000002d0: 075e 6bbd f498 97bd 5f74 fdbc a32c 2dbb
000002e0: 8ee5 923b 2849 1abd 6818 0bbe 9239 0abe
000002f0: 2e34 4ebd 2524 97bd ea60 eebd 0d45 6c3d
00000300: 499b 033c bbb8 9a3d 3082 113e 97ab 8b3c
00000310: f324 fb3d 953e c8bd f4eb 0b3e 95a8 e9bd
00000320: 62ee 97bd bf97 b6bb 0cd3 a03d fef9 dcbd
00000330: c826 0b3e 6e76 fe3c dd72 8abd f7f2 5f3d
00000340: 9cf2 fc3a ade6 2d3d 9a11 82bc 5d9b 94bd
00000350: 2f88 fc3d f803 363d 8eec c9bd 44bb 9abd
00000360: 353a 813d 0eed 413d e100 863c bc6c 13be
00000370: 7cc8 883b 7f8f 81bd ac85 643d cfaa 13be
00000380: dcd9 27bd 1234 cb3d ce3a eabc ca84 cabc
00000390: 8220 30bd 6247 eebc 0b9d af3d ea4e 59bd
000003a0: d98c 76bd a9aa 903d e1f9 973d c3d8 053d
000003b0: 315c f63d 3c29 5e3d 8e0e 28bc a56d 073d
000003c0: 2a07 b03d 41f0 643d 1236 b0bd cd82 77bd
000003d0: 0a97 48bc 4be7 ba3d 92b8 97bd 3444 a13c
000003e0: d79a 6a3d a30f 49bd 646f 3f3d d53c 723b
000003f0: 7a07 dfbd 188f bb3d 8c29 fdbd 290b 163e
