code/baseline/saved/GAMNet_learning_rate_0.0001_hidden_size_64_epoch_6000_batch_size_32/Epoch_3700_JA_0.7268_DDI_0.0976.model (torch, 455805 bytes, 29 tensors)

lab_embeddings f4 [32, 64]
0.28916278 0.16570881 -0.7414578 -1.6503694 -0.660978 -1.5178344 1.1891453 0.499456
0.760948 0.5072763 -1.7248944 -1.3672489 0.5235197 -0.45955878 0.67292035 1.9393929
0.7011674 0.19206834 0.3858558 0.4429955 0.25805762 -0.7719704 -1.0955927 -0.98117995
-0.6567498 -1.0117939 0.71029687 -2.3493829 -0.358769 0.8388013 1.4290994 0.38978368
-2.21574 1.725671 -0.2693902 -1.9049058 -0.4232568 -0.6088698 -1.1312292 -0.9338466
0.50612587 0.4470304 1.0122656 -0.45777744 0.4124429 0.91357064 2.258341 0.564608
-0.29267174 -0.36701405 0.27309388 -0.4837496 -0.80762094 0.17776808 -0.636472 0.7888616
-0.2998586 -0.18061003 2.5148876 -0.5530743 0.049242 0.33067542 1.810214 0.029297303
-0.18202719 -0.6058514 -0.44920546 -0.070338756 0.1949797 0.57912487 1.8668066 0.30681244
-1.0377382 -1.3053933 -1.2965101 0.046524577 -1.4996725 -1.1134362 0.875854 -0.9108232
-0.11835847 0.56087565 1.4895893 1.1953216 0.38913244 -0.48899361 0.2098586 2.3024137
-0.03907084 1.0227375 0.3677484 0.9683142 0.04512648 1.8627477 0.8434402 0.122866146
-0.81129104 -1.4213938 -0.54739404 0.518882 1.2853389 -0.26866356 0.16115625 0.37791216
0.424192 -1.1864088 0.7543302 0.69775045 1.5964502 -0.25425133 -1.9549646 -0.6160492
0.68486685 -1.6137938 0.7852744 0.60044646 0.5344762 -0.4882318 -1.2415001 -0.7384799
-1.983745 3.3282995 0.18584499 0.39630482 0.6830149 0.96159863 -2.1994298 1.4018974
-0.89455885 -0.25647545 1.631978 -0.21195008 0.23946467 -1.0331216 -0.9904473 -0.7551755
-0.8603192 0.92423385 -0.038133606 1.2228297 -0.31997427 0.5864373 -0.46337685 2.1279848
-0.80654335 0.21400325 0.80972683 -0.3769435 -0.80606496 0.5687532 1.5372314 0.008111668
-1.3889232 -0.18233818 -0.65297335 -0.7996207 0.35625592 -0.2738344 -0.17077807 0.77652586
-0.80463415 1.444071 0.3675943 0.5429696 0.7580702 0.33603567 0.02652976 1.4387769
2.024318 -0.23274255 0.4410161 -0.22257014 1.2640921 -0.28574723 -0.3894187 -0.6533532
-0.37795776 0.3074155 -1.0426114 0.35977364 -1.37823 0.34577778 0.08596941 -1.7307405
-0.04600042 0.84382087 0.27062708 -0.07489603 0.3762934 -1.3659753 -0.8933917 -0.5126258
-0.04086651 -0.65479046 0.9262533 -1.0762594 -0.10948143 -2.001634 -1.4709499 0.15464653
0.26383743 1.1794347 -0.43033975 -1.0302826 0.8677928 1.9870914 0.2544688 -0.11130247
0.26484853 0.62892914 -0.3033685 0.043770593 0.27528715 -1.3738978 -2.5108237 -0.40284428
-0.6052555 -0.09095195 2.2371485 -1.7605736 0.5708543 0.03798728 -0.30486622 0.41395712
0.21619886 1.2363462 0.9654726 -1.2585204 0.516539 -0.05224221 1.9422194 -2.115118
0.76486653 0.30596077 -0.051258363 -0.39935488 -0.7678439 0.6242705 -1.1912124 0.78959054
-0.63720053 -1.2816778 0.54735875 0.95094913 1.3589561 0.48591024 -1.8737304 0.7262814
0.63107026 1.4042202 -0.92572033 0.7435154 1.1235701 -0.23041892 0.67184293 2.1912048
00000000: 250d 943e 92af 293e 2ed0 3dbf 4e3f d3bf
00000010: db35 29bf 6648 c2bf ea35 983f b2b8 ff3e
00000020: 7dcd 423f dcdc 013f 57c9 dcbf 0302 afbf
00000030: 6305 063f 4a4b ebbe 8244 2c3f 073e f83f
00000040: b57f 333f 90ad 443e e48e c53e 4ed0 e23e
00000050: 2120 843e da9f 45bf 623c 8cbf 9c2e 7bbf
00000060: c120 28bf 7682 81bf 04d6 353f 4a5c 16c0
00000070: 92b0 b7be afbb 563f bbec b63f ba91 c73e
00000080: afce 0dc0 cae2 dc3f 83ed 89be f4d3 f3bf
00000090: 1eb5 d8be e4de 1bbf 1ecc 90bf 9210 6fbf
000000a0: 7791 013f 2be1 e43e eb91 813f ce61 eabe
000000b0: b72b d33e c4df 693f a988 1040 268a 103f
000000c0: 12d9 95be 44e9 bbbe f6d2 8b3e 07ae f7be
000000d0: 3fc0 4ebf d608 363e d4ef 22bf d5f2 493f
000000e0: 1187 99be d6f1 38be ebf3 2040 4796 0dbf
000000f0: fbb1 493d 4a4e a93e 18b5 e73f e600 f03c
00000100: 5665 3abe 1419 1bbf 42fe e5be c40d 90bd
00000110: c2a8 473e 8741 143f 85f3 ee3f 8516 9d3e
00000120: 9bd4 84bf 2117 a7bf 0bf4 a5bf 8e90 3e3d
00000130: 45f5 bfbf 1485 8ebf f837 603f b62b 69bf
00000140: ed65 f2bd 8c95 0f3f ddaa be3f 4c00 993f
00000150: 5e3c c73e 5f5d fabe 2ce5 563e bf5a 1340
00000160: bf08 20bd 10e9 823f 8549 bc3e 70e3 773f
00000170: 8bd6 383d 846e ee3f b2eb 573f 3fa1 fb3d
00000180: c5b0 4fbf 3bf0 b5bf 0422 0cbf 73d5 043f
00000190: fc85 a43f 458e 89be 2506 253e b47d c13e
000001a0: b22f d93e 3edc 97bf c91b 413f c69f 323f
000001b0: 7b58 cc3f 3b2d 82be 483c fabf 66b5 1dbf
000001c0: 6f53 2f3f cc90 cebf be07 493f dcb6 193f
000001d0: 6fd3 083f 85f9 f9be 7ae9 9ebf 050d 3dbf
000001e0: 5beb fdbf dc02 5540 264e 3e3e 77e8 ca3e
000001f0: 11da 2e3f 542b 763f 75c3 0cc0 6071 b33f
00000200: cf01 65bf c050 83be a8e4 d03f 7109 59be
00000210: 3a36 753e 543d 84bf f48d 7dbf 2e53 41bf
00000220: e13d 5cbf 979a 6c3f fc31 1cbd af85 9c3f
00000230: abd3 a3be c120 163f bb3f edbe e730 0840
00000240: a079 4ebf ab23 5b3e 424a 4f3f bdfe c0be
00000250: 465a 4ebf cf99 113f 00c4 c43f cde6 043c
00000260: 3cc8 b1bf dcb6 3abe 4329 27bf f1b3 4cbf
00000270: 2d67 b63e 0634 8cbe 72e0 2ebe 66ca 463f
00000280: 81fc 4dbf 52d7 b83f 5235 bc3e 0e00 0b3f
00000290: e310 423f de0c ac3e f054 d93c d729 b83f
000002a0: 6d8e 0140 1054 6ebe ddcc e13e 6de9 63be
000002b0: c5cd a13f 764d 92be e361 c7be 2842 27bf
000002c0: ae83 c1be 9065 9d3e 4a74 85bf 4034 b83e
000002d0: d769 b0bf c909 b13e bb10 b03d e888 ddbf
000002e0: f06a 3cbd a504 583f a28f 8a3e 1763 99bd
000002f0: 87a9 c03e 47d8 aebf 52b5 64bf 723b 03bf
00000300: a463 27bd 59a0 27bf f01e 6d3f dec2 89bf
00000310: cd37 e0bd c51a 00c0 1648 bcbf a95b 1e3e
00000320: b315 873e b7f7 963f 7e55 dcbe 4de0 83bf
00000330: ab27 5e3f 0359 fe3f bc49 823e 8df2 e3bd
00000340: 3a9a 873e 8001 213f 1e53 9bbe cb48 333d
00000350: 70f2 8c3e e2db afbf 56b1 20c0 9b41 cebe
00000360: 06f2 1abf 0445 babd 712d 0f40 7a5a e1bf
00000370: 8223 123f 8d98 1b3d 6d17 9cbe 30f2 d33e
00000380: 3c63 5d3e 9840 9e3f 3629 773f 3217 a1bf
00000390: e63b 043f edfb 55bd a59a f83f 185e 07c0
000003a0: 4bce 433f e4a6 9c3e 4af4 51bd 3e78 ccbe
000003b0: 6b91 44bf 31d0 1f3f a679 98bf 9b22 4a3f
000003c0: 931f 23bf 050e a4bf b41f 0c3f 6771 733f
000003d0: 46f2 ad3f 3ac9 f83e 66d6 efbf 94ed 393f
000003e0: d28d 213f 7dbd b33f 02fc 6cbf 0657 3e3f
000003f0: 25d1 8f3f f0f2 6bbe e6fd 2b3f b33c 0c40

static_ll.0.weight f4 [128, 64]
0.13275419 -0.09507414 -0.10090952 -0.12812011 0.07907304 -0.066268176 -0.14156045 0.018409587
0.0715143 -0.06581057 -0.026603974 -0.07507417 0.17726235 -0.04344561 0.015551132 -0.0822713
-0.13287063 0.1021243 -0.06481122 -0.106304586 -0.04623754 -0.073526986 -0.13232335 -0.10579116
0.103806555 -0.029548524 0.0680875 -0.097271286 0.07614166 -0.061697338 0.07810185 0.12680481
0.10457107 0.09711991 -0.0077432184 -0.12274252 0.037100554 0.06731651 0.04461499 -0.055577893
0.013863867 0.06395753 0.0639777 0.04623249 -0.071516804 0.065422714 -0.05200678 -0.084313326
-0.05938415 -0.12774186 0.13780187 0.15790068 0.04622571 -0.020090142 -0.0562045 -0.1255915
0.015016052 -0.0012542732 -0.04138945 0.045932427 -0.13417754 -0.10282494 -0.022798987 -0.012378991
-0.036948327 0.09073055 -0.117141 0.13373911 -0.059009507 -0.071408875 0.09859123 -0.07897961
-0.08486963 0.054658502 -0.027529303 0.1064703 -0.06947095 0.012797764 0.061336275 -0.11235372
-0.09145086 -0.09319842 0.010205171 0.120331734 0.07298068 0.064535744 0.05783569 0.033687636
0.081421055 0.04035906 0.082765065 0.14840169 0.08865474 0.12824689 0.020631058 -0.13307466
-0.08788889 -0.13245521 0.031624336 -0.034879904 -0.032589346 0.12068413 -0.037985824 0.13277648
-0.044127118 -0.09680743 0.12834874 -0.1079403 -0.08053745 -0.015239663 -0.046285667 -0.020262592
-0.06791297 0.033517797 0.15561484 0.0022204423 -0.13882357 -0.021615956 -0.07793654 0.0058961837
-0.08154901 0.15575573 -0.023597814 0.081341974 -0.000102856065 0.10065439 -0.11618067 0.10200231
0.08323346 -0.0016819328 -0.006654142 0.008309952 0.08749181 -0.15843081 -0.11212157 -0.030108254
-0.077865355 -0.02882343 -0.08033969 -0.13257846 0.0059560463 -0.07588948 -0.09278624 -0.018347258
-0.079026446 0.11407523 -0.042746697 -0.107862666 0.049645476 -0.060666323 -0.030379405 0.03460471
-0.062420312 -0.111310415 -0.08586385 -0.055336654 -0.06752692 0.07769496 0.063196085 -0.03167739
-0.12899365 0.082365505 0.01840491 0.02771116 0.03680022 -0.008095784 0.03654052 -0.022501567
-0.022319146 -0.08454962 0.083879024 -0.064915344 0.1443478 0.112818524 0.12618048 -0.042590402
-0.10537417 -0.018075513 0.08086928 0.08982957 -0.007156827 0.11177879 0.10096099 -0.032800816
0.008419673 0.00012489833 0.020744644 -0.0716233 0.1279303 0.097674675 0.038869042 -0.06904089
-0.0809442 -0.057638742 -0.02117791 -0.034005523 0.14383087 0.10761343 -0.13964142 0.077839345
-0.092453375 0.08077641 0.04973816 -0.0069936225 0.08276609 0.04964566 0.03020292 0.052274816
0.0804802 -0.018917387 -0.023897303 0.057109322 0.091120735 0.09354712 -0.02806952 -0.039913125
0.09421804 -0.011373693 -0.14434895 0.029539522 0.02449644 -0.012849125 0.012313473 0.058893386
0.017677676 -0.08826501 0.004175383 0.045728076 -0.03591738 -0.074902676 -0.11691583 0.052969187
0.121515535 -0.16369832 -0.1049573 0.10100387 -0.038118698 -0.06633122 0.0956338 -0.10250831
0.020372685 0.036014993 -0.15241048 -0.025342016 0.14682356 -0.088488504 -0.019831697 -0.0697448
0.027092991 -0.051521096 -0.00010117721 -0.07488918 -0.07010107 -0.086230695 -0.07740708 -0.016736405
00000000: b7f0 073e 3bb6 c2bd a7a9 cebd eb31 03be
00000010: 0cf1 a13d 9cb7 87bd 39f5 10be b4cf 963c
00000020: 1776 923d b1c7 86bd 94f0 d9bc 7dc0 99bd
00000030: 4384 353e 06f4 31bd 2dca 7e3c db7d a8bd
00000040: 3d0f 08be 8c26 d13d bfbb 84bd 38b6 d9bd
00000050: 9363 3dbd 5195 96bd c67f 07be 09a9 d8bd
00000060: 8898 d43d bf0f f2bc 7671 8b3d 2b36 c7bd
00000070: 29f0 9b3d 59b6 7cbd ddf3 9f3d 1fd9 013e
00000080: 5b29 d63d cee6 c63d d3ba fdbb 6e60 fbbd
00000090: c0f6 173d 3ddd 893d 35be 363d a5a5 63bd
000000a0: 4625 633c 2afc 823d be06 833d 485e 3d3d
000000b0: 6777 92bd 58fc 853d 1005 55bd 77ac acbd
000000c0: cb3c 73bd c3ce 02be ef1b 0d3e b7b0 213e
000000d0: 2c57 3d3d 1594 a4bc b136 66bd 0f9b 00be
000000e0: e305 763c 6d66 a4ba fc87 29bd a423 3c3d
000000f0: d665 09be e295 d2bd f1c4 babc 40d1 4abc
00000100: 2157 17bd f0d0 b93d 9fe7 efbd e8f2 083e
00000110: f4b3 71bd d13e 92bd 33ea c93d 10c0 a1bd
00000120: 21d0 adbd 98e1 5f3d 2285 e1bc 1a0d da3d
00000130: c946 8ebd b6ad 513c bf3b 7b3d b519 e6bd
00000140: 974a bbbd d0de bebd 9733 273c 7c70 f63d
00000150: e576 953d 512b 843d 1ee5 6c3d 0cfc 093d
00000160: 15c0 a63d 8b4f 253d bb80 a93d 9df6 173e
00000170: 9e90 b53d 2753 033e 7702 a93c b944 08be
00000180: 17ff b3bd 57a2 07be 8588 013d 3bde 0ebd
00000190: 687c 05bd 3e29 f73d 0697 1bbd 8ff6 073e
000001a0: a3be 34bd f942 c6bd da6d 033e ce0f ddbd
000001b0: d2f0 a4bd c8af 79bc 0a96 3dbd bcfd a5bc
000001c0: f515 8bbd f549 093d 7f59 1f3e d784 113b
000001d0: c427 0ebe f213 b1bc 319d 9fbd c634 c13b
000001e0: 2b03 a7bd 6e7e 1f3e 3450 c1bc 9f96 a63d
000001f0: 6eb4 d7b8 e423 ce3d 22f0 edbd 96e6 d03d
00000200: 4e76 aa3d 4d74 dcba fd0a dabb 7726 083c
00000210: e82e b33d b03b 22be fe9f e5bd 96a5 f6bc
00000220: df77 9fbd 1d1f ecbc 2389 a4bd a6c2 07be
00000230: f02a c33b f26b 9bbd b606 bebd fd4c 96bc
00000240: 9ed8 a1bd 46a0 e93d 2917 2fbd 1ae7 dcbd
00000250: 0e59 4b3d 407d 78bd 3bde f8bc abbd 0d3d
00000260: 71ac 7fbd b7f6 e3bd 63d9 afbd b0a8 62bd
00000270: 8e4b 8abd 891e 9f3d f36c 813d 27c0 01bd
00000280: e916 04be 3faf a83d e5c5 963c 8402 e33c
00000290: d4bb 163d 2ea4 04bc 83ab 153d 3555 b8bc
000002a0: a4d6 b6bc 5a28 adbd c4c8 ab3d 56f2 84bd
000002b0: e9cf 133e 660d e73d 7535 013e 4673 2ebd
000002c0: 6ace d7bd 1913 94bc cb9e a53d 91f8 b73d
000002d0: d183 eabb 47ec e43d a3c4 ce3d 265a 06bd
000002e0: abf2 093c 24f7 0239 acf0 a93c 3daf 92bd
000002f0: 2900 033e a909 c83d 2535 1f3d 4f65 8dbd
00000300: 13c6 a5bd 9a16 6cbd 4c7d adbc 6049 0bbd
00000310: 6648 133e 6e64 dc3d 29fe 0ebe 3c6a 9f3d
00000320: 3258 bdbd 1a6e a53d 3eba 4b3d c22a e5bb
00000330: 4581 a93d 3f59 4b3d 1d6c f73c 1e1e 563d
00000340: ced2 a43d a3f8 9abc 47c4 c3bc 77eb 693d
00000350: 829d ba3d a295 bf3d 0df2 e5bc f27b 23bd
00000360: 63f5 c03d ba58 3abc 36d0 13be defc f13c
00000370: c2ac c83c 2385 52bc 73be 493c 313a 713d
00000380: c6d0 903c 49c4 b4bd a7d1 883b 5d4d 3b3d
00000390: 1a1e 13bd 9366 99bd 9171 efbd 38f6 583d
000003a0: 23dd f83d 88a0 27be daf3 d6bd 1edb ce3d
000003b0: 5a22 1cbd aad8 87bd a7db c33d e0ef d1bd
000003c0: 9ee4 a63c 7584 133d 7e11 1cbe 0f9a cfbc
000003d0: ea58 163e 7639 b5bd 1576 a2bc 5dd6 8ebd
000003e0: 1ff2 dd3c c907 53bd 1a2f d4b8 805f 99bd
000003f0: 2691 8fbd b899 b0bd 9a87 9ebd c91a 89bc

static_ll.0.bias f4 [128]
0.112955615 -0.09070995 0.017034642 -0.05532457 0.11083092 0.08248052 -0.0709375 0.11968945
0.017411152 0.13671938 0.13693663 -0.055471446 -0.026534565 0.096757166 0.015974596 0.11627583
0.12348407 -0.079505816 0.028298333 0.07458141 0.09713792 0.0062319087 0.07347858 0.14569244
0.11654712 0.103490554 -0.049199324 -0.085153274 -0.06648513 0.11350721 -0.023817524 -0.06907131
-0.0018639552 0.08165859 0.11573175 -0.08217565 0.1263743 0.10673304 0.007956112 0.06473303
0.008044999 -0.021599026 -0.01925826 -0.07830281 0.0012696026 -0.029663807 -0.05993967 -0.051001597
-0.026798565 0.1113144 0.113379695 0.026031842 0.03576179 0.13768859 -0.032884892 0.071347915
0.1393803 0.09645473 -0.11101908 -0.07853389 -0.02819621 0.103252426 -0.057672538 -0.07321852
-0.053975824 -0.042786423 0.04434275 -0.07042872 -0.0039085546 -0.016589848 0.05032017 0.072057344
-0.0112648 -0.029013036 -0.05788245 0.02111879 0.012154158 0.020780586 -0.033198867 0.010854835
0.006847785 0.09144495 -0.083741784 0.008950939 -0.07163236 -0.00681369 -0.07097451 0.038571935
0.16128334 -0.07307208 0.101585835 -0.036334805 -0.09808253 0.030742284 -0.016784385 -0.0057136584
-0.06606337 0.07401105 0.009542358 -0.00457139 0.11616748 -0.070408784 0.058450893 -0.05257584
-0.081751555 -0.04391022 0.11787799 0.10424812 0.053447675 0.039107926 0.04394979 -0.018072115
0.11870179 -0.080219105 0.058593456 -0.037317317 0.044792075 0.06190534 0.05824784 -0.10259005
0.07192675 -0.013468061 0.106714465 -0.062776655 0.07010946 -0.1237264 0.124916196 0.018485423
00000000: 4655 e73d 23c6 b9bd 3c8c 8b3c 049c 62bd
00000010: 52fb e23d 8ceb a83d ae47 91bd be1f f53d
00000020: d5a1 8e3c 2a00 0c3e 1e39 0c3e 0736 63bd
00000030: 045f d9bc 9f28 c63d 28dd 823c 0622 ee3d
00000040: 37e5 fc3d f2d3 a2bd e8d1 e73c 23be 983d
00000050: 3ff0 c63d 0a35 cc3b f07b 963d 6630 153e
00000060: 42b0 ee3d dbf2 d33d 3b85 49bd d764 aebd
00000070: 5b29 88bd 7876 e83d f81c c3bc 4275 8dbd
00000080: f54f f4ba 9e3c a73d c504 ed3d b54b a8bd
00000090: 4468 013e da96 da3d 5a5a 023c c092 843d
000000a0: 2ccf 033c 71f0 b0bc 80c3 9dbc 395d a0bd
000000b0: cb68 a63a 8301 f3bc 4d83 75bd 0de7 50bd
000000c0: aa88 dbbc cef8 e33d 9d33 e83d bb40 d53c
000000d0: f47a 123d 3dfe 0c3e 4fb2 06bd db1e 923d
000000e0: b6b9 0e3e 0f8a c53d f95d e3bd 60d6 a0bd
000000f0: bdfb e6bc 0276 d33d 0a3a 6cbd 97f3 95bd
00000100: c115 5dbd d140 2fbd bea0 353d ef3c 90bd
00000110: 5513 80bb 6fe7 87bc 861c 4e3d cd92 933d
00000120: ff8f 38bc bfac edbc 2616 6dbd 5001 ad3c
00000130: 3c22 473c 0c3c aa3c 89fb 07bd 7ad8 313c
00000140: 6263 e03b 7d47 bb3d d080 abbd f6a6 123c
00000150: fdb3 92bd 6045 dfbb 155b 91bd 9bfd 1d3d
00000160: 7627 253e d1a6 95bd 3c0c d03d ced3 14bd
00000170: 7edf c8bd 3ed7 fb3c 687f 89bc a439 bbbb
00000180: 3b4c 87bd 1b93 973d 8d57 1c3c 99cb 95bb
00000190: 37e9 ed3d 7b32 90bd 346a 6f3d c459 57bd
000001a0: 5c6d a7bd 34db 33bd 046a f13d 0a80 d53d
000001b0: f3eb 5a3d a22f 203d b204 343d f90b 94bc
000001c0: ed19 f33d ea49 a4bd b1ff 6f3d 0bda 18bd
000001d0: e577 373d 7490 7d3d 4995 6e3d bb1a d2bd
000001e0: 554e 933d 24a9 5cbc 1d8d da3d 0c91 80bd
000001f0: 8c95 8f3d 4464 fdbd 10d4 ff3d be6e 973c

static_ll.2.weight f4 [64, 128]
0.041056473 -0.07312016 0.050305504 0.061825793 0.080931544 0.013132797 -0.05748533 -0.035463322
-0.081770524 0.008122683 -0.023780484 0.003988598 -0.017692424 0.0080506755 0.04637479 0.07810349
0.051473305 -0.049506087 -0.025455732 -0.05406768 -0.041989684 0.07048234 0.052046444 0.026011819
-0.0029433358 0.061648257 -0.049753733 -0.012997454 0.005177869 -0.00640133 0.0053633647 -0.08275502
0.08572931 -0.046782527 -0.01640882 -0.06928802 0.11062731 0.033000946 0.0052037085 0.011020971
-0.0413073 0.036171727 0.0020353359 0.0810645 0.038765337 -0.06691266 0.052233 0.055763364
0.041040972 -0.009556015 -0.029385746 -0.0735542 -0.0018473982 0.08157531 -0.03640408 0.079122625
0.03077139 -0.09243306 -0.056288164 0.056460436 0.094690084 0.07680398 0.0072983704 -0.0052038324
0.0036741334 -0.020067206 0.08663105 -0.039305523 -0.025155313 0.055546682 -0.0005942473 -0.06913765
0.02942864 0.019214435 0.008094495 -0.021039475 -0.0682488 -0.029083151 0.037585963 -0.017341057
0.031048195 0.069535956 0.034414537 0.0037906033 -0.017154917 -0.014980293 -0.07512105 0.004140685
8.0698745e-05 -0.04819932 -0.07148102 -0.066812865 0.052614138 0.06763504 -0.042238813 -0.07054312
0.0017903401 0.027674299 0.06335114 0.076990396 0.021713091 0.053754594 0.042679273 0.08537877
0.045500077 -0.04595731 0.0792764 0.041671757 0.01793739 0.07026268 -0.028195191 -0.05412655
-0.008118038 0.04873669 -0.028405767 0.079634584 0.09876755 0.012304408 -0.007649314 -0.024333052
-0.034734927 0.04646664 0.0809063 -0.05943563 0.023342561 0.007493348 0.09522426 0.038821682
0.042212274 -0.03966642 0.020344188 -0.0105519 0.043539774 -0.06765476 0.050774515 0.06981154
0.017158637 -0.020242482 0.05381752 0.12370836 0.003140764 0.042231034 -0.019772083 0.07321264
-0.021756819 -0.012701044 0.065905504 0.049484078 -0.059763215 0.0718275 0.060482036 -0.05590549
0.0066451333 0.038246628 0.03222815 0.05124326 -0.07456738 0.08696904 0.019913869 0.06752848
-0.014427374 0.011820196 0.022007892 0.044973545 0.061682098 0.060452767 0.017615296 0.071722135
0.043808013 -0.03790957 0.013834268 -0.07402663 0.052375183 0.05464326 0.06849371 0.07761823
-0.09839923 0.118698 0.056965325 0.030778624 -0.04654562 0.06415525 0.032144334 -0.079055615
0.03323029 -0.12105999 -0.08093226 0.0055728476 0.12035617 -0.025382448 0.03238906 0.0066463943
0.01911536 -0.02757134 0.09274323 0.029815385 -0.08823118 -0.043720722 0.061416727 -0.09392048
-0.0023459778 -0.007494559 0.030222267 -0.015237502 0.016276404 -0.010346245 -0.029890701 0.08672597
-0.028692992 0.06184828 -0.09130005 0.00619043 -0.0817737 0.040029198 0.08580824 -0.051949974
0.026108818 0.101707466 -0.04828946 -0.06376054 0.065422826 0.073806986 0.0002771814 0.09729898
0.08814494 0.083703026 0.0927788 -0.0146015985 0.039711587 -0.037552003 0.001005246 0.0085316
-0.042145208 0.03604734 0.0336158 0.046060596 -0.045538746 -0.047368746 0.003173594 -0.0038639628
-0.04201227 -0.07983754 0.010661235 0.028493514 -0.06709686 0.08152292 0.07736556 -0.023436043
-0.063698396 -0.025143582 -0.07552778 -0.01003093 -0.022734875 0.002059676 -0.009566181 -0.04163048
00000000: d52a 283d 06c0 95bd 250d 4e3d 0b3d 7d3d
00000010: 70bf a53d f12a 573c bd75 6bbd fd41 11bd
00000020: 4e77 a7bd 0015 053c 4acf c2bc c9b2 823b
00000030: b4ef 90bc fbe6 033c 7ef3 3d3d b9f4 9f3d
00000040: acd5 523d e5c6 4abd 8a88 d0bc 1276 5dbd
00000050: 60fd 2bbd 0c59 903d a72e 553d bd16 d53c
00000060: fbe4 40bb e282 7c3d 92ca 4bbd 46f3 54bc
00000070: 1dab a93b 40c2 d1bb 2abf af3b 777b a9bd
00000080: d992 af3d 099f 3fbd ca6b 86bc e1e6 8dbd
00000090: 9290 e23d 002c 073d df83 aa3b 4e91 343c
000000a0: d831 29bd ce28 143d 4563 053b 2505 a63d
000000b0: 67c8 1e3d 8109 89bd 45f2 553d 2068 643d
000000c0: 941a 283d d590 1cbc 60ba f0bc 96a3 96bd
000000d0: 6624 f2ba f510 a73d 721c 15bd 0b0b a23d
000000e0: 4814 fc3c 8b4d bdbd 6b8e 66bd 0f43 673d
000000f0: e0ec c13d 684b 9d3d 2b27 ef3b e984 aabb
00000100: bbc9 703b fb63 a4bc 9f6b b13d d4fe 20bd
00000110: 8412 cebc eb84 633d 43c7 1bba 0a98 8dbd
00000120: 5514 f13c 9767 9d3c c69e 043c fa5a acbc
00000130: 07c6 8bbd ca3f eebc bdf3 193d d50e 8ebc
00000140: c958 fe3c de68 8e3d 42f6 0c3d c56b 783b
00000150: 7888 8cbc e76f 75bc 11d9 99bd 95ae 873b
00000160: cf3c a938 a66c 45bd a464 92bd 2fd5 88bd
00000170: ec81 573d 3d84 8a3d 9b02 2dbd e978 90bd
00000180: d8a9 ea3a 36b5 e23c 3ebe 813d 24ad 9d3d
00000190: a7df b13c c72d 5c3d 76d0 2e3d 11db ae3d
000001a0: 4a5e 3a3d bb3d 3cbd aa5b a23d 01b0 2a3d
000001b0: 6ff1 923c e1e5 8f3d 9af9 e6bc cdb3 5dbd
000001c0: 8501 05bc 20a0 473d 36b3 e8bc 7517 a33d
000001d0: a446 ca3d 6d98 493c 19a7 fabb 1c56 c7bc
000001e0: 3646 0ebd ce53 3e3d 34b2 a53d c672 73bd
000001f0: e638 bf3c c28a f53b f004 c33d 7c03 1f3d
00000200: c7e6 2c3d 4279 22bd dba8 a63c e0e1 2cbc
00000210: c356 323d 948e 8abd f0f8 4f3d 5af9 8e3d
00000220: 4590 8c3c 90d3 a5bc c36f 5c3d cf5a fd3d
00000230: 47d5 4d3b 73fa 2c3d 10f9 a1bc 82f0 953d
00000240: 5b3b b2bc 0a18 50bc 77f9 863d d1af 4a3d
00000250: 46ca 74bd 4c1a 933d 03bc 773d 28fd 64bd
00000260: 6bbf d93b 7fa8 1c3d aa01 043d 74e4 513d
00000270: c8b6 98bd d31c b23d 6922 a33c 5f4c 8a3d
00000280: cb60 6cbc 7fa9 413c e549 b43c 2e36 383d
00000290: 5ea6 7c3d 529d 773d f44d 903c 0ee3 923d
000002a0: 0870 333d 1147 1bbd 20a9 623c 469b 97bd
000002b0: 5c87 563d 9cd1 5f3d 6e46 8c3d 4ef6 9e3d
000002c0: 8985 c9bd f017 f33d 7954 693d 7423 fc3c
000002d0: 9fa6 3ebd d463 833d c7a9 033d e9e7 a1bd
000002e0: 7c1c 083d 4dee f7bd d0bf a5bd 6f9c b63b
000002f0: 4c7d f63d daee cfbc 64aa 043d ffc9 d93b
00000300: d197 9c3c 4add e1bc 2af0 bd3d 653f f43c
00000310: 8db2 b4bd 8014 33bd 1b90 7b3d 6159 c0bd
00000320: fabe 19bb eb94 f5bb b094 f73c b7a6 79bc
00000330: 1856 853c 4c83 29bc 58dd f4bc 639d b13d
00000340: 910d ebbc 9f54 7d3d 85fb babd 17d9 ca3b
00000350: f878 a7bd a8f5 233d 3bbc af3d 7fc9 54bd
00000360: 29e2 d53c 014c d03d 2bcb 45bd e394 82bd
00000370: 67fc 853d 1e28 973d a852 9139 b044 c73d
00000380: 5685 b43d 7e6c ab3d d002 be3d 8b3b 6fbc
00000390: 9ea8 223d 21d0 19bd 75c2 833a 20c8 0b3c
000003a0: 74a0 2cbd 60a6 133d b9b0 093d 09aa 3c3d
000003b0: d686 3abd bb05 42bd 12fc 4f3b 8a3a 7dbb
000003c0: 0f15 2cbd dd81 a3bd 76ac 2e3c 3b6b e93c
000003d0: 146a 89bd 7df5 a63d d671 9e3d f2fc bfbc
000003e0: 4e74 82bd eaf9 cdbc 4fae 9abd c558 24bc
000003f0: 7d3e babc a1fb 063b 79bb 1cbc b984 2abd

static_ll.2.bias f4 [64]
0.05519926 0.039855268 -0.020963036 -0.056435887 -0.033773586 0.03694578 0.02909842 -0.010216955
0.04389255 -0.061661255 0.0807016 -0.027326077 -0.012464399 0.016972516 0.075658455 0.10013636
-0.08342319 0.018401165 0.08663749 -0.06604784 -0.031183997 -0.0016453353 0.05653426 0.083690256
-0.035169587 0.08721281 0.058381 -0.02616145 0.018370414 0.016521616 0.061882515 0.019412505
-0.043361623 -0.07143481 0.09291938 0.0025659548 0.0456754 -0.049082022 -0.018547922 0.023129592
0.029239355 0.061196025 -0.014004493 0.021185819 -0.0082934145 0.07450484 -0.023057146 0.0075648003
0.044360414 0.014024098 0.030518956 0.023161178 -0.040499903 0.063670196 0.07556489 0.056381468
-0.02834467 0.088969514 -0.035126537 0.09770367 0.07765639 0.029436568 -0.047065508 0.09915077
00000000: 9f18 623d 473f 233d acba abbc 5129 67bd
00000010: 2c56 0abd 7554 173d cf5f ee3c 0465 27bc
00000020: adc8 333d 8390 7cbd e146 a53d f0da dfbc
00000030: 7b37 4cbc f209 8b3c d2f2 9a3d 4b14 cd3d
00000040: c7d9 aabd 0abe 963c ff6e b13d 1744 87bd
00000050: 9575 ffbc 4ba8 d7ba 7890 673d cc65 ab3d
00000060: fc0d 10bd a19c b23d ea20 6f3d 8a50 d6bc
00000070: 8d7d 963c 5758 873c 8578 7d3d f906 9f3c
00000080: f59b 31bd 6a4c 92bd 844c be3d 9429 283b
00000090: 2116 3b3d 3b0a 49bd d0f1 97bc 457a bd3c
000000a0: 5f87 ef3c afa8 7a3d 1a73 65bc e28d ad3c
000000b0: 1ae1 07bc fe95 983d 57e2 bcbc 25e2 f73b
000000c0: 44b3 353d 55c5 653c e402 fa3c 83bc bd3c
000000d0: 3ae3 25bd 8565 823d c4c1 9a3d 41f0 663d
000000e0: 1533 e8bc a635 b63d d8e0 0fbd dd18 c83d
000000f0: 500a 9f3d f524 f13c c3c7 40bd 8f0f cb3d

glu_encoder.rnn.weight_ih_l0 f4 [48, 2]
0.17185289 -0.15658174 0.14474827 -0.12582132 0.1832198 0.16748247 -0.08250907 -0.17167233
-0.1603648 0.211876 0.2571833 0.16244702 -0.18758723 0.015354576 0.30373484 -0.29862714
-0.11901616 -0.21578805 0.22290388 -0.14852872 0.12803377 0.023168141 0.11380826 0.2173722
0.23965038 -0.09843072 0.07270978 0.023372453 0.028668296 -0.047507297 -0.21941817 -0.05859143
0.2248328 -0.10341974 0.04709046 0.22319606 -0.17304735 -0.20899345 -0.013026541 0.22648448
-0.09895945 0.16368066 -0.12580645 -0.045507338 -0.0935764 0.117582195 0.2240814 0.1980961
0.0413827 -0.058748934 -0.3509705 0.26813367 -0.29983133 -0.0030315162 0.03386474 -0.05816973
0.21117073 -0.048528913 0.074626565 -0.042415705 0.23036739 -0.018507756 -0.085891746 -0.095591724
0.13674878 -0.108506866 -0.13787785 0.1481863 0.113213085 0.08874069 0.25480103 -0.07991866
-0.10670156 -0.20845413 0.24991395 -0.20886159 0.16860174 0.018727653 0.113961786 -0.04835482
0.13995242 -0.09409765 0.24480657 0.18997069 0.12691845 0.25105268 -0.05625032 -0.094691776
-0.13755234 -0.09507907 -0.24917135 0.21986742 0.25777274 -0.064866796 0.055278055 0.2331294
00000000: 34fa 2f3e f756 20be e438 143e 4ed7 00be
00000010: f99d 3b3e 8680 2b3e 84fa a8bd dfca 2fbe
00000020: ac36 24be 06f6 583e 88ad 833e 8358 263e
00000030: de16 40be c291 7b3c 2283 9b3e a8e5 98be
00000040: bfbe f3bd 8bf7 5cbe ea40 643e ea17 18be
00000050: 491b 033e 1dcb bd3c 4e14 e93d d196 5e3e
00000060: e966 753e 0c96 c9bd dde8 943d 9677 bf3c
00000070: c6d9 ea3c 0397 42bd 28af 60be 91fd 6fbd
00000080: 923a 663e bbcd d3bd ede1 403d 828d 643e
00000090: 5333 31be 6102 56be 466d 55bc 8ceb 673e
000000a0: 41ab cabd e79b 273e 68d3 00be e765 3abd
000000b0: fca4 bfbd efce f03d 9875 653e b4d9 4a3e
000000c0: e880 293d b9a2 70bd 68b2 b3be d148 893e
000000d0: 7e83 99be 67ac 46bb c1b5 0a3d 6243 6ebd
000000e0: 243d 583e 41c6 46bd d0d5 983d 17bc 2dbd
000000f0: 6ee5 6b3e 949d 97bc 03e8 afbd 98c5 c3bd
00000100: df07 0c3e d938 debd da2f 0dbe 26be 173e
00000110: 43dc e73d aebd b53d 4875 823e 65ac a3bd
00000120: 5986 dabd 0075 55be 71e9 7f3e d0df 55be
00000130: efa5 2c3e bc6a 993c cc64 e93d b40f 46bd
00000140: b04f 0f3e 45b6 c0bd 93ae 7a3e ad87 423e
00000150: e9f6 013e fa89 803e bc66 66bd c3ed c1bd
00000160: 85da 0cbe d1b8 c2bd c626 7fbe ed24 613e
00000170: cafa 833e e2d8 84bd 3e6b 623d 79b9 6e3e

glu_encoder.rnn.weight_hh_l0 f4 [48, 16]
-0.19664438 -0.21490157 -0.10772144 0.12018315 0.117980614 -0.08774652 -0.2764483 0.17795305
0.041904923 0.1847419 -0.19856893 -0.1422563 -0.0256893 -0.1146658 0.114154056 -0.09850501
0.13009529 -0.1130324 0.16724022 -0.22551213 -0.15790205 0.23529507 0.03636982 0.06932952
-0.21751823 0.25618896 -0.042728066 0.0806135 0.10354523 -0.1445165 -0.19568697 0.10880416
0.15402244 -0.14612813 -0.13171957 -0.22352032 0.03693941 0.04205405 -0.18278798 0.1547102
0.12722266 -0.0928036 -0.081282526 0.16239132 -0.09301783 0.16457075 -0.20205638 0.17087549
0.15375446 -0.19210464 0.14118922 0.2256844 0.0049722786 0.16015615 0.19470318 0.124394916
-0.18295093 -0.07222262 -0.14590238 -0.15267433 0.13761735 0.029460447 0.013310891 -0.013341411
-0.08208173 0.004141809 0.04337765 -0.043953527 0.03851651 -0.082575694 0.2915701 0.12776615
0.018466275 0.12976106 0.04734039 -0.28945336 -0.28758618 0.10455608 0.03099368 -0.13101876
0.08111065 0.1930205 -0.0024846436 0.03742869 0.015175045 -0.036468945 -0.047067504 0.1927268
0.05195495 0.22658205 -0.17462043 -0.06557058 -0.17449282 -0.23986728 -0.059841495 -0.049169656
-0.0600419 0.15556419 0.1495747 0.2382519 0.045249578 0.23583934 -0.062488377 0.043260247
0.2152479 0.028756905 -0.17682533 0.18267381 0.14961323 -0.18318067 0.10753173 -0.18853122
0.098882765 -0.17266473 -0.024719086 0.0889801 -0.22445792 0.15891817 -0.077466205 -0.050073963
-0.14986943 0.15272404 0.07099505 -0.22625975 -0.2831767 -0.27167022 0.22657688 -0.059232205
9.3363225e-05 0.24437767 0.21654376 -0.19879268 -0.15366502 0.10300595 -0.06119001 -0.25166428
-0.040255245 0.07145256 -0.10473853 0.20693368 -0.1964082 -0.08071716 0.2018431 -0.0789527
0.2448171 -0.052989624 0.14009699 -0.22020727 -0.16197082 -0.21328413 0.028349936 0.03267101
-0.17402036 -0.16095981 -0.02945764 -0.04400163 0.029420324 0.06553719 0.041542374 0.07525586
0.22915757 -0.0913455 -0.24032283 0.059731167 0.20967327 0.11200998 0.060936715 0.16081272
0.027491493 -0.06253083 -0.10458225 0.15486254 -0.042596377 0.028225524 0.13996463 -0.004363973
-0.1357536 0.114651695 0.041488066 0.14620584 0.07156603 -0.023652477 -0.04294911 -0.10903293
-0.07351716 -0.14023435 -0.08152751 0.04985218 0.23154026 -0.16678075 -0.04374745 0.20818172
0.18870425 0.09609284 -0.1430937 0.19552873 -0.27178502 -0.055839904 0.13235128 0.14597265
0.21687974 -0.089052856 -0.16223441 -0.14447871 0.032944568 -0.07912952 0.044763748 0.06366272
0.06108856 0.15070014 0.07743474 0.16461769 -0.09054877 -0.15799575 -0.082672656 0.013704905
0.14764653 0.03287935 0.08545488 -0.078792945 0.032822065 0.07209894 -0.14897248 -0.19029546
0.27199057 0.17121474 -0.20283459 -0.04667725 0.014225807 0.16670881 -0.11303139 -0.09563422
-0.12804067 0.15482338 -0.14217672 0.033956107 0.16673432 0.0039513204 0.2782074 -0.1635165
-0.0202739 0.058825877 0.062280413 0.14228736 0.26736706 -0.26412055 -0.013927273 0.1547608
0.04279961 -0.20536272 -0.13240518 -0.077308685 -0.04836457 -0.08534322 -0.027429588 0.027475938
00000000: 255d 49be 280f 5cbe 0f9d dcbd 9522 f63d
00000010: d29f f13d 73b4 b3bd a28a 8dbe 5339 363e
00000020: 7fa4 2b3d fb2c 3d3e a755 4bbe a3ab 11be
00000030: 5e72 d2bc e7d5 eabd 9ac9 e93d ffbc c9bd
00000040: b337 053e 887d e7bd 0541 2b3e a7ec 66be
00000050: 13b1 21be 31f1 703e 85f8 143d a3fc 8d3d
00000060: 19bd 5ebe 332b 833e a003 2fbd b118 a53d
00000070: 860f d43d 22fc 13be 2a62 48be b7d4 de3d
00000080: 0fb8 1d3e 9da2 15be 7fe1 06be 83e2 64be
00000090: c74d 173d de40 2c3d c62c 3bbe 5a6c 1e3e
000000a0: a846 023e d00f bebd 7477 a6bd e949 263e
000000b0: 2280 bebd 3c85 283e dee7 4ebe fcf9 2e3e
000000c0: cf71 1d3e 14b7 44be e893 103e d019 673e
000000d0: 7fee a23b f9ff 233e 4560 473e c3c2 fe3d
000000e0: 7d57 3bbe 74e9 93bd 6f67 15be a956 1cbe
000000f0: 90eb 0c3e 0957 f13c ec15 5a3c ef95 5abc
00000100: 771a a8bd 03b8 873b c3ac 313d 9d08 34bd
00000110: 7dc3 1d3d 721d a9bd ad48 953e 21d5 023e
00000120: 9646 973c 15e0 043e ffe7 413d 3b33 94be
00000130: 7f3e 93be 8021 d63d 75e6 fd3c c829 06be
00000140: 571d a63d 2aa7 453e 67d5 22bb d34e 193d
00000150: c0a0 783c 7660 15bd dbc9 40bd 2d5a 453e
00000160: b7ce 543d 2005 683e b3cf 32be de49 86bd
00000170: 3fae 32be c59f 75be 5b1c 75bd 1f66 49bd
00000180: 7fee 75bd 384c 1f3e 1c2a 193e 4ef8 733e
00000190: 9f57 393d de7f 713e d0f3 7fbd a831 313d
000001a0: f269 5c3e 9a93 eb3c b311 35be d80e 3b3e
000001b0: 3634 193e b793 3bbe 9839 dc3d 540e 41be
000001c0: 0c83 ca3d 06cf 30be ae7f cabc 333b b63d
000001d0: 4cd8 65be 72bb 223e 9aa6 9ebd 5b1a 4dbd
000001e0: 5f77 19be b163 1c3e da65 913d a3b0 67be
000001f0: 89fc 90be 5c18 8bbe c503 683e 789d 72bd
00000200: 00cc c338 243e 7a3e a6bd 5d3e 4f90 4bbe
00000210: 5d5a 1dbe c9f4 d23d 60a2 7abd 24da 80be
00000220: afe2 24bd b855 923d 2881 d6bd 6ce6 533e
00000230: 3b1f 49be 0a4f a5bd f5af 4e3e f4b1 a1bd
00000240: 55b1 7a3e a60b 59bd 9675 0f3e 047e 61be
00000250: aedb 25be 2867 5abe 203e e83c 09d2 053d
00000260: 6532 32be a6d2 24be 2651 f1bc 0e3b 34bd
00000270: e402 f13c 5d38 863d 5628 2a3d bf1f 9a3d
00000280: 48a8 6a3e 5913 bbbd 3017 76be aba8 743d
00000290: 97b4 563e 7d65 e53d c798 793d 17ac 243e
000002a0: d735 e13c 2a10 80bd 382f d6bd 4994 1e3e
000002b0: 8a79 2ebd 3739 e73c e352 0f3e a9ff 8ebb
000002c0: fe02 0bbe 82ce ea3d 64ef 293d fcb6 153e
000002d0: 3691 923d d7c2 c1bc 68eb 2fbd a84c dfbd
000002e0: 2a90 96bd 9899 0fbe e5f7 a6bd cd31 4c3d
000002f0: e418 6d3e 93c8 2abe 8730 33bd 972d 553e
00000300: b03b 413e 53cc c43d 2887 12be af38 483e
00000310: 6827 8bbe 62b8 64bd 1887 073e db79 153e
00000320: b915 5e3e 5861 b6bd c720 26be 3af2 13be
00000330: e2f0 063d a80e a2bd 315a 373d 9a61 823d
00000340: ff37 7a3d 2351 1a3e 1b96 9e3d 8a91 283e
00000350: a271 b9bd a3c9 21be 4850 a9bd 8a8a 603c
00000360: a730 173e 7fac 063d f802 af3d 325e a1bd
00000370: 6e70 063d 9ca8 933d 3e8c 18be d0dc 42be
00000380: 5942 8b3e eb52 2f3e dfb3 4fbe a530 3fbd
00000390: 5c13 693c b7b5 2a3e 007d e7bd e0db c3bd
000003a0: 181d 03be 058a 1e3e c696 11be 8f15 0b3d
000003b0: 67bc 2a3e 147a 813b 3371 8e3e df70 27be
000003c0: 7315 a6bc 67f3 703d bf19 7f3d c7b3 113e
000003d0: 56e4 883e cf3a 87be 382f 64bc 9d79 1e3e
000003e0: a54e 2f3d 9b4a 52be 3995 07be 0454 9ebd
000003f0: ed19 46bd 6dc8 aebd 04b4 e0bc 3815 e13c

glu_encoder.rnn.bias_ih_l0 f4 [48]
0.17255455 -0.17902738 -0.043332625 0.02874853 -0.18495624 -0.08983488 0.04267581 -0.09597531
0.0625329 0.071568646 -0.0040761717 -0.096854344 -0.0643712 0.08042584 -0.07909271 -0.13439688
0.23570667 -0.19579062 0.18861802 -0.23205037 0.21516393 -0.21989138 0.21902318 -0.091025285
0.02224484 0.13808358 0.051848885 0.20868818 0.012542337 0.007949997 0.11224347 0.007869881
0.23789224 0.19905013 -0.16622113 -0.18181908 -0.15613803 -0.1494631 -0.2022961 -0.15424435
-0.07021606 0.22854348 0.00632074 -0.12677476 0.043931577 -0.24713749 -0.057316974 -0.10621621
00000000: 24b2 303e f452 37be 8d7d 31bd 0a82 eb3c
00000010: 2b65 3dbe 59fb b7bd d5cc 2e3d b48e c4bd
00000020: 4011 803d 9592 923d 6891 85bb 925b c6bd
00000030: 0cd5 83bd 4eb6 a43d 5cfb a1bd 569f 09be
00000040: 175d 713e 567d 48be 1525 413e 9d9e 6dbe
00000050: ef53 5c3e 352b 61be 9d47 603e 776b babd
00000060: d03a b63c c865 0d3e 7f5f 543d 5bb2 553e
00000070: 607e 4d3c b440 023c e8df e53d acf0 003c
00000080: 069a 733e ccd3 4b3e df35 2abe c82e 3abe
00000090: a6e2 1fbe db0c 19be b526 4fbe 3bf2 1dbe
000000a0: 70cd 8fbd 4d07 6a3e 361e cf3b 3ed1 01be
000000b0: 99f1 333d 9c11 7dbe 34c5 6abd e287 d9bd

glu_encoder.rnn.bias_hh_l0 f4 [48]
-0.051938657 0.26524913 0.20317848 -0.06437727 -0.14435975 -0.03079694 -0.19113387 -0.15645586
-0.07491362 -0.12995157 0.025212698 -0.025838157 0.25123826 -0.19067608 0.06659229 0.09392521
-0.05493917 0.19578841 0.2582587 0.18495704 -0.19133759 -0.14050767 0.15254538 0.11257046
0.11691675 -0.29711342 0.14373365 0.20492652 0.17636962 0.2510978 0.09645705 0.28776345
0.099483125 0.0041558906 0.13475065 0.115270965 -0.2385928 -0.11292669 -0.22669049 0.14913407
0.15493585 -0.086427905 -0.09735183 -0.17954287 -0.29044685 -0.22664776 0.06266481 -0.1798227
00000000: a1bd 54bd bcce 873e 050e 503e 3bd8 83bd
00000010: 0bd3 13be dd49 fcbc 99b8 43be f735 20be
00000020: 506c 99bd 0612 05be dc8a ce3c 8baa d3bc
00000030: 4da2 803e 9740 43be 8a61 883d dc5b c03d
00000040: e507 61bd c27c 483e 7c3a 843e 6165 3d3e
00000050: 00ee 43be 3ee1 0fbe db34 1c3e 578b e63d
00000060: 0d72 ef3d 401f 98be ea2e 133e 42d8 513e
00000070: 3d9a 343e e48f 803e 468b c53d bb55 933e
00000080: cfbd cb3d 232e 883b 13fc 093e 2f13 ec3d
00000090: ac51 74be 1c46 e7bd 8d21 68be 9ab6 183e
000000a0: 81a7 1e3e 1d01 b1bd 6560 c7bd 16da 37be
000000b0: 73b5 94be 5a16 68be 6856 803d 7123 38be

glu_encoder.hid2lat.weight f4 [64, 16]
-0.24628474 -0.17434974 -0.08407056 0.15950313 0.03387934 0.15705399 -0.14053996 0.053048525
-0.046151605 -0.2335604 -0.13309555 -0.0673558 0.20049094 -0.17286424 -0.1716995 -0.14272094
0.1331028 0.15116204 -0.22822757 0.095384814 0.23899691 -0.007860422 0.04731748 -0.08837437
0.15799719 -0.04194713 -0.17604336 -0.07843509 0.14125033 0.1032914 -0.20096575 -0.078508265
-0.10956134 -0.017377017 -0.024920497 0.25692803 -0.020296665 0.089747444 0.2432272 0.2188035
-0.032174073 0.2504163 -0.19247776 0.01773984 0.08495899 -0.1088039 0.121106595 -0.19424987
0.15365978 -0.10529202 0.23026378 0.06623194 -0.104788885 0.17188187 -0.009685424 0.2480461
-0.18296827 -0.09594226 -0.24958722 0.042123854 0.024616001 -0.08417955 0.020220498 -0.1062914
0.22325018 0.121338375 -0.20872603 0.022301452 0.19097573 0.20842029 0.20185854 -0.033690818
0.11849627 -0.09228836 0.19428638 -0.28912732 -0.21984573 -0.12193426 -0.096551046 0.22087546
-0.11853324 -0.17388663 0.27127615 0.24765381 0.04023263 0.21454471 0.18532145 -0.22306953
-0.067835376 0.13983795 -0.11640805 0.15340704 -0.021093262 -0.09542869 -0.13082387 0.1022738
0.03923798 -0.14874004 0.07457125 0.19875126 0.06112337 -0.1752775 0.14226994 0.20347355
-0.10191619 0.14210616 0.063235 0.09769532 -0.095060065 -0.029743042 -0.14612779 -0.046396513
-0.12087253 0.10595863 0.18240453 -0.09074791 -0.031317066 -0.1575318 -0.10323713 0.035712134
-0.11081652 -0.11760484 -0.26683044 0.14032413 0.20132488 0.14801434 0.12282076 0.21180508
0.04713944 -0.088425525 -0.15269962 0.22413917 0.16376387 -0.19260316 -0.18199612 -0.18955475
-0.048125323 0.15073168 0.18132982 -0.2188815 0.023982106 0.2132848 -0.15251882 0.06714112
0.03699705 -0.22898667 0.09900223 0.04345157 0.04581263 0.18058516 -0.11646485 0.09357215
-0.15439951 -0.1154326 -0.04127626 0.089947455 -0.09114219 0.08125234 0.09090202 0.16831762
0.13329484 -0.20998766 0.098864846 0.2791185 0.1513089 0.16223115 0.08932624 -0.01951742
0.15582049 -0.015591769 -0.13113706 -0.14515245 -0.15939316 -0.020984376 0.2282954 -0.056203205
-0.13132086 -0.14393872 -0.18773143 -0.0017076803 0.11640328 -0.05359466 0.033137444 -0.12664834
-0.23785834 0.20926097 0.13015808 0.05101449 -0.24903762 0.045792863 -0.24551816 -0.17397185
0.055308875 -0.10169706 0.1554929 0.19241989 -0.14925703 -0.04374795 -0.054981176 0.1631691
0.26654664 0.21720508 0.060347978 0.17341235 0.14720775 -0.23094091 0.13344139 -0.13117838
-0.079587124 0.051340412 -0.07564888 -0.19695817 -0.22350268 -0.16283529 -0.25082684 0.16378745
0.23218904 -0.1579516 0.16102438 0.14453131 -0.089396745 -0.003138619 -0.20641373 0.21958235
0.1684441 -0.0781696 0.11040644 0.004679742 0.010084934 0.13453348 0.05443686 -0.28162634
-0.26816812 -0.030380022 -0.2673978 0.04492841 0.023606062 0.031099182 -0.26090017 0.16400151
-0.20361729 0.085612714 -0.00697109 -0.18156782 0.046180516 0.21227993 -0.023318658 0.097255655
-0.11755414 -0.013764508 0.11777865 -0.179443 -0.020266047 0.008962544 -0.013039442 -0.04966004
00000000: 1132 7cbe bd88 32be 302d acbd ca54 233e
00000010: 10c5 0a3d c3d2 203e b5e9 0fbe 6949 593d
00000020: 7709 3dbd 752a 6fbe 334a 08be d6f1 89bd
00000030: 7f4d 4d3e 5303 31be fed1 2fbe 7025 12be
00000040: 1a4c 083e 39ca 1a3e 7db4 69be 1d59 c33d
00000050: 9bbb 743e 00c9 00bc f9cf 413d 9ffd b4bd
00000060: 04ca 213e c1d0 2bbd b644 34be 94a2 a0bd
00000070: eda3 103e 718a d33d f7c9 4dbe f1c8 a0bd
00000080: b261 e0bd 3f5a 8ebc 1226 ccbc 128c 833e
00000090: 3145 a6bc 82cd b73d 8d10 793e 060e 603e
000000a0: f6c8 03bd 9136 803e e418 45be 2453 913c
000000b0: fbfe ad3d 94d4 debd bc06 f83d 70e9 46be
000000c0: fd58 1d3e 58a3 d7bd 45ca 6b3e 9da4 873d
000000d0: 8e9b d6bd cd01 303e 9daf 1ebc ccff 7d3e
000000e0: 095c 3bbe 607d c4bd cb93 7fbe 108a 2c3d
000000f0: 7fa7 c93c 5466 acbd 75a5 a53c 4eaf d9bd
00000100: b29b 643e 4180 f83d 47bc 55be 89b1 b63c
00000110: 248f 433e 216c 553e 01b4 4e3e 62ff 09bd
00000120: 2cae f23d ae01 bdbd 02f3 463e 7f08 94be
00000130: 3d1f 61be abb8 f9bd 8ebc c5bd 2d2d 623e
00000140: 8ec1 f2bd 560f 32be b5e4 8a3e f698 7d3e
00000150: f8ca 243d 9cb1 5b3e e8c4 3d3e 576c 64be
00000160: 46ed 8abd ae31 0f3e 5867 eebd bc16 1d3e
00000170: c7cb acbc 1e70 c3bd b1f6 05be ed74 d13d
00000180: 01b8 203d 4f4f 18be d0b8 983d 7385 4b3e
00000190: 805c 7a3d f27b 33be 36af 113e 5f5b 503e
000001a0: 6fb9 d0bd 4784 113e 5a81 813d 7c14 c83d
000001b0: daae c2bd aea7 f3bc 86a2 15be 450a 3ebd
000001c0: 048c f7bd d700 d93d 41c8 3a3e 0ada b9bd
000001d0: 5346 00bd 0450 21be fd6d d3bd e346 123d
000001e0: c6f3 e2bd ceda f0bd 009e 88be 21b1 0f3e
000001f0: 1c28 4e3e 1291 173e 7389 fb3d 6ee3 583e
00000200: 4915 413d 7118 b5bd 4a5d 1cbe bd84 653e
00000210: b7b1 273e c339 45be 315d 3abe a41a 42be
00000220: 0f1f 45bd 6859 1a3e 86ae 393e 7922 60be
00000230: 1f76 c43c 5567 5a3e e52d 1cbe 4981 893d
00000240: 388a 173d 7b7b 6abe aec1 ca3d 46fa 313d
00000250: 06a6 3b3d 51eb 383e 2085 eebd c1a2 bf3d
00000260: e81a 1ebe ed67 ecbd 4c11 29bd 5f36 b83d
00000270: c2a8 babd a067 a63d d72a ba3d 745b 2c3e
00000280: 717e 083e 0107 57be a779 ca3d 9fe8 8e3e
00000290: b8f0 1a3e ec1f 263e adf0 b63d ffe2 9fbc
000002a0: 688f 1f3e 9e74 7fbc cb48 06be d8a2 14be
000002b0: f637 23be 6de7 abbc 45c6 693e 5535 66bd
000002c0: fa78 06be ac64 13be ab3c 40be 3ed4 dfba
000002d0: d864 ee3d 1386 5bbd 21bb 073d 1ab0 01be
000002e0: 2391 73be 8248 563e 2948 053e 92f4 503d
000002f0: b803 7fbe 4c91 3b3d 1d69 7bbe ad25 32be
00000300: 8f8b 623d 8c46 d0bd 8839 1f3e b809 453e
00000310: d6d6 18be 0d31 33bd f133 61bd cd15 273e
00000320: cd78 883e 026b 5e3e 712f 773d 0293 313e
00000330: a1bd 163e c67b 6cbe dca4 083e a053 06be
00000340: 93fe a2bd 534a 523d cded 9abd 67af 49be
00000350: e3dd 64be 4bbe 26be 606c 80be e6b7 273e
00000360: f7c2 6d3e 10be 21be 93e3 243e 0400 143e
00000370: a415 b7bd 4ab1 4dbb 1f5e 53be 32da 603e
00000380: 9c7c 2c3e 6217 a0bd c61c e23d 8558 993b
00000390: 473b 253c 25c3 093e 2ff9 5e3d 5431 90be
000003a0: 554d 89be 86df f8bc 5de8 88be da06 383d
000003b0: 8061 c13c b6c3 fe3c b594 85be 03f0 273e
000003c0: 0d81 50be b855 af3d be6d e4bb eaec 39be
000003d0: c827 3d3d e95f 593e c506 bfbc f92d c73d
000003e0: 3ac0 f0bd 8884 61bc ef35 f13d e8bf 37be
000003f0: fb04 a6bc a2d7 123c 62a3 55bc 5368 4bbd

glu_encoder.hid2lat.bias f4 [64]
0.024678424 -0.0721622 -0.18841939 0.023596989 0.05187049 0.038899586 0.19455205 -0.08930789
0.019506317 0.13259016 0.24610464 0.10677482 0.017711367 -0.0017590314 -0.011938252 -0.19625592
-0.042418327 0.06301369 0.0053878776 0.22210337 -0.077021636 0.19457853 0.11227453 0.07534535
0.15636006 0.08080742 0.06572656 0.023338707 -0.1568271 0.21800347 -0.15496935 -0.040215746
-0.2350367 -0.26335448 0.18500108 -0.113960154 0.23403433 -0.050629962 -0.21306603 -0.11337172
-0.0392623 0.006409222 0.14043263 0.017757881 0.27092168 0.13054006 0.10872985 0.2035424
-0.16706076 0.008660585 0.2004743 0.21565443 0.017271267 -0.09939947 0.051675253 -0.058340475
-0.25993246 -0.1930942 -0.2482889 -0.05364199 -0.21506776 -0.02714015 0.03802834 0.18759102
00000000: 682a ca3c c7c9 93bd 03f1 40be 794e c13c
00000010: 2776 543d 2c55 1f3d a738 473e 0ee7 b6bd
00000020: b6cb 9f3c b7c5 073e db02 7c3e c2ac da3d
00000030: 6e17 913c 4d8f e6ba a898 43bc 50f7 48be
00000040: d7be 2dbd 520d 813d cb8c b03b 116f 633e
00000050: 85bd 9dbd 983f 473e 30f0 e53d aa4e 9a3d
00000060: da1c 203e 5c7e a53d a69b 863d d130 bf3c
00000070: 4997 20be 4d3c 5f3e 49b0 1ebe 44b9 24bd
00000080: 76ad 70be 66d6 86be ec70 3d3e f163 e9bd
00000090: b2a6 6f3e 5d61 4fbd fb2d 5abe 6f2f e8bd
000000a0: 81d1 20bd 7304 d23b 92cd 0f3e fa78 913c
000000b0: 3fb6 8a3e 4bac 053e c1ad de3d 6b6d 503e
000000c0: fa11 2bbe 20e5 0d3c 2349 4d3e 84d4 5c3e
000000d0: 797c 8d3c f391 cbbd 6ea9 533d 6cf6 6ebd
000000e0: de15 85be 7cba 45be 723f 7ebe b4b7 5bbd
000000f0: b93a 5cbe 0555 debc 9bc3 1b3d dc17 403e

encoders.weight_ih_l0 f4 [192, 64]
-0.07727102 -0.12868896 -0.066628635 0.16889672 0.03885938 0.06142689 0.09294041 0.022706361
0.060662236 -0.041914113 0.14630657 -0.12363965 -0.069419146 -0.040008973 -0.10277294 0.053193755
0.049447622 0.049940996 -0.0759578 0.109026335 0.1457539 -0.04503487 0.04911265 0.031938914
0.048150294 0.16247918 -0.124611795 -0.10259739 -0.14695208 -0.056645613 0.09171858 -0.085686706
-0.048136376 0.043009475 0.0147066275 -0.059189804 -0.16260488 -0.074201144 -0.11803086 0.13332045
-0.011199826 -0.014973266 0.04583926 0.16736907 -0.04003542 0.080304496 -0.06323012 -0.050828177
-0.15835968 -0.10741506 -0.095245056 -0.08124906 0.09084862 0.10411007 0.06346267 -0.15336499
-0.07571806 -0.018435294 -0.15174349 -0.17466323 -0.073231526 0.06794308 -0.034092095 0.1456016
-0.03943542 0.038312323 -0.08951464 -0.08892171 -0.08833989 0.07429736 0.06798637 0.03364646
-0.006299711 -0.10190816 0.015294738 -0.022742586 0.022427848 -0.047226273 -0.036990643 -0.032388356
0.024009584 -0.119403556 -0.12210425 0.045017432 0.08937653 0.09928586 0.08104207 -0.089672126
0.093203865 0.06761793 0.077956684 -0.03775201 0.1348633 0.043593213 0.029870108 -0.15031931
-0.1031471 -0.061357588 0.061246186 0.06211695 0.08809961 0.120627396 -0.012728924 -0.0932721
0.060139097 -0.030157974 -0.013130678 -0.0021809868 0.1165879 -0.096511334 0.08417316 -0.04431995
-0.11464808 0.06032376 -0.023837626 0.1153883 0.07098979 -0.10235052 -0.09569935 -0.13292931
-0.04690356 0.03467897 -0.089232996 -0.034316685 0.11224052 -0.039488405 -0.0126085095 -0.0282472
-0.06470701 -0.058396615 -0.04077885 -0.033282865 -0.026306758 0.0011536765 -0.055471487 -0.022735242
-0.14485462 -0.03429102 -0.048096593 -0.044427406 0.13384944 -0.020878354 0.004404415 -0.06392682
0.059291657 0.11739239 0.10664723 -0.04413641 -0.00023100222 -0.0678129 0.14464349 -0.05710321
0.022419577 0.10468374 -0.026719103 -0.070932396 0.051636454 0.04264049 0.053093135 0.0002503481
-0.14882363 -0.09986562 0.14509319 0.05187382 -0.077709086 0.055137172 -0.12505491 0.07685159
-0.030765045 -0.03769737 -0.03709913 -0.014478074 0.1227422 0.07919264 0.019600498 -0.06913555
-0.026885677 -0.050942484 -0.042445406 0.012613888 -0.045620386 -0.070524976 -0.021841144 -0.013748007
-0.012554288 -0.044986483 -0.14403753 -0.14229622 -0.054680564 -0.06568594 -0.12833181 0.07541689
0.003920839 0.07372462 0.14356202 0.019160442 0.12392834 -0.098198794 0.13847399 -0.11514486
-0.07630876 -0.0020299368 0.079972066 -0.10890765 0.13710234 0.029897653 -0.07149142 0.053256467
0.0034605109 0.04411653 -0.01596389 -0.07336112 0.12552364 0.046850238 -0.09885214 -0.07137383
0.06517285 0.047529634 0.015195929 -0.14376752 0.0037414248 -0.062053468 0.056313314 -0.15576881
-0.043803412 0.09967908 -0.021822741 -0.023899926 -0.044219412 -0.030038135 0.08473053 -0.05349382
-0.06184062 0.06906868 0.07274172 0.033257317 0.12472606 0.05078929 -0.010595035 0.03718799
0.08347424 0.054021705 -0.08630299 -0.06020167 -0.0062589585 0.09071557 -0.07039097 0.014267679
0.048137333 -0.05054409 0.045647737 0.00062761485 -0.10843145 0.09381735 -0.12843283 0.15379941
00000000: 4540 9ebd 0ac7 03be 9874 88bd 43f3 2c3e
00000010: 032b 1f3d c39a 7b3d 8b57 be3d b102 ba3c
00000020: f778 783d 22ae 2bbd 64d1 153e c936 fdbd
00000030: a02b 8ebd 73e0 23bd 9f7a d2bd b2e1 593d
00000040: 9789 4a3d ee8e 4c3d c38f 9bbd 3349 df3d
00000050: 8340 153e 7c76 38bd 592a 493d 61d2 023d
00000060: 3e39 453d f160 263e 7834 ffbd 951e d2bd
00000070: 9b7a 16be 3b05 68bd f3d6 bb3d 837c afbd
00000080: a62a 45bd b42a 303d 11f4 703c 0271 72bd
00000090: e581 26be c5f6 97bd 2aba f1bd 2885 083e
000000a0: 7a7f 37bc 6e52 75bc f3c1 3b3d cc62 2b3e
000000b0: 2efc 23bd af76 a43d cb7e 81bd 3531 50bd
000000c0: 0a29 22be 6dfc dbbd d70f c3bd e865 a6bd
000000d0: d70e ba3d a937 d53d b7f8 813d b60b 1dbe
000000e0: 1212 9bbd 9d05 97bc a562 1bbe ebda 32be
000000f0: 69fa 95bd be25 8b3d 27a4 0bbd 9618 153e
00000100: 0987 21bd 62ed 1c3d 7453 b7bd 961c b6bd
00000110: 8beb b4bd 3729 983d 703c 8b3d dfd0 093d
00000120: ce6d cebb 3ab5 d0bd c896 7a3c a94e babc
00000130: 9bba b73c 5670 41bd 8083 17bd a7a9 04bd
00000140: bfaf c43c da89 f4bd cb11 fabd 3364 383d
00000150: 0b0b b73d 6356 cb3d 63f9 a53d 05a6 b7bd
00000160: abe1 be3d 457b 8a3d c1a7 9f3d daa1 1abd
00000170: 9b19 0a3e cc8e 323d 28b2 f43c 4eed 19be
00000180: c93e d3bd 1852 7bbd 48dd 7a3d 586e 7e3d
00000190: 916d b43d 7f0b f73d fa8c 50bc 7105 bfbd
000001a0: 6a54 763d db0d f7bc 0e22 57bc e3ee 0ebb
000001b0: a3c5 ee3d bca7 c5bd fa62 ac3d d688 35bd
000001c0: 9dcc eabd 0c16 773d 2047 c3bc b350 ec3d
000001d0: 1863 913d 269d d1bd 05fe c3bd 9f1e 08be
000001e0: f31d 40bd 890b 0e3d cabf b6bd a78f 0cbd
000001f0: 5cde e53d 98be 21bd ec93 4ebc ac66 e7bc
00000200: 1c85 84bd 4a31 6fbd b907 27bd 9d53 08bd
00000210: 4581 d7bc f636 973a 1236 63bd 423f babc
00000220: c554 14be be74 0cbd ef00 45bd 83f9 35bd
00000230: d40f 093e 1509 abbc e952 903b 11ec 82bd
00000240: cfdb 723d 6c6b f03d dd69 da3d 61c8 34bd
00000250: 3039 72b9 7de1 8abd 6c1d 143e 0ee5 69bd
00000260: 43a9 b73c 6e64 d63d 05e2 dabc 0145 91bd
00000270: bf80 533d cba7 2e3d 3078 593d 2741 8339
00000280: 3965 18be 5986 ccbd 4f93 143e a579 543d
00000290: f125 9fbd 84d7 613d 650e 00be 5e64 9d3d
000002a0: fa06 fcbc 8f68 1abd 42f5 17bd 7235 6dbc
000002b0: 4360 fb3d c02f a23d 3991 a03c f096 8dbd
000002c0: 5a3f dcbc 11a9 50bd 3cdb 2dbd 7baa 4e3c
000002d0: 71dc 3abd 666f 90bd 33ec b2bc 523f 61bc
000002e0: 80b0 4dbc bf43 38bd 937e 13be 1ab6 11be
000002f0: baf8 5fbd 5a86 86bd 6a69 03be 2c74 9a3d
00000300: 627a 803b effc 963d ec01 133e 5cf6 9c3c
00000310: 24ce fd3d 731c c9bd 20cc 0d3e 12d1 ebbd
00000320: c447 9cbd b008 05bb 65c8 a33d f90a dfbd
00000330: 8e64 0c3e eceb f43c 186a 92bd 7423 5a3d
00000340: bdc9 623b 89b3 343d b4c6 82bc 5b3e 96bd
00000350: 4589 003e 09e6 3f3d fe72 cabd 712c 92bd
00000360: 5879 853d 6fae 423d 59f8 783c cb37 13be
00000370: b132 753b c72b 7ebd caa8 663d dc81 1fbe
00000380: 356b 33bd 8c24 cc3d 9bc5 b2bc c7c9 c3bc
00000390: 6a1f 35bd 8912 f6bc 3387 ad3d 561c 5bbd
000003a0: 974c 7dbd e173 8d3d 9cf9 943d d338 083d
000003b0: 6070 ff3d 6e08 503d cc96 2dbc 6f52 183d
000003c0: 8bf4 aa3d dd45 5d3d 9fbf b0bd 0796 76bd
000003d0: f317 cdbb 16c9 b93d 2429 90bd fcc2 693c
000003e0: a72b 453d 5207 4fbd 1ff9 3a3d 8586 243a
000003f0: 4f11 debd 5023 c03d e583 03be 987d 1d3e
