code/baseline/saved/GAMNet_learning_rate_0.0001_hidden_size_64_epoch_6000_batch_size_32/Epoch_4400_JA_0.7491_DDI_0.0832.model (torch, 455805 bytes, 29 tensors)

lab_embeddings f4 [32, 64]
00000000: a7e7 903e 368f 393e 38d1 3ebf 3b65 d3bf
00000010: c11a 29bf e335 c4bf 6ab8 983f cd14 013f
00000020: 1dd8 463f 1e77 fe3e 5455 dcbf 5eae aebf
00000030: d204 073f 0b0f eebe f9d7 2b3f 8035 f83f
00000040: bac7 353f 1816 493e ed07 c83e b268 dc3e
00000050: 786e 863e 0890 44bf 682a 8cbf 51bc 7ebf
00000060: 5222 2bbf b83e 81bf fcef 363f c08e 16c0
00000070: c4d5 b4be dd4b 573f a926 b73f 6dbb c93e
00000080: 49cf 0ec0 feec dd3f e8ed 8cbe 6c7a f4bf
00000090: a503 d6be 8377 1abf 6329 91bf 2eaa 70bf
000000a0: c395 023f 7ecc e93e 78f8 823f 9b75 ecbe
000000b0: 6f69 d83e 8bd8 6b3f d3c1 1040 d6c5 113f
000000c0: b570 8ebe 7a65 b8be 34f6 8a3e 7897 f0be
000000d0: 2070 50bf 4a23 2c3e 379a 23bf 28ac 4c3f
000000e0: 71f5 9dbe 3010 2cbe f0bc 2040 884e 0dbf
000000f0: 3584 3b3d 6f90 a73e fbb3 e63f e784 d93c
00000100: a2b6 3fbe 2a8e 19bf 3ec9 eabe 37fb 80bd
00000110: 022e 3e3e 69e9 143f 23ca ee3f 409e 9d3e
00000120: a6c0 84bf 5780 a8bf 55df a5bf a9ba 423d
00000130: 92af c0bf cc45 8fbf 2f63 613f 60c1 67bf
00000140: b640 d6bd 3315 0e3f 7673 bf3f 0162 993f
00000150: 5f8f c33e fa3d f7be cfd9 5f3e c749 1340
00000160: 6244 42bd b797 823f 6b51 bf3e 03f1 793f
00000170: 6645 3e3d 6478 ee3f 620c 563f 0d71 f93d
00000180: 5018 52bf 4504 b7bf 6ad4 0ebf d41b 053f
00000190: d54b a53f 0f1b 88be 56d3 1f3e b32e c83e
000001a0: 4f67 d73e ccdd 97bf 9723 453f eb5c 333f
000001b0: 6ac3 cc3f 7a8d 82be 072e fbbf c4fe 1cbf
000001c0: eedf 303f d913 cebf 0dff 493f 2268 193f
000001d0: 0d52 073f 7e97 ffbe 7b1f 9fbf 8daa 3bbf
000001e0: 9110 ffbf 5995 5540 f9fd 3a3e f55e c93e
000001f0: ae11 2f3f b61a 783f 5729 0dc0 0f83 b43f
00000200: e04b 65bf e9f4 7ebe 0377 d13f d035 65be
00000210: 0496 743e 3b77 85bf 7209 80bf 42dc 40bf
00000220: 3204 5dbf 63ef 6d3f 7ef1 52bd 3278 9c3f
00000230: d9f5 a3be 3896 153f c040 eebe e37f 0840
00000240: 2cd3 4ebf 731d 623e 4b29 4f3f 64b8 bfbe
00000250: 02ac 4ebf 03fe 133f 77d9 c43f 989f 393c
00000260: f98b b3bf de40 30be ecb5 29bf 3f3c 4ebf
00000270: ffa8 b43e caf9 8dbe fa22 34be b515 493f
00000280: 2ff4 4cbf afab ba3f 3687 c43e 27c4 0c3f
00000290: a583 433f 979d a53e ab2a 063d fa41 b83f
000002a0: a5a9 0140 8dd5 77be d3f1 e63e f3e9 66be
000002b0: 2d59 a13f 6339 91be 04bd bebe ace3 24bf
000002c0: 78a3 c1be 487f 9b3e d982 86bf 6f9a b93e
000002d0: cdd1 aebf 54a3 ad3e 2616 bb3d c632 dfbf
000002e0: 22d3 57bd bf64 593f 6dc9 8a3e 2c26 adbd
000002f0: 77b6 bd3e cfd2 afbf a8a8 68bf 8dc9 01bf
00000300: 53f1 1abd 78c1 28bf 53b2 6d3f 6353 89bf
00000310: f5fb ddbd 9d3a 00c0 9e17 bdbf b255 1a3e
00000320: 0423 8a3e 7656 963f 05ed d6be 3d41 84bf
00000330: da8d 5f3f a1d0 fe3f e728 883e 05f5 e9bd
00000340: 6a3f 893e 81e7 233f 2db1 9dbe 5b87 273d
00000350: b3b5 903e 15f3 b0bf eec6 20c0 1809 d1be
00000360: f895 1abf 22c8 c3bd 4222 0f40 23ed e0bf
00000370: ca3b 123f efed 043d 493f 9ebe 9b75 d43e
00000380: 1d95 543e b8a7 9e3f 9680 753f 0eba a1bf
00000390: 7995 023f 1cfc 2cbd 0fc2 f93f 32ec 07c0
000003a0: 869c 453f 3412 9e3e d4da 5dbd d8b2 c9be
000003b0: dd46 45bf f383 223f fc91 98bf 31cf 463f
000003c0: a65e 22bf 633d a3bf 499b 0e3f 58d3 773f
000003d0: 8a6e ad3f 034e f53e de48 efbf 3e95 3a3f
000003e0: de59 223f ed34 b33f 6713 70bf e3e6 423f
000003f0: be46 903f a845 6dbe 5df1 2e3f bd2c 0c40
0.28301737 0.18121037 -0.7453799 -1.6515268 -0.6605645 -1.5328945 1.1931279 0.50422364
0.7767351 0.49700254 -1.721354 -1.3646963 0.5274173 -0.46495852 0.67126423 1.9391327
0.71007884 0.19637334 0.39068547 0.43048626 0.26256156 -0.76782274 -1.0950441 -0.995061
-0.66849244 -1.0097265 0.7145994 -2.3524628 -0.3531934 0.84100133 1.4308673 0.39400807
-2.2314017 1.7337949 -0.27525258 -1.909986 -0.41799656 -0.6033861 -1.1340755 -0.94009674
0.5100977 0.45663828 1.0232077 -0.46183476 0.4226794 0.92127293 2.26183 0.569425
-0.27820364 -0.3601492 0.27140963 -0.4699056 -0.8142109 0.16810337 -0.6390719 0.7995019
-0.3085132 -0.1680305 2.5115318 -0.55197954 0.04578038 0.32727382 1.8023676 0.02655263
-0.18722013 -0.5998255 -0.4585666 -0.062979154 0.18572238 0.58168656 1.8655437 0.30784798
-1.0371292 -1.3164166 -1.295878 0.047541294 -1.505358 -1.1193175 0.8804197 -0.9052944
-0.104615614 0.555011 1.4957111 1.1983033 0.3819532 -0.48289472 0.21860431 2.301378
-0.047428496 1.020255 0.37366804 0.9763338 0.046452902 1.863049 0.83612645 0.12179766
-0.8206835 -1.4298178 -0.5579287 0.5199559 1.2913767 -0.26583144 0.15607962 0.3909813
0.42071006 -1.1864562 0.7700743 0.70063657 1.5997136 -0.25498563 -1.9623421 -0.6132624
0.6909169 -1.6099807 0.789048 0.5992452 0.52859575 -0.49920267 -1.2431482 -0.73307115
-1.9926931 3.3372405 0.18260945 0.3933026 0.6838635 0.9691576 -2.2056482 1.4102496
-0.895689 -0.24898113 1.6364444 -0.22383809 0.23885351 -1.0427011 -1.0002882 -0.75336087
-0.86334527 0.929434 -0.051499836 1.2224181 -0.32023504 0.5843234 -0.46533775 2.1328056
-0.8079097 0.22081546 0.80922383 -0.37445366 -0.80731213 0.57809466 1.5378865 0.011329554
-1.4027091 -0.17212245 -0.66293216 -0.8056068 0.35285184 -0.27729636 -0.17591467 0.7854875
-0.80060095 1.4583644 0.38384408 0.54986805 0.7637275 0.32346794 0.032755535 1.4395134
2.0259793 -0.24202557 0.45106372 -0.22550182 1.2605339 -0.28364095 -0.37253582 -0.644099
-0.3782003 0.30370545 -1.0508682 0.36250636 -1.3657776 0.33913672 0.09135084 -1.743737
-0.052691586 0.8491935 0.271068 -0.08454546 0.37053272 -1.3736209 -0.9088235 -0.5069817
-0.0378278 -0.6592021 0.92850226 -1.0728573 -0.108390726 -2.0035775 -1.4772832 0.15071753
0.2697984 1.1745136 -0.41977707 -1.0332409 0.87325823 1.9907418 0.26593706 -0.11423687
0.26806194 0.6402512 -0.30799237 0.04090057 0.28263626 -1.3824183 -2.5121417 -0.4082725
-0.60385084 -0.09559657 2.236466 -1.7572368 0.5712248 0.032453474 -0.30907658 0.41495976
0.20760007 1.2394934 0.9589933 -1.2634904 0.5100933 -0.042232618 1.9512347 -2.1237912
0.7719196 0.30873263 -0.05416377 -0.3939426 -0.77061254 0.6348259 -1.1919551 0.776599
-0.6342567 -1.2753109 0.55705696 0.9680686 1.3549359 0.4791108 -1.8694112 0.72883976
0.63418376 1.4000527 -0.93779606 0.76133555 1.1271589 -0.23171103 0.6833704 2.1902306

static_ll.0.weight f4 [128, 64]
00000000: c637 153e 2846 c3bd b648 cdbd 974a 00be
00000010: 093a ac3d 8f23 8dbd 5331 19be 2044 b23c
00000020: 378d 903d 6a81 88bd 4043 d3bc 7bc1 9ebd
00000030: ef43 3a3e 9efd 24bd 0e99 9d3c 6ef1 9cbd
00000040: e012 0bbe b8b6 cd3d 6a97 7cbd 8e47 dabd
00000050: 0810 48bd 1458 95bd c6f6 05be f231 debd
00000060: 292f da3d 19be 04bd d8c1 963d 5298 c5bd
00000070: c81b aa3d 58f9 68bd 5b9b a53d d36a 023e
00000080: 2387 dc3d f4ee c83d 9f2e 14bc 26da 00be
00000090: 2e6e 133d 8a29 943d 6e3e 373d 1cd7 62bd
000000a0: 0f3e 643c 75ce 8b3d dffb 713d 5846 463d
000000b0: 3752 90bd 8b12 7d3d ded5 5abd 61c4 adbd
000000c0: 094e 87bd 56d5 02be 4840 073e 1672 233e
000000d0: e70a 393d 1fb0 97bc 55ae 56bd d2e8 fbbd
000000e0: c8c8 603c edc8 c4ba 8051 30bd cbe9 2c3d
000000f0: 550f 0abe 61f1 cdbd d1af a7bc c064 33bc
00000100: 328f 2dbd bd46 b23d 76f1 f6bd cf71 0f3e
00000110: 60da 8bbd 76a1 8cbd a75f c73d a8d1 acbd
00000120: e103 adbd 8b3b 673d e9ed c5bc cefa e03d
00000130: 9769 8dbd 087c 873c 1138 7e3d 9813 f9bd
00000140: aabd aebd 5b9a bebd 31cf 583c 6ed6 053e
00000150: ba4a 893d fa04 803d 2fa5 853d 9844 053d
00000160: c81b 9f3d 1434 233d c98d ae3d 74a4 1b3e
00000170: fed4 ac3d 5377 f83d 0b67 cf3c d263 0cbe
00000180: 4dea a2bd fd0d 10be 22ab dd3c cbf9 0bbd
00000190: 557c d5bc 8d3e ff3d cf8c 07bd 39d9 0b3e
000001a0: 631d 27bd 13c2 ccbd 3bce 013e 374f d2bd
000001b0: 4831 adbd 376d 66bc cdbf 3ebd 8974 81bc
000001c0: 10f4 93bd 37b5 053d 3423 283e e248 ccbb
000001d0: 205f 11be 978d bfbc 92ae 9fbd d9ba ad3b
000001e0: ead1 a6bd 38d0 263e 9954 08bd 3788 9d3d
000001f0: 0c4b a23b 2960 d83d 489f e9bd bebf d43d
00000200: 169b ab3d d099 90bb b666 dabb fe56 c73b
00000210: e62d b03d dd90 25be f815 e9bd c398 13bd
00000220: 4346 96bd dcbf eebc c084 a5bd ce6f 04be
00000230: 5dca 503c 3bbc 91bd de08 b8bd 1c31 83bc
00000240: cfe8 9fbd ec1e ec3d 6c44 2dbd c03f d7bd
00000250: 1a4b 2f3d 9e15 84bd e308 e4bc d1e5 083d
00000260: fdb3 80bd 4750 e5bd abe8 abbd 7e15 5cbd
00000270: e94f 8bbd b256 983d 6e1f 813d dafb 01bd
00000280: 1058 02be 8c90 ac3d b4fa 673c c264 d73c
00000290: 6215 043d 4f9d 0ebc 5a85 0c3d 7fbe c5bc
000002a0: 905d b7bc a9d6 b6bd 57b0 ac3d 725b 7bbd
000002b0: b712 173e 414f e33d d8c1 ff3d c449 23bd
000002c0: 17c3 dfbd bdbc 71bc 2930 a43d f08d bd3d
000002d0: 1079 29ba 9dbc e13d 78ba d13d fbeb 05bd
000002e0: 9a41 eb3b c522 86bb 0d3e a33c 79bb 8cbd
000002f0: 55d3 fd3d c5f2 d53d 947d 403d c492 8fbd
00000300: bceb a8bd 7b5b 65bd a340 b5bc b8c4 03bd
00000310: fdd7 193e 9ad7 dc3d f54b 15be 177b a63d
00000320: 38cf c0bd 5732 973d 9e09 4a3d 4910 36bc
00000330: 17d2 9f3d ac94 4c3d 2674 d03c f65c 603d
00000340: cc37 a13d a65c a2bc 4fdc edbc 7c52 593d
00000350: edca be3d 83b3 be3d 2000 e1bc 23c5 1ebd
00000360: a133 be3d bb34 0abc 15b1 15be 8d8e eb3c
00000370: 914a d83c a3a7 1bbc 379e 353c 285a 793d
00000380: cdef 9d3c ba06 b6bd afd2 2a3c e5b1 303d
00000390: d18c 1fbd 92fb 96bd f140 f0bd 0fd0 693d
000003a0: 3a4b f73d 2a87 2cbe e507 d4bd a1fe c93d
000003b0: 1974 18bd 3c90 8abd a9e8 c23d 3aae d6bd
000003c0: f902 b53c 30d0 0d3d 2773 1fbe 2eac babc
000003d0: 092b 173e f135 b5bd 99bd 84bc 56c8 8fbd
000003e0: f14f e13c 2010 3ebd 2c33 a43a 22a9 92bd
000003f0: d007 91bd c00a b3bd 56fd a5bd aed5 8cbc
0.14572057 -0.095348656 -0.10023634 -0.12528454 0.08409507 -0.06891548 -0.14960222 0.021761
0.070581846 -0.06665309 -0.025788903 -0.07751747 0.18189977 -0.04028093 0.019238021 -0.076632366
-0.13581419 0.100446165 -0.061667837 -0.10658179 -0.048843414 -0.0729219 -0.13082418 -0.1084937
0.10653526 -0.032407854 0.073611915 -0.096481934 0.0830608 -0.056878418 0.08086272 0.12736063
0.10767963 0.09811202 -0.009044318 -0.12583217 0.035993747 0.072344854 0.044737272 -0.055380926
0.013930812 0.06826488 0.059078094 0.04840693 -0.07046931 0.061785262 -0.053426616 -0.08484722
-0.06606681 -0.12776694 0.13208115 0.15961489 0.045176413 -0.018516598 -0.05241235 -0.12300266
0.013719745 -0.0015013494 -0.043046474 0.04221515 -0.13482411 -0.10055805 -0.020469578 -0.010949314
-0.04237289 0.087048985 -0.12057774 0.14008258 -0.06828761 -0.06866734 0.09735041 -0.08438426
-0.084480055 0.05645327 -0.024161296 0.10985337 -0.06904905 0.016538635 0.062065188 -0.1216194
-0.08532269 -0.09306785 0.013232992 0.1307008 0.06703706 0.06250949 0.06525647 0.03253612
0.07768971 0.039844587 0.08523137 0.15199453 0.084390625 0.12132134 0.02531769 -0.13709953
-0.079548456 -0.14067836 0.027059142 -0.034173768 -0.026060263 0.124631025 -0.03309327 0.13657083
-0.04079951 -0.09997954 0.12676327 -0.10269015 -0.08456665 -0.014064125 -0.046569634 -0.015802639
-0.072242856 0.032643523 0.16419679 -0.0062342742 -0.14196444 -0.023382945 -0.077969685 0.005301815
-0.08145507 0.16290367 -0.033283804 0.076919965 0.004952794 0.10565216 -0.114073336 0.103881344
0.0837919 -0.004412867 -0.006665076 0.0060833683 0.086025044 -0.16168542 -0.11381143 -0.036034357
-0.0733762 -0.02914422 -0.08081961 -0.12933275 0.01274356 -0.0711598 -0.08986066 -0.016014628
-0.078080766 0.115293354 -0.04230158 -0.10510206 0.04279623 -0.06449436 -0.027836269 0.033422295
-0.0628433 -0.11196952 -0.08393987 -0.053731434 -0.06802351 0.07438411 0.06304823 -0.031734325
-0.12728906 0.08426008 0.014158893 0.026293162 0.032246955 -0.0087044975 0.03430686 -0.024138687
-0.022383481 -0.08927662 0.08432072 -0.061366506 0.14753233 0.11099101 0.12488145 -0.03986527
-0.10925882 -0.014754471 0.08016998 0.09255588 -0.0006464878 0.11022303 0.10240644 -0.03269575
0.007179451 -0.0040935003 0.019927049 -0.06871695 0.12393824 0.10446695 0.04699476 -0.07010415
-0.08248088 -0.055995446 -0.022125548 -0.032170027 0.15023799 0.1078331 -0.14579757 0.08128946
-0.09414524 0.073826484 0.049325578 -0.011112281 0.07803743 0.049946472 0.025446009 0.054776154
0.078719705 -0.019819569 -0.029035715 0.05305718 0.09316049 0.09311583 -0.02746588 -0.038762223
0.09287191 -0.0084354235 -0.14618333 0.028754497 0.026402744 -0.009500417 0.011085085 0.060876995
0.019279385 -0.08888002 0.010426207 0.043138403 -0.038952652 -0.07372202 -0.117311366 0.057083186
0.12074895 -0.16848436 -0.10353068 0.0986302 -0.037220094 -0.06765792 0.09517033 -0.1048245
0.022096144 0.03462237 -0.15571271 -0.02278718 0.1476251 -0.08848179 -0.016203688 -0.07020633
0.02750394 -0.046402097 0.0012527457 -0.07161166 -0.07081568 -0.08742285 -0.081049606 -0.017191734

static_ll.0.bias f4 [128]
00000000: 0a6f ec3d 37b8 bcbd 8929 913c 9dc8 59bd
00000010: c569 e63d 4bc2 ad3d 0df2 92bd c8f0 f63d
00000020: e3a5 823c b711 0f3e 56fc 0c3e 69e9 4fbd
00000030: 4ba0 e1bc 98be cb3d 4fda 7f3c b36d f13d
00000040: 4e04 fd3d 82bb a8bd 17e6 093d a884 9b3d
00000050: e0d7 c53d 5848 9a3b dc8e 943d 992c 173e
00000060: 8482 ef3d 6d67 e03d 2443 4ebd 3b0d 9fbd
00000070: aaf8 86bd bb29 ea3d 605a cabc c8f3 8fbd
00000080: 667d 33bb d054 a13d 6633 eb3d 0d16 a9bd
00000090: 4b11 043e b8c9 d73d 02e8 9d3b e473 913d
000000a0: 2704 c43b de1a 58bc 511e 8dbc 5c51 9bbd
000000b0: 36df 2e3a 3938 e6bc fe79 83bd 8073 51bd
000000c0: e7a6 d2bc e956 e13d 732b f13d 9a8a db3c
000000d0: 84b5 143d ed7e 0d3e ffb9 06bd fbc3 963d
000000e0: 55a2 0e3e bba6 c93d e71f e3bd 3400 a2bd
000000f0: 641d 00bd 4b6e cd3d 1381 65bd 811e 95bd
00000100: 5425 54bd 6161 26bd e0db 413d 9c33 86bd
00000110: 6aad 0bbb 5e22 7bbc d3b3 503d b30b 8b3d
00000120: 3482 1abc d3af 04bd 2f1c 6abd 333a f33c
00000130: d315 373c 669a aa3c 6de5 f6bc 5696 5a3c
00000140: c40d 2c3c 7306 bd3d 09f5 9dbd de80 ef3b
00000150: 349d 96bd 730d 3abb a6e7 8dbd 3b22 1f3d
00000160: e589 293e 7f05 94bd b528 d43d 58c5 1abd
00000170: 1b13 c5bd 5c41 103d c061 89bc 0c08 78bb
00000180: 9eb5 85bd 335b 9c3d 0f13 8e3c 9ab8 97bb
00000190: 7f85 ef3d 3c15 8ebd 9013 6d3d 6b07 60bd
000001a0: fdb1 a5bd 3ad8 21bd 323a f73d 8290 db3d
000001b0: 5545 5e3d df37 1d3d 83ee 313d 86ef 83bc
000001c0: d6a5 eb3d c715 9ebd d6a8 643d 1cac 0fbd
000001d0: 3d09 3c3d 15ae 733d 9911 823d 2696 d3bd
000001e0: 3145 963d 2554 4cbc 9c17 df3d 1f43 87bd
000001f0: 3aca 983d 3026 f7bd a00d 003e 28a7 923c
0.115446165 -0.09214824 0.01772 -0.053169835 0.11250643 0.08484324 -0.07175074 0.12057644
0.015948242 0.13971601 0.13768134 -0.050759707 -0.027542254 0.09948462 0.015616014 0.117885016
0.12354337 -0.08238889 0.033666696 0.075936615 0.096603155 0.004708331 0.07253811 0.14763106
0.11694816 0.10957227 -0.050357 -0.077661954 -0.06590398 0.11433741 -0.024701297 -0.070289195
-0.0027387976 0.07877505 0.11484413 -0.08256159 0.12897222 0.10536522 0.0048189173 0.071021825
0.0059819403 -0.013189999 -0.01722637 -0.075838774 0.0006670834 -0.02810298 -0.064197525 -0.05113554
-0.02571435 0.11002905 0.117758654 0.026799489 0.03630592 0.1381795 -0.032892223 0.07361599
0.13929112 0.098462544 -0.11090069 -0.07910195 -0.03127803 0.10030802 -0.056031298 -0.07281209
-0.05179341 -0.04062021 0.04732883 -0.065528125 -0.002131308 -0.015328018 0.050952744 0.06789341
-0.009430457 -0.03239424 -0.057155784 0.029690837 0.011174637 0.020825576 -0.030138696 0.013341507
0.010501329 0.09229746 -0.07712752 0.0073090633 -0.07354203 -0.0028389364 -0.06928949 0.038851004
0.16556509 -0.07227611 0.10359327 -0.037785858 -0.09622785 0.03521858 -0.016770244 -0.0037846593
-0.06528781 0.07634582 0.017343072 -0.0046301605 0.11695384 -0.06937644 0.057879984 -0.054694574
-0.08090589 -0.03951285 0.12071647 0.10720922 0.05426534 0.03838336 0.043440353 -0.016105425
0.1150624 -0.077189974 0.055825077 -0.035076246 0.045907248 0.05949219 0.06351013 -0.10331373
0.07337416 -0.0124712335 0.10893175 -0.06604599 0.07460447 -0.120678306 0.12505198 0.017901972

static_ll.2.weight f4 [64, 128]
00000000: a037 2b3d 84ec 97bd 2a46 423d 11f0 873d
00000010: 2d96 b13d 666f 693c cb7e 74bd f033 0bbd
00000020: 1901 a7bd 46df 863b fb7f bbbc 293a fe3a
00000030: 6c84 90bc 1e13 b43b 94d5 3e3d ff89 a33d
00000040: 82e8 5c3d 35b3 3bbd 1b7b b2bc 0b1b 4ebd
00000050: eee8 23bd f9c4 8f3d 9d78 5d3d 8f6c e73c
00000060: 9a9b 10bb bae3 5f3d 9564 53bd 06e2 f4bb
00000070: 755b 233c f914 98bb 9768 2b3b 670a a3bd
00000080: 5367 b03d 5ddc 36bd 5052 74bc 4941 8abd
00000090: 2437 f53d 9cbe 093d 867a 173c 0fb1 193c
000000a0: 99bd 26bd 5e92 233d 3227 223b 569e a83d
000000b0: 2163 273d 2c60 87bd 1974 653d ec43 6b3d
000000c0: bb84 213d b9b2 09bc 7c84 f0bc 326f 98bd
000000d0: dd67 283a cb2d a43d 5905 18bd 79f5 a13d
000000e0: 7716 033d 15aa bfbd 14da 5ebd 8471 793d
000000f0: 3a4f c73d 1617 a13d 4eb8 353c 4b78 c1bb
00000100: 7564 723b 49da 6abc 43d0 b13d 4bcb 1dbd
00000110: 0864 d0bc def2 753d d503 4a3a f08c 85bd
00000120: 24ce 0c3d ae40 b33c bd03 303c ec95 abbc
00000130: 4bbe 8abd 2dc6 e0bc 276d 293d 45d1 b5bc
00000140: 6b80 f83c ba45 823d 2621 043d 1d52 463b
00000150: d0b8 96bc baa7 32bc fcec 94bd e647 9e3b
00000160: da46 8b3a 14f4 49bd 6e33 8bbd 15b1 87bd
00000170: e3af 643d 3670 8e3d 114c 3abd 7be1 90bd
00000180: f769 a23a a5f8 e93c 206e 833d 6e4d 953d
00000190: a5b5 b03c 7ddf 613d 5cae 3e3d 44c0 ac3d
000001a0: ba14 443d 8f9b 20bd c27b a13d 20ab 423d
000001b0: df40 8b3c 604d 953d 9a63 e3bc a8f1 62bd
000001c0: 8209 dabb 898c 513d d26e dcbc 6239 a53d
000001d0: 3b88 c73d 461e 9a3c e62e 11bb 42af c5bc
000001e0: c837 0abd 2477 393d ce3f ad3d 254d 80bd
000001f0: 154b c03c 4691 373b 7f6e ca3d b0d8 1d3d
00000200: fc1c 283d 385a 27bd 4eee 9f3c 3bc6 57bc
00000210: a7dc 383d 832d 8fbd 41b3 393d 19b5 863d
00000220: 7187 943c e4b9 a9bc e957 593d 98a2 013e
00000230: 2bc8 3e3c 45a4 173d ca8e 74bc 0c76 963d
00000240: b44f 9ebc d5cc 4ebc 313a 9d3d 8c68 463d
00000250: 178e 7dbd 9652 9f3d 5a2f 773d 0df4 6fbd
00000260: b35a 483b 99ee 0c3d c21a 063d 0f6d 383d
00000270: 4c09 97bd e987 b53d b877 7b3c b612 8e3d
00000280: 5cb7 94bc 3065 383c ba7c db3c f3bb 413d
00000290: fe04 8e3d 3cd9 703d c7b8 9f3c dfcb 8b3d
000002a0: abcd 363d d1f7 3abd fd13 483c 815c 9cbd
000002b0: 237a 593d 9e99 633d 6648 8d3d 3252 9b3d
000002c0: 07c5 c5bd 10c4 f13d c78e 6a3d 95f2 f73c
000002d0: 0169 46bd 5f1d 823d c979 043d d489 a2bd
000002e0: 4752 183d cd21 05be 2840 9fbd bc7a ed3b
000002f0: 3f08 f73d ef6c c3bc 610c e83c a233 a03b
00000300: 7d4b 8f3c 7a44 ecbc 9fa8 c13d ef0f 123d
00000310: 58f3 bcbd 1480 32bd a053 643d 024b bfbd
00000320: 76a6 adbb a2f0 19bc e9b2 e33c 9fdb 9bbc
00000330: 126d 903c 0d85 2fbc 5b6d 05bd f7b6 a83d
00000340: 68e0 d2bc 3c0c 6f3d 9bfd c5bd 2221 b23b
00000350: d556 aabd 3c0f 1a3d 6821 ae3d d3ea 54bd
00000360: 1683 d53c 4279 d13d 2b64 4ebd e37b 87bd
00000370: 4c60 7e3d 1dd0 9a3d de7e 59bb fa26 c83d
00000380: 0f7b b23d 79f1 af3d ea67 cd3d a520 4bbc
00000390: eaad 2d3d 0598 1cbd b443 cb3a 186b fd3b
000003a0: 30d2 2cbd 5b50 103d 8214 113d e03c 3f3d
000003b0: 3c30 53bd 08cb 42bd 8610 bc3a 85d3 2cbb
000003c0: 35f6 25bd 1c16 a4bd 7bb1 343c 0d0f ea3c
000003d0: 27ea 84bd 009b ad3d aaf3 9b3d d4f2 aebc
000003e0: c0f6 7fbd c5cb dabc 38d3 a2bd 7fe2 60bc
000003f0: b14e c9bc 0590 02bb 7df2 18bc fcb7 1dbd
0.041801095 -0.07418159 0.047430195 0.06637586 0.08671222 0.014247751 -0.05969123 -0.03398508
-0.08154506 0.0041159717 -0.022888174 0.0019395995 -0.017641269 0.005495443 0.046590403 0.07985305
0.053932674 -0.045825202 -0.021787217 -0.05031876 -0.04001706 0.070199914 0.054070104 0.028250007
-0.0022065402 0.054660536 -0.051609594 -0.007473233 0.0099705355 -0.004641172 0.002615487 -0.079609685
0.086134575 -0.04464375 -0.014912203 -0.067507334 0.11973408 0.033629045 0.00924552 0.009380593
-0.04070816 0.03993451 0.00247426 0.08233325 0.04086602 -0.0661014 0.056018922 0.057437822
0.039433222 -0.008404427 -0.029360048 -0.07443084 0.0006424168 0.08016547 -0.037114475 0.07908148
0.032003846 -0.093586124 -0.054407194 0.060899273 0.09731908 0.078657314 0.011091305 -0.0059042326
0.0036986147 -0.01433427 0.08682301 -0.038523953 -0.025438324 0.06004607 0.00077062595 -0.06521022
0.03437628 0.021881428 0.010743079 -0.020945512 -0.06774577 -0.027438248 0.04136386 -0.022194514
0.030334672 0.063609555 0.032258175 0.0030261346 -0.018398672 -0.010904247 -0.07271764 0.0048303483
0.0010625974 -0.049305037 -0.06796919 -0.066255726 0.0558318 0.06954996 -0.0454827 -0.07074257
0.0012391199 0.028560946 0.06417489 0.07290159 0.02157099 0.055144776 0.046553 0.08435109
0.04787133 -0.039210852 0.07884933 0.04752648 0.016998706 0.07290149 -0.027757455 -0.055406243
-0.0066539655 0.051159415 -0.026908312 0.080675855 0.09742781 0.018813264 -0.0022153198 -0.024131421
-0.033744603 0.045279637 0.084594354 -0.06264714 0.023473302 0.0028010174 0.09884357 0.038536727
0.041043267 -0.040857524 0.019522812 -0.01316982 0.045132305 -0.069911025 0.045336965 0.065775104
0.01813099 -0.020718522 0.053062353 0.12659681 0.011644403 0.037021894 -0.014926622 0.073467344
-0.019325115 -0.012622078 0.07677115 0.048439547 -0.061903086 0.07779424 0.060347892 -0.058582354
0.003057164 0.034407232 0.032740362 0.04502588 -0.0737482 0.088638134 0.015348367 0.069371626
-0.018153839 0.011254594 0.026792873 0.047298383 0.06934546 0.05880092 0.019497288 0.06825995
0.044629734 -0.045646492 0.012211797 -0.07634831 0.053094994 0.055566423 0.068985745 0.07584037
-0.096567206 0.11804974 0.05726507 0.03026704 -0.048439983 0.06353258 0.032342706 -0.07936445
0.03718784 -0.13001175 -0.07775909 0.007247297 0.1206212 -0.023855655 0.028326215 0.0048889676
0.01749205 -0.028841246 0.0945599 0.035659727 -0.09226102 -0.043579176 0.055743814 -0.093404785
-0.0052993847 -0.00939575 0.027795272 -0.019025622 0.017630134 -0.010712874 -0.032574993 0.08238023
-0.02574177 0.058361277 -0.09667512 0.0054360786 -0.08317343 0.037612185 0.085024655 -0.05198176
0.026063483 0.10228206 -0.050388496 -0.066154264 0.062103555 0.07559226 -0.003318719 0.09773059
0.08714878 0.08590979 0.10029586 -0.01239792 0.042402185 -0.038230915 0.0015507848 0.007733714
-0.042192638 0.035232883 0.03541995 0.046688914 -0.05155967 -0.047556907 0.0014348186 -0.0026371193
-0.040518004 -0.080120295 0.011028643 0.02857163 -0.064899735 0.084768295 0.076148346 -0.021356024
-0.06249118 -0.026708493 -0.07950443 -0.013725876 -0.024573656 -0.0019922268 -0.009335157 -0.03850554

static_ll.2.bias f4 [64]
00000000: 7211 6c3d 6d6c 203d 739a b8bc bf98 6cbd
00000010: 3f3f 0ebd b3a9 113d 6fe4 e03c 44b3 16bc
00000020: f6e8 373d 7161 7dbd bb22 a73d af40 dbbc
00000030: ef86 2abc 205d 8e3c 37e7 9a3d a79a cc3d
00000040: 2208 aabd 28ce a33c a642 af3d 0aad 80bd
00000050: a49d f1bc 3683 42ba c004 6f3d 6319 b03d
00000060: ddf1 b2bc 729b b63d 6349 753d c4a2 c6bc
00000070: 3436 903c e3c8 8a3c 55ad 813d a681 b23c
00000080: 98a7 2bbd b3db 95bd 1b4b c03d 06d6 793b
00000090: c37c 3a3d e77f 44bd c637 8ebc a6a6 c13c
000000a0: b777 f23c 871e 793d 8539 4dbc aa94 ae3c
000000b0: b293 e9bb e784 9b3d 8dd9 acbc fe00 f23b
000000c0: 5d26 363d 0683 5f3c b14c 0e3d f42c d63c
000000d0: 66ba 22bd a06a 7f3d 8f65 9a3d 5711 6c3d
000000e0: 7e45 dfbc 7258 b53d 75ae 07bd 74b4 c63d
000000f0: 792f 9f3d bccd e83c 4a85 3abd e0d0 cb3d
0.057633825 0.039165903 -0.022534585 -0.057762858 -0.034728285 0.03556223 0.027452676 -0.009198014
0.044899903 -0.061860505 0.08160921 -0.026764242 -0.010408147 0.01737839 0.07563632 0.09990435
-0.083023325 0.019995764 0.08557634 -0.062830046 -0.029494114 -0.00074200646 0.05835414 0.08598592
-0.021843845 0.089163676 0.05988444 -0.024247535 0.017603971 0.016941493 0.063318886 0.021790337
-0.041907877 -0.07317295 0.09389325 0.0038121953 0.04552914 -0.04797354 -0.01736058 0.023639034
0.0295981 0.06082013 -0.012525921 0.021311123 -0.0071282024 0.075937085 -0.02109983 0.007385372
0.04447018 0.013642078 0.034741107 0.026144482 -0.039728545 0.062357545 0.07538902 0.057633724
-0.027254816 0.0885476 -0.03312536 0.097023875 0.077727266 0.028418414 -0.04553727 0.09951949

glu_encoder.rnn.weight_ih_l0 f4 [48, 2]
00000000: fdd9 2e3e 3613 1ebe fde8 203e c396 16be
00000010: 614c 433e 6367 0e3e dfec acbd 1491 2abe
00000020: e723 28be 71ef 613e 8648 7d3e a64c 343e
00000030: 63c3 37be c05a 8339 d830 9f3e b17f 99be
00000040: 51b4 00be 2c2c 69be 7034 6f3e 4492 1fbe
00000050: e3ec f93d 98cb 1a3d 1ac7 d83d 59b0 6d3e
00000060: 5b12 7c3e cd3b d1bd 1740 833d 4d72 a23c
00000070: 535d fb3c b9b6 4abd 2370 61be e40e 87bd
00000080: 3aad 673e 16c6 debd f967 403d e84b 5c3e
00000090: 6e43 15be 093d 62be a727 2dbc 66e2 5f3e
000000a0: a35d a6bd 642c 0c3e 85de 12be be28 14bd
000000b0: b301 b1bd e231 d83d 644c 693e 4b2d 493e
000000c0: 02c3 1e3d e828 84bd 43c0 bdbe 2f0d 903e
000000d0: c267 9abe d73f 213b ecd2 fd3c 56e7 83bd
000000e0: 440c 5b3e d7f1 4fbd 41c0 9d3d 527e 54bd
000000f0: 791b 713e e0c9 97bc e73b 91bd a58e 02be
00000100: 3a46 0d3e 8079 ddbd 0326 08be c4fb 093e
00000110: 6b2c e13d daf3 d13d b858 803e 346c 99bd
00000120: 6bcb cebd 5bf7 60be 7c86 813e b89b 49be
00000130: 7051 243e aa78 063d a91b f73d 3981 51bd
00000140: 52b3 0a3e 0a99 aabd 02f8 753e 8e59 483e
00000150: 5df7 fa3d f9f0 873e 124f 6ebd 4489 d2bd
00000160: 37bb 12be 1247 bbbd 2511 80be 0c90 5d3e
00000170: 151f 883e 45b7 8abd 06a7 693d 1dbc 773e
0.17075343 -0.15437016 0.15713878 -0.14705949 0.19072105 0.13906626 -0.08443617 -0.16656905
-0.16419946 0.22063996 0.24734697 0.17607364 -0.17945628 0.0002505388 0.31091952 -0.29980233
-0.12568785 -0.22770756 0.23359847 -0.1558314 0.12203386 0.03779182 0.105848506 0.23211803
0.24616377 -0.10216484 0.064087085 0.019829893 0.030684149 -0.049490664 -0.22015433 -0.06594637
0.22624674 -0.10877626 0.046974156 0.21513331 -0.14576504 -0.22093596 -0.010568536 0.21863708
-0.081233285 0.13688809 -0.14342697 -0.036171667 -0.08642902 0.105563894 0.22783047 0.19646184
0.038760193 -0.06453115 -0.37060747 0.28135058 -0.30157286 0.0024604702 0.030984364 -0.06440608
0.21391398 -0.050767746 0.07702685 -0.05187828 0.23545636 -0.018528879 -0.070915036 -0.12749727
0.1379632 -0.1081419 -0.1329575 0.13474947 0.109948 0.10251589 0.25067687 -0.07491341
-0.10097393 -0.21969359 0.25297916 -0.19688308 0.16046691 0.032829918 0.12065823 -0.051148627
0.13544968 -0.08329971 0.24020389 0.19565412 0.12254212 0.26551035 -0.058180876 -0.102800876
-0.1432923 -0.09144415 -0.2501308 0.21636981 0.26586214 -0.06773237 0.05704405 0.24192853

glu_encoder.rnn.weight_hh_l0 f4 [48, 16]
00000000: a076 4bbe ad27 58be ba74 e5bd a58e ef3d
00000010: 60d9 f83d 7460 babd b9a8 8fbe 4a2b 343e
00000020: acab 1d3d f704 3a3e b02b 4fbe 633b 0dbe
00000030: 0fb5 c3bc ba8b e5bd fa54 e63d 2363 d6bd
00000040: 637e 0d3e 8dc3 f8bd cee3 343e 8eea 5cbe
00000050: 1e43 2abe 3967 7c3e e25a 3d3d d21a 9d3d
00000060: 73f9 55be 5158 893e d0d9 ffbc a1d1 943d
00000070: 997b c43d f5c6 1cbe 4dec 40be 0d68 e73d
00000080: 0be3 223e 2617 1dbe 0d9f f9bd 60a2 5bbe
00000090: 2bdc ed3c 1448 563d d8e9 31be 7ecf 223e
000000a0: cc65 093e 70a2 a8bd 64d3 91bd b032 1f3e
000000b0: 36bc c8bd 681c 213e a4bf 49be 86bf 333e
000000c0: 2245 203e 0290 47be 4dbb 133e 1f78 693e
000000d0: 7920 e63a 22a1 253e 0bd0 493e 8a5b 023e
000000e0: 8457 38be 01fd 91bd 79f2 13be 4376 20be
000000f0: 6afd 093e 8d15 db3c fb05 853c 61a6 c7bb
00000100: 652e a9bd 80a7 f23a 0a1d 373d 4b9e 37bd
00000110: 532c 1c3d e5e4 adbd 46df 953e e688 023e
00000120: 44cf 9f3c 8ab1 013e f77e 3c3d e36d 95be
00000130: 3bb4 92be d66f d63d fd0b f73c 29b0 fdbd
00000140: 82ef 973d 53b2 4e3e 298e 55bc 9226 e13c
00000150: 0ba7 ce3c 6ff2 40bd 9424 69bd e8fa 3e3e
00000160: 9f79 303d 895a 5d3e a542 3dbe 417e 65bd
00000170: efe7 2bbe 36f7 6cbe 1344 88bd 7607 74bd
00000180: 63a0 57bd 22a2 1c3e c7a6 1c3e 42b2 7a3e
00000190: 4e35 253d a587 793e 0067 70bd 9b82 4e3d
000001a0: 0b23 613e 7224 183d 6a1c 2ebe f775 373e
000001b0: 3802 113e e7ff 41be b319 ec3d 0a33 43be
000001c0: 4097 db3d 5907 34be 2e08 cdbc 32ef be3d
000001d0: bd15 68be 93c0 253e ab4d 9cbd 1898 2bbd
000001e0: 5d95 14be e3e8 1e3e 1188 953d 8859 6cbe
000001f0: eace 94be cd52 8ebe 8092 6f3e 506c 7abd
00000200: 281e ae3b 1c4e 713e 6274 653e 5959 44be
00000210: 6da5 23be 738c df3d dcf5 57bd 70e5 7cbe
00000220: 263b 06bd b2f0 993d 8bce c8bd 3c2b 4b3e
00000230: dd7b 4dbe fea2 b2bd 5243 533e fb3a 8dbd
00000240: cd5a 833e 752a 83bd 7c11 1b3e 1978 54be
00000250: 9c9a 32be 2e9c 4dbe c609 223d 8f87 303d
00000260: a080 25be 69b8 18be 92e6 95bc 8490 6ebd
00000270: 443e a53c 1663 5b3d 6a87 503d 61cb b53d
00000280: 858a 643e 70e0 b2bd 23f7 7abe 3e87 5b3d
00000290: a7dc 5b3e c55f d73d 4a80 653d 17d8 1e3e
000002a0: 5764 b93c 4a41 8ebd 423d e3bd c104 233e
000002b0: e556 15bd af72 0a3d e04a 093e fd9b b9bb
000002c0: 0a54 13be 91b7 ea3d c64a 253d 24aa 103e
000002d0: f920 993d 7aec f8bc 5132 36bd b35c f0bd
000002e0: 35b0 9bbd 023e 17be f3e2 b0bd d8b7 4e3d
000002f0: cb6f 763e 04fc 25be e036 56bd d627 5a3e
00000300: a942 4b3e 3bed b63d 2527 0ebe c4e4 4f3e
00000310: 0117 8ebe 50c3 49bd c8a4 0c3e e40a 203e
00000320: 453d 663e 125d aabd ea9a 20be a7f2 1cbe
00000330: 838d be3c 6785 b3bd e48e 5c3d f85a 8a3d
00000340: 1401 603d 4664 183e 2d5b a43d 5108 263e
00000350: 89de b5bd a081 24be 60c3 a4bd 381c e13b
00000360: f861 153e 2156 f53c ceb3 ad3d 9844 9fbd
00000370: c014 223d 6920 9b3d 3f0e 1fbe c965 3dbe
00000380: 24d4 8b3e cd2b 313e 2cee 52be fef5 42bd
00000390: a02f 883c 6fd2 293e 5758 ecbd c0b2 c1bd
000003a0: c945 04be 7948 1e3e cfd0 12be 4279 123d
000003b0: c962 293e 6fd4 813b 8cf7 8e3e 7224 2ebe
000003c0: 760e e0bc 9d9a 8b3d c471 5a3d 4556 0a3e
000003d0: 0750 8d3e ae4a 8abe f7c6 b4bc 3044 173e
000003e0: 0348 0b3d de9d 57be ffbb 0dbe 23ee 88bd
000003f0: f1b8 2bbd 9a1a 9fbd ec58 0bbd 4ceb 4d3c
-0.1986947 -0.21108885 -0.112039044 0.11697129 0.12150836 -0.09100428 -0.28058413 0.17594638
0.038493797 0.18165956 -0.20231509 -0.13792185 -0.023890046 -0.11208291 0.11246677 -0.104681276
0.13817744 -0.12146673 0.17665026 -0.2157385 -0.16627166 0.24648751 0.04622925 0.07671131
-0.20895939 0.26825193 -0.03123179 0.07266546 0.09593887 -0.15310271 -0.18840142 0.11299143
0.15906923 -0.15340862 -0.1218854 -0.2144866 0.029035648 0.052314833 -0.1737436 0.15899464
0.13417739 -0.082341075 -0.07120398 0.1554668 -0.098015234 0.15733492 -0.19702011 0.17553529
0.15651372 -0.19488528 0.14426918 0.22799729 0.0017557285 0.16174749 0.19708268 0.12730232
-0.18002135 -0.07128335 -0.14447965 -0.15670113 0.13475576 0.026743675 0.016238203 -0.006092832
-0.08260802 0.0018513054 0.04470543 -0.044828694 0.03812821 -0.08490924 0.29271907 0.12747535
0.019508012 0.12665382 0.04601952 -0.291854 -0.2865313 0.1047055 0.030157084 -0.123871155
0.07418729 0.20185213 -0.013034382 0.027484212 0.025226137 -0.047106203 -0.05691965 0.186504
0.043084737 0.21616568 -0.18482454 -0.05602861 -0.16787694 -0.23141178 -0.06653609 -0.059577428
-0.05264319 0.15296224 0.15297996 0.24482062 0.04033404 0.2436815 -0.05869198 0.050417524
0.21986024 0.037144132 -0.17003027 0.17916094 0.14161003 -0.18945275 0.11528339 -0.19062439
0.10722208 -0.17580928 -0.025028314 0.09322967 -0.22664542 0.16186742 -0.076320015 -0.041893095
-0.14510103 0.15518527 0.07301343 -0.23081028 -0.29064113 -0.27797547 0.23395729 -0.06113845
0.0053136535 0.23564953 0.22407678 -0.19174708 -0.15981074 0.109154604 -0.052724704 -0.24696898
-0.032771252 0.07516612 -0.0980502 0.19840711 -0.20066781 -0.087224945 0.2063115 -0.06896015
0.25655213 -0.064045824 0.15143389 -0.20748939 -0.17441791 -0.20079109 0.039560102 0.04309803
-0.16162348 -0.14914097 -0.018298421 -0.05824329 0.020171292 0.053561293 0.05091039 0.08876682
0.22318466 -0.08734214 -0.24508338 0.053595774 0.21470891 0.105163135 0.05603055 0.15512119
0.022630854 -0.06946047 -0.110956684 0.15919782 -0.036459822 0.033800777 0.13407469 -0.005664347
-0.14387527 0.11460794 0.040354513 0.14127403 0.07476992 -0.030386198 -0.04448158 -0.11736431
-0.07601968 -0.14769748 -0.08637037 0.050468296 0.24066083 -0.16209418 -0.052298427 0.21304259
0.19849648 0.08931967 -0.1388212 0.20302111 -0.27751926 -0.04925853 0.13734734 0.15629154
0.2248431 -0.08318533 -0.15684095 -0.1532694 0.023260837 -0.08765679 0.05384721 0.06755632
0.05468853 0.14882001 0.08025203 0.1621411 -0.08880336 -0.16065073 -0.08045077 0.006869819
0.14588153 0.029948296 0.08481561 -0.07776755 0.03957057 0.07574541 -0.15532778 -0.18495859
0.27310288 0.17301865 -0.20598668 -0.047597878 0.016624272 0.1658418 -0.11540287 -0.09457922
-0.12917246 0.15457334 -0.14337467 0.03576017 0.1654159 0.0039620916 0.27923238 -0.1700609
-0.027350646 0.068165995 0.05333115 0.13509472 0.2760012 -0.270101 -0.02206753 0.14772105
0.034004223 -0.21056315 -0.13841246 -0.06686046 -0.04192442 -0.07768746 -0.03402035 0.012568306

glu_encoder.rnn.bias_ih_l0 f4 [48]
00000000: 1cbe 2c3e 335b 2bbe 239d 0dbd f777 f33c
00000010: 8d51 41be 56bf d0bd 94d4 523d 4c99 b9bd
00000020: c4b6 573d 9257 a83d 9de5 31bc 0ba1 e0bd
00000030: edee 6bbd a4a1 953d d81a a1bd 3a2c 08be
00000040: e8b3 733e 3bd9 40be ec45 5a3e 2d9b 66be
00000050: fa6c 773e 54d9 73be 5dab 723e 8612 bcbd
00000060: b212 d93c 08db f23d 543e 443d 24a6 5a3e
00000070: 8272 453c 3a15 6e3c 2977 e73d bf69 2a3d
00000080: b4d9 773e d63f 523e 34a6 30be 14eb 3bbe
00000090: fa15 18be a8da 17be 3446 59be ceb4 16be
000000a0: 1953 9bbd 7815 613e 005f 29b9 582a 00be
000000b0: 0b75 183d a9b8 80be 18d1 4ebd 9760 debd
0.16869396 -0.16734008 -0.034573685 0.02972029 -0.18878765 -0.101927444 0.05147226 -0.09062442
0.052664533 0.08219828 -0.010857967 -0.109682165 -0.057600904 0.07306221 -0.07866448 -0.13298121
0.23799098 -0.18832867 0.21315736 -0.22520132 0.24162665 -0.23813373 0.23698182 -0.091832206
0.026498172 0.11858183 0.047911003 0.2135244 0.012051227 0.014531428 0.11302025 0.041604754
0.24204141 0.20532164 -0.17250901 -0.18351394 -0.14852133 -0.14829504 -0.21218187 -0.14717409
-0.07584209 0.21980846 -0.00016152486 -0.12516153 0.037220996 -0.25140885 -0.050492376 -0.10858267

glu_encoder.rnn.bias_hh_l0 f4 [48]
00000000: 9f8d 64bd 98ca 8d3e 1f06 593e cbda 81bd
00000010: 6dbf 17be e9ac 2fbd b3b6 3abe 44bb 1abe
00000020: 3ca2 adbd f95e f4bd 5ffc 963c 4360 1ebd
00000030: ae19 843e ecca 4abe 0e42 893d 1942 c33d
00000040: b9ac 57bd dd20 503e e6ca 903e d168 443e
00000050: f6d4 28be 5d8f 22be 9b98 2e3e 49e4 e43d
00000060: 0628 f83d 6e1b a2be 9f26 0f3e 0bcc 563e
00000070: 8319 343e 80ee 833e 8722 c73d 709b a43e
00000080: 8352 d23d c7ba 273c 6224 043e cd4b eb3d
00000090: fa06 6dbe 348e e4bd 609b 73be 4ef7 1f3e
000000a0: ee2c 183e 03c2 bfbd cef4 d3bd 7f7a 37be
000000b0: 8f2d 98be f68f 6bbe 98c5 8f3d 6624 40be
-0.055799123 0.2769363 0.21193741 -0.063405596 -0.14819117 -0.04288951 -0.18233757 -0.15110499
-0.084782094 -0.11932177 0.018430887 -0.03866602 0.25800842 -0.19803971 0.06702052 0.095340915
-0.052654956 0.20325036 0.282798 0.1918061 -0.16487488 -0.15875001 0.17050402 0.111763544
0.12117009 -0.31661552 0.13979577 0.20976274 0.17587857 0.257679 0.097233824 0.3214984
0.10269644 0.010237402 0.12904504 0.11489067 -0.23147193 -0.111599356 -0.2378974 0.15621683
0.1486089 -0.09363177 -0.10349427 -0.17917822 -0.29722258 -0.23004135 0.0702011 -0.18763885

glu_encoder.hid2lat.weight f4 [64, 16]
00000000: cc5c 77be d5ff 36be c6df a8bd a959 263e
00000010: ed88 fc3c b007 223e 18ec 0dbe ec66 6a3d
00000020: 2e21 29bd 2783 6ebe 4211 07be 2903 97bd
00000030: 5937 493e 8f02 36be 245d 2bbe dcd4 0bbe
00000040: ea05 083e 77c5 1b3e b278 6abe 0362 c43d
00000050: da06 753e afca e1bb a8de 3f3d 483f b5bd
00000060: 641d 213e 33b6 27bd 922e 34be 074b 9dbd
00000070: efcf 103e d2ee d33d ef1a 4ebe 8a99 a9bd
00000080: d95c e0bd 226e 84bc 7fe4 d9bc dfe6 823e
00000090: c625 9fbc a8c2 b43d e671 773e 6c0b 603e
000000a0: 8e16 07bd 75c2 7e3e 82f6 46be f16b 953c
000000b0: f5e1 ad3d ae5d ddbd bd2d f83d e76f 46be
000000c0: 2a04 1f3e a377 d2bd e15b 683e a79c 823d
000000d0: c3cc d1bd a6da 2c3e 38e4 51bc 4a1a 803e
000000e0: 0320 3dbe eee9 cabd 7243 81be 2be6 333d
000000f0: f7b8 b73c 2996 aabd bd40 b83c 6f8b ddbd
00000100: 6321 653e f4ac f53d 89ef 54be e610 b53c
00000110: 91e7 423e f488 543e 5546 4f3e 2588 08bd
00000120: 41fe f43d d715 bfbd 5aad 463e 441e 95be
00000130: 2f37 61be 37d9 fabd 3136 c5bd dade 663e
00000140: 6ed1 f7bd d5a4 34be 70c1 8d3e 2748 7e3e
00000150: 9e17 1c3d bef7 5d3e 316f 423e 4738 67be
00000160: b07c 89bd 9934 123e 11a9 e6bd 3fdc 1b3e
00000170: 0b39 96bc dffe c0bd 1ddc 08be 46f4 dd3d
00000180: 9fbd 193d af83 19be caee 993d 0532 4b3e
00000190: 47f9 793d c356 34be 5bf8 113e d02a 4e3e
000001a0: 33c0 cfbd 438d 103e fdd6 803d faaa c53d
000001b0: e662 bebd ddfc f1bc 54ad 17be 0fb0 36bd
000001c0: 3f78 f5bd 57ca d63d 3c11 3a3e 56ba b7bd
000001d0: 09f1 ffbc 3e33 21be 02a3 d3bd bdf4 143d
000001e0: 9bc8 e0bd 4963 f1bd e1bf 88be ccd2 0e3e
000001f0: 697e 4d3e cfe5 153e ce29 fd3d 7434 563e
00000200: 0d10 423d 5e21 b8bd c88b 1bbe dca0 653e
00000210: 8a15 273e 7db6 45be b2ac 39be 3551 42be
00000220: 2621 40bd 7ac3 193e 68e5 393e 6786 62be
00000230: ca14 c53c f095 593e 9701 1cbe 6d17 923d
00000240: d28f 1d3d 0f4f 6cbe 60f3 cb3d 6165 333d
00000250: 3785 373d e041 383e 535e edbd 8427 c23d
00000260: 6842 1cbe 3651 eebd b91c 2abd 722f b23d
00000270: e688 bcbd c579 a33d 2f8f bc3d d84b 313e
00000280: 3a7a 083e b587 5abe 5229 d13d 4c76 8f3e
00000290: 15e3 183e 47b2 263e 7fcf bc3d 2b9e a3bc
000002a0: f8fe 213e d707 77bc 8798 04be 6312 18be
000002b0: 2044 22be d544 b6bc 0411 693e 74f9 4cbd
000002c0: 73e7 06be aa49 0fbe 82dd 42be e78b 35bb
000002d0: 9153 f23d eab9 5abd 57d6 fc3c 395b 01be
000002e0: cdbb 76be a6cb 563e 039a 043e 96c1 633d
000002f0: 4be7 7fbe 6997 433d 09e4 7abe f749 39be
00000300: 1b7b 5e3d b608 d5bd 6396 1f3e 1c4f 453e
00000310: 953a 19be cefd 36bd 5227 5fbd 0b21 253e
00000320: 4a4f 893e 3e1e 5d3e b8de 733d 7f0b 2f3e
00000330: 8b37 193e 8e6f 6dbe e98c 063e 052c 04be
00000340: 9aca 96bd bf7b 463d 8b79 9bbd f1e1 46be
00000350: be06 67be 1ef2 25be 733b 80be 9cb6 2d3e
00000360: edf9 713e a1aa 21be 110f 253e d306 0f3e
00000370: 76ab c2bd 5871 06bc 3b69 4dbe 9c1e 633e
00000380: 53ad 2b3e 3e37 a1bd 1fa4 e23d ca2d a93b
00000390: 37b4 263c 0800 0a3e 2d15 603d 15b2 90be
000003a0: d933 89be 7b55 f8bc abd4 88be c8fb 373d
000003b0: 8bac c93c 8f8b fc3c 7c06 86be 0a50 263e
000003c0: a01a 52be d1c3 b23d f397 17bc ecdd 3abe
000003d0: 6240 443d 2672 583e bafb cdbc fee8 c33d
000003e0: ad22 f4bd 2517 72bc 468b ed3d acf0 34be
000003f0: b386 97bc d607 273c ed2f 73bc 1138 64bd
-0.24156493 -0.1787103 -0.082458064 0.1624514 0.03082701 0.15823245 -0.13859594 0.05722706
-0.04129141 -0.23292218 -0.13190177 -0.073736496 0.1965002 -0.17774414 -0.16734749 -0.13655418
0.13283506 0.15212046 -0.22897604 0.09589007 0.23928395 -0.006890617 0.0468432 -0.088499606
0.15733868 -0.040945243 -0.1759589 -0.07680326 0.1414182 0.10348286 -0.20127462 -0.082812384
-0.10955209 -0.016165797 -0.026598213 0.25566766 -0.019427191 0.0882619 0.24164543 0.21879357
-0.032980494 0.24878867 -0.19429973 0.018239947 0.084903635 -0.108088836 0.12118099 -0.19378625
0.15528932 -0.10276725 0.22691299 0.06377535 -0.10244133 0.16880283 -0.012810759 0.25020057
-0.18469243 -0.099079 -0.2524677 0.043920677 0.022427065 -0.08329422 0.022491807 -0.108176105
0.22376017 0.11995879 -0.207945 0.022102784 0.19033648 0.20755368 0.20241673 -0.033332963
0.119625576 -0.093303375 0.19402066 -0.29124653 -0.21993707 -0.12248462 -0.09629477 0.22545949
-0.121004924 -0.17641003 0.27686644 0.24832211 0.03810846 0.21676537 0.18987729 -0.22580062
-0.067132354 0.14277877 -0.112627156 0.15220736 -0.018337747 -0.09423613 -0.13365217 0.10837607
0.037534352 -0.1499164 0.075162485 0.198433 0.061028745 -0.17611222 0.14254896 0.20133519
-0.10144081 0.14116387 0.06291006 0.09651752 -0.09296207 -0.02953952 -0.14812213 -0.044601496
-0.11985826 0.10487812 0.18170637 -0.08971088 -0.031242864 -0.15742204 -0.10333826 0.036366213
-0.109757625 -0.11786515 -0.26708892 0.139476 0.20067753 0.14638446 0.12361489 0.20918447
0.04737859 -0.08990739 -0.15190041 0.22424644 0.1631681 -0.19307895 -0.18132284 -0.1897629
-0.046906613 0.15015975 0.18153918 -0.22121583 0.024057765 0.21248603 -0.15234981 0.07133374
0.038467236 -0.23077033 0.099585295 0.043797854 0.044804778 0.1799388 -0.115902565 0.09480193
-0.15259707 -0.116365835 -0.0415313 0.08700456 -0.09205799 0.0798221 0.092069976 0.17314088
0.13327876 -0.2134083 0.10212959 0.2801994 0.14930375 0.16278945 0.09219264 -0.019972881
0.15819919 -0.015077553 -0.1294881 -0.14850764 -0.158463 -0.022249619 0.22760397 -0.050042585
-0.13174228 -0.13992944 -0.19029811 -0.0027701796 0.11832345 -0.053399958 0.030863924 -0.12632455
-0.24095078 0.20976123 0.12949376 0.05560454 -0.24990575 0.047751818 -0.24501051 -0.18094622
0.05431662 -0.10402052 0.15584712 0.19268459 -0.14963754 -0.04467564 -0.05448086 0.16125886
0.26818305 0.21593568 0.059538573 0.17094229 0.14962594 -0.23187086 0.1313969 -0.12907417
-0.07362862 0.048457857 -0.07591542 -0.19422127 -0.22561166 -0.16205642 -0.25045356 0.16964191
0.23630495 -0.15787746 0.16119029 0.13967447 -0.0950536 -0.008205734 -0.20059673 0.22179645
0.16765337 -0.07871865 0.1106646 0.005162929 0.0101748025 0.13476574 0.054707695 -0.28260866
-0.2679737 -0.030314198 -0.26724753 0.04491785 0.024618408 0.030828265 -0.26176822 0.1624147
-0.20517969 0.08728755 -0.009252536 -0.18248719 0.047912963 0.21137294 -0.025144447 0.09565924
-0.119206764 -0.014776026 0.1159883 -0.17669934 -0.018496847 0.010194739 -0.014842969 -0.05571753

glu_encoder.hid2lat.bias f4 [64]
00000000: 37ae d03c dd69 91bd 147e 42be 9e43 a93c
00000010: 8807 503d 34eb 283d 5838 463e 5d8c b7bd
00000020: a999 993c 2fcb 063e 4e32 7c3e 1208 dc3d
00000030: 272c 863c 7132 aaba ed57 43bc dede 49be
00000040: 5cf3 31bd dbcd 803d dd53 883b 3c29 623e
00000050: d5aa a0bd 6b90 463e 3d24 e63d 1fdf 993d
00000060: f6ec 203e 3713 a43d 47d4 863d d557 ca3c
00000070: 06e8 20be f81c 613e c787 1ebe 6fba 27bd
00000080: c571 72be 78fa 86be dae3 3d3e 78ab e9bd
00000090: 4231 733e 96b9 4fbd 5df4 5bbe 0797 ebbd
000000a0: c427 20bd 6533 ff3b 3b1f 103e b484 943c
000000b0: ffb4 8a3e b0b1 053e f269 de3d 2ee4 513e
000000c0: 37ca 29be 423a e13b c469 4d3e 21ee 5c3e
000000d0: 1284 903c ce98 cabd e96f 493d 6190 68bd
000000e0: 545e 85be 9603 45be dbd7 7cbe ba7a 5fbd
000000f0: ee42 5bbe d493 e3bc 37ad 123d 5046 433e
0.025473697 -0.0710027 -0.18993407 0.020662125 0.050788432 0.041239932 0.19357431 -0.08962319
0.018750029 0.13163446 0.24628565 0.10743727 0.016378475 -0.0012985003 -0.011922819 -0.19713923
-0.043444976 0.06289264 0.004160388 0.22086042 -0.078450836 0.19391029 0.11237381 0.0751326
0.15715393 0.080114774 0.065834574 0.024700085 -0.1571351 0.21983707 -0.15481482 -0.04094928
-0.23676212 -0.26362967 0.1854395 -0.11409658 0.23749259 -0.050714098 -0.21479936 -0.115034156
-0.039100423 0.007788109 0.14074413 0.018129684 0.27091214 0.13056064 0.10860051 0.204972
-0.16581045 0.0068734 0.20059878 0.21575214 0.017641101 -0.098924264 0.04917899 -0.056778315
-0.2604853 -0.19239649 -0.24691717 -0.0545604 -0.2141225 -0.02778045 0.03580972 0.19069791

encoders.weight_ih_l0 f4 [192, 64]
00000000: b4dd a2bd cb95 04be 563f 88bd 8bdf 2d3e
00000010: 2d2a 243d ca49 773d 7a4a be3d 374b b83c
00000020: 7059 723d fb87 24bd c37a 163e 81c2 03be
00000030: 2488 8dbd 113c 21bd 17b2 d7bd 6044 583d
00000040: 5f11 4e3d 2f6c 533d 359c 9abd 7e6c dd3d
00000050: 0684 163e a707 34bd f60a 463d f357 043d
00000060: 7569 413d 9d5f 263e 1339 00be 0d91 d4bd
00000070: 5f3b 15be 9913 6bbd 4bd6 bc3d 26e2 b8bd
00000080: 5a32 38bd 6575 353d 9ff7 943c a9b4 6fbd
00000090: 10f7 25be 0e94 97bd 1282 f2bd b159 0e3e
000000a0: 1e43 46bc 47b0 79bc 9a98 353d cff4 2b3e
000000b0: 3a22 23bd a11e 9d3d ce33 81bd e025 50bd
000000c0: 4ba0 22be cafb ddbd 9540 c2bd a4bc a6bd
000000d0: aa63 c23d 4f57 d43d f2de 873d c87a 22be
000000e0: 66eb a0bd f761 9bbc b558 1bbe efd5 33be
000000f0: 44df 94bd db93 8d3d 713a 14bd 75b8 173e
00000100: b975 18bd d0f5 2f3d c13b bebd d68b bbbd
00000110: b64c bebd a8a4 8a3d 13ea 813d 628c 193d
00000120: 833f 8abb 88a9 d8bd 113a 363c 9ad5 5ebc
00000130: 0dfb 933c 331f 36bd 0b66 13bd 10a3 e2bc
00000140: 4b48 9c3c 392c fcbd aef5 03be 0915 183d
00000150: 5f97 af3d 3446 c43d b815 973d dcb7 b9bd
00000160: 11d8 ba3d 050a 803d 1063 a93d c0c1 f8bc
00000170: 6ab3 103e d3ef 513d 1d44 163d 7a01 2dbe
00000180: aeaa cebd d1a3 5abd a13d 933d 9e9f 653d
00000190: 34da b93d 54c2 003e cf48 07bc 1bfb c5bd
000001a0: efa0 863d ca02 c1bc 0c08 16bc ce46 ecbb
000001b0: 4fd0 e93d e041 e2bd 1614 b73d 1a01 3bbd
000001c0: e51a e4bd edf2 803d b6bb 99bc 1838 f93d
000001d0: 9be0 913d 8e1c e0bd 8b16 c7bd f736 0bbe
000001e0: 33ea 82bd b3ee 1d3d fc9b abbd f8b4 1fbd
000001f0: 7d69 f43d d273 2dbd b79e 67bc 0386 d6bc
00000200: 0b38 8cbd a12c 80bd 489a 18bd 2ae5 fdbc
00000210: 3ac7 b4bc ae88 a93b ed6e 50bd 5d5a dbbc
00000220: 5ba8 15be d90a f0bc 7373 34bd 196b 30bd
00000230: 1fdf 0c3e f02d c8bc ce51 3a3a da9f 8abd
00000240: df71 813d f940 f73d 9a16 e03d 75d6 26bd
00000250: 309d 613b 9242 80bd 0733 183e f5b1 51bd
00000260: a596 e23c 9faf dc3d 78d1 fcbc 50c7 95bd
00000270: 9ba0 3c3d 47e3 263d 6905 4f3d ac75 a4b9
00000280: 9180 1fbe ff8c d6bd 129c 173e 1921 633d
00000290: ab05 a3bd 3d07 513d bd40 04be 484d 983d
000002a0: 1091 0fbd 5b86 2dbd a474 23bd d935 35bc
000002b0: f468 033e 2987 ae3d 9737 813c 3ad8 80bd
000002c0: d94a 00bd 9f92 60bd 7abc 3dbd 2c8b 313c
000002d0: 623d 2dbd 3b66 89bd 954d 9abc 863a 74bc
000002e0: 4b02 83bc 5d29 49bd ed86 18be 996d 13be
000002f0: cc54 6fbd 7576 7dbd 3189 07be 7b46 a83d
00000300: 0c37 4e3a cefc 923d b1c7 143e ef58 ad3c
00000310: 1fc7 003e e868 c7bd f2dc 0f3e 4253 efbd
00000320: 148b a0bd 2c2f 593a cba4 a73d 2974 e0bd
00000330: 1727 0e3e 5365 e93c 9a3c 98bd d040 523d
00000340: 37de ae3b fd19 3d3d f014 77bc 933b 95bd
00000350: f2b5 023e d959 4a3d 9cce c8bd a528 8bbd
00000360: 13eb 893d d7f7 463d 67a1 5f3c 9ee8 13be
00000370: 0e24 0c3b ec22 7fbd 3d37 643d 2017 26be
00000380: 6a24 3ebd ec47 ca3d 1b8a 88bc 2cd5 babc
00000390: e3e4 39bd 907f 01bd 0450 aa3d 329e 55bd
000003a0: 3250 82bd 09b7 893d 2d61 913d eab5 0d3d
000003b0: 8ff2 023e 22dd 4d3d bc93 42bc 9646 273d
000003c0: 54fa a53d 0c49 543d bd45 b3bd 28ec 77bd
000003d0: a562 0abb e60f bb3d fd02 8abd 93fa 2f3c
000003e0: 3c4a 2c3d 75e4 56bd cf94 333d fbe4 17bb
000003f0: 6cc4 dfbd c0bd c43d c151 07be d9bf 223e
-0.07952443 -0.12947766 -0.06652705 0.16979806 0.040079284 0.060373105 0.09291549 0.022496803
0.059167325 -0.040168744 0.14695267 -0.12867166 -0.069107324 -0.039363924 -0.10532015 0.052799582
0.050309535 0.051616844 -0.075493254 0.10811709 0.146988 -0.04395261 0.048350297 0.032310437
0.047219712 0.16247411 -0.12521772 -0.10379229 -0.1457343 -0.057391737 0.09220561 -0.090275094
-0.044969894 0.04430141 0.018184481 -0.0585219 -0.16207528 -0.07401286 -0.11841215 0.13901402
-0.012100963 -0.015239782 0.044334985 0.16792606 -0.039827563 0.076718576 -0.06308709 -0.05081737
-0.1588146 -0.108390406 -0.09484974 -0.08141449 0.09491666 0.10368215 0.0663432 -0.1586715
-0.07857399 -0.018967612 -0.15170558 -0.17562078 -0.07269147 0.06912967 -0.036188547 0.14816459
-0.037221644 0.042959034 -0.09288741 -0.09157531 -0.09291975 0.06769687 0.06343474 0.037487395
-0.004218997 -0.105792105 0.011122243 -0.013600731 0.018064046 -0.044463348 -0.035985988 -0.027665645
0.01907744 -0.12313122 -0.12886688 0.037129436 0.085737936 0.09583703 0.073771894 -0.090682715
0.09123243 0.06251911 0.08270848 -0.030365825 0.14130941 0.051254105 0.03668605 -0.16895095
-0.10091148 -0.053378884 0.07189489 0.056060426 0.09074822 0.1257413 -0.008257105 -0.09667035
0.065736644 -0.0235609 -0.009157192 -0.007210589 0.11416685 -0.11047721 0.08939378 -0.045655347
-0.11137942 0.062963344 -0.018766265 0.12168902 0.07122918 -0.109429464 -0.097210966 -0.13595186
-0.06392326 0.03855772 -0.08379361 -0.038990945 0.11934183 -0.042346783 -0.014136962 -0.026186949
-0.06846627 -0.06258512 -0.03725651 -0.030993063 -0.022067655 0.005173764 -0.050887037 -0.026776487
-0.14615004 -0.029302048 -0.044055413 -0.043070886 0.13756989 -0.024435967 0.0007107527 -0.067687705
0.06320547 0.120729394 0.10941811 -0.040731866 0.0034425966 -0.06262697 0.14863215 -0.051195104
0.027659724 0.107756846 -0.030861601 -0.073134065 0.046051603 0.040744092 0.05054227 -0.0003136819
-0.15576388 -0.104761116 0.1480563 0.055451486 -0.079600655 0.051032294 -0.1291532 0.07436615
-0.03505045 -0.04236446 -0.03990616 -0.011060202 0.12833005 0.085218735 0.015773578 -0.06291242
-0.03132138 -0.05482733 -0.046322323 0.010836404 -0.042294867 -0.06708952 -0.018835822 -0.014906531
-0.015992304 -0.049111713 -0.1489522 -0.14397277 -0.058430478 -0.061880548 -0.13235928 0.08216568
0.0007866479 0.07177125 0.14529301 0.02116057 0.12575959 -0.09736806 0.14049128 -0.11685802
-0.07839027 0.0008284922 0.08185729 -0.10959656 0.13882099 0.028490698 -0.07433434 0.05133134
0.0053365487 0.046167362 -0.0150806755 -0.072867535 0.12764719 0.04940209 -0.098050326 -0.06794862
0.0673429 0.048576202 0.013649321 -0.14444205 0.0021383795 -0.062289163 0.05571674 -0.16219759
-0.046421446 0.09876999 -0.016667416 -0.022806726 -0.0453843 -0.031615794 0.08316043 -0.05215282
-0.06362952 0.06724364 0.07098613 0.034597315 0.12787841 0.050259717 -0.011876043 0.0408388
0.08104387 0.051827475 -0.08753536 -0.06052795 -0.0021115926 0.09133892 -0.06738851 0.010740894
0.042062983 -0.052463967 0.043843087 -0.0023177254 -0.109261364 0.096065044 -0.1321478 0.15893497
