code/baseline/saved/GAMNet_learning_rate_0.0001_hidden_size_64_epoch_6000_batch_size_32/Epoch_450_JA_0.4611_DDI_0.0982.model (torch, 455805 bytes, 29 tensors)

lab_embeddings f4 [32, 64]
0	0x3e9ef11b	0.31043324
1	0x3da9b5ef	0.08286654
2	0xbf33830c	-0.70121837
3	0xbfd05682	-1.62764
4	0xbf31eeb9	-0.69504887
5	0xbfb86cb0	-1.4408169
6	0x3f92647b	1.1436914
7	0x3ef16b79	0.47152308
8	0x3f32ce7b	0.69846314
9	0x3f169c5f	0.58832353
10	0xbfdd498a	-1.7288067
11	0xbfac528b	-1.346269
12	0x3eeef16c	0.46668565
13	0xbecf2dcc	-0.40464628
14	0x3f265289	0.6496969
15	0x3ff7c82f	1.9357966
16	0x3f2acf1d	0.6672228
17	0x3e36fa24	0.17868859
18	0x3ea7b291	0.32753423
19	0x3f08e945	0.5348094
20	0x3e6a2377	0.22865091
21	0xbf4a52ba	-0.7903248
22	0xbf8a8b89	-1.0823833
23	0xbf670443	-0.9024088
24	0xbf24023a	-0.640659
25	0xbf86c672	-1.0529311
26	0x3f344f18	0.7043319
27	0xc013df15	-2.3104908
28	0xbeb9e7aa	-0.36309558
29	0x3f4abdc1	0.7919579
30	0x3fb5a2a5	1.419026
31	0x3eb8621a	0.36012346
32	0xc007ba62	-2.120751
33	0x3fd5fe4e	1.6718233
34	0xbe88ba81	-0.2670479
35	0xbfef909f	-1.871601
36	0xbef19fb3	-0.47192153
37	0xbf1f9ffc	-0.6235349
38	0xbf93c7e6	-1.1545379
39	0xbf67561a	-0.90365756
40	0x3ef3480f	0.47515914
41	0x3ec5019f	0.384778
42	0x3f6a933e	0.91630924
43	0xbedb49e8	-0.42829823
44	0x3eac0598	0.33598018
45	0x3f661d81	0.8988877
46	0x400dd01b	2.2158267
47	0x3f0338c9	0.5125852
48	0xbe96654d	-0.2937416
49	0xbed73d62	-0.4203902
50	0x3e87224a	0.26393348
51	0xbf059e75	-0.5219491
52	0xbf3909cd	-0.7228058
53	0x3e48b6bd	0.19600959
54	0xbf1b2da0	-0.60616493
55	0x3f3a70e4	0.7282851
56	0xbe753b80	-0.23948479
57	0xbe80a41c	-0.25125206
58	0x4020cc73	2.5124786
59	0xbf12fe7f	-0.5741958
60	0x3da00ea5	0.07815293
61	0x3ebf5597	0.37369987
62	0x3fee2471	1.8604871
63	0x3d0e639a	0.034762956
64	0xbe14db34	-0.14536744
65	0xbf2cc652	-0.6749011
66	0xbec92d6f	-0.39292476
67	0xbdd41810	-0.10356152
68	0x3e6250e3	0.22101168
69	0x3f12e340	0.57378006
70	0x3fed8c7b	1.8558496
71	0x3e8e5ea4	0.2780658
72	0xbf896a5f	-1.0735587
73	0xbf9a75d8	-1.2067213
74	0xbfa6619a	-1.2998536
75	0x3d952835	0.072830595
76	0xbfc4fc94	-1.5389581
77	0xbf880e9b	-1.0629457
78	0x3f5becc5	0.85908157
79	0xbf6f83ea	-0.9356066
80	0xbe45d3be	-0.19319054
81	0x3f173820	0.59070015
82	0x3fbb7f7f	1.4648284
83	0x3f9bbdcb	1.2167295
84	0x3ebfe508	0.37479424
85	0xbf06a4a5	-0.5259498
86	0x3e22cb8d	0.15897961
87	0x40148fae	2.3212695
88	0xbc95d8ec	-0.018291913
89	0x3f83afd6	1.0288036
90	0x3eaf735e	0.34267706
91	0x3f72c59b	0.9483277
92	0x3cd24446	0.025667321
93	0x3fedfed1	1.8593389
94	0x3f63570b	0.8880469
95	0x3dbb4e3e	0.09145783
96	0xbf400952	-0.7501422
97	0xbfb57c7d	-1.4178616
98	0xbef32b02	-0.4749375
99	0x3f07ae15	0.53000003
100	0x3fa37fd5	1.2773386
101	0xbeac49ff	-0.33650205
102	0x3e6560fa	0.22400275
103	0x3eab9092	0.33508736
104	0x3ee28c8b	0.4424785
105	0xbf9904a0	-1.1954536
106	0x3f306d21	0.6891652
107	0x3f2018db	0.62537926
108	0x3fccc568	1.5997744
109	0xbe8825f1	-0.26591447
110	0xbff7bdee	-1.9354837
111	0xbf2393a2	-0.63897145
112	0x3f32a946	0.6978954
113	0xbfd3268c	-1.6496139
114	0x3f3d7f82	0.74022686
115	0x3f113123	0.567156
116	0x3f16d5df	0.5892009
117	0xbedf47a6	-0.4360935
118	0xbf9b8103	-1.2148746
119	0xbf4fe05a	-0.8120171
120	0xbff4e440	-1.9132156
121	0x4051f576	3.2806067
122	0x3e3d9317	0.18513142
123	0x3eba6706	0.36406726
124	0x3f3baf56	0.73314416
125	0x3f76e584	0.96443963
126	0xc00af30c	-2.1710844
127	0x3fad5fd8	1.3544874
128	0xbf5ac9b3	-0.8546402
129	0xbe6b2f89	-0.22967352
130	0x3fccb263	1.5991939
131	0xbe10b77d	-0.14132495
132	0x3e690a09	0.22757734
133	0xbf72d0d0	-0.9484987
134	0xbf805346	-1.0025413
135	0xbf3649dc	-0.7120645
136	0xbf50665e	-0.814062
137	0x3f583a5b	0.84464043
138	0x3bd49e8e	0.0064886278
139	0x3f9e48df	1.2365988
140	0xbe9b3fb6	-0.30322045
141	0x3f1922d6	0.5981878
142	0xbf03d0e6	-0.5149063
143	0x400853c2	2.1301122
144	0xbf496ec4	-0.7868464
145	0x3e3e03cb	0.18556134
146	0x3f475290	0.77860355
147	0xbeba198b	-0.36347613
148	0xbf474308	-0.77836657
149	0x3f008f57	0.5021872
150	0x3fc9c4d8	1.5763197
151	0xbcdd0dec	-0.026984178
152	0xbfae2de2	-1.3607752
153	0xbe8ef69a	-0.27922517
154	0xbf0ec342	-0.5576669
155	0xbf3b11af	-0.7307386
156	0x3ed2c071	0.41162446
157	0xbe9144ee	-0.28372902
158	0xbe15447f	-0.1457691
159	0x3f3c76ed	0.73618966
160	0xbf4bd825	-0.79626685
161	0x3faba0f5	1.3408495
162	0x3e83cd0e	0.25742382
163	0x3f03f16b	0.5154025
164	0x3f31dcb9	0.6947742
165	0x3eca9794	0.3956877
166	0xbd65eada	-0.056132175
167	0x3fb566d0	1.4172001
168	0x3ffc7b3c	1.9725108
169	0xbe501484	-0.20320326
170	0x3ec11e8e	0.37718624
171	0xbe0b85af	-0.13625215
172	0x3f9c20d4	1.2197518
173	0xbe9f466f	-0.31108424
174	0xbef366ff	-0.47539517
175	0xbf376855	-0.71643573
176	0xbeb04e25	-0.3443462
177	0x3e91f049	0.28503636
178	0xbf809a51	-1.0047094
179	0x3ebbb02c	0.36657846
180	0xbfb80ea8	-1.4379473
181	0x3eac7ead	0.33690396
182	0x3db0eebe	0.086392865
183	0xbfd58ce2	-1.6683619
184	0x3b7204c7	0.0036929117
185	0x3f499609	0.7874456
186	0x3e592555	0.21205647
187	0x3c001c58	0.007819258
188	0x3ed41989	0.41425732
189	0xbfb25ea2	-1.393513
190	0xbf5c8f67	-0.86156315
191	0xbefd5d40	-0.49485207
192	0xbd8b5a10	-0.068042874
193	0xbf1749f5	-0.59097224
194	0x3f644c31	0.8917876
195	0xbf8b527b	-1.0884546
196	0xbdeb76f4	-0.11497298
197	0xc0017464	-2.022729
198	0xbfb5bb84	-1.419785
199	0x3e2d3fce	0.16918871
200	0x3e8e9b52	0.27852875
201	0x3f97c4ff	1.1856993
202	0xbef44a7b	-0.47713074
203	0xbf85b7fa	-1.044677
204	0x3f589bb5	0.8461259
205	0x3ff98f91	1.9496938
206	0x3e5ad329	0.21369614
207	0xbd89b944	-0.0672479
208	0x3e79317a	0.2433528
209	0x3f0b9b2e	0.5453366
210	0xbe72f6d2	-0.23726967
211	0x3d612a0f	0.05497175
212	0x3e6f3287	0.23359118
213	0xbfa98966	-1.3245056
214	0xc0206f90	-2.5068092
215	0xbec18bab	-0.3780187
216	0xbf1b0dd2	-0.60567963
217	0xbd411847	-0.047142293
218	0x4010a537	2.260084
219	0xbfe5c006	-1.7949226
220	0x3f1319c2	0.5746118
221	0x3d6a88ee	0.057259493
222	0xbe8a86ae	-0.27055877
223	0x3ec96fce	0.39343113
224	0x3e74b2b3	0.23896293
225	0x3f9e6228	1.2373705
226	0x3f782a5d	0.9693964
227	0xbfa44cd5	-1.2835947
228	0x3f0964e8	0.53669596
229	0xbd151b0c	-0.036402747
230	0x3ff556d1	1.9167119
231	0xc003e1d5	-2.0606587
232	0x3f43c42d	0.76471215
233	0x3ea58f0b	0.32335696
234	0xbd011f18	-0.031523794
235	0xbec73ef5	-0.3891522
236	0xbf423652	-0.75864136
237	0x3f11a222	0.5688802
238	0xbf981980	-1.1882782
239	0x3f6083fd	0.877014
240	0xbf2bbc32	-0.6708404
241	0xbfa76bad	-1.3079735
242	0x3ef8101b	0.48449787
243	0x3f6081d0	0.8769808
244	0x3fae32f4	1.36093
245	0x3efdeda3	0.49595365
246	0xbff3b470	-1.903944
247	0x3f3c7520	0.7361622
248	0x3f195e79	0.5990978
249	0x3fb9f6f7	1.4528493
250	0xbf6187b1	-0.88097674
251	0x3f346a6c	0.70474887
252	0x3f901d86	1.125901
253	0xbe4284e7	-0.1899601
254	0x3f1e0b51	0.6173602
255	0x400b45e6	2.1761413

static_ll.0.weight f4 [128, 64]
0	0x3d847488	0.06467539
1	0xbd9b0562	-0.07569386
2	0xbdcfe7c6	-0.10151629
3	0xbdf02731	-0.11726225
4	0x3d5f4fa3	0.054519307
5	0xbdb9f677	-0.090802126
6	0xbdaca535	-0.08429948
7	0x3c8d3ce2	0.017240945
8	0x3d7a89e4	0.06116666
9	0xbd805af6	-0.062673494
10	0xbd317a4a	-0.043329515
11	0xbd6d1780	-0.05788374
12	0x3df8bf92	0.12145914
13	0xbdb15f0a	-0.086607054
14	0x3b849115	0.0040456154
15	0xbdd0ecc5	-0.1020141
16	0xbe0844bf	-0.13307475
17	0x3dd41095	0.10354725
18	0xbd9b321e	-0.075779185
19	0xbdf7523f	-0.12076234
20	0xbd611058	-0.054947227
21	0xbd8e8b4b	-0.06960162
22	0xbe0c0e7e	-0.13677403
23	0xbde1d9b8	-0.11027855
24	0x3de796b6	0.11308043
25	0x3bde48bd	0.0067835734
26	0x3cfbbdd8	0.030730173
27	0xbdec40f5	-0.11535827
28	0x3d524266	0.051332854
29	0xbdc2191e	-0.09477447
30	0x3d93a9df	0.07210135
31	0x3dd70f04	0.10500911
32	0x3dc9af65	0.09847907
33	0x3dcffd1d	0.101556994
34	0xbc279153	-0.010227519
35	0xbdef0c69	-0.11672289
36	0x3d5138ac	0.051079437
37	0x3d8551eb	0.06509765
38	0x3d169ffc	0.036773667
39	0xbd018f28	-0.031630665
40	0x3c46f4dc	0.01214334
41	0x3db49767	0.0881794
42	0x3db68c8e	0.089135274
43	0x3cfcd2c4	0.03086222
44	0xbd992f7e	-0.074797615
45	0x3d8ed488	0.06974131
46	0xbd46b713	-0.048514437
47	0xbd1c2279	-0.038118813
48	0xbd04ff7b	-0.032470208
49	0xbe06066a	-0.13088384
50	0x3de4f298	0.111790836
51	0x3e046dba	0.12932482
52	0x3d522317	0.051302996
53	0xbcc0064f	-0.023440508
54	0xbd0d9eef	-0.0345754
55	0xbdde8ec1	-0.10867072
56	0x3cb57fca	0.022155661
57	0x3d035050	0.032059014
58	0xbd430af9	-0.047617886
59	0x3cacc9e9	0.021092372
60	0xbdea9625	-0.11454419
61	0xbdc030a4	-0.093842775
62	0xbd44d83c	-0.04805778
63	0xbcb4be0c	-0.022063278
64	0x3c080d84	0.008304004
65	0x3de93f6a	0.113890484
66	0xbda439a8	-0.080188096
67	0x3dd190f5	0.102327265
68	0xbc078435	-0.008271267
69	0xbdc31a9c	-0.0952656
70	0x3da98d15	0.082788624
71	0xbdaca131	-0.08429182
72	0xbdcaafd4	-0.09896818
73	0x3d540bcb	0.05176906
74	0xbd2c9eae	-0.042143516
75	0x3db19e2b	0.08672746
76	0xbd467461	-0.04845083
77	0x3c88671b	0.016650727
78	0x3d3479ab	0.044061344
79	0xbd940ff1	-0.07229603
80	0xbde8709c	-0.113496035
81	0xbda6df17	-0.0814802
82	0xbc8a66b0	-0.016894668
83	0x3dcbde1e	0.09954475
84	0x3de96d0d	0.11397753
85	0x3d935375	0.071936525
86	0x3d497a31	0.049188796
87	0x3c75e03c	0.015007075
88	0x3dc99114	0.098421246
89	0x3d341eca	0.043974675
90	0x3dc25723	0.09489276
91	0x3df179dd	0.11790822
92	0x3dd8bdff	0.10583114
93	0x3de2781c	0.11058065
94	0x3c513e40	0.012771189
95	0xbde82f61	-0.11337162
96	0xbdf2101d	-0.118194796
97	0xbdc9d009	-0.09854133
98	0x3d6ba1cf	0.05752736
99	0xbd664173	-0.05621476
100	0xbd3dfc28	-0.046383053
101	0x3dde5abd	0.10857151
102	0xbd93a8b1	-0.0720991
103	0x3ddd4845	0.108048
104	0xbdb2a03b	-0.08721968
105	0xbde1450c	-0.10999498
106	0x3dfd9f22	0.12383868
107	0xbdeca466	-0.11554794
108	0xbdc44701	-0.095838554
109	0xbc4c71a5	-0.012478267
110	0xbc63ed04	-0.013911489
111	0xbd2b5c36	-0.041835986
112	0xbd73cbdb	-0.059520584
113	0x3d077b06	0.03307631
114	0x3dedbe6c	0.11608586
115	0x3c5aa75d	0.013345567
116	0xbde713c9	-0.112830706
117	0xbd002534	-0.03128548
118	0xbdc74fc6	-0.097320125
119	0x3c948d25	0.01813371
120	0xbd98db94	-0.07463756
121	0x3de28cb7	0.110619955
122	0x3b0bb328	0.0021316502
123	0x3dc0ae7e	0.09408282
124	0xbcc68fbc	-0.02423846
125	0x3d8feea0	0.07027936
126	0xbdfc70a5	-0.12326173
127	0x3dd621db	0.10455676
128	0x3db7c140	0.089724064
129	0xbc17a879	-0.009256476
130	0xbc40379e	-0.01173201
131	0x3cc80c0a	0.024419803
132	0x3dda8f74	0.10671893
133	0xbe093166	-0.1339775
134	0xbdc9606b	-0.098328434
135	0xbc7d9f0a	-0.015479812
136	0xbdd356aa	-0.10319264
137	0xbcb447c9	-0.022006886
138	0xbdb1e82a	-0.0868686
139	0xbe09ee56	-0.13469824
140	0xbccbbc7f	-0.024870155
141	0xbdd552eb	-0.10416206
142	0xbddcb213	-0.107761525
143	0xbc5558fb	-0.013021703
144	0xbdae21b0	-0.08502519
145	0x3de03748	0.10948044
146	0xbd492472	-0.049107023
147	0xbdeb107d	-0.11477754
148	0x3d78a49b	0.060703855
149	0xbd56defb	-0.052458744
150	0xbcf08747	-0.02936138
151	0x3d2efa51	0.04271919
152	0xbd6f8eca	-0.058485784
153	0xbdbdc320	-0.09265733
154	0xbdb42cd7	-0.08797615
155	0xbd900adf	-0.070333235
156	0xbd956d61	-0.07296253
157	0x3d8553ea	0.06510146
158	0x3d4ecdc3	0.0504892
159	0xbcf57977	-0.029965146
160	0xbdf74093	-0.120728634
161	0x3d83ec7c	0.0644159
162	0x3c92ecf5	0.017935256
163	0x3ced80b2	0.02899203
164	0x3d6b937f	0.05751371
165	0xbc0bf637	-0.008542589
166	0x3d00d995	0.031457502
167	0xbb638689	-0.003471764
168	0xbcd26157	-0.02568118
169	0xbdc17a02	-0.09447099
170	0x3daf2ccc	0.08553466
171	0xbd6ff45f	-0.05858266
172	0x3de20e44	0.11037877
173	0x3dd29ca6	0.102837846
174	0x3dfb3749	0.12266404
175	0xbd4d262a	-0.050085224
176	0xbdd3aa77	-0.10335248
177	0xbd139160	-0.036027312
178	0x3dc4c7d5	0.096084274
179	0x3d75dba6	0.060023926
180	0xbaad842b	-0.0013238242
181	0x3df8496d	0.1212338
182	0x3d9723e5	0.07379893
183	0xbd274baa	-0.040843643
184	0x3c8a74d9	0.01690142
185	0x3a11847c	0.0005551053
186	0x3ce5d11a	0.028053809
187	0xbdbb3fd8	-0.091430366
188	0x3e015c63	0.12632899
189	0x3da0b2c4	0.07846597
190	0x3bd1bd15	0.006400714
191	0xbd899f2c	-0.06719813
192	0xbdcf9864	-0.10136488
193	0xbd425b98	-0.04745063
194	0xbd519a9f	-0.05117285
195	0xbcae729b	-0.021294883
196	0x3debe804	0.11518863
197	0x3dfa2aad	0.12215171
198	0xbdeabdd6	-0.114619896
199	0x3dd56dfc	0.104213685
200	0xbdaa34c5	-0.08310846
201	0x3dab0eec	0.083524555
202	0x3da00151	0.07812751
203	0x3afbfdbf	0.0019225403
204	0x3dcbf297	0.0995838
205	0x3d54fe9c	0.052000627
206	0x3d4297a6	0.047507904
207	0x3d4bfecf	0.04980355
208	0x3dc7dd89	0.09759051
209	0xbc2bb696	-0.010480544
210	0x3d1a45e2	0.0376643
211	0x3d2afa19	0.041742418
212	0x3de51590	0.11185753
213	0x3dd554f2	0.10416593
214	0xbd3aae41	-0.045576338
215	0xbd77ab0f	-0.06046587
216	0x3db2fdbe	0.08739804
217	0xbd1b4195	-0.03790434
218	0xbde32cbd	-0.110925175
219	0x3ce55b7a	0.027997721
220	0x3d260fbc	0.04054235
221	0xbbce75f1	-0.006300681
222	0x3cca28ae	0.0246776
223	0x3d8b19d2	0.06792034
224	0xbc6e0323	-0.014527115
225	0xbda51dd2	-0.080623284
226	0xbd336453	-0.04379685
227	0x3d610d37	0.054944243
228	0xbd14f0cb	-0.03636245
229	0xbd416d5e	-0.04722344
230	0xbe02343d	-0.1271524
231	0x3cdc1055	0.026863256
232	0x3ddced22	0.10787417
233	0xbdc36b00	-0.09541893
234	0xbdd3513f	-0.10318231
235	0x3dc3d090	0.095612645
236	0xbd185dd6	-0.037198864
237	0xbd41a731	-0.047278587
238	0x3dd0d52b	0.101969086
239	0xbdd5a8e1	-0.10432602
240	0x3c68cf60	0.014209598
241	0x3d8619af	0.065478675
242	0xbdea6af8	-0.11446184
243	0xbceecfd7	-0.02915184
244	0x3dce3274	0.10068217
245	0xbdb529dc	-0.08845875
246	0xbd0704a2	-0.032963403
247	0xbd700c35	-0.05860539
248	0xba445f3d	-0.0007490998
249	0xbd86cb5a	-0.06581755
250	0x3c03a3e9	0.008034685
251	0xbd9941d8	-0.07483262
252	0xbda60257	-0.08105915
253	0xbdc3b5e1	-0.09556175
254	0xbd3ac41a	-0.045597173
255	0xbc407859	-0.011747443

static_ll.0.bias f4 [128]
0	0x3dbe29eb	0.09285339
1	0xbdb40587	-0.08790117
2	0x3b9ca01a	0.004779828
3	0xbda3a4af	-0.07990395
4	0x3dde9987	0.10869127
5	0x3d63b700	0.055594444
6	0xbdcea6ec	-0.100904316
7	0x3d6a6b8a	0.057231463
8	0x3c8d89a9	0.017277556
9	0x3e01f036	0.1268929
10	0x3e09a646	0.13442335
11	0xbda5b62e	-0.08091389
12	0xbd3b6116	-0.045746885
13	0x3da3c0b6	0.07995741
14	0xbc032ad1	-0.008005814
15	0x3da9a176	0.08282749
16	0x3de0f54d	0.109842874
17	0xbda1fc22	-0.07909419
18	0x3cad8c15	0.02118496
19	0x3d5ffa91	0.054682318
20	0x3dad5bf0	0.08464801
21	0xbb814fd0	-0.003946282
22	0x3d94019b	0.07226869
23	0x3e0c0bda	0.13676396
24	0x3db36e81	0.08761311
25	0x3d7b6d04	0.061383262
26	0xbd40d3bd	-0.04707693
27	0xbdcd686e	-0.10029684
28	0xbda55698	-0.08073157
29	0x3ddce433	0.10785713
30	0xbd146cd1	-0.036236588
31	0xbda156da	-0.07877894
32	0xbc368edb	-0.011142458
33	0x3d9e0243	0.07715275
34	0x3da4d9ff	0.08049392
35	0xbda563f1	-0.08075703
36	0x3dc0be2d	0.09411273
37	0x3def2bae	0.11678253
38	0xbb9304c2	-0.004486651
39	0x3d1d5fe6	0.038421534
40	0x3c514315	0.012772341
41	0xbd3fcf4f	-0.046828564
42	0xbd02b98b	-0.03191523
43	0xbdc62668	-0.09675294
44	0xba431f65	-0.0007443338
45	0xbd310ac6	-0.043223165
46	0xbd433007	-0.047653224
47	0xbd2cbf11	-0.042174403
48	0xbd72ee20	-0.059309125
49	0x3daeffaf	0.085448615
50	0x3dc19e9d	0.09454081
51	0x3cc30d02	0.023809914
52	0x3cfe5ad8	0.031049177
53	0x3dfe9967	0.12431603
54	0xbd3e62b5	-0.046480853
55	0x3d7192d0	0.058977902
56	0x3e09a74c	0.13442725
57	0x3db7158d	0.08939657
58	0xbdd70765	-0.10499457
59	0xbda786b3	-0.08179989
60	0xbd11f69b	-0.035635572
61	0x3de8b793	0.11363139
62	0xbd871494	-0.06595722
63	0xbda9454d	-0.08265171
64	0xbd736bc2	-0.059428938
65	0xbd8bd6dd	-0.06828091
66	0x3c865abc	0.016400687
67	0xbda58266	-0.08081512
68	0xbc9d3756	-0.019191425
69	0xbc2c0151	-0.010498361
70	0x3d5af156	0.053452812
71	0x3db50247	0.08838325
72	0xbc19116e	-0.0093425345
73	0xbc90a41a	-0.017656375
74	0xbd8eea3c	-0.069782704
75	0xbc26fe6d	-0.010192496
76	0x3c778f9d	0.015109924
77	0xbb5466bd	-0.003240987
78	0xbd3e08ad	-0.046394993
79	0xbc7b463e	-0.015336571
80	0x3a8e858b	0.0010873539
81	0x3da29fb2	0.07940616
82	0xbdd5bde8	-0.10436612
83	0x3a84b932	0.0010125993
84	0xbdb13964	-0.086535245
85	0xbcacad49	-0.021078723
86	0xbd92123a	-0.07132383
87	0x3d3c97c2	0.046043165
88	0x3defbe46	0.11706214
89	0xbda47c31	-0.080315
90	0x3dc0cc9a	0.09414025
91	0xbd19c4d9	-0.037541244
92	0xbde298aa	-0.110642746
93	0x3c450de0	0.012027234
94	0xbc75cb50	-0.015002087
95	0xbd2f0fb6	-0.042739592
96	0xbd8bb141	-0.06820918
97	0x3d971044	0.07376149
98	0x3c23b3a7	0.009991563
99	0xbc0d7de9	-0.008635976
100	0x3df147ef	0.11781298
101	0xbda6d460	-0.08145976
102	0x3d4ec5a9	0.050481472
103	0xbd85c653	-0.06531968
104	0xbdb7ccd5	-0.089746155
105	0xbd987abe	-0.07445286
106	0x3ddf40f7	0.10901063
107	0x3dbe4d72	0.09292115
108	0x3d435078	0.047684163
109	0x3d32a567	0.04361477
110	0x3d36a728	0.044593006
111	0xbd078311	-0.03308398
112	0x3df5a801	0.11994935
113	0xbdb17462	-0.086647764
114	0x3d942343	0.07233288
115	0xbd32e9df	-0.043680068
116	0x3ceadda3	0.028670138
117	0x3d7fa4d8	0.062413067
118	0x3d3e246f	0.046421465
119	0xbdce210a	-0.100648955
120	0x3d7e3f1c	0.062071905
121	0xbcfa6ba9	-0.030568914
122	0x3daa0f92	0.08303751
123	0xbd8ab2f6	-0.06772415
124	0x3d654805	0.055976886
125	0xbded948f	-0.11600601
126	0x3de25a62	0.110523954
127	0x3cc04cb3	0.023474073

static_ll.2.weight f4 [64, 128]
0	0x3cc52e90	0.024070054
1	0xbd2dd30e	-0.042437606
2	0x3d64f513	0.055897783
3	0x3d4db056	0.050216995
4	0x3d98ebb4	0.07466832
5	0x3c8a06f3	0.016849017
6	0xbd5249c1	-0.05133987
7	0xbd2bf619	-0.041982744
8	0xbd7ffc86	-0.062496684
9	0x3ce94020	0.02847296
10	0xbc5a6988	-0.013330825
11	0x39bf9bcb	0.00036546434
12	0xbc89d398	-0.016824529
13	0x3ac8c573	0.0015317634
14	0x3c337058	0.010952078
15	0x3d6e5b32	0.05819244
16	0x3d4b7be9	0.049678717
17	0xbd97c4f0	-0.0741061
18	0xbd1a5366	-0.03767719
19	0xbd91f505	-0.07126812
20	0xbd5cd2f9	-0.053912137
21	0x3d91f1dd	0.0712621
22	0x3d734679	0.05939338
23	0x3d2baab4	0.041910842
24	0xbbc15b05	-0.005900743
25	0x3dae858c	0.08521566
26	0xbd375447	-0.044758108
27	0xbc912c82	-0.017721418
28	0x3c5477c0	0.012968004
29	0xbbd5903c	-0.006517438
30	0x3c554390	0.013016596
31	0xbd9f9f89	-0.07794101
32	0x3dc2b95a	0.09508009
33	0xbd407b29	-0.046992455
34	0xbc484918	-0.012224458
35	0xbd8b0b3e	-0.06789254
36	0x3d754fb3	0.05989046
37	0x3d2d7c74	0.042355016
38	0xbc519e0a	-0.012794027
39	0x3ce12f45	0.02748836
40	0xbce56e3f	-0.028006671
41	0x3cb36329	0.02189787
42	0x3ca85ae0	0.020551145
43	0x3d5c4490	0.053776324
44	0x3d0ae5db	0.033910614
45	0xbd5df5d8	-0.054189533
46	0x3d60700d	0.05479436
47	0x3d75d90f	0.060021456
48	0x3d15899c	0.036508188
49	0xbc50df12	-0.012748497
50	0xbca12426	-0.019670557
51	0xbd862da8	-0.06551677
52	0xbb744a7c	-0.0037275841
53	0x3dc2c2e8	0.09509832
54	0xbd5d7ede	-0.054076068
55	0x3d898304	0.06714442
56	0x3d276d0f	0.04087549
57	0xbd993793	-0.07481303
58	0xbd6b86cb	-0.057501595
59	0x3d41ec68	0.047344595
60	0x3da66bb9	0.08126015
61	0x3db4be1e	0.088253245
62	0x3bf4cdf7	0.007470842
63	0x3c2a6a00	0.010401249
64	0x3b43df4c	0.0029887734
65	0xbc45de5b	-0.012076939
66	0x3db6e57c	0.089304894
67	0xbd460d97	-0.048352804
68	0xbcefbb27	-0.029264046
69	0x3d72c08e	0.059265666
70	0xbc361a7f	-0.011114716
71	0xbd8df47d	-0.06931398
72	0x3d0d49b5	0.03449412
73	0x3bce5e7f	0.006297886
74	0x3c2c5848	0.010519095
75	0xbd1eac51	-0.038738552
76	0xbd895d12	-0.06707205
77	0xbcc57e58	-0.024108097
78	0x3d161199	0.036637876
79	0xbccdf121	-0.025139393
80	0x3d224bc0	0.039623022
81	0x3d834028	0.06408721
82	0x3d3885e4	0.045049563
83	0xbb3c165b	-0.0028699848
84	0x3b32c819	0.0027279912
85	0xbc741908	-0.014898546
86	0xbd910a52	-0.070820466
87	0x3bb8840f	0.005630977
88	0x3c4751a6	0.012165463
89	0xbd16ec8c	-0.036846682
90	0xbd5641f7	-0.052309003
91	0xbd84e3d0	-0.06488764
92	0x3d21ea64	0.039530173
93	0x3d8b9c96	0.06816976
94	0xbce6bc6f	-0.028166024
95	0xbd970010	-0.07373059
96	0xbb937eff	-0.004501223
97	0x3cfb5740	0.030681252
98	0x3d6d5bb6	0.05794879
99	0x3da1ce1e	0.07900642
100	0x3c9c8ac1	0.019109132
101	0x3d714eb4	0.058912948
102	0x3d2e5a29	0.042566452
103	0x3da4355f	0.08017992
104	0x3d46d525	0.048543114
105	0xbd80e53a	-0.062937215
106	0x3da8443a	0.08216138
107	0x3cb319c8	0.02186288
108	0x3cff9755	0.03120009
109	0x3db08b3f	0.08620309
110	0xbcae3c8d	-0.021269107
111	0xbd7f99a5	-0.062402386
112	0xbbf40d5a	-0.0074478807
113	0x3d59bd40	0.053159
114	0xbcab5e8c	-0.020919107
115	0x3db03507	0.08603864
116	0x3dbd22e7	0.09235173
117	0xbb15b546	-0.0022843643
118	0xbc891b04	-0.016736515
119	0xbc9652a2	-0.01834995
120	0xbd2f764c	-0.042837426
121	0x3d2b3dae	0.04180687
122	0x3d5abd84	0.053403392
123	0xbd8c795b	-0.06859084
124	0x3d0a1866	0.033714674
125	0x3cc47cf5	0.023985365
126	0x3d9260c1	0.071473606
127	0x3c8af87b	0.016964188
128	0x3d26d6df	0.04073226
129	0xbc87930c	-0.01654961
130	0x3d220615	0.03955658
131	0xbc0586b0	-0.008149788
132	0x3d26515e	0.04060494
133	0xbd039639	-0.032125685
134	0x3d6c4c0e	0.05768972
135	0x3d9eb530	0.077494025
136	0x3d03c45e	0.032169692
137	0xbc10907c	-0.00882351
138	0x3d5c0130	0.05371207
139	0x3dcd456f	0.10023009
140	0xbbde6d0d	-0.006787902
141	0x3d51869f	0.051153775
142	0xbd3b330a	-0.04570297
143	0x3d91e1b1	0.07123125
144	0xbca701d2	-0.02038661
145	0xbce1c208	-0.027558342
146	0x3cb07b8e	0.02154329
147	0x3d2c8c6d	0.042126108
148	0xbd89435a	-0.067022994
149	0x3d794a27	0.060861733
150	0x3d389f31	0.04507369
151	0xbd22f6d3	-0.03978617
152	0x3c6bac42	0.014384331
153	0x3d8b1d40	0.06792688
154	0x3cf86cd3	0.030325329
155	0x3da94bb3	0.082663916
156	0xbd83e506	-0.06440167
157	0x3da026ec	0.07819924
158	0x3d14a786	0.036292575
159	0x3d6926f0	0.0569219
160	0x3ba77fa9	0.005111654
161	0x3d0c1d3f	0.03420758
162	0xbc8e3ac4	-0.017362006
163	0x3d3d5023	0.046219002
164	0x3d4b622e	0.04965418
165	0x3d51c556	0.051213585
166	0xbcdf1c36	-0.027235132
167	0x3da00134	0.078127295
168	0x3d76dac0	0.06026721
169	0xbcce13a9	-0.025155859
170	0x3c296e9a	0.010341311
171	0xbd99b3ef	-0.07505023
172	0x3da358d5	0.07975928
173	0x3d637b20	0.055537343
174	0x3d9bef91	0.07614053
175	0x3d9e8494	0.07740131
176	0xbdaf7803	-0.08567812
177	0x3dadeb5e	0.08492158
178	0x3d691eb1	0.056914035
179	0x3cdb9c3d	0.026807899
180	0xbd297328	-0.041369587
181	0x3d8c270f	0.06843387
182	0x3c86bef2	0.016448472
183	0xbd96e897	-0.07368582
184	0x3cdc9759	0.026927637
185	0xbda16f46	-0.07882552
186	0xbdb1773f	-0.086653225
187	0x3b707526	0.003669092
188	0x3db11d1a	0.08648129
189	0xbd0c09ce	-0.034189038
190	0x3d2796cf	0.040915307
191	0x3c4f357b	0.012647028
192	0x3cfa0ad3	0.03052274
193	0xbc7c6096	-0.015403887
194	0x3dade75b	0.08491393
195	0x3c83915e	0.016060527
196	0xbd9ffda8	-0.07812053
197	0xbd6e4c4f	-0.058178242
198	0x3d89dbee	0.067314014
199	0xbdaeddc3	-0.085383914
200	0x3cb88e80	0.022528887
201	0x368e8d16	4.2483543e-06
202	0x3d38545c	0.045002326
203	0xbc4537fd	-0.012037274
204	0xbc18266a	-0.009286502
205	0x3bd68e6c	0.0065477397
206	0xbd067de4	-0.032834902
207	0x3dc00069	0.09375078
208	0xbd1a646d	-0.03769343
209	0x3d7e5fb6	0.062102996
210	0xbd82a265	-0.063786305
211	0xbc414bcc	-0.011797857
212	0xbd6d096f	-0.057870325
213	0x3d4deb51	0.050273243
214	0x3db572ea	0.08859809
215	0xbd4e363a	-0.050344683
216	0x3ce2158c	0.027598165
217	0x3dc09367	0.09403115
218	0xbd3fc5ad	-0.046819378
219	0xbd944a6e	-0.07240759
220	0x3d884769	0.066542454
221	0x3d6f3909	0.058404002
222	0x3c2f8e54	0.010715086
223	0x3d812e4f	0.06307661
224	0x3db0f6ad	0.086408
225	0x3d938045	0.072022
226	0x3db64226	0.088993356
227	0xbc9caf6f	-0.019126622
228	0x3cb3d7c2	0.021953467
229	0xbce18225	-0.027527878
230	0x3c1f891d	0.00973728
231	0x3d0e0536	0.03467294
232	0xbd4b20a1	-0.049591664
233	0x3d3ee7b6	0.046607696
234	0x3c929744	0.017894395
235	0x3d6b8a89	0.057505164
236	0xbc7f1a42	-0.015570225
237	0xbd38b6bf	-0.045096155
238	0x3a10d60e	0.00055250607
239	0xbc57f7e0	-0.013181657
240	0xbd224a14	-0.039621428
241	0xbd9ed48c	-0.07755384
242	0x3c3a5d8b	0.011374841
243	0x3cb2b9be	0.021817084
244	0xbd8c60af	-0.068543784
245	0x3d4a8602	0.049444206
246	0x3da45f04	0.08025935
247	0xbce9a5b0	-0.028521389
248	0xbd8a9345	-0.06766371
249	0xbbba0ac2	-0.005677552
250	0xbd5a97cf	-0.053367432
251	0xbb7abd0f	-0.003825966
252	0xbca1f444	-0.019769795
253	0xba932bb1	-0.0011228231
254	0x3bc033e8	0.0058655627
255	0xbd94947e	-0.07254885

static_ll.2.bias f4 [64]
0	0x3d480bc8	0.04883936
1	0x3d1e69cc	0.038675115
2	0xbc40c4aa	-0.011765638
3	0xbd7297fb	-0.05922697
4	0xbcea8466	-0.028627586
5	0x3d2b389d	0.041802038
6	0x3cb3aa69	0.021931844
7	0xbc3121de	-0.010811297
8	0x3d178fa2	0.037002213
9	0xbda0290a	-0.078203276
10	0x3d9b608a	0.07586773
11	0xbd05e803	-0.032691967
12	0xbcbabf45	-0.022796283
13	0x3c58acf4	0.013224829
14	0x3da47699	0.08030433
15	0x3dc0d114	0.094148785
16	0xbd9fc9cc	-0.078021616
17	0x3c854936	0.016270261
18	0x3db9286b	0.09040912
19	0xbd901aed	-0.07036386
20	0xbd22566c	-0.0396332
21	0xbd001266	-0.031267546
22	0x3d45fc22	0.048336156
23	0x3d8a5609	0.06754691
24	0xbd04bc81	-0.032406334
25	0x3d899c02	0.06719209
26	0x3d0b6af6	0.034037553
27	0xbd2eb86f	-0.04265636
28	0x3c20c1c7	0.009811825
29	0xbc0282b8	-0.007965736
30	0x3d6f5754	0.058432892
31	0x3c52d6f8	0.012868635
32	0xbd43c935	-0.047799308
33	0xbd91e6c9	-0.07124097
34	0x3db3d5ec	0.08781037
35	0xba4eb5f1	-0.0007885388
36	0x3cfeda23	0.031109875
37	0xbd72bb7a	-0.059260823
38	0xbcb4e0d5	-0.022079865
39	0x3c31bdf3	0.01084851
40	0x3d1648ff	0.03669071
41	0x3d6b73b6	0.057483397
42	0xbca6cfa5	-0.020362685
43	0x3cddbe5d	0.027068311
44	0xbc956377	-0.018235905
45	0x3d7b003a	0.061279513
46	0xbcf5f136	-0.030022245
47	0x3c104a85	0.008806829
48	0x3d2fa2a2	0.042879708
49	0x3c116f24	0.008876596
50	0x3bf1fe09	0.0073850197
51	0x3c8a2d1f	0.016867219
52	0xbd598f87	-0.053115394
53	0x3d7c7597	0.06163558
54	0x3d8a2113	0.0674459
55	0x3d59ddd4	0.053190067
56	0xbd010c0c	-0.03150563
57	0x3dad21bb	0.08453699
58	0xbd245f1e	-0.040129773
59	0x3da680df	0.08130049
60	0x3d8bb88d	0.0682231
61	0x3c9fc8c4	0.019504912
62	0xbd5d1f35	-0.05398484
63	0x3dc3c6d4	0.09559408

glu_encoder.rnn.weight_ih_l0 f4 [48, 2]
0	0x3e40759b	0.18794863
1	0xbe32e02f	-0.17468332
2	0x3ddab7be	0.10679577
3	0xbd706079	-0.058685753
4	0x3e4aee78	0.19817531
5	0x3e3a874c	0.18215674
6	0xbdbf8c28	-0.093529046
7	0xbe302aae	-0.17203781
8	0xbe2d1744	-0.16903406
9	0x3e51489a	0.20437852
10	0x3e8a6263	0.27028188
11	0x3e11d530	0.14241481
12	0xbe69b1ef	-0.22821783
13	0x3db67ce4	0.0891054
14	0x3e867bc1	0.26266292
15	0xbe8b21ab	-0.27174124
16	0xbdc6793f	-0.096910946
17	0xbe6d60bf	-0.23181437
18	0x3e69a219	0.22815742
19	0xbe19e0a6	-0.15027103
20	0x3e130d53	0.14360552
21	0xbca05c22	-0.019575182
22	0x3e0eedc1	0.13957883
23	0x3e735d32	0.2376602
24	0x3e50dea9	0.20397438
25	0xbd8b413d	-0.067995526
26	0x3dd6a83a	0.104813054
27	0x3cbc7642	0.023005608
28	0x3c17756a	0.009244302
29	0xbcb7ea26	-0.022450518
30	0xbe30594e	-0.17221567
31	0xbd84bd73	-0.06481447
32	0x3e51dc61	0.20494224
33	0xbdaefe8b	-0.08544644
34	0x3d8277e8	0.063705266
35	0x3e6c9669	0.23104252
36	0xbe56044a	-0.20900074
37	0xbe674d82	-0.2258816
38	0xbc00aeb4	-0.0078541525
39	0x3e6b7d2d	0.2299697
40	0xbdf1ab7f	-0.118002884
41	0x3e539422	0.20661977
42	0xbd67d064	-0.05659522
43	0xbdc2de1c	-0.0951502
44	0xbdcb7671	-0.099347
45	0x3dfae5e1	0.12250877
46	0x3e5e7140	0.21722889
47	0x3e3e8305	0.18604667
48	0x3d8b977b	0.06816002
49	0xbd4ac726	-0.04950633
50	0xbe8fccf4	-0.28086054
51	0x3e515d64	0.20445782
52	0xbe8af9a8	-0.27143598
53	0xbd42f29e	-0.04759466
54	0x3d92d814	0.0717012
55	0xbd5679cc	-0.05236225
56	0x3e4e3dd8	0.20140779
57	0xbd5d0260	-0.053957343
58	0x3d523f5e	0.051329963
59	0xbc85260f	-0.0162535
60	0x3e54f091	0.20794894
61	0xbcfad39d	-0.030618483
62	0xbe1bbb4a	-0.15208164
63	0xbd40f6f7	-0.047110524
64	0x3dfa9465	0.12235335
65	0xbdbf5845	-0.09343008
66	0xbe1aef6d	-0.15130396
67	0x3e4c6d6f	0.1996362
68	0x3e095854	0.13412601
69	0x3c9dbc7d	0.019254917
70	0x3e804e46	0.25059718
71	0xbda57385	-0.08078674
72	0xbddc5cff	-0.10759925
73	0xbe43bee9	-0.19115795
74	0x3e6591cd	0.224189
75	0xbe61bd4e	-0.2204487
76	0x3e4f89eb	0.20267455
77	0xbd3a7d0a	-0.045529403
78	0x3daaa783	0.083327316
79	0xbce4850e	-0.027895477
80	0x3e188636	0.14894947
81	0xbe07c26c	-0.1325776
82	0x3e6e828c	0.23291987
83	0x3e45a6c4	0.19301897
84	0x3e101e5b	0.1407408
85	0x3e5152e8	0.20441782
86	0xbd215a3b	-0.03939269
87	0xbd6e59c8	-0.05819109
88	0xbdd5afee	-0.104339465
89	0xbdfd5571	-0.12369812
90	0xbe6e666d	-0.2328126
91	0x3e61e020	0.22058153
92	0x3e5bbe05	0.21459205
93	0xbd25f1f2	-0.04051394
94	0x3d12c322	0.035830624
95	0x3e37a6ad	0.17934676

glu_encoder.rnn.weight_hh_l0 f4 [48, 16]
0	0xbe325171	-0.1741388
1	0xbe761fda	-0.24035588
2	0xbdaa681e	-0.0832064
3	0x3e1408a6	0.14456424
4	0x3dbe2924	0.09285191
5	0xbd82441a	-0.063606456
6	0xbe80efd6	-0.2518298
7	0x3e4dba35	0.20090564
8	0x3d89b12d	0.06723247
9	0x3e56385c	0.20919937
10	0xbe32f7b7	-0.17477308
11	0xbe306d6b	-0.1722924
12	0xbd3500bc	-0.044190153
13	0xbe0cfd07	-0.13768397
14	0x3e08544f	0.13313411
15	0xbd8ae9bd	-0.06782863
16	0x3dd713d9	0.105018325
17	0xbdac3efa	-0.08410449
18	0x3e093734	0.13399965
19	0xbe831e19	-0.256089
20	0xbe030078	-0.12793148
21	0x3e4f1270	0.20221877
22	0x3a84d4d9	0.0010134234
23	0x3d472565	0.048619647
24	0xbe7a3322	-0.24433568
25	0x3e61758b	0.22017495
26	0xbda03328	-0.07822257
27	0x3ddd8fba	0.10818429
28	0x3e0251ed	0.12726565
29	0xbdf27d25	-0.11840276
30	0xbe5f122f	-0.2178428
31	0x3d999a47	0.07500129
32	0x3e335afa	0.17515174
33	0xbe21aaff	-0.15787886
34	0xbdf65243	-0.12027409
35	0xbe599925	-0.21249826
36	0x3cc586bd	0.0241121
37	0x3d582312	0.05276782
38	0xbe2e2e41	-0.17009832
39	0x3e37c1c3	0.17945008
40	0x3e1074b8	0.14107025
41	0xbda60461	-0.08106304
42	0xbd8b3ae0	-0.06798339
43	0x3e1ab438	0.1510781
44	0xbde99297	-0.11404913
45	0x3e1cbc74	0.15306264
46	0xbe3c4123	-0.18384223
47	0x3e3cc568	0.1843468
48	0x3e0dc27d	0.13843723
49	0xbe337389	-0.17524542
50	0x3e018fd8	0.12652528
51	0x3e5865ac	0.21132535
52	0x3ca86416	0.020555537
53	0x3e1654c1	0.14680769
54	0x3e38f50b	0.18062226
55	0x3dd9fa24	0.10643414
56	0xbe4d1d40	-0.20030689
57	0xbdaf3a52	-0.085560456
58	0xbe2319dd	-0.15927835
59	0xbe06696c	-0.13126153
60	0x3e190e10	0.1494677
61	0x3d35d1e5	0.044389624
62	0x3a2a106e	0.00064874336
63	0xbd08d408	-0.033405334
64	0xbddaa94b	-0.10676821
65	0x3cf7b96c	0.030239783
66	0x3cb1167f	0.021617172
67	0xbd7e2ba2	-0.06205333
68	0x3d6e69da	0.058206417
69	0xbdc84812	-0.09779371
70	0x3e8a8d1d	0.27060786
71	0x3dc0997b	0.09404274
72	0xbbee4578	-0.007271465
73	0x3dec08ab	0.11525091
74	0x3cf0c0f0	0.029388875
75	0xbe83afb7	-0.25719997
76	0xbe85e148	-0.26148438
77	0x3e00011c	0.12500423
78	0x3bdcfc5f	0.006743952
79	0xbe2a2053	-0.16613893
80	0x3dbaccdc	0.09121105
81	0x3e3b09b9	0.18265428
82	0x3c2b7b26	0.010466373
83	0x3d57b394	0.052661493
84	0xb9eab17a	-0.00044764188
85	0xbca0ad48	-0.019613877
86	0xbd0cdb73	-0.03438897
87	0x3e4db580	0.20088768
88	0x3d810022	0.062988535
89	0x3e76ea5f	0.24112843
90	0xbe24f316	-0.16108355
91	0xbd9d31c1	-0.076755054
92	0xbe3f3f60	-0.1867652
93	0xbe814229	-0.2524579
94	0xbd42b028	-0.047531277
95	0xbd02c555	-0.03192647
96	0xbdd48974	-0.103777796
97	0x3e3d52f3	0.18488674
98	0x3dee369b	0.11631509
99	0x3e4a7421	0.19770862
100	0x3dacb8d0	0.08433688
101	0x3e4489b6	0.19193158
102	0xbdc8866b	-0.09791263
103	0x3b3e1cd3	0.002900888
104	0x3e3ba680	0.18325233
105	0xbc88ec5c	-0.016714267
106	0xbe5f98f2	-0.21835688
107	0x3e5634c3	0.20918564
108	0x3e4859ec	0.19565552
109	0xbe14447d	-0.14479251
110	0x3d80edbd	0.06295345
111	0xbe522674	-0.20522481
112	0x3d588a4c	0.052866265
113	0xbe0db17d	-0.13837238
114	0xbd3f4277	-0.046694245
115	0x3d710e2d	0.05885141
116	0xbe4bb0ce	-0.19891664
117	0x3e07d4b6	0.13264737
118	0xbdd6e67e	-0.10493182
119	0xbdcd08d1	-0.10011447
120	0xbe3d3337	-0.18476568
121	0x3e0374d3	0.12837534
122	0x3d3559a0	0.044274926
123	0xbe44a3a5	-0.1920305
124	0xbe74a9df	-0.23892926
125	0xbe719603	-0.23592381
126	0x3e3d243b	0.18470852
127	0xbd9158de	-0.07097028
128	0x3cbe227c	0.023209803
129	0x3e799e19	0.24376716
130	0x3e61be30	0.22045207
131	0xbe3f8a31	-0.1870506
132	0xbe27fd2f	-0.16405176
133	0x3def6007	0.11688238
134	0xbd68b084	-0.056808963
135	0xbe6c6f99	-0.23089446
136	0xbd01f3a1	-0.031726483
137	0x3db7725b	0.089573584
138	0xbdbfe6e4	-0.09370211
139	0x3e51df4f	0.20495342
140	0xbe63a1ff	-0.22229765
141	0xbdbec837	-0.09315532
142	0x3e65f7c9	0.22457804
143	0xbdc24bda	-0.09487124
144	0x3e83cc13	0.25741634
145	0xbd885ee9	-0.06658728
146	0x3e1c5c3f	0.15269564
147	0xbe52bd45	-0.20580013
148	0xbe3462ef	-0.17615865
149	0xbe4c48f9	-0.19949712
150	0x3d29622e	0.041353397
151	0x3d38d6b1	0.04512662
152	0xbe236890	-0.15957856
153	0xbe190779	-0.14944257
154	0xbc8d908a	-0.017280836
155	0xbd777016	-0.060409628
156	0x3c93788d	0.018001819
157	0x3d538f78	0.051650494
158	0x3d589b9a	0.05288277
159	0x3dc2915a	0.0950038
160	0x3e7b68fb	0.24551766
161	0xbddfa62f	-0.10920369
162	0xbe616fe0	-0.22015333
163	0x3da40b4d	0.08009968
164	0x3e41ef9a	0.18939057
165	0x3e09190c	0.13388461
166	0x3da85621	0.08219553
167	0x3e33f57b	0.17574112
168	0x3d2fdaa8	0.042933136
169	0xbd2838eb	-0.041069906
170	0xbda9bd58	-0.082880676
171	0x3e110f78	0.14166057
172	0xbd73711e	-0.05943405
173	0x3c2f4b93	0.010699171
174	0x3e1f12ed	0.15534563
175	0x3c5dff0d	0.013549578
176	0xbe0c40d1	-0.136966
177	0x3ddc9a79	0.10771651
178	0x3d44f92b	0.048089188
179	0x3e185fbc	0.1488027
180	0x3d8b3425	0.06797055
181	0xbcb3cbcf	-0.02194777
182	0xbd187b65	-0.037227053
183	0xbddef42b	-0.10886415
184	0xbd896a1e	-0.06709693
185	0xbe0dc714	-0.13845474
186	0xbda027fd	-0.07820127
187	0x3d1640c7	0.03668287
188	0x3e725656	0.23665747
189	0xbe2c8045	-0.16845806
190	0xbd41a1ee	-0.04727357
191	0x3e6ca58b	0.23110025
192	0x3e1942f9	0.14966954
193	0x3e05c6bc	0.13064092
194	0xbe2c788a	-0.16842857
195	0x3e26e85e	0.16299579
196	0xbe772bd5	-0.24137814
197	0xbdb1d015	-0.086822666
198	0x3dd5096a	0.10402186
199	0x3dcec23b	0.1009564
200	0x3e3a8bf3	0.18217449
201	0xbdf57c09	-0.119865485
202	0xbe43ee69	-0.19133915
203	0xbdd678b5	-0.10472242
204	0x3d8f4b39	0.069967695
205	0xbd382507	-0.044957187
206	0x3c1f0212	0.009705083
207	0x3d335fc2	0.043792494
208	0x3dcdfa60	0.10057521
209	0x3defff5c	0.11718628
210	0x3dd41842	0.10356189
211	0x3e4a1080	0.19732857
212	0xbdfebca0	-0.12438321
213	0xbe011e91	-0.12609316
214	0xbd5eada6	-0.054364823
215	0x3d7f907b	0.062393647
216	0x3e3c539e	0.18391272
217	0x3d82422d	0.06360278
218	0x3decb3f9	0.115577646
219	0xbdfa2365	-0.12213782
220	0xbbab922c	-0.005235931
221	0x3d1ddfe7	0.038543608
222	0xbde65f04	-0.112485915
223	0xbe1e5b33	-0.15464477
224	0x3e838069	0.25683907
225	0x3e367c12	0.17820767
226	0xbe50b0ba	-0.20379916
227	0xbd52c4a3	-0.05145706
228	0x3c8687bf	0.01642215
229	0x3e26a8ea	0.16275373
230	0xbdef6659	-0.11689443
231	0xbde8bc80	-0.113640785
232	0xbe09c538	-0.13454139
233	0x3e16ccb0	0.1472652
234	0xbe170559	-0.14748134
235	0x3d1d061d	0.03833591
236	0x3e38dd59	0.18053187
237	0x3c3c21ed	0.011482698
238	0x3e88a6c0	0.2668972
239	0xbe155520	-0.14583254
240	0x3d4c2b53	0.049846005
241	0xbc965919	-0.018353032
242	0x3e04de87	0.12975512
243	0x3e572784	0.21011168
244	0x3e480700	0.1953392
245	0xbe4bd08b	-0.19903772
246	0x3d5dd4a9	0.054157887
247	0x3e7232d6	0.23652205
248	0x3df4d9ea	0.11955626
249	0xbe11e8a5	-0.14248903
250	0xbd86fc9f	-0.065911524
251	0xbe2d89e2	-0.1694713
252	0xbdeeaf6d	-0.116545536
253	0xbe1d27d3	-0.15347223
254	0x3d1baf58	0.038009018
255	0x3dfb6e31	0.12276877

glu_encoder.rnn.bias_ih_l0 f4 [48]
0	0x3e4a68da	0.1976656
1	0xbe5af823	-0.21383719
2	0xbce5cffb	-0.028053274
3	0x3c6f1f0f	0.014594807
4	0xbe4cebf1	-0.2001188
5	0xbd8e97de	-0.0696256
6	0xbb64fecc	-0.003494191
7	0xbe06baa0	-0.1315713
8	0x3dbbc138	0.09167713
9	0x3dad8fae	0.0847467
10	0x3c859dd0	0.016310602
11	0xbda8314e	-0.08212529
12	0xbdd1503a	-0.1022038
13	0x3deb17bc	0.11479136
14	0xbdb786e1	-0.08961273
15	0xbdbdcf6d	-0.09268079
16	0x3e682f81	0.22674371
17	0xbe53e843	-0.2069407
18	0x3e2b3eb2	0.16723135
19	0xbe6e09f0	-0.23245978
20	0x3e42b435	0.19014056
21	0xbe18c92d	-0.14920492
22	0x3e478913	0.19485883
23	0xbd94b1c9	-0.07260472
24	0x3caf32fd	0.021386618
25	0x3e551723	0.20809607
26	0x3db54f20	0.088529825
27	0x3e558c04	0.20854193
28	0x3ccde36e	0.025132861
29	0xbc4cb943	-0.012495342
30	0x3df3b77a	0.1190023
31	0xbda7824b	-0.08179148
32	0x3e57ec69	0.21086277
33	0x3e38ae3c	0.18035215
34	0xbe046149	-0.12927736
35	0xbe42ac4f	-0.19011043
36	0xbe1d20a6	-0.15344486
37	0xbe2f2e14	-0.17107421
38	0xbe23b7c6	-0.15988073
39	0xbe3dea2f	-0.18546365
40	0xbd6339b1	-0.05547494
41	0x3e6ac4e0	0.22926664
42	0x3cdd5f1e	0.027022894
43	0xbe09a5d3	-0.13442163
44	0x3dad5d92	0.08465113
45	0xbe650251	-0.22364165
46	0xbdc28782	-0.09498502
47	0xbdc416ed	-0.09574685

glu_encoder.rnn.bias_hh_l0 f4 [48]
0	0xbcdbc546	-0.026827466
1	0x3e6bf831	0.23043896
2	0x3e5fb379	0.21845807
3	0xbda0d4ec	-0.078531116
4	0xbe2359d1	-0.15952231
5	0xbc2d7713	-0.010587472
6	0xbe72ffc2	-0.23730376
7	0xbe44a906	-0.19205102
8	0xbd3b78d3	-0.045769524
9	0xbdef26f0	-0.116773486
10	0x3d3ac668	0.04559937
11	0xbc3602c9	-0.0111090625
12	0x3e5a86ed	0.21340533
13	0xbe200fc3	-0.15631013
14	0x3d65ac08	0.056072265
15	0x3e0ae588	0.13564122
16	0xbd82df05	-0.06390194
17	0x3e3d11d5	0.18463834
18	0x3e728e8d	0.23687191
19	0x3e3cfa0c	0.1845476
20	0xbe5d8dbc	-0.21636099
21	0xbd8efe9a	-0.06982155
22	0x3e03765f	0.12838124
23	0x3e062284	0.13099104
24	0x3dedb004	0.11605838
25	0xbe688d05	-0.22710045
26	0x3e38be87	0.1804143
27	0x3e51b1ec	0.20478028
28	0x3e417ec1	0.18896009
29	0x3e6c3022	0.23065236
30	0x3dd362e2	0.10321595
31	0x3e4adb3e	0.19810197
32	0x3d9a9679	0.07548232
33	0xbc6c6de0	-0.014430493
34	0x3e2b390b	0.16720979
35	0x3dd48ca5	0.10378388
36	0xbe66683a	-0.22500697
37	0xbe0a1a57	-0.1348661
38	0xbe34e8d0	-0.17666936
39	0x3def5628	0.11686355
40	0x3e31b3f7	0.17353807
41	0xbdba24d0	-0.09089053
42	0xbda0dade	-0.078542456
43	0xbe36ab77	-0.17838846
44	0xbe7f5116	-0.24933276
45	0xbe529467	-0.20564424
46	0x3c966eb8	0.018363342
47	0xbe1366ec	-0.1439473

glu_encoder.hid2lat.weight f4 [64, 16]
0	0xbe8396ad	-0.25700894
1	0xbe1e7b76	-0.15476784
2	0xbdbb77e4	-0.09153727
3	0x3e1564da	0.14589253
4	0x3d389ddb	0.045072418
5	0x3e192c7a	0.14958373
6	0xbe18468c	-0.14870661
7	0x3d209815	0.039207537
8	0xbd88f334	-0.06687012
9	0xbe724292	-0.23658207
10	0xbe0f1dcd	-0.13976212
11	0xbd01486d	-0.03156321
12	0x3e5a4a49	0.213174
13	0xbe1d23e2	-0.1534572
14	0xbe3d5d44	-0.1849261
15	0xbe386fcd	-0.18011399
16	0x3e11a786	0.14224061
17	0x3e1043b3	0.14088325
18	0xbe5ea3ea	-0.21742216
19	0x3dd1b97d	0.10240457
20	0x3e6ae737	0.22939764
21	0xbacdb158	-0.0015693111
22	0x3d69b576	0.05705782
23	0xbd9ca019	-0.07647724
24	0x3e2cc291	0.16871096
25	0xbd0f536e	-0.034991674
26	0xbe2a2ae7	-0.16617928
27	0xbdc317b0	-0.095260024
28	0x3e05a4a8	0.13051093
29	0x3dc2972d	0.09501491
30	0xbe43faca	-0.19138637
31	0xbd597632	-0.053091235
32	0xbddf96c6	-0.109174296
33	0xbc862e49	-0.016379492
34	0xbcc0e753	-0.023547804
35	0x3e84854e	0.25882953
36	0xbca41b78	-0.02003263
37	0x3dbda270	0.09259498
38	0x3e7ac38a	0.24488655
39	0x3e5acd1a	0.21367303
40	0xbd0dd5a5	-0.034627575
41	0x3e822276	0.25416917
42	0xbe42bfaa	-0.19018427
43	0x3cddc655	0.027072111
44	0x3dadcaf7	0.08485978
45	0xbde069a9	-0.10957653
46	0x3dfa3856	0.122177765
47	0xbe544eac	-0.20733136
48	0x3e1bf13b	0.15228741
49	0xbdf09797	-0.117476635
50	0x3e770a4b	0.2412502
51	0x3da1b429	0.07895691
52	0xbdf08338	-0.11743778
53	0x3e3d8770	0.18508697
54	0x3b8a408b	0.00421912
55	0x3e74b4e8	0.23897135
56	0xbe322b88	-0.17399418
57	0xbda97c47	-0.08275657
58	0xbe717d6a	-0.23582998
59	0x3cd76d4f	0.02629724
60	0x3d026c84	0.03184177
61	0xbdc0466b	-0.09388431
62	0x3c7d92eb	0.0154769225
63	0xbdb01239	-0.08597226
64	0x3e61714d	0.22015877
65	0x3e0b4cdb	0.13603537
66	0xbe6296b5	-0.22127803
67	0x3c748844	0.014925066
68	0x3e4f2589	0.20229162
69	0x3e501813	0.20321684
70	0x3e433d99	0.19066466
71	0xbd28b1bd	-0.04118513
72	0x3dd757d3	0.10514798
73	0xbdc6029d	-0.09668467
74	0x3e3d6cad	0.18498488
75	0xbe87b338	-0.2650392
76	0xbe60cee5	-0.21953924
77	0xbde86760	-0.11347842
78	0xbdc7f10b	-0.09762772
79	0x3e39f9bb	0.18161671
80	0xbdf94e53	-0.12173142
81	0xbe308e69	-0.17241825
82	0x3e867f32	0.26268917
83	0x3e7b5d60	0.24547338
84	0x3d3b33a2	0.045703538
85	0x3e55a1cd	0.20862503
86	0x3e353cef	0.17699026
87	0xbe65f0e0	-0.22455168
88	0xbd8918ae	-0.066941604
89	0x3e05f713	0.13082533
90	0xbe001cfc	-0.12511057
91	0x3e178a46	0.14798841
92	0xbc946533	-0.018114662
93	0xbdc5b943	-0.096544765
94	0xbe0797df	-0.13241528
95	0x3dcc4fa0	0.09976125
96	0x3d1a8ea9	0.037733708
97	0xbe02e70f	-0.12783454
98	0x3d676ab1	0.056498233
99	0x3e3d7770	0.18502593
100	0x3d9e1e55	0.07720629
101	0xbe3f5292	-0.18683842
102	0x3e019342	0.1265383
103	0x3e4cb6e7	0.19991647
104	0xbdf4b5dd	-0.1194875
105	0x3e070371	0.13184907
106	0x3d47e20b	0.048799556
107	0x3e02b703	0.12765126
108	0xbdc49010	-0.0959779
109	0xbc839e4c	-0.016066693
110	0xbe1623a0	-0.14662027
111	0xbdaad6b0	-0.0834173
112	0xbdeb5cc0	-0.114923
113	0x3de358c8	0.11100918
114	0x3e3b094c	0.18265265
115	0xbdbd5744	-0.0924516
116	0xbd044cd8	-0.032299846
117	0xbe206476	-0.15663323
118	0xbdd443ff	-0.10364532
119	0x3d44cde2	0.048047908
120	0xbde70008	-0.11279303
121	0xbdea9ce3	-0.11455705
122	0xbe87a980	-0.26496506
123	0x3e1585a9	0.14601769
124	0x3e42e223	0.19031577
125	0x3e1aa97d	0.15103717
126	0x3e053edf	0.13012265
127	0x3e54b3db	0.20771734
128	0x3d4060d6	0.04696735
129	0xbd96da47	-0.07365852
130	0xbe29ce06	-0.16582498
131	0x3e5b2d39	0.2140397
132	0x3e341c26	0.17588863
133	0xbe4e0ee9	-0.20122875
134	0xbe484f50	-0.19561505
135	0xbe3de185	-0.1854306
136	0xbd7315aa	-0.059346832
137	0x3e117ad4	0.14207011
138	0x3e2c696d	0.16837092
139	0xbe488bf8	-0.19584644
140	0x3ca934ae	0.020655002
141	0x3e652e1e	0.22380874
142	0xbe1c034a	-0.1523563
143	0x3d05ea24	0.032693997
144	0x3cd40bab	0.02588447
145	0xbe56bcc7	-0.2097045
146	0x3db2a2ed	0.08722482
147	0x3cf68c22	0.030096117
148	0x3d74801d	0.05969249
149	0x3e2f3d8b	0.1711332
150	0xbe0336a9	-0.1281382
151	0x3d9cce37	0.0765652
152	0xbe33edb1	-0.17571141
153	0xbdfa140c	-0.12210855
154	0xbd52ac82	-0.051434048
155	0x3e018641	0.1264887
156	0xbda41195	-0.08011166
157	0x3dc86264	0.097843915
158	0x3da191a7	0.07889109
159	0x3e0434bf	0.12910746
160	0x3deaf6b5	0.11472837
161	0xbe39a1dc	-0.1812815
162	0x3d96b1e7	0.07358151
163	0x3e8335d0	0.25626993
164	0x3e3442ca	0.17603603
165	0x3e0fdba1	0.14048626
166	0x3d836809	0.064163275
167	0xbd339796	-0.043845735
168	0x3e0341ba	0.12818041
169	0xbd167175	-0.036729295
170	0xbe1e2e0b	-0.15447251
171	0xbddd58d6	-0.1080796
172	0xbe139c8c	-0.14415187
173	0x3aec8e5c	0.0018047797
174	0x3e59b060	0.21258688
175	0xbdbd0905	-0.09230236
176	0xbe032f4b	-0.1281101
177	0xbe331086	-0.17486772
178	0xbe27a5ac	-0.16371793
179	0x3c6444ae	0.01393239
180	0x3dca5798	0.098799884
181	0xbd2d9f8b	-0.04238848
182	0x3d5aea13	0.053445887
183	0xbdfc98b8	-0.12333816
184	0xbe5947eb	-0.21218841
185	0x3e5edcaa	0.21763864
186	0x3e138902	0.14407733
187	0x3c35d47b	0.011098023
188	0xbe7ac10d	-0.24487706
189	0x3ce91880	0.028454065
190	0xbe7e48b4	-0.24832422
191	0xbe074ccc	-0.1321289
192	0x3d468354	0.048465088
193	0xbd8cb41b	-0.0687029
194	0x3e07672b	0.13222949
195	0x3e2f79c2	0.1713629
196	0xbe02ea4e	-0.12784693
197	0xbd768a6b	-0.0601906
198	0xbd9e8c84	-0.07741645
199	0x3e1f6027	0.15564023
200	0x3e7345ed	0.23757143
201	0x3e50f103	0.20404439
202	0x3d2eda8e	0.0426889
203	0x3e607d43	0.21922784
204	0x3e147148	0.14496338
205	0xbe55263b	-0.20815365
206	0x3e071eea	0.13195387
207	0xbe35d424	-0.17756706
208	0xbdbee0f0	-0.09320247
209	0x3d6dc5b8	0.058049887
210	0xbd91cecf	-0.07119524
211	0xbe528a24	-0.20560509
212	0xbe61a9eb	-0.22037475
213	0xbe2a73a5	-0.16645677
214	0xbe7dc098	-0.247805
215	0x3e15bd01	0.1462288
216	0x3e60e4cd	0.2196228
217	0xbe213fbd	-0.1574697
218	0x3e267cc4	0.16258532
219	0x3e265104	0.16241843
220	0xbd91548a	-0.07096203
221	0x3c390508	0.011292703
222	0xbe65863f	-0.22414492
223	0x3e600a8a	0.2187902
224	0x3e402426	0.1876379
225	0xbd9bf505	-0.07615093
226	0x3de44eb1	0.11147822
227	0x3c02c5b0	0.007981703
228	0x3bcbc93f	0.0062190588
229	0x3e0f3d0f	0.13988136
230	0x3d65d9f3	0.056116056
231	0xbe83a567	-0.2571213
232	0xbe874b71	-0.26424745
233	0xbcbecf98	-0.023292348
234	0xbe86af35	-0.26305547
235	0x3d436e0a	0.047712363
236	0xb9f53c7c	-0.00046775106
237	0x3cdd3e52	0.027007256
238	0xbe7520ca	-0.2393829
239	0x3e1d1f76	0.15344033
240	0xbe4940ba	-0.19653597
241	0x3dbd3906	0.09239392
242	0xbc0ecb71	-0.008715496
243	0xbe3bfe43	-0.18358712
244	0x3d3d2819	0.04618082
245	0x3e594171	0.2121637
246	0xbccb1a1b	-0.024792721
247	0x3dd88d0c	0.105737776
248	0xbdf8b427	-0.12143736
249	0xbc3d029f	-0.011536269
250	0x3df56cd5	0.11983649
251	0xbe317ee7	-0.17333566
252	0xbd07cfbe	-0.033157103
253	0x3c2e7e04	0.010650162
254	0xbb1c3332	-0.0023834226
255	0xbd4595f7	-0.04823872

glu_encoder.hid2lat.bias f4 [64]
0	0x3cb3d740	0.021953225
1	0xbd86e0ff	-0.06585883
2	0xbe3cca9b	-0.18436663
3	0x3d13b1b4	0.036058143
4	0x3d47ed3e	0.048810236
5	0x3cf999e6	0.030468892
6	0x3e3d2573	0.18471317
7	0xbdafcdbe	-0.08584164
8	0x3c44f647	0.012021608
9	0x3e015733	0.1263092
10	0x3e66e472	0.22548082
11	0x3de9ee25	0.114223756
12	0x3bb15502	0.005411745
13	0xbb30c54f	-0.0026973074
14	0xbb8bec86	-0.004270139
15	0xbe46a820	-0.19400072
16	0xbd652fba	-0.05595372
17	0x3d807e50	0.06274092
18	0x3c0e71da	0.0086941365
19	0x3e6b4afc	0.22977823
20	0xbdadbf35	-0.084837355
21	0x3e3bab9f	0.18327187
22	0x3dee96e0	0.11649871
23	0x3d9e6f6a	0.07736094
24	0x3e286934	0.16446382
25	0x3dbdce9d	0.09267924
26	0x3da36b36	0.07979433
27	0x3c925b4c	0.0178658
28	0xbe1eac98	-0.15495527
29	0x3e66f9da	0.22556248
30	0xbe2069ce	-0.15665361
31	0xbd42e1e1	-0.047578696
32	0xbe7b1346	-0.24519071
33	0xbe7ec33c	-0.24879164
34	0x3e4a708a	0.19769493
35	0xbdf9a8f6	-0.1219043
36	0x3e5b07b6	0.2138966
37	0xbd5cf5d0	-0.053945363
38	0xbe4fc37e	-0.20289418
39	0xbdd94752	-0.106093064
40	0xbd13f881	-0.036125664
41	0x3bf8ff02	0.0075987587
42	0x3e176a94	0.1478675
43	0x3c6250c1	0.013813199
44	0x3e8034a1	0.25040153
45	0x3e07c4f2	0.13258722
46	0x3df5073a	0.11964269
47	0x3e504ce0	0.20341825
48	0xbe25ec34	-0.16203386
49	0x3c9c4457	0.019075556
50	0x3e476a14	0.1947406
51	0x3e6205f9	0.22072591
52	0x3c8628ab	0.016376814
53	0xbdd6389b	-0.104600154
54	0x3d49fbb0	0.049312294
55	0xbd825f5e	-0.06365846
56	0xbe828388	-0.25490975
57	0xbe451407	-0.19245921
58	0xbe785b5f	-0.24253605
59	0xbd674be2	-0.056468852
60	0xbe4a34d6	-0.19746718
61	0xbd0d3cde	-0.034481876
62	0x3d3aad24	0.045575276
63	0x3e3dd9b9	0.18540086
