code/baseline/saved/GAMNet_learning_rate_0.0001_hidden_size_64_epoch_6000_batch_size_32/Epoch_1400_JA_0.6451_DDI_0.0962.model (torch, 455805 bytes, 29 tensors)

lab_embeddings f4 [32, 64]
00000000: 7015 a03e 5d1e e63d 5da0 37bf c439 d2bf
00000010: 4c72 2dbf a08a bcbf f571 943f ec14 f83e
00000020: ba54 343f d4f6 0e3f df89 debf 61e0 adbf
00000030: 053c fe3e 9d8b dcbe b25e 283f d46e f93f
00000040: 51b0 293f e09d 393e d061 b43e e48e fc3e
00000050: 3b96 6e3e 5968 48bf 5359 8cbf fd71 6ebf
00000060: 897c 24bf c29e 83bf 32f4 323f 92dd 14c0
00000070: 0706 bdbe e9a9 503f fb01 b63f 3733 c23e
00000080: 2256 0ac0 7b07 d93f 6e51 7dbe c12c f2bf
00000090: abce e5be b8af 21bf 86a8 90bf 5aef 69bf
000000a0: bb17 fc3e ad2c d13e e1b9 733f 7f81 e0be
000000b0: bd79 b73e 0fc8 633f 1d2e 0f40 338e 093f
000000c0: 3db9 9ebe 4c68 d2be 6e96 863e 5feb 05bf
000000d0: 44c3 3fbf 4e2f 4c3e 4e22 20bf 5179 3e3f
000000e0: df22 87be 8de6 66be 271c 2140 1b1f 13bf
000000f0: d43b 8d3d c5a0 b23e 60f2 ea3f 3dc7 1a3d
00000100: 8b99 1abe 4152 25bf 7a0c d0be dddb bebd
00000110: 8e6c 583e dc6d 123f f81b ed3f ed94 953e
00000120: 8498 86bf 4fdf 9fbf bc4d a6bf c71a 883d
00000130: 0562 c1bf f011 8abf da6f 593f c8a0 6dbf
00000140: 2dab 33be a204 153f 8f1f bb3f 20ea 993f
00000150: 1cce c33e 09f7 06bf f605 393e 72bc 1340
00000160: 627e ebbc 93d3 823f c544 af3e b29b 753f
00000170: fccf 0b3d 8100 ed3f a9a2 5e3f 37b6 e83d
00000180: dde0 43bf e2a8 b4bf 11c0 fcbe ae06 063f
00000190: 7916 a23f 65f4 a2be c790 4f3e b6da ab3e
000001a0: a860 dc3e 55b0 98bf dddf 343f b22f 293f
000001b0: 46ee cb3f 8e0d 87be b9a9 f8bf bb68 21bf
000001c0: 1668 303f be30 d2bf 62b2 3f3f a074 163f
000001d0: 56f5 123f 3bfb e9be ad22 9cbf f639 48bf
000001e0: 6ebc f7bf c44b 5240 f87b 3b3e f8d2 c23e
000001f0: bccd 353f e72a 743f 4c5a 0bc0 4efc af3f
00000200: 90cc 5dbf be37 85be 403f cf3f 7e6b 34be
00000210: de62 803e 2685 7dbf 11d9 78bf b4e6 3dbf
00000220: 4022 55bf 1eac 623f 6132 14bc 83a5 9b3f
00000230: a5c6 a3be 9aec 163f f521 f4be abe1 0840
00000240: baf1 4fbf 264c 513e 6d4b 4d3f bf1e c5be
00000250: 29e0 4abf e203 0a3f b906 c53f a3b6 4bbc
00000260: 6ed9 adbf c340 71be 86a5 19bf 633a 45bf
00000270: 6db9 bf3e 75b8 86be eb5c 17be 3e0c 413f
00000280: 4317 4fbf 307d b13f ffbc a03e 0c57 023f
00000290: c16f 3b3f 82c3 be3e 7817 c9bb a605 b83f
000002a0: 0570 0040 693f 51be 622c d03e 3537 36be
000002b0: 94dc 9f3f 642e 9cbe 43e0 e1be 77cb 33bf
000002c0: b2e8 bdbe d865 973e 87ce 82bf e511 b53e
000002d0: 94f0 b4bf a69a b73e 66ba 873d eedd dabf
000002e0: 7fd5 97bc 4616 513f 34a1 813e 5ec9 05bd
000002f0: 4983 cb3e 46d5 b0bf 22c8 5fbf 672a 02bf
00000300: a4a4 72bd ee6e 1ebf 8465 673f 4f0c 8abf
00000310: d27e f6bd c8c5 00c0 4363 b8bf dbf0 293e
00000320: 70a4 863e e4a7 993f 1892 ecbe fd57 84bf
00000330: 5620 593f 2940 fb3f 0f85 613e 9646 aabd
00000340: b3dd 823e b68c 123f 31aa 89be d216 6a3d
00000350: 1917 7e3e c7de abbf 7b39 20c0 2083 c2be
00000360: e85f 1cbf 77c2 6ebd 2f09 1040 fddc e3bf
00000370: fba1 113f 056f 613d 0f77 8fbe 8af7 cc3e
00000380: 7cf6 743e b734 9d3f de13 783f 03f6 a1bf
00000390: 4c20 083f 4dbc 3fbd b334 f63f 109d 04c0
000003a0: 8b95 413f 93de a13e 63f6 2dbd 0c58 ccbe
000003b0: a0db 42bf 5ae1 153f b29c 97bf e5a3 5a3f
000003c0: ccd4 26bf 6720 a6bf 404b 003f e1dc 623f
000003d0: 5cc8 ad3f 62d7 fc3e c8e6 f1bf b37f 3a3f
000003e0: 6d98 1e3f 8715 b83f 03a4 64bf 11fd 333f
000003f0: d2ee 8e3f 4fa1 52be 0c1b 233f 6737 0b40
0.31266356 0.1123626 -0.7172907 -1.6423879 -0.6775253 -1.4729805 1.1597277 0.48453462
0.7044178 0.5584538 -1.7385825 -1.35841 0.49655166 -0.43075266 0.65769494 1.9486947
0.6628466 0.18126631 0.35230875 0.49327767 0.23299496 -0.7828422 -1.096476 -0.9314268
-0.64252526 -1.0282824 0.6990386 -2.3260236 -0.3691866 0.8150926 1.4219354 0.379297
-2.1615071 1.6955408 -0.24738094 -1.8919908 -0.44884238 -0.6315875 -1.1301429 -0.91380847
0.49236855 0.40854397 0.95205504 -0.43848798 0.35835066 0.8897714 2.2371895 0.53732604
-0.310007 -0.41095197 0.26286644 -0.5231227 -0.74907327 0.1993992 -0.62552345 0.74403864
-0.26393792 -0.22548886 2.5173433 -0.5746934 0.06896177 0.34888282 1.8355217 0.037787665
-0.15097634 -0.64578635 -0.4063452 -0.09319279 0.2113516 0.5719888 1.852416 0.29215184
-1.0515294 -1.2490023 -1.2992473 0.066457324 -1.5108038 -1.0786724 0.84936297 -0.9282346
-0.17545767 0.58210194 1.4619006 1.2024574 0.38243186 -0.52720696 0.1806868 2.3083768
-0.028746787 1.0220817 0.34232154 0.959407 0.034133896 1.8515779 0.8696695 0.1136288
-0.7651499 -1.4114039 -0.49365285 0.5235394 1.2663108 -0.31827083 0.20270072 0.335653
0.43042493 -1.1928812 0.7065409 0.660884 1.593209 -0.2637753 -1.9426795 -0.6305043
0.6890882 -1.6421125 0.74881566 0.58771706 0.574056 -0.45699486 -1.2198082 -0.7821344
-1.9354379 3.2858744 0.18309009 0.3805158 0.7101705 0.95377964 -2.1773863 1.3748872
-0.8664026 -0.2601909 1.6191177 -0.1761913 0.2507543 -0.99031293 -0.9720622 -0.7418015
-0.83255386 0.8854388 -0.009045214 1.2159885 -0.3198749 0.58954775 -0.47682157 2.1387737
-0.8122822 0.20439205 0.80193216 -0.3850002 -0.7924829 0.53912175 1.5392677 -0.012433681
-1.3581979 -0.23559861 -0.60018194 -0.77042216 0.37446156 -0.26312605 -0.14781539 0.75409305
-0.8089487 1.3866329 0.31394193 0.50914073 0.732174 0.37258536 -0.006136831 1.4376724
2.0068371 -0.20434345 0.4065886 -0.17794497 1.248919 -0.30504143 -0.4411641 -0.7023234
-0.37091595 0.29569888 -1.0219277 0.35365215 -1.4135919 0.35860175 0.066273496 -1.7098978
-0.01853442 0.8167461 0.253183 -0.03266274 0.397486 -1.3815086 -0.87414753 -0.5084595
-0.059239045 -0.61888015 0.90389276 -1.0785006 -0.12035908 -2.0120716 -1.4405292 0.16595785
0.2629733 1.2004361 -0.4620521 -1.0339352 0.84814966 1.9628955 0.22023414 -0.083142444
0.25559768 0.5724596 -0.26887658 0.05715067 0.24813499 -1.3427361 -2.5035083 -0.37990665
-0.6108384 -0.058290925 2.2505605 -1.7801815 0.5688779 0.055037517 -0.28020522 0.40032607
0.23922151 1.2281712 0.96905315 -1.2653202 0.5317428 -0.046810437 1.9234833 -2.0720863
0.7561881 0.31615123 -0.0424713 -0.39910924 -0.7611637 0.58546984 -1.1844695 0.85406333
-0.6516845 -1.2978638 0.5011482 0.88618284 1.357677 0.49383074 -1.8898554 0.72851104
0.61951333 1.438157 -0.8931276 0.70308024 1.1166632 -0.20569347 0.63713145 2.1752565

static_ll.0.weight f4 [128, 64]
00000000: 8423 c33d 84cf afbd 3e6d e9bd cff5 04be
00000010: 14c8 813d 1a20 98bd 5d4d e0bd a036 ff3c
00000020: 23fe 803d f7c8 7cbd e170 37bd 9fda 89bd
00000030: fbe2 1a3e 7d37 85bd fe88 c63b b7ed afbd
00000040: 70f6 06be 563d cf3d a6c7 82bd e4fe fabd
00000050: 0e9f 2abd 47ac 91bd 6c58 14be 5807 e3bd
00000060: 7c03 e23d aad9 0bbc 3e2d 253d e040 e2bd
00000070: c93c 683d a6fe 9cbd 0dd6 983d d40d f73d
00000080: a6d3 ca3d 050a ca3d 7ed2 81bb 64e6 f9bd
00000090: 8cf3 5a3d 0cce 883d 3b51 353d 804a 1cbd
000000a0: aece 0f3c 32a9 ab3d 6de4 9e3d efbe f43c
000000b0: 37eb 93bd 315b 743d b281 36bd 1b86 80bd
000000c0: d7cf 2fbd f5a9 00be 3f3b 053e 5aec 0b3e
000000d0: dd17 2a3d fcb4 70bc e36c 36bd f5a0 febd
000000e0: 3255 ab3c 1085 363c b852 21bd effe dd3c
000000f0: b286 03be 92cf ddbd 6a7c 2ebd a8d5 c3bc
00000100: 8ef3 923b b28c fb3d bd80 b8bd 9900 cc3d
00000110: ccad 61bc 594f c9bd 1914 a63d 7b1e 96bd
00000120: 329b aabd 96b5 403d 355b 11bd c094 b93d
00000130: 992a 44bd cadc ea3b 3c2c 2a3d b482 9fbd
00000140: 95d4 d9bd 82f3 b0bd 9f4f 04bc 1292 bd3d
00000150: de85 dc3d b8a3 873d 103f 693d a799 e13b
00000160: cc41 b93d ce8d 1f3d 8e34 c73d c00e 023e
00000170: da12 ed3d fb85 f73d e0aa 713c 13c5 eebd
00000180: 9fbf fdbd ee70 c3bd f7e9 553d 23dc 47bd
00000190: a51d 3ebd 9304 e73d e3fe 92bd 4b6e dc3d
000001a0: 0d6f 91bd f1d4 c6bd 5a74 033e c589 f2bd
000001b0: ed96 a7bd 2de4 e6bb 4e6c aabc c15f 31bd
000001c0: f5eb 69bd 9d78 f13c 6c36 043e 8c38 b03c
000001d0: daf3 f4bd 86dd 06bd 746c bbbd 231b a43c
000001e0: 839e 93bd 48c5 f93d f38a 38bc 469d c43d
000001f0: f617 9abc 53b5 873d 7785 fabd 2549 d43d
00000200: a2bb a43d 9ea9 06bc 7c29 fdbb c5a2 f73b
00000210: 71e7 c93d f963 14be fba6 d5bd 3968 b5bc
00000220: 4c2b bdbd ae1c d3bc 09c3 adbd 9fd0 07be
00000230: 2f71 19bc 8969 c2bd f4a7 d9bd d10e 91bc
00000240: 7474 9bbd 9c0e dc3d 5c76 30bd 0127 edbd
00000250: 2891 8d3d 9260 55bd 6746 08bd 869c 113d
00000260: c36f 7dbd ba19 d2bd 6f0f b8bd b560 7fbd
00000270: 764b 98bd 243c 923d 023d 593d df8e aebc
00000280: 5b6e 05be 8d3d a03d 7c07 b63c 5f2b f43c
00000290: ceae 5f3d de55 b3bb 6067 1b3d e2cf 61bc
000002a0: 5f2c eabc 7bd6 b2bd b5e3 bc3d 619f 84bd
000002b0: 2db0 033e 2921 d03d 572a fc3d 2315 68bd
000002c0: 7f83 c4bd 8bc1 c7bc 9c53 c83d e74d 993d
000002d0: e280 18bc 56a0 eb3d 624f ab3d a134 28bd
000002e0: 2b8e 2f3c 1314 eeb9 f9b3 b33c 401d a8bd
000002f0: 8c07 043e f99f aa3d 9ece 953c 1e99 8abd
00000300: ed38 dbbd 8c2a 62bd e3c6 10bd 4f49 9bbc
00000310: 3051 ee3d bd1b e93d 7108 f5bd 20db 9c3d
00000320: 0c40 bbbd 8420 be3d 7086 8e3d 6ef6 f339
00000330: c79e ae3d 2939 633d fc5b 3d3d 1517 2f3d
00000340: 1f03 b83d 025c 42bc 83cf 093c e8cc 573d
00000350: 9efd c23d a0f5 bf3d 7dda 1ebd a24e 4abd
00000360: 63e9 c23d b358 ccbc d41c 0cbe 2aa8 d53c
00000370: a361 bf3c ce44 9dbc 671a aa3c 654e 6d3d
00000380: 1ff5 523c ca0d b0bd 9f39 d1bc 10cb 6f3d
00000390: cd2d 19bd f094 7dbd 302b f2bd 64d9 2d3d
000003a0: 6a25 ee3d 2659 05be 4e56 dabd c072 c53d
000003b0: e8ca 2cbd 1471 63bd dd52 c93d 5a41 c1bd
000003c0: aa06 5e3c 4d3b 623d be0a 03be 661e e7bc
000003d0: 81d0 f73d ca00 b6bd 4c69 e9bc e99d 87bd
000003e0: b39d 603c 05e9 7fbd c477 d23b c81f 98bd
000003f0: 5ef7 a3bd b7e0 a8bd 2187 64bd 4161 a1bc
0.095282584 -0.08584502 -0.113977894 -0.12984394 0.0633699 -0.07427998 -0.10952256 0.031153977
0.06298473 -0.061715093 -0.044785384 -0.06731152 0.15125649 -0.06504724 0.006058811 -0.085902624
-0.13179946 0.10119121 -0.06385736 -0.12255648 -0.041655593 -0.071129374 -0.14486855 -0.11085385
0.11035821 -0.008535782 0.04032635 -0.1104753 0.056698594 -0.07665758 0.07462702 0.120631844
0.0990365 0.09865192 -0.00396186 -0.12202147 0.05345492 0.06679925 0.04426692 -0.038156986
0.008777304 0.08381881 0.077584125 0.0298762 -0.07222598 0.05965728 -0.04455728 -0.062755786
-0.04292282 -0.12564833 0.13010882 0.1366438 0.041526664 -0.014691588 -0.044537436 -0.12433044
0.020914648 0.011140123 -0.039385527 0.0270991 -0.12844351 -0.108306065 -0.04259912 -0.02390559
0.0044846004 0.12282695 -0.0900893 0.099610515 -0.013774347 -0.098295875 0.08109302 -0.073300324
-0.083303824 0.047048174 -0.035487372 0.09061575 -0.047892187 0.0071674334 0.04154609 -0.077886015
-0.1063625 -0.086401954 -0.008075624 0.09256376 0.10767721 0.06623024 0.056944907 0.006884772
0.09045753 0.038953595 0.09726821 0.12700939 0.11575861 0.120861016 0.014750212 -0.11658683
-0.123900644 -0.09543024 0.05222508 -0.048793923 -0.04641499 0.11280169 -0.07177522 0.10763224
-0.071012594 -0.09708584 0.12837353 -0.11842684 -0.08183084 -0.0070462436 -0.020803597 -0.04330421
-0.05710979 0.029476458 0.12911385 0.021511339 -0.119605735 -0.032926105 -0.09151545 0.020032471
-0.07207968 0.121958315 -0.011263597 0.0960031 -0.018810254 0.06626382 -0.12232488 0.10365514
0.080436006 -0.008219151 -0.0077258926 0.0075572454 0.09858597 -0.14491262 -0.104322396 -0.022144424
-0.09236774 -0.025770511 -0.08484466 -0.13263176 -0.009365364 -0.094927855 -0.10627738 -0.01770726
-0.07590571 0.10744974 -0.043081626 -0.11579705 0.06912452 -0.05209405 -0.033270266 0.035549663
-0.061874162 -0.10258813 -0.08987319 -0.062348086 -0.07436268 0.07140377 0.053036697 -0.02130836
-0.13030379 0.0782424 0.022220366 0.029805837 0.054610066 -0.0054728827 0.037940383 -0.013782473
-0.02858561 -0.08732315 0.09223119 -0.064757116 0.12860174 0.10162575 0.12312763 -0.056660783
-0.095953934 -0.02438428 0.09781572 0.07485562 -0.009308072 0.11505191 0.083647504 -0.041065816
0.010715048 -0.00045409854 0.021936404 -0.08208704 0.12893504 0.083312936 0.018287 -0.06767486
-0.10704217 -0.055216357 -0.035345923 -0.018955855 0.11636579 0.11382244 -0.11964501 0.07658982
-0.09143075 0.092835456 0.06959236 0.00046532176 0.08526378 0.055474434 0.0462303 0.042746622
0.0898497 -0.011862757 0.008411291 0.05268565 0.0952103 0.09373021 -0.038782585 -0.049391396
0.09517171 -0.024944639 -0.13682872 0.026081163 0.023361987 -0.019197848 0.020764543 0.05793609
0.012875824 -0.0859638 -0.025540171 0.058543265 -0.037397195 -0.061909616 -0.118246436 0.042443648
0.1162823 -0.13022289 -0.106609926 0.096410275 -0.042185694 -0.05552776 0.09830258 -0.09436293
0.0135513935 0.055232335 -0.12797067 -0.028212737 0.12100316 -0.08886869 -0.028492592 -0.06621916
0.013709473 -0.062478084 0.0064229686 -0.07427937 -0.08006166 -0.08245986 -0.05579293 -0.019699695

static_ll.0.bias f4 [128]
00000000: 6fa5 da3d 7a44 babd 229f 193c 33d2 8bbd
00000010: e67d e03d ebdc a03d db48 b3bd 9079 ba3d
00000020: 5b26 bf3c f773 083e 52c6 093e f9bd 89bd
00000030: 31d6 14bd 0dad be3d d982 5a3b 82c7 e63d
00000040: b7fe fb3d 247a 94bd 624d d83c 6ee3 8b3d
00000050: 4b64 b43d 06c3 aa3a 3678 9b3d e742 153e
00000060: 5427 d73d a0ba 9b3d 74d1 4bbd 05a0 bbbd
00000070: af42 91bd 9950 e93d 6c17 c7bc 3f76 86bd
00000080: 1c65 c3bb 9c8c a43d b9a7 ca3d c202 a3bd
00000090: 8e83 ce3d 0a97 e93d f172 303c 9166 473d
000000a0: bf01 633c 7026 11bd 2810 d0bc a6c2 b5bd
000000b0: 29f1 c43a 724c 2bbd fcf2 44bd ac8a 33bd
000000c0: d11c 21bd 8f02 de3d ea26 d93d 3b20 d73c
000000d0: a462 033d dc17 043e 47a2 29bd 3465 6d3d
000000e0: 71d9 0e3e 5a69 cf3d ca39 d5bd 72ed a4bd
000000f0: 28a3 cabc 716b e53d b95e 76bd 0555 98bd
00000100: 3888 61bd d2f7 6bbd 3fb9 f53c 046b a6bd
00000110: b1ce 66bc a62d 62bc 9b5f 553d 1145 a33d
00000120: afb7 12bc 749f b2bc 7d65 87bd 8110 2abb
00000130: 7f8e 433c ce41 cd3b eb16 28bd 6262 32bc
00000140: 326c a83b 6591 b13d d493 bdbd 5f89 393c
00000150: 4a7a 9fbd f905 43bc 4704 92bd 5cb0 313d
00000160: 6074 0a3e 86a1 94bd 6e85 c53d 9cda 0ebd
00000170: aa7f d9bd 92ae 893c c53a abbb 903d 57bc
00000180: eb49 8bbd 1531 913d 57f4 da3a 4fa8 00bc
00000190: 52d0 f03d 296a 90bd 89eb 6e3d 65e4 5cbd
000001a0: 0f23 aebd c27e 63bd 59b7 e33d ed9c cb3d
000001b0: d6a3 653d eff1 2d3d 26e3 3c3d 6afe d3bc
000001c0: 19e9 fa3d d43f a9bd eb7e 8f3d 4433 25bd
000001d0: 628d 323d c532 853d cb14 513d 90ee cabd
000001e0: d778 873d 0f62 adbc 8f57 bc3d 1d70 76bd
000001f0: 0cd1 6f3d 2f31 02be 5465 eb3d a64b df3c
0.10676085 -0.09095092 0.009376319 -0.06827202 0.10961513 0.07854637 -0.087541305 0.091052175
0.023333719 0.13325487 0.1345456 -0.067256875 -0.03633708 0.093103506 0.0033342151 0.11268522
0.123044424 -0.07249859 0.026404087 0.06830488 0.08808192 0.0013028092 0.07591288 0.14576302
0.10505548 0.07603955 -0.049760297 -0.09161381 -0.07092797 0.11392326 -0.02430316 -0.065655224
-0.005962981 0.080346316 0.09895272 -0.079595104 0.10083686 0.114057615 0.010769592 0.0486818
0.013855397 -0.035437047 -0.025398329 -0.08875017 0.0015025485 -0.04182095 -0.04808329 -0.04383342
-0.039334122 0.10840332 0.106031254 0.026260486 0.032076493 0.12899727 -0.041414525 0.057957843
0.13950135 0.10127516 -0.10411413 -0.080531016 -0.024736002 0.112021334 -0.06014893 -0.07438091
-0.05506155 -0.057609387 0.029995559 -0.0812588 -0.014087365 -0.013804829 0.05209313 0.07972158
-0.008954926 -0.021804549 -0.06611154 -0.0025949779 0.011935829 0.006263948 -0.04103748 -0.010887714
0.005139851 0.0867031 -0.092567116 0.011324256 -0.07786997 -0.011903279 -0.07129722 0.04338108
0.13520956 -0.07257371 0.0964459 -0.03487645 -0.10620053 0.016806874 -0.0052255117 -0.013137236
-0.06801208 0.0708944 0.0016704899 -0.007852628 0.11758484 -0.070514984 0.058330093 -0.05392875
-0.08502781 -0.055540808 0.11118955 0.099420406 0.05606445 0.042467054 0.046115063 -0.02587815
0.12251491 -0.082641274 0.070066296 -0.040332094 0.043591864 0.06503824 0.05104522 -0.099087834
0.06614845 -0.021164922 0.09196388 -0.060165513 0.058548972 -0.12714075 0.11493936 0.027257752

static_ll.2.weight f4 [64, 128]
00000000: dd9e 193d fbb5 60bd 25b8 7d3d 5387 583d
00000010: e233 9e3d 3523 a53c 1ff6 35bd 867d f9bc
00000020: e0b2 96bd 1221 ea3c 405a 88bc cf7f 863b
00000030: ec2c 8cbc 0538 4b3c f357 cb3c 20f5 8c3d
00000040: 5577 3f3d ae18 86bd b5e8 04bd 5c10 7fbd
00000050: 745f 4abd 266a 9a3d 070f 643d e6b0 133d
00000060: fb97 dc3a 53ad 9e3d b096 2bbd 3615 5abc
00000070: 34dc 013c 96d6 06bc 8b83 983c b6c3 b3bd
00000080: cd5e c33d ee60 3fbd 8dcd 4bbc f9b9 90bd
00000090: da65 8d3d 52d2 233d dc24 34bc cd73 cb3c
000000a0: 3047 0ebd 2be1 eb3c b288 783c 208c 803d
000000b0: 068f 123d 8f74 70bd 2add 4b3d aaf1 693d
000000c0: 00ef 353d d63d 11bc f0e3 a6bc 2d5c 92bd
000000d0: 0e8f 2cbb 5744 c03d 4e25 28bd cc7f 9d3d
000000e0: 3d49 083d a8a0 9ebd a66b 77bd 7381 543d
000000f0: b318 b03d 8185 a23d da1a 753b 823d a93b
00000100: fff4 b43b 0637 a9bc 6753 b73d 6840 45bd
00000110: 0358 b7bc 09ff 653d cc4b d7bb c4f2 95bd
00000120: 00f1 023d 8623 0b3c 4d08 103c f475 e1bc
00000130: d318 89bd 46e3 c1bc 297d 243d 3c81 8bbc
00000140: 3f15 0f3d d203 9b3d 154e 493d a619 aa3a
00000150: c414 db3a 719b 1cbc 8b0d 8abd deb4 963b
00000160: 492d e03b f452 29bd 00c2 81bd f08f 86bd
00000170: e794 373d 05cf 873d 8be6 11bd 46ca 90bd
00000180: 776f 283b 94a2 013d 4c15 803d ca36 9d3d
00000190: 10b6 aa3c 7351 633d edb6 253d 9888 ab3d
000001a0: 38cd 333d c540 56bd 1b8e 9c3d d16b b63c
000001b0: 959c c53c cd66 9d3d 7622 01bd 616d 81bd
000001c0: 1736 5bbc ab0c 493d 6015 c8bc d894 b33d
000001d0: a7ba cd3d 8fe9 bcba 4e2e 80bc c561 bbbc
000001e0: 3cb5 22bd 8fb6 363d 4c07 923d b85c 69bd
000001f0: bc23 003d 6e0c af3c eb09 a03d 1948 ec3c
00000200: 791d 183d 726c c4bc 919a 003d 8bed 4ebc
00000210: b00f 313d 0349 5ebd b49f 643d 54eb b13d
00000220: 1f57 a83c bf66 edbb 045a 4c3d 218a e63d
00000230: bf1e 84ba a8e7 5b3d 0b7d 08bd f409 a03d
00000240: d2ec c9bc 4530 c0bc a4d5 1f3d f6fa 4b3d
00000250: 1d97 7fbd 472d 773d e0e9 593d 264c 06bd
00000260: 3f87 7f3c f22a 683d 85c7 033d 027c 8f3d
00000270: 2b37 96bd 301b a03d acc2 e53c 90cf 613d
00000280: adf9 ebbb 2dcb cd3c 5e1e b7bb ed83 323d
00000290: 414f 463d 4ac2 803d b923 09bc 3042 a13d
000002a0: bfd0 4e3d 5ac4 01bd 3d3e a63c fad9 8abd
000002b0: 9da3 813d 16bf 533d 16fc 903d 46e8 a53d
000002c0: 2350 cabd 20a8 d63d 8685 763d ac1e e03c
000002d0: bde1 25bd 6e53 9a3d 7de8 c13c 6292 a4bd
000002e0: f216 ca3c 01c3 c9bd 8ad8 b2bd 785d c23b
000002f0: d574 de3d b045 03bd fa5f 1a3d 4d58 8e3c
00000300: 35c3 d73c 8de0 47bc bc23 ad3d 89a7 b43c
00000310: 166e a6bd e0aa 54bd 6336 8d3d f0c6 c2bd
00000320: 02f5 503c 4946 96bb 9f44 203d 468e 98bb
00000330: a4d3 da3b 501d 24bb 35c7 bcbc 2145 cc3d
00000340: 7bea 16bd 68c1 7f3d a5be 9bbd e32b e6b9
00000350: 4ab6 82bd ecb7 343d 3e24 b83d 1e57 4dbd
00000360: aeb1 e33c ab3d ca3d 7dff 33bd 0f91 86bd
00000370: f244 843d f604 863d aeb1 423b df9c af3d
00000380: fcfc b73d aed5 953d dd67 b83d 3cfc 88bc
00000390: 0cb4 f43c 5059 1abd a60b 0c3b 5c30 ad3c
000003a0: 133a 2fbd 4f48 303d 13fb d93c 4309 453d
000003b0: bf62 eabc eef9 35bd 1d7d cc3a 68b8 60bc
000003c0: 689d 2cbd d597 a8bd 2a4e 343c c6ba f23c
000003d0: 4f30 93bd c3f1 713d 6bf6 a53d 1a22 cfbc
000003e0: 89d3 8dbd 4a18 9dbc 82c9 6cbd ef38 8fbb
000003f0: b14a 96bc f867 a8b9 65aa 8fbb 8d70 72bd
0.03750502 -0.05486105 0.061943192 0.05286343 0.077247396 0.02015839 -0.044424172 -0.030455362
-0.073583364 0.028580222 -0.016644597 0.0041045914 -0.017111264 0.012403493 0.02482221 0.068826914
0.046744663 -0.06547676 -0.03244849 -0.06227146 -0.049407437 0.075397775 0.055678394 0.036057375
0.0016829962 0.07747903 -0.041891754 -0.013310721 0.007926036 -0.008229872 0.018617412 -0.08777563
0.09539566 -0.0467233 -0.012439144 -0.070667215 0.06904192 0.0399955 -0.010995116 0.024835492
-0.03473586 0.028793892 0.015169309 0.06276727 0.03578093 -0.05870491 0.049771465 0.057115234
0.04441738 -0.0088648405 -0.020372361 -0.071464874 -0.0026330384 0.09388035 -0.0410512 0.07690391
0.03327297 -0.077454865 -0.060405396 0.051881265 0.08598461 0.0793562 0.0037400038 0.005164803
0.00552237 -0.02065612 0.089514546 -0.048157126 -0.022380834 0.056151424 -0.006570315 -0.073216945
0.031968117 0.008492356 0.008791042 -0.027522065 -0.06694188 -0.023667943 0.040158425 -0.017029397
0.03493237 0.07569088 0.04914673 0.0012977615 0.0016714563 -0.0095585445 -0.06740864 0.004599198
0.006841336 -0.041338876 -0.06335831 -0.06570423 0.04481974 0.06631283 -0.035620254 -0.070698306
0.0025701204 0.031649187 0.06254062 0.07676466 0.020838767 0.055497598 0.040457655 0.083756626
0.043896884 -0.052307863 0.07644292 0.022268208 0.024122516 0.07685623 -0.031527005 -0.063196905
-0.013379595 0.049084347 -0.024424255 0.08768624 0.10045367 -0.0014412868 -0.01564708 -0.022873769
-0.03972362 0.044607695 0.07130298 -0.05697319 0.03128408 0.021368232 0.07814392 0.028842973
0.037137482 -0.023977492 0.031397406 -0.012629877 0.04322785 -0.05426885 0.055816367 0.086874634
0.020549355 -0.0072449143 0.049890533 0.11256815 -0.0010079964 0.05368772 -0.033322375 0.078143984
-0.024649058 -0.023460517 0.039022103 0.049799882 -0.062399972 0.060345914 0.053201556 -0.032787465
0.01559621 0.05668158 0.0321727 0.070060745 -0.07334741 0.078176856 0.028046928 0.055129588
-0.0072013945 0.025121296 -0.005588337 0.043582845 0.048415426 0.06287058 -0.008370333 0.078739524
0.050492045 -0.031681396 0.02029335 -0.06779857 0.06330035 0.051695906 0.070793316 0.08100943
-0.09878566 0.10481286 0.06018593 0.027358375 -0.040498484 0.07535444 0.02367043 -0.08035733
0.024669144 -0.09851647 -0.08732708 0.0059315525 0.10862128 -0.03204888 0.037689187 0.01737609
0.0263382 -0.012199533 0.084540814 0.022052543 -0.08126466 -0.05192077 0.06895139 -0.095106006
0.012753727 -0.0045860154 0.039127942 -0.004655632 0.0066780616 -0.0025041886 -0.023044208 0.09974123
-0.03684471 0.062440306 -0.07604722 -0.00043901717 -0.06382425 0.044120714 0.08991288 -0.05013191
0.027794685 0.098750435 -0.043944824 -0.065706365 0.06458463 0.06543915 0.0029707956 0.08574843
0.089838 0.07316147 0.09004185 -0.016721837 0.02987101 -0.03768283 0.0021369248 0.021141224
-0.042779993 0.04303771 0.02660898 0.048104536 -0.028611539 -0.044427805 0.0015601252 -0.013715841
-0.0421423 -0.08232085 0.011004964 0.029630076 -0.071869485 0.059068453 0.08103641 -0.025284816
-0.06925113 -0.019176621 -0.05780936 -0.0043708007 -0.018346163 -0.0003212092 -0.0043843263 -0.059189368

static_ll.2.bias f4 [64]
00000000: d232 5a3d 5f0e 243d 7df1 69bc 398c 6abd
00000010: 182e f9bc 3e0e 0e3d 6c6d 033d 7b54 1bbc
00000020: ba36 1c3d cd51 8dbd 368d 993d 1307 e5bc
00000030: a42c 97bc b0dd 5f3c 22f5 a23d bbd7 c83d
00000040: 49e5 9ebd 336d 983c a23d b33d 9980 86bd
00000050: 2416 14bd b046 85bc 46a4 6d3d ef84 983d
00000060: 6357 12bd 5b00 a63d 929d 0a3d 9697 f9bc
00000070: 8514 873c 667d 3e3c 4f90 743d aed6 813c
00000080: d2bf 3abd ec08 93bd a649 bc3d f294 1e3b
00000090: 00b6 233d 7752 4cbd 2634 9bbc 2acf 4c3c
000000a0: ae14 043d b847 783d a0a6 acbc 5942 c83c
000000b0: 36ec 71bc 2965 913d 2250 d5bc b67e 253c
000000c0: 5c3b 373d e98d 103c 56f6 833c 4824 8a3c
000000d0: 16aa 3ebd d6dc 8e3d 7d9f 9d3d d97a 573d
000000e0: f039 eabc d0c3 a63d 6a12 26bd b2d0 c33d
000000f0: 4021 963d 40f5 773c 9877 42bd b349 c93d
0.053271122 0.040052768 -0.014278767 -0.057262633 -0.030417487 0.03468155 0.032086775 -0.009480591
0.03813813 -0.06900368 0.07497637 -0.027957475 -0.018453903 0.013663694 0.079569116 0.09806772
-0.077585764 0.018606758 0.0875199 -0.06567497 -0.036153927 -0.016269058 0.05801799 0.0744723
-0.03572787 0.081055366 0.033841677 -0.03046779 0.016489277 0.011626577 0.059707936 0.015849438
-0.04559309 -0.07179436 0.09193735 0.0024197665 0.03996849 -0.049883332 -0.018945765 0.012500564
0.032246284 0.06061527 -0.021075547 0.0244457 -0.01476579 0.07099373 -0.026039187 0.010101011
0.044734344 0.0088228965 0.016108673 0.016863003 -0.046548925 0.06975715 0.076964356 0.05260739
-0.02859208 0.08142817 -0.040544905 0.0956129 0.07330561 0.015134156 -0.047477335 0.0982851

glu_encoder.rnn.weight_ih_l0 f4 [48, 2]
00000000: 283d 383e 1585 27be cea5 cd3d 0291 41bd
00000010: 5728 493e 7582 3d3e e8a0 a7bd 6322 3bbe
00000020: 608f 1cbe c6d8 3d3e ee69 8e3e 12a2 083e
00000030: cb4c 66be a6c6 aa3d f268 953e 5f2b 98be
00000040: d632 b6bd 4e78 72be d5cc 793e e66a 29be
00000050: 1ee9 153e 014b a5bc bf2f 0e3e 0bb7 6d3e
00000060: 0098 613e aa04 afbd a3d1 c43d 88e6 f93c
00000070: 8d9f d53c 3adc 2dbd df92 36be 285b 6cbd
00000080: a3f9 5f3e c353 b6bd aef5 333d 25da 803e
00000090: bd14 67be b9dd 50be 0af1 56bc 6e99 743e
000000a0: 1200 03be df1a 683e c9f0 90bd d22d 9bbd
000000b0: 1150 ecbd c782 0e3e 88e9 5b3e 1215 4a3e
000000c0: e256 713d 4b8b 2abd e98a 9abe 69d3 653e
000000d0: a898 96be 3863 c8bc f01b 583d 695d 37bd
000000e0: 2ec3 4f3e 4e62 3abd a2ac 713d 5b01 62bc
000000f0: 4bee 593e 7d74 cebc af01 2bbe ffca febc
00000100: 1130 053e 1848 dabd feca 23be da69 513e
00000110: 72e4 0b3e 182e 9e3c 919e 843e 9f3f b6bd
00000120: 580b eebd 6de0 37be 5c14 723e b486 6cbe
00000130: e9c2 4e3e 93c4 2cbd a74d cb3d 3a37 30bd
00000140: 87a7 1f3e e79a 0dbe d79c 7f3e 4c3c 363e
00000150: a2ec 153e 85b1 4f3e eae0 36bd 5859 7ebd
00000160: 3c5f f1bd b982 ddbd f79d 7abe d628 6d3e
00000170: bf80 6c3e e19e 66bd 1c9f 3a3d b326 413e
0.1799208 -0.1635936 0.1004139 -0.04725743 0.19644295 0.18506797 -0.08184987 -0.18274836
-0.15289068 0.18539724 0.27815193 0.13343075 -0.22490232 0.083386704 0.2918163 -0.2972059
-0.08896415 -0.23678705 0.24394543 -0.16544685 0.14639708 -0.020177366 0.13885401 0.23214357
0.2203064 -0.085458115 0.096102975 0.030505434 0.026077056 -0.042446353 -0.17829464 -0.05770412
0.21872573 -0.08902695 0.04393547 0.2516643 -0.22566505 -0.2039708 -0.013118992 0.23886654
-0.12792996 0.226665 -0.07077176 -0.07577099 -0.11538709 0.13917075 0.21475804 0.197346
0.05892075 -0.041636746 -0.30184105 0.22443928 -0.29413342 -0.024461374 0.05276102 -0.044766817
0.20289299 -0.045503907 0.059002526 -0.0137942685 0.21282308 -0.02520203 -0.16699861 -0.031102655
0.13006617 -0.10658282 -0.15995404 0.20450535 0.13661364 0.019309089 0.25902227 -0.088988535
-0.116232574 -0.17956705 0.23640579 -0.2309826 0.2019154 -0.042179655 0.099269204 -0.04302142
0.1559125 -0.13828622 0.24962173 0.17796439 0.1464105 0.20282562 -0.04464809 -0.062096924
-0.11785743 -0.10815949 -0.24474321 0.23160109 0.23095988 -0.056303862 0.045561895 0.18862419

glu_encoder.rnn.weight_hh_l0 f4 [48, 16]
00000000: 64ba 3cbe 8836 6ebe a63a b8bd 9d8e 0b3e
00000010: d67f ce3d 8680 93bd 4aa7 84be af13 423e
00000020: e859 703d 449b 4c3e b109 3bbe 06e5 27be
00000030: 3086 10bd 9d7a 04be 1266 fe3d 635d 8ebd
00000040: 4b21 cd3d 74fa 9cbd cf19 023e 354c 86be
00000050: 3de9 f7bd 8069 483e 3e4e cabb 06e7 2e3d
00000060: 19d0 7fbe 42af 5a3e ffaf aebd e293 e83d
00000070: f67f 063e 6a5e e6bd 6c45 63be ad4e 913d
00000080: e3b5 303e d303 1ebe 64a4 ffbd 3f05 5dbe
00000090: 87bb e53c f8fc 493d dea9 32be c9e8 333e
000000a0: 2790 0d3e dd1f adbd 69c4 93bd 7ca2 1d3e
000000b0: 1a0f e2bd 2c6c 1f3e b1d2 3ebe 5383 363e
000000c0: 2feb 173e 4e03 3dbe a496 093e 3048 613e
000000d0: ee3b 3e3c 2d55 1f3e 3e9f 413e efd8 f33d
000000e0: 9a86 43be f47a 9bbd b4e1 19be 2e60 10be
000000f0: da62 103e fbef 123d 3320 123c faca f7bc
00000100: 2d38 aabd 4791 3a3c 3493 1f3d 4de5 32bd
00000110: 15e3 213d 2059 a2bd 3195 933e 0d76 fc3d
00000120: da1b 493c c7ca 093e 7443 453d 9d26 8ebe
00000130: ff03 93be 0a6d d93d 6098 fb3c 756d 1ebe
00000140: d80a cb3d 0135 333e 0ad0 8a3c d742 733d
00000150: 941e f8bb 3f90 51bc e175 e1bc 946d 583e
00000160: 63b2 8f3d 90b9 7e3e b456 1dbe a463 adbd
00000170: cfa3 46be a9ba 84be 4688 26bd bca6 eebc
00000180: 27d8 c6bd 754a 383e c7e8 f93d 5663 503e
00000190: 41d2 a03d 5296 4a3e 4c08 bdbd 35e6 0f3c
000001a0: a3bb 403e 9b69 35bc 49b2 59be 6c5d 513e
000001b0: 6864 403e 210e 1abe 95db 8f3d 9732 4bbe
000001c0: 82b0 a73d 7af2 27be af9d c1bc fc1a aa3d
000001d0: c783 64be b307 203e e0fd a5bd 1e50 8cbd
000001e0: cc0f 23be 3553 1c3e c992 8c3d 2ed1 5fbe
000001f0: 33fc 88be b191 85be 4bc9 583e 3e68 60bd
00000200: 325d ca3c 1b71 743e 263f 663e 9981 3bbe
00000210: fec2 2cbe a8cc f73d aacb 55bd 4627 69be
00000220: f466 e4bc e00b c13d 03c1 b6bd e808 4c3e
00000230: 707d 63be 9d0b c5bd 93a2 663e 14fb b7bd
00000240: 4aeb 893e c072 a1bd 5b99 283e e894 46be
00000250: 98e7 40be 2401 40be f89f 5a3d 17f0 693d
00000260: 1f35 17be 1eec 0bbe 47e7 9bbb 73fe 94bd
00000270: 3e10 033c 8609 233d 3754 823d b9dc d53d
00000280: 542e 7d3e 9cff dbbd d5c2 63be 11c3 a23d
00000290: 3312 433e 08a3 083e 65ce a33d d021 363e
000002a0: 8a60 2f3d ecde 27bd f026 acbd ffb2 113e
000002b0: 0d47 7abd 6a7a 2f3c 7c4f 213e 7b03 cb3b
000002c0: d7fd 05be 800b d73d 99c1 4e3d 746b 1b3e
000002d0: 4266 853d 8b96 9abc 6853 0ebd 2b1b d2bd
000002e0: acec 83bd bbb2 0abe ec04 9abd b6c9 113d
000002f0: 6f53 6a3e 9a34 30be cfcb 27bd 944a 6c3e
00000300: cbfe 2a3e 733a e93d 840c 1ebe b27e 363e
00000310: 14b0 83be e66b 92bd 099e f33d 1832 fd3d
00000320: c7b0 4a3e d7c2 d4bd f21a 34be b77e fabd
00000330: 5f31 573d 7824 76bd 165c d43c 0490 563d
00000340: 9400 b73d 03ba 033e 9a5a c23d 9076 403e
00000350: 3370 eabd b5b8 0abe 2978 82bd 1779 393d
00000360: fd97 313e c251 5f3d cd05 d93d 89ca e1bd
00000370: 7d96 d53b d55d 453d 32a1 fcbd ce7a 25be
00000380: 54b3 8e3e 886f 223e d014 40be 34e4 0abd
00000390: f184 b9ba 295c 383e a31e ccbd 4432 b0bd
000003a0: 29ae ecbd d1a4 283e 80ea 04be bc7f 923c
000003b0: d48a 213e e080 d8bb 254f 933e ab9d 09be
000003c0: 636e 233d 96d1 c2bb 6d1d f63d 06c6 4d3e
000003d0: a481 523e 35d8 54be e581 343d 51e7 623e
000003e0: aa21 df3d 5086 1abe fce2 9abd 3149 20be
000003f0: ed2b dabd 2ab8 13be 5d18 f03c 70d4 e23d
-0.18430477 -0.2326299 -0.08995561 0.13628621 0.100829765 -0.07202248 -0.2590888 0.18952821
0.05867949 0.19981104 -0.18265416 -0.1639596 -0.03528422 -0.12937398 0.12421812 -0.06951406
0.10016116 -0.07664958 0.12705158 -0.26230016 -0.121050335 0.19571495 -0.006173878 0.04270079
-0.24981727 0.21355918 -0.08529662 0.113563314 0.1313475 -0.11248477 -0.22194451 0.07095084
0.17256884 -0.15431146 -0.12482527 -0.21584032 0.028043522 0.049313515 -0.17447612 0.17569269
0.13824521 -0.08453343 -0.07215197 0.15394014 -0.11038037 0.15568608 -0.1863506 0.17823534
0.14835809 -0.18458292 0.13436371 0.22000194 0.011610968 0.15559836 0.18908402 0.11906611
-0.19094315 -0.07591811 -0.15027505 -0.1409919 0.14100209 0.035873394 0.00891881 -0.030248154
-0.08311496 0.011387176 0.038958743 -0.04367571 0.039523203 -0.079271555 0.28824762 0.12327204
0.012274707 0.1345626 0.04816003 -0.27763835 -0.28713986 0.10616501 0.030712306 -0.15471442
0.09914178 0.17500688 0.016944904 0.059389915 -0.0075720046 -0.012790739 -0.02752203 0.2113555
0.070164464 0.24875474 -0.15365106 -0.084662706 -0.19398426 -0.2592366 -0.040657304 -0.02913224
-0.097091965 0.17997153 0.12202602 0.20350394 0.07852603 0.19783905 -0.09230098 0.008782913
0.18821578 -0.011072542 -0.21259417 0.20445794 0.18788302 -0.15044452 0.07024304 -0.19843517
0.08187963 -0.16401091 -0.02363476 0.08305928 -0.22315894 0.15627937 -0.081050634 -0.06851219
-0.15923995 0.15266116 0.068639345 -0.2185714 -0.26754913 -0.26087716 0.21170537 -0.054786913
0.024702642 0.23871271 0.22485027 -0.18311156 -0.16871259 0.12099582 -0.052196182 -0.22768888
-0.027881123 0.09426093 -0.08923533 0.19925272 -0.2221582 -0.09621356 0.22522955 -0.08983436
0.26937324 -0.07883215 0.1646475 -0.1939274 -0.18838346 -0.18750435 0.053375214 0.057113733
-0.14766358 -0.1366429 -0.004757795 -0.07275095 0.007999478 0.039804004 0.06363719 0.1044249
0.24724704 -0.10742113 -0.22242291 0.07947362 0.19049911 0.13343441 0.07998351 0.17786336
0.042816676 -0.04098408 -0.08405864 0.14228438 -0.061102916 0.010710338 0.15752977 0.0061954833
-0.13085113 0.1050024 0.050477598 0.15177709 0.06513645 -0.018870613 -0.03474751 -0.10259088
-0.06441626 -0.13544743 -0.0752047 0.035592757 0.2288339 -0.17207566 -0.04096585 0.23075324
0.16698758 0.113881014 -0.15434462 0.17821768 -0.25720274 -0.07149486 0.11895377 0.1236307
0.19793998 -0.10388725 -0.17588404 -0.122312 0.05253732 -0.060093373 0.025922816 0.052383438
0.08935657 0.12863927 0.09489937 0.18795228 -0.114471816 -0.13547023 -0.06370575 0.045281496
0.17343135 0.05452133 0.105968095 -0.11024959 0.0065181837 0.04818519 -0.12335433 -0.16160128
0.27871192 0.15862858 -0.1875794 -0.033909038 -0.0014154 0.18003906 -0.09966781 -0.086033374
-0.11556656 0.16469122 -0.1298008 0.017883174 0.15775615 -0.00660716 0.2877132 -0.13439052
0.039900195 -0.0059453947 0.12017331 0.20095071 0.20557266 -0.20785601 0.04406919 0.22158553
0.10895093 -0.15090299 -0.07562825 -0.1565292 -0.106529094 -0.14425722 0.029308492 0.110756755

glu_encoder.rnn.bias_ih_l0 f4 [48]
00000000: 6f99 403e 3404 61be 91b8 00bd c219 cc3c
00000010: 095f 38be 1a0c 81bd 59fb f33a 6d20 cfbd
00000020: e404 cc3d 18e8 c63d 39a4 893c 9253 a2bd
00000030: f3ed acbd 9db7 da3d 3835 93bd 9de2 cdbd
00000040: 4961 6c3e 7e60 67be f531 1b3e 8528 77be
00000050: f02c 303e a4f9 2abe 98fd 373e f99e b3bd
00000060: 8489 523c 9cc7 403e 2252 873d 7c27 4b3e
00000070: d02a 853c dfb9 71bc 860c e83d 9859 c3bd
00000080: d7da 643e cc21 303e 5162 05be 823f 3abe
00000090: 6345 2abe ea3e 22be c295 26be 8434 2abe
000000a0: 81b4 47bd a0ff 793e d8c8 f63c 7427 09be
000000b0: 2a22 8a3d afec 71be 2f02 9ebd 7d12 cbbd
0.1880853 -0.2197426 -0.031426016 0.024914626 -0.18005003 -0.06301136 0.0018614336 -0.101136066
0.0996187 0.09712237 0.01680194 -0.07926096 -0.08443823 0.10679553 -0.07187885 -0.10052989
0.23083986 -0.22595403 0.15155776 -0.2413655 0.17204642 -0.16696793 0.17967832 -0.08770556
0.012850169 0.18826145 0.066074625 0.19839281 0.016255766 -0.014753788 0.11330514 -0.09538573
0.22349106 0.17200392 -0.13025786 -0.18188289 -0.16628031 -0.15844312 -0.16268066 -0.16621596
-0.048756126 0.2441392 0.030125067 -0.13393956 0.067447975 -0.23625444 -0.0771526 -0.09915636

glu_encoder.rnn.bias_hh_l0 f4 [48]
00000000: f61f 15bd 1eec 653e 583f 5c3e 56b2 8bbd
00000010: e9cc 0ebe ab32 82bb dc83 6dbe b57e 25be
00000020: 60f1 1abd 93ce d5bd b4c9 3c3d c114 07bc
00000030: 1ab8 6c3e e03f 28be ac27 973d f8db 023e
00000040: e3f6 74bd 9a99 293e ce81 623e 78db 333e
00000050: 0015 70be 665f b3bd d0d5 e73d d557 ed3d
00000060: 7f34 dc3d 8adc 7cbe 08c0 213e 644d 473e
00000070: af67 383e 11e0 693e e5b7 c73d 9def 3c3e
00000080: 4c98 b23d 0143 b8bc 9451 2b3e a9ec e73d
00000090: 35a6 7bbe cbbf f9bd 1223 3abe 1190 0b3e
000000a0: 88db 373e a113 99bd 4495 98bd 1d4b 38be
000000b0: b299 88be ef86 5ebe d36e 213d 89e3 21be
-0.036407433 0.22453353 0.21508539 -0.06821124 -0.13945355 -0.0039733252 -0.23194832 -0.16161616
-0.03782785 -0.104397915 0.046090797 -0.008244694 0.23117104 -0.16430616 0.07380614 0.12779224
-0.059805762 0.165625 0.22119829 0.1756419 -0.23445511 -0.0875843 0.113200784 0.11589018
0.107522 -0.24693504 0.1579591 0.19463116 0.18008302 0.22839381 0.09751872 0.1845078
0.087204546 -0.022492887 0.16730338 0.11324436 -0.24575122 -0.12194785 -0.18177441 0.13629176
0.17954838 -0.07474447 -0.07450345 -0.17997403 -0.2667976 -0.2173116 0.03941233 -0.15809454

glu_encoder.hid2lat.weight f4 [64, 16]
00000000: ed11 86be 27cc 20be 6b66 babd ac62 153e
00000010: 4fcc 353d 1649 183e 0092 17be 6de5 093d
00000020: 4920 88bd 3808 74be 356d 0fbe 2025 16bd
00000030: 3a5a 603e fadc 1cbe 5df2 42be d15e 2abe
00000040: 5c81 0c3e 9044 143e 0822 64be 377d c93d
00000050: 66b5 703e c377 ccbb 78d5 543d 27a1 acbd
00000060: 591d 293e c52a 26bd c07e 30be 764d babd
00000070: 9a30 0d3e 77ad c93d 1faa 49be 9dd4 77bd
00000080: a1eb e7bd 2640 7bbc 93ae d3bc 5514 833e
00000090: fcc5 99bc f67a b73d 6e64 783e 0462 5b3e
000000a0: 0bd2 14bd 2e61 803e 552e 45be fa6d d23c
000000b0: c840 b53d b866 dabd 2882 f03d 0d10 51be
000000c0: 07e5 223e 9890 e6bd cdd6 713e b345 993d
000000d0: 0755 e6bd 9e6e 393e 2e56 a8ba 8d2a 803e
000000e0: e264 34be 6d11 b1bd fe68 76be c4ab 0d3d
000000f0: e1e3 b33c 035e bbbd 7dba b93c f947 cfbd
00000100: b6ed 5e3e e738 053e e2c5 5cbe 8700 8e3c
00000110: 327d 493e 2748 523e 7cbf 483e ed89 27bd
00000120: 5692 dd3d 174e c1bd 457c 423e 96bb 8bbe
00000130: 5e4f 5cbe df95 ebbd b405 d1bd 4e46 4d3e
00000140: d3cc eebd da4a 30be 483c 873e a6f9 7c3e
00000150: ac23 333d 4932 583e c0af 363e d886 5ebe
00000160: 242e 88bd c559 093e 3ed2 fabd 84a8 1a3e
00000170: 3a56 d2bc 949a c8bd d687 01be 2b1b c13d
00000180: 8c4c 223d 678e 0dbe 5ef2 853d 0063 453e
00000190: 6203 8b3d 81af 37be 5592 0a3e 2f06 503e
000001a0: c980 e4bd 6f42 0e3e be9f 6a3d 8049 e93d
000001b0: 0fd8 c4bd 2178 bcbc 0d22 15be 5c58 88bd
000001c0: c36b f2bd 56f4 df3d 59e0 3b3e 6d4a bcbd
000001d0: 1fcb 04bd 7c78 20be d482 d2bd d1e7 203d
000001e0: bdd6 e5bd 5bbc ebbd a7bb 87be 3a72 123e
000001f0: 0013 4a3e 5a2b 1a3e b0af 003e 3277 5a3e
00000200: 88b7 3b3d 7db4 a6bd c695 20be 54aa 623e
00000210: bb92 2a3e daef 45be 6299 3ebe 50dc 41be
00000220: 3674 60bd 1063 1a3e 97b2 363e 351a 52be
00000230: 5f8a be3c e2b9 5f3e b907 1dbe ac47 483d
00000240: e1e6 e03c 9b0e 60be c611 c13d f4c0 163d
00000250: 78de 533d c565 353e b0b7 f7bd 3308 a63d
00000260: a5d2 2bbe a50f efbd 2632 37bd a30e e33d
00000270: e98a a6bd 7325 bc3d f7a5 a43d 9c81 173e
00000280: 3e9e 013e 332f 47be 3b7c ad3d 4c50 893e
00000290: 729a 273e d400 1c3e 5ad8 9a3d 47c1 d9bc
000002a0: f15e 103e 3ddf cfbc 2568 12be f2e3 fdbd
000002b0: f821 21be 826f 24bc 74ec 653e 8053 a7bd
000002c0: bf52 0abe 658b 2abe 1537 2dbe 246d 063c
000002d0: 91bb d53d a50e 42bd c580 443d 8229 07be
000002e0: 2e54 61be f77a 5a3e 8ed7 0e3e f4be a53c
000002f0: 4b9a 74be 4a10 0f3d 4dda 81be 9990 0bbe
00000300: 18eb 563d ca5f abbd 378c 123e 5d1e 3a3e
00000310: b369 0ebe a245 51bd 9510 88bd cc9e 243e
00000320: 86ff 7f3e b4d9 583e a920 553d 2543 4b3e
00000330: e5ab 143e d0a6 5fbe 5bd9 083e 3dfe 1fbe
00000340: b68e cbbd eebc 7e3d fbcf 9dbd 7d78 57be
00000350: 88a6 5bbe 9531 30be 11bc 81be 4413 0e3e
00000360: 07c1 5c3e 3de3 27be 29f2 1f3e 34cb 283e
00000370: 5920 84bd 9404 813c 318b 6bbe 5604 5d3e
00000380: 754b 343e b3b0 97bd def3 dd3d ee49 633b
00000390: 1e0d 293c 17d9 093e d7f6 583d 2a5e 8bbe
000003a0: 8198 89be 14d2 efbc 7005 89be a9be 453d
000003b0: f905 6d3c a893 033d 7f6a 81be 08c4 233e
000003c0: 981f 49be b752 af3d 7a5f bdbb e5d0 38be
000003d0: 2e06 353d 83a3 5a3e 3a86 b3bc 79a0 d63d
000003e0: 8153 ecbd a640 42bc c084 f63d 1c97 3bbe
000003f0: bf85 f0bc c36e d93b 0249 8bbb e0e7 25bd
-0.2618555 -0.15702878 -0.09101566 0.14588422 0.044384297 0.1487163 -0.14801788 0.033666063
-0.06646783 -0.2383126 -0.14006503 -0.0366565 0.21909419 -0.15318671 -0.19037767 -0.16637732
0.13721222 0.1447928 -0.22278607 0.09838336 0.23506698 -0.0062398626 0.051961392 -0.08429175
0.16515101 -0.040568132 -0.17235851 -0.09096806 0.13788071 0.09847539 -0.19693802 -0.0605055
-0.113242395 -0.015335118 -0.02584008 0.2560145 -0.018771164 0.08959 0.24257061 0.21424109
-0.036333125 0.25074142 -0.19255956 0.025687207 0.08850247 -0.10664123 0.11743575 -0.20416279
0.1590768 -0.11258048 0.23617096 0.07483997 -0.112466864 0.18108603 -0.0012843066 0.25032464
-0.17616609 -0.08645902 -0.24063489 0.034587637 0.021959247 -0.09148791 0.022671932 -0.101211496
0.21770367 0.13009988 -0.21559861 0.017334236 0.19676664 0.20535336 0.19604295 -0.04090302
0.10818927 -0.094387226 0.18992718 -0.27291554 -0.21514651 -0.11503195 -0.10206166 0.2004635
-0.11660161 -0.17216054 0.26413178 0.24704608 0.04373519 0.21112932 0.17840481 -0.21731126
-0.066494256 0.1341315 -0.12247132 0.15103346 -0.025675882 -0.097951084 -0.12649474 0.0942901
0.039623782 -0.13823853 0.065403685 0.19276047 0.067877546 -0.17938043 0.13532384 0.20314859
-0.11157376 0.1389253 0.05728125 0.11390972 -0.096115224 -0.0230065 -0.1456377 -0.06657478
-0.1183696 0.10935275 0.183473 -0.09193883 -0.032420274 -0.15670961 -0.1027886 0.039283577
-0.11222599 -0.11510535 -0.26510355 0.14301386 0.1973381 0.150556 0.1256702 0.21334532
0.045829326 -0.08139894 -0.15682134 0.22135288 0.16657536 -0.19329777 -0.18613198 -0.18931699
-0.054798327 0.15076852 0.17841564 -0.2051781 0.02325934 0.21848252 -0.15334977 0.048896477
0.027453842 -0.21880572 0.09427218 0.03680511 0.051725835 0.17714603 -0.120955825 0.081070326
-0.16779573 -0.11672906 -0.04472556 0.11086776 -0.08131964 0.0918683 0.08039468 0.14795536
0.12658021 -0.19451599 0.08470961 0.26819074 0.1636751 0.15234691 0.07560797 -0.02658142
0.14098717 -0.025375003 -0.1429754 -0.12396993 -0.15735614 -0.010036351 0.22453481 -0.08170223
-0.13508128 -0.16654737 -0.16915543 0.008204732 0.10436166 -0.047377247 0.047974367 -0.13199428
-0.22004768 0.2133597 0.13949415 0.020232655 -0.23886983 0.034927644 -0.25361863 -0.13629378
0.052470297 -0.0836788 0.143113 0.18175645 -0.13907509 -0.051091798 -0.06643788 0.16076201
0.24999818 0.21176797 0.0520331 0.19849832 0.14518698 -0.21840978 0.13364165 -0.15624328
-0.09939329 0.062191896 -0.07705685 -0.21042056 -0.21450245 -0.17206414 -0.25338796 0.13874537
0.21558009 -0.16395278 0.1561972 0.16483766 -0.06451482 0.015749253 -0.23002316 0.21583685
0.1760691 -0.074067496 0.108375296 0.0034681517 0.010318069 0.1346172 0.05296978 -0.2722028
-0.26874164 -0.029274978 -0.2676196 0.04827753 0.014466756 0.032123238 -0.25276563 0.15992749
-0.19640958 0.085606985 -0.005779204 -0.18048437 0.044195347 0.21351437 -0.02191459 0.104798265
-0.115393646 -0.011856234 0.12037039 -0.18319362 -0.02936065 0.0066355183 -0.0042506466 -0.040504336

glu_encoder.hid2lat.bias f4 [64]
00000000: c1c4 a23c e5e6 91bd a192 40be b15c 053d
00000010: 2858 4d3d 6696 0a3d c924 443e c619 b1bd
00000020: 395f a73c 2cb0 063e 4a8d 723e 9707 e13d
00000030: 0946 523c 7ee6 14bc 6fd7 2cbc 6316 47be
00000040: 4da7 38bd bac1 7d3d 80b8 043c 425c 643e
00000050: 4122 a0bd a229 463e 6313 ec3d d81b 9d3d
00000060: 5642 233e 5e26 ba3d 443b 953d 4333 c43c
00000070: ea28 1cbe d954 5c3e 84b5 20be bc5e 25bd
00000080: e0e7 72be ffa2 83be bddf 3f3e 5985 f8bd
00000090: 0c4b 633e 8da6 51bd aad6 57be 57f6 debd
000000a0: 4290 1ebd 8435 f13b f302 123e 0d8a 6f3c
000000b0: 34eb 873e 2475 043e f99a e73d bc64 503e
000000c0: 1cca 27be 75c7 8a3c b480 4d3e 210e 5f3e
000000d0: d8f1 8d3c 1432 cbbd cf24 413d 81dc 77bd
000000e0: 5aba 84be 29b5 48be 49cf 7fbe 4ece 5abd
000000f0: d1bd 58be ed53 00bd 8f92 2e3d 9e86 383e
0.01986921 -0.07124118 -0.18805934 0.0325591 0.0501329 0.033834837 0.19154657 -0.08647494
0.020431148 0.13153142 0.2368671 0.10987776 0.0128340805 -0.009088157 -0.01054941 -0.19442134
-0.045081425 0.06195233 0.008100629 0.22300819 -0.078190334 0.19351819 0.11527135 0.076713264
0.15943274 0.09089349 0.07286695 0.023950225 -0.15249982 0.21516742 -0.15694243 -0.04037355
-0.23721266 -0.25710294 0.18737693 -0.12134809 0.22196597 -0.051184226 -0.21077982 -0.10886829
-0.038711794 0.007361116 0.14258938 0.014620316 0.26546633 0.1293531 0.113088556 0.20350927
-0.16385692 0.016940812 0.20068628 0.21782734 0.017327234 -0.09921661 0.047154244 -0.060513023
-0.25923425 -0.19600357 -0.24981417 -0.053419404 -0.21166159 -0.031330038 0.042620238 0.18020102

encoders.weight_ih_l0 f4 [192, 64]
00000000: 10f8 87bd e9a2 f8bd 4524 95bd 52c2 253e
00000010: e460 f43c b4df 753d ba6f b33d 6e9a e73c
00000020: 5795 8b3d c019 60bd 5e2d 0e3e 2fc7 cfbd
00000030: f279 9abd 46fa 12bd c961 b6bd 1ab4 713d
00000040: c982 2a3d e60f 273d 6abb a5bd 3d4a dc3d
00000050: 3917 0b3e c843 61bd 912b 433d 75fb c13c
00000060: 6374 323d 4728 223e 399b f1bd 7f7a c4bd
00000070: 672e 15be ed85 51bd ae9f be3d 554a 80bd
00000080: 7dc5 47bd ab87 323d b7e1 0ebb 3e0a 88bd
00000090: 96a9 21be da9b 8fbd c353 e5bd 6335 e93d
000000a0: d824 59bb 225f 17bc 1951 613d f820 253e
000000b0: 3b53 49bd d5a4 b83d bede 71bd 6b91 6bbd
000000c0: 9532 1abe e4d2 cbbd cb28 bbbd e9eb 9ebd
000000d0: f6e9 953d 8c9c cf3d 31fd 423d ba9c 07be
000000e0: fea0 6abd 4aae 42bc 91e7 15be 2463 29be
000000f0: 38a6 90bd fd69 723d dbde a3bc f8f2 033e
00000100: 47de 34bd 94c2 d53c edb2 a6bd b8a9 a6bd
00000110: 6008 95bd 7f95 c03d 19c5 a13d 45e3 bd3c
00000120: 6f18 2abc 4a02 bdbd ed36 da3c 7b17 8ebd
00000130: b18c 0b3d 763c 5bbd 938f 18bd 3b0e 37bd
00000140: 13dc 213d 9eea dcbd f145 cdbd 3de4 8e3d
00000150: 4198 ca3d f121 e33d ae5a d23d 56f1 b6bd
00000160: 0f4c c93d 8a79 a93d 9fb8 883d b448 7dbd
00000170: 14c7 e83d 29af 8a3c c667 263c efea b0bd
00000180: 5123 d5bd 1097 b3bd e66f e53c d197 a13d
00000190: bf2a a13d f210 da3d 5314 d5bc 3f05 99bd
000001a0: b214 2d3d 1ac3 4cbd 4211 c6bc f7d4 4b3c
000001b0: f028 f33d efee 3ebd 4559 8c3d 4840 2ebd
000001c0: e70a f9bd 5bca 5f3d bfd1 1fbd a8a4 c83d
000001d0: fc73 8c3d 6e20 a4bd d27a babd 7f0d f7bd
000001e0: 7e0d 0c3a 1241 c13c 8724 dabd 61ef a9bc
000001f0: e0da b53d 2b90 04bd 26f2 33bb 12ce 32bd
00000200: d61b 5bbd f43d 4cbd 8379 43bd a09a 20bd
00000210: f77a 0abd 500d 66bb cbba 83bd 6c3f 7ebc
00000220: 8d37 10be dec0 3abd df85 63bd eddf 71bd
00000230: 0b55 023e f26d 61bc a0b9 823c f300 67bd
00000240: 1e2c 573d 9b14 e33d fdb3 d33d 25de 40bd
00000250: 3315 09bc 09a1 a3bd 5a9a 0f3e 566e 96bd
00000260: a3f1 4a3c 10f8 cc3d 3977 99bc 04ae 8dbd
00000270: 8581 763d 3ad1 2b3d 46fc 603d 639a b13c
00000280: 3bbe 08be 28fd bfbd b843 053e 7bd1 3c3d
00000290: e414 97bd 5bd0 7d3d 34ad f0bd 7786 b43d
000002a0: 955c c1bc 4e93 f2bc 64d6 ffbc eab1 a3bc
000002b0: ccaf dc3d e666 9a3d e88b cf3c 5c02 aabd
000002c0: 32e3 8fbc 4e91 2ebd 77a5 17bd 7183 6c3c
000002d0: 56fb 73bd 2077 96bd 3f1e 01bd a827 ffb9
000002e0: 12db 0d3c 9829 18bd 19a6 0abe 2b54 09be
000002f0: dd34 50bd d7ab 98bd a896 eabd 4e6f 5e3d
00000300: 45f7 243c e4c0 9d3d fdeb 0f3e ec46 803c
00000310: ef48 f73d b15c c9bd 9d7b 0a3e 4420 e7bd
00000320: b691 95bd 242b 00bc c4a5 9d3d ea6e d5bd
00000330: a8da 093e 448c 043d 41b3 84bd c891 653d
00000340: a7f9 b039 6c89 273d 142d 8abc 542c 96bd
00000350: 1a93 f83d 8fa2 2e3d 6e6d cbbd 0c07 9ebd
00000360: a47f 7d3d 6941 3e3d b09e 903c 2118 12be
00000370: e299 a13b aab5 7dbd c570 673d 8aea 0ebe
00000380: 11a7 24bd 843b cc3d 90ec febc b536 d8bc
00000390: 5271 2abd 7e87 e6bc 5a28 b23d 77ac 63bd
000003a0: 3307 6ebd 5baf 923d 549b 9b3d 1803 013d
000003b0: 9f68 f13d 21e5 633d b971 15bc 1668 013d
000003c0: 6e38 b33d 1ac1 6a3d 54ff adbd 1bc4 72bd
000003d0: b81a 7cbc 320e b93d cba9 9cbd fb86 be3c
000003e0: ea06 793d b190 43bd 8c66 443d 1cfa b03b
000003f0: 366b ddbd 3b1c b83d 700f f8bd 3928 133e
-0.06639111 -0.12140448 -0.072823085 0.16187409 0.029831357 0.060027793 0.087615445 0.02827188
0.06815594 -0.054712057 0.13884494 -0.10145413 -0.075427905 -0.03588321 -0.0890537 0.05900965
0.041628633 0.040786646 -0.08092387 0.10756347 0.13583077 -0.05499628 0.04764897 0.023679474
0.043568026 0.15835677 -0.117971845 -0.09593677 -0.14568482 -0.051153112 0.093078 -0.06264178
-0.048772324 0.043586414 -0.0021802017 -0.066425785 -0.15787348 -0.07012148 -0.11197617 0.11387136
-0.0033133533 -0.00923899 0.05500898 0.16125858 -0.04915164 0.09015814 -0.059050314 -0.05751173
-0.15058358 -0.099523336 -0.0913864 -0.0775984 0.07320015 0.10137281 0.047604743 -0.1324338
-0.05728244 -0.011882374 -0.14639117 -0.16541725 -0.07062954 0.05918311 -0.020003727 0.12885654
-0.044157293 0.026093759 -0.08139596 -0.0813784 -0.07276988 0.09403514 0.078989215 0.02317966
-0.010381802 -0.09228952 0.026637519 -0.06938072 0.03406972 -0.053524457 -0.037246298 -0.044691306
0.03951652 -0.10786937 -0.10023106 0.06977127 0.098923214 0.11090458 0.10271202 -0.0893275
0.0982896 0.08275135 0.06675839 -0.061836913 0.11366096 0.016929226 0.010156577 -0.0863856
-0.10407127 -0.08769047 0.028007459 0.07890285 0.07869481 0.10647763 -0.026010668 -0.07471704
0.042256065 -0.04999075 -0.024178151 0.0124409115 0.118730426 -0.046614584 0.06852964 -0.042541772
-0.121602826 0.05463634 -0.03901839 0.09797031 0.0685806 -0.08013998 -0.09105457 -0.12063121
0.00053425867 0.023590598 -0.10651498 -0.020744028 0.08879638 -0.03236405 -0.0027457564 -0.043653555
-0.053493343 -0.04986377 -0.047723304 -0.039209962 -0.033808675 -0.003510315 -0.06432112 -0.015518051
-0.14083691 -0.04559409 -0.05554759 -0.059051443 0.12727754 -0.013759123 0.015957654 -0.05639739
0.052532308 0.110879146 0.103370644 -0.047086854 -0.008366871 -0.079896994 0.14023724 -0.07345264
0.012386712 0.10008252 -0.018733608 -0.069179565 0.060182113 0.04194758 0.054928087 0.021680063
-0.13353817 -0.093744576 0.13014114 0.046098214 -0.073770314 0.06196628 -0.11751786 0.0881471
-0.023603717 -0.029611256 -0.03123016 -0.019982297 0.10775718 0.075391576 0.025335267 -0.08301231
-0.01756439 -0.042619042 -0.037023034 0.014435635 -0.059565865 -0.0734694 -0.031522986 -0.00048666936
0.008658187 -0.037149042 -0.13539924 -0.13411014 -0.050831664 -0.07454651 -0.11454517 0.054305367
0.010068719 0.077028066 0.14054866 0.015658818 0.12074458 -0.098321326 0.13523717 -0.11285451
-0.07303183 -0.0078227855 0.07697633 -0.10421546 0.13462317 0.03236033 -0.064795025 0.05604723
0.0003375534 0.04090254 -0.016867198 -0.07332674 0.121374324 0.042635497 -0.099329814 -0.07716188
0.061889306 0.0464491 0.017653793 -0.14267017 0.0049316743 -0.061940826 0.05650403 -0.13956657
-0.04019839 0.09972289 -0.031118661 -0.026393274 -0.041611977 -0.02814078 0.08699103 -0.055584397
-0.058112334 0.07162353 0.07597986 0.03149709 0.11787533 0.055638436 -0.009121352 0.031593405
0.087509975 0.057313062 -0.084959656 -0.059269052 -0.01538723 0.09035911 -0.07649573 0.023257723
0.06079761 -0.04774541 0.04794936 0.005400909 -0.108114645 0.089897595 -0.121123195 0.14370812
