code/baseline/saved/GAMNet_learning_rate_0.0001_hidden_size_64_epoch_6000_batch_size_32/Epoch_3300_JA_0.7199_DDI_0.0875.model (torch, 455805 bytes, 29 tensors)

lab_embeddings f4 [32, 64]
000000 58 5d 96 3e 53 28 22 3e 1b 0b 3d bf 7c 4d d3 bf
       0.2936809 0.15835695 -0.7384507 -1.6508021
000010 98 78 29 bf b2 69 c1 bf 38 a6 97 3f 2b 0f ff 3e
       -0.66199636 -1.5110381 1.1847601 0.4981626
000020 47 90 40 3f 06 66 03 3f 9e 53 dd bf ba db ae bf
       0.7522015 0.5132755 -1.7291143 -1.3660805
000030 67 52 05 3f ad 19 e9 be 71 20 2c 3f 65 89 f8 3f
       0.5207886 -0.45527402 0.67237 1.941693
000040 06 c2 31 3f 46 87 42 3e e8 63 c3 3e ad 5d e7 3e
       0.6943668 0.18996915 0.3816216 0.45188656
000050 27 95 81 3e 92 0e 46 bf a1 73 8c bf 47 46 79 bf
       0.25309107 -0.7736598 -1.0972787 -0.9737286
000060 d6 c3 26 bf 1a 92 81 bf 81 ae 35 3f ff 26 16 c0
       -0.6514257 -1.0122712 0.70969397 -2.3461301
000070 41 3d b8 be 00 06 56 3f 7a 8e b6 3f 3f c0 c8 3e
       -0.35984233 0.83602905 1.426223 0.39209172
000080 43 62 0d c0 f6 5e dc 3f 13 d8 87 be f9 bc f3 bf
       -2.2091224 1.721648 -0.2653204 -1.9042045
000090 99 f7 da be 6c c9 1c bf d4 e3 90 bf 68 44 6d bf
       -0.42767027 -0.61244845 -1.1319528 -0.92682505
0000a0 47 93 01 3f 12 25 e2 3e c1 6e 80 3f 02 c7 e6 be
       0.5061535 0.44168907 1.00338 -0.45073706
0000b0 8c 47 cf 3e 4a 98 68 3f fe 66 10 40 6b 97 0f 3f
       0.40484273 0.90857375 2.2562861 0.5609042
0000c0 26 92 99 be 2e d3 be be 3c ff 8c 3e 5c 7f fa be
       -0.29994315 -0.37270492 0.27538478 -0.48925292
0000d0 1d 3a 4d bf 11 40 3b 3e fb e8 22 bf ee 25 49 3f
       -0.801668 0.18286158 -0.6363675 0.785735
0000e0 ab 7e 98 be e3 08 41 be 5b 1b 21 40 05 db 0e bf
       -0.2978414 -0.18851046 2.5172946 -0.5580295
0000f0 32 e1 4d 3d e5 c2 aa 3e f6 10 e8 3f 43 fe fd 3c
       0.05026359 0.33351818 1.8130176 0.03100503
000100 2a 84 34 be 45 ab 1c bf bb 52 e3 be 7b a1 96 bd
       -0.17628542 -0.61198837 -0.44399056 -0.07355019
000110 eb ff 4c 3e 71 f4 14 3f 4b 04 ef 3f f3 86 9c 3e
       0.200195 0.5818549 1.8673185 0.30571708
000120 ec d3 84 bf 7b b2 a6 bf 29 5b a6 bf 28 f7 48 3d
       -1.0377173 -1.3023218 -1.299657 0.04906383
000130 cc fa bf bf fa 07 8e bf c0 da 5e 3f f2 6b 69 bf
       -1.4998412 -1.1096184 0.87052536 -0.91180336
000140 fe 45 ff bd 76 57 10 3f bd 2c be 3f fb 43 99 3f
       -0.12464522 0.56383455 1.4857403 1.1973871
000150 13 03 c6 3e 0d b1 fc be 2f f6 4f 3e b6 5f 13 40
       0.3867422 -0.4935383 0.20308755 2.3027167
000160 95 19 15 bd 7f 1c 83 3f fd 84 bc 3e 76 f8 76 3f
       -0.03640135 1.0243071 0.36820212 0.9647287
000170 70 34 3a 3d 4d 62 ee 3f 33 b9 59 3f 45 42 f9 3d
       0.045460165 1.8623749 0.85048217 0.12170843
000180 c5 4d 4e bf 9a 5b b5 bf ed 9c 0a bf 5f 2b 04 3f
       -0.80587417 -1.416858 -0.541457 0.5162868
000190 6c 0c a4 3f 79 9f 8b be 4f 3f 29 3e 68 d8 be 3e
       1.2816291 -0.27270105 0.16528057 0.3727448
0001a0 63 c6 da 3e 85 d4 97 bf 93 81 3f 3f 2d 29 32 3f
       0.42729482 -1.1861731 0.7480709 0.6959408
0001b0 40 1d cc 3f b7 cd 82 be 17 df f9 bf 87 49 1e bf
       1.5946426 -0.25547573 -1.9521207 -0.61830944
0001c0 c0 28 2f 3f 23 e2 ce bf c1 45 48 3f 7a d0 19 3f
       0.68421555 -1.6162761 0.78231436 0.60083735
0001d0 49 39 09 3f 15 d7 f6 be 3e fa 9e bf 0f fd 3d bf
       0.53603035 -0.4821097 -1.2420118 -0.7421426
0001e0 9c 59 fd bf ae bb 54 40 56 16 3f 3e 59 84 cb 3e
       -1.9792972 3.323955 0.18660864 0.3974941
0001f0 b6 02 30 3f 86 57 75 3f 5b 81 0c c0 0d c8 b2 3f
       0.68754137 0.95836675 -2.1953952 1.3967301
000200 5b ae 63 bf 59 99 83 be 1e b6 d0 3f 83 aa 52 be
       -0.8893792 -0.25702932 1.6305578 -0.20572858
000210 f7 a9 78 3e f1 3f 83 bf 2a b3 7c bf 01 26 41 bf
       0.24283586 -1.0253888 -0.9871088 -0.75448614
000220 e1 af 5b bf 54 62 6c 3f 8c a3 0b bd 2d 2c 9c 3f
       -0.85815245 0.92337537 -0.034091517 1.2200981
000230 05 20 a4 be 8c cb 16 3f 9a 08 ed be 7f 31 08 40
       -0.3205568 0.5890434 -0.46295625 2.128021
000240 71 bd 4e bf 4e c8 59 3e 4d 01 4f 3f 00 3d c1 be
       -0.80757815 0.21267816 0.8086136 -0.37741852
000250 68 3a 4e bf 2b ee 0f 3f 94 a7 c4 3f f0 63 70 3b
       -0.8055787 0.5622279 1.5363641 0.003668066
000260 77 24 b1 bf 3f 6b 41 be 08 05 26 bf a6 ec 4a bf
       -1.3839253 -0.18888567 -0.6485143 -0.79267347
000270 b5 58 b8 3e 68 1f 8b be b7 c0 2b be 02 93 45 3f
       0.36005178 -0.271724 -0.16772734 0.7717744
000280 82 61 4e bf e1 18 b8 3f ec c0 b8 3e 25 45 09 3f
       -0.80617535 1.4382592 0.36084688 0.5362113
000290 28 92 40 3f 78 ba ac 3e 51 ff b2 3c cf 17 b8 3f
       0.75223017 0.33736014 0.02185026 1.4382266
0002a0 99 94 01 40 e9 18 6c be 04 9d de 3e f8 4c 62 be
       2.0246947 -0.23056377 0.43479168 -0.22099674
0002b0 7d c6 a1 3f de 52 93 be 3a ed ca be 7a 70 28 bf
       1.2638699 -0.2877416 -0.39634115 -0.65796626
0002c0 0a 3e c3 be b1 5a 9d 3e 3e 7c 85 bf de 44 b7 3e
       -0.3813327 0.30733255 -1.0428541 0.3579473
0002d0 7e fa b0 bf dd b9 b3 3e 4b 6d ae 3d f6 32 dd bf
       -1.3826444 0.3510274 0.0851694 -1.7281177
0002e0 b6 c5 34 bd 3c 31 57 3f e1 b1 89 3e ff 02 94 bd
       -0.044133864 0.840595 0.26893523 -0.07227134
0002f0 02 f9 c2 3e cf 70 ae bf bd 39 63 bf 60 10 04 bf
       0.38080603 -1.3628176 -0.88759977 -0.51587486
000300 dd 1d 29 bd 9b 4a 27 bf 82 cb 6c 3f b1 c4 89 bf
       -0.041288245 -0.65348214 0.9249803 -1.076315
000310 63 5a df bd fe 29 00 c0 d3 f7 bb bf ae df 1e 3e
       -0.10905912 -2.002563 -1.4685005 0.15515015
000320 eb 5c 86 3e b0 5d 97 3f 7c 2b df be c9 ab 83 bf
       0.26242766 1.1825466 -0.43587863 -1.02868
000330 87 9d 5d 3f f7 a7 fd 3f 39 57 7d 3e d5 01 d8 bd
       0.8656849 1.9816884 0.24740304 -0.105472244
000340 e2 d6 86 3e 50 64 1e 3f f7 6b 9a be 65 07 33 3d
       0.26335818 0.61871815 -0.30160496 0.043708224
000350 ff 00 8b 3e 76 60 af bf 52 8f 20 c0 9e b4 cc be
       0.27149197 -1.3701313 -2.5087476 -0.3998155
000360 41 18 1c bf b4 0c b7 bd b8 86 0f 40 a3 97 e1 bf
       -0.6097451 -0.0893797 2.2425976 -1.7624401
000370 83 8f 12 3f 11 eb 2f 3d 1a d4 99 be 3a dd d1 3e
       0.5725023 0.042948786 -0.30044633 0.40989095
000380 25 e4 62 3e a0 24 9e 3f 2f 03 77 3f 0d 3c a1 bf
       0.22157343 1.2354927 0.9648923 -1.2596451
000390 f3 aa 04 3f e6 e8 59 bd 6e 31 f8 3f 38 e7 06 c0
       0.5182335 -0.053200625 1.9390085 -2.1078625
0003a0 87 d7 43 3f 84 66 9e 3e 79 43 4b bd 4b e2 cc be
       0.76500744 0.30937588 -0.049624894 -0.40016398
0003b0 65 14 44 bf 2d 37 1e 3f 18 9c 98 bf 6b e0 4b 3f
       -0.7659362 0.6180294 -1.1922636 0.7963931
0003c0 06 9a 23 bf 98 6d a4 bf 42 ae 09 3f 05 f2 70 3f
       -0.63906896 -1.2845945 0.5378152 0.9411929
0003d0 0c 2a ae 3f 87 42 fa 3e 72 a4 f0 bf 81 bd 39 3f
       1.3606582 0.4887888 -1.8800185 0.72554785
0003e0 18 4d 21 3f 6e 52 b4 3f 61 a7 6b bf ed 1f 3c 3f
       0.6300826 1.4087656 -0.92052275 0.73486215
0003f0 de c0 8f 3f 2f e8 68 be 25 3b 2a 3f 6f 1b 0c 40
       1.1230733 -0.22744821 0.664965 2.1891744

static_ll.0.weight f4 [128, 64]
000000 b7 fb 04 3e 07 18 c4 bd 04 b1 ce bd b6 bc 03 be
       0.12986647 -0.09574895 -0.10092357 -0.12864956
000010 3b 26 9e 3d 70 8e 79 bd f3 40 10 be 5b fe a0 3c
       0.07722136 -0.060926855 -0.14087276 0.019652536
000020 88 01 8f 3d c6 87 87 bd 27 ea ed bc be 97 95 bd
       0.06982714 -0.066176936 -0.029042317 -0.07304333
000030 10 ee 34 3e 1f a0 38 bd 9b ec 6d 3c 65 7c a8 bd
       0.17668939 -0.04507458 0.014521743 -0.082268514
000040 23 ba 07 be cc 40 d0 3d 7d 33 83 bd 06 80 df bd
       -0.132546 0.10168609 -0.06406305 -0.109130904
000050 ef f5 3a bd d6 6b 95 bd 40 98 09 be 29 02 d4 bd
       -0.045644697 -0.07295959 -0.13436985 -0.103519745
000060 6c ff d5 3d f1 01 f8 bc 70 c3 87 3d ba 84 ca bd
       0.104491085 -0.030274363 0.066290736 -0.09888597
000070 db f8 90 3d e5 86 87 bd b1 4f 9e 3d a4 d7 00 3e
       0.070787154 -0.06617526 0.07730044 0.1258226
000080 84 24 d4 3d bb f8 c3 3d 5d c4 26 bc 43 3e ff bd
       0.10358527 0.09568926 -0.010178653 -0.12463047
000090 89 ad 18 3d 1a 9e 85 3d 25 89 36 3d 5f 78 5e bd
       0.03727487 0.06524296 0.044564385 -0.054314014
0000a0 0c b9 79 3c ca 68 83 3d cb 6a 87 3d c9 62 38 3d
       0.0152418725 0.06416471 0.06612166 0.045016084
0000b0 81 6d 97 bd c5 28 82 3d d0 8b 46 bd 36 fe a4 bd
       -0.07393933 0.063554324 -0.04847318 -0.080562994
0000c0 85 54 74 bd fa 14 02 be e8 38 0b 3e c8 0c 1e 3e
       -0.059650917 -0.12703314 0.13595927 0.15434563
0000d0 36 1e 38 3d de ef 87 bc 43 d0 65 bd 33 f1 00 be
       0.044950686 -0.01659387 -0.056106817 -0.1259201
0000e0 83 2b 83 3c 2e cb 9f ba e2 fa 2b bd 46 44 3d 3d
       0.016011959 -0.001219129 -0.041987307 0.04620769
0000f0 60 8c 07 be 66 0f d7 bd 73 69 b8 bc 8f 74 56 bc
       -0.13237143 -0.10500984 -0.02251122 -0.013089313
000100 0d e9 10 bd 85 4e c2 3d 01 d7 ea bd 58 5c 04 3e
       -0.035378505 0.09487633 -0.1146679 0.12925851
000110 39 2c 4b bd 6f 16 97 bd df f9 ca 3d b9 fb 95 bd
       -0.04960272 -0.07377326 0.099109404 -0.07323403
000120 bf 6c ab bd 82 76 5b 3d 50 f0 ee bc 5a 0e d8 3d
       -0.08370351 0.053579815 -0.029167324 0.10549612
000130 89 f0 88 bd 61 c6 11 3c 73 2f 72 3d e6 a2 d8 bd
       -0.066865034 0.008897395 0.059127282 -0.105779454
000140 d4 72 c2 bd 20 15 bf bd 9a 41 4f 3c 8d f3 e5 3d
       -0.09494558 -0.09330201 0.012649918 0.11228094
000150 b4 02 9a 3d 6d a4 86 3d a6 59 62 3d 25 a9 ee 3c
       0.07520047 0.065743305 0.055261277 0.029133389
000160 e4 7f a7 3d 86 3a 2f 3d d8 03 b5 3d 6a a5 17 3e
       0.0817869 0.04278042 0.08838624 0.14809194
000170 1a db bd 3d 5d 0a 06 3e 23 7c ad 3c c5 e2 06 be
       0.09270306 0.13089891 0.021177357 -0.13172443
000180 43 4a bd bd b1 4a 03 be 96 0a 02 3d b2 d0 1a bd
       -0.0924268 -0.12821461 0.031748377 -0.037796684
000190 b3 4d 07 bd c2 9e fa 3d e4 1f 2a bd f2 c9 04 3e
       -0.033033084 0.12237312 -0.04153432 0.12967661
0001a0 6f 6d 3a bd 3a 70 bd bd 40 b1 04 3e 6a 95 e1 bd
       -0.04551452 -0.09249921 0.1295824 -0.110148266
0001b0 f0 37 a2 bd 18 f9 71 bc 42 8e 3e bd 93 d9 b9 bc
       -0.079208255 -0.014768861 -0.046522386 -0.022686755
0001c0 2f 34 87 bd 9d 38 f4 3c f5 ab 1e 3e ec 1d a6 3b
       -0.0660175 0.029812152 0.15495284 0.005069485
0001d0 77 76 0c be 32 de b3 bc dd b8 a7 bd 6d 4b 95 3b
       -0.13717066 -0.021956537 -0.08189557 0.0045561106
0001e0 2c 1b ab bd 03 ec 1d 3e 70 ee a4 bc bb 63 a8 3d
       -0.08354792 0.15422063 -0.020133227 0.08222147
0001f0 b9 26 1c bb 73 f9 c9 3d a5 bd f2 bd 99 99 d1 3d
       -0.0023826791 0.09862032 -0.11852578 0.102343746
000200 3e c1 a6 3d e8 00 59 ba 7a 2b eb bb c7 fb fd 3b
       0.08142327 -0.0008278028 -0.0071768137 0.0077509615
000210 bf bd b6 3d 10 0b 1e be 1e c0 e5 bd 39 9d f6 bc
       0.0892291 -0.15433908 -0.11218284 -0.030104266
000220 53 b9 a3 bd a8 d7 f0 bc 5d 94 a4 bd dc b2 06 be
       -0.07994332 -0.029399708 -0.080361106 -0.13154167
000230 d3 74 86 b9 02 93 a3 bd b3 59 c1 bd 71 c7 86 bc
       -0.00025645513 -0.07987024 -0.09440937 -0.016452523
000240 74 65 a0 bd 66 85 e2 3d b0 c4 23 bd c2 e1 e2 bd
       -0.07831851 0.110606 -0.039982498 -0.11078216
000250 2b fb 56 3d 95 80 7b bd d9 ce fa bc bd e1 09 3d
       0.052485626 -0.061401922 -0.03061621 0.033662546
000260 ce 63 7c bd d3 e1 dd bd 7b ff b6 bd 9d 17 61 bd
       -0.06161862 -0.10834088 -0.08935448 -0.05495416
000270 d5 cb 89 bd 39 ad 9f 3d 37 d1 7c 3d b6 76 f1 bc
       -0.06728331 0.077967115 0.06172296 -0.029475551
000280 fc 9a 05 be ed 0f a9 3d 8e f8 97 3c be 5a f2 3c
       -0.13047403 0.08254991 0.018551137 0.029584285
000290 e5 1a 24 3d c9 72 d7 bb 52 6d 0c 3d d2 d1 ab bc
       0.04006471 -0.0065749628 0.034283943 -0.020974074
0002a0 a9 05 b4 bc 1f 40 b0 bd 89 e1 af 3d 5e 95 81 bd
       -0.021975355 -0.0860598 0.08587939 -0.06327318
0002b0 5b bf 14 3e fa f5 e5 3d 91 21 00 3e bd 42 3a bd
       0.14526121 0.11228557 0.12512805 -0.045473803
0002c0 6e 3f d3 bd ea bc 98 bc 8a ec a9 3d 1c eb b2 3d
       -0.10314833 -0.018644769 0.08297069 0.0873625
0002d0 09 87 12 bc 27 04 e5 3d 50 97 c8 3d 2a db 10 bd
       -0.008943328 0.111824326 0.097944856 -0.03536526
0002e0 04 30 02 3c db 99 0b 3a b4 78 9e 3c f0 78 93 bd
       0.007946018 0.00053253555 0.019344665 -0.07200801
0002f0 d9 b1 03 3e 8c f8 c8 3d 6e 66 15 3d d3 ac 91 bd
       0.12860812 0.098130316 0.036474638 -0.07113042
000300 1e 26 ae bd 21 2b 6a bd 84 4f c1 bc 3a 1a 00 bd
       -0.08503364 -0.057170037 -0.023597486 -0.03127501
000310 95 94 0c 3e aa 59 db 3d c8 7a 10 be 1b ab 99 3d
       0.13728555 0.107104614 -0.14109337 0.07503339
000320 8e 31 c1 bd 94 a1 ab 3d fe 46 58 3d d9 40 b8 bb
       -0.0943328 0.08380428 0.05280208 -0.005622965
000330 da 33 aa 3d d2 62 55 3d fa 5b fb 3c 52 a4 49 3d
       0.08310671 0.052096196 0.030683506 0.049228974
000340 72 10 a8 3d 48 70 94 bc 5b 77 b9 bc 3f d6 62 3d
       0.08206262 -0.018119946 -0.022639921 0.055380102
000350 c6 69 bc 3d 01 bf bb 3d 88 52 e5 bc 79 01 32 bd
       0.09199862 0.091672905 -0.027993456 -0.043458436
000360 6a 3a c4 3d 52 83 6b bc 3d 6b 16 be 5c 43 f0 3c
       0.09581454 -0.014374571 -0.14689346 0.029328994
000370 18 21 bd 3c 8d bb 64 bc 5b 23 47 3c 76 32 79 3d
       0.02308707 -0.013960731 0.0121544255 0.06083914
000380 dd ba 91 3c 7b 3b b5 bd e5 d7 e8 3a b8 a0 3f 3d
       0.017789299 -0.088492356 0.0017764537 0.046784133
000390 0d 8b 10 bd 15 fe 9d bd 18 85 e8 bd 0a 88 5e 3d
       -0.03528886 -0.07714478 -0.113535106 0.054328956
0003a0 52 15 f8 3d 16 ce 23 be 83 a3 d9 bd 6c a6 cb 3d
       0.121134415 -0.15996584 -0.106268905 0.09943852
0003b0 e6 25 22 bd 4f 18 86 bd b0 16 c6 3d 0f ee cf bd
       -0.039586924 -0.06547605 0.09672296 -0.10152828
0003c0 fe 9b 91 3c da 98 27 3d b8 f3 18 be 14 7f cd bc
       0.017774578 0.040917255 -0.14936721 -0.02508501
0003d0 f2 00 13 3e 21 71 b9 bd 77 de a7 bc 39 75 8a bd
       0.1435583 -0.09054781 -0.020491822 -0.0676064
0003e0 33 4a de 3c ce d3 57 bd ce 34 1d b9 b5 90 96 bd
       0.02713499 -0.052692227 -0.00014992358 -0.073518194
0003f0 db 3c 90 bd d4 8b b2 bd 71 c5 96 bd 65 70 89 bc
       -0.07042857 -0.08718076 -0.07361878 -0.016777227

static_ll.0.bias f4 [128]
000000 95 96 e6 3d df 22 ba bd 2b 28 80 3c 73 ed 69 bd
       0.1125919 -0.090886824 0.015644154 -0.057111215
000010 94 94 e1 3d 6d c0 ab 3d 2d 75 98 bd 7e 24 ec 3d
       0.11014667 0.08386312 -0.074442245 0.11530398
000020 b0 ca 9f 3c 92 b0 0d 3e fb 0f 0d 3e f1 85 5e bd
       0.019505829 0.13836887 0.13775627 -0.054326955
000030 bc 54 de bc 5e 86 c0 3d f3 95 82 3c 27 24 f0 3d
       -0.027140014 0.094006285 0.015940642 0.117256455
000040 fd 3b fe 3d 82 b1 9f bd 80 29 f0 3c 5d 9e 9a 3d
       0.124137856 -0.07797529 0.029316664 0.07549737
000050 53 04 c4 3d cd 74 d1 3b 10 90 97 3d fb aa 15 3e
       0.09571137 0.0063920976 0.074005246 0.14616005
000060 63 95 ee 3d 3e 72 d1 3d 91 cf 50 bd e4 49 ac bd
       0.11649587 0.10226868 -0.0509792 -0.08412531
000070 b4 02 89 bd aa 8c e9 3d d7 b9 c9 bc b2 9e 8b bd
       -0.06689969 0.11403783 -0.024624748 -0.06817378
000080 a4 de af ba 4b 18 a8 3d 9e f4 ec 3d 57 34 a5 bd
       -0.0013417793 0.082077585 0.115700945 -0.08066624
000090 71 29 fe 3d 94 a0 de 3d e2 e6 19 3c 33 5a 77 3d
       0.12410248 0.108704716 0.009393426 0.060388755
0000a0 16 be 11 3c 15 3d cd bc 61 f5 a6 bc 67 aa a2 bd
       0.008895418 -0.02505354 -0.020380678 -0.07942658
0000b0 3c b7 33 3b 3e c5 00 bd 7b c6 69 bd 0d ea 46 bd
       0.0027422449 -0.031438105 -0.05707405 -0.048563052
0000c0 b8 3a de bc fa 32 e4 3d 48 25 e6 3d a7 d0 cb 3c
       -0.027127609 0.111425355 0.112375796 0.024879767
0000d0 53 ab 0e 3d 85 14 0c 3e f5 f8 00 bd d1 30 8e 3d
       0.034831356 0.13679703 -0.031487424 0.06942905
0000e0 9d 56 0f 3e d9 6e cd 3d 1f 43 e2 bd 7b 93 a2 bd
       0.13997884 0.10030908 -0.110479586 -0.07938286
0000f0 c1 53 d7 bc 9f dd d6 3d 05 b2 66 bd 8c ad 97 bd
       -0.026285054 0.104914896 -0.056322116 -0.07406148
000100 08 6a 5c bd 1f 3b 31 bd 11 f0 38 3d 72 b9 8b bd
       -0.053812057 -0.043269273 0.04515082 -0.0682248
000110 1b fb 9c bb 77 d7 8e bc 54 62 50 3d 12 81 98 3d
       -0.0047906763 -0.017436726 0.050875023 0.07446493
000120 c2 ed 12 bc 0e de e8 bc f4 5b 6e bd ba 0a 6a 3c
       -0.008967819 -0.028426196 -0.058193162 0.014284784
000130 9d c7 37 3c b3 da a5 3c 04 b9 10 bd ed 66 d0 3b
       0.011217025 0.020245885 -0.035332695 0.006359926
000140 95 94 f5 3b 0b 0e bd 3d 4e 50 ad bd 57 32 27 3c
       0.007494519 0.09231194 -0.084625825 0.010204873
000150 d3 f2 90 bd 8d bf e6 bb a8 91 90 bd d5 c3 2a 3d
       -0.07077565 -0.0070418776 -0.07059032 0.041690666
000160 96 70 21 3e 0f 64 97 bd a0 48 cb 3d f4 82 0f bd
       0.15765604 -0.073921315 0.099259615 -0.035036996
000170 08 64 cb bd 2d 03 ec 3c bb 35 71 bc 7a c8 c1 bb
       -0.09931189 0.028810108 -0.014722283 -0.0059137912
000180 d4 87 88 bd d5 58 97 3d 6c fe e0 3b 92 fe 5f bb
       -0.06666532 0.0738999 0.006866267 -0.0034178835
000190 f7 94 f0 3d 0c e7 8e bd f9 1c 70 3d 3c 69 51 bd
       0.11747163 -0.069776624 0.05862138 -0.05112575
0001a0 bb 93 a6 bd bf 37 37 bd 99 f7 f1 3d e0 8b d6 3d
       -0.08133646 -0.044730898 0.11814804 0.10475898
0001b0 4d d6 62 3d f0 61 23 3d 0e 69 37 3d 4f 92 94 bc
       0.055380154 0.039888322 0.044777922 -0.018136172
0001c0 97 aa f3 3d a8 71 a4 bd 7b 3f 7a 3d bd fe 13 bd
       0.11897772 -0.08029491 0.061095696 -0.03613161
0001d0 37 51 36 3d d5 56 7e 3d 18 2d 6c 3d 27 42 cf bd
       0.044511046 0.06209453 0.057660192 -0.101200394
0001e0 d0 08 93 3d 4a 5f 69 bc 95 39 d7 3d d7 86 7b bd
       0.07179415 -0.01424391 0.1050903 -0.06140789
0001f0 61 d1 8b 3d 09 e2 fc bd a8 eb fb 3d 08 9a b5 3c
       0.06827045 -0.123478 0.12300807 0.022168174

static_ll.2.weight f4 [64, 128]
000000 17 31 23 3d cc 08 93 bd 4a 1c 5a 3d 3e 77 7a 3d
       0.039841738 -0.07179412 0.053249635 0.061148874
000010 72 9c a3 3d 4c d3 67 3c 16 d8 5f bd f9 03 00 bd
       0.07988824 0.014149498 -0.054649435 -0.03125379
000020 57 a8 a7 bd 6d ec 57 3c a9 eb a7 bc 39 89 95 3b
       -0.08186405 0.013178927 -0.020498114 0.0045634774
000030 89 aa 9a bc c0 47 0c 3c ce db 2f 3d d4 f2 9c 3d
       -0.018880146 0.008562028 0.04293423 0.07663503
000040 25 63 4a 3d 69 5a 56 bd d9 b8 da bc 7a ad 5c bd
       0.049410958 -0.052332316 -0.02669947 -0.053876378
000050 2a 04 3b bd fc c9 91 3d 27 bb 4b 3d 60 b0 d9 3c
       -0.045658268 0.071186036 0.04973903 0.02657336
000060 33 f9 f3 ba 13 49 7e 3d a6 88 3d bd e1 62 3c bc
       -0.0018613696 0.062081408 -0.046272896 -0.011498184
000070 97 fd c7 3b 31 00 cc bb 2e 8a fb 3b 54 99 ad bd
       0.0061032283 -0.0062256088 0.0076763844 -0.08476511
000080 06 f3 ad 3d 67 d2 46 bd 43 53 84 bc c5 11 91 bd
       0.08493619 -0.0485405 -0.016152984 -0.070834674
000090 94 59 ce 3d df 7d 08 3d ee 56 a2 3a 62 c9 7a 3c
       0.100756794 0.033323165 0.0012385526 0.0153068025
0000a0 74 c2 2d bd 81 94 08 3d 02 d1 6a 3b 91 55 9c 3d
       -0.042421773 0.03334475 0.0035830145 0.07633508
0000b0 e1 f6 1b 3d 37 9c 87 bd af bb 51 3d 45 a1 63 3d
       0.03807724 -0.066215925 0.05120438 0.05557372
0000c0 de 56 28 3d 4a f1 0c bc f0 3c e0 bc c8 61 9b bd
       0.041098468 -0.00860245 -0.027372807 -0.0758701
0000d0 7b 47 62 bb e5 8d aa 3d 74 81 11 bd a9 35 a4 3d
       -0.003452747 0.083278455 -0.035523847 0.08018047
0000e0 20 02 f5 3c a9 e4 ba bd 72 82 6b bd 7d 5c 5f 3d
       0.02990824 -0.09125645 -0.05749745 0.054531563
0000f0 c1 27 c2 3d d6 e1 9b 3d d5 e1 c9 3b bf 39 9b bb
       0.09480239 0.07611434 0.0061609545 -0.0047371085
000100 c5 ce 82 3b 50 1f c4 bc ea 47 b2 3d 11 5f 2d bd
       0.003991934 -0.023940712 0.08705123 -0.04232699
000110 be df cf bc 48 c5 5d 3d 54 02 14 bb 1e 29 91 bd
       -0.025375243 0.05414322 -0.0022584395 -0.070879206
000120 75 f6 d8 3c db cb 8e 3c 8c 46 0d 3c 75 29 a3 bc
       0.026484707 0.01743119 0.008622777 -0.01991723
000130 c7 0e 8b bd 19 73 ef bc a3 ce 14 3d 95 cc 8c bc
       -0.06789928 -0.029229688 0.036329877 -0.017187396
000140 6d 0c f5 3c b2 72 90 3d 51 d0 1b 3d 2d 0d 39 3b
       0.029913152 0.070531264 0.038040463 0.0028236613
000150 38 c1 6f bc cf a4 5a bc f5 9a 97 bd 2a 54 40 3b
       -0.014633469 -0.0133449575 -0.074026026 0.002934704
000160 20 7a 26 38 b6 12 3f bd ed c5 90 bd d3 f0 88 bd
       3.9691222e-05 -0.046648704 -0.07069001 -0.066865586
000170 87 61 51 3d 92 2e 86 3d 8a cb 28 bd 4d 21 93 bd
       0.0511184 0.06551851 -0.041209735 -0.07184086
000180 86 f4 d0 3a 28 c3 e2 3c be 4c 84 3d ed 75 9d 3d
       0.0015942014 0.027680948 0.0645995 0.07688508
000190 e5 4c a9 3c 90 e6 5c 3d 1f 64 2a 3d e5 e9 ac 3d
       0.020666549 0.05393082 0.04159939 0.08443049
0001a0 d5 e6 31 3d cd 98 46 bd a7 1a 9e 3d 4a 50 17 3d
       0.04343303 -0.048485566 0.07719927 0.036941804
0001b0 0d f4 81 3c f1 53 8f 3d 39 26 00 bd ba d2 65 bd
       0.015863443 0.069984324 -0.031286452 -0.056109168
0001c0 fb 91 11 bc cb e7 48 3d 69 9d e2 bc 67 bd a7 3d
       -0.008884902 0.04904918 -0.02766295 0.081904225
0001d0 81 52 cb 3d e0 f3 12 3c 99 c1 20 bc db 38 c9 bc
       0.09927846 0.008969277 -0.009811782 -0.024563244
0001e0 d0 e2 0e bd 6f 96 3c 3d c1 cb a8 3d a5 11 71 bd
       -0.034884274 0.046041902 0.08241988 -0.058854718
0001f0 69 68 c6 3c a4 55 0f 3c b8 2d bd 3d f0 df 1e 3d
       0.024219709 0.008748446 0.09237236 0.038787782
000200 89 c9 31 3d 92 9e 20 bd 2e dd be 3c 9e 53 2f bc
       0.04340509 -0.039213724 0.023298826 -0.010701088
000210 68 77 31 3d 34 6d 89 bd e5 fd 50 3d 74 29 97 3d
       0.043326765 -0.06710282 0.051023383 0.073809534
000220 bd e7 78 3c c1 fa a6 bc 6d 2e 56 3d b8 5c fa 3d
       0.015191969 -0.02038324 0.05229037 0.12224716
000230 2d 9a 24 3b 9b 2c 45 3d 19 e5 a9 bc f5 8e a0 3d
       0.002511631 0.048138242 -0.020739125 0.07839767
000240 ba 32 c7 bc d2 3f 69 bc ae b5 83 3d 08 bd 4f 3d
       -0.02431618 -0.014236407 0.06431137 0.050717384
000250 e2 06 6d bd b5 37 8b 3d 02 1e 78 3d bd df 4f bd
       -0.057867892 0.06797735 0.060575493 -0.050750483
000260 8f b3 0f 3c 87 77 29 3d f2 32 02 3d d5 48 5b 3d
       0.008770837 0.041373756 0.031786866 0.053536255
000270 c5 02 9c bd 8a ae b1 3d 27 81 c1 3c 92 3c 85 3d
       -0.07617716 0.08675869 0.023621155 0.065056935
000280 72 51 92 bc 2e 21 62 3c 86 4d 9a 3c e5 0d 3c 3d
       -0.017861102 0.013801856 0.018835794 0.04591169
000290 ec 53 72 3d f1 10 77 3d a1 74 7d 3c ac 0f 98 3d
       0.059162065 0.06031889 0.015469701 0.07424864
0002a0 3f 06 35 3d 99 f6 0d bd e5 4e 7c 3c 79 a5 94 bd
       0.04419541 -0.034659002 0.015399669 -0.07258124
0002b0 61 7f 5a 3d 2a dd 58 3d ad 11 90 3d a3 8c a2 3d
       0.053344134 0.052945293 0.070346214 0.079369806
0002c0 23 41 ca bd 53 eb ea 3d c5 eb 6f 3d f0 97 02 3d
       -0.09875705 0.11470666 0.058574457 0.03188318
0002d0 96 ea 3d bd d5 5d 88 3d 70 62 0b 3d be 97 a2 bd
       -0.046366297 0.06658522 0.034029424 -0.07939099
0002e0 31 d1 01 3d 97 f5 f2 bd 21 22 a6 bd af 91 d9 3b
       0.03169364 -0.11863249 -0.08111978 0.0066396813
0002f0 34 42 f7 3d 63 ac d6 bc 07 6e 00 3d 59 cd 00 3c
       0.12073174 -0.026205247 0.03135493 0.007861459
000300 92 c0 ad 3c bd a8 db bc 82 6e bb 3d eb 5f f7 3c
       0.021209989 -0.02681386 0.09151937 0.030197104
000310 40 26 b4 bd 26 bf 3c bd 97 1e 82 3d 42 9c c2 bd
       -0.08796358 -0.04608073 0.06353491 -0.0950246
000320 a3 a5 a4 ba ea 39 06 bc b9 47 fc 3c 37 60 11 bc
       -0.0012561571 -0.008192519 0.030795919 -0.008873037
000330 c7 23 76 3c 89 32 37 bc a9 ee ef bc a8 53 bb 3d
       0.015023178 -0.011181482 -0.029288607 0.091468155
000340 d4 df e9 bc 43 e4 7c 3d ea 31 b1 bd c0 fc e2 3b
       -0.028549112 0.061741125 -0.086520985 0.006927103
000350 84 25 a5 bd 92 a5 1f 3d 5d 6c b3 3d f5 02 4e bd
       -0.08063796 0.03897626 0.08760903 -0.05029579
000360 77 b1 e4 3c 5a 8b d1 3d 30 1e 46 bd 39 3a 84 bd
       0.027916653 0.10231657 -0.048368633 -0.064564176
000370 a6 c4 84 3d d2 c7 96 3d 33 1d e9 3a 5b 4c c6 3d
       0.0648282 0.073623314 0.0017785191 0.096825324
000380 e4 bb b1 3d 4f ba a9 3d 67 79 c1 3d d6 1c 78 bc
       0.086784154 0.08287489 0.09446984 -0.015143594
000390 4e 05 24 3d 55 de 1c bd 0b 2a 56 39 83 50 2f 3c
       0.04004412 -0.03829797 0.00020424293 0.010700348
0003a0 cc df 2f bd 14 b4 0a 3d 2a 05 05 3d 88 a7 38 3d
       -0.04293804 0.033863142 0.032475628 0.045081645
0003b0 31 28 2f bd a4 d5 43 bd c6 c4 95 3b be 4b 7b bb
       -0.04276294 -0.047811165 0.0045705764 -0.0038344706
0003c0 7d e3 27 bd 22 10 a3 bd c6 1b 2e 3c 82 24 ea 3c
       -0.040988434 -0.079620615 0.010626739 0.028581861
0003d0 87 ec 89 bd 02 ba 9d 3d 8f 63 a3 3d 22 3c c7 bc
       -0.06734567 0.07701494 0.07977974 -0.024320666
0003e0 d5 74 82 bd 13 b4 c2 bc 23 c0 8f bd 6c 91 c8 bb
       -0.0636994 -0.023767507 -0.07019069 -0.0061208513
0003f0 54 dd b6 bc 8a b5 83 3a 40 d0 11 bc e8 82 2e bd
       -0.022322334 0.001004861 -0.008899748 -0.04260531

static_ll.2.bias f4 [64]
000000 58 0a 60 3d b4 05 24 3d 0d cc a4 bc 28 be 64 bd
       0.054697365 0.0400445 -0.02011683 -0.05584541
000010 4a 30 08 bd 5e a5 14 3d 04 fd f5 3c a5 12 22 bc
       -0.033249177 0.03629052 0.030027874 -0.0098921405
000020 ec fd 2d 3d 6b 07 79 bd ea 50 a5 3d 86 ed e7 bc
       0.042478487 -0.06079809 0.08072074 -0.028311502
000030 a7 cb 52 bc 3c f8 88 3c 8a c2 9d 3d 7d 82 cc 3d
       -0.012865937 0.01671993 0.07703121 0.09985826
000040 aa 05 a7 bd be 00 a0 3c fd 28 b4 3d 31 cd 84 bd
       -0.08155377 0.019531604 0.087968804 -0.0648445
000050 a1 95 03 bd 03 41 63 bb 9a ca 6e 3d 77 20 a8 3d
       -0.03212512 -0.0034676201 0.058298685 0.08209317
000060 35 46 0f bd bd ab b3 3d 17 25 65 3d 85 d0 d2 bc
       -0.034979064 0.08772991 0.055943575 -0.025734195
000070 f6 e7 92 3c 19 1f 82 3c 31 27 7d 3d bc e5 9a 3c
       0.017932873 0.01588397 0.061804954 0.018908374
000080 9b 32 31 bd 20 64 8f bd ae 80 bc 3d eb 59 46 3b
       -0.04326115 -0.07001519 0.09204231 0.0030265998
000090 f7 74 3b 3d 9a ce 44 bd 09 93 95 bc d3 4c bb 3c
       0.045765843 -0.048048593 -0.018258588 0.022863781
0000a0 a7 1c ff 3c b3 e8 7d 3d f3 23 59 bc 9b 2c b3 3c
       0.031141592 0.061989497 -0.0132532 0.021871855
0000b0 29 8c 0c bc a4 87 98 3d bf 86 b8 bc 3b 3d 01 3c
       -0.008578339 0.074477464 -0.02252519 0.007888134
0000c0 10 15 2e 3d 99 48 58 3c 51 87 f1 3c 2b 4f bf 3c
       0.042500556 0.013200902 0.02948347 0.02335318
0000d0 a8 14 27 bd 02 be 84 3d dc db 9c 3d b4 e1 63 3d
       -0.040791184 0.064815536 0.07659122 0.05563517
0000e0 6b 53 db bc aa d6 b3 3d 27 77 0a bd 30 af c8 3d
       -0.026773175 0.08781178 -0.03380504 0.09799039
0000f0 52 3a 9e 3d fc c8 f4 3c c7 08 41 bd a7 97 ca 3d
       0.077259675 0.029880993 -0.04712751 0.09892207

glu_encoder.rnn.weight_ih_l0 f4 [48, 2]
000000 b1 22 32 3e a6 4a 22 be 2b 6b 0e 3e 7b c7 e7 bd
       0.17396046 -0.15848789 0.13908069 -0.11317345
000010 ab 54 3c 3e 1e 02 3a 3e 56 8c aa bd c8 1f 31 be
       0.18391673 0.1816487 -0.08327548 -0.1729728
000020 f1 d5 22 be e9 ec 53 3e d2 98 85 3e bf 8d 1f 3e
       -0.15901925 0.20695843 0.26093155 0.15581416
000030 16 71 42 be de ea b9 3c 89 b0 99 3e 4b 5b 98 be
       -0.18988451 0.022695001 0.30017498 -0.2975715
000040 44 98 e8 bd 40 43 5b be a8 b7 65 3e 20 ce 18 be
       -0.11357167 -0.21412373 0.2243334 -0.1492238
000050 41 b8 04 3e ab f5 86 3c 33 f0 f8 3d d8 20 5a 3e
       0.12960912 0.016474565 0.12155189 0.21301591
000060 c2 d4 71 3e f2 41 c6 bd d5 18 a6 3d ba 1b c4 3c
       0.23616317 -0.09680547 0.08110205 0.023939002
000070 34 49 f0 3c f7 9b 44 bd 8c 13 5d be 46 fc 62 bd
       0.029331781 -0.048000302 -0.21589488 -0.055416368
000080 a9 e0 64 3e 15 64 cd bd 6f 1a 36 3d 50 5b 6c 3e
       0.22351326 -0.10028855 0.044458803 0.23081708
000090 f2 91 42 be 30 cf 4d be 1c 26 7d bc 11 6d 6c 3e
       -0.19000986 -0.20098567 -0.0154509805 0.2308848
0000a0 42 5b e7 bd d3 4c 3d 3e 86 17 ee bd f6 ec 4d bd
       -0.11296703 0.18486337 -0.116255805 -0.05027481
0000b0 65 79 d1 bd a4 67 03 3e ae 6e 63 3e 70 f7 4a 3e
       -0.10228232 0.12832505 0.2221019 0.19820952
0000c0 af 7e 2d 3d ee b3 5f bd 75 09 af be 9a f2 85 3e
       0.042357143 -0.054614954 -0.34186903 0.26161653
0000d0 31 b6 9a be 71 a2 81 bb d7 0d 0b 3d f7 a5 57 bd
       -0.30217126 -0.003956132 0.033948746 -0.05264851
0000e0 28 47 56 3e 77 f0 41 bd 2d 7c 92 3d b4 31 12 bd
       0.20925581 -0.047348466 0.07152591 -0.03569193
0000f0 4c 98 69 3e 73 33 a5 bc 37 cc d4 bd b2 93 95 bd
       0.22812003 -0.020166134 -0.103905134 -0.07303561
000100 34 4e 0a 3e f9 06 dd bd f8 da 0f be 03 f4 1f 3e
       0.13506395 -0.107923456 -0.14048374 0.15620427
000110 a4 6c eb 3d 1b aa a4 3d f4 d7 82 3e 38 67 a6 bd
       0.11495331 0.080402575 0.25555384 -0.08125156
000120 99 ec df bd c0 b4 4e be 8b 0a 7d 3e b3 a2 5b be
       -0.10933799 -0.20186138 0.24711053 -0.21448784
000130 88 eb 2f 3e d4 5f 3a 3c 77 f6 e1 3d 50 7a 3e bd
       0.17179692 0.011375386 0.110333376 -0.046503365
000140 41 bc 10 3e 75 f6 cb bd 1f ff 7c 3e 66 c9 40 3e
       0.14134313 -0.09959117 0.24706696 0.18826827
000150 a4 19 04 3e 6b 57 79 3e 9d 28 62 bd 56 06 b7 bd
       0.12900406 0.24349754 -0.055214513 -0.08936755
000160 57 68 09 be 5e 85 c6 bd 63 10 7d be 1b b5 62 3e
       -0.13418709 -0.096934065 -0.24713282 0.22139399
000170 96 da 81 3e be 32 84 bd b8 0c 60 3d 79 5e 68 3e
       0.2536208 -0.06454991 0.05469963 0.22692288

glu_encoder.rnn.weight_hh_l0 f4 [48, 16]
000000 3e a2 45 be 1c 48 60 be 51 3a d4 bd ab 0e fe 3d
       -0.19300172 -0.21902508 -0.103626855 0.124051414
000010 58 6e e9 3d 24 13 ac bd fe 70 8b be 33 e9 39 3e
       0.113979995 -0.08402088 -0.27234644 0.18155365
000020 7e 89 3c 3d 4f bb 40 3e c5 76 47 be 62 d8 16 be
       0.04602956 0.18821453 -0.194789 -0.14730981
000030 e1 0c ed bc f8 56 f2 bd 35 40 f0 3d 6b 2f bd bd
       -0.028936805 -0.11832994 0.117309965 -0.0923756
000040 0b b4 03 3e d4 fc e1 bd 0b 0c 27 3e 01 57 6a be
       0.1286165 -0.11034551 0.16313188 -0.22884752
000050 7c ac 1e be cb 8c 6c 3e d6 11 04 3d da 5f 8c 3d
       -0.15495485 0.23100583 0.032243572 0.0685422
000060 c3 fc 60 be 81 9e 80 3e ab 24 42 bd ee b1 a8 3d
       -0.21971421 0.2512093 -0.04739825 0.082370624
000070 da db d6 3d 23 a1 11 be 2c 96 49 be 8b 5f dd 3d
       0.10491152 -0.14221625 -0.19686192 0.10809239
000080 9e 66 20 3e 6b 93 16 be 78 90 07 be fc 09 65 be
       0.15664145 -0.14704673 -0.13238704 -0.2236709
000090 e7 24 16 3d d1 cf 28 3d 66 54 3b be c1 b5 21 3e
       0.036656287 0.041213814 -0.18293914 0.1579199
0000a0 4d de 03 3e 14 f1 bf bd 93 64 a7 bd 79 80 24 3e
       0.1287777 -0.09372154 -0.0817348 0.16064633
0000b0 4b ef c2 bd 90 a7 27 3e 90 c6 4c be 90 61 31 3e
       -0.09518298 0.16372514 -0.1999762 0.17322373
0000c0 10 1a 1a 3e 1c 53 41 be 85 89 0d 3e c8 29 64 3e
       0.15049005 -0.1887936 0.13821991 0.22281563
0000d0 27 b4 04 3c 95 77 21 3e f1 75 44 3e 00 10 f8 3d
       0.008099592 0.15768273 0.19185616 0.12112427
0000e0 d0 e1 3e be 83 50 98 bd a5 de 17 be fc 10 18 be
       -0.18640828 -0.074372314 -0.14831026 -0.14850229
0000f0 33 c8 0f 3e f0 8a 05 3d 9e 55 2a 3c 30 8b 99 bc
       0.14041214 0.032603204 0.010396389 -0.018743128
000100 b1 09 ac bd 5c b5 d9 3b ae 16 2b 3d 06 f5 37 bd
       -0.08400286 0.006643934 0.041769676 -0.044911407
000110 12 4a 23 3d c6 57 a9 bd 6e 70 94 3e eb 69 00 3e
       0.03986556 -0.082686946 0.28992027 0.12540404
000120 fc e9 84 3c 0a 44 05 3e 62 8d 3f 3d c7 95 92 be
       0.016224854 0.13014236 0.046765693 -0.28629896
000130 de 57 92 be ee 6d d9 3d d4 72 ef 3c 95 a5 0b be
       -0.28582662 0.106166705 0.029229559 -0.13637383
000140 f6 be ab 3d eb 2b 42 3e f1 38 fb 3a 40 4f 2b 3d
       0.08386032 0.18962066 0.001916675 0.041823626
000150 a8 e5 2d 3c 66 71 01 bd 1d 83 30 bd 87 fc 47 3e
       0.010613836 -0.031602286 -0.04309379 0.19529925
000160 c0 19 63 3d 4e c5 6c 3e 3f 7b 2e be 28 0f 8e bd
       0.05544448 0.23122141 -0.17039202 -0.069364846
000170 9a e3 35 be 57 49 79 be 7b 8e 68 bd 09 b1 37 bd
       -0.17762604 -0.24344383 -0.056776505 -0.04484657
000180 31 6c 79 bd 49 08 1e 3e 92 82 19 3e 51 ff 72 3e
       -0.060894195 0.15432848 0.14991215 0.23730208
000190 0a c1 3a 3d 88 ba 6f 3e 32 e9 7e bd 6a ec 2e 3d
       0.045594253 0.23411 -0.06223411 0.04270593
0001a0 91 ee 5c 3e a6 5b da 3c 25 40 36 be 2e b1 39 3e
       0.21575381 0.02665503 -0.17797907 0.18133995
0001b0 c5 c5 1a 3e e5 ff 3a be 7a 70 d9 3d c5 e5 3c be
       0.15114506 -0.18261679 0.10617156 -0.18447025
0001c0 23 c9 c2 3d a5 e6 2f be 0d c3 c4 bc 07 54 b3 3d
       0.0951102 -0.17177828 -0.024018789 0.08756261
0001d0 29 78 65 be 70 dd 21 3e 96 ea 9e bd 52 bc 5c bd
       -0.22409119 0.15807128 -0.077595875 -0.053890534
0001e0 eb 20 1b be 84 c4 1b 3e 14 4c 90 3d 45 44 66 be
       -0.15149276 0.15211684 0.07045761 -0.2248698
0001f0 20 11 8f be 1a d3 89 be 6d 63 64 3e 50 4b 6b bd
       -0.27942753 -0.2691887 0.22303553 -0.05744487
000200 62 a0 4e 3b e2 c3 7a 3e c5 54 5d 3e 1b 85 4a be
       0.00315287 0.24488786 0.21614368 -0.19777338
000210 cd 43 1e be 39 d2 d5 3d 60 89 7c bd 34 1b 7e be
       -0.15455551 0.104404874 -0.06165445 -0.24815065
000220 9c ee 20 bd b3 e3 96 3d aa e4 d4 bd 40 6f 53 3e
       -0.039290056 0.07367649 -0.10395177 0.20647907
000230 bd 6a 4c be fe 1c a8 bd 26 a6 51 3e 47 75 a6 bd
       -0.19962592 -0.08208655 0.20473537 -0.08127838
000240 2a 51 7d 3e 2c 8d 60 bd a3 57 11 3e e2 39 5f be
       0.24737993 -0.054822132 0.14193587 -0.21799424
000250 38 26 28 be cd 3c 58 be ae bc f6 3c 75 59 10 3d
       -0.1642083 -0.21116944 0.030119266 0.035241563
000260 2e e4 2f be ec d2 22 be 6c 3b e2 bc 77 f3 3e bd
       -0.17176887 -0.15900773 -0.027616225 -0.046618905
000270 ea 21 dd 3c 28 87 81 3d 3e d7 33 3d 54 50 9f 3d
       0.02699371 0.06324607 0.043906443 0.07778993
000280 b4 2a 6b 3e 0d a2 bb bd 5c 31 75 be 5a 66 79 3d
       0.22965509 -0.09161768 -0.2394461 0.060888626
000290 86 db 55 3e 3e a6 e8 3d c3 32 7d 3d b7 f0 24 3e
       0.20884523 0.11359833 0.06181599 0.1610745
0002a0 da 68 e3 3c e6 45 79 bd 87 69 d3 bd fd d3 1e 3e
       0.027759958 -0.060857676 -0.10322862 0.15510555
0002b0 56 8e 31 bd 09 57 e1 3c 15 ff 0f 3e 1f cf bc bb
       -0.043348633 0.027507322 0.1406215 -0.0057619954
0002c0 6f 60 06 be bd b3 e4 3d c5 5c 37 3d 1a 82 19 3e
       -0.13122724 0.11167095 0.044766206 0.14991036
0002d0 73 36 8b 3d 67 10 a0 bc 19 dc 21 bd 6e fa d5 bd
       0.06797495 -0.019539071 -0.039516542 -0.10448156
0002e0 a7 77 8f bd 0c 10 0b be 87 0e 9f bd 29 da 3d 3d
       -0.07005244 -0.1358034 -0.07766443 0.046350632
0002f0 00 a1 68 3e dd 50 2e be 60 63 22 bd 3b 52 58 3e
       0.22717667 -0.17023034 -0.039645553 0.21125118
000300 c8 60 3c 3e 6a de ca 3d ad 15 14 be a9 e7 44 3e
       0.18396294 0.09905703 -0.14461394 0.19228996
000310 c5 ed 89 be 1f 17 70 bd b9 79 05 3e 40 72 10 3e
       -0.26939216 -0.0586158 0.13034715 0.14106083
000320 64 73 5a 3e 49 a0 bb bd 1f 68 28 be e9 d4 0f be
       0.2133308 -0.09161431 -0.16445969 -0.14046063
000330 7e fb 19 3d a4 1b 9a bd 13 9e 25 3d 6d b7 7f 3d
       0.037593357 -0.07524803 0.040433954 0.062430788
000340 5b 6d 8e 3d ab ee 14 3e 46 3c a7 3d c6 91 2f 3e
       0.06954452 0.1454417 0.08165793 0.17145452
000350 8a 61 c7 bd 65 df 1a be ac 9c 9f bd a2 12 b8 3c
       -0.09735401 -0.15124281 -0.07793555 0.022469822
000360 7f 50 1e 3e cd e1 21 3d 9a b6 ba 3d 45 83 b1 bd
       0.15460394 0.03952198 0.0911686 -0.08667616
000370 c0 8d ca 3c 54 33 85 3d 0a 97 10 be 85 ca 3c be
       0.024725795 0.06503931 -0.14120117 -0.1843663
000380 e8 df 8c 3e 86 80 2b 3e 04 4f 4b be 69 74 2f bd
       0.27514577 0.16748247 -0.19854361 -0.042835627
000390 ec a8 20 3c fb 97 2e 3e a8 75 df bd 47 cb bc bd
       0.009805899 0.17050163 -0.10911113 -0.092184596
0003a0 70 28 fe bd 15 c3 21 3e 08 e1 0d be 5b cc ef 3c
       -0.124100566 0.15797074 -0.13855374 0.029272249
0003b0 03 73 27 3e ca cb 00 3a 30 1d 90 3e 72 74 20 be
       0.16352467 0.00049131794 0.28147268 -0.1566942
0003c0 f3 ba 39 bc af 3f 4d 3d 5d be 8f 3d 04 dc 19 3e
       -0.011336076 0.05010956 0.07018731 0.15025336
0003d0 56 96 84 3e 8d 83 83 be b9 3a cc bb ab f0 27 3e
       0.25895947 -0.25686303 -0.006232586 0.16400401
0003e0 85 c5 54 3d 24 4e 4b be b4 53 00 be 7c 4d b3 bd
       0.05194618 -0.19854027 -0.1253193 -0.08755013
0003f0 c2 96 69 bd 8a 4b c0 bd 29 ea 99 bc fb 17 20 3d
       -0.05702854 -0.09389408 -0.018788414 0.03908537

glu_encoder.rnn.bias_ih_l0 f4 [48]
000000 4e 8a 34 3e a5 2e 3c be 14 1b 31 bd 1f a3 da 3c
       0.17630884 -0.18377168 -0.043238714 0.02668911
000010 c5 b8 3c be 1e a0 ac bd f5 14 25 3d 38 99 c9 bd
       -0.18429859 -0.084289774 0.04030319 -0.09843677
000020 29 b2 8d 3d be 88 97 3d 79 bd 27 bb 18 77 b3 bd
       0.06918747 0.073991284 -0.0025595112 -0.0876295
000030 bf f7 8a bd d3 84 b6 3d 1a 88 9c bd 96 4b 06 be
       -0.06785535 0.08912053 -0.07643147 -0.13114771
000040 6c ed 6f 3e 42 2b 50 be a8 b0 31 3e 0a 21 72 be
       0.23430413 -0.20329002 0.17352545 -0.23645416
000050 36 c2 48 3e 31 34 57 be 13 4a 51 3e d9 66 b9 bd
       0.19605336 -0.21016003 0.20438413 -0.0905282
000060 8f 12 9d 3c c5 72 16 3e e8 01 51 3d eb e9 50 3e
       0.019173888 0.14692219 0.05102721 0.20401733
000070 34 03 4f 3c 74 0c 33 3b 37 a0 e6 3d a8 c2 aa bc
       0.012635041 0.0027320655 0.11261027 -0.020844772
000080 24 22 70 3e 71 f8 48 3e d9 74 27 be 42 a2 3a be
       0.23450524 0.19626023 -0.16353168 -0.18225959
000090 fd c9 22 be 7b 6c 1a be 79 54 4b be 6b bb 21 be
       -0.15897365 -0.15080445 -0.19856443 -0.1579415
0000a0 52 60 8c bd eb 16 6f 3e 4c 29 10 3c 02 9d 02 be
       -0.06854309 0.23348586 0.008798908 -0.12755206
0000b0 fd 34 44 3d 9c fa 78 be d5 5b 75 bd 38 2b d7 bd
       0.047902096 -0.2431435 -0.05990203 -0.1050629

glu_encoder.rnn.bias_hh_l0 f4 [48]
000000 f0 5c 45 bd d5 60 85 3e a9 26 50 3e f4 0f 88 bd
       -0.048184335 0.2605044 0.20327248 -0.06643668
000010 a5 26 13 be 0b dd ce bc 94 26 46 be 34 bb 22 be
       -0.1437021 -0.025251886 -0.19350654 -0.15891725
000020 67 cb 8b bd f4 96 02 be 82 f7 da 3c 53 18 88 bc
       -0.06825905 -0.12752897 0.026729349 -0.016613161
000030 45 b3 7d 3e 55 59 3a be cc d4 8d 3d 53 03 c7 3d
       0.24775417 -0.1819814 0.069253534 0.09717431
000040 a6 c6 66 bd d6 ce 40 3e 81 00 79 3e f4 e2 38 3e
       -0.05634179 0.18828902 0.24316598 0.18055326
000050 b9 7f 57 be 39 ea 05 be 51 37 0d 3e f5 8f e7 3d
       -0.21044816 -0.1307763 0.13790633 0.113067545
000060 fd 27 e9 3d b9 98 93 be 76 57 12 3e d2 0f 4d 3e
       0.1138458 -0.28827456 0.14291176 0.20025566
000070 85 b2 34 3e ed c7 7b 3e 95 4b c6 3d 0c a2 84 3e
       0.17646225 0.24587984 0.09682385 0.25904882
000080 48 ce c5 3d b9 9e b3 3a f4 98 0c 3e 36 c0 e9 3d
       0.09658486 0.0013703919 0.13730222 0.114136145
000090 2e 26 76 be ba 64 ea bd 14 08 64 be 19 f2 14 3e
       -0.24038002 -0.11444993 -0.22268707 0.14545478
0000a0 c5 be 20 3e 68 2a a9 bd be 75 c2 bd a7 0a 38 be
       0.15697773 -0.082600415 -0.09495114 -0.17972814
0000b0 19 ab 92 be 2b 99 64 be e0 09 74 3d 37 54 35 be
       -0.28646162 -0.22324054 0.05957973 -0.17707907

glu_encoder.hid2lat.weight f4 [64, 16]
000000 63 45 7f be 9c 52 30 be 34 4e ad bd da ae 21 3e
       -0.24928813 -0.17219013 -0.08462182 0.15789357
000010 b2 69 10 3d cf 3d 20 3e bd 95 10 be 51 9c 4c 3d
       0.03525705 0.15648578 -0.1411962 0.049953762
000020 12 66 48 bd f3 60 6f be eb e7 08 be 39 d9 81 bd
       -0.048925467 -0.23376827 -0.1336972 -0.0634026
000030 ce 8d 50 3e 12 1c 2e be 24 22 33 be 28 a5 15 be
       0.20366594 -0.17002895 -0.17493492 -0.14613783
000040 ff e7 09 3e b8 da 19 3e 18 29 69 be 65 5a c4 3d
       0.13467406 0.15024841 -0.22769582 0.09587554
000050 2e 0f 74 3e d5 9b fb bb 9f e4 43 3d 9a 97 b1 bd
       0.23833916 -0.0076784887 0.047825452 -0.08671494
000060 80 02 23 3e c4 68 2b bd c8 d3 33 be 28 3d a4 bd
       0.15918922 -0.04184796 -0.17561257 -0.08019477
000070 4e e9 0e 3e f0 6a d1 3d 50 0e 4c be 04 95 9b bd
       0.13956186 0.10225475 -0.19927335 -0.07596782
000080 8d b7 e3 bd 62 86 8b bc 74 b7 ca bc 7b 46 83 3e
       -0.11118994 -0.017031852 -0.02474568 0.2563971
000090 53 be a1 bc e0 07 b7 3d 3a 0e 79 3e b4 4f 5e 3e
       -0.019744074 0.08937049 0.24321833 0.21710092
0000a0 af 6c 07 bd 32 15 80 3e 21 1c 45 be ee a4 9a 3c
       -0.033062633 0.2501617 -0.19249012 0.018877473
0000b0 20 61 b1 3d 14 f8 dc bd 71 b3 f4 3d d9 d7 47 be
       0.08661103 -0.10789505 0.11948288 -0.19515933
0000c0 eb b7 20 3e f5 00 e1 bd 63 26 70 3e dc 7f 91 3d
       0.15695159 -0.10986511 0.23452143 0.07104465
0000d0 31 c6 df bd 3e 37 35 3e da 06 a0 bb fa 6b 80 3e
       -0.10926474 0.17696854 -0.0048836293 0.2508238
0000e0 c3 ac 36 be 69 12 ba bd 13 b8 7a be a2 95 1a 3d
       -0.17839341 -0.09085543 -0.24484281 0.037740357
0000f0 ab 9a b5 3c 0b 39 b5 bd a6 bb b9 3c 04 d7 d3 bd
       0.022168478 -0.08848771 0.022672486 -0.10343745
000100 9b 08 63 3e 50 71 fa 3d 58 2c 56 be 5d 6b b2 3c
       0.22171251 0.12228644 -0.20915353 0.02177971
000110 e7 4a 44 3e e1 4a 55 3e 44 4f 4e 3e b2 f5 10 bd
       0.19169198 0.20829345 0.20147425 -0.035390563
000120 03 0b f0 3d 88 f6 bc bd ee b3 46 3e e4 11 93 be
       0.1172085 -0.092267096 0.19404575 -0.28724587
000130 78 84 5f be df 83 f7 bd 6a fa c8 bd 17 8c 5f 3e
       -0.21827877 -0.12085699 -0.09813388 0.21830784
000140 1a e0 f0 bd c7 74 31 be c9 0a 8a 3e d1 9f 7d 3e
       -0.11761494 -0.17329703 0.26961353 0.24767996
000150 f8 ec 26 3d 56 fa 5a 3e 7b 34 3c 3e 82 39 63 be
       0.040753335 0.21384558 0.18379395 -0.22189906
000160 25 cd 8a bd c0 27 0e 3e 02 ac f0 bd e6 ed 1c 3e
       -0.067774095 0.13882351 -0.11751558 0.15325126
000170 5c 8b b7 bc 70 f5 c4 bd 52 ad 04 be 84 22 ce 3d
       -0.022405319 -0.09617126 -0.12956741 0.10065177
000180 23 ca 19 3d b8 d5 15 be a2 3c 94 3d cb 92 49 3e
       0.03754629 -0.14632308 0.07238127 0.19684903
000190 ea 56 81 3d 41 11 35 be 6e bd 0f 3e 43 b6 4e 3e
       0.06315406 -0.17682363 0.14037105 0.20186715
0001a0 50 b3 d5 bd 66 04 10 3e 9d 37 7b 3d 79 7f ce 3d
       -0.10434592 0.14064178 0.061332334 0.10082907
0001b0 4e 3a bf bd e9 11 e2 bc c5 4a 17 be 35 5e 4c bd
       -0.093372926 -0.02759643 -0.14774616 -0.04989453
0001c0 02 f0 f5 bd 55 c9 d9 3d 9f 11 3b 3e 50 dd b9 bd
       -0.120086685 0.10634104 0.1826844 -0.09075415
0001d0 92 fd 01 bd b9 e5 20 be 96 10 d3 bd 60 a4 16 3d
       -0.031735964 -0.15712632 -0.10305898 0.036777854
0001e0 a0 e4 e2 bd 95 a7 ef bd f5 65 88 be fa b4 0f 3e
       -0.11078763 -0.117018856 -0.26640287 0.14033881
0001f0 8b 0c 4d 3e 9e b3 17 3e 52 6a fd 3d 96 fc 59 3e
       0.20024316 0.14814612 0.123737946 0.2128776
000200 87 67 3c 3d 62 7b b3 bd f9 64 1c be 94 48 65 3e
       0.04599717 -0.08763768 -0.15272893 0.22390968
000210 7b e9 27 3e 7c 06 45 be 91 87 3a be b1 32 43 be
       0.1639766 -0.19240755 -0.18215777 -0.19062306
000220 00 35 49 bd d8 b0 1a 3e 88 a7 39 3e b5 73 5e be
       -0.04912281 0.15106523 0.18130314 -0.21723826
000230 41 52 cd 3c af 4c 5b 3e 29 64 1d be 8d 8a 85 3d
       0.025063636 0.21415971 -0.1537024 0.06520567
000240 ca 7e 0e 3d 56 30 69 be ab 18 ca 3d 46 10 2e 3d
       0.034788884 -0.22772345 0.09867986 0.04249599
000250 f5 85 3f 3d c2 85 38 3e 79 66 ef bd 40 de ba 3d
       0.04675861 0.18019775 -0.11689467 0.09124422
000260 02 ef 1f be ce b7 ec bd 31 73 2a bd 8b 3d bd 3d
       -0.15618518 -0.115584955 -0.04161376 0.09240254
000270 8a 36 b6 bd 09 f1 a9 3d 91 95 b5 3d bb d1 29 3e
       -0.08897121 0.08297927 0.08866418 0.16583912
000280 fd a3 06 3e 8a b0 54 be a4 83 c6 3d a1 04 8e 3e
       0.13148494 -0.2077047 0.09693077 0.27737907
000290 9b e0 1c 3e c2 96 24 3e ab fd b2 3d 76 17 ae bc
       0.15320055 0.16073135 0.087397896 -0.021251421
0002a0 d7 2d 1d 3e 58 3c 8b bc a7 f7 07 be 89 dd 11 be
       0.15349518 -0.016996548 -0.13278066 -0.14244665
0002b0 44 d9 21 be 5c 8d 9b bc 10 3a 68 3e ba dd 72 bd
       -0.15805537 -0.018988304 0.22678399 -0.059293486
0002c0 a9 41 05 be 91 b4 15 be fb d2 3e be 86 bc 3e ba
       -0.13013329 -0.14619662 -0.1863517 -0.0007276017
0002d0 b3 ef eb 3d 47 71 5a bd 5f 8b 0c 3d b6 8d 00 be
       0.115203284 -0.053330686 0.034312602 -0.12554058
0002e0 cc 56 71 be 83 4e 56 3e 09 ea 05 3e 43 db 43 3d
       -0.23568267 0.20928387 0.13077559 0.047816526
0002f0 ee d2 7f be 74 ea 34 3d 19 79 7a be 27 f2 2d be
       -0.24982807 0.044168904 -0.24460258 -0.16986905
000300 46 37 5c 3d 91 93 ca bd 55 78 1d 3e 9d 1a 43 3e
       0.05376365 -0.09891427 0.15377934 0.19053121
000310 db 01 17 be 03 64 38 bd 26 75 68 bd 1a d3 25 3e
       -0.14746802 -0.045017254 -0.056752346 0.1619381
000320 50 15 87 3e 7f 55 5d 3e 88 c2 71 3d 01 13 35 3e
       0.26383448 0.21614645 0.05902341 0.1768303
000330 bf 98 17 3e d9 1a 6a be 50 a5 07 3e 9c 49 09 be
       0.14804362 -0.22861804 0.13246655 -0.13406986
000340 45 b3 ac bd 0a 2a 5c 3d 5d a2 9c bd 98 c5 4c be
       -0.084326304 0.05375103 -0.07648156 -0.19997251
000350 10 63 62 be 02 ce 28 be 88 f4 80 be 2f a3 22 3e
       -0.22108102 -0.16484836 -0.25186563 0.15882562
000360 4e 21 6a 3e 37 63 23 be b3 57 23 3e f6 4c 18 3e
       0.22864267 -0.15955816 0.15951423 0.14873108
000370 e6 81 ac bd cd ca 8f 3a 6d 94 58 be f2 a3 5e 3e
       -0.08423214 0.0010970474 -0.2115037 0.21742228
000380 79 7f 2d 3e ea ec 9e bd c7 f1 e0 3d 0f bc 93 3b
       0.16943158 -0.077600315 0.10983615 0.0045085023
000390 44 ad 25 3c cf c6 09 3e b1 5e 5d 3d 87 96 8f be
       0.0101121105 0.13454746 0.054045383 -0.2804453
0003a0 e7 57 89 be 14 40 f8 bc 3e 08 89 be eb 02 39 3d
       -0.26824877 -0.030303992 -0.267641 0.0451688
0003b0 2d 6b b8 3c 22 21 ff 3c 28 11 85 be ee b7 27 3e
       0.022512043 0.031143729 -0.25989652 0.16378757
0003c0 29 da 4e be 51 a8 ae 3d 91 89 dd bb 28 99 39 be
       -0.20200409 0.085281976 -0.006760784 -0.1812483
0003d0 cd 3f 3b 3d 40 99 59 3e 41 15 bd bc 54 cb ca 3d
       0.045715142 0.21249866 -0.023081424 0.09902063
0003e0 67 25 ef bd 9c 43 5e bc 3b 0a f2 3d 6e 05 39 be
       -0.11677056 -0.013565924 0.118183576 -0.18068478
0003f0 68 7f b5 bc 09 05 06 3c a3 f3 36 bc 0c a6 42 bd
       -0.022155479 0.008179911 -0.011166486 -0.047521636

glu_encoder.hid2lat.bias f4 [64]
000000 ed af c7 3c 92 a5 93 bd 39 4a 41 be 0d bb e9 3c
       0.02437588 -0.072093144 -0.1887597 0.028531576
000010 c9 7c 54 3d 81 22 1c 3d b0 b5 45 3e f3 96 b5 bd
       0.051876817 0.038118843 0.1930759 -0.08866682
000020 2f 3a a3 3c 88 92 07 3e 5a a4 7a 3e 72 a4 da 3d
       0.019925205 0.13239491 0.24476758 0.10675897
000030 54 86 88 3c 6a 5f 70 bb d4 46 41 bc 7e c9 48 be
       0.016665615 -0.0036677965 -0.011796672 -0.19608113
000040 52 ee 2c bd 9a a3 81 3d 83 1b e5 3b 22 38 63 3e
       -0.042219467 0.06330033 0.006991805 0.22189382
000050 26 c4 9c bd 02 5b 48 3e c7 a6 e7 3d d0 5c 9b 3d
       -0.076546 0.19565967 0.11311107 0.07586062
000060 80 a8 20 3e 31 a4 ae 3d d7 bd 87 3d 2d 65 bd 3c
       0.15689278 0.08527411 0.06628006 0.023119533
000070 90 cd 20 be 3f 33 5e 3e 0d b0 1e be 5c 62 21 bd
       -0.15703416 0.21699236 -0.15496846 -0.039400443
000080 86 4c 70 be 00 e8 86 be d5 59 3d 3e 5b 5d ea bd
       -0.23466691 -0.26348877 0.184913 -0.114435874
000090 32 39 6e 3e 11 91 53 bd 4d 7a 5a be 08 a6 e6 bd
       0.23264006 -0.051652018 -0.21335717 -0.11262137
0000a0 6b 01 23 bd 72 17 c7 3b 03 9a 0f 3e 2c 74 8e 3c
       -0.039796274 0.006075793 0.14023595 0.01738938
0000b0 0e 8c 8a 3e 64 4d 05 3e e9 72 df 3d 11 b1 50 3e
       0.27059978 0.13017803 0.10910589 0.20380045
0000c0 6e 46 29 be 4b d1 40 3c 1b 76 4c 3e 63 de 5c 3e
       -0.16530773 0.011768649 0.19966929 0.21569209
0000d0 6a 45 91 3c 78 35 ce bd 53 66 50 3d ac 31 70 bd
       0.017733295 -0.10068792 0.050878834 -0.05864112
0000e0 e1 f3 84 be a4 d8 46 be cb 8d 7e be 8e e1 59 bd
       -0.25967315 -0.1941858 -0.24858777 -0.05319362
0000f0 7c 0b 5c be 3c 9f d3 bc ec 23 1d 3d 2c 8e 3d 3e
       -0.21488756 -0.025832765 0.038364336 0.18511266
